nerf_models/creeping_monkey.pth (torch, 647588 bytes, 22 tensors)

weight f4 [128, 63]
000000 56 8b 8c 3d 55 9c 0b be 26 98 6e 3d 6c 41 1b 3d
       0.06862514 -0.13633855 0.05825057 0.037904188
000010 a2 f6 b8 3d 6b 1a 8c be 94 b5 06 3e b1 55 4e bd
       0.090314165 -0.27363905 0.13155204 -0.05037469
000020 bf f6 20 3e 33 78 fa bd 7f 63 c3 3b 96 f1 b3 bb
       0.15719126 -0.122299574 0.0059627886 -0.005491446
000030 91 b4 3c be 77 0e 64 3d 58 0d ba bd 9d 7f 74 3d
       -0.18428256 0.055677857 -0.09084576 0.059692014
000040 3c ab 54 be 1c 8a 17 3e 55 36 e8 3d 89 d0 c4 3c
       -0.20768446 0.14798778 0.11338488 0.024025219
000050 d2 82 85 be df f9 0c be d9 5b 7d 3d e2 b6 30 3e
       -0.2607637 -0.13767193 0.06185517 0.17257264
000060 4c 0c 9d bb ff 4a 0d 3d 3e 87 bb 3d 44 bf f2 bd
       -0.0047927257 0.03449535 0.09156655 -0.11852887
000070 17 cf b7 bd 35 0a b1 bd da 2a 8b bd cb e4 da 3d
       -0.08975046 -0.08644525 -0.06795283 0.1068817
000080 df 8c 3a 3e ea 33 7b be 26 69 80 3d 19 bc fb bd
       0.182178 -0.24531522 0.062700555 -0.12291736
000090 fb 66 9b bd e8 f1 79 be 2e 9e fd 3d 62 76 05 3e
       -0.07588001 -0.24408686 0.12383686 0.1303344
0000a0 23 fb 9b bd d6 29 88 3e d3 42 c3 be a9 a6 94 be
       -0.0761626 0.26594418 -0.3813692 -0.29033402
0000b0 a2 92 1c be 81 1b 55 3d a0 bb 3c be 60 55 db 3d
       -0.15290311 0.052028183 -0.18430948 0.10709643
0000c0 8d c9 71 be 7e 26 1e be 50 4f 71 bd ec 4b ca 3e
       -0.23612042 -0.15444371 -0.05891353 0.3951105
0000d0 4c 91 e6 be 78 57 09 bd 40 f9 83 bd b4 b8 6e be
       -0.45032728 -0.033530682 -0.06444025 -0.23312646
0000e0 f7 79 99 3e 29 bd eb 3d 50 7b 91 be e3 ea ec 3e
       0.29975864 0.11510689 -0.28414392 0.46272954
0000f0 f0 67 d5 be d3 ca 96 be 8e 4d 66 bd b3 91 d4 3d
       -0.4168086 -0.29451618 -0.056226306 0.103793524
000100 f8 73 56 bd 23 94 8b 3d ee a5 60 3d ad 6b 83 3d
       -0.05235669 0.06815364 0.054845743 0.06417022
000110 c5 01 e2 bd f5 03 0a 3e 3f e3 dc bd 4f e6 3b bc
       -0.11035494 0.13478072 -0.10785531 -0.011468484
000120 de 6b 1e be 54 19 09 be d7 21 84 be 1c ed 5b 3c
       -0.15470836 -0.13388568 -0.25807068 0.0134232305
000130 e9 73 6c 3d b6 4c 77 bd 9a b1 e6 3d ed a9 3c be
       0.057727728 -0.06037589 0.112643436 -0.18424197
000140 f6 bf eb bd f8 12 87 bd 12 7f b5 3d 7e 38 52 bd
       -0.11511223 -0.06595415 0.08862127 -0.051323406
000150 5a b6 d5 3c e7 98 a1 bd ee 7c 95 3c 0a 9a 08 be
       0.026087929 -0.07890492 0.018248048 -0.13340011
000160 9f 1c 7e bd 3c 92 a0 3d 92 f6 17 3e 31 03 4c 3e
       -0.062039014 0.07840392 0.14840153 0.19923092
000170 b1 cc 42 bd 3e 64 06 be bd 5a 3d 3e 5b a6 a1 3e
       -0.04755849 -0.13124177 0.18491645 0.31572232
000180 8a d9 00 be 24 60 75 be 15 67 40 3d 27 6e 46 3e
       -0.12582985 -0.23962456 0.046973307 0.19377957
000190 9b bb 08 3e f8 e5 dc bc 65 bf 17 bd f5 16 a4 be
       0.13352816 -0.026965126 -0.037047762 -0.32048765
0001a0 56 b8 26 bd b0 1d 58 3e 2e 99 91 bc 26 e1 00 be
       -0.04070314 0.21105075 -0.017773237 -0.12585887
0001b0 18 a5 ed bc 02 51 80 3d e8 6e 0a be c8 58 55 be
       -0.029009387 0.06265451 -0.1351887 -0.20834649
0001c0 09 3d b8 be d6 9a 54 3e 74 1d 8a 3e 5f 9b 8e be
       -0.35984066 0.2076219 0.26975596 -0.27852914
0001d0 6c ee fb bc 6f d3 5e 3e 42 8e ca 3e 21 e7 80 be
       -0.030753337 0.21760343 0.3956166 -0.25176337
0001e0 45 f1 c1 bd 80 5d c7 3d 4f 69 23 be cd a6 b5 3d
       -0.09469847 0.097346306 -0.15958141 0.08869705
0001f0 f8 eb a9 be 9a e1 fe bb 63 5c 8a 3d 86 3f 57 bc
       -0.33187842 -0.0077783586 0.067559026 -0.013137704
000200 95 db d9 3c c3 75 1e 3e 5c 90 ab 3c 6b f2 0d be
       0.026593963 0.1547461 0.02094286 -0.13862006
000210 cb f6 43 be 78 56 4a be 86 a8 11 be 65 16 37 3e
       -0.19137113 -0.19759548 -0.14224443 0.17879637
000220 33 57 74 3c 40 8f de 3b 31 d0 ed 3d 19 88 01 bd
       0.014913368 0.006791979 0.11611975 -0.031623933
000230 8e a1 59 be 0a 69 1b bc 7f 58 f9 bc 5e 9d df 3d
       -0.21253034 -0.0094854925 -0.030437706 0.10918687
000240 55 32 93 bd ed 99 92 3e ac 5a cc 3d d9 f0 60 3d
       -0.071873344 0.2863306 0.09978232 0.05491719
000250 5f ff 55 3c 52 21 a3 3d 64 89 88 be 87 87 78 3d
       0.0130613735 0.0796534 -0.2666732 0.060676124
000260 5c 4a b9 bd 23 60 69 3c f4 ec 11 bd c6 b4 1e 3d
       -0.09047386 0.014244112 -0.035626367 0.038746618
000270 ba 5f 94 3d 27 d1 9e 3e 21 20 80 3d 22 6e 84 bd
       0.07244821 0.31018946 0.06256128 -0.06466319
000280 59 43 d6 bd f2 79 96 be 8b 96 20 be 6a 44 0d 3d
       -0.10462064 -0.29389912 -0.15682428 0.034489073
000290 af b1 0a bd 7e 2f b9 be d2 e5 35 3e 9a 89 da 3c
       -0.03386086 -0.36169046 0.1776345 0.026676942
0002a0 68 12 c6 3e 8e 88 8a bd 62 70 b5 be f4 d9 ca 3d
       0.38685918 -0.06764327 -0.35437304 0.099048525
0002b0 c8 82 2b be 0d 8d a5 3e 80 2b a6 3e b2 dd f6 bd
       -0.16749108 0.32334176 0.32455063 -0.12054004
0002c0 7f 1b 53 3e 9a c5 18 bc e6 59 77 be b7 15 03 3e
       0.20615958 -0.009324456 -0.24155387 0.12801252
0002d0 be 3e a2 3e 39 0c 4f 3b 0f fe 8e bc f3 89 02 bd
       0.31688493 0.0031592979 -0.017455129 -0.03186984
0002e0 74 78 ce bd 87 8f 3a 3e 21 ef 30 be a4 93 c5 bc
       -0.10081568 0.18218814 -0.1727872 -0.024118252
0002f0 75 3d 4b 3e 29 91 03 3e 35 7c 88 bd 07 f3 ae bb
       0.19847663 0.12848343 -0.066643156 -0.0053390297
000300 64 77 fb bd 05 1c cf 3c b5 4b 01 3d b8 06 af bd
       -0.12278631 0.025281915 0.03156634 -0.085462034
000310 a6 68 40 be 28 c0 45 3e 76 de 25 3e 39 d5 b9 bc
       -0.1878992 0.19311583 0.16198143 -0.02268468
000320 5b fa b5 3d 36 ef 5d bd 4c 99 32 be 4f a7 8d 3d
       0.08885642 -0.054183207 -0.1744129 0.06916677
000330 ab bd 10 bd 74 ad e1 bd 14 7d 83 3e d1 b8 fb 3d
       -0.03533713 -0.11019412 0.25681365 0.1229111
000340 ab 49 29 3e c5 20 47 3e 61 3a 16 3e 99 0c af bb
       0.16532008 0.19446094 0.14670707 -0.005342078
000350 11 41 50 3e 0e 27 fc 3d 44 9b 61 bc 43 40 65 3e
       0.20337321 0.123121366 -0.013769928 0.22387795
000360 b8 39 be bd 71 4e 91 bd 58 46 a2 bd 27 43 db 3c
       -0.09288353 -0.0709504 -0.07923573 0.02676542
000370 66 3e 0e 3e 6b 02 33 3e ee 4d 34 be ab 7b 70 be
       0.1389099 0.17481391 -0.17607853 -0.23484676
000380 3c 75 3d be 9b 9e 28 3d 2c 87 23 be c8 34 96 bb
       -0.18501753 0.041166883 -0.15969533 -0.0045839287
000390 a5 14 98 3e 90 4c 11 3d 08 f3 76 3e 8a 97 71 be
       0.2970325 0.035473406 0.24116147 -0.23592964
0003a0 c5 5a 11 be f8 fa 52 be df 48 c7 be 94 51 0c 3d
       -0.14194782 -0.2060355 -0.38922784 0.034257486
0003b0 4d 4a 67 be b6 f3 8d 3c f8 35 90 3c f6 e7 22 bc
       -0.22586937 0.017328124 0.01760386 -0.009942999
0003c0 f3 74 b0 3e 74 c8 f9 3a df bc a5 3e 80 f0 7c 3e
       0.34464225 0.0019056932 0.3237066 0.24701118
0003d0 fa 0b ad 3d f1 05 71 be 61 63 81 3e 5c 72 02 3f
       0.0844955 -0.23537423 0.25271133 0.5095575
0003e0 f7 67 f3 bd 81 08 f2 3c fc f7 8e 3d b1 62 79 3e
       -0.11885064 0.02954507 0.06980893 0.24354054
0003f0 e6 39 6c 3d a1 ac b2 3d ae 6c 3f 3d 4f 07 29 be
       0.057672404 0.087243326 0.046734504 -0.16506694

bias f4 [128]
000000 b3 f6 34 be c3 74 11 be 20 68 37 3d f4 5b 2b be
       -0.17672233 -0.14204697 0.044777036 -0.16734296
000010 4a c9 00 be c5 03 2e be 63 3e 1e be 09 0b 21 be
       -0.12576786 -0.16993625 -0.15453486 -0.15726866
000020 8a 11 13 be 54 4e a7 be 93 ad 19 be 0b 47 3a be
       -0.1436216 -0.32676947 -0.1500762 -0.18191163
000030 e8 4a 92 bd f1 88 7f be e8 7d a7 be 00 04 e7 bd
       -0.071431935 -0.24954583 -0.32713246 -0.1128006
000040 26 95 96 be c2 3e 97 be 4c 65 1f be 7d a1 32 be
       -0.29410666 -0.29540068 -0.15565985 -0.17444415
000050 b6 38 46 be 62 18 17 be dc 08 0c be f6 dc 40 be
       -0.19357571 -0.14755395 -0.13675255 -0.1883429
000060 42 fd 92 be 6c ed 4d be 78 49 51 bd 62 2b 15 be
       -0.28708845 -0.201101 -0.051095456 -0.1456733
000070 2f 55 95 be 13 32 3c be b4 4c 15 be fb f7 05 be
       -0.29166552 -0.18378477 -0.14580041 -0.13082878
000080 10 cd 1d be 77 58 1c be c9 e5 aa bd 59 81 de bc
       -0.15410256 -0.15268122 -0.08344609 -0.027161287
000090 43 22 b9 be f1 f5 37 be d2 51 6d be 99 86 ff bd
       -0.36158952 -0.17964913 -0.23175743 -0.12476844
0000a0 22 ce 88 be 02 9d 03 be e3 ae 73 be 8d 5d bc bd
       -0.26719767 -0.12852862 -0.23797183 -0.09197531
0000b0 db 35 4a bd 4d 41 82 be 7a c5 17 be 3e aa b1 be
       -0.049367767 -0.25440446 -0.14821425 -0.34700197
0000c0 c7 79 29 be ef 7d 91 be 2b 17 3a bd 5e d1 4e bd
       -0.1655036 -0.28416392 -0.04543225 -0.050492637
0000d0 dd 6e ce bd c2 98 3e be b5 3d 7c be 10 64 dc bd
       -0.10079739 -0.1861296 -0.24632914 -0.10761273
0000e0 69 19 89 be 48 2a d8 bd b8 18 96 be 8a bd 24 be
       -0.267772 -0.105549395 -0.29315734 -0.16087928
0000f0 bd 7f 7b bd 99 73 70 be c0 ab cb bd aa 34 4b be
       -0.061401118 -0.23481597 -0.09944868 -0.19844308
000100 c9 c1 23 be 18 3a d8 bc 3f d1 b5 bd 13 46 59 be
       -0.15991892 -0.026394889 -0.08877801 -0.21218137
000110 6d 0d fc 3c a5 aa 9b be 5b c2 15 be db 8c 46 be
       0.03076812 -0.3040363 -0.14624922 -0.1938967
000120 36 bb 81 be 84 79 a4 be 34 fa 3a be 7e e7 dc bd
       -0.25338143 -0.3212396 -0.18259507 -0.10786341
000130 63 f8 bc be 21 e7 1f be 20 38 7a b9 8d 52 67 be
       -0.36908254 -0.15615512 -0.00023862766 -0.22590084
000140 50 13 95 be bd 5a 9b be 46 ee 81 be 45 da d1 bd
       -0.29116297 -0.30342665 -0.253771 -0.1024671
000150 53 b8 9d bd 38 75 55 be 98 dc 73 be 6a fa 71 be
       -0.07701173 -0.20845497 -0.23814619 -0.23630682
000160 ad d5 68 be d0 15 a6 be 55 0b bd bd 1e 6f 49 be
       -0.22737761 -0.32438517 -0.09230677 -0.19671294
000170 79 74 6c bd 93 6d 8f bd f7 ef 57 be 4e 47 b4 be
       -0.057728264 -0.070033215 -0.21087633 -0.3521065
000180 b9 92 0a be 51 1a 66 be 33 27 1c be f9 9b be bd
       -0.13532533 -0.22470976 -0.15249328 -0.09307093
000190 10 5c 14 3d 07 bf 8e bd 71 ad 4d be fe 92 33 3d
       0.03622061 -0.06970029 -0.20085694 0.043841355
0001a0 ec 8f 8a be c6 dd bf bd 37 87 a3 be f4 6b 3e be
       -0.2706293 -0.09368472 -0.31939098 -0.18595868
0001b0 ae 1b 5d be 5a ca 3d be d9 47 7c be 8a 45 89 be
       -0.2159259 -0.18534222 -0.24636783 -0.26810867
0001c0 4f b1 88 be 5a f9 ec bd f0 66 60 bd f4 59 9c be
       -0.26697776 -0.115709975 -0.05478567 -0.3053738
0001d0 15 cb 5f be 17 07 8c be eb 7c 9a bd 57 ab cc bd
       -0.21854813 -0.2734916 -0.075433575 -0.09993618
0001e0 54 bf 38 be a1 e6 8e be 14 d4 74 bd 50 dd be bc
       -0.18041736 -0.2791033 -0.059772566 -0.02329889
0001f0 ae 12 4e be fd c1 53 be ef 60 6a be d3 ad 92 be
       -0.20124313 -0.2067947 -0.2288854 -0.28648242

weight f4 [128, 128]
000000 20 d9 dd 3d b7 72 14 be 13 88 cd ba 90 83 8f be
       0.10832429 -0.14496885 -0.0015680812 -0.28030062
000010 bc 49 08 bc 87 e2 14 bd 8e 29 38 be 6d 41 9f bd
       -0.008318361 -0.036348846 -0.17984602 -0.07776151
000020 fc 58 7e be 1c ca 85 bd 42 d3 18 3e b4 8f 81 be
       -0.24838632 -0.0653269 0.14924338 -0.2530495
000030 4d 4e 81 3e 94 be ac 3c a1 aa 38 b8 c1 bd 16 be
       0.2525505 0.021086968 -4.402793e-05 -0.14720823
000040 06 d6 1e be fb 0c 9b bd 31 ca b8 3d 26 61 07 be
       -0.15511331 -0.07570835 0.0902294 -0.13220653
000050 3c e3 8f 3e 7f b1 0c 3e 8a e7 74 3c 7d 34 24 bc
       0.28103054 0.13739584 0.014947781 -0.01002228
000060 91 be 8b be a8 c3 24 3e 91 f4 03 3d 0d e9 fa bd
       -0.27293828 0.16090262 0.03221566 -0.12251482
000070 5c 50 69 3d cf f6 4e bb 90 8d 8f 3d 60 cb 56 be
       0.056961402 -0.0031580215 0.07009423 -0.20976019
000080 38 f8 5d 3c c1 1e 77 3d bf 46 64 3d 90 3d 3e 3e
       0.0135479495 0.060332064 0.05573153 0.18578172
000090 a8 aa ce bd d4 97 d3 3c 46 7d 12 bd 01 b9 88 bd
       -0.10091144 0.025829233 -0.035764 -0.06675912
0000a0 8d c1 59 be 92 8f 86 bd 38 2e 91 3d a7 ef af bd
       -0.2126524 -0.065703526 0.07088894 -0.08590632
0000b0 0f ba 10 3e ca e3 0b 3d 03 65 9b bd 34 5a 00 be
       0.14133476 0.034152783 -0.07587626 -0.1253441
0000c0 e7 d3 12 bd ad ad d2 be d2 16 0b 3e 62 d9 90 bd
       -0.035846617 -0.4114813 0.13582924 -0.070727125
0000d0 c8 9e 1b be 9e e1 04 be 5c d3 e2 3d f1 1a 10 be
       -0.15197289 -0.12976691 0.1107547 -0.14072777
0000e0 0f 76 b0 be 87 86 a3 bd 1e f0 3c 3d dc 86 70 3d
       -0.34465072 -0.079846434 0.04612743 0.058722362
0000f0 cb 07 63 3c 61 0b fb 3d 8a b3 80 3c c7 b2 c9 3d
       0.013856838 0.1225803 0.01571061 0.09848552
000100 c8 dd 31 3d f6 66 8f bc 26 9b 87 3d 22 ae b7 bd
       0.043424398 -0.01750515 0.06621389 -0.0896876
000110 7c 9a 2b 3e d1 a7 85 be 55 ec df bd 48 43 21 3d
       0.1675815 -0.26104596 -0.10933749 0.039370805
000120 5a c7 16 3e 0c b7 8e bc 28 fe 33 bc f4 70 0b 3c
       0.14724484 -0.017421268 -0.010985889 0.008510817
000130 d4 5e 31 3e 53 69 c7 bd c8 fa 83 3d 6c cb 5d bd
       0.1732133 -0.09736886 0.06444317 -0.054149076
000140 ba 35 88 be c2 d9 4e 3e be 5c 86 bd 2f cb 44 be
       -0.2660349 0.20200256 -0.06560658 -0.19218133
000150 d8 b7 d8 3d bf eb 9b be 77 50 3d 3e 8f 26 25 be
       0.105819404 -0.30453297 0.18487726 -0.1612799
000160 55 af ac 3d 28 7a 38 3e 22 f2 f1 be b6 99 97 3c
       0.084318794 0.18015349 -0.47255045 0.018505912
000170 1b 89 c9 be 70 03 4a be 77 5e f7 3d f8 cb cb 3c
       -0.39362416 -0.19727874 0.120785646 0.024877533
000180 c6 d2 7d 3d dc 7d 34 bd 44 4e 0f be a9 07 85 3c
       0.061968587 -0.04406534 -0.139947 0.016239004
000190 46 05 c5 be b0 6f a7 be 79 c8 92 be 16 26 98 3d
       -0.38480586 -0.32702398 -0.28668573 0.07429139
0001a0 4f 49 45 3d af 1c 5f be e1 e0 94 bd 6c 44 dc bd
       0.048165616 -0.21788286 -0.07269455 -0.10755238
0001b0 e6 a9 8a 3e 00 57 b9 bd 12 1e 8d bd b8 c5 e3 3d
       0.27082747 -0.09049797 -0.06890501 0.11121696
0001c0 c3 06 99 bd 5f 1e 9e 3c ad 5a 68 b9 08 a8 0b 3e
       -0.07471993 0.019301591 -0.00022159024 0.13638318
0001d0 5f 02 b5 3c 85 42 af bd b4 d8 d1 3d d2 6a 8f 3e
       0.022095857 -0.085576095 0.10246411 0.28011185
0001e0 4d 21 18 3d 0b 02 dd bd 6a 6c 9f bd 36 4e 0a 3e
       0.037141133 -0.10791405 -0.0778435 0.13506398
0001f0 a2 1b a6 3d 77 8f 07 bd b8 10 f6 3d bd 35 a2 be
       0.08110739 -0.033095803 0.120149076 -0.31681624
000200 b0 dc 53 bd 29 c9 a9 bd 75 fc b8 be 23 f0 15 be
       -0.051724136 -0.082903214 -0.3613011 -0.14642386
000210 08 77 2e 3d 43 ec 88 3c 97 39 3e 3e 8f 07 3f be
       0.042593986 0.01671422 0.18576656 -0.18655227
000220 e5 51 d2 bd 7b 6c 1c be fe 71 cf bd ab 3f 4a be
       -0.102695264 -0.15275757 -0.10129164 -0.1975085
000230 52 90 7a bc 4e 88 d8 3d 23 aa 66 be 23 92 08 be
       -0.015293198 0.10572873 -0.2252584 -0.13336997
000240 c5 31 13 be fc 89 1b bd 1d e2 d5 bd 2d 02 b9 3b
       -0.14374454 -0.03797339 -0.10443518 0.0056460113
000250 2a c7 4d 3e 3e d0 e7 3d 89 ac 05 be 05 b2 31 be
       0.20095506 0.11319016 -0.13054098 -0.17353065
000260 4d df 3d 3a 67 59 ce 3d a7 28 3f bb c1 fc e6 3d
       0.0007243052 0.10075646 -0.0029168518 0.11278678
000270 aa ee 9d bd fd 44 c0 3d 38 66 63 be ad cc 28 3d
       -0.07711537 0.093881585 -0.22206962 0.04121082
000280 90 43 e4 3d da 42 2e bd bd 45 ff bc c6 33 cd bd
       0.11145699 -0.042544223 -0.031161183 -0.100196406
000290 d7 3e 28 3e 12 03 1e bd c4 cb c0 bd dc b0 1b 3d
       0.16430221 -0.038577147 -0.09413865 0.038010463
0002a0 05 e6 a0 bc cf 2f e3 3c cb 0e 6b be a6 31 dc be
       -0.019640932 0.027732758 -0.22954862 -0.4300663
0002b0 3d 37 34 bd 4f 4f e7 3d 97 b4 57 3c 53 2c a0 3d
       -0.04399799 0.11294424 0.013165615 0.07820954
0002c0 d5 34 d2 3d 75 f9 85 3d 45 c3 ab 3d a4 1a 12 bd
       0.10263983 0.06541721 0.08386854 -0.035669938
0002d0 99 9d 87 ba 68 dc 09 3e ed c5 9a 3d 5a 39 28 3d
       -0.001034665 0.13462985 0.075572826 0.04107032
0002e0 1e 84 3c bd d7 4b ec 3d a7 16 cf 3d 04 f5 f4 bd
       -0.046024434 0.11537903 0.101117425 -0.119607955
0002f0 30 c4 3e 3e 9e 4d aa 3d e0 62 11 be 2d d1 05 bc
       0.18629527 0.083155856 -0.14197874 -0.008167547
000300 48 f6 10 3e a6 c5 35 3e c2 35 a4 bc 2d 64 da bd
       0.14156449 0.17751178 -0.020045165 -0.10663638
000310 d3 47 d8 bd 3d 24 19 3e 73 38 a1 3d a7 d2 3a bd
       -0.105605744 0.1495523 0.07872095 -0.04561105
000320 a4 d1 11 3e 17 38 13 3e 54 e3 72 bc e1 ff 2a 3e
       0.14240128 0.14376865 -0.014824707 0.16699173
000330 c9 28 49 3d 9d 76 a8 be 8b 54 81 bd e5 ce 40 be
       0.04911116 -0.32902995 -0.063149534 -0.18828924
000340 3c ba 5a 3b 1c 42 14 be 9c 4d a8 3b 09 25 bd 3d
       0.0033375164 -0.14478344 0.005136205 0.092355795
000350 aa 40 49 be a9 84 9c be 14 9e 87 3d 88 cc c2 bb
       -0.19653574 -0.30569962 0.06621948 -0.005944792
000360 77 08 5c be a9 e8 1a 3e 9b 26 b2 bd 7d fe c2 3d
       -0.21487604 0.15127815 -0.0869877 0.09521196
000370 e2 f1 05 3e 7c 1f 1c bd db ea 19 bd 44 03 ec bb
       0.13080552 -0.038115963 -0.03757749 -0.0072025377
000380 66 7a db 3d c6 f9 40 3c f6 6a 23 3e da a0 13 3e
       0.10716705 0.011778301 0.15958771 0.14416829
000390 35 5d 62 be 13 db 00 be e0 8a 4c be 7c 97 a7 bc
       -0.22105868 -0.1258357 -0.19974852 -0.020457976
0003a0 63 a4 27 bd 99 ec e0 3d e1 e7 34 bc 81 f2 0e 3e
       -0.040928256 0.109826274 -0.011041612 0.13959695
0003b0 6e f4 c4 3d 89 85 6b be d4 84 30 3e 33 f1 8f 3b
       0.09616934 -0.23000158 0.1723817 0.004392767
0003c0 c3 1c 2b be fe f8 83 be bf fa a2 bd ac b3 ec 3d
       -0.1671019 -0.25775903 -0.07957982 0.11557707
0003d0 49 b3 a0 be 40 e9 b9 be fe 88 46 3b 74 d2 0f bd
       -0.31386784 -0.36310768 0.0030294056 -0.035112813
0003e0 53 1a a9 3d 57 ae c6 be 13 a6 16 3d d4 01 98 3c
       0.08256974 -0.38804886 0.036779474 0.01855556
0003f0 3d 4c 0e 3e be 40 3b 3c ca 70 8f bd 8b 52 a9 3d
       0.1389627 0.01142901 -0.07003935 0.08267697

bias f4 [128]
000000 c0 0e 49 bd fa a7 bf bd 8a bb 61 bc 73 d4 11 be
       -0.049086332 -0.09358211 -0.013777623 -0.14241199
000010 03 cb 28 bd 8e 94 8f 3c 13 b5 b2 bd 9b bd d2 3b
       -0.041209232 0.017526891 -0.087259434 0.006431294
000020 c4 4c 2b bd df fb a7 3d 86 06 1a 3b 69 58 70 3d
       -0.041821256 0.082023375 0.0023502423 0.058678064
000030 7e 18 b7 bc da 53 24 3d ce 0d 38 3d 9b ba 80 bc
       -0.022350546 0.04011903 0.04493504 -0.01571398
000040 ab 6c 1a bd 38 c0 90 bd d6 93 23 3d c8 57 6e bc
       -0.03770129 -0.07067913 0.03993591 -0.014547296
000050 65 f9 c7 bd 7b 13 30 3d 37 35 23 3d 6c 63 af bc
       -0.09764365 0.042987328 0.03984567 -0.021409713
000060 e4 e0 9d 3c 8e f9 af 3c 53 bc ee bd 62 bc 87 bc
       0.019272275 0.021481302 -0.11657014 -0.01656932
000070 b1 91 94 bd 28 68 8e bd 5e 03 ee bd 22 3d a0 3c
       -0.07254351 -0.0695346 -0.11621736 0.0195604
000080 4c bb f1 bb f1 c4 8b bc 09 c8 60 bb df 76 8a 3d
       -0.007377064 -0.017061682 -0.0034298918 0.06760954
000090 1a d5 ae bd 59 2e e0 bb 9d 2f 5d bd b7 64 9a bc
       -0.0853674 -0.0068414626 -0.054000486 -0.018846853
0000a0 19 19 81 bd 9d e1 16 3c 34 41 ac bd 57 4b c5 bd
       -0.06303615 0.009209064 -0.08410874 -0.096335106
0000b0 54 39 11 be 96 9d 8b 3c 0c 53 9f 3d b1 8b 03 bd
       -0.14182025 0.017042916 0.07779512 -0.032115642
0000c0 e4 46 66 3d 9b a6 7d bd 8d 08 11 be f1 3a 02 bd
       0.05621995 -0.061926465 -0.14163418 -0.031794492
0000d0 bd 28 20 bd 75 88 a1 bc cc 5e 90 bc 7a 01 c9 bd
       -0.03910135 -0.019718388 -0.017623328 -0.09814735
0000e0 49 ff d1 bb 0d 4f 38 bd 4b 4d 51 3d a4 b7 27 3d
       -0.006408606 -0.044997264 0.051099103 0.040946618
0000f0 f8 ea 27 bd 59 4d 47 bc cf 29 2b bc 36 0c dc 3d
       -0.040995568 -0.012164437 -0.01044698 0.107445166
000100 be 46 fa bd b6 2c a3 3c 32 8a d6 bd 09 fb a6 bd
       -0.12220524 0.01991878 -0.104755774 -0.0815335
000110 af 13 67 bd 2d 0e 73 bd 3f d9 27 3d c6 6f 6e 3d
       -0.056415256 -0.05933969 0.040978666 0.058212064
000120 f9 43 67 bd c3 8f 4b bd 47 75 2a bd 8b 43 64 bd
       -0.05646131 -0.04969765 -0.04161575 -0.055728476
000130 b1 d5 ec bb 87 9b b7 3c f7 b1 33 3d 74 40 7e bd
       -0.0072276224 0.022413028 0.043870892 -0.062073186
000140 de 5e dd 3c 4e 1b 14 be 31 c9 57 bd 21 bf 3b 3d
       0.027022775 -0.14463541 -0.052682105 0.04583657
000150 12 fa 74 3c bd 53 2c be 92 95 89 3c fc ca aa bc
       0.0149521995 -0.16828819 0.016794953 -0.020848744
000160 40 09 fc bd ed 70 4e 3d 3b d3 b8 bd af 5b 22 be
       -0.12306452 0.050400663 -0.09024664 -0.15855287
000170 33 ac 3e 3d 37 73 80 3b 95 85 f2 bd db 89 0c be
       0.04655094 0.0039199847 -0.11841885 -0.13724463
000180 f1 40 4b bd 43 c4 92 bd bf 0f fb 3c 0a 05 12 3d
       -0.04962248 -0.0716634 0.030647157 0.035649337
000190 9b 13 d5 bc d1 96 9c bd 3b fd d9 3d 72 c6 5e bc
       -0.026010325 -0.076459534 0.10644003 -0.013597118
0001a0 5e d5 af bd f5 94 ba bd 88 6d 28 3d 91 fb 62 bd
       -0.085856184 -0.091104425 0.041120082 -0.055415694
0001b0 bd 5b a5 bd e2 a6 17 bb 45 ca c4 bd f3 83 4a bb
       -0.08074138 -0.0023140241 -0.09608892 -0.0030901402
0001c0 2a 9d 09 3d ee db da b9 96 10 94 3d dc 05 b5 bc
       0.03359715 -0.0004174406 0.07229726 -0.02209752
0001d0 18 28 8a bd 22 a5 52 bd 0e 58 f1 3d 35 b1 49 3d
       -0.067459285 -0.051427014 0.11784373 0.049241263
0001e0 bf 85 ab bd 97 cf c1 bd f4 a4 4b 3d 44 e1 9b bd
       -0.083751194 -0.09463423 0.04971786 -0.076113254
0001f0 af df 00 bd 03 75 b0 bd fa 52 0f bd 75 51 96 3d
       -0.03146332 -0.08616068 -0.034991242 0.073397554

weight f4 [128, 128]
000000 db a5 27 bd 86 a2 23 3e 79 08 0f be cc e2 a4 bd
       -0.040929656 0.15979967 -0.13968076 -0.080510706
000010 ba 34 84 be f6 ab 50 bc 7f 46 62 3d 86 9f 3d bf
       -0.25821477 -0.012736311 0.05524301 -0.7407154
000020 74 a3 ac 3d 5b e6 8c 3d 01 c7 22 be 2e 4a c3 3d
       0.08429614 0.06879874 -0.15896226 0.09535633
000030 5d bc bf 3d 3f 0e b2 bd ec 32 b1 3d a3 f7 53 be
       0.09362099 -0.086941235 0.08652291 -0.20699935
000040 1f 98 28 3e 20 ef da 3c a0 f2 85 be 5f 2d 65 bc
       0.1646428 0.026725352 -0.2616167 -0.013987868
000050 75 05 81 be c1 e0 0e 3e 1b 4d f9 bd d8 54 75 3e
       -0.25199476 0.13952924 -0.1217291 0.23958147
000060 e4 f5 b0 bd 07 0d 47 be b9 2a 1b bc 3c 3d 82 be
       -0.0864065 -0.19438563 -0.009470635 -0.25437343
000070 b9 40 69 bd 77 ba 3c 3e a8 2f c6 3c b0 9b 5c bd
       -0.05694649 0.18430506 0.024192646 -0.053859413
000080 74 58 2c 3e 06 63 22 3d d2 1c 48 bb 8d ab 04 be
       0.16830617 0.039645217 -0.0030534756 -0.12956066
000090 60 8b b4 bb 02 c6 dc 3c 78 c6 23 be 98 1e c2 bb
       -0.005509779 0.026949886 -0.15993679 -0.005924057
0000a0 34 79 56 3e c6 5c 72 be a2 3e 27 bd ec c0 1f be
       0.20944673 -0.23668203 -0.040831216 -0.15600938
0000b0 68 4b 27 be 85 8b 7f bd 93 31 94 bd 35 3d 97 be
       -0.16337359 -0.062388916 -0.07236018 -0.29538885
0000c0 3f ab 2c 3d 86 83 33 be d3 c9 d7 3d 52 5a 84 bd
       0.0421555 -0.17530641 0.10536542 -0.0646254
0000d0 b7 ad 9f 3c 86 d8 9d bd b6 d3 b0 3d 7b ce 20 be
       0.019492013 -0.07707314 0.08634131 -0.15703766
0000e0 c2 8b 08 3d 5d 85 d1 bd 0f 3c 0c be c6 a4 8c bd
       0.03333641 -0.10230515 -0.13694786 -0.068673655
0000f0 8f fe a4 bd e7 b7 8c 3d fb 78 01 be fb 16 94 3d
       -0.08056366 0.06871014 -0.12643807 0.07230946
000100 aa 02 46 b8 45 8e 55 3d 1c 95 35 be ba 23 25 bd
       -4.720936e-05 0.052137632 -0.17732662 -0.040317275
000110 0f 8f 8d 3d 22 bf 15 bd 9b 9c 88 3e 31 b2 66 be
       0.06912052 -0.03655923 0.2668198 -0.22528912
000120 78 2b 87 3e 56 ed ad be 2f ae 85 3c db 9e 3f be
       0.26400352 -0.33970135 0.016318409 -0.18712942
000130 70 36 b8 3d 1a 92 f5 3d b4 06 a8 bd e7 a9 af 3d
       0.08994758 0.11990757 -0.082044035 0.08577328
000140 a5 74 d7 bd b2 61 40 be c6 8a 02 be a2 f4 1c 3e
       -0.10520295 -0.18787268 -0.1274825 0.15327695
000150 5c e9 06 3d 2d 1e dc 3c 99 36 fa 3c 27 c9 8d bd
       0.032937393 0.026869858 0.030543612 -0.069231324
000160 da cb 0c 3b 2e 90 50 be 66 94 aa 3d fd 73 ae 3c
       0.002148381 -0.203675 0.08329086 0.021295542
000170 88 00 22 3e 6b 7f a9 be 5a 07 c6 bc 7d 09 22 be
       0.15820515 -0.33105025 -0.024173427 -0.15823932
000180 74 dc b9 bd 2a a9 cc bd c6 52 27 3d 75 b9 cc 3c
       -0.09075251 -0.09993203 0.040850423 0.024990777
000190 5f f5 a3 bc 5e 09 6b bd 4f de 0b bd b5 16 34 bd
       -0.020014463 -0.05738198 -0.034147557 -0.043966968
0001a0 3e b6 7e 3d 1e 6d 69 be 71 01 b0 3d 9b 31 7e be
       0.06218552 -0.22795531 0.08594025 -0.2482361
0001b0 de 33 6b 3c 68 b0 37 be 8b fd d4 bd 39 21 80 be
       0.014355628 -0.17938387 -0.10399922 -0.25025347
0001c0 69 50 fa bd 16 76 d7 bd af f1 e5 bb c3 d6 73 be
       -0.12222368 -0.1052057 -0.0070173363 -0.23812394
0001d0 1e 0b f3 bd 06 8a d6 3d 32 e6 ad 3d 73 4a 8a be
       -0.11867355 0.10475545 0.08491172 -0.27009925
0001e0 90 6d 3e be 2d fa 04 3e ef b5 5b 3c 02 5a 57 3e
       -0.18596482 0.1298606 0.013410076 0.21030429
0001f0 32 a3 91 bd 85 36 17 be b0 ba 7b be bf c3 6b 3d
       -0.07111205 -0.14766891 -0.24582934 0.057559725
000200 11 99 93 3c b5 c4 4e 3e 12 cc dc bc 84 6b 9c 3c
       0.018017324 0.20192225 -0.026952777 0.019094236
000210 e9 ae b6 bd a8 36 82 3e 66 95 a1 be 05 5e 86 bd
       -0.0892008 0.25432324 -0.31559294 -0.065609016
000220 72 33 04 3e e7 99 54 3e fc 62 cf bd 88 58 aa 3d
       0.1291025 0.20761834 -0.10126302 0.08317667
000230 88 52 a5 bc 0f db 35 be ae 08 7e 3d ea fc e9 bb
       -0.020180956 -0.17759345 0.062019996 -0.0071407454
000240 f4 9e 87 bd 5d f5 55 be 5e f6 57 3d 7e a8 0c be
       -0.06622115 -0.2089438 0.05272519 -0.1373615
000250 a4 65 1e 3d 98 b8 cb 3d ff 2c 13 3e f6 4c 05 be
       0.03867115 0.09947318 0.14372633 -0.1301764
000260 54 a5 c3 3b 5c f9 e1 bd b9 c0 55 bd c3 f2 07 be
       0.0059706364 -0.1103389 -0.052185748 -0.132762
000270 91 55 00 bf a5 45 6d be 83 1a 60 be 09 42 8a be
       -0.50130564 -0.23171099 -0.21885113 -0.27003506
000280 7b b0 14 bd 62 9f 64 bd 0a 2d 8e 3d ce b0 f6 bd
       -0.036301117 -0.05581606 0.06942184 -0.120454416
000290 fd 59 95 be 39 3e 82 be 76 2c 26 3e 0a ac 50 3b
       -0.29170218 -0.25438097 0.16227898 0.0031840825
0002a0 36 3b b3 ba e6 d3 0c bc 39 5c 90 be 8c d0 49 3d
       -0.0013674262 -0.008595442 -0.2819536 0.04927115
0002b0 1b 04 98 be bf 29 85 bd 45 77 5c 3e cd 9e fe 3a
       -0.29690632 -0.06502103 0.21529873 0.0019425988
0002c0 ab 23 ed 3c 12 3c bd ba 8a a7 e8 bc 5a 92 01 3e
       0.028947672 -0.0014437458 -0.028400201 0.12653485
0002d0 4e bb 80 3e ff a9 17 bc 9d 08 af bd 50 a4 90 bd
       0.25142902 -0.009256839 -0.08546565 -0.0706259
0002e0 0d cf 1d bb b6 3a 9b 3d 03 14 ba 3d c6 73 14 3e
       -0.002407971 0.075795576 0.09085848 0.14497289
0002f0 43 ea 45 be a3 dc 7d bb d1 4d 55 3e bd 81 d7 3d
       -0.19327645 -0.0038736246 0.20830466 0.105227925
000300 af a7 84 be ce 18 60 be 5b 9c 81 bd 63 6a 98 3d
       -0.25909182 -0.21884462 -0.063286506 0.07442167
000310 49 14 11 be 9e d6 8b bd 0c 52 c8 bb 49 be 9b bd
       -0.14167894 -0.06828044 -0.0061132964 -0.076046534
000320 71 1d 2d 3d fc 4a 89 be 2d 9d d7 bc 7d d8 90 3a
       0.042264406 -0.2681502 -0.026320064 0.0011050847
000330 ab b1 05 3e bf 4c 5d 3c 7d cd 54 3e 61 95 a8 3d
       0.13056056 0.013507067 0.20781513 0.08231617
000340 9c 92 71 be c4 0a 3a bd 27 51 7d 3e 52 f3 4d bd
       -0.23591083 -0.045420423 0.24737988 -0.050280876
000350 69 cb ce bd 77 50 a8 bd ba 2a 97 3d ed cf fe bd
       -0.10097391 -0.082184725 0.07381196 -0.124420024
000360 08 a5 40 3d 33 a0 c4 bd 25 23 37 bb 41 81 f6 bd
       0.047032386 -0.09600868 -0.0027944532 -0.12036372
000370 2c 16 ce be d1 7d 1c bd 7b 06 a0 bd 97 ec c4 3c
       -0.4025129 -0.038205925 -0.07813736 0.024038596
000380 24 4c c9 3c c5 64 85 3e df 13 27 3e 6e 0d 80 39
       0.02457244 0.26053444 0.16316174 0.00024424068
000390 d9 48 bc be 2c 36 33 bc 7b 00 57 3c b0 b0 68 be
       -0.36774328 -0.010938209 0.013122673 -0.22723651
0003a0 7b d2 68 be a0 d0 29 3e 3f ed c4 3d 77 aa e3 bc
       -0.22736542 0.1658349 0.096155636 -0.027791245
0003b0 14 57 f2 bd 3d 8e 04 be 18 63 a8 bd 92 91 b4 be
       -0.11833015 -0.12944885 -0.08222026 -0.3526731
0003c0 be 0c a2 3c 86 a4 27 3d 27 9b 08 be f3 34 1e 3e
       0.019781467 0.040928386 -0.13340436 0.15449886
0003d0 91 43 8e bd ce 8b 10 be 5c 75 45 3d 8c ca 60 bd
       -0.06946481 -0.14115831 0.048207626 -0.054880664
0003e0 e1 1a 48 be 52 82 9b bd ef f9 12 3e f8 bf 85 bd
       -0.19541503 -0.07593216 0.14353155 -0.06530756
0003f0 3c 0b 7d be 89 e8 aa bd 3c 17 2d 3e ba 95 11 bb
       -0.24711317 -0.08345134 0.16903394 -0.0022214488

bias f4 [128]
000000 9e 1e c0 3c 24 3c 6e 3d c3 fd 9a bd bf 2d 1c be
       0.0234521 0.058162823 -0.075679325 -0.15251826
000010 e3 34 6f 3d fb b6 54 be c4 b7 cf 3d f3 a1 7e bd
       0.058400046 -0.20772927 0.101424724 -0.062166166
000020 22 95 5f be 5a 05 1b 3c 99 27 e5 bd 1c 80 42 be
       -0.21834233 0.009461725 -0.11189193 -0.18994182
000030 5b 71 1a bd fa ea d1 bd b5 8e 20 bc 56 3d 81 be
       -0.03770576 -0.10249896 -0.009799649 -0.25242108
000040 26 c9 39 bc 0e 6f d4 bc 4e ea 8b 3d 44 ee 91 bd
       -0.011339461 -0.025931861 0.068317994 -0.07125524
000050 25 bd 12 be d7 e9 c9 bd ca b1 aa bd 84 50 6f bd
       -0.14329965 -0.098590545 -0.08334692 -0.058426395
000060 7d d6 13 3d 02 dd 2e bd 96 13 9a be 30 bc 05 be
       0.036093224 -0.04269124 -0.30093068 -0.13060069
000070 c0 59 24 be b9 f2 2a ba fc 2f bb 3d e5 b5 fa bd
       -0.16049862 -0.0006521154 0.09140012 -0.12241725
000080 e2 14 8c bc bb 34 c3 bd 1a 13 1b bd 04 f7 6a be
       -0.017099801 -0.09531542 -0.037860014 -0.22945791
000090 7f e3 88 bd b1 bd 1f 3b f5 75 a3 bd 09 7a eb bd
       -0.066840164 0.002437454 -0.07981483 -0.11497886
0000a0 40 b3 a9 bc 91 c2 8a 3c 89 b9 bb bd 8d eb 86 bc
       -0.020715356 0.01693848 -0.091662474 -0.016469741
0000b0 ed 3e 8d 3d 26 6e 98 3a 89 4d 39 be 57 8b a9 bc
       0.06896768 0.0011629506 -0.18095984 -0.020696325
0000c0 b6 8e 44 3d fb bc 5c bd be f6 99 bc 72 e4 ae 3d
       0.047987662 -0.053891163 -0.018794414 0.08539666
0000d0 01 d9 4e be c3 b4 20 be 21 06 f3 bd d9 74 ad 3d
       -0.20199968 -0.15693955 -0.11866403 0.084695525
0000e0 11 9b cc bc fc 30 27 be ba 61 12 be 86 1d 01 bc
       -0.024976285 -0.1632728 -0.14295092 -0.007880574
0000f0 e6 fc f5 bd 69 41 f6 3d 8f c6 a5 bd 12 3d da bd
       -0.12011127 0.12024195 -0.08094513 -0.106561795
000100 fa b5 be bd 7e a8 c1 3d f7 81 07 be 6e bc 39 be
       -0.09312053 0.094559655 -0.13233171 -0.18138286
000110 d9 0c d2 3c 66 d7 0a bd cc b6 74 3c 6d 5c 46 be
       0.025640892 -0.033896826 0.01493616 -0.19371195
000120 20 05 bc bd 88 56 60 bc be 66 64 3c 0d 5d 6e bd
       -0.09180665 -0.013692506 0.013940511 -0.05819421
000130 83 7c cd bc 3a da cf 3d a9 46 8f bd ad 01 17 be
       -0.025083786 0.10149045 -0.06995899 -0.14746733
000140 d5 81 f4 3d cd 1a 6b 3d 6b 61 b0 3c d7 7d 08 bd
       0.11938826 0.057398606 0.021530828 -0.033323135
000150 68 7b 54 3d 72 ad 7e bd bd e3 d3 bc bc d8 27 3d
       0.051875502 -0.06217713 -0.02586543 0.04097818
000160 7d 01 ef bd 4a ba 96 bc 80 20 03 3d d3 20 3a 3d
       -0.11670206 -0.018399376 0.032013416 0.04544146
000170 ba fb 2f bc 8a 14 0a be da 95 9a bd 74 cc 0c bd
       -0.010741169 -0.13484398 -0.07548113 -0.03437467
000180 2b b7 0f bc 12 1a 09 3c e2 81 9c 3c fd 84 07 bd
       -0.008771698 0.008368032 0.019104902 -0.033085812
000190 aa 36 17 bd b9 ef 26 3d 4f 26 eb 3c 74 b5 fa 3c
       -0.036917366 0.04075596 0.02870479 0.030604102
0001a0 1c 9e e1 3a 44 07 cd bd ae c8 cb 3d 95 dd 18 3d
       0.0017213258 -0.100111514 0.09950386 0.037320692
0001b0 77 18 d2 bd 9f 5f d7 bd 86 82 33 be 6a b9 f4 bd
       -0.102585725 -0.10516285 -0.1753026 -0.119494274
0001c0 04 44 4d 3d 08 41 b0 bd 0f 75 27 3d 6c c3 2b be
       0.050113693 -0.08606154 0.04088312 -0.16773766
0001d0 ce c3 98 3d 6f bf a1 3d 52 ca 09 bd 38 63 08 bd
       0.07459222 0.07897841 -0.033640213 -0.033297747
0001e0 a9 bf 7d be 04 e8 ec bd 14 44 12 bd 30 b0 95 3d
       -0.24780144 -0.11567691 -0.035709456 0.07308996
0001f0 d6 4f 3b be b6 9c 28 be d7 cc 41 bd 15 04 bb 3d
       -0.18292174 -0.1646603 -0.04731449 0.09131638

weight f4 [128, 128]
000000 cb 54 99 bd b8 d6 76 be 41 04 dd 3a 30 bc 78 be
       -0.07486876 -0.24105346 0.001686223 -0.24290538
000010 ed 04 23 3d 50 43 86 3d 4b 9f 8f bd a7 d9 1e be
       0.03979962 0.065558076 -0.070128046 -0.15512715
000020 21 5d 01 bf a0 ec 4d bd 31 2e b6 bd 87 db 03 be
       -0.5053273 -0.05027449 -0.08895529 -0.12876712
000030 46 31 23 bd 72 b5 c9 bd a7 a7 66 bc 18 98 03 be
       -0.039841913 -0.09849061 -0.014078057 -0.12850988
000040 4d 23 59 be c7 6b f6 bd f9 27 47 be a7 f9 a2 be
       -0.21204872 -0.12032276 -0.19448842 -0.31831095
000050 5e 32 e9 3d cc 85 d0 bd 4a 07 99 bd 3a 18 5f 3d
       0.1138656 -0.1018177 -0.074720934 0.054466464
000060 4a bf dc 3d c4 7f 20 3e db 4b 69 3d a1 fd 8a be
       0.10778673 0.15673739 0.056957107 -0.27146628
000070 8c 69 5e be 25 61 54 3e 6c 13 b1 bd 46 88 81 3e
       -0.2171995 0.20740183 -0.086462826 0.2529928
000080 c1 17 89 3c 3e f7 0a be 05 c4 fb 3d 06 f8 88 bd
       0.01673496 -0.13570878 0.12293247 -0.06687932
000090 31 dd da 3c ee 21 e9 bd e4 f5 60 3d ca eb 81 3d
       0.0267168 -0.11383425 0.054922 0.06343801
0000a0 6d a1 15 3e 46 09 50 3e 6f 5e a3 bd 63 7d 04 3d
       0.1461236 0.20316038 -0.07976996 0.03234614
0000b0 be 59 81 be 3e 11 4b 3d 11 9c a2 bd 3d 8c c3 3d
       -0.2526378 0.04957699 -0.079399236 0.09548233
0000c0 1b 79 bc bd 57 3e 4a 3d ba a0 71 be cb b0 41 be
       -0.092027865 0.04937586 -0.23596469 -0.18915097
0000d0 b3 9f 99 be 52 b8 28 be 4d 3f 97 be 2d 22 69 3e
       -0.30004653 -0.16476563 -0.29540482 0.22766943
0000e0 6d 65 a2 3d 4f 09 be bd 89 f8 73 bd 0e 0e 51 3d
       0.07929502 -0.09279119 -0.059563193 0.051038794
0000f0 7e 7b 71 bc 30 9c f5 3d 82 77 3d 3e 62 0a cb be
       -0.0147389155 0.11992681 0.1850262 -0.3965636
000100 63 17 77 3e 8d a9 8a bd e3 c9 c5 be 38 0d 2e bd
       0.24130015 -0.067706205 -0.3863059 -0.042493075
000110 92 f8 6b 3d 34 18 74 bd d6 90 19 be 42 35 ef 3c
       0.057610102 -0.059593394 -0.14996657 0.0292002
000120 8a 01 e6 bc f1 df 40 3d a4 b5 b9 3d 8c 09 98 bd
       -0.028076906 0.047088567 0.09067848 -0.07423696
000130 62 1e 94 be ee 36 b1 3d f9 04 15 be 1f 18 14 be
       -0.2892943 0.08653055 -0.14552678 -0.14462326
000140 ad 97 a2 3c cc 10 c7 bb 44 84 48 be 5c 6f fd 3b
       0.019847715 -0.0060750004 -0.19581705 0.0077342223
000150 13 60 89 3e da 23 2b bd 86 a5 39 bc f0 51 b7 bd
       0.2683111 -0.041782238 -0.011330968 -0.08951175
000160 98 fd f8 be c1 69 8f bd cd 92 40 bd ed b8 00 be
       -0.48630977 -0.07002593 -0.047015 -0.12570544
000170 89 5e ed 3d a8 77 f6 bd 0b 9d 0d 3e a5 af 03 be
       0.11590297 -0.12034541 0.13829438 -0.12859972
000180 c6 07 da 3d e8 dc 26 3d 78 9b a6 bd 54 a7 a0 bd
       0.10646014 0.040738016 -0.08135122 -0.07844415
000190 e9 85 26 bd 2f 10 d9 bc 74 d0 5b 3c eb b2 38 3c
       -0.04065505 -0.026496975 0.013416398 0.011273126
0001a0 5d 61 25 3e 33 b0 a6 bd 85 a3 0f 3d 2f 42 f3 3c
       0.16150422 -0.08139076 0.035068054 0.029694645
0001b0 cf d7 03 3d d8 6b c9 bd 79 b3 64 3e 99 76 33 be
       0.032188233 -0.09835023 0.22334088 -0.1752571
0001c0 18 5a aa 3d f2 8e 59 3e 2c 34 73 bd 7c 64 00 bc
       0.08317965 0.21245936 -0.059375927 -0.007836457
0001d0 53 d7 09 3e ac 48 41 3b 2b ae c5 3d 0a 49 3d bd
       0.13461046 0.0029492779 0.096523605 -0.046212234
0001e0 d9 44 94 3d 5b 46 26 3e 07 1c f3 3d a6 cf d3 3d
       0.07239694 0.16237776 0.1187058 0.1034234
0001f0 50 02 3c be 3c c2 24 be e1 61 07 be a6 35 a7 3d
       -0.18360257 -0.1608972 -0.13220932 0.081645295
000200 60 e5 03 3d f1 89 05 be 02 85 07 bd bb 50 5e bb
       0.03220117 -0.13040902 -0.03308583 -0.003392263
000210 78 df d9 bc ec 91 01 3d ab 18 c4 bd 94 9d 36 38
       -0.026595816 0.031633303 -0.095750175 4.3538937e-05
000220 06 1f b6 bc df d9 1f ba 26 e5 06 3d e0 4e 57 bd
       -0.02223159 -0.0006097834 0.032933377 -0.052565455
000230 af 75 b4 bc a3 12 72 bc 9d 6c 00 be 6c b1 36 bd
       -0.022028772 -0.014774951 -0.12541433 -0.044602796
000240 83 dd 79 bc da df 4c 3c 6d 97 bf bd 67 96 32 bd
       -0.015250566 0.012504542 -0.09355054 -0.043600466
000250 3f 4b 99 3d 08 c7 6f bd 90 7f 6f 3d 3e 50 2a 3d
       0.07485055 -0.05853942 0.058471262 0.04158043
000260 92 da b1 3c a6 39 ee bd 9d ba 81 3d 08 59 bc 3c
       0.021710668 -0.11632089 0.06334422 0.022991672
000270 78 ca aa bc 2e 5a eb bd 6f 2b 1f bd 4e 5a 76 bd
       -0.020848498 -0.1149181 -0.03885978 -0.060144715
000280 92 b2 2d bd c2 d2 ae bd 42 a5 69 3c 94 98 9a bd
       -0.042406626 -0.085362926 0.014260592 -0.07548633
000290 b4 21 a8 3c 10 e9 8e 3c 24 e7 b8 bd ea 20 46 bc
       0.020523883 0.017445117 -0.090284616 -0.012092808
0002a0 44 92 a5 bd c1 ca 63 bd bb e0 d1 3c d4 f6 11 3d
       -0.080845386 -0.055613283 0.025619855 0.035635784
0002b0 92 42 45 bd 87 ce 2e bc 8c 5c b5 bb 63 a4 bb bd
       -0.04815919 -0.010669357 -0.005534714 -0.09162214
0002c0 df da 99 bd 13 c0 83 bc d0 d9 bf bd 94 90 a3 3a
       -0.075124495 -0.016082799 -0.09367716 0.0012479001
0002d0 bc fd 7c bd 81 15 9d bd 8c 85 a6 ba 2e 47 e8 bd
       -0.061765417 -0.07670117 -0.0012704595 -0.113417014
0002e0 da fc f6 bc ed f4 14 bd 8a 40 dd bd 37 79 e2 bd
       -0.030149866 -0.036366392 -0.108033255 -0.11058276
0002f0 3f fc 76 bd 0b 67 49 bd 36 af 5d 39 c9 32 1f 3c
       -0.060299154 -0.049170535 0.00021141474 0.009716698
000300 a1 b9 82 bd d8 fd 17 bc 0b e4 7b bd 21 45 e0 bc
       -0.06383062 -0.00927683 -0.061496776 -0.027376713
000310 ae 6d 37 3d 3f 67 80 bd ad 99 4e bd 01 e9 83 bd
       0.044782333 -0.06269693 -0.050439525 -0.06440926
000320 8f 37 2c bd 9a 91 6c 3d 61 f5 84 3d 22 f6 5a bd
       -0.042045172 0.057756044 0.06492115 -0.053457387
000330 9f 9b c5 3a 7e b6 40 bd 0d 44 8a 3c 02 0a 64 bd
       0.0015076286 -0.047049038 0.016878152 -0.055673607
000340 8a 7b db bc 46 40 2c 3b 91 3f 6a bd d5 a3 d1 3c
       -0.026792306 0.0026283427 -0.057189528 0.025590817
000350 91 52 1b bc a7 9d 2f 3d 14 1b d2 3c 64 de 8d bd
       -0.009480135 0.04287496 0.025647677 -0.06927183
000360 e9 66 5c b9 f9 b6 b0 bc e6 0c 0b 3c 1c d0 7d bc
       -0.00021019172 -0.021571623 0.008486962 -0.015491512
000370 21 80 0e 3d 3f ec cb bd e0 b0 d8 3c 4c 30 af bc
       0.034790162 -0.0995717 0.026451528 -0.021385334
000380 58 4f 73 3d d2 52 1f bd ee 43 01 bd ed 59 07 3d
       0.05940184 -0.038897343 -0.031558923 0.033044744
000390 9c 7d d8 bd ef bd fd bd 53 c6 aa bd d4 8b 25 3c
       -0.10570833 -0.123897426 -0.083386086 0.010104138
0003a0 1c 3c 82 bd 5d f5 46 bc 77 91 2b 3d 77 af 86 3c
       -0.06359121 -0.01214346 0.041886773 0.01644109
0003b0 25 09 47 bc 9c 02 ca bd b2 ef f7 3c 42 eb 03 3d
       -0.012148176 -0.09863779 0.030265663 0.03220678
0003c0 23 6e da bd ce 79 18 bd 56 cd 0b bd da 14 c2 3c
       -0.10665538 -0.037225537 -0.03413137 0.023691583
0003d0 0f 88 35 3b 96 1a ee bd ae 71 91 bd cd c9 30 bd
       0.0027699505 -0.116261646 -0.07101761 -0.043161202
0003e0 cd 17 7a bd 84 85 b9 3c a2 4e 4c bd 2d fb 9a bc
       -0.061057854 0.022646673 -0.049879678 -0.018918598
0003f0 35 34 da bc 21 63 ba bd 69 16 03 bd c6 ef ed 3c
       -0.026636222 -0.091009386 -0.032003794 0.029044997

bias f4 [128]
000000 a4 76 21 3d 79 27 90 bd e8 f3 40 bd 1a 2e 25 be
       0.039419785 -0.07038779 -0.047107607 -0.16130868
000010 6e 53 f8 bd f1 fc 43 bd 5b d1 e5 bd 81 6f c9 3d
       -0.12125288 -0.047848646 -0.11221572 0.09835721
000020 00 02 80 3c 8f d4 10 3c 24 54 2b 3d 85 10 7d bc
       0.015625954 0.00883974 0.04182829 -0.015445833
000030 d8 5a 3e be 61 b2 af bb 08 d3 db bd 11 ed 91 bd
       -0.18589342 -0.0053618406 -0.107336104 -0.07125295
000040 b6 f2 45 3b 30 66 84 3d c4 ea 8d 3d d0 78 69 3c
       0.0030204481 0.06464803 0.069295436 0.014249995
000050 41 6e bb bb 54 ae aa bc e2 9e 45 3c c2 d6 47 3d
       -0.0057199304 -0.02083508 0.012061806 0.048788793
000060 d4 9a 5c be f5 b8 c2 3a d6 ba 07 3c 47 a8 f7 3c
       -0.21543437 0.0014856147 0.008284291 0.030231608
000070 f7 84 26 bb 6e 84 a1 3c 34 6a ea bc 10 e1 ca 3d
       -0.0025408843 0.019716468 -0.028615095 0.099062085
000080 6f f3 71 bd e7 29 e4 bd c6 b6 3b be 1d af e1 bd
       -0.059070047 -0.11140805 -0.18331441 -0.11019728
000090 ba 8c 9d 3d f9 bc fb 3c 28 28 9b bd 95 da 25 bd
       0.07692857 0.030729758 -0.075760186 -0.04049166
0000a0 f8 5a db bd fe d1 1f be 10 27 d9 3a 58 68 21 bc
       -0.1071071 -0.1560745 0.0016567428 -0.009851538
0000b0 ee a0 29 be 9e 75 21 be c9 8b 05 be 90 f4 07 3e
       -0.16565296 -0.15767524 -0.13041605 0.13276887
0000c0 22 93 4e be ff e1 45 3d 57 1c a3 3c f8 25 0b bd
       -0.20173314 0.04831123 0.019910974 -0.033971757
0000d0 cf 5d c3 3d e4 ef 1d be a2 d9 4f 3d f5 e9 cf 3b
       0.09539377 -0.15423542 0.05074466 0.0063450285
0000e0 d0 0e b0 bc 57 22 ba 3c 50 cf a9 bd e3 af 16 3d
       -0.021491438 0.022721453 -0.08291495 0.036788832
0000f0 a3 f0 77 3d ba 02 0b be ad d8 e6 bc 74 ba 17 be
       0.060532223 -0.13575259 -0.028179491 -0.1481722
000100 dc fc 90 3b 00 ed 10 be 24 4d 35 be d3 25 a0 bb
       0.0044246744 -0.14152908 -0.17705208 -0.0048873215
000110 f8 07 60 be 5b 2b 29 3d 99 b2 a0 3c 67 50 08 be
       -0.2187804 0.041301113 0.019616412 -0.13311921
000120 2d 09 02 bd 61 0e e5 3d 61 1d 27 be 80 a0 e3 3d
       -0.031747032 0.11184383 -0.16319801 0.11114597
000130 8d 70 8f ba cc 83 a7 bd 7c d8 c1 bd 20 99 ee 3d
       -0.0010943577 -0.08179435 -0.09465119 0.116503
000140 fb 49 c4 bd 50 fa a9 bd b8 d3 ba 3d 9c ad a5 3d
       -0.09584423 -0.082996964 0.091224134 0.08089754
000150 ab ae 1b be 6b 8c b5 3d 10 f0 ac 3c e8 6a 79 3d
       -0.1520335 0.08864673 0.021110564 0.06089297
000160 0b ff 36 3d 22 a1 39 be 75 3f 4c bb 4c ce 10 3d
       0.04467682 -0.18127874 -0.0031165753 0.03535299
000170 53 ed 54 3d 3e eb 1e b9 30 8d 55 bd e3 a8 00 be
       0.051984143 -0.00015155689 -0.0521366 -0.12564425
000180 20 a4 c3 bd 73 11 06 be aa 53 b5 bc 39 e0 13 3e
       -0.09552789 -0.13092594 -0.02213462 0.14441003
000190 0c 07 fa 3d de dd 56 3b 81 20 8b bd 9d 91 7b bc
       0.12208375 0.0032786052 -0.06793309 -0.015354541
0001a0 02 9e b2 bd 7f 1e f1 3d 1c e8 96 3d 54 7f 0f 3c
       -0.08721544 0.11773395 0.0736849 0.008758385
0001b0 82 31 cf bd fe b3 f5 3d 75 86 73 3d 6e 8b c7 bd
       -0.10116865 0.119972214 0.0594544 -0.09743391
0001c0 6c 5a 14 be 28 d5 c1 bd a2 0a 1a 3d 38 a8 cf bd
       -0.14487618 -0.094644845 0.037607796 -0.10139507
0001d0 1a e1 fa bd 92 3e 74 bd 84 f7 2a be da 7b 62 3c
       -0.12249966 -0.059629984 -0.16695982 0.013823474
0001e0 69 3f 85 bd ff e0 d6 3d 72 55 60 be d1 65 68 bd
       -0.06506235 0.10492133 -0.21907595 -0.056737725
0001f0 59 cf 62 3d 52 5a 23 be 8f 9e b0 bd 5c b0 58 be
       0.055373523 -0.15952423 -0.08623993 -0.21161026

weight f4 [128, 128]
000000 bd 47 e0 3a e7 3f cc bc f4 08 09 be 96 1d 56 3e
       0.0017111223 -0.024932815 -0.13382322 0.20909724
000010 b1 ee 90 bc 59 69 d0 bd d3 dc 45 bd fd bd 7b bc
       -0.017691942 -0.101763435 -0.048306298 -0.015365121
000020 44 57 91 3d 41 ca 4c bc ee 71 7e be d7 9d 1d bc
       0.07096723 -0.012499393 -0.24848148 -0.0096201515
000030 89 9c 6d 3e 54 ee 39 3d 0f 22 9c bd 12 6f af bd
       0.23204245 0.045393303 -0.07623684 -0.08566107
000040 56 9b ce bd 4f 48 f1 bc 16 c5 2c bc 46 5e 08 bd
       -0.10088222 -0.029453425 -0.010545036 -0.03329303
000050 cf 27 4e 3c ba 3b 25 be d3 0a 63 3d 54 82 e0 bd
       0.012582733 -0.16136065 0.055430245 -0.10962358
000060 b1 da 37 bd 5c 3a 93 bc 30 f4 95 3c 40 f2 42 3c
       -0.044886295 -0.017972164 0.018304914 0.011898577
000070 27 d5 3e bc 6c ee d3 bd 99 fd be bc e0 c6 dd bd
       -0.011647499 -0.1034821 -0.023314284 -0.10828948
000080 e8 7b 41 3e 61 86 9d 3c 9e 98 bf bc 2a 9b 97 3d
       0.18894923 0.019229116 -0.023388203 0.07402642
000090 ca 22 84 3d 71 c6 f5 bd e4 a6 8b 3d 99 92 47 be
       0.06451948 -0.1200074 0.06818941 -0.19489516
0000a0 e2 f1 d9 bd 9b 42 a6 3d 7b 74 7a 3d 90 f4 78 bd
       -0.106418386 0.08118173 0.06114624 -0.060780108
0000b0 be ea 02 3d dd 95 1c be 61 ec 8a 3c d5 73 07 3e
       0.03196215 -0.15291543 0.016958417 0.1322778
0000c0 90 85 86 bc 11 95 0d 3d d1 79 51 bd 57 d6 c0 bd
       -0.01642111 0.03456599 -0.051141564 -0.09415882
0000d0 9d b9 14 3d d9 a4 5b bd 33 7b 8e 3d 69 0b 18 bc
       0.036309827 -0.053624008 0.06957092 -0.009280064
0000e0 c1 56 c9 bd 22 4c 01 3b 87 05 01 be 01 61 a1 bd
       -0.09831 0.0019729217 -0.12599765 -0.0787983
0000f0 17 32 53 3d a5 63 d1 3c 7d 30 c9 3b f6 9b 03 be
       0.05156144 0.02556021 0.0061398135 -0.12852463
000100 0c f6 98 bd 86 6d 5e 3d 7c 32 42 be e6 e8 ab bd
       -0.07468805 0.05430367 -0.18964571 -0.08394031
000110 a6 91 08 3e 02 99 0b bd 81 67 76 3d dd 7c fd bc
       0.1333681 -0.034081466 0.060157303 -0.030943329
000120 4d b6 f2 3c 74 d9 6d 3b 03 14 79 3e 8d 25 8b bd
       0.029627943 0.0036292942 0.2432404 -0.067942716
000130 1e fd dd 3c e2 b0 a8 bc c2 e2 a1 bc 9e 4f 3e 3d
       0.027098235 -0.020592157 -0.019761447 0.046462648
000140 14 b8 29 bd e4 12 45 be 42 bb 82 3d f7 b6 c3 3b
       -0.041435316 -0.19245487 0.06383373 0.005972739
000150 d2 4b e9 bc a4 6e 7b 3d 8a 41 d4 3c 57 f5 8d 3d
       -0.028478537 0.061384812 0.025910158 0.069315605
000160 15 52 b5 bd 88 79 d3 bd 59 0a a9 bd 3c f4 d8 bc
       -0.088535465 -0.103259146 -0.08253927 -0.026483648
000170 7b bf a3 3d 2c 69 ea bc 5b 6c bb bd 72 75 03 bd
       0.079955064 -0.028614603 -0.091515265 -0.032094426
000180 52 30 81 3d 12 61 cd bd 43 f9 b8 bd f2 af 20 3e
       0.063080445 -0.1002828 -0.09031918 0.15692118
000190 ba b7 e1 3c 8b 98 03 bd 39 8e be be fe 98 28 be
       0.027553428 -0.0321279 -0.37217882 -0.16464612
0001a0 22 08 9b 3d 12 06 04 3e 8f 25 00 bd f3 d2 d2 3d
       0.075699106 0.1289294 -0.03128582 0.102941416
0001b0 79 f6 f3 bb 93 b4 7f 3c 84 ca fd 3d c5 cb 87 bc
       -0.0074451533 0.015607017 0.123921424 -0.016576657
0001c0 19 cc 21 be 8f 54 97 3d f7 49 9f 3d 4c c5 4c 3c
       -0.15800513 0.07389175 0.077777795 0.012498211
0001d0 4d eb 8a 3d f4 35 5d bd df 0d a9 bd a3 b8 f0 bc
       0.06783161 -0.05400653 -0.08254599 -0.029384917
0001e0 92 7c 41 bd 32 8d 2c bd 68 bc 28 be 5e 93 d3 bd
       -0.04723794 -0.04212684 -0.16478121 -0.103308424
0001f0 06 81 6a 3d 95 1a 74 bd af 12 fc bc 4e bc 8d 3e
       0.057251953 -0.059595663 -0.030770628 0.27682728
000200 6a ed 90 3d 83 d1 c3 3c dc 20 11 3e b3 ab ce bd
       0.07076533 0.023903614 0.14172691 -0.10091343
000210 60 5f e4 bd e5 50 18 3e 6e a9 1a be 70 23 12 be
       -0.11151004 0.14874609 -0.15103695 -0.14271331
000220 19 ed ab bd 65 3e f5 bd 63 8b fb bc 17 2a 01 3e
       -0.08394832 -0.119747914 -0.030706113 0.12613712
000230 e7 88 37 3e da f9 c2 bd 59 f6 11 3d 19 b4 69 be
       0.17923318 -0.09520312 0.035635326 -0.22822608
000240 94 1e 85 3d f3 44 99 3d fe 8e 37 be 76 36 0b 3e
       0.06499973 0.07483854 -0.17925641 0.13594994
000250 e6 a1 83 bd 46 02 07 be 7e 76 e1 bd c0 f2 a5 bd
       -0.06427364 -0.13184461 -0.11008929 -0.081029415
000260 11 6d 78 bd a0 6a 0d 3d bd 36 a4 bd 18 61 98 be
       -0.06065089 0.034525514 -0.08018253 -0.29761577
000270 6e f9 83 3d 0c cd 84 3e 3d 79 3d be 57 9a 0a be
       0.06444059 0.25937688 -0.1850328 -0.13535438
000280 94 07 d9 bd 9f 32 aa bc 1e 80 e1 bd 50 ec 0d be
       -0.105971485 -0.020776091 -0.110107645 -0.13859677
000290 f0 c4 d6 3d 4b 91 89 3e 7d 3b 1a be b1 1e 12 bd
       0.104867816 0.26868662 -0.15061755 -0.0356738
0002a0 72 ce 70 be 94 9e 68 3d df e8 e6 bd 2a fe c6 3d
       -0.23516253 0.056791857 -0.112748854 0.09716447
0002b0 17 9d 5e bc c7 01 d0 bb d7 19 b8 3d f0 5f 6d be
       -0.013587258 -0.006347868 0.089893036 -0.23181129
0002c0 56 9b e8 bc 29 c6 19 be ef b9 c9 bd 40 99 ad 3c
       -0.028394382 -0.15016998 -0.09849917 0.02119124
0002d0 4f f4 d3 bd a4 1a da bd 55 9d 56 3d b8 c1 46 be
       -0.103493325 -0.106496125 0.052396137 -0.19409835
0002e0 1d 12 36 3d 84 2c 25 be 74 91 38 3e 05 b8 cc 3d
       0.044450868 -0.16130263 0.18024236 0.099960364
0002f0 47 e7 8a bc 5b d0 82 3d b1 e7 c7 3c e7 43 90 be
       -0.016955985 0.06387397 0.024402471 -0.28176805
000300 71 12 3e be 53 82 06 bd 2d 71 72 3d 0e dd 80 be
       -0.18561722 -0.03283913 0.059189964 -0.2516865
000310 2e 8d 46 3d d5 20 16 bd f4 95 8c bd bc df b2 be
       0.048474483 -0.036652405 -0.06864539 -0.3493632
000320 eb 47 ae be bd ac 98 bd 87 15 7c be e2 94 44 be
       -0.34039244 -0.07454822 -0.24617587 -0.1919742
000330 cb 11 ed bd ff fb 89 be 07 45 99 bc 3e 6b 5e bd
       -0.11575659 -0.2695007 -0.018709673 -0.054301493
000340 d5 b1 05 be 19 cf db bd a6 75 96 be 68 ea b5 bd
       -0.13056119 -0.1073286 -0.29386634 -0.088826
000350 b4 61 e9 3c 0c ef f5 bd 3c 0c 93 3d 0d 93 df bd
       0.028488971 -0.12008485 0.07180068 -0.109167196
000360 ba 3b d2 bc dd 3d 42 3c 5e a0 05 3d 45 99 37 be
       -0.025663245 0.01185557 0.03262364 -0.17929561
000370 34 ba 44 3b 6c 1c 34 3c c3 8c 19 3c f2 78 0a be
       0.0030018212 0.010993104 0.009371939 -0.135227
000380 8a e1 6c 3c 9c 5b 23 be 7b 91 be bd 44 52 7a be
       0.01445807 -0.15952915 -0.09305092 -0.24445444
000390 b8 ec ff bd be ca af be 10 a7 89 be c3 d2 fc 3c
       -0.124963224 -0.34334368 -0.2688527 0.030862218
0003a0 17 46 29 be 1f 60 f9 3c c0 07 ba bd 5a 15 03 be
       -0.16530643 0.030441342 -0.090835094 -0.12801114
0003b0 88 9e 30 be 3b f3 36 3d 74 25 b6 bd 13 86 54 bd
       -0.17247975 0.044665556 -0.08893862 -0.051885676
0003c0 e2 92 8b bd ee 3c db 3c 31 54 1f be 7d 47 94 3d
       -0.06815125 0.026762452 -0.1555946 0.07240198
0003d0 42 24 07 be c1 1b 58 3e 8a 59 b0 3e 3d b1 b0 bd
       -0.13197425 0.21104337 0.34443313 -0.086275555
0003e0 67 80 80 be 04 c6 31 bd a4 6c 0c bd 5b b0 21 be
       -0.25097963 -0.043401733 -0.034283295 -0.1578993
0003f0 ac 4b 33 be 1b dd 41 3c 43 43 3f bc f9 15 0d 3d
       -0.17509335 0.011832501 -0.011673751 0.034444783
