nerf_models/fox5.pth (torch, 646022 bytes, 22 tensors)

weight f4 [128, 63]
00000000: 7e95 5fbd 35e4 6bbc 26d4 bbbd 4742 973d
00000010: c731 5d3e 37f8 25be a976 5dbe 8c52 f8bd
00000020: 796e dd3d e5d7 f3bc 8664 07be 2d6a 9a3d
00000030: 0ff6 183e 26e1 503e b754 3a3e aa8b 0e3e
00000040: f16e 6d3d 3ff4 043d 561c 453e f85e cdbd
00000050: 98e0 5fbe 6069 2e3d 70b3 1ebe 0ecb 0e3d
00000060: 48d3 57be 2d50 1bbe 006c a8bc dc2a f4bd
00000070: 6285 ef3d 5b66 3fbd 5a10 0a3e e15c 2fbc
00000080: 0791 5dbd ad88 22be 1a5c 17bc fa8e 5dbe
00000090: 4dee 673e bd39 58be dd82 58be f30e e8bc
000000a0: a2f2 ea3d b6af 493e 732a 973e 7fe2 cd3d
000000b0: ab37 433e 844d 2cbe 2f02 fe3e 827b d73e
000000c0: 299c 4e3e 8f38 39be 6489 6abe 346c 2bbe
000000d0: 93ba 213d 83cf 07be a091 f9bd 3e09 963e
000000e0: 115d 013e 51c7 8ebe 48b5 11bd 7a93 9ebd
000000f0: 488a 27bd afaf c53d 054a 01be 3ce8 a6bd
00000100: 5a41 30bd d791 5b3d dcec 87be 051e e43d
00000110: fa86 d4bd 3ece c03d 2926 1b3e ed6a c7bc
00000120: 07fb e73c b9b1 0bbe 4904 93be 3e21 92be
00000130: f3b7 b03c 8ed4 c33c 6b7f 963d 1964 05be
00000140: 831a 53bc 36b3 1dbd a54f 32be af15 5c3d
00000150: 36b1 98bd a7c6 7c3d 8389 19be 7683 203c
00000160: df68 40bd 6b91 c8bd 8f85 1f3e ed4c 3cbe
00000170: 6528 8b3d 2774 68be 811c a93d 738c 4b3d
00000180: 7026 4c3e 7689 983d 4f35 cd3d 66ea 0cbe
00000190: 3de3 a0bd 67cc 68bd 8c98 d5bc 59ae 9ebc
000001a0: f19f 8cbd e5e7 0fbe f32b 073e 0543 f03d
000001b0: 1829 de3d 326c 35be c3f3 05be 166f 0a3d
000001c0: 4b04 1abd 7e53 b73c e63b 803e 9c5d a23d
000001d0: d6f1 913e 624d 13bd 5187 69be 311f 0d3d
000001e0: 9f16 09be c796 97be 547b 5e3e c5e7 5bbe
000001f0: 9059 ae3e 8d9a 29be 478c ce3c 1080 d63d
00000200: 6874 5cbe bd10 70bc 3d18 50be 7691 3a3d
00000210: 8288 cebd 4cbe 893e 7fe5 d4bd 6134 cfbd
00000220: a610 44be b463 dabd 21f4 f03d 21c4 c73d
00000230: 14dd f2bd 14ca 4d3d 226f 6fbe bf17 2d3d
00000240: f550 d7bd 4e18 823c d37b c7bd aa50 e6bb
00000250: aebd 72bd f4f0 cd3c 403c 80bd 90b6 86bd
00000260: 20d4 16be ebf6 4c3e f9a4 813d 53ee 203c
00000270: 5418 933d 43d3 cf3d 8fdf 3d3e 850a 69be
00000280: f171 72be e900 273e 9d0b dabd 02d6 733e
00000290: ca80 17bd d894 663e 2553 cdbe baad 5a3e
000002a0: 5f5e 003e 1855 4b3e 6324 84bc 9e8f 8bbe
000002b0: 07b0 603e a7d6 4f3e be63 9ebc 15ba 12bf
000002c0: 5d48 bcbd 7d3d 0a3e aaff 64be 664a 70bd
000002d0: 218a 103d 65ed 69bd 50ac 7abd 8f70 98bd
000002e0: dd6a 993e e497 083e 1145 09be c6f7 ecbd
000002f0: bfe6 f9be 35c0 2fbd 91bf b3bd 7cde 76bd
00000300: ec42 353c a62e f3bd 1a2d 993a d811 90bd
00000310: 919d 093e 201c d13d 5e0d df3c 4c96 823e
00000320: 299c 8dbd 8242 4dbe 510a 68bd 3f28 72be
00000330: 83ab dcbd 9f81 853e 895d f23d c33c 72bc
00000340: 082a 82bd f5b2 ed3d 132c 1a3e adfa c23c
00000350: 22dd 5e3d c6bc 3c3e 9901 943b e64a a83d
00000360: 9eb7 febd 8f24 33be 59c3 16bd f317 393d
00000370: c34d 353e 1ebc b63e 1f34 b3bd 1d36 0ebe
00000380: 7eed 6e3d 561a 433e 406f bb3b 3f55 203e
00000390: 7c87 8fbe 2cad 8ebe a45a 4f3e cde7 1e3e
000003a0: e5a4 41be 726d 2b3e 17ae 9d3e 18c4 263d
000003b0: c42f 3f3e 9eea 89be d0e9 76bd ca1a 88bc
000003c0: 9486 77be ef42 a93e 1e81 74bc 04ac ba3e
000003d0: 9962 c5bd bcc3 793e 1f47 d9bc f57b b93d
000003e0: ca02 1abd 5ce0 863e d873 47be b1ac 8e3c
000003f0: b102 103e e473 e13d 6980 39be 9b7f 223e
-0.054585926 -0.0143976705 -0.091713235 0.07385688 0.2160102 -0.16207968 -0.21627297 -0.121251196
0.108120866 -0.029766032 -0.1322194 0.07539783 0.14937614 0.20398387 0.18196379 0.13920465
0.05796713 0.032459494 0.1924909 -0.100278795 -0.2186302 0.042580962 -0.15498137 0.034861617
-0.21076691 -0.15167303 -0.02055931 -0.11922237 0.11695363 -0.046728473 0.134828 -0.010703296
-0.054093387 -0.1587245 -0.009238267 -0.21636572 0.22649498 -0.21115775 -0.2114367 -0.02832744
0.1147206 0.19695935 0.29524574 0.10052966 0.19064204 -0.16826445 0.4961104 0.42086416
0.20176758 -0.18087982 -0.22903973 -0.16740495 0.03948457 -0.13262753 -0.12185979 0.29303926
0.12633158 -0.2788644 -0.035573274 -0.07742973 -0.04090336 0.096526496 -0.12625892 -0.08149764
-0.043031074 0.05360588 -0.26547897 0.11138538 -0.10377307 0.094143376 0.15151276 -0.024342978
0.028317941 -0.13642015 -0.28714207 -0.28540987 0.021572089 0.023905065 0.07348522 -0.13026465
-0.012884739 -0.038500987 -0.17413194 0.053731617 -0.07455675 0.061712887 -0.14993863 0.009796968
-0.046975013 -0.09793361 0.15578292 -0.1838872 0.06794814 -0.22700559 0.0825739 0.04969449
0.19936538 0.074480936 0.100199334 -0.13761291 -0.07855842 -0.05683556 -0.026073717 -0.019370245
-0.06866444 -0.14053304 0.13200359 0.11731533 0.10847682 -0.17717054 -0.13081269 0.033797346
-0.03760175 0.02237868 0.250457 0.07928011 0.2850482 -0.03596247 -0.22805525 0.034453575
-0.13387536 -0.2960722 0.21726733 -0.21475132 0.34052706 -0.16562863 0.025213374 0.10473645
-0.2152878 -0.014652428 -0.20321746 0.04554888 -0.100846305 0.26902997 -0.103953354 -0.10117412
-0.19146976 -0.10663548 0.11765314 0.097542055 -0.118585736 0.050241545 -0.23382238 0.042258974
-0.10513488 0.01588073 -0.097404145 -0.007028659 -0.059262924 0.02513931 -0.06261492 -0.0657779
-0.14729357 0.20016067 0.06330294 0.009822446 0.071823746 0.10147717 0.18542312 -0.22757919
-0.23676278 0.16308941 -0.10646746 0.23812106 -0.036988057 0.22517717 -0.40102497 0.21355334
0.12536 0.1985668 -0.016130632 -0.2725801 0.21942149 0.20296727 -0.01933467 -0.5731519
-0.0919349 0.13500018 -0.22363153 -0.058664702 0.03528798 -0.057111163 -0.061199486 -0.07443344
0.29964343 0.13339192 -0.13405253 -0.115706965 -0.48808858 -0.042907912 -0.08776773 -0.06027077
0.011063319 -0.11874132 0.0011686415 -0.070346534 0.13439013 0.102104425 0.027228054 0.25505292
-0.06914551 -0.20044902 -0.056650463 -0.23648165 -0.10774901 0.26075456 0.11834247 -0.014784995
-0.06355673 0.11606399 0.15055875 0.023801172 0.054410107 0.18431386 0.004516792 0.08217411
-0.12437366 -0.17494415 -0.03680739 0.045188855 0.17705445 0.35690397 -0.08750176 -0.1388783
0.05833196 0.19053015 0.005720049 0.15657519 -0.28033054 -0.27866495 0.2024942 0.15518112
-0.18910559 0.16740969 0.30796883 0.040714353 0.18670565 -0.2693681 -0.060281575 -0.016614337
-0.24172431 0.3305888 -0.014923362 0.36459363 -0.09637947 0.24391073 -0.026523171 0.09056846
-0.037600316 0.26343048 -0.19477785 0.01741633 0.14063527 0.110084325 -0.18115391 0.1586899

bias f4 [128]
00000000: 13c3 6fbd 05d2 54be 54dc 0bbe 4b06 36be
00000010: 8f43 bcbd 3b0c fabc a91c 5abe 084f c3bc
00000020: f816 b4bd 280b 2dbe 5365 62be f1f8 7bbe
00000030: 9ef5 74bd 26e3 993d 79b7 5abe 42af 2fbe
00000040: b8e4 c5bd d80e 6abe 64a1 b3bd 3fdf f23c
00000050: 396e 3bbe 148e 7fbd 4a47 993c ebbd 50be
00000060: 7594 95be 57c2 5fbe 69e9 34be 12f7 3bbd
00000070: 7153 2dbd a164 0ebd e308 59bd e55c f4bc
00000080: b2bd 50be b3f7 8fbe 0070 1e3a 7bcf 10bd
00000090: dc2c 3fbe 41ec d73a a8f3 bbbd e0f1 9dbd
000000a0: f646 53bc 4e2d 43bd 0b08 b9bd 1545 d6bd
000000b0: 9069 e9bd b2f9 86b9 d14f cabd cad6 f6bb
000000c0: 3ee7 99be 2810 aabd b295 16bd d992 4abe
000000d0: a235 80bc 9560 60bd c6fc d6bd 8afe 18be
000000e0: 0829 693d 28e1 25be 9172 a0bc 61cc e13c
000000f0: 1913 50bd e9de b7bd fe5d 073c df5a 40be
00000100: 33a6 92bd dda0 69be 051e a5bd 73e9 56bd
00000110: 7ade 2e3b c8df c2bc 761c bfbc 89b7 51be
00000120: b884 7abe 7abb 8fbe be8a ebbd c683 4bbe
00000130: 4ad8 99be 190d 033d 7951 43be ae1a 27be
00000140: ae1a acbd d14a eebd 0db2 0dbe 8664 47be
00000150: 0ad3 19be 233a dabd 977a 2ebd dde4 433d
00000160: 11bf b2bd 448b eabd 3cb1 66be 243f f5bd
00000170: 931e 2abe 277d 4ebe aad1 3abe 135b 29be
00000180: 04fa 50be 3886 e43d b457 33be 77dd fcbd
00000190: bb58 48be b8ba 44be ff86 dfbd 33d7 74be
000001a0: 613a 5cbe da22 7cbd b481 a8bc 4232 9bbc
000001b0: 4dbc d9bc ee7a 80be 9011 afbd 7c8f 2c3d
000001c0: 3755 41be 0f5d cebc 8b87 3fbd d592 98bd
000001d0: 734f 03be 7d37 3dbe 5a75 4abd c219 50bc
000001e0: 151b e6bd 9895 17be e0bd 00be 78fd 2abe
000001f0: 3117 24be 8ff5 a73c 1c35 16be 36b7 0fbd
-0.058535647 -0.20783241 -0.13658267 -0.17775838 -0.09192573 -0.03052341 -0.21299995 -0.023841396
-0.087934434 -0.16898787 -0.22108965 -0.24606682 -0.05980455 0.07514028 -0.21359052 -0.171567
-0.09662765 -0.22857225 -0.08771017 0.029647468 -0.18303765 -0.062391356 0.018710751 -0.20384948
-0.29214826 -0.21851479 -0.17667164 -0.04588992 -0.042315904 -0.034763936 -0.05298699 -0.029829452
-0.20384863 -0.28118667 0.0006043911 -0.03535412 -0.18669456 0.0016473607 -0.09177333 -0.077121496
-0.012895336 -0.047650628 -0.09034737 -0.10462395 -0.113970876 -0.0002574451 -0.09878505 -0.007532929
-0.30059236 -0.08303863 -0.036763854 -0.1978258 -0.015650574 -0.054779608 -0.104974315 -0.14940849
0.056923896 -0.16199172 -0.01958588 0.027563276 -0.050799463 -0.089780636 0.008262156 -0.18784665
-0.07160606 -0.2281527 -0.080623664 -0.05246873 0.00266829 -0.023788348 -0.023329 -0.2048017
-0.2446469 -0.2807272 -0.11501072 -0.19874486 -0.30047828 0.031994913 -0.19074048 -0.16318771
-0.08403526 -0.11635364 -0.13837452 -0.1947194 -0.15021911 -0.1065562 -0.04259738 0.047825683
-0.08727849 -0.11452344 -0.22528547 -0.11974934 -0.16613226 -0.2016493 -0.18244043 -0.16538648
-0.20407873 0.11158413 -0.17513925 -0.123469286 -0.19565098 -0.19211853 -0.1091442 -0.23910217
-0.21506645 -0.061556675 -0.02056966 -0.018944863 -0.026579047 -0.25093788 -0.08548272 0.042129025
-0.18880163 -0.025190858 -0.046760123 -0.07449881 -0.12823276 -0.18478198 -0.04942832 -0.012701454
-0.11235634 -0.14803159 -0.12572432 -0.16698253 -0.16024472 0.020502834 -0.14668697 -0.035086833

weight f4 [128, 128]
00000000: 1979 24bd 948c c03c 095f f4ba 2501 58bd
00000010: 2403 453d 9f22 0cbe f64e f2bc 0267 283d
00000020: 9531 89be 28d0 d43c 5e7f f03c 47f0 9ebe
00000030: 9db2 7f3e 2f75 0ebd 9102 6b3e 2df7 c93d
00000040: 935c 903e 66e2 043e bc4b 62bb ae12 733d
00000050: b61a 83bb 054c c5bd 9d0e 20bf 8ce4 2e3e
00000060: 5d5d 883e 4fa0 a1bd 7a63 2fbd 240d 63bc
00000070: b45d 28be 7fed 58bd 7e9b 6c3e 9d91 c03e
00000080: b6b5 a1bd 3920 81be 6c68 95be 56fe 0a3e
00000090: 19db 7fbe c606 b9bd 68ff aebc e90b 353d
000000a0: 7737 9d3c 0851 5bbb cfc4 fabd 91d5 61bd
000000b0: c271 343e 111e 153e 296c b43d 904f c2bd
000000c0: a8aa bcbb 8987 3c3d 935c 7d3d 8abd 81be
000000d0: 1358 a2be c1a7 dd3d ebe8 a5be fd71 2cbd
000000e0: 17b4 31bc 199c debd fdca 1a3d 6ee5 8fbd
000000f0: a070 5abc f22a b639 27b2 abbe 02b5 023e
00000100: 96b9 34bd 49e9 3f3d a4be 853d 0823 fabd
00000110: 3621 12bf 6aa8 19bc de5d 6e3e 9b7a cc3c
00000120: c6ec 89bd 44e6 e9bd e5f4 f63d d2b6 213d
00000130: 2bb5 a93c dc6b b33b ec29 05be cd8b 9abc
00000140: 228d b1bd 3af3 423d 743b a9bb 7988 b5bc
00000150: 6b53 7c3d 5876 7cbe c5e1 473e 3b07 c9be
00000160: 1af6 26be 603c 8cbb 645b 38be bccd df3d
00000170: 869c cb3d 89a6 05be 8c4a 9bbe d40c 643e
00000180: 8557 c9bd 977c 17bc 9bb0 bcbd 2ee8 85be
00000190: 1a9f b93c 7443 c1bc ce91 033e e3c0 0abe
000001a0: 66e9 ccbc 03cc 37bd 27c8 b83d d813 303d
000001b0: 4a5a dbbd db9a 35be 25fe f7bd 92ce e2bb
000001c0: 84be be3b b665 053e d44c e1bb 86f2 47be
000001d0: d0e1 9f3c 1547 973d d555 093e 93a0 8d3c
000001e0: ebde a5bc 9f84 30bd ccc4 3d3e ee0d 7f3d
000001f0: ddd8 e13d f47f 4dbe 4ff3 35be ccf0 a03c
00000200: 1e4a 7fbc 3cb7 6a3d 748e c73d 0812 16be
00000210: 7bda 65be 2402 073e bfdb 55be 984b abbe
00000220: 2804 4bbe 8a75 463c 2c50 dfbd 1043 263e
00000230: 6258 bebd dac8 2e3d 1dfe 243e f322 28be
00000240: 7910 0fbe 2d71 adbd 6af2 413d 46a5 ccbe
00000250: 9149 51bd 005e 84be c8ce 393d 29c2 453e
00000260: 14cd 093d b59d 9c3e b4a0 41bd 0a10 4fbc
00000270: 0aec c63c e147 833d 7add 913d e891 713d
00000280: ad17 193c a699 56bd f4e2 62be f673 5dbd
00000290: edca 3a3d af40 c63c 93a5 183d 785b 093e
000002a0: 4725 4ebd 25c1 88bd 556b 033e 1fab 60bd
000002b0: 43b3 3fbe b00a d13d b69e 483e 5f68 0c3e
000002c0: 91aa 87bb 692b 913b 2ca4 6a3d cec3 ef3c
000002d0: ffd7 973d 6900 80bc 6238 863d d87f 70bd
000002e0: 7e10 5dbe 5158 6a3c ed68 2ebe 1151 cdbc
000002f0: d9ad 123e f048 9cbd 6d63 f93d 0e90 d0bd
00000300: 7875 15be 9032 05be d23d 9439 d52f 973d
00000310: 65b5 07bc 01e3 e7bd e994 f3bd 5817 e93d
00000320: 94b4 2dbe b4ee e83d 8617 4d3d dd42 be3d
00000330: 8145 27be 042c a03d 2acc 5a3e 42bc c1bd
00000340: 8c7a c2be 3ddc c0bc 379e 30bd ee95 ac3c
00000350: ce4e 1dbe 82d3 75be 9870 813d f4c4 173e
00000360: 82db 563e 6327 8bbe 172e 3fbe 70c3 173e
00000370: 4f88 23bd 7480 3fbe bfd0 85bd 90d3 cb3d
00000380: 0626 c4bd 8b5a e43d 9ef6 e2bc a98e f0bd
00000390: 8da2 b1bd bef1 db3c 430f e53d 6f19 37bd
000003a0: 4a03 68bd 38a9 083e 2f5b 8ebd 8f37 b33d
000003b0: fc9e 89bd a8a9 71bd 70c0 7d3d f5a5 033e
000003c0: 5ecc e5bd 6605 033d 1b85 fdbd a353 2e3e
000003d0: f975 84bd 3d13 853d 29a0 be3d 7ba7 6a3d
000003e0: 455f f2be 81a6 c43d 59a8 9abd b54c 8c3e
000003f0: f856 debd 4f6f a93e a8a1 973d 40dd 683e
-0.04015455 0.023504533 -0.0018644045 -0.052735467 0.0480987 -0.13685082 -0.029578667 0.04111386
-0.2679564 0.025978163 0.029357608 -0.31042692 0.2497048 -0.034779724 0.22950198 0.09861598
0.2819563 0.12976989 -0.0034530004 0.059343986 -0.004000987 -0.0963364 -0.625223 0.17079371
0.2663373 -0.078919046 -0.042819478 -0.013858113 -0.16441995 -0.05296087 0.2310619 0.37611094
-0.07895987 -0.25219896 -0.2918123 0.13573584 -0.24985923 -0.09034495 -0.021362022 0.04420081
0.019191487 -0.0033465046 -0.122445695 -0.055135313 0.1762152 0.1456225 0.088096924 -0.094878316
-0.0057576485 0.046027694 0.061855864 -0.2533992 -0.3170782 0.10823012 -0.32404265 -0.042100895
-0.010846159 -0.10869617 0.03779124 -0.07026182 -0.013332516 0.00034745742 -0.33534357 0.12764362
-0.0441223 0.046853337 0.065305024 -0.12213713 -0.57081926 -0.009378532 0.23277995 0.024960807
-0.06734614 -0.11420873 0.12058429 0.03948099 0.02071627 0.0054755043 -0.13004273 -0.01886549
-0.08669497 0.04759524 -0.005164558 -0.022159802 0.06160299 -0.2465452 0.19519718 -0.3926333
-0.16304818 -0.004279658 -0.18003613 0.109279126 0.09941964 -0.1305181 -0.30330312 0.22270519
-0.09831146 -0.009246013 -0.09213372 -0.26153702 0.022658873 -0.023591734 0.12848589 -0.13550143
-0.025013637 -0.044872295 0.09022551 0.042987674 -0.10710581 -0.17734854 -0.12109021 -0.0069215978
0.005821051 0.13027081 -0.0068756137 -0.19526109 0.019516855 0.07386605 0.13411649 0.017288482
-0.020247897 -0.043095227 0.18532103 0.062269144 0.110276915 -0.20068341 -0.17768596 0.01964607
-0.015581636 0.057303652 0.09743968 -0.14655316 -0.22446625 0.1318441 -0.20884608 -0.3345611
-0.19825804 0.012112984 -0.109039634 0.1623652 -0.092942014 0.042672016 0.16112562 -0.16419582
-0.13971128 -0.08468852 0.047350325 -0.39969844 -0.05109555 -0.25852966 0.045363218 0.19312347
0.033642843 0.3058907 -0.0472724 -0.012638101 0.024282474 0.06410194 0.071223214 0.058977038
0.009344024 -0.052392624 -0.22156888 -0.054065667 0.04560368 0.024200765 0.03726728 0.13413799
-0.05032852 -0.066774644 0.12833913 -0.054850694 -0.18720727 0.102071166 0.19591793 0.1371169
-0.004140206 0.0044302237 0.057285473 0.029268172 0.07414245 -0.015625196 0.06553723 -0.05871567
-0.21588323 0.014303283 -0.17032214 -0.02506307 0.1432413 -0.07631099 0.12177167 -0.10183726
-0.14595592 -0.1300757 0.0002827482 0.0738217 -0.008282994 -0.113225944 -0.11893637 0.113814056
-0.16963416 0.11373654 0.05007126 0.09290097 -0.16335107 0.07820895 0.21366945 -0.094597355
-0.3798412 -0.023542518 -0.043119635 0.021067586 -0.15362093 -0.24006465 0.06320304 0.14821225
0.20982173 -0.27178487 -0.18669926 0.14820647 -0.039924916 -0.18701345 -0.06533956 0.09952462
-0.09577565 0.11150082 -0.027705487 -0.1174596 -0.08673582 0.02684867 0.111845516 -0.04470199
-0.05664376 0.13345802 -0.06950986 0.08750831 -0.06719777 -0.058999687 0.0619511 0.12856276
-0.112206206 0.03198757 -0.123789035 0.17024092 -0.06467814 0.0649781 0.09307892 0.057288628
-0.4733831 0.096020706 -0.07551641 0.27402273 -0.10856432 0.33092734 0.0740388 0.2274065

bias f4 [128]
00000000: 7484 edbc 97ca 74bd faec 61bc 51c3 acbb
00000010: dc39 12bd a51d adba b4cb 023d 9bfe 823d
00000020: b98d c3bd 2627 60bc b288 a23d dba8 65bc
00000030: 58f1 c2ba 1bce 233d 3283 393d 792b 723d
00000040: db6a 623c 6c44 f23c 9dd1 88bd ecdb 393d
00000050: 1f28 61ba 2d2f c53c 8cde cbbd 1c7f ae3c
00000060: 4021 9bbd 3033 f3bd 5ea0 04be 104b 08be
00000070: 22b5 bd3b 8a10 00bd 0b35 a33d 6aac a23d
00000080: 7588 4abd bf52 9a3d 660e e13d 89ed 843d
00000090: 8b03 38bd f5ec f4bc f81b 1dbe 0fa7 a63d
000000a0: 7b2e 38bd cd96 b5bd 123c 9b3c 4ccd afbd
000000b0: 2e42 c3bc a8a8 95bc 8485 a6bd ad83 0b3d
000000c0: 7fb4 35ba 487d 02be bf35 3dbd 489b 24bd
000000d0: 8dd6 453d 9b34 d9bd db42 ab3b 3b15 ddbc
000000e0: e325 9abd fc0b c4bc 1722 35bd ef80 9b3c
000000f0: 3a54 9ebb 3235 c13d 8f92 1bbd 03e7 243c
00000100: 464e 4a3c 2e6d 1abd ed57 ecbd 2366 64bd
00000110: 21bb e23c e9b7 31bd dfc4 09be e134 ecbc
00000120: e8ea 903c 9880 54bc 267e 5ebb 9378 1fbd
00000130: 5972 9abd 634f 083e f074 08bd 461a 90bd
00000140: 11fc d7bd 1261 f4bd aacf 47bd 46e2 d63c
00000150: bc12 b7bd 3127 d23c 02a6 a6bd da6b f0bc
00000160: 0456 6a3d 71e7 a2bc fbe1 92bd 59ac ccbc
00000170: 5549 afbd 617e cb3c 461a 45bd ef21 a9bd
00000180: 9241 0ebd 7501 debd 3243 5d3d 9989 d7bd
00000190: 8d3e 36bd 0378 e5bd 6d5b 1bbc 6254 a2bd
000001a0: 6de8 46bc daa0 69bd 6e96 ae3c 8ccc d3bc
000001b0: 0c0d 573c 55b0 aa3d 5b89 623d cdd2 53be
000001c0: 3d7c c2bd 1edb 4f3c 38b1 a93c 48b1 8bbc
000001d0: 24ec 37bc 8b40 cebd 01fb 77bd d0ad f8bd
000001e0: 8d91 a1bd 2af4 82bd a9f9 92bd bbeb 39bd
000001f0: 4f4f 99bd bbf4 94bd 7d1b 93bd 269c 613d
-0.028993823 -0.059763517 -0.01378941 -0.005272307 -0.03569971 -0.0013207687 0.031932548 0.063962184
-0.09548516 -0.013681209 0.07936229 -0.014017309 -0.0014872951 0.03999148 0.045291133 0.05912349
0.013819422 0.029573642 -0.066806056 0.04537575 -0.00085890474 0.024070347 -0.09954557 0.021300845
-0.07574701 -0.118749976 -0.129518 -0.13309884 0.005789415 -0.031265773 0.079691015 0.079430416
-0.04944654 0.07535314 0.109890744 0.06490619 -0.044925254 -0.029898146 -0.153427 0.08137333
-0.044966202 -0.088666536 0.018949542 -0.08584079 -0.023835268 -0.018268898 -0.08130935 0.034061123
-0.0006931498 -0.12743104 -0.046193834 -0.04018715 0.048300315 -0.10605737 0.0052264757 -0.026987663
-0.075267576 -0.023931496 -0.044221964 0.018982379 -0.004831818 0.09433974 -0.037981566 0.010064843
0.012347763 -0.037701778 -0.11540208 -0.055761468 0.02767712 -0.04338828 -0.13454007 -0.028833808
0.017690137 -0.012970112 -0.0033949702 -0.038933348 -0.07541341 0.13311534 -0.033314645 -0.07036261
-0.10546125 -0.11932577 -0.04878203 0.026230942 -0.0893912 0.025653454 -0.08137132 -0.029348303
0.057210937 -0.01988575 -0.071720086 -0.024984526 -0.08558909 0.024840536 -0.04812076 -0.082584254
-0.0347305 -0.10840122 0.05401916 -0.105242915 -0.044493247 -0.11204531 -0.009482247 -0.07926251
-0.012140376 -0.057038166 0.021311965 -0.025854371 0.013125669 0.08334414 0.055306774 -0.20685883
-0.09496353 0.012686519 0.020714387 -0.017052308 -0.011225734 -0.10070904 -0.06054211 -0.12142527
-0.0788909 -0.06394227 -0.07176525 -0.045390826 -0.0748583 -0.07273241 -0.07182977 0.055080555

weight f4 [128, 128]
00000000: 38ee 14be 0a62 3cbe 14a5 cf3d 48e9 6abd
00000010: 4f6d 44bc f1d8 793c 31d9 dabc 5456 ad3d
00000020: fcaa b63d 3cec a2bd 5a65 523e 54b1 48be
00000030: da43 bb3c 69f4 313e d8a5 0c3c 8783 a03d
00000040: 8de5 d63c 3f27 d6bd bac0 4d3d 2f11 bebd
00000050: 0f4f 84be b602 6dbe 1d56 963d 6871 dabe
00000060: 9b00 a8bd 07c4 ccbe 27ab 15be 74dd 973d
00000070: cf8b 783c ab45 2f3d 5c8d 1abe 5a97 b0bd
00000080: cea5 353d abca 42be 9378 6fbe 66e2 74be
00000090: e775 173e 1e90 863e d942 9c3c 6b86 a23d
000000a0: bf01 38bc aaea edbe 28e4 6ebe 66d6 6d3d
000000b0: 83e2 c9bc dd5c 18be 1703 adbd 700d 30bd
000000c0: 5179 5cbe 0390 34be dd65 aabe 302b 263d
000000d0: 1e5f acbd 3fd0 fabb 0fa8 a1bd fd83 16bd
000000e0: ed6e 173e 751d 263d 6f62 6cbe eb62 1e3d
000000f0: afd5 d6bd 5fc0 9d3e 8460 373c e9be c0bd
00000100: e3d8 f43d b229 48be 393f 85bd 2acc 8d3d
00000110: 5171 bcbc 2b54 d1be 2512 7f3d 7e84 4dbe
00000120: dcba 01bb a8d0 343d 25c4 3b3e 38ea 9a3d
00000130: 128e 8bbd ec01 03bf e024 81bd 806c 39be
00000140: fc01 c3bd c6d3 d93c d5e5 7bbc dbc1 183e
00000150: 6e0e 7dbe d959 f03d 421e 25bc 02e0 8bbe
00000160: 9952 89be 6334 7abd 2035 a33d 5710 e43d
00000170: ed9e 3ebe 84dd 4ebe 7009 f2bd 1386 b3bd
00000180: 44ed d33d a5c3 4a3e 1eeb 60be 5375 023d
00000190: a951 b5be 2c08 bfbc f68b 9abd e2c7 b9bc
000001a0: 6463 c13b 6886 273e 5698 2dbe bce3 e13d
000001b0: ad3a 4c3d 8c97 7c3d 80a9 3ebd a705 a6bc
000001c0: 1618 77be 40a6 d43c 0ea0 6bbd 537c a4be
000001d0: 010b 87bc 290f 193d 01b9 253d 171a a7be
000001e0: 1b52 80bd 623f 1b3e 54ae 403e 08b3 30be
000001f0: ac7c 2dbe 4452 4d3e aac9 91bd 09f1 05be
00000200: adf0 99bd 2eac dfbb d842 b9bd 7deb 80bd
00000210: df9c 643d 2c3e dabd 9c67 cfbc 84ee afbc
00000220: ee88 36bc 5731 14bd cab4 b3bc c19a 763d
00000230: 5f4c 67bb 27eb 8ebd 2b26 76b9 c99a 02be
00000240: 7674 f8bc 1203 063d be20 59bb ec0d 69bd
00000250: 868d 27bd 8630 bcbd 4b70 94bd 87e8 73bd
00000260: bbbc c6ba 50a8 bb3b 4db2 86bd 4385 293d
00000270: 3ac9 3abd 2f5b 3a3c 7e8c 633d 7415 40bc
00000280: f7e7 e5bc 2f81 ccbd 63bb 373b 63e0 cabd
00000290: 36e7 27bd e6ef 9a3d 7a96 bdbd 7377 71bd
000002a0: 6740 8abc 60d8 903c 9c30 bebd 0815 8bbd
000002b0: e4d1 e1bc 46e0 f3bd 8fbc d13c 0598 febd
000002c0: 2934 87bd 8ef8 c63b 8627 38bd aefa d1bd
000002d0: 4b28 8cbd fa35 8c3d 47a4 823d 7262 3fbd
000002e0: 781f 273d 18e3 513d 8b18 bbbd bb99 c3bc
000002f0: 69e4 673d 3eac 3a3c 1bfb a8bd 2d3f 72bd
00000300: 0d24 41bd 7410 0fbd 1aa6 713c 4fc4 9fbd
00000310: 9277 193b 9c0c 76bd fbc8 49bd 1f5b 06bd
00000320: 729e 3c3d 452f aebd 1b5a b4bc f2b3 2ebd
00000330: 266b 64bd 64dd f8bc 1c8e 073d 21ea 0e3d
00000340: f964 8fbd 3ddf a73d e904 263c fa9f 9cbd
00000350: 9c63 cdbd c850 813d 9196 a6bd 0697 76bb
00000360: a252 08be 1b0a 4cbd 605b 99bd fff7 95bc
00000370: c931 cabd f5d6 5bbc 7704 6bbd 768a 83bd
00000380: 93bf 3fbd 6e4d 87bd f1d2 b1bc f045 f9bc
00000390: 9562 ad3a 45b2 3cbd 44cd 47bd 5b67 e6bc
000003a0: 0636 dcbc dffd dd3c 552b 9ebd 0096 4cbd
000003b0: d2b0 f7bc aef8 99bd 2436 c8bc 7f66 533c
000003c0: 8516 6cbd 74bd 83bd 7374 edbc 970b 6e3c
000003d0: f5f2 a23b 5fec 603c e836 d1bd 3d06 a6bd
000003e0: 6fcd 77bd 54ce 1b3d 62a2 683d c849 93bb
000003f0: a63c 52bd 7251 a4bd 4fcd c4bc d2fd aabd
-0.14543998 -0.18396774 0.10138908 -0.05735138 -0.011988952 0.015249477 -0.026714893 0.084637314
0.089193314 -0.079552144 0.20546475 -0.19598895 0.022859503 0.17378391 0.008584462 0.07837587
0.026232505 -0.10456704 0.050232626 -0.09280621 -0.25841567 -0.23145565 0.073406436 -0.42664647
-0.082032405 -0.39993307 -0.1461607 0.07415286 0.015170052 0.04279105 -0.15092987 -0.08622618
0.044347577 -0.19022624 -0.23385839 -0.23914489 0.1479107 0.26281828 0.019074844 0.079357944
-0.011230885 -0.46468097 -0.23329222 0.058065794 -0.024644142 -0.14879175 -0.08447855 -0.042981565
-0.21530654 -0.17633061 -0.3328084 0.04056853 -0.0841658 -0.0076542194 -0.07893383 -0.036746968
0.14788409 0.040555436 -0.23084424 0.038668554 -0.10489976 0.3081083 0.011192445 -0.09411413
0.1195543 -0.19547155 -0.065061994 0.06923707 -0.023003252 -0.40884528 0.062273163 -0.20070073
-0.0019795215 0.044144303 0.18336542 0.07564205 -0.06814207 -0.5117481 -0.063058615 -0.18107796
-0.09521863 0.02659024 -0.01537462 0.149177 -0.24712536 0.11735887 -0.010078015 -0.27319342
-0.2682083 -0.061085116 0.07969117 0.11135929 -0.18615313 -0.20201689 -0.11818206 -0.08765807
0.10347989 0.19801195 -0.2196469 0.03185017 -0.35413864 -0.023319326 -0.07546227 -0.02267832
0.005901741 0.16359866 -0.16952643 0.11029765 0.049860645 0.061667964 -0.046548367 -0.020266367
-0.24130282 0.02595818 -0.057525687 -0.32126102 -0.01648474 0.037367973 0.040459637 -0.32637092
-0.062656604 0.15160897 0.18816501 -0.17255795 -0.1694209 0.20050913 -0.071185425 -0.13080229
-0.075166084 -0.0068259453 -0.090459526 -0.06294916 0.055813666 -0.106563896 -0.02531796 -0.021476038
-0.011141045 -0.036179867 -0.021936793 0.06020618 -0.0035293323 -0.069784455 -0.00023474607 -0.12754358
-0.03032897 0.03271777 -0.0033131088 -0.056898043 -0.04090645 -0.091889426 -0.07247981 -0.059547927
-0.0015162447 0.0057268515 -0.06576977 0.041386854 -0.04560206 0.011374279 0.055553906 -0.011723865
-0.028064711 -0.09985577 0.0028035275 -0.099060796 -0.040991984 0.07565288 -0.09257217 -0.058951806
-0.016876413 0.0176813 -0.09286615 -0.06791121 -0.027565904 -0.11908011 0.025602607 -0.12431339
-0.06601746 0.0060721105 -0.044959567 -0.102528915 -0.06843623 0.06846233 0.0637899 -0.046724744
0.040801495 0.051241964 -0.091355406 -0.023877015 0.056614313 0.011393605 -0.082510196 -0.05914228
-0.04715352 -0.0349278 0.014749074 -0.07801115 0.0023417217 -0.06007062 -0.049263936 -0.032801744
0.046049543 -0.0850511 -0.022015622 -0.042652078 -0.055766247 -0.030379005 0.03309451 0.03489125
-0.07001681 0.08196876 0.010133007 -0.076477006 -0.100287646 0.06314236 -0.08134187 -0.0037626638
-0.13312772 -0.049814325 -0.074881315 -0.01830673 -0.09872777 -0.013417949 -0.057377305 -0.06422894
-0.04681356 -0.066065654 -0.02170703 -0.030428857 0.0013228232 -0.04606845 -0.04877974 -0.028125456
-0.02688123 0.027098594 -0.07723109 -0.04994774 -0.030235682 -0.07518135 -0.024439879 0.012902855
-0.057638664 -0.0643262 -0.028986191 0.01452913 0.0049728104 0.01372823 -0.10215551 -0.081066586
-0.06049865 0.038038567 0.056795485 -0.0044948794 -0.05132737 -0.08023347 -0.02402368 -0.08349194

bias f4 [128]
00000000: 869c 82bd e02f ddbd c2a9 9e3d 69fd debd
00000010: 9948 58be b7c8 e6bd 9bdb 1cbe 298c c33c
00000020: 6ba1 5d3d 7ee6 24be a4a3 1ebb 2209 4fbe
00000030: 9479 65bd eba8 ecbd 74d5 18bd f33b d2bb
00000040: 12d6 813c fcd7 153d 904d 0e3d 3ffa 63bd
00000050: 4ceb d63d 6461 073e 90b0 94bd 3488 963d
00000060: 0895 943c 83cb e0bc 6f4c 23be 55d5 d93d
00000070: c9ad c1bd 1af7 913d 5ad4 56be a4bd 97bd
00000080: cb14 90bd 7692 bc3b 49c7 39bd 559f 30bd
00000090: 37ea 073d 9302 6abe 0806 c5bd caf8 0abd
000000a0: 7cfb 4d3d 0545 a03d d932 6a3d 033c c73d
000000b0: 050b b6bc 7667 3dbd 8b04 0abd 5b74 cfbc
000000c0: 32da ea3c fb7c 6fbd df87 fe3d 6606 cfbd
000000d0: f706 c93d 63b4 b4bd d29d a0bd 574b 5ebd
000000e0: efc2 dabd e671 de3c 12d7 c63b d4a8 59bc
000000f0: bdec 7fbd 2aff d2bd e15f b83d c74a afbd
00000100: 42e0 7f3c 54d9 d9bd 739c 72bd 84ec 3bbd
00000110: c0c2 24bd d094 6c3d 64de 003d 5d61 02be
00000120: 8da6 16be 594c 0cbe de66 bf3c 0aae 29bc
00000130: 3037 38bc 882e 38bd 53a1 5bbd 5e43 de3b
00000140: 0cc2 62bd 23cb b23b ebba 2ebe ba23 2abe
00000150: 3b57 1b3d 4b05 64be 7fd9 36bd a8db c3bd
00000160: 93f7 efbd a095 053d 2067 d93c b3e9 41bc
00000170: 69e1 73bd 1455 09bd dac3 5a3d fe28 11be
00000180: 85c5 f4bd a653 523d 5dcd 1f3d 5939 5abd
00000190: b6f6 a7bd af96 2bbe 27a0 a5bd 31c8 86bd
000001a0: 0c1a 65bd 1654 3dbe 2475 0cbc 7c85 64bc
000001b0: ecc9 72be 6dbe 68bd 2a47 213d 171d f53d
000001c0: 7b3d 5a3b c535 dfbd eded a4bd e93f c1bd
000001d0: 36be 54be f4b0 1c3d 199c 03be b32f f2bd
000001e0: b861 a0ba 829c 35bd 914e 8cbd 049a 21be
000001f0: f0b1 0ebd 11e3 61be 4e2f ad3d 4cdb 1cbd
-0.06377511 -0.10800147 0.077472225 -0.10888178 -0.21121444 -0.11268752 -0.15318148 0.023870545
0.05410902 -0.16103551 -0.0024206424 -0.20218328 -0.05602415 -0.11555656 -0.03731294 -0.006415838
0.015849147 0.036582932 0.034741938 -0.055658575 0.10494098 0.13220745 -0.07260239 0.073501974
0.01813747 -0.027440792 -0.15947126 0.10636393 -0.09456975 0.07127209 -0.20979443 -0.07409218
-0.07035216 0.005754764 -0.04535607 -0.0431207 0.03318235 -0.22852544 -0.09620291 -0.03392867
0.050288662 0.078256644 0.0571774 0.09728243 -0.022222051 -0.046241246 -0.03369574 -0.025324037
0.028668497 -0.0584688 0.12428259 -0.10108642 0.098157816 -0.088234685 -0.07842602 -0.05427107
-0.10681712 0.02715392 0.006068119 -0.013284881 -0.06248163 -0.10302575 0.090026625 -0.085591845
0.015617432 -0.10637155 -0.059231233 -0.045879856 -0.04022479 0.057759106 0.03146209 -0.12732454
-0.14711972 -0.13701 0.02336448 -0.010356436 -0.0112436265 -0.04496625 -0.053620648 0.006782933
-0.05536084 0.0054563447 -0.17063491 -0.16615191 0.037924986 -0.22267644 -0.044641014 -0.095633805
-0.11717143 0.032613397 0.026538432 -0.011835503 -0.05954114 -0.033528402 0.053409435 -0.14175794
-0.11951736 0.051349305 0.03901421 -0.053277347 -0.08201353 -0.167567 -0.08087187 -0.06581152
-0.055933043 -0.18489107 -0.00857285 -0.013947841 -0.2370984 -0.05682223 0.039374508 0.11968439
0.0033300805 -0.108989276 -0.08053193 -0.09436018 -0.20775685 0.038254693 -0.12852515 -0.11825504
-0.0012236154 -0.04433871 -0.06850923 -0.15781409 -0.034837663 -0.22059275 0.08456288 -0.038295075

weight f4 [128, 128]
00000000: c5eb 803d adc0 44bd ce61 5dbe af4a f33d
00000010: 479e 0e3c 10dc cbbc 2eac b3bd 9641 78bc
00000020: 22aa 2bbe 9bde 673d 1e01 3f3d fce3 c03d
00000030: 9303 18be 6f65 94bd bc96 03bd 0a5f 95bd
00000040: 965e b63d e840 003e 6add b7bd 16bc 023d
00000050: 3dd4 1bbc 9794 45bb 0303 043e 53e3 b4bd
00000060: cdae 643d b1db 46be bff2 903d 54ad b8bc
00000070: c9a9 9dbc 28cf 85be cdaf 93bd 5575 d6be
00000080: c786 2cbc cd0a 7f3d f115 4c3d 0c47 2c3d
00000090: f08e 133e 1cc8 57bd bab3 0ebe dee7 d63d
000000a0: e8b7 98bd ee5a dcbd 2ae2 f63d 7b47 2c3e
000000b0: 2f29 fabd 52d7 aebd c007 9d3d 015d 6abd
000000c0: 004d b9bd b1f8 c43d bd75 7dbe 91be 67bc
000000d0: a1e6 973d 69f6 9abe 4b7b 7fbd a291 b1bc
000000e0: 7e7b 43bc 4be0 4dbe 849d 21be b352 20bd
000000f0: c562 193e 2b7b 8ebd 5fa0 91be 8a5f 17bd
00000100: 06aa 74be e9ae fe3c 0a19 a6be cab3 b7bd
00000110: 1f1d 94bd de43 1fbd 0fc8 23be 057e 7f3d
00000120: 5be2 1dbe 7f85 6dbd 3de7 5fbd 34e5 5dbd
00000130: b051 80bc 4a3d 1fbe f2ea 0cbe 090d c8bd
00000140: 36a4 06be 0a07 15bc f2d5 07bd 5001 0a3c
00000150: 0bdd 303e cc85 a13d ce4f 393c cc29 ddbd
00000160: 91eb 42be f99f d53d 6cb4 193e f537 db3d
00000170: 5cd7 75bd 3abd 613e d196 6dbe a349 f33c
00000180: 2e8b a73c a264 08bc f9a8 1dbd ee2d b73d
00000190: ea1d 0c3e 1592 c0bd c873 073e 69b1 c33d
000001a0: 81dd a23d 706c 3dbd c101 b03d 3b95 763d
000001b0: 9a43 303e 7e9c 8b3d 5944 9dbe 5789 523e
000001c0: 561e 033d 01d4 ce3d 8f16 123e cb85 94be
000001d0: a973 533e fcd9 d23d b7ac 413a 1043 c03d
000001e0: 8193 6cbe d040 a3bd c12d 693d 6b54 793d
000001f0: dd82 34be 881c a53c ce16 b4bd e03a c83d
00000200: d610 693e c18b 20bd 5297 303e 3a3f f53d
00000210: 604e c7bd 28de 6cbd 68fa 47be 453e 033e
00000220: d24e cebc 7270 3b3e 35cf 3abe 3d8f 783c
00000230: 142c 5dbd 18c9 7c3b da77 453e 21b1 4abe
00000240: 1828 f93c b240 213e 36b3 48bd e005 b83d
00000250: 3979 dd3d 6ea3 993d fec6 e5bd e4d6 5fbd
00000260: 8dc2 9d3d f5d2 8e3c 0e9d a4bd 608e 48be
00000270: 373e 0cbe 8f83 7abd 22cf c0bc 2e15 343d
00000280: 99c9 293d d4af ccbe 89f8 afbc 7f18 5cbe
00000290: dca7 f1bd 411a d7bd 0b3a e73e 6600 51be
000002a0: 1718 103e abd8 a33e cae3 8e3d d4db ea3d
000002b0: 9ff5 373c e959 9bbe 2ad4 15be 0527 a4bc
000002c0: 6c6b 0a3e bc0b 57bc 63cc ce3c 1384 893c
000002d0: 2d9e 92be 2552 4dbd 8fb3 283e 959a de3c
000002e0: f735 e73d f0ea 243d 1522 963e 878f 2abd
000002f0: 6af8 acbd 90ce bcbc 0692 4a3d 7a5d 3f3e
00000300: 45b8 e93c 4d6b 18bd f083 1abe 9eab 81bd
00000310: 0c37 183d 1bcf f3bd fe27 443e 864e 0abe
00000320: 57c0 873c 984a 36be 898c 1cbe 5daa 0cb9
00000330: 0606 63bc 2d5b a3bd 287c d1bd 73ec 2ebd
00000340: 9fcb f7bd d44b efbd 3239 bd3d a99c 673e
00000350: 473a a3bd 93d4 30bd 4588 46be ec25 02be
00000360: 0edf 1b3e 7735 24be 0d5e 153e c87d a83c
00000370: 4d55 8a3c dfeb b1bd 2b6e d93c e1fe d2bd
00000380: 6547 9abd f604 6abd f98c e83d e100 edbd
00000390: cc2c eebd 07dc 1c3d d8e9 ab3e 7d70 b93d
000003a0: a4d1 233e fc92 f5bd 1f79 b1be f296 5abc
000003b0: 7203 0abe 3f2a 913c 2fd4 903d 1188 c0be
000003c0: 73aa 1dbd 679e 6bbe bae1 25be 5938 3c3d
000003d0: b05c 6dbb 7c94 203e 41ab 63be 6023 7bbd
000003e0: e759 09be c2c5 a93d f865 8dbd f4ba 213d
000003f0: b81d 83be ad6b 20bd 84aa 763d 5bf5 0bbd
0.062949695 -0.048035312 -0.21619341 0.11879479 0.008704728 -0.024885207 -0.08773075 -0.015152356
-0.1676412 0.056608777 0.046631925 0.094184846 -0.14845113 -0.072459094 -0.032126173 -0.07293518
0.089047596 0.1252476 -0.08977778 0.031917654 -0.009511051 -0.003014838 0.12891774 -0.08832421
0.055830766 -0.19419743 0.0707755 -0.022543587 -0.019245999 -0.2613461 -0.07211266 -0.41886392
-0.01053018 0.06226616 0.049825612 0.042059943 0.14409995 -0.052681074 -0.13935748 0.10493444
-0.07456952 -0.10759531 0.12054856 0.16824143 -0.122148864 -0.08537163 0.07667494 -0.0572176
-0.0904789 0.096177466 -0.24751945 -0.014144556 0.07417036 -0.3026612 -0.06237344 -0.021675888
-0.011931298 -0.20105092 -0.15782744 -0.039141368 0.14979084 -0.06957086 -0.28442666 -0.036956348
-0.23892984 0.031089263 -0.32440978 -0.08969839 -0.07232117 -0.038883083 -0.15994285 0.06237604
-0.15418379 -0.05798864 -0.054663885 -0.054173663 -0.015663952 -0.15550724 -0.137615 -0.09768111
-0.13148579 -0.0090959165 -0.03316302 0.0084231645 0.17271821 0.07886848 0.011310531 -0.10798988
-0.19035174 0.10430903 0.15010232 0.10704032 -0.060019836 0.2204484 -0.23202063 0.029698199
0.020452108 -0.008324774 -0.038491223 0.08944307 0.13683286 -0.09402863 0.13227761 0.09555323
0.07952405 -0.046245992 0.085940845 0.06020091 0.17213288 0.06816958 -0.30716208 0.20560203
0.032011352 0.1009903 0.14266418 -0.29008326 0.2064959 0.102954835 0.0007388102 0.09387791
-0.23103143 -0.079713464 0.0569284 0.060871523 -0.17628045 0.020155206 -0.08793412 0.097768545
0.22760329 -0.03919578 0.17245224 0.1197495 -0.09731746 -0.057829052 -0.19529116 0.12816723
-0.025184069 0.18304613 -0.18243106 0.015170869 -0.053997114 0.003857201 0.19284001 -0.19794132
0.030414626 0.15747336 -0.048999034 0.089854956 0.10814137 0.07501875 -0.112195954 -0.054648295
0.07703123 0.017434577 -0.08037768 -0.19585562 -0.13695608 -0.06116062 -0.023536269 0.04396551
0.041452024 -0.39977896 -0.021480815 -0.2149372 -0.11799595 -0.105030544 0.4516147 -0.20410308
0.1407169 0.32001242 0.06977041 0.1146771 0.011227994 -0.30342034 -0.14631715 -0.020038137
0.1351754 -0.013125356 0.025243944 0.01678661 -0.28636304 -0.050127167 0.16474746 0.02717332
0.1128959 0.040263116 0.29322878 -0.041640785 -0.08445819 -0.023047715 0.049455665 0.18688002
0.02853025 -0.037211705 -0.15089393 -0.063315615 0.03716187 -0.119047366 0.19155881 -0.13506517
0.016571207 -0.17801893 -0.15287985 -0.00013414906 -0.013856417 -0.07976375 -0.10228759 -0.042705964
-0.120993845 -0.11684385 0.09239425 0.22618355 -0.079701 -0.043171477 -0.1938792 -0.12709779
0.15221807 -0.1603602 0.14586659 0.02056779 0.016886378 -0.08687567 0.02654179 -0.103025205
-0.07533149 -0.057133637 0.113550134 -0.11572433 -0.11629638 0.038295772 0.33576846 0.090546586
0.1599794 -0.11990926 -0.3466272 -0.013341652 -0.13477877 0.01772034 0.07071721 -0.3760381
-0.03849263 -0.23009644 -0.16199389 0.045952175 -0.0036218576 0.15681642 -0.22233297 -0.061313033
-0.13413201 0.082896724 -0.069042146 0.039484933 -0.2560861 -0.039165188 0.06022121 -0.034169536

bias f4 [128]
00000000: 1e56 963d 85a7 a43d 10e0 1abd 807b aabd
00000010: d9e9 8b3c 43dd a6bd 3e28 92bd d48c 0ebe
00000020: c7d0 32be f37d e3bd e464 debd 45c7 1abc
00000030: 1d98 df3d 9eac 98bc 27ab 903d 6862 123e
00000040: fafe 24bd c69d db3c be1b 013e a54d 773d
00000050: 837f 353d 7c72 183d 74b5 90bd 59ec 41bd
00000060: a026 a23d d904 013d f707 083d ca0a 513c
00000070: d723 9a3c e94e 49be 8fe2 b6bd 8e75 1fbe
00000080: 049f 32bd eb91 27be ca3d b0bb 3298 59be
00000090: c1c3 87bd 323b 193e bd51 10bc f7cc 19be
000000a0: be5c 973d 21b6 8dbd e445 12bd 04a1 6fbe
000000b0: 06f9 ccbd afa8 0fbe 1527 2fbd d118 81bd
000000c0: 60aa 903d fdd1 48be e9ba b93d 324a 8abd
000000d0: 8394 f9bd b069 b23d 3bae 23bd 30ff c3bd
000000e0: 5ddc de3c 2dea 8e3d 18cd 023d b785 053d
000000f0: ca60 19bd 51f9 10be f366 11be 0e25 18be
00000100: 59f8 35be 2e9d 033d 42a5 bfbc efe3 a63d
00000110: 9d02 49bd 0632 63bd 198e 543d 6cb6 16be
00000120: c70c 4fbb db44 c8bd f01d b6bd 0406 2f3d
00000130: 8296 8fbd 811d 5dbe 4502 c7bd 5d67 02be
00000140: 0d38 37be 2ac9 28be 45ec f13d 4346 9d3c
00000150: ff13 82be 198e 6e3d dccb ea3d 0a80 d7bc
00000160: 804c 263d a4c2 73bc fd19 3dbe 7562 98bd
00000170: 8a9d 973d 3b3a dcbc 713b a63d ab32 2d3d
00000180: 3f05 1d3e 2780 0ebe 3e36 87bd b6a3 953d
00000190: ea10 50be 925e 37be 3e10 e0bd e6c5 5fbe
000001a0: 49fe 113d 2836 1ebe 7746 bbbd 9622 d2bd
000001b0: d8f1 febd e5bd 42bd 6514 983d ad3e 4cbd
000001c0: a301 363d d605 55bd b94f 60bb 32da b2bd
000001d0: b7c5 20be 24be cabd 5186 01be 4e2d ca3d
000001e0: decf 0f3e 0620 11be 246e 29be 2c36 6c3d
000001f0: 5de0 0a3e effd aabd 42fd 9a3d e3e8 903d
0.07340644 0.08039764 -0.03781134 -0.08324337 0.01707928 -0.08147671 -0.07136582 -0.13920909
-0.17462455 -0.11108007 -0.10859087 -0.009446924 0.10917685 -0.018636998 0.07063895 0.14295352
-0.040282227 0.02680863 0.12608239 0.060376782 0.044311058 0.037218556 -0.070658594 -0.04734454
0.079175234 0.031498764 0.03321072 0.01275892 0.018815918 -0.19659008 -0.08929931 -0.15572187
-0.04360868 -0.16364257 -0.0053784596 -0.21249464 -0.06629134 0.14963987 -0.00880855 -0.15019594
0.07390736 -0.06919504 -0.035711184 -0.23401266 -0.10008435 -0.14029191 -0.04276188 -0.063035615
0.070637465 -0.19611354 0.090688534 -0.06752433 -0.121865295 0.087115645 -0.03996108 -0.095701575
0.027204687 0.06978259 0.031933874 0.032598224 -0.03744582 -0.14157607 -0.14199428 -0.14857885
-0.17770518 0.03213232 -0.02339423 0.08148944 -0.049074758 -0.055467628 0.051893327 -0.14718026
-0.003159331 -0.09778758 -0.08892429 0.042730346 -0.07011129 -0.21593286 -0.0971723 -0.12734742
-0.17892475 -0.16482988 0.11812643 0.019198542 -0.2540588 0.058240984 0.11464664 -0.026306171
0.0406003 -0.014877949 -0.18466945 -0.07440654 0.07403095 -0.026883235 0.08116806 0.04228465
0.15334032 -0.13916074 -0.06602143 0.07306616 -0.20318952 -0.1790717 -0.10940598 -0.21852836
0.035642896 -0.15450346 -0.091442995 -0.10260503 -0.12448472 -0.04754438 0.07425765 -0.04986446
0.044435155 -0.05200752 -0.0034227206 -0.08733024 -0.15700422 -0.09899548 -0.12648894 0.098719224
0.14044139 -0.14172372 -0.16545922 0.05766885 0.1356215 -0.08349215 0.07567836 0.070756696

weight f4 [128, 128]
00000000: 6dff 0cbe eeef 3ebd 3816 05bd fff2 17be
00000010: 8e7e 2d3d 066b 25bd 2d82 28bc 0ebb 7abb
00000020: 9f41 ad3c 2056 a23d 3952 7dbd 88de e6bc
00000030: 0fe9 7cbc 8dea 89bd 15ba bebd 43f0 14bb
00000040: 9b20 84bc 4ec2 943d f339 053c 236f 2cbd
00000050: 6a50 39be dde5 68bc 9697 8bba 47cd c8bc
00000060: a6ac 59bb bdd3 86bd 5ef0 92bc fb1c 07bd
00000070: 6a65 cabd a1cc 803d cf4f e8bc e83d 44bd
00000080: 8244 7fbb 64c3 733c 9594 2abe 9b4d 133d
00000090: 2505 483c c80d fb3b 22d5 13be a46f 66bd
000000a0: 0c34 f8bc a9a2 10bd e441 c23c 329a a3bd
000000b0: 2d87 b0bd 819d 2abc 05fb 15be 44fa 0abe
000000c0: 2531 21bd 7ac9 b0bd 7886 d8bd 3737 b3bd
000000d0: 36e7 e6bb c0bd 12be cff5 c3bc cef5 ab3d
000000e0: 7657 5cbd e0d4 6d3c d22c 35bd 741c a33b
000000f0: c730 1b3d 0e92 71bc 914d 29bd 6bfc 40bd
00000100: 104d 053d d7fc 3a3d 65e2 323d 67ed 1ebd
00000110: b548 01bd f4c3 8dbd 9f5c dc3d 35f8 8fbd
00000120: ee4f f5bd ebec 7cba 4f23 79bc 832e a6bd
00000130: 9647 f43c 8405 fa3c e4d9 56bd 66e3 b0bd
00000140: 60d8 fc3c 6b52 723d 52b5 11bd 3072 eebc
00000150: 78fc 6b3c 4881 9fbd b0b1 cdbd 13d5 ea3d
00000160: e284 be3d 55a0 b4bd e67a aa3d ebe3 7cbc
00000170: 7730 8dbd 3d20 aebd 47ad dabd 0b65 1ebe
00000180: 4ce4 cfbd 853d 5fbc f0ba b8bd 761a abbd
00000190: b949 143d a378 a33b 2f74 d5bd 46a6 b2bd
000001a0: 8574 493d 3e4d 0cbe ae6a e0bc 81a8 883d
000001b0: d39c cebc 0cd1 8abc abca ac3c 0bbe bfbd
000001c0: 1bc7 abbd 133e 94bd 30d4 8f3d 2648 efbc
000001d0: 63ba 183d 5621 31bd 058c 72bc 5dc6 50be
000001e0: ca72 62bd f904 11bd 7cb3 fa3b 72de 193d
000001f0: 0e71 eabd 9b04 2cbc f79f 6dbc 306e 69be
00000200: 08c2 043c 3cba c5bd 2696 283d dce2 f1bc
00000210: cefd bebc a112 02bc 9d66 64bd 08e0 0abe
00000220: 8e43 c5bd 52b1 bbbb 4775 1cbd c101 cd3b
00000230: 3536 b0bc 4112 99bd 9918 803d 8976 86bb
00000240: 4db0 eebc 4bf6 e23c e675 6437 214b 5c3c
00000250: a37f 3fb7 90e6 313d 386a bdbd 2dd7 55ba
00000260: 2ce3 593d 6fb5 81bc 7989 14bd 72e8 6ebd
00000270: a74f d8bd 9c7f 893d 6fa2 03bd abdd 443c
00000280: bc15 abbd 2731 55bd 31c0 9f3c d3a5 333d
00000290: 30f9 51bd a74b 1f3d 4214 1bbb 0cdc 973d
000002a0: b2b3 07be 291d 373c 3d28 c1bc 1c5b cd3d
000002b0: 7e75 9bbc b651 7fbc 1394 18bd 8de5 48bd
000002c0: 83b3 e4bd 2424 cc3a be5b 35bd 25cb 25bb
000002d0: b6bc 7bbc 8cbe 5fbd 266a 30bd ddf4 9dbc
000002e0: e7dc fa3a cae5 27bd 91d6 0abe e5b2 b6bd
000002f0: 26e8 1f3b b73d 8c3d 0878 a9bd 3690 a4bd
00000300: ec90 a53d 80a7 933d c718 88bd 3815 19bd
00000310: fdcd ccbd d2e0 30bd 8f2b 30bd 07ff 8aba
00000320: 2aa9 ca3c 66d3 0dbc b831 6c3c dec6 a8bd
00000330: e0c7 f8bd 10af 493d cd70 673d e40a 12bd
00000340: b8bf 9abd 351a 6ebd 2791 aa3c 24e6 d5bd
00000350: f3e7 073c 8ce2 e5bd eb7e 68bc 9626 8fbd
00000360: 3634 073d 8686 9c3b 7e9f fdbc f5f4 86bd
00000370: c6c8 0fbc 815b 71bd c8b0 4bbd 8105 c8bd
00000380: c208 afba f377 293d 7d9f 0dbe be9f df3c
00000390: bee7 783c 6526 22be 47fd a2bd b41f 89bd
000003a0: 4a52 e6bd 3b8a 5cbd 8ccb 9cbd 3ba2 3a3d
000003b0: dd85 51bd 1470 a53d f4e7 343c 3e50 35bd
000003c0: 0ba8 e3bb 4d04 0a3c 042d 6bbd c62d 28bc
000003d0: bb11 b73c 5c72 b1bd 5326 16ba bebf c8bc
000003e0: 7326 dfbd 835f 9abc 5db3 3bbd 4249 c1bd
000003f0: 7905 e83c a8be 683c 89d7 57bc 09bb 14be
-0.13769312 -0.046615534 -0.032491893 -0.1483879 0.04235702 -0.04038527 -0.010284943 -0.0038258466
0.021149455 0.07926583 -0.06184599 -0.028182283 -0.015436425 -0.0673419 -0.09312836 -0.0022726215
-0.016128829 0.07263623 0.008131492 -0.042098176 -0.18097082 -0.01421496 -0.0010650035 -0.024511946
-0.0033214479 -0.065833546 -0.017936882 -0.032986622 -0.098826244 0.0628903 -0.028358368 -0.0479106
-0.0038950746 0.014878128 -0.16658242 0.035962682 0.012208258 0.007661555 -0.14436772 -0.056258813
-0.030298255 -0.035311375 0.02371306 -0.07988395 -0.08619533 -0.010413528 -0.14646538 -0.13572031
-0.03935351 -0.086321786 -0.10572523 -0.08750766 -0.0070466055 -0.14330196 -0.023920922 0.08396493
-0.053794347 0.014516085 -0.044232197 0.004977757 0.037888315 -0.014744295 -0.04133374 -0.047115725
0.032544196 0.045651283 0.043672938 -0.038800623 -0.03156348 -0.06922141 0.107598536 -0.070297636
-0.11978136 -0.00096483406 -0.015206172 -0.0811434 0.029819291 0.030520208 -0.05245389 -0.08637123
0.030864894 0.05916063 -0.03557331 -0.029107183 0.014403455 -0.0778833 -0.10043657 0.11466422
0.09302689 -0.088196434 0.08324222 -0.015435199 -0.068940096 -0.08502243 -0.10677581 -0.15468232
-0.10150966 -0.013625507 -0.090200305 -0.083546564 0.03620312 0.0049887463 -0.10422551 -0.087231204
0.049183387 -0.1370134 -0.027394619 0.066727646 -0.025221264 -0.016945384 0.021092733 -0.0936242
-0.08387586 -0.07238402 0.070228934 -0.029209208 0.037287127 -0.043244682 -0.014803891 -0.2038817
-0.055285253 -0.035405133 0.0076507907 0.037565656 -0.11447345 -0.010499145 -0.014503471 -0.2279594
0.008102901 -0.09654662 0.041158818 -0.02952712 -0.023314383 -0.007939012 -0.055761922 -0.13562024
-0.09632026 -0.0057279253 -0.038197782 0.0062563126 -0.021510223 -0.07474185 0.06254692 -0.004103486
-0.029136801 0.027705332 1.3617309e-05 0.0134456465 -1.1414205e-05 0.043432772 -0.09248775 -0.0008157369
0.053195164 -0.015833585 -0.036263917 -0.058327146 -0.105620675 0.06713793 -0.03213733 0.01201574
-0.08353755 -0.05204883 0.019500824 0.043859314 -0.051263034 0.038890507 -0.0023663198 0.074150175
-0.13252142 0.011176386 -0.023578757 0.10027143 -0.018976923 -0.015583446 -0.03725059 -0.04904704
-0.11167052 0.0015574736 -0.044276945 -0.0025298086 -0.015364816 -0.05462508 -0.04306998 -0.019281799
0.001913932 -0.04099063 -0.13558413 -0.0892084 0.0024399846 0.06847709 -0.08274847 -0.080353186
0.08084282 0.072096825 -0.06645351 -0.03737375 -0.10000227 -0.043183155 -0.04301029 -0.0010604569
0.024738867 -0.008656358 0.014416151 -0.08241056 -0.12147498 0.04923922 0.05650406 -0.035654917
-0.07556099 -0.05813046 0.020821167 -0.104442865 0.008295047 -0.11224851 -0.014190416 -0.069897816
0.033008777 0.0047767786 -0.03095984 -0.065896906 -0.008775895 -0.058925156 -0.04972914 -0.09766675
-0.001335405 0.041374158 -0.13830371 0.02729785 0.01519197 -0.15834959 -0.07958465 -0.066955
-0.11246164 -0.053842764 -0.07656011 0.04556487 -0.051153053 0.08078018 0.01104163 -0.044265978
-0.0069475225 0.008423877 -0.057415977 -0.0102648195 0.022347322 -0.086643904 -0.00057277567 -0.024505492
-0.108960055 -0.018844372 -0.04582535 -0.09437801 0.028322922 0.014205612 -0.013173946 -0.14524473

bias f4 [128]
00000000: 1429 6fbd f180 12be a64d c63d 388d a0bd
00000010: 6ceb 973c f4d2 80bd 6a94 ea3d 85a3 993d
00000020: e43c 9ebd 3e08 ffbd a326 41be 2bc7 0dbe
00000030: b04f f0bd 3501 b43c 491a 5cbd d931 d8bd
00000040: b5fe 17be 03aa 023e 3dc2 8abd 2307 23be
00000050: f3d6 0d3d 0115 2c3d ef26 4ebc 74c1 b5bd
00000060: 0b20 683d 3708 a43d e72b 243d c8ae a3bd
00000070: dcbe 0cbe 9fe5 e2bd dc85 afbd aa61 863d
00000080: 366d 08bd 4031 80bd c78d 2dbe 0cd0 413e
00000090: 899c e5bd 1b02 f4bd fb87 0abe 2b56 0c3e
000000a0: 22b9 04bd 605c ccbd 9b6a 1b3e 3161 13be
000000b0: 35d0 69bd 27f3 eabd 53ba a4bd 207a 16bd
000000c0: 4017 e63d 6a69 8bbd c52e cf3d 3d91 8cbc
000000d0: 2e23 a83d 9a45 a1bd 7688 efbd 9ba5 35be
000000e0: b1c0 f7bd be60 e9bb 01b8 99bb bdc3 6fbc
000000f0: 0682 4c3e 944c 023d 6e75 01be 3da1 073d
00000100: 5ecc d23d 575f cfbd dc58 e13c 6319 f43d
00000110: fe42 1dbe 6868 f53c 36da 25be f2ef a8bd
00000120: 9ab3 13be 1eb3 1abe f66f 893d 240f debd
00000130: 94c9 00be f35c e0bd 5e0e debb 57ff 1abe
00000140: 6fd8 ddbc c543 9c3d 44c1 823c 3ef7 abbc
00000150: 877c 2dbe 3f1d bbbd 3ce3 a4bd 504e 98bd
00000160: b4fa e43d 93e5 0c3e f885 f63d cf95 fabd
00000170: a275 dabd c4fa bb3c 9d74 dbbd 02da a2bd
00000180: eb0b 9e3b 1830 d43d bc70 4e3d 064d 2a3d
00000190: 79df 34be 6a09 14be edc1 eabd 78cd 04be
000001a0: 5d4b e93c b61a 7b3d c627 0dbb 0415 aebd
000001b0: 49e6 c8bd a30f dcbd 83df f6bd 4a91 8c3d
000001c0: 95dc f9bc 271b c53d 6050 063d 9bc4 d83d
000001d0: 8563 043c b059 c23b 0fd7 63bd 1f55 9e3c
000001e0: 4456 50bd c02c c2bb 73ca aabd 32cb efbd
000001f0: 1843 073d d690 923d 702e be3d a1a1 cfbc
-0.058388785 -0.14307 0.09682779 -0.07839435 0.018544875 -0.06290236 0.11454089 0.07501892
-0.07726458 -0.12452744 -0.18862395 -0.13845508 -0.11733949 0.021973232 -0.053736005 -0.10556383
-0.14843257 0.12760167 -0.06775329 -0.15920691 0.03462882 0.04201222 -0.012582525 -0.08874789
0.056671184 0.08009379 0.04008093 -0.07992321 -0.13744682 -0.11078953 -0.085704535 0.06561597
-0.033307277 -0.06259394 -0.16948615 0.1892702 -0.11211497 -0.11914464 -0.13528435 0.13704745
-0.03240312 -0.09978557 0.15177386 -0.14392544 -0.057083327 -0.11472159 -0.08043351 -0.03673756
0.11234903 -0.068072155 0.101163425 -0.017159099 0.08209835 -0.078746036 -0.1169595 -0.17738955
-0.120973 -0.0071221283 -0.0046911244 -0.01463407 0.19971475 0.03181131 -0.12642452 0.033112753
0.10292886 -0.101256065 0.027508192 0.11918905 -0.15357587 0.029957011 -0.16196522 -0.08248891
-0.14423981 -0.1510739 0.06710808 -0.108427316 -0.12576896 -0.10955229 -0.006776615 -0.15136467
-0.027080743 0.076301135 0.015961297 -0.020991918 -0.16942035 -0.091364376 -0.08051154 -0.07436812
0.1118063 0.1375945 0.12037271 -0.12235605 -0.10666968 0.022946723 -0.107156016 -0.07951738
0.004823198 0.10360736 0.05040048 0.04157736 -0.17663373 -0.14456716 -0.1146277 -0.12969005
0.028478319 0.06130477 -0.00215386 -0.08500102 -0.098095484 -0.1074517 -0.1205435 0.06863649
-0.03050069 0.096243195 0.032791495 0.105843745 0.008080368 0.0059311017 -0.055625018 0.019327698
-0.05086352 -0.005925745 -0.083393954 -0.11708678 0.03302297 0.071565315 0.09286201 -0.025345625
