nerf_models/fox7.pth (torch, 646022 bytes, 22 tensors)

weight f4 [128, 63]
0.05857564 0.024848403 -0.06613944 0.16257079 -0.3856362 -0.09415154 -0.022205131 0.28093347
0.010904481 -0.09563862 0.09613534 0.11825308 0.2703698 0.13921863 -0.1705161 -0.047159005
0.024641562 -0.14610974 -0.071818516 0.1892985 -0.050309654 -0.15876432 -0.0034299684 0.047573116
-0.028616313 0.039707154 0.03217369 0.29873875 -0.2266668 0.26230252 0.07242397 0.064477965
0.3133363 -0.04374403 -0.2877596 -0.036586266 -0.10925136 -0.1589177 0.112320535 -0.15125369
-0.2062701 -0.16410336 -0.34586602 -0.12538448 0.12060718 -0.07280977 0.11065122 0.06290351
0.1326629 -0.31828612 0.106214896 -0.080516405 0.14696859 -0.07550936 -0.07321067 0.20368403
-0.16262232 0.35233673 -0.116355084 -0.101412855 -0.21231875 -0.2140205 -0.26864573 -0.030834684
0.029315045 -0.07482152 0.0443002 -0.01612952 -0.08671642 -0.009197476 -0.015520166 0.086578935
-0.22249818 -0.053506456 0.13560876 -0.3034809 -0.15610757 0.0073990906 -0.04993117 -0.066471875
-0.059711035 -0.023972081 -0.15617949 0.2648319 0.05713149 0.33845603 0.09538557 -0.24283434
0.15058014 0.29464883 0.084719025 -0.1496427 0.0707916 -0.4249838 -0.1557503 -0.20518756
-0.069361866 0.016802272 -0.011735815 -0.07054515 0.20120434 0.014421284 0.18881705 0.02861119
0.13169095 -0.12451917 -0.13841012 0.2948463 -0.17946234 -0.08060051 0.13836598 -0.33663008
-0.3525775 0.18575498 -0.046674956 0.09769666 -0.30458218 0.2776174 -0.21625474 0.20870183
-0.10897816 -0.10399958 0.14353974 0.11542373 0.3648623 -0.21643595 0.057861872 0.0009986064
-0.10822781 0.06952713 -0.09765574 -0.010160054 0.19430144 0.14531116 0.009292458 -0.18440561
0.1825663 -0.21348308 0.28495264 0.29501495 -0.08401804 0.19548869 0.22080627 0.16689
-0.10635361 -0.19436388 -0.074163646 0.07579688 -0.12404078 0.06389951 -0.08175315 0.3313563
0.17605294 -0.24847394 0.20533796 0.17916328 0.1706358 0.06410203 0.15113261 -0.10177021
0.23831408 0.0034602252 -0.078195535 0.25167406 -0.1504695 -0.19483873 -0.23191221 -0.13278797
0.11620065 -0.013783533 0.19080961 -0.18601178 -0.027318977 0.06259807 0.051616773 0.042045075
-0.017311392 -0.36581883 -0.2667194 0.057208188 -0.5786447 0.06312445 -0.098930635 0.32581207
0.0747183 -0.36434898 0.13264066 0.46475723 0.28627276 -0.07791864 -0.15679532 -0.06880811
0.062561326 -0.04002958 0.06636001 0.14241093 -0.12516324 0.027590254 -0.38092723 0.0726469
-0.057301678 -0.19524549 -0.072781466 0.07199465 0.21239842 0.01587617 0.011041051 0.17593822
-0.067256846 -0.09070895 -0.062241636 0.008155428 0.14337981 -0.1079008 -0.11668177 -0.16806348
-0.0681613 -0.29472616 -0.31896842 -0.085599914 -0.20988269 -0.2918598 -0.21858492 0.0027235248
0.07344662 0.0800368 -0.03615877 -0.054240424 0.34193224 -0.002839349 -0.23078522 0.16392587
0.1516004 0.0460866 0.14393336 0.3377275 -0.13997453 0.115877934 0.25739267 -0.13753879
0.08616599 0.06982504 0.1775755 0.38110203 0.36187536 -0.09261529 0.0067640003 0.41770932
0.30583686 -0.04401604 -0.31534043 -0.0565698 -0.091126874 0.12089694 -0.040030785 0.05788433
00000000: 03ed 6f3d e18e cb3c 1d74 87bd f578 263e
00000010: 1c72 c5be 86d2 c0bd 89e7 b5bc 83d6 8f3e
00000020: b5a8 323c 2ede c3bd 9be2 c43d ac2e f23d
00000030: e96d 8a3e 548f 0e3e c69b 2ebe cd29 41bd
00000040: 1add c93c cb9d 15be 9615 93bd 77d7 413e
00000050: 7f11 4ebd 1d93 22be 52c9 60bb 07dc 423d
00000060: c26c eabc f8a3 223d 8fc8 033d 49f4 983e
00000070: 571b 68be 844c 863e 0553 943d 060d 843d
00000080: 9e6d a03e f12c 33bd 3a55 93be 7bdb 15bd
00000090: 2dbf dfbd 52bb 22be 4f08 e63d 3fe2 1abe
000000a0: 7838 53be b60a 28be 5a15 b1be ca64 00be
000000b0: e600 f73d 4a1d 95bd 1b9d e23d 8ed3 803d
000000c0: c9d8 073e 66f6 a2be 3287 d93d c9e5 a4bd
000000d0: ef7e 163e a7a4 9abd 7aef 95bd 8c92 503e
000000e0: 7786 26be 7b65 b43e 934b eebd 8bb1 cfbd
000000f0: 166a 59be 3128 5bbe ef8b 89be 0599 fcbc
00000100: 1b26 f03c 063c 99bd 2074 353d 0e22 84bc
00000110: 6198 b1bd 03b1 16bc 4b48 7ebc 4c50 b13d
00000120: 90d6 63be 9629 5bbd 06dd 0a3e d961 9bbe
00000130: aada 1fbe 1274 f23b a084 4cbd 6822 88bd
00000140: 8f93 74bd 1961 c4bc 84ed 1fbe 0c98 873e
00000150: b602 6a3d 1c4a ad3e 8259 c33d 91a9 78be
00000160: ae31 1a3e 36dc 963e 2b81 ad3d f03b 19be
00000170: 30fb 903d 7a97 d9be 027d 1fbe b01c 52be
00000180: 980d 8ebd eba4 893c 9347 40bc fa79 90bd
00000190: 8308 4e3e 4047 6c3c 4259 413e 0462 ea3c
000001a0: fed9 063e e803 ffbd 62bb 0dbe 18f6 963e
000001b0: fac4 37be e111 a5bd d0af 0d3e c75a acbe
000001c0: 0a85 b4be 8e36 3e3e 3d2e 3fbd 3015 c83d
000001d0: 32f2 9bbe de23 8e3e e271 5dbe efb5 553e
000001e0: f12f dfbd bbfd d4bd 15fc 123e 4763 ec3d
000001f0: 3bcf ba3e 63a1 5dbe 9200 6d3d ace3 823a
00000200: 8ba6 ddbd 3d64 8e3d bcff c7bd 5b76 26bc
00000210: f5f6 463e 73cc 143e 653f 183c d3d4 3cbe
00000220: a9f2 3a3e 4f9b 5abe 50e5 913e 330c 973e
00000230: a611 acbd 302e 483e 0a1b 623e 36e5 2a3e
00000240: eccf d9bd 5307 47be 1ce3 97bd 653b 9b3d
00000250: 1809 febd bfdd 823d 326e a7bd 88a7 a93e
00000260: 3947 343e f46f 7ebe 1d44 523e 9476 373e
00000270: 27bb 2e3e ed47 833d 82c2 1a3e e66c d0bd
00000280: 9b08 743e f2c4 623b fb24 a0bd 6cdb 803e
00000290: ad14 1abe ce83 47be 657a 6dbe 92f9 07be
000002a0: 9bfa ed3d 54d4 61bc 9863 433e df79 3ebe
000002b0: 0ccc dfbc 6b33 803d 1c6c 533d 7537 2c3d
000002c0: 9fd0 8dbc 9b4c bbbe 728f 88be 2253 6a3d
000002d0: 0f22 14bf 6447 813d 259c cabd d7d0 a63e
000002e0: e805 993d f38b babe f4d2 073e a9f4 ed3e
000002f0: 5892 923e cf93 9fbd f48e 20be 44eb 8cbd
00000300: 2720 803d 0ff6 23bd c2e7 873d 2cd4 113e
00000310: cb2a 00be f504 e23c e508 c3be e6c7 943d
00000320: 2ab5 6abd 6fee 47be 730e 95bd ee71 933d
00000330: f97e 593e be0e 823c 86e5 343c 2629 343e
00000340: f5bd 89bd 9dc5 b9bd 16f1 7ebd 589e 053c
00000350: 28d2 123e 18fb dcbd daf6 eebd d518 2cbe
00000360: 2798 8bbd 59e6 96be d44f a3be 024f afbd
00000370: 7deb 56be a66e 95be bad4 5fbe 2a7d 323b
00000380: 2e6b 963d 55ea a33d 381b 14bd 352b 5ebd
00000390: be11 af3e 5f14 3abb f652 6cbe 2fdc 273e
000003a0: 233d 1b3e 4dc5 3c3d 4463 133e 9eea ac3e
000003b0: 7c55 0fbe 6951 ed3d f9c8 833e f8d6 0cbe
000003c0: cb77 b03d 6e00 8f3d 5ad6 353e ce1f c33e
000003d0: ba47 b93e 16ad bdbd 8ca4 dd3b ffdd d53e
000003e0: a696 9c3e 2a4a 34bd 4d74 a1be bcb5 67bd
000003f0: baa0 babd d198 f73d 52f7 23bd 1f18 6d3d

bias f4 [128]
-0.040346857 -0.026081968 0.03524962 0.013585809 -0.15835415 -0.08089417 -0.13553955 -0.212759
-0.09804239 -0.10488121 -0.21895489 -0.12911335 -0.21778981 -0.15438512 -0.10472424 -0.08470014
-0.0055508646 -0.2417124 -0.18243635 -0.10084616 0.007557857 -0.19122256 0.13534291 -0.13859285
-0.07441917 -0.0105869295 -0.08638368 -0.25390643 -0.23460384 -0.08799559 -0.28396064 -0.17966913
-0.10344826 -0.15291801 -0.0057282634 -0.21619488 -0.13670424 -0.0812959 0.07212601 -0.048189517
0.06370144 -0.21453254 -0.14477457 -0.13850676 -0.021694634 -0.1508233 -0.13274504 -0.1325548
-0.0114965355 -0.1362779 -0.15697639 0.03871226 -0.15399858 -0.11413099 -0.11534825 -0.09071152
-0.20623796 -0.1136882 0.007650511 0.10689512 -0.06883172 -0.2513712 -0.119685635 -0.13291179
0.046720784 -0.06561625 0.03392165 -0.12190363 -0.09063352 0.0009888234 -0.014047799 -0.11578201
-0.16464154 -0.14113382 0.022239327 -0.000100419966 0.031128528 -0.12108829 -0.09781403 -0.13796544
-0.19271787 -0.109793454 -0.014982277 -0.13138491 0.005575957 -0.20485698 0.027710432 -0.15450709
-0.011629808 -0.1832417 -0.054351296 0.045900773 -0.12416424 -0.2102286 -0.13604438 -0.051904142
-0.03918585 -0.04575065 -0.2626798 -0.13543099 -0.04205846 0.038805015 -0.22084063 -0.073347755
-0.13612214 -0.12523206 0.10364631 -0.22236186 -0.17875202 -0.19823614 -0.10967703 -0.04108849
0.0026436052 -0.27679762 -0.11387638 -0.15345779 -0.20605396 -0.03208972 -0.25706345 -0.25331107
-0.11105549 -0.04270838 -0.2094833 -0.087015085 0.09319905 -0.1695344 -0.23757732 -0.21792117
00000000: bf42 25bd daa9 d5bc e861 103d 0397 5e3c
00000010: 9727 22be d8ab a5bd e1ca 0abe 7fdd 59be
00000020: 73ca c8bd f6cb d6bd b635 60be 4a36 04be
00000030: 4b04 5fbe 2217 1ebe aa79 d6bd 4477 adbd
00000040: 07e4 b5bb 7583 77be 98d0 3abe 6e88 cebd
00000050: e6a7 f73b d9cf 43be 5597 0a3e 49eb 0dbe
00000060: 1469 98bd cd74 2dbc ede9 b0bd 0600 82be
00000070: fd3b 70be 0837 b4bd 4a63 91be 2ffb 37be
00000080: aedc d3bd 8a96 1cbe 28b4 bbbb 3162 5dbe
00000090: 32fc 0bbe 777e a6bd cdb6 933d 5f62 45bd
000000a0: e775 823d 6bae 5bbe c93f 14be b7d4 0dbe
000000b0: f2b8 b1bc 6c71 1abe 51ee 07be 72bc 07be
000000c0: f75b 3cbc 6f8c 0bbe 6bbe 20be bf90 1e3d
000000d0: ceb1 1dbe 82bd e9bd b43b ecbd f6c6 b9bd
000000e0: 0b30 53be 5cd5 e8bd 23b1 fa3b d4eb da3d
000000f0: a5f7 8cbd bab3 80be be1d f5bd 071a 08be
00000100: 4b5e 3f3d d061 86bd 6ef1 0a3d 9ca8 f9bd
00000110: 119e b9bd 689b 813a bd28 66bc 1e1f edbd
00000120: cb97 28be 6285 10be 402f b63c 8f98 d2b8
00000130: 4101 ff3c 23fd f7bd b952 c8bd d046 0dbe
00000140: d557 45be 64db e0bd 3978 75bc c489 06be
00000150: 84b6 b63b 07c6 51be fd00 e33c 1b37 1ebe
00000160: f38a 3ebc b6a3 3bbe 779f 5ebd 7302 3c3d
00000170: d249 febd 2b46 57be 384f 0bbe 7099 54bd
00000180: 5881 20bd 0965 3bbd f77d 86be 6cae 0abe
00000190: 7e45 2cbd 02f2 1e3d 0c24 62be 5937 96bd
000001a0: 9a63 0bbe d53c 00be 8444 d43d d4b2 63be
000001b0: c50a 37be 6afe 4abe 5a9e e0bd 684c 28bd
000001c0: 5640 2d3b 6bb8 8dbe 0538 e9bd 0a24 1dbe
000001d0: cfff 52be 8370 03bd d29d 83be fdb1 81be
000001e0: 1071 e3bd fbee 2ebd ca82 56be f734 b2bd
000001f0: 25df be3d 6d9a 2dbe 7847 73be ba26 5fbe

weight f4 [128, 128]
0.1302445 0.08213833 0.11319512 -0.036612365 0.162052 0.010131441 0.01241544 0.15748388
0.09175695 0.06104941 0.07202641 0.105512284 0.12814881 -0.1688381 0.0072671985 -0.06790362
0.051089663 0.11870559 -0.028443685 -0.15282397 0.046051025 0.0008054368 -0.08826687 0.18334372
0.07339419 0.09577961 0.07898571 0.028615998 -0.116947696 -0.2956415 -0.05422274 -0.024948237
-0.09027096 -0.006269338 -0.028545117 0.092676945 0.18146454 -0.16968703 0.019104268 -0.07709366
-0.034297023 -0.09715813 0.1917803 0.15845662 -0.009626198 -0.05872592 0.050622176 -0.307883
-0.24920985 -0.11135199 0.0022313644 -0.14819862 -0.05750879 -0.4263481 0.015181242 0.08247004
-0.12659116 -0.1677537 -0.15591586 0.014686521 0.008007978 -0.22498266 0.1051254 -0.205093
-0.0011759452 0.03258078 -0.1179459 0.038393166 0.28850323 -0.0800652 0.0077460827 0.022228288
-0.113816485 -0.02771151 0.07864788 -0.17130286 -0.16726547 0.016803881 -0.11374396 -0.08327246
-0.052650202 -0.18474309 -0.016255649 -0.105157554 0.18975106 -0.07139982 0.18790366 -0.22312559
0.14561994 0.061213266 -0.043182835 -0.23918551 0.14296098 -0.14569603 0.095745035 -0.09023185
-0.22578114 -0.156203 -0.124459445 -0.001440469 0.048251722 0.02342719 0.24008404 -0.09357791
0.050904557 -0.023041535 -0.16685466 -0.22944774 -0.1387813 -0.0295307 -0.061245296 -0.09557991
0.19830425 0.13008699 -0.24151109 -0.002279922 -0.009749555 -0.04541756 0.058622632 0.12926719
0.24968643 -0.15579782 0.07531852 0.029279921 -0.24770422 0.012635346 0.097565174 -0.026544409
-0.15932064 -0.13903761 -0.56239974 -0.12790765 0.14924055 -0.2616787 -0.2868029 -0.31938753
-0.24401085 -0.3644044 -0.006936231 -0.044287913 -0.13148157 -0.26420927 -0.0803997 -0.32710308
-0.25363696 -0.13611628 -0.35213363 -0.17645743 -0.005569544 0.19208255 0.03605138 0.036740586
-0.08749762 -0.04520261 -0.0420277 0.17737773 0.19380265 0.0002154561 0.076134935 0.08283176
-0.21587469 -0.076641135 -0.2680824 0.038791034 0.19625795 0.065990716 -0.10389115 -0.019922797
-0.20202366 -0.15080774 -0.15227754 -0.027208209 -0.28016603 -0.21295317 -0.016646309 -0.015775047
0.32283902 -0.19267158 0.21412961 -0.15021688 -0.22222613 -0.08210634 0.10813628 0.090601556
-0.0887207 0.034229156 0.04901383 -0.3071288 0.07576967 -0.041204218 -0.33902013 -0.09507178
-0.37989914 0.14232032 0.086886965 -0.041931037 -0.0967798 -0.22796735 0.055271674 -0.28654662
0.15420438 -0.34317228 0.06884 -0.43873897 0.1033487 -0.2752707 0.18317893 -0.1233327
-0.10506729 0.003549407 0.27067763 -0.21513216 -0.2631032 -0.11738415 -0.25219905 0.15172468
0.042237215 0.19804856 0.022671968 -0.11438607 -0.032659583 0.043893483 -0.2879056 0.23720679
0.011195816 0.08370857 -0.31124935 -0.7105815 0.092650995 -0.12447287 0.09055476 -0.1799532
-0.070135355 -0.17465433 -0.27280536 -0.22768266 -0.38778368 -0.35865235 -0.17260925 -0.08165166
0.027327318 0.0038440037 -0.0059854933 -0.34516326 -0.36068648 0.019599875 -0.18280576 -0.28542754
-0.12366598 -0.068770245 -0.5891842 -0.05798044 0.0867516 0.10469589 -0.0018586209 0.21416968
00000000: d05e 053e 2438 a83d d8d2 e73d d9f6 15bd
00000010: f6f0 253e 58fe 253c 216a 4b3c 7443 213e
00000020: 11eb bb3d f20e 7a3d 9582 933d d316 d83d
00000030: 7139 033e e5e3 2cbe ae21 ee3b 0e11 8bbd
00000040: 6543 513d eb1b f33d bb02 e9bc e37d 1cbe
00000050: 00a0 3c3d f323 533a 43c5 b4bd 75be 3b3e
00000060: b14f 963d 1a28 c43d 43c3 a13d 196c ea3c
00000070: 4682 efbd 535e 97be aa18 5ebd 3f60 ccbc
00000080: fbdf b8bd 056f cdbb 73d7 e9bc 69cd bd3d
00000090: d7d1 393e 70c2 2dbe 8e80 9c3c 48e3 9dbd
000000a0: 097b 0cbd d7fa c6bd 0e62 443e 7442 223e
000000b0: 33b7 1dbc 978a 70bd 3359 4f3d d7a2 9dbe
000000c0: de30 7fbe 830c e4bd 153c 123b 61c1 17be
000000d0: 568e 6bbd 4c4a dabe beba 783c 0de6 a83d
000000e0: 1da1 01be a0c7 2bbe 68a8 1fbe bc9f 703c
000000f0: e533 033c db61 66be fc4b d73d e603 52be
00000100: 2c22 9aba 6d73 053d 9f8d f1bd 2742 1d3d
00000110: b2b6 933e 39f9 a3bd dad2 fd3b 1918 b63c
00000120: 9e18 e9bd 4003 e3bc 2412 a13d 046a 2fbe
00000130: a447 2bbe 4ba8 893c 98f2 e8bd c08a aabd
00000140: bda7 57bd 4b2d 3dbe 912a 85bc d85c d7bd
00000150: 1a4e 423e 123a 92bd d169 403e 097b 64be
00000160: 651d 153e c3ba 7a3d 7ce0 30bd 0ced 74be
00000170: 5d64 123e 5731 15be f915 c43d 7acb b8bd
00000180: 2c33 67be aef3 1fbe 98e4 febd 1ece bcba
00000190: 99a3 453d 61ea bf3c 97d8 753e c6a5 bfbd
000001a0: 4c81 503d 9ac1 bcbc f3db 2abe 59f4 6abe
000001b0: af1c 0ebe 5eea f1bc 59dc 7abd 66bf c3bd
000001c0: 4510 4b3e 8635 053e af4e 77be be6a 15bb
000001d0: 99bc 1fbc c307 3abd 491e 703d 9e5e 043e
000001e0: cdad 7f3e 7789 1fbe 9940 9a3d 72dc ef3c
000001f0: 2da6 7dbe 7b04 4f3c 40d0 c73d a973 d9bc
00000200: f324 23be e05f 0ebe 6ef9 0fbf 39fa 02be
00000210: 84d2 183e c0fa 85be d4d7 92be c386 a3be
00000220: fbdd 79be 3793 babe 5349 e3bb 3e67 35bd
00000230: 1ba3 06be 7046 87be 99a8 a4bd 0e7a a7be
00000240: b4dc 81be 1162 0bbe dc4a b4be 42b1 34be
00000250: b980 b6bb 4ab1 443e 9daa 133d 4c7d 163d
00000260: f431 b3bd 5f26 39bd 3d25 2cbd 82a2 353e
00000270: 3474 463e 0eec 6139 a2ec 9b3d b3a3 a93d
00000280: 410e 5dbe 07f6 9cbd 1942 89be 59e3 1e3d
00000290: d8f7 483e 2426 873d e2c4 d4bd 2235 a3bc
000002a0: 4adf 4ebe 586d 1abe a5ee 1bbe c0e3 debc
000002b0: ec71 8fbe 6510 5abe d75d 88bc ac3a 81bc
000002c0: 284b a53e b34b 45be cb44 5b3e 74d2 19be
000002d0: 3f8f 63be 5e27 a8bd 8e76 dd3d 4f8d b93d
000002e0: 33b3 b5bd df33 0c3d bac2 483d fc3f 9dbe
000002f0: 212d 9b3d c1c5 28bd 0c94 adbe feb4 c2bd
00000300: 2482 c2be 6bbc 113e cbf1 b13d e1bf 2bbd
00000310: 7d34 c6bd 4670 69be 8d64 623d 3db6 92be
00000320: c1e7 1d3e 47b4 afbe fcfb 8c3d 65a2 e0be
00000330: 7ca8 d33d 48f0 8cbe 4293 3b3e db95 fcbd
00000340: 852d d7bd 2b9d 683b 4296 8a3e 9b4b 5cbe
00000350: 76b5 86be 1a67 f0bd 3c20 81be b75d 1b3e
00000360: ee00 2d3d 3ecd 4a3e 90ba b93c 3e43 eabd
00000370: 0ec6 05bd a7c9 333d 5d68 93be 56e6 723e
00000380: a86e 373c 666f ab3d 135c 9fbe abe8 35bf
00000390: cebf bd3d a2eb febd c674 b93d a745 38be
000003a0: 20a3 8fbd 96d8 32be 25ad 8bbe a525 69be
000003b0: 958b c6be 48a1 b7be 7bc0 30be fc38 a7bd
000003c0: 8add df3c aeeb 7b3b f521 c4bb 3db9 b0be
000003d0: e6ab b8be eb8f a03c 6f31 3bbe 8f23 92be
000003e0: 9744 fdbd 6ad7 8cbd c7d4 16bf e67c 6dbd
000003f0: d3aa b13d cc6a d63d f89c f3ba 4c4f 5b3e

bias f4 [128]
-0.033638228 -0.10123865 -0.03424131 0.032816164 0.010852791 -0.041953806 -0.09339186 0.018989064
-0.002256962 0.0026101891 0.033275362 0.08975566 -0.13333207 -0.0680684 0.04192763 -0.0350331
-0.08766169 0.07431727 -0.10333844 -0.11021483 0.022399865 0.032565407 0.06254615 -0.0017226286
-0.040400263 -0.006812516 -0.12195152 -0.08016913 -0.010394986 -0.07527296 -0.0138619095 -0.0440622
-0.18208954 0.04338464 -0.12461228 -0.04638738 -0.12757781 -0.011203496 0.0017964398 -0.087162375
-0.116905615 0.10729962 0.07606314 -0.10482253 0.0271103 0.037325945 -0.097248204 -0.07459568
0.013614114 -0.113625005 0.06867325 -0.0554196 -0.118790366 -0.114509806 -0.033986557 0.019772794
0.023127815 0.09728764 -0.027792512 -0.006397122 -0.13763615 -0.06725473 -0.10317215 0.07394764
-0.13265008 -0.025371036 -0.056893438 -0.025911285 0.07025804 -0.038264386 -0.11597524 0.08261776
0.052768815 -0.14145704 -0.024586966 -0.119310595 0.022091532 0.009716999 -0.091622524 -0.024473047
-0.030190721 0.09906536 0.081702396 -0.06550023 -0.07678604 0.04323315 0.056776833 -0.17880146
0.038272016 -0.031936593 -0.10432904 0.07926769 0.013697979 0.060945407 -0.09050379 0.1420376
-0.030563569 -0.14280793 0.068685435 -0.044620253 0.013176627 -0.05345749 -0.03374371 -0.061657667
0.062092252 -0.06012216 0.028481277 -0.119015776 -0.0033191794 0.005540399 0.04439155 -0.0051109483
-0.0481033 0.0025626905 -0.08712222 -0.00097467576 -0.10519273 -0.06415979 -0.027066113 -0.0007082641
-0.047924954 -0.0008721619 0.03798476 -0.055603113 -0.02985043 -0.095184654 0.025506714 0.049351662
00000000: 3dc8 09bd 3656 cfbd 9e40 0cbd 3e6a 063d
00000010: e8cf 313c c1d7 2bbd 3b44 bfbd f48e 9b3c
00000020: 8ae9 13bb b50f 2b3b bf4b 083d d1d1 b73d
00000030: 3488 08be 7267 8bbd 4ebc 2b3d de7e 0fbd
00000040: f987 b3bd a733 983d 1ba3 d3bd 50b8 e1bd
00000050: ec7f b73c 4e63 053d 3218 803d d3c9 e1ba
00000060: bf7a 25bd 873b dfbb b8c1 f9bd b62f a4bd
00000070: bb4f 2abc b628 9abd 101d 63bc 917a 34bd
00000080: ae75 3abe 18b4 313d b934 ffbd b200 3ebd
00000090: c2a3 02be de8e 37bc 8476 eb3a 3082 b2bd
000000a0: 366c efbd e7bf db3d fec6 9b3d 32ad d6bd
000000b0: 6b16 de3c 17e3 183d 112a c7bd 9fc5 98bd
000000c0: bc0d 5f3c 3ab4 e8bd 90a4 8c3d aaff 62bd
000000d0: 5d48 f3bd 1e84 eabd 7d35 0bbd 8efa a13c
000000e0: 8b76 bd3c be3e c73d 1fad e3bc f39e d1bb
000000f0: 7ef0 0cbe d9bc 89bd ec4b d3bd dc71 973d
00000100: 6cd5 07be ebd6 cfbc 1809 69bd e743 d4bc
00000110: 73e3 8f3d 1ebb 1cbd 6d84 edbd 8033 a93d
00000120: 1d24 583d 1dda 10be 9b6a c9bc 1d59 f4bd
00000130: 4df9 b43c 0c34 1f3c 97a4 bbbd b37b c8bc
00000140: 8852 f7bc c8e2 ca3d 9653 a73d fc24 86bd
00000150: 0042 9dbd 3e15 313d d38e 683d bb17 37be
00000160: 1ec3 1c3d f2cf 02bd 77aa d5bd 1957 a23d
00000170: 7d6d 603c e4a1 793d 0d5a b9bd 4e72 113e
00000180: 7360 fabc 3e3c 12be f3aa 8c3d bac3 36bd
00000190: c8e2 573c 3ef6 5abd d836 0abd c08c 7cbd
000001a0: 7254 7e3d a742 76bd 9151 e93c 8bbe f3bd
000001b0: 9786 59bb 3c8c b53b ead3 353d be79 a7bb
000001c0: f707 45bd d0f2 273b 226d b2bd 6281 7fba
000001d0: 496f d7bd 3566 83bd c1b9 ddbc cdaa 39ba
000001e0: f54c 44bd cba1 64ba e895 1b3d 17c0 63bd
000001f0: e488 f4bc 2cf0 c2bd 75f3 d03c f824 4a3d

weight f4 [128, 128]
-0.27606905 0.21206097 -0.007567232 0.099663235 0.026742348 -0.20583385 0.057922542 -0.029899178
-0.032790177 -0.2696839 -0.028543614 -0.102125406 -0.0091251265 -0.04436945 -0.09511022 -0.007507001
-0.059101727 -0.27725983 0.044436265 0.28246605 -0.1686803 -0.18454012 0.1394379 -0.010893546
0.032603327 0.036493327 -0.01050355 0.07602682 -0.3401774 -0.23751236 -0.032905485 0.05052356
0.18473253 -0.036449023 0.20294602 -0.01772365 0.030698633 -0.31226274 -0.019929914 -0.07545603
0.0250595 -0.14261948 0.0346928 -0.29482913 -0.0054568043 -0.27831206 -0.22160068 0.018591858
0.14179507 0.1355843 -0.5240819 0.031411447 0.11273479 0.06425818 -0.0019877998 -0.15540014
0.2830695 -0.08292631 0.06819362 0.38677463 -0.017679688 -0.045816235 -0.05611385 0.21162318
-0.306837 -0.011033813 -0.34027693 0.08166749 -0.13253626 -0.102434784 0.050896864 -0.45601666
0.03607765 -0.11231883 0.12440196 -0.037329126 -0.09736421 0.013268387 0.26086372 -0.082949445
-0.016185699 -0.013899608 0.040282603 0.030045168 -0.24881548 0.12282943 -0.0786721 0.005300354
0.00039918796 -0.09650983 -0.07165332 -0.13717075 -0.023098722 -0.13895428 -0.034641996 -0.29590192
-0.14155547 0.07624226 -0.22890334 -0.033913255 -0.283803 -0.48519367 -0.026204348 0.024730498
-0.05242704 -0.08582371 -0.029866628 -0.013012994 -0.1610846 -0.28682506 0.16631758 0.0692499
0.060267773 -0.22283271 -0.071522646 0.13284047 -0.06193586 0.21177344 -0.13189594 0.12494797
0.110475644 0.14112175 -0.33362347 0.01710475 -0.1813924 0.24577314 -0.059556276 0.13157701
-0.022234824 -0.058082826 -0.12157734 0.002310036 0.1732175 -0.34881583 -0.053143337 0.059806764
0.089505926 -0.10951065 -0.088885985 -0.15036127 0.06867294 0.06032746 0.11386177 -0.16013025
-0.084998615 -0.0500368 0.031663842 0.11610196 -0.01903698 -0.22163007 0.07764653 -0.028729387
-0.058931477 0.086972505 0.0028427755 0.1417077 -0.044784468 0.0988485 0.00648946 -0.21871847
-0.20359504 0.026791837 0.06893152 -0.25332034 0.028408708 -0.050922405 -0.10542909 -0.21681082
0.04183152 0.0039886488 -0.06632279 -0.07597663 -0.10566146 -0.012902141 -0.037897903 0.26897153
0.02125842 -0.06489983 -0.17524786 -0.03437046 -0.0066773575 0.1251497 -0.14007814 0.03447675
-0.07412957 -0.13121377 0.007270314 0.08856499 0.048878286 0.107634075 -0.060875025 -0.15737532
-0.19462335 0.13783108 -0.3227752 0.048564646 -0.12461151 -0.26476553 0.05634187 -0.28837806
-0.13283542 0.041047607 -0.028535906 -0.21900742 0.050333746 0.14515299 0.14701398 0.06278272
-0.36502472 -0.1971273 0.102167554 -0.11239658 -0.41054517 -0.0836713 -0.20955715 0.13393907
-0.2932201 0.069491915 -0.06978568 -0.05192627 -0.06944283 -0.3891609 -0.0808726 -0.08182338
0.11271541 -0.05418672 -0.22222711 0.10504503 -0.009305953 -0.29740667 -0.23813206 0.05613413
-0.014604725 0.050650936 0.076511614 0.046506885 0.05319415 -0.24481417 0.19803151 -0.023776604
-0.10180983 -0.14836329 -0.107846975 -0.21026906 -0.072350375 0.24960427 -0.19861099 -0.076817185
-0.051600408 -0.0067951567 -0.22538829 0.11749183 -0.21728097 0.064124696 0.044178613 0.029255692
00000000: ec58 8dbe 8326 593e 8bf6 f7bb 3d1c cc3d
00000010: c512 db3c 1cc6 52be 3040 6d3d 1fef f4bc
00000020: fe4e 06bd 0214 8abe 4cd4 e9bc 2027 d1bd
00000030: 8e81 15bc bebc 35bd 26c9 c2bd 4afd f5bb
00000040: a714 72bd 00f5 8dbe cd02 363d 649f 903e
00000050: 87ba 2cbe 16f8 3cbe cfc8 0e3e d87a 32bc
00000060: 118b 053d 077a 153d 1517 2cbc f3b3 9b3d
00000070: bb2b aebe 7136 73be e7c7 06bd cbf1 4e3d
00000080: 862a 3d3e 924b 15bd 15d1 4f3e 3031 91bc
00000090: b37b fb3c e7e0 9fbe 0f44 a3bc b188 9abd
000000a0: 9549 cd3c d70a 12be 0a1a 0e3d d8f3 96be
000000b0: fece b2bb eb7e 8ebe 4aeb 62be f44d 983c
000000c0: ba32 113e 9cd6 0a3e 3b2a 06bf 4aa9 003d
000000d0: 7fe1 e63d cb99 833d bf45 02bb 3721 1fbe
000000e0: 7cee 903e 45d5 a9bd 19a9 8b3d 5307 c63e
000000f0: fed4 90bc cea9 3bbd a3d7 65bd bfb3 583e
00000100: bd19 9dbe 2ac7 34bc c738 aebe 4941 a73d
00000110: 96b7 07be 54c9 d1bd 3b79 503d 047b e9be
00000120: 28c6 133d 6a07 e6bd 74c6 fe3d 6de6 18bd
00000130: e366 c7bd a663 593c ee8f 853e 66e1 a9bd
00000140: df97 84bc 2ebb 63bc 5fff 243d 4921 f63c
00000150: 7cc9 7ebe ff8d fb3d d71e a1bd 98ae ad3b
00000160: 1a4a d139 f2a6 c5bd fabe 92bd 7d76 0cbe
00000170: 8839 bdbc 084a 0ebe c4e4 0dbd 7580 97be
00000180: ebf3 10be e724 9c3d a365 6abe a0e8 0abd
00000190: a04e 91be 4e6b f8be 80aa d6bc 9d97 ca3c
000001a0: bcbd 56bd 57c4 afbd dcaa f4bc 7434 55bc
000001b0: 5df3 24be bcda 92be 284f 2a3e e4d2 8d3d
000001c0: 57db 763d 422e 64be 777a 92bd 5507 083e
000001d0: 75b0 7dbd 23db 583e bb0f 07be b9e4 ff3d
000001e0: 0e41 e23d 3882 103e b2d0 aabe 431f 8c3c
000001f0: eebe 39be f4ab 7b3e 48f1 73bd 20bc 063e
00000200: ce25 b6bc 42e8 6dbd 8afd f8bd f963 173b
00000210: ee5f 313e fd97 b2be d4ac 59bd f0f7 743d
00000220: e24e b73d 1f47 e0bd db09 b6bd 4ef8 19be
00000230: 66a4 8c3d ed19 773d 5c30 e93d 2ff9 23be
00000240: c113 aebd 63f3 4cbd f2b1 013d ddc6 ed3d
00000250: 71f3 9bbc fef2 62be 2505 9f3d e459 ebbc
00000260: 2262 71bd a41e b23d dc4d 3a3b d31b 113e
00000270: eb6f 37bd 1571 ca3d 89a5 d43b bcf7 5fbe
00000280: 387b 50be 8e7a db3c f82b 8d3d 34b3 81be
00000290: 61b9 e83c 0394 50bd 35eb d7bd a803 5ebe
000002a0: 8757 2b3d 36b3 823b 3ed4 87bd a399 9bbd
000002b0: 0965 d8bd 8063 53bc d53a 1bbd a3b6 893e
000002c0: 2326 ae3c 34ea 84bd 2d74 33be 0ac8 0cbd
000002d0: bccd dabb 3e27 003e a570 0fbe 7e37 0d3d
000002e0: 3ed1 97bd e75c 06be d03b ee3b 9061 b53d
000002f0: 9934 483d 416f dc3d 1758 79bd ff26 21be
00000300: 584b 47be 9723 0d3e ca42 a5be b9eb 463d
00000310: 5234 ffbd 598f 87be bcc6 663d 4aa6 93be
00000320: 0206 08be 8921 283d 22c4 e9bc 7b43 60be
00000330: c22a 4e3d fca2 143e d58a 163e 3a94 803d
00000340: 85e4 babe bddb 49be 393d d13d 2e30 e6bd
00000350: fa32 d2be dc5b abbd 2696 56be 5327 093e
00000360: f220 96be c751 8e3d cbeb 8ebd a4b0 54bd
00000370: 0b38 8ebd 1940 c7be 89a0 a5bd 0493 a7bd
00000380: 56d7 e63d e5f2 5dbd 818f 63be d921 d73d
00000390: ff77 18bc b045 98be e4d8 73be e7ec 653d
000003a0: a848 6fbc 5b77 4f3d 1fb2 9c3d 017e 3e3d
000003b0: 1ce2 593d 91b0 7abe c6c8 4a3e 27c7 c2bc
000003c0: ac81 d0bd 8cec 17be e0de dcbd c650 57be
000003d0: 6f2c 94bd 4398 7f3e ae60 4bbe 5452 9dbd
000003e0: f35a 53bd e8a9 debb 30cc 66be 8e9f f03d
000003f0: e77e 5ebe cf53 833d a2f4 343d a2a9 ef3c

bias f4 [128]
0.027844734 0.050724212 -0.106610075 0.030012626 0.030902022 -0.11371756 -0.015318665 0.059933394
-0.09319512 0.051587373 -0.0063408343 -0.024544924 0.0010833269 -0.13929957 -0.102422655 -0.12636627
-0.12507436 -0.15852088 0.08623649 0.015551656 -0.018893063 -0.1063046 -0.095161 -0.06952733
0.014068725 0.040430706 -0.07646554 -0.063974954 9.7205746e-05 -0.05852365 -0.06761342 0.0812622
-0.071753725 -0.13210078 -0.05885213 -0.022043154 0.034244485 0.05036004 -0.023215065 -0.13315721
-0.081246376 -0.1569206 -0.000121079116 0.028080909 -0.16000599 -0.19034716 -0.045216985 0.037371047
-0.0012677143 -0.0811846 -0.0833919 -0.15203448 0.06266438 -0.10251458 -0.1979432 -0.14006078
-0.14002812 -0.019945996 -0.028010443 0.02397895 -0.22075412 0.007984537 -0.04961659 -0.028460154
0.05253287 0.031305965 -0.023914432 -0.048845444 0.004161536 -0.16182975 -0.050495625 -0.11417745
0.035146113 -0.105723105 -0.23374201 0.10512264 -0.085569076 0.0010483771 -0.119932376 -0.04416014
0.02285115 -0.08083682 -0.027968407 -0.12885407 0.07952201 -0.019063532 -0.03849902 -0.016029162
-0.12159269 -0.17984049 0.104515344 0.03819581 -0.03503227 -0.1577023 0.104133785 -0.110650465
-0.19268234 0.020123938 -0.015257821 0.096173376 -0.020258509 -0.0041739186 -0.047625218 -0.059067566
-0.18756604 0.021677747 -0.18212526 -0.025538716 0.061343104 -0.02530433 -0.062511034 -0.17344622
0.013156619 0.016519161 -0.09205447 0.0019787608 -0.1748894 0.040299393 -0.0152932145 0.039782662
-0.25170404 -0.093597464 -0.1194287 -0.0004726526 -0.04560678 -0.087080464 0.065409794 -0.1427828
00000000: a41a e43c 31c4 4f3d 6256 dabd 0add f53c
00000010: 3d26 fd3c c1e4 e8bd 23fb 7abc b87c 753d
00000020: 15dd bebd 484d 533d c6c6 cfbb 7012 c9bc
00000030: 6bfe 8d3a 8ca4 0ebe f8c2 d1bd 2966 01be
00000040: 7e13 00be 4c53 22be c29c b03d 5fcc 7e3c
00000050: a0c5 9abc 3ab6 d9bd c5e3 c2bd 5864 8ebd
00000060: 8280 663c ab9a 253d f799 9cbd 4d05 83bd
00000070: f0da cb38 7fb6 6fbd e878 8abd cc6c a63d
00000080: 9ef3 92bd 6d45 07be ee0e 71bd d893 b4bc
00000090: f243 0c3d 5446 4e3d 852d bebc 5d5a 08be
000000a0: 8064 a6bd cbaf 20be dbeb fdb8 ef09 e63c
000000b0: 9cd8 23be 5eea 42be 7235 39bd 6212 193d
000000c0: 6f29 a6ba 1d44 a6bd 5fc9 aabd edae 1bbe
000000d0: 2f56 803d 2af3 d1bd 9fb1 4abe 186c 0fbe
000000e0: 8863 0fbe c965 a3bc 2876 e5bc 816f c43c
000000f0: 5e0d 62be 93d1 023c c43a 4bbd 4525 e9bc
00000100: b52c 573d af3a 003d 33e8 c3bc 2912 48bd
00000110: 7f5d 883b b3b6 25be 80d4 4ebd ded5 e9bd
00000120: 5ff5 0f3d 5b85 d8bd 115a 6fbe 8a4a d73d
00000130: d73e afbd b369 893a 1b9f f5bd 43e1 34bd
00000140: 5632 bb3c c68d a5bd 001e e5bc 52f2 03be
00000150: 70dc a23d 202b 9cbc 26b1 1dbd 974f 83bc
00000160: 9705 f9bd 1b28 38be 240c d63d 3673 1c3d
00000170: ff7d 0fbd b67c 21be 1844 d53d b69c e2bd
00000180: 854e 45be f5da a43c f1fb 79bc 8cf6 c43d
00000190: 2cf5 a5bc 5ec5 88bb a912 43bd d5f0 71bd
000001a0: 5011 40be 8895 b13c 0b7f 3abe 9236 d1bc
000001b0: e842 7b3d 074b cfbc c905 80bd e39b 31be
000001c0: dc8e 573c 3153 873c 0e87 bcbd 19ae 013b
000001d0: 3516 33be fa10 253d 6490 7abc 25f3 223d
000001e0: 5adf 80be 07b0 bfbd 0997 f4bd 5cce f7b9
000001f0: 2dce 3abd 3e57 b2bd 92f5 853d a835 12be

weight f4 [128, 128]
-0.35189572 -0.0037183517 -0.016692188 0.034033623 0.074385464 -0.4816438 0.009228185 -0.18293914
0.06659028 -0.18350872 0.2254509 0.117796436 -0.04389783 -0.17804264 0.053463187 -0.15228972
-0.17218463 -0.01195425 0.18309323 0.19696581 -0.11646067 -0.03490077 0.25958845 0.12125969
-0.19554079 -0.022406822 0.14975347 0.004969764 -0.30687323 -0.21675158 0.060167022 0.090251215
-0.13118856 0.075249225 -0.12752993 0.14967285 -0.017487518 0.17250204 0.080866404 -0.06286222
0.1390475 -0.25759912 -0.31079313 -0.09874095 -0.039434265 -0.05430515 0.13467133 -0.20770521
0.5363066 -0.23867601 -0.23177046 0.11337276 -0.026332516 0.1270381 -0.11403464 -0.17604195
-0.207032 0.017352123 -0.0646077 -0.20668055 -0.27036196 0.1765819 -0.046686355 -0.19861582
-0.011968582 -0.0183311 -0.23941365 0.14498225 -0.24156721 -0.055478662 0.088720575 0.16440026
-0.114811845 0.023587756 -0.024151744 -0.050809033 0.01378957 -0.12602681 -0.265807 -0.16768682
-0.18443345 -0.27872655 0.11872177 -0.040928323 0.081367314 0.02727017 -0.20690091 -0.27838352
0.0013600016 -0.034490835 0.14076503 0.08892748 -0.19763012 -0.2613942 -0.15139404 0.37544927
-0.055408716 -0.35421807 -0.057703014 0.059178695 -0.02979016 -0.011980799 0.2441999 0.2271265
-0.056864224 0.104611635 0.2125382 0.1864584 0.07589599 0.09743414 -0.15489097 -0.10845918
-0.13387881 -0.16052707 -0.32229543 0.1841298 0.064555645 0.122387946 -0.09978933 -0.41241762
0.08864121 -0.0006316646 0.16836666 -0.17997612 0.044467453 -0.08688407 -0.0022025222 0.07412298
-0.0870113 0.22227845 0.003634011 0.27263126 0.08981141 -0.059583776 -0.39370018 -0.02931587
0.03180005 -0.11779879 -0.055276964 -0.008141364 -0.2555849 -0.19689555 -0.1286334 0.18198264
0.053325076 -0.37381622 0.111541696 0.25849378 -0.091867454 -0.1909975 0.10639999 -0.19194362
-0.18847758 -0.29742008 -0.3335476 -0.0049068183 -0.13332458 0.05951729 -0.21127366 0.22859274
0.10657792 0.058629345 -0.015954008 0.037909627 -0.1382821 0.02320915 -0.20460056 -0.3200402
-0.24219932 -0.08043455 0.07294108 -0.11429769 -0.31136474 0.06079099 0.023695882 -0.09103106
-0.25152478 -0.3165587 -0.059684876 -0.029977666 0.14083607 -0.31060487 -0.27437097 0.0007606496
-0.06861702 -0.11021138 -0.39922038 0.12511314 0.11511087 -0.051140033 0.0020114472 0.13219379
0.23489279 -0.001027792 -0.081494786 -0.19056715 -0.22778192 -0.016293066 0.31763026 -0.1381609
-0.33871177 0.25122795 -0.0020246995 0.13895026 -0.1379426 -0.046586435 -0.09213577 -0.16407609
-0.27822748 0.24844983 0.062675536 -0.030814799 -0.27347735 -0.1704221 -0.19087277 -0.24834833
0.00024272587 -0.27230996 0.20802234 -0.2097605 0.082960226 -0.14318815 -0.19305392 -0.15947582
-0.08974969 0.07596437 0.044840463 -0.007122421 0.16553769 -0.29332218 -0.092335485 0.08881466
-0.18288898 -0.36025363 -0.16304113 -0.04535859 -0.26282656 -0.0106179 -0.24693292 -0.17165267
0.2046069 -0.22567987 0.025327064 0.035274234 -0.18794075 0.1862644 -0.060275164 0.108021
-0.15116815 -0.21543606 0.03641166 0.012873272 -0.19050817 0.1932166 -0.29618305 -0.050735574
00000000: ad2b b4be 97af 73bb 0ebe 88bc d766 0b3d
00000010: 6857 983d 049a f6be d031 173c 6654 3bbe
00000020: 7c60 883d b6e9 3bbe 9adc 663e 423f f13d
00000030: 36ce 33bd cf50 36be 37fc 5a3d d6f1 1bbe
00000040: 2b51 30be c2db 43bc cb7c 3b3e 68b1 493e
00000050: ef82 eebd 1cf4 0ebd c7e8 843e 0057 f83d
00000060: d83b 48be 838e b7bc f958 193e 67d9 a23b
00000070: 7d1e 9dbe 20f4 5dbe b271 763d a1d5 b83d
00000080: 4b56 06be 441c 9a3d 3597 02be d743 193e
00000090: fc41 8fbc 60a4 303e 499d a53d e8bd 80bd
000000a0: 7862 0e3e 08e4 83be 4720 9fbe b238 cabd
000000b0: d385 21bd 146f 5ebd 48e7 093e adb0 54be
000000c0: 644b 093f 7c67 74be 3c55 6dbe fa2f e83d
000000d0: 4ab7 d7bc 4716 023e fe8a e9bd 5744 34be
000000e0: 3200 54be 0a26 8e3c 0b51 84bd 11a4 53be
000000f0: e26c 8abe e3d1 343e 313a 3fbd f261 4bbe
00000100: df17 44bc 1a2b 96bc da28 75be 3a76 143e
00000110: 655d 77be 983d 63bd 22b3 b53d 8b58 283e
00000120: 7922 ebbd 1c3b c13c e1d9 c5bc 221d 50bd
00000130: a6ed 613c 2c0d 01be db17 88be 18b6 2bbe
00000140: 1fdc 3cbe 3fb5 8ebe 6624 f33d 75a4 27bd
00000150: e8a3 a63d b165 df3c d5dd 53be 4988 8ebe
00000160: 1542 b23a 4346 0dbd b524 103e 9c1f b63d
00000170: 8d5f 4abe 76d5 85be 0a07 1bbe e33a c03e
00000180: 40f4 62bd 125c b5be ff59 6cbd 5c65 723d
00000190: 7e0a f4bc 1d4b 44bc 8a0f 7a3e d993 683e
000001a0: 76ea 68bd a03e d63d 9da3 593e f3ee 3e3e
000001b0: 5b6f 9b3d 8d8b c73d bd9b 1ebe d91f debd
000001c0: 8717 09be 3561 24be e803 a5be 868c 3c3e
000001d0: c035 843d 88a6 fa3d 595e ccbd 6728 d3be
000001e0: 8689 b53d 4b96 25ba 4f68 2c3e a94b 38be
000001f0: 8123 363d 46f0 b1bd 3158 10bb cacd 973d
00000200: fb32 b2bd f69c 633e 9628 6e3b 5396 8b3e
00000210: 0bef b73d 1e0e 74bd 1293 c9be d627 f0bc
00000220: c540 023d 7e40 f1bd 196a 62bd 5b63 05bc
00000230: 06dc 82be fd9e 49be 79b8 03be a859 3a3e
00000240: 656b 5a3d d764 bfbe f96f e43d 4c59 843e
00000250: 0125 bcbd d994 43be 3de8 d93d de8c 44be
00000260: 4400 41be 7247 98be c0c6 aabe 60c9 a0bb
00000270: 3d86 08be 67c8 733d 1f58 58be 3714 6a3e
00000280: 8645 da3d 5325 703d fbb1 82bc 2047 1b3d
00000290: d399 0dbe 1e21 be3c cf82 51be 4fdc a3be
000002a0: 1903 78be dfba a4bd 2262 953d e814 eabd
000002b0: 336b 9fbe f9ff 783d de1d c23c 7e6e babd
000002c0: dbc7 80be fb13 a2be 2178 74bd b993 f5bc
000002d0: 5537 103e 9a07 9fbe 5a7a 8cbe 5566 473a
000002e0: 1587 8cbd 81b6 e1bd 9d66 ccbe a91d 003e
000002f0: 3fbf eb3d 3678 51bd 7cd2 033b cf5d 073e
00000300: bc87 703e fab6 86ba bde6 a6bd 0924 43be
00000310: aa3f 69be 0979 85bc 6fa0 a23e 0d7a 0dbe
00000320: a16b adbe f3a0 803e d2b0 04bb fa48 0e3e
00000330: d340 0dbe 6bd1 3ebd aeb1 bcbd 9003 28be
00000340: d573 8ebe a269 7e3e 085c 803d 516f fcbc
00000350: 3905 8cbe 2283 2ebe 2774 43be 064f 7ebe
00000360: 3b84 7e39 366c 8bbe cf03 553e 75cb 56be
00000370: 0de7 a93d ea9f 12be edaf 45be a14d 23be
00000380: afce b7bd 3593 9b3d a2aa 373d 3363 e9bb
00000390: b682 293e 532e 96be 631a bdbd 76e4 b53d
000003a0: 4047 3bbe 2a73 b8be 41f4 26be eec9 39bd
000003b0: 3491 86be b3f6 2dbc fcdb 7cbe b8c5 2fbe
000003c0: 7984 513e a018 67be b47a cf3c b77b 103d
000003d0: 8a73 40be 18bc 3e3e 17e3 76bd 1d3a dd3d
000003e0: d3cb 1abe 459b 5cbe 6524 153d 6bea 523c
000003f0: 9314 43be 93da 453e 4ea5 97be 1bd0 4fbd

bias f4 [128]
-0.08710512 -0.030463077 0.0751089 0.1097119 -0.20537792 -0.062351834 0.012643355 -0.115968175
-0.015737984 0.001014893 0.027174689 -0.087063365 -0.0857136 0.10559351 0.22055016 -0.10069782
-0.16266619 -0.020286672 -0.048203573 -0.09169948 -0.1561487 0.059055254 0.0153148 -0.08650731
-0.082174085 0.14054967 -0.11444376 -0.16584793 0.16808996 0.11402846 -0.08159219 -0.15628302
-0.009580972 -0.19459671 -0.19196364 0.103981815 -0.13802171 -0.1415568 -0.1437983 -0.11792005
-0.15049027 -0.15010603 -0.054578114 -0.122718625 -0.13938938 -0.18411016 -0.21834217 -0.083043754
0.08096135 -0.07115284 0.12548812 0.039989844 -0.1345416 0.058282062 -0.08785891 0.15746836
-0.13483281 -0.2053916 0.10090757 0.1731506 -0.08060489 0.14616004 0.044104565 -0.17688334
-0.018443681 -0.1437639 0.08344127 -0.14724338 0.031944066 -0.052038014 -0.11063871 -0.20065695
-0.08046014 -0.21435253 -0.004124704 -0.11851557 -0.112702705 -0.012465981 0.16149065 0.002918447
0.06612362 0.08294547 -0.090255156 -0.13443695 -0.12185846 -0.06337829 -0.08246119 -0.13401961
-0.11570499 0.057362933 0.0027704076 0.0112240175 -0.00584138 0.12277266 -0.13609944 -0.16588694
-0.11678899 -0.01859082 0.09758033 0.09879988 -0.09192707 0.011830806 -0.15237042 0.12300753
0.16096316 -0.10252126 -0.0010526875 -0.06054668 0.15359598 -0.08005037 -0.16896862 -0.091914505
-0.13929911 -0.0910509 0.108158395 -0.012619033 -0.16054098 0.011866979 -0.17180346 0.017205484
-0.12561634 -0.06263486 -0.16396216 -0.04354927 0.017356468 -0.033155303 0.014367986 0.07584568
00000000: 2b64 b2bd b48d f9bc b2d2 993d a2b0 e03d
00000010: 974e 52be a364 7fbd 1326 4f3c b980 edbd
00000020: f2ec 80bc 2806 853a 749d de3c 474e b2bd
00000030: 9d8a afbd 6941 d83d e7d7 613e a93a cebd
00000040: f791 26be 3c30 a6bc 1c71 45bd f0cc bbbd
00000050: 72e5 1fbe ece3 713d edea 7a3c bf2a b1bd
00000060: e34a a8bd 41ec 0f3e 7d61 eabd 0ad4 29be
00000070: c61f 2c3e c187 e93d ce19 a7bd a808 20be
00000080: 82f9 1cbc 5c44 47be 1e92 44be 6bf4 d43d
00000090: 9055 0dbe 44f4 10be dd3f 13be 1180 f1bd
000000a0: 1f1a 1abe 65b5 19be 4d8d 5fbd e753 fbbd
000000b0: 17bc 0ebe 6087 3cbe 1795 5fbe d812 aabd
000000c0: 10cf a53d 95b8 91bd f57f 003e 64cc 233d
000000d0: 46c5 09be 2cb9 6e3d 5fef b3bd 633f 213e
000000e0: 9d11 0abe 2d52 52be a1a8 ce3d 644e 313e
000000f0: 2d14 a5bd faaa 153e fda6 343d e820 35be
00000100: 3417 97bc d836 13be 42e3 aa3d f8c6 16be
00000110: c8d7 023d d025 55bd 8c96 e2bd 0479 4dbe
00000120: 49c8 a4bd 3b7f 5bbe 8628 87bb 4bb8 f2bd
00000130: add0 e6bd 1d3e 4cbc ce5d 253e 6a43 3f3b
00000140: d26b 873d 51df a93d b2d7 b8bd d7a9 09be
00000150: ee90 f9bd 7acc 81bd 6ae1 a8bd 703c 09be
00000160: bdf6 ecbd 65f5 6a3d ba8f 353b f1e4 373c
00000170: 0c69 bfbb 3b70 fb3d a75d 0bbe 44de 29be
00000180: 112f efbd c64b 98bc 32d8 c73d 9757 ca3d
00000190: 4244 bcbd ffd5 413c fe06 1cbe 5feb fb3d
000001a0: 87d3 243e abf6 d1bd 55fa 89ba ccff 77bd
000001b0: 4448 1d3e 73f1 a3bd 1c06 2dbe ac3d bcbd
000001c0: 6da4 0ebe e578 babd 2682 dd3d 10c0 4ebc
000001d0: db64 24be b86d 423c 3fed 2fbe 84f2 8c3c
000001e0: 92a1 00be b546 80bd b2e5 27be b860 32bd
000001f0: 272f 8e3c dbcd 07bd b367 6b3c fb54 9b3d

weight f4 [128, 128]
-0.11248616 -0.029691901 -0.07995704 -0.017555173 -0.074649915 0.0421161 0.021597052 -0.06259924
0.013519201 0.00909786 0.05477866 0.07009988 -0.05148523 -0.04648988 0.0007465847 -0.031435717
-0.023897052 -0.097066715 -0.0015605404 -0.049828216 -0.022899784 0.0704989 -0.055503093 -0.12942745
-0.040415846 0.09966427 -0.07454081 -0.0051465514 0.04895573 -0.036973596 0.040280733 -0.072630994
-0.013044886 -0.096398845 0.078627415 -0.040068947 -0.05898869 -0.010243844 0.04044512 -0.07184989
-0.035698894 0.0017110988 0.0236873 0.04821095 -0.14561257 -0.057584368 -0.043573096 -0.060050644
0.021320174 0.004887531 -0.025166404 -0.0020673533 -0.028706335 0.014307007 -0.0326482 0.017693013
-0.06034832 -0.028786534 -0.09339884 0.029128518 -0.07878884 -0.06781766 -0.042264365 -0.02076196
0.037658412 -0.008135622 -0.016272224 -0.06372463 0.07346333 -0.05346652 -0.028622262 0.050377004
0.05795372 -0.0079483725 -0.036768347 0.04661483 -0.09493499 -0.046450537 0.008908785 -0.04105721
-0.08842601 -0.07583037 -0.0072998027 -0.06558492 -0.053132504 0.031185893 0.01308294 -0.054573942
-0.06632172 -0.089076184 -0.138987 -0.06354737 -0.07512198 -0.02185152 0.053042874 0.04781598
-0.049507458 0.032460716 0.038995028 0.0470047 0.009604127 -0.05891074 -0.04108535 -0.08985282
0.08354412 0.08836014 0.014653073 -0.111187115 -0.010709909 -0.04417515 -0.031186739 -0.031184398
-0.06712655 -0.13645518 0.046535105 -0.16532435 0.008075991 0.01800654 0.08167096 -0.03962364
0.012255623 -0.13068911 -0.115602516 -0.11058418 -0.005404117 -0.11637513 -0.041982636 -0.025038911
-0.0074567916 -0.020246295 -0.022623958 0.0006235211 -0.080620654 0.02455763 -0.076722115 0.06893485
-0.01963798 -0.06457753 0.060897894 -0.041890036 0.06483905 -0.07078609 0.016695032 0.031783704
0.07129728 -0.081156254 -0.054306563 0.0662123 0.027501851 -0.04329713 0.061404813 -0.016874619
-0.07114874 0.0188733 -0.10394921 0.035882782 -0.09062534 -0.06697086 -0.026173813 0.04712882
-0.0511316 -0.010525691 0.00357742 -0.0084609045 -0.067757234 0.05866991 0.08306107 -0.047856607
0.024665888 0.052550364 -0.024652263 -0.011671032 -0.11273798 -0.061727364 -0.0022245105 -0.07413958
-0.032886807 -0.051102415 0.035036087 -0.017042417 -0.07565221 0.08081408 -0.024906784 0.0060186214
0.06344847 -0.049612623 -0.09571115 0.050012928 -0.030798586 0.014961409 0.05424171 0.069727205
-0.0796443 -0.030354464 -0.010446054 -0.072446324 0.013771268 0.012232981 0.024704512 -0.03320199
-0.008885831 0.082008764 -0.07670674 -0.03971586 -0.047598775 0.036226124 -0.054722194 -0.069885276
0.0061008884 0.02790661 0.029427867 -0.014528282 0.012920712 0.055330902 0.015196374 0.023424342
-0.034716837 0.022941403 -0.07839022 -0.03765502 0.0854069 -0.018606197 0.008330054 -0.08296703
0.06217604 0.0475379 -0.103493005 -0.025170585 -0.032810338 -0.033012044 0.03760346 -0.07597944
0.0066540395 0.05805174 -0.030352574 0.014901614 -0.045338366 0.09222601 -0.019746788 -0.07615555
0.03959849 0.03283429 -0.043160763 -0.011898446 0.049746636 -0.07275867 0.06139622 -0.056899987
0.074912675 0.07394352 -0.025923043 -0.036387395 0.05924441 -0.04823961 -0.02937673 -0.13763647
00000000: 255f e6bd 6e3c f3bc 84c0 a3bd decf 8fbc
00000010: 0ee2 98bd ef81 2c3d 4dec b03c 0834 80bd
00000020: a47f 5d3c 310f 153c 975f 603d 8790 8f3d
00000030: 2de2 52bd 2c6c 3ebd 73b6 433a bdc2 00bd
00000040: c0c3 c3bc eaca c6bd 0c8b ccba ac18 4cbd
00000050: 5498 bbbc ba61 903d 3657 63bd a188 04be
00000060: 168b 25bd c81c cc3d daa8 98bd 67a4 a8bb
00000070: ce85 483d a071 17bd 69fd 243d 8fbf 94bd
00000080: 38ba 55bc c26c c5bd 6907 a13d 561f 24bd
00000090: 209e 71bd ccd5 27bc c8a9 253d 0926 93bd
000000a0: 0139 12bd f346 e03a de0b c23c d878 453d
000000b0: 761b 15be 96dd 6bbd b479 32bd aaf7 75bd
000000c0: a5a7 ae3c 9527 a03b c629 cebc 6f7c 07bb
000000d0: 8c29 ebbc f067 6a3c 1eba 05bd f0f0 903c
000000e0: cd2f 77bd bdd1 ebbc e447 bfbd ee9e ee3c
000000f0: 0b5c a1bd fce3 8abd 661d 2dbd fc14 aabc
00000100: b53f 1a3d 464b 05bc 544d 85bc 0f82 82bd
00000110: f173 963d b6ff 5abd 3c79 eabc 1e58 4e3d
00000120: e160 6d3d e439 02bc 689a 16bd 31ef 3e3d
00000130: 476d c2bd eb42 3ebd 27f6 113c 9b2b 28bd
00000140: b218 b5bd f44c 9bbd 2f33 efbb 6351 86bd
00000150: 78a1 59bd 8f79 ff3c d459 563c ed88 5fbd
00000160: afd3 87bd 936d b6bd 9c52 0ebe 2025 82bd
00000170: 8dd9 99bd f501 b3bc 7c43 593d b0da 433d
00000180: 55c8 4abd 87f5 043d 40b9 1f3d 0088 403d
00000190: a15a 1d3c 634c 71bd 1d49 28bd c104 b8bd
000001a0: 2e19 ab3d 29f6 b43d 7113 703c 12b6 e3bd
000001b0: 9d78 2fbc 01f1 34bd 557b ffbc 6c76 ffbc
000001c0: a579 89bd e8ba 0bbe 989b 3e3d c94a 29be
000001d0: 2951 043c 7482 933c 1b43 a73d 664c 22bd
000001e0: cfcb 483c 5ed3 05be 03c1 ecbd f579 e2bd
000001f0: 0515 b1bb 1656 eebd fcf5 2bbd 671e cdbc
00000200: 1a58 f4bb 8fdb a5bc e155 b9bc cb73 233a
00000210: 711c a5bd 152d c93c 7c20 9dbd b72d 8d3d
00000220: d4df a0bc 3941 84bd 1270 793d e394 2bbd
00000230: 56ca 843d 4cf8 90bd 05c4 883c a12f 023d
00000240: 4f04 923d 4035 a6bd 8f70 5ebd 509a 873d
00000250: 904b e13c 5558 31bd 9d83 7b3d a43c 8abc
00000260: 6eb6 91bd 2e9c 9a3c 53e3 d4bd d3f9 123d
00000270: c799 b9bd 0528 89bd 776a d6bc 260a 413d
00000280: 5e6f 51bd f373 2cbc 2673 6a3b 9b9f 0abc
00000290: 4ec4 8abd dc4f 703d ec1b aa3d 4a05 44bd
000002a0: 1e10 ca3c 0d3f 573d 8bf3 c9bc db37 3fbc
000002b0: 2ce3 e6bd d5d5 7cbd 18c9 11bb 7ed6 97bd
000002c0: 51b4 06bd c450 51bd 0082 0f3d 8a9c 8bbc
000002d0: 8cef 9abd da81 a53d 5009 ccbc db37 c53b
000002e0: 45f1 813d 9b36 4bbd 3504 c4bd 5bda 4c3d
000002f0: 514d fcbc b320 753c 8e2c 5e3d 23cd 8e3d
00000300: 8d1c a3bd eda9 f8bc ed25 2bbc bd5e 94bd
00000310: e2a0 613c d76c 483c 1e61 ca3c cffe 07bd
00000320: e095 11bc 36f4 a73d 6c18 9dbd 19ad 22bd
00000330: eff6 42bd d861 143d 6124 60bd 0320 8fbd
00000340: f6e9 c73b 679c e43c b612 f13c 0808 6ebc
00000350: 65b1 533c a8a2 623d 36fa 783c 68e4 bf3c
00000360: 3e33 0ebd 9cef bb3c 0d8b a0bd 263c 1abd
00000370: d0e9 ae3d 066c 98bc c77a 083c 9eea a9bd
00000380: 4eac 7e3d 1ab7 423d 24f4 d3bd 8b32 cebc
00000390: 2264 06bd a337 07bd 1606 1a3d 1c9b 9bbd
000003a0: 210a da3b a9c7 6d3d f6a5 f8bc e625 743c
000003b0: b9b4 39bd fee0 bc3d 04c4 a1bc 71f7 9bbd
000003c0: 0732 223d 407d 063d 57c9 30bd b3f1 42bc
000003d0: 21c3 4b3d 7f02 95bd 9a7a 7b3d f60f 69bd
000003e0: d16b 993d b36f 973d 905c d4bc f30a 15bd
000003f0: 44aa 723d e696 45bd 78a7 f0bc 93f0 0cbe

bias f4 [128]
-0.13738237 -0.113662116 -0.043431792 -0.14479068 0.032712504 -0.019956393 -0.069659635 -0.04662594
0.0636249 -0.008290403 -0.1407084 -0.11683982 -0.106102444 0.037651632 -0.10661217 -0.13654728
0.15412556 -0.13785994 -0.0465582 0.2425391 0.1908833 -0.065858476 0.05879277 0.046655066
-0.039842114 -0.10169084 -0.09299116 0.101238996 -0.113738574 0.21523142 -0.025307307 0.12077304
-0.16760738 -0.016109262 0.10640495 -0.09713186 -0.12402027 0.023445224 -0.078515776 0.047648806
-0.090019114 -0.12461604 -0.07202606 -0.17991666 -0.15362707 -0.07428333 -0.13178536 -0.1491822
-0.10107515 -0.073033445 -0.07235545 -0.033216797 0.03224245 -0.15649636 -0.00043826667 0.08766081
0.05067821 -0.13284136 0.09370115 -0.108940065 0.088749036 -0.056154296 0.2067561 -0.10750055
-0.02673832 -0.18601172 -0.060744412 0.14007768 -0.12549853 -0.11300496 -0.045648932 -0.012585691
-0.13183588 -0.07433937 -0.11320865 0.09321574 -0.04677002 0.1791598 0.07241188 -0.06227742
-0.19046837 -0.16492292 0.003535236 -0.027832523 -0.08737646 -0.025144575 -0.07876589 -0.22085537
-0.14672197 -0.10949472 0.106643684 -0.099578865 -0.030874934 -0.014141792 0.14443009 0.053712714
-0.0932169 -0.08297349 0.05390567 0.085825525 -0.06656107 -0.08340269 -0.08811634 -0.10708618
-0.099036925 -0.12180643 -0.19212145 0.07978572 -0.14925312 -0.054192636 0.09342881 0.090355955
-0.09000749 -0.10407048 -0.11169302 -0.117214814 -0.07512303 -0.11799252 0.08073761 -0.063693345
-0.0527154 0.13501674 0.043601085 -0.01578367 -0.07948454 -0.14261949 -0.08470682 0.02288967
00000000: f7ad 0cbe afc7 e8bd 89e5 31bd 0244 14be
00000010: 8cfd 053d 977b a3bc b6a9 8ebd d7fa 3ebd
00000020: c64d 823d 78d4 07bc dd15 10be b749 efbd
00000030: 3d4c d9bd 9938 1a3d 7b57 dabd 0dd3 0bbe
00000040: 17d3 1d3e 282b 0dbe d0b3 3ebd 2b5c 783e
00000050: e976 433e cfe0 86bd b0d0 703d 6219 3f3d
00000060: 7c31 23bd 4a43 d0bd 2672 bebd 6456 cf3d
00000070: c5ef e8bd a065 5c3e 4551 cfbc db57 f73d
00000080: 45a1 2bbe 92f7 83bc d7ea d93d 12ed c6bd
00000090: 57fe fdbd 3310 c03c e1cc a0bd 652b 433d
000000a0: f15b b8bd b236 ffbd 6682 93bd 133c 38be
000000b0: 6a50 1dbe dc21 98bd bef2 06be 38c3 18be
000000c0: 7d00 cfbd 8f92 95bd 182f 94bd 560e 08bd
000000d0: a910 043d 9540 20be 28c7 e5b9 8387 b33d
000000e0: f493 4f3d 9107 08be 63e6 bf3d f81b dfbd
000000f0: 0ec2 b53d 0c02 66bd dfb7 533e 4029 dcbd
00000100: 520a dbbc db79 3ebe 22cf 78bd 8670 0f3e
00000110: b082 00be 256f e7bd 60fa 3abd 3734 4ebc
00000120: fcff 06be 3d3f 98bd f0d9 e7bd e5e7 be3d
00000130: ec91 3fbd ab75 373e ae4c 943d 9c16 7fbd
00000140: 240a 43be 8ee1 28be 6baf 673b 0801 e4bc
00000150: 6ef2 b2bd fffb cdbc 0350 a1bd e927 62be
00000160: 493e 16be c53e e0bd 0168 da3d 01f0 cbbd
00000170: 6eed fcbc fab2 67bc 7be5 133e dd01 5c3d
00000180: 81e8 bebd 01ee a9bd 31cc 5c3d 4bc5 af3d
00000190: 2c51 88bd 08cf aabd 5776 b4bd 0050 dbbd
000001a0: dfd3 cabd a675 f9bd 7cbb 44be b266 a33d
000001b0: cfd5 18be 19f9 5dbd 9b57 bf3d 8b0c b93d
000001c0: d955 b8bd e722 d5bd 4fbf e4bd 520e f0bd
000001d0: 1ada 99bd 10a6 f1bd c359 a53d a871 82bd
000001e0: 1aec 57bd d441 0a3e 0d97 323d c14c 81bc
000001f0: cac8 a2bd d80a 12be c57a adbd 1e83 bb3c
