nerf_models/fox7.pth (torch, 646022 bytes, 22 tensors)

weight f4 [128, 63]
-0.029602963 0.10929155 -0.15456162 -0.15272456 0.0018231501 -0.09572988 -0.08594599 -0.06063388
-0.19075514 -0.35142922 -0.044479243 0.0029068957 -0.082723856 -0.12024863 -0.08140864 -0.23434627
-0.24896134 0.14547947 -0.06376117 -0.22834325 0.09529586 -0.37889522 0.05934735 0.047735296
0.16400263 0.27540058 -0.004798011 0.14317298 0.038058255 0.11924869 -0.29745668 -0.06984053
0.029207211 -0.2854801 0.11206213 -0.009284907 0.3464106 -0.16163793 0.18734755 -0.242483
0.05548374 -0.05601127 -0.24300274 0.10036195 0.017332066 0.070985116 0.00666323 -0.06508915
0.15900895 -0.06704211 0.041530654 -0.030707357 -0.054217875 -0.012056491 0.023804005 0.04367625
-0.03841207 -0.013633879 0.034512475 -0.02925313 0.0015262528 -0.043719858 0.014943197 -0.067332186
-0.08589099 -0.24863584 0.054165255 0.03147952 -0.08350472 0.061953407 -0.104140505 -0.16095035
-0.1865756 0.17464902 -0.106383376 -0.04691249 -0.11862374 -0.18531048 -0.15284869 -0.16440642
0.29903823 -0.20299903 -0.26347 0.06768308 0.10685811 0.11458301 0.09980716 -0.06453846
0.28771546 -0.06652789 -0.15950625 0.20653285 0.25136796 -0.08889977 -0.22969927 0.012380313
-0.032710824 -0.16370247 -0.33519801 0.019546596 -0.08170508 -0.1541768 0.07105978 0.034979384
-0.082290016 0.2165678 -0.008877036 0.09830566 0.020907555 0.074133046 0.061299685 -0.026810212
0.030288298 0.13222687 0.06308659 -0.0037878077 -0.0004382199 -0.008197584 0.040721282 -0.08735226
-0.049337056 0.022542961 -0.033524055 0.010755342 0.040229898 -0.029074783 -0.20653386 -0.24608676
-0.015196785 -0.23299444 -0.20468883 -0.06160606 0.00481079 -0.08936588 -0.112469174 -0.18674918
-0.110751055 -0.059462003 0.038957823 -0.12698582 -0.41907543 -0.17025125 -0.00010788014 0.0121158045
-0.06821282 0.047836155 -0.2873056 -0.108582504 -0.06458699 -0.11657164 -0.024091208 0.085279755
0.08788424 0.026310926 -0.2400039 -0.12704954 0.24959299 0.0043236054 0.40272182 -0.049879283
0.33759993 -0.10404482 0.10790831 0.016619164 -0.054223444 0.1108966 -0.20029965 -0.22306143
-0.1680249 -0.27926058 -0.07574314 -0.05796539 -0.1093482 0.09587422 -0.070731096 0.064454906
0.16186184 0.0085148215 -0.007439856 -0.029815484 0.030533096 0.027692748 -0.022180412 -0.06444526
-0.035434168 0.06842742 0.027962489 -0.086285286 0.029483072 -0.07851487 0.23220493 -0.24400708
-0.13368408 0.18984708 -0.088098295 -0.04408034 -0.11815869 -0.010835637 -0.05444126 -0.060952142
0.007921078 -0.08092903 -0.28580818 -0.05246174 0.19443105 0.2521077 0.030749433 0.12899022
-0.32613763 0.026044765 0.24870358 -0.027189465 0.01857863 0.38144177 -0.16913183 -0.074135184
-0.021371258 0.20011705 0.2196199 -0.42393896 0.36746457 -0.16424912 -0.20335671 -0.035411738
-3.6694568e-05 -0.055765495 -0.105552986 -0.20101884 0.018617777 0.09065465 -0.027144033 0.098801434
-0.10806052 -0.053698357 0.0029921834 0.021415005 -0.0046379087 0.018975016 -0.0038133124 -0.074605614
-0.013358878 0.032781173 -0.012618968 0.04670431 -0.004455922 0.009697813 0.032842 -0.022660464
0.019962536 -0.025930915 -0.040880892 0.021291563 0.027602142 -0.092166536 0.039439276 -0.123085365
00000000: ea81 f2bc 40d4 df3d 6745 1ebe d463 1cbe
00000010: c4f6 ee3a 070e c4bd 7404 b0bd 3b5b 78bd
00000020: 5155 43be 88ee b3be de2f 36bd 9e81 3e3b
00000030: 206b a9bd ea44 f6bd 93b9 a6bd 78f8 6fbe
00000040: b9ef 7ebe 92f8 143e 3795 82bd d0d2 69be
00000050: 7a2a c33d 8efe c1be 3516 733d 1686 433d
00000060: 4ef0 273e 4e01 8d3e a238 9dbb f09b 123e
00000070: f9e2 1b3d a838 f43d 3e4c 98be 8d08 8fbd
00000080: f643 ef3c 732a 92be d480 e53d b91f 18bc
00000090: bb5c b13e 6a84 25be 09d8 3f3e 774d 78be
000000a0: eb42 633d 136c 65bd b6d5 78be 918a cd3d
000000b0: fafb 8d3c a560 913d 3957 da3b 764d 85bd
000000c0: 3ed3 223e 604d 89bd 0c1c 2a3d ff8d fbbc
000000d0: 9013 5ebd 9788 45bc 9e00 c33c dee5 323d
000000e0: fa55 1dbd a260 5fbc f45c 0d3d 43a4 efbc
000000f0: 8c0c c83a 9813 33bd 50d4 743c 75e5 89bd
00000100: 9ee7 afbd 659a 7ebe 63dc 5d3d abf0 003d
00000110: 8604 abbd dbc2 7d3d 9e47 d5bd 2bd0 24be
00000120: ad0d 3fbe 31d7 323e 87df d9bd 5027 40bd
00000130: 01f1 f2bd 08c2 3dbe 5e84 1cbe 285a 28be
00000140: 8a1b 993e fade 4fbe 8ae5 86be 6d9d 8a3d
00000150: 6dd8 da3d 7faa ea3d b267 cc3d bd2c 84bd
00000160: 714f 933e c63f 88bd 9b55 23be 597d 533e
00000170: 4db3 803e 1511 b6bd 4936 6bbe ccd6 4a3c
00000180: c9fb 05bd 9fa1 27be 139f abbe 2f20 a03c
00000190: fe54 a7bd 86e0 1dbe ca87 913d 8b46 0f3d
000001a0: ab87 a8bd f3c3 5d3e fd70 11bc 7a54 c93d
000001b0: 5246 ab3c 11d3 973d 6115 7b3d 17a1 dbbc
000001c0: 2a1f f83c 7b66 073e 8b33 813d de3c 78bb
000001d0: e1c0 e5b9 294f 06bc 5ccb 263d bee5 b2bd
000001e0: a715 4abd 04ac b83c 8550 09bd 2d37 303c
000001f0: 1bc8 243d 3d2e eebc 9d7d 53be 2bfe 7bbe
00000200: f0fb 78bc 1896 6ebe f399 51be a356 7cbd
00000210: d5a3 9d3b 7505 b7bd 3d56 e6bd 2d3b 3fbe
00000220: 73d1 e2bd 6e8e 73bd 3d92 1f3d 9208 02be
00000230: 0e91 d6be 5856 2ebe b63d e2b8 5e81 463c
00000240: 2ab3 8bbd d8ef 433d b819 93be 8160 debd
00000250: 2f46 84bd 1dbd eebd ed5a c5bc 27a7 ae3d
00000260: a7fc b33d 038a d73c 95c3 75be 4619 02be
00000270: 4e95 7f3e 08ad 8d3b 8e31 ce3e 384e 4cbd
00000280: e6d9 ac3e 7315 d5bd 08ff dc3d ea24 883c
00000290: 6719 5ebd c21d e33d 5a1b 4dbe 376a 64be
000002a0: b80e 2cbe 3efb 8ebe 381f 9bbd 1e6d 6dbd
000002b0: f3f1 dfbd b459 c43d 77db 90bd ef00 843d
000002c0: 1cbf 253e c081 0b3c 09ca f3bb 9a3f f4bc
000002d0: 8b20 fa3c e7db e23c b2b3 b5bc e0fb 83bd
000002e0: 6b23 11bd ad23 8c3d 9711 e53c 57b6 b0bd
000002f0: 7c86 f13c 67cc a0bd 21c7 6d3e fedc 79be
00000300: 7be4 08be 4667 423e e16c b4bd 968d 34bd
00000310: 2ffd f1bd f587 31bc ccfd 5ebd f4a8 79bd
00000320: 69c7 013c 1fbe a5bd 7355 92be 1fe2 56bd
00000330: ef18 473e 4314 813e 3ce6 fb3c 0316 043e
00000340: 83fb a6be d55b d53c 27ac 7e3e 71bc debc
00000350: 3632 983c 564c c33e e530 2dbe 30d4 97bd
00000360: c712 afbc 7ceb 4c3e 0ae4 603e 870e d9be
00000370: 5124 bc3e ec30 28be be3c 50be e60b 11bd
00000380: 7ee8 19b8 5c6a 64bd 2a2c d8bd e2d7 4dbe
00000390: 4f84 983c 25a9 b93d 2a5d debc 6858 ca3d
000003a0: d54e ddbd cff2 5bbd 8218 443b 856e af3c
000003b0: 99f9 97bb 7e71 9b3c c4e8 79bb d4ca 98bd
000003c0: 32df 5abc 8d45 063d cabf 4ebc 054d 3f3d
000003d0: fc02 92bb 93e3 1e3c 5585 063d 70a2 b9bc
000003e0: 7988 a33c 126d d4bc b972 27bd a56b ae3c
000003f0: e31d e23c cfc1 bcbd 148b 213d 2e14 fcbd

bias f4 [128]
-0.02638705 0.047040183 0.07880925 -0.12027755 -0.02885456 0.005294648 0.073948845 -0.001878294
-0.14103873 -0.047709648 -0.1617524 -0.05178958 0.020683296 0.015005131 -0.021107906 -0.070639424
-0.14137019 0.03081324 -0.053745657 -0.07262501 -0.006348413 -0.05122328 -0.010087743 0.101953804
-0.021153705 -0.10340626 -0.0952116 -0.10453014 -0.16935919 0.04412363 0.03214785 -0.09771156
0.13773222 0.012179428 -0.098068446 -0.118648134 0.025050981 -0.086339496 -0.11346254 -0.16133876
-0.061297625 -0.11093294 -0.084165454 -0.07778211 -0.18216428 -0.07549758 -0.1994325 0.018469062
0.05275087 -0.007910645 -0.08908746 0.020252379 0.08590458 -0.087564565 -0.0006409182 0.0109551465
0.0071262824 0.022730684 -0.088955335 -0.13014176 -0.04203482 -0.08252137 -0.11147901 -0.025393637
-0.062159054 -0.16814665 -0.12937188 -0.07981929 -0.00076478353 -0.0701714 -0.12389605 -0.12473857
-0.12514934 -0.15000245 -0.03305806 0.09186105 -0.03627761 -0.03017231 -0.086837225 -0.12853387
-0.054473754 -0.1903048 -0.07457043 -0.04030187 -0.08952049 0.0547733 -0.09399603 -0.07879258
0.10591736 -0.14113674 -0.026902398 -0.10494793 -0.039199293 0.055846915 -0.07181749 0.082902305
0.015949154 -0.15570353 -0.06280637 -0.015152493 0.0061008288 0.007792581 -0.11458164 0.0104797855
-0.116019584 -0.09850943 -0.071251795 -0.13312958 -0.09766219 -0.06323646 0.027701784 -0.14522085
-0.044519506 -0.022930503 0.0398089 -0.09110395 -0.081972845 -0.008581036 -0.12969232 -0.009331162
-0.059552316 -0.04478448 -0.14547864 -0.07073813 -0.091028504 -0.01462728 -0.10878423 -0.08775973
00000000: a829 d8bc 35ad 403d be66 a13d 1354 f6bd
00000010: 6660 ecbc ba7e ad3b 7e72 973d 1731 f6ba
00000020: 756c 10be 316b 43bd 6ca2 25be 5021 54bd
00000030: 0470 a93c 15d8 753c 7dea acbc 67ab 90bd
00000040: 59c3 10be 0c6c fc3c 6824 5cbd 6cbc 94bd
00000050: 5906 d0bb 81cf 51bd 1047 25bc 28cd d03d
00000060: 894a adbc a9c6 d3bd 4dfe c2bd e613 d6bd
00000070: 7f6c 2dbe fbba 343d 77ad 033d 001d c8bd
00000080: ad09 0d3e 398c 473c 1cd8 c8bd cbfd f2bd
00000090: b737 cd3c c3d2 b0bd 0c5f e8bd fd35 25be
000000a0: 3813 7bbd cf30 e3bd f05e acbd 3a4c 9fbd
000000b0: 4689 3abe 7a9e 9abd 0938 4cbe 6e4c 973c
000000c0: 4c11 583d a69b 01bc 7c73 b6bd 51e8 a53c
000000d0: beee af3d 0d55 b3bd 4b03 28ba 377d 333c
000000e0: 9783 e93b b335 ba3c 372e b6bd e243 05be
000000f0: b42c 2cbd f700 a9bd 1b4f e4bd 5106 d0bc
00000100: 7e9a 7ebd a32e 2cbe 107a 04be 4c78 a3bd
00000110: c17b 48ba 06b6 8fbd 36bd fdbd ef76 ffbd
00000120: 2627 00be 3e9a 19be e367 07bd a521 bc3d
00000130: d597 14bd ec2b f7bc b7d7 b1bd 629e 03be
00000140: df1f 5fbd 43df 42be 62b8 98bd 9313 25bd
00000150: 8556 b7bd f859 603d fe80 c0bd 015e a1bd
00000160: 33eb d83d 2686 10be 6b62 dcbc f1ee d6bd
00000170: 708f 20bd bcbf 643d 0c15 93bd afc8 a93d
00000180: cda7 823c bf70 1fbe a0a0 80bd 2942 78bc
00000190: 76e9 c73b e858 ff3b c7a9 eabd 68b3 2b3c
000001a0: ad9b edbd 50bf c9bd 76ec 91bd 1f53 08be
000001b0: 1d03 c8bd 1e82 81bd daee e23c c6b4 14be
000001c0: 165a 36bd c0d8 bbbc a80e 233d b594 babd
000001d0: 61e1 a7bd 7997 0cbc 10ce 04be bbe1 18bc
000001e0: 21ed 73bd ee6f 37bd 5af8 14be 27df 90bd
000001f0: 276d babd 42a7 6fbc 44ca debd 60bb b3bd

weight f4 [128, 128]
-0.12970574 0.015242656 -0.29153123 0.20531765 -0.23216894 0.029741624 -0.2173147 -0.15188679
-0.16313949 0.051888634 0.08533083 -0.081218675 0.001057424 0.08848306 -0.118661925 0.144511
-0.056211006 0.1168213 0.083607174 -0.008543073 0.14947253 0.13611345 0.03169776 -0.034267507
0.010725841 -0.20346868 0.12616874 -0.014262957 -0.1260999 -0.009084349 -0.20747253 -0.14186777
-0.27982035 0.023913095 -0.08715089 0.032923028 -0.095482685 0.17239577 -0.029801581 -0.029389177
0.0013580625 0.23238601 -0.33331996 0.06639905 0.1170178 -0.11408128 0.03040304 -0.15055828
0.07932 -0.027923582 -0.2029344 -0.04174209 0.056040823 0.10722063 0.13794003 -0.18136209
0.08380003 -0.24314041 -0.14678094 -0.058374196 0.107197605 -0.123794094 -0.14057744 -0.037174694
0.13116166 0.20830657 -0.09711746 0.06397855 -0.15174416 0.13424343 -0.09560781 -0.16637744
-0.089844964 -0.11983426 -0.40904176 0.02533024 -0.20041564 -0.14238447 0.029485554 0.18426172
-0.09910689 0.1795868 0.24635388 -0.11544288 0.031768337 0.02663435 0.11156696 -0.041409235
-0.1747047 0.17397083 -0.014719814 -0.14781427 -0.05388416 0.074805014 3.781404e-05 0.03291182
0.054958757 -0.25120935 -0.05545738 -0.17691834 0.21334632 -0.074146025 0.18191585 -0.06395349
0.108511545 -0.12038438 -0.026040116 0.104629576 0.14616011 -0.1373926 0.049419202 -0.07028138
0.04537469 0.12936592 -0.06521928 -0.085687816 0.33796185 -0.038842395 -0.10073414 -0.23290412
-0.20852678 0.13302211 -0.03513941 0.016836176 0.08510528 -0.22552772 0.07177195 -0.03437846
0.12561521 -0.3038734 -0.19992714 -0.09297298 -0.051224682 0.080509104 0.059342057 -0.1761956
0.25725448 0.124917775 -0.12869103 0.101201735 -0.2354061 0.04475723 -0.08241565 -0.35827896
0.0115899695 -0.029189562 -0.1766852 0.1855358 -0.040958147 0.044893824 -0.083183244 -0.064026564
-0.041486323 0.1526832 -0.17051417 -0.023419246 -0.1742389 0.0921731 0.20958765 -0.11030834
-0.02718137 -0.04547518 0.12634715 0.15583795 -0.19533138 -0.025336219 -0.029356984 0.06138849
0.07614875 -0.09816238 0.04951057 -0.019041646 -0.24954504 0.06555009 0.017594688 0.10112224
-0.09280718 0.15956765 0.041621257 -0.13647746 -0.11500665 -0.01500906 0.07702415 -0.23403409
-0.1731533 -0.19606553 -0.26750666 -0.09003677 -0.06275594 0.021509573 0.04726273 0.104348116
-0.09000974 -0.3382347 -0.0021528646 -0.26769456 0.043233957 -0.044071265 0.026739098 0.019437673
0.076002404 0.057510342 -0.19192511 -0.30626193 -0.21525295 -0.062220406 0.009013762 -0.17965233
0.029285535 0.01643964 -0.09018568 0.12806886 -0.3263232 0.08499223 0.025557818 0.11056394
0.09258296 0.04847469 0.050207164 -0.0934496 0.09949237 -0.15712242 0.22517918 -0.13746445
-0.079617485 -0.0641689 0.015784478 -0.17863926 -0.21104561 -0.059977934 -0.25827137 0.117973104
-0.020223666 -0.10482117 -0.04488848 0.013636955 0.06737324 0.077051476 -0.040166307 -0.29108128
-0.059257496 0.075895436 -0.27442244 0.15939687 -0.083515756 -0.22630805 -0.048463233 0.081468955
-0.37771055 -0.33765772 0.16276376 0.053771093 0.108291045 -0.084493294 -0.06310835 0.1889711
00000000: 95d1 04be 55bc 793c 9543 95be ca3e 523e
00000010: b2bd 6dbe b5a4 f33c bf87 5ebe 3688 1bbe
00000020: 0a0e 27be 2d89 543d eec1 ae3d fa55 a6bd
00000030: 4399 8a3a 9b36 b53d 0605 f3bd b1fa 133e
00000040: 833d 66bd 0140 ef3d 3d3a ab3d 3ff8 0bbc
00000050: 540f 193e 5361 0b3e 83d5 013d 165c 0cbd
00000060: 70bb 2f3c 185a 50be 6132 013e 2daf 69bc
00000070: 5520 01be 85d6 14bc ae73 54be c945 11be
00000080: 9d44 8fbe 65e5 c33c 2a7c b2bd 4cda 063d
00000090: 6d8c c3bd 8488 303e 7222 f4bc 92c1 f0bc
000000a0: 0401 b23a 99f6 6d3e eaa8 aabe 3afc 873d
000000b0: 07a7 ef3d 72a3 e9bd cc0f f93c f32b 1abe
000000c0: 8672 a23d ffbf e4bc 09ce 4fbe c1f9 2abd
000000d0: 108b 653d 7d96 db3d 2740 0d3e fcb6 39be
000000e0: 5a9f ab3d cdf9 78be be4d 16be c819 6fbd
000000f0: 6b8a db3d c287 fdbd 88f3 0fbe 7e44 18bd
00000100: 3e4f 063e 514e 553e 85e5 c6bd 3007 833d
00000110: d262 1bbe 1c77 093e 07ce c3bd d95e 2abe
00000120: a300 b8bd aa6b f5bd ec6d d1be 5d81 cf3c
00000130: c239 4dbe 3ccd 11be b08b f13c 1baf 3c3e
00000140: 8ef8 cabd 9ae5 373e 3144 7c3e 516d ecbd
00000150: 841f 023d 4830 da3c 387d e43d bb9c 29bd
00000160: cae5 32be 6925 323e 602b 71bc a05c 17be
00000170: a3b5 5cbd 5f33 993d 849a 1e38 8bce 063d
00000180: 6f1c 613d 839e 80be 4727 63bd 152a 35be
00000190: 7577 5a3e dfd9 97bd 2648 3a3e 0cfa 82bd
000001a0: 4d3b de3d 168c f6bd 1552 d5bc 0848 d63d
000001b0: ffaa 153e a5b0 0cbe ca6b 4a3d afef 8fbd
000001c0: d0da 393d 8078 043e b091 85bd 187d afbd
000001d0: 5609 ad3e 3419 1fbd b34d cebd 6b7e 6ebe
000001e0: 0b88 55be f336 083e 58ee 0fbd 05ec 893c
000001f0: ad4b ae3d bdf0 66be 2cfd 923d 6ed0 0cbd
00000200: 46a1 003e 4b95 9bbe b3b9 4cbe 9e68 bebd
00000210: f9d0 51bd f5e1 a43d a810 733d 9f6c 34be
00000220: dcb6 833e e4d4 ff3d 95c7 03be db42 cf3d
00000230: 4c0e 71be 5b53 373d 89c9 a8bd 5770 b7be
00000240: dbe3 3d3c f31e efbc f7ec 34be 19fd 3d3e
00000250: bbc3 27bd 96e2 373d fa5b aabd 5c20 83bd
00000260: 90ed 29bd fc58 1c3e 449b 2ebe b8d9 bfbc
00000270: af6b 32be 40c5 bc3d 259e 563e 57e9 e1bd
00000280: 77ab debc 2f44 3abd 2661 013e fc93 1f3e
00000290: f304 48be e78d cfbc 0f7e f0bc 7f72 7b3d
000002a0: e0f3 9b3d 5c09 c9bd 98cb 4a3d 3afd 9bbc
000002b0: bc88 7fbe 203f 863d bc22 903c 2d19 cf3d
000002c0: b111 bebd b465 233e 0d7b 2a3d bfc0 0bbe
000002d0: 9b88 ebbd 8fe8 75bc d6be 9d3d a2a6 6fbe
000002e0: 194f 31be 67c5 48be a2f6 88be 3365 b8bd
000002f0: 3086 80bd d834 b03c 9096 413d 77b4 d53d
00000300: 0757 b8bd 192d adbe 1317 0dbb 430f 89be
00000310: 1716 313d 1284 34bd f40b db3c c13b 9f3c
00000320: 26a7 9b3d f78f 6b3d 0488 44be 5dce 9cbe
00000330: 456b 5cbe d3da 7ebd 75ae 133c c8f6 37be
00000340: 38e8 ef3c 6dac 863c 45b3 b8bd 7c24 033e
00000350: d613 a7be 6810 ae3d a15e d13c 596f e23d
00000360: 239c bd3d 668d 463d 07a6 4d3d 8162 bfbd
00000370: a8c2 cb3d b3e4 20be 5f95 663e 7bc3 0cbe
00000380: 7e0e a3bd fc6a 83bd 734e 813c 36ed 36be
00000390: 571c 58be 6cab 75bd 253c 84be e29b f13d
000003a0: 1aac a5bc 7bac d6bd fcdc 37bd 896d 5f3c
000003b0: fbfa 893d 2acd 9d3d 6d85 24bd 9b08 95be
000003c0: fdb7 72bd 116f 9b3d 1981 8cbe ef38 233e
000003d0: 4f0a abbd 4cbd 67be 6281 46bd 32d9 a63d
000003e0: 4763 c1be 79e1 acbe 8bab 263e 143f 5c3d
000003f0: b2c7 dd3d d20a adbd f33e 81bd a481 413e

bias f4 [128]
0.044701856 -0.05159881 0.084856644 -0.02602659 0.06677836 -0.08656662 -0.04072411 0.03510216
-0.12569536 -0.08415507 -0.12091633 -0.0681333 -0.08402729 0.08886654 -0.11379279 -0.055261306
0.018692857 -0.052246615 -0.014011464 -0.016014023 -0.09542872 -0.06828439 0.026741942 -0.08273411
0.0477789 -0.057437964 0.015879484 0.03783843 0.026797595 0.018361837 -0.12399894 -0.07006806
0.00035771026 -0.09994202 -0.11459483 -0.022177735 -0.05944275 -0.073442504 0.020415308 -0.08657785
-0.16663189 0.03352052 -0.08361577 0.045713242 0.022784984 -0.005084723 0.0678342 -0.08527275
0.00342093 -0.12579393 -0.0072363736 -0.04274213 0.020314753 -0.0046758177 -0.0299854 -0.08527766
-0.07526582 -0.059217192 0.00364961 -0.010602239 0.059252992 -0.09499489 -0.07865412 -0.040951822
-0.07813888 -0.03602064 -0.112724386 0.012689153 -0.057914436 -0.08272944 -0.05296361 0.0014141581
0.082515754 -0.050832625 -0.09402565 -0.12080325 0.00445842 0.07603468 0.01842844 0.031355478
0.033853948 -0.030888367 -0.029086439 -0.01779789 0.024396548 -0.0408313 0.009784652 -0.07286023
0.029801514 -0.032802083 0.03489656 -0.04377057 -0.024373645 -0.085004136 0.044939294 -0.046469662
0.03323474 -0.07155652 -0.06373293 0.0029210257 0.025097474 -0.07833024 0.01339329 -0.12964708
-0.073454164 -0.07703068 -0.055269655 0.002096039 0.011930612 -0.0389172 -0.16222498 0.006491294
0.054025076 0.010863749 -0.048012313 -0.037765335 -0.12838449 0.049595598 0.042456247 -0.052647647
0.04769303 0.022623956 -0.04430521 -0.059364464 0.070526525 0.04139511 -0.05164591 -0.04978364
00000000: 4b19 373d 4659 53bd 52c9 ad3d b735 d5bc
00000010: 18c3 883d d749 b1bd 53ce 26bd 48c7 0f3d
00000020: 49b6 00be 7e59 acbd fba2 f7bd 7989 8bbd
00000030: 8016 acbd a9ff b53d 320c e9bd ae59 62bd
00000040: c321 993c 8c00 56bd 5790 65bc d72f 83bc
00000050: 2270 c3bd b0d8 8bbd eb11 db3c 8070 a9bd
00000060: cfb3 433d 1244 6bbd b115 823c 78fc 1a3d
00000070: a186 db3c 906b 963c 28f3 fdbd d87f 8fbd
00000080: 0f8b bb39 67ae ccbd b2b0 eabd 15ae b5bc
00000090: 3e7a 73bd 0669 96bd 013e a73c ba4f b1bd
000000a0: 8da1 2abe d04c 093d bf3e abbd cf3d 3b3d
000000b0: 93a7 ba3c bf9d a6bb a8ec 8a3d 7ba3 aebd
000000c0: ae31 603b 20d0 00be 1a1f edbb 5f12 2fbd
000000d0: 206b a63c 9a37 99bb f1a3 f5bc 0ea6 aebd
000000e0: f724 9abd ba8d 72bd 4c2e 6f3b 03b5 2dbc
000000f0: 44b3 723d ae8c c2bd 6915 a1bd 19bd 27bd
00000100: 4707 a0bd 618a 13bd 0bdc e6bd 2ae6 4f3c
00000110: b037 6dbd 0d6e a9bd 5ff0 58bd 465b b93a
00000120: 05fe a83d df35 50bd 8590 c0bd b267 f7bd
00000130: f017 923b 12b8 9b3d 3df7 963c 9a6e 003d
00000140: 70aa 0a3d 9a09 fdbc af46 eebc e1cc 91bc
00000150: 45db c73c b93e 27bd ce4f 203c bf37 95bd
00000160: 4e22 f43c 7a5b 06bd b2ef 0e3d c548 33bd
00000170: 3dab c7bc a616 aebd 4412 383d f956 3ebd
00000180: 2721 083d 3a8c 92bd 6986 82bd ae6e 3f3b
00000190: 3899 cd3c 9b6b a0bd 886f 5b3c 34c2 04be
000001a0: 236f 96bd 43c2 9dbd 6f62 62bd b35d 093b
000001b0: 9d78 433c a467 1fbd 4e1e 26be ecb4 d43b
000001c0: 6649 5d3d defd 313c 8fa8 44bd d3af 1abd
000001d0: 3977 03be c124 4b3d 9ae6 2d3d 0fa5 57bd
000001e0: c459 433d e055 b93c 6179 35bd 2728 73bd
000001f0: 3670 903d eb8d 293d a98a 53bd eee9 4bbd

weight f4 [128, 128]
0.09429378 -0.12541462 -0.22968106 0.039174683 0.12563626 -0.07396139 -0.06085127 -0.10996947
0.16026182 -0.28579724 0.14089689 0.1154454 0.075171575 -0.239643 -0.014857983 -0.045734674
-0.02192423 0.013062965 -0.014712989 -0.092452504 -0.053762306 0.21273157 -0.066276886 0.052110802
0.0027345824 0.13912433 -0.12130632 0.11995595 0.10574594 0.08169505 -0.037507787 -0.04782863
0.08809234 -0.008256624 0.055305492 -0.04362495 0.016051538 -0.015090844 0.06142812 0.038929045
-0.04181921 -0.0072365534 -0.031896986 -0.05498387 -0.020735053 0.07494764 -0.078210674 0.015213167
-0.130343 -0.012766594 -0.19237995 -0.26278204 0.073045805 0.10087629 -0.10298137 0.13253061
0.4004293 0.07142649 -0.01455799 -0.00081741024 -0.0030200898 -0.03913776 0.03455746 0.07970024
0.041606914 0.032138787 0.029700074 -0.10916084 0.089414425 0.2552897 -0.12122532 -0.16581586
0.044705696 -0.09183359 0.23703076 -0.12741101 -0.0035094994 0.07585632 0.07801279 -0.059993587
-0.022629386 0.096311375 -0.031245543 0.11058014 -0.014772381 -0.14624736 0.03642759 -0.048950132
0.10303503 -0.13918668 0.011770034 0.033629414 0.10877425 -0.3592542 0.19576561 0.15005922
0.09001933 0.03190434 0.07806147 0.18491751 0.030393768 -0.012022237 -0.030620664 0.0040500606
-0.10819571 -0.0050591095 0.11438009 0.04282229 -0.20698214 0.0023416698 -0.046423763 -0.08127537
0.0002934064 0.04860873 -0.12134788 0.00711741 -0.0013908979 -0.13964216 -0.08181585 0.09497013
0.04337465 -0.08088068 -0.0072555086 -0.19209464 0.06950862 -0.020401333 -0.36515635 0.08203892
-0.08275346 -0.065201536 -0.075558566 0.020728432 -0.02174238 -0.010366167 0.05799876 -0.05166735
0.06259449 0.01813518 -0.035760164 -0.061153214 -0.08389594 0.03884361 0.061080243 0.07091056
-0.050750487 -0.010782856 -0.012761878 0.012512082 -0.07647328 -0.068501025 0.014387493 -0.06265099
-0.06955492 -0.08500105 -0.104757935 -0.049742773 -0.095859855 -0.061636176 0.05694645 0.05731819
-0.069063276 -0.0010076308 0.043865524 -0.05094912 -0.073588416 0.027805261 -0.042056624 0.039124086
0.049518455 -0.07207027 0.035932865 -0.004077576 -0.033305146 -0.06303679 -0.079014294 0.003616518
0.024598261 -0.007866823 -0.06925117 0.08415979 0.021743873 -0.0070153777 -0.029353924 -0.082625605
-0.008770437 -0.028915428 -0.0018757186 0.056232594 -0.033528194 0.061381422 -0.016861988 0.0237838
0.056467805 -0.071575925 0.06037432 -0.05242046 0.019993218 -0.08836257 0.0030300429 -0.03345337
0.06748627 -0.08871375 -0.052716684 -0.068773985 -0.05050217 -0.009994724 -0.06444655 -0.07018159
0.038504247 0.048006475 -0.04449429 -0.025916109 -0.029608434 0.07020372 0.05023797 -0.07552307
0.018341675 -0.08374638 -0.09290193 0.03696298 -0.0068659107 -0.08335287 -0.104735956 -0.07495798
0.025995437 -0.0013607889 0.07679528 -0.069348834 -0.0637755 -0.034401484 -0.07210347 -0.04997617
-0.041577138 0.057040367 -0.07469859 0.069355324 -0.0148694385 -0.023495367 -0.018990982 -0.06931412
0.03822589 0.068106994 -0.08650532 -0.0029939085 0.048874136 0.014949512 -0.055843808 -0.020189222
-0.040037725 -0.086411886 -0.06825577 -0.07167082 0.008075231 0.05475718 0.0020803444 -0.068548135
00000000: 191d c13d b16c 00be 8331 6bbe a275 203d
00000010: cba6 003e 1279 97bd 2e3f 79bd ac37 e1bd
00000020: ad1b 243e 0454 92be 4647 103e a36e ec3d
00000030: 8ef3 993d f964 75be e66e 73bc 4854 3bbd
00000040: 719a b3bc 0c06 563c c00e 71bc bd57 bdbd
00000050: dd35 5cbd 4ed6 593e 2dbc 87bd 2372 553d
00000060: ae36 333b 9c76 0e3e 736f f8bd 77ab f53d
00000070: 5491 d83d bc4f a73d c4a1 19bd f4e7 43bd
00000080: c269 b43d cb46 07bc 0388 623d 13b0 32bd
00000090: 847e 833c 963f 77bc 0d9c 7b3d 1074 1f3d
000000a0: 9f4a 2bbd 9c20 edbb 6aa6 02bd c436 61bd
000000b0: 8fdc a9bc 267e 993d eb2c a0bd a640 793c
000000c0: a378 05be fa2a 51bc 40ff 44be 5e8b 86be
000000d0: 0a99 953d 3a98 ce3d e6e7 d2bd 1bb6 073e
000000e0: 1205 cd3e 0d48 923d a384 6ebc 7947 56ba
000000f0: b3ec 45bb ea4e 20bd 208c 0d3d e139 a33d
00000100: 036c 2a3d f6a3 033d 924d f33c b88f dfbd
00000110: e91e b73d 55b5 823e fb44 f8bd a2cb 29be
00000120: 521d 373d 4013 bcbd 31b8 723e 0878 02be
00000130: a1ff 65bb 8f5a 9b3d 2bc5 9f3d d6bb 75bd
00000140: 4361 b9bc e63e c53d a7f6 ffbc d777 e23d
00000150: db07 72bc dec1 15be 1935 153d ef7f 48bd
00000160: 0804 d33d f486 0ebe 1ad7 403c ffbe 093d
00000170: 09c5 de3d 2bf0 b7be c876 483e 20a9 193e
00000180: 0e5c b83d 20ae 023d b1de 9f3d 045b 3d3e
00000190: 5afc f83c ebf8 44bc 30d8 fabc 5fb6 843b
000001a0: b695 ddbd e3c6 a5bb 1c40 ea3d 6d66 2f3d
000001b0: 20f3 53be b376 193b d826 3ebd b473 a6bd
000001c0: 57d4 9939 f319 473d 3d85 f8bd 2a39 e93b
000001d0: ca4e b6ba 5bfe 0ebe 128f a7bd b37f c23d
000001e0: 9ea9 313d c5a4 a5bd 9ebf edbb 75b4 44be
000001f0: 895a 8e3d b220 a7bc c6f5 babe 0504 a83d
00000200: a57a a9bd 6288 85bd 73be 9abd acce a93c
00000210: 131d b2bc dbd6 29bc 1c90 6d3d 25a1 53bd
00000220: 8a31 803d 3b90 943c 4079 12bd cb7b 7abd
00000230: a2d1 abbd 7a1a 1f3d 472f 7a3d 8e39 913d
00000240: bedf 4fbd 93aa 30bc 3217 51bc 7aff 4c3c
00000250: 069e 9cbd 444a 8cbd 85b9 6b3c 2a4f 80bd
00000260: cf72 8ebd 0815 aebd 548b d6bd 14bf 4bbd
00000270: 2c52 c4bd 3776 7cbd ae40 693d 7ac6 6a3d
00000280: 0c71 8dbd 7b12 84ba 56ac 333d 06b0 50bd
00000290: 86b5 96bd dcc7 e33c 9143 2cbd 9440 203d
000002a0: ddd3 4a3d 9499 93bd 572e 133d 309d 85bb
000002b0: fa6a 08bd 6f19 81bd 3fd2 a1bd 1b03 6d3b
000002c0: 4b82 c93c d9e3 00bc 8fd3 8dbd f85b ac3d
000002d0: 3520 b23c 41e1 e5bb a477 f0bc 9d37 a9bd
000002e0: e1b1 0fbc 0ce0 ecbc acda f5ba 2654 663d
000002f0: dc54 09bd 166b 7b3d 2722 8abc 3ed6 c23c
00000300: c94a 673d 6696 92bd 104b 773d d6b6 56bd
00000310: d1c8 a33c 6ff7 b4bd af93 463b 6706 09bd
00000320: 3e36 8a3d 8eaf b5bd 73ed 57bd 60d9 8cbd
00000330: 5ddb 4ebd e9c0 23bc 8efc 83bd 5ebb 8fbd
00000340: a1b6 1d3d 70a2 443d a53f 36bd 054e d4bc
00000350: 638d f2bc f8c6 8f3d 54c6 4d3d d7ab 9abd
00000360: 4841 963c 3983 abbd 5e43 bebd 7e66 173d
00000370: 6ffb e0bb e9b4 aabd ce7f d6bd 9283 99bd
00000380: 62f4 d43c 805c b2ba d846 9d3d c306 8ebd
00000390: bb9c 82bd 92e8 0cbd fcaa 93bd d0b3 4cbd
000003a0: ca4c 2abd 29a3 693d 93fb 98bd 2a0a 8e3d
000003b0: f29e 73bc 5b79 c0bc fa92 9bbc 90f4 8dbd
000003c0: c092 1c3d ae7b 8b3d b429 b1bd 7335 44bb
000003d0: 3f30 483d ccee 743c 7abc 64bd de63 a5bc
000003e0: 99fe 23bd b7f8 b0bd aec9 8bbd 27c8 92bd
000003f0: f94d 043c 1149 603d 6356 083b f762 8cbd

bias f4 [128]
0.017108496 -0.13480589 -0.11471322 0.05256467 0.030900417 -0.08770515 -0.010877348 -0.0755991
0.156573 -0.10596795 -0.1002109 -0.021444647 -0.1191095 -0.006445011 -0.18123527 0.0658552
0.07481423 -0.024345383 -0.11770601 0.0085791685 -0.14389442 -0.16851857 -0.038552415 -0.10119107
-0.039528012 0.0069362773 -0.18322268 0.057685625 -0.12827845 -0.085103504 -0.068206884 -0.0772148
-0.0993165 -0.078986 -0.07946875 -0.04442866 0.0154302465 -0.04656356 0.08732244 0.012354834
0.1904203 0.024529718 -0.056895476 0.011836001 -0.043742143 -0.20608923 -0.009894208 -0.04182475
-0.09799883 -0.111315645 -0.08312436 -0.0395363 -0.07832524 -0.078633174 0.029307693 -0.12283682
-0.046554245 0.044125404 -0.122991465 -0.011134224 0.01646791 0.066849895 0.017172744 -0.19152434
-0.17333974 -0.015701786 -0.17747803 -0.08197772 -0.07957028 -0.09563566 -0.06496112 -0.10806439
0.04200954 -0.025841001 -0.10574926 -0.14862965 -0.044271484 0.030550925 0.067650065 0.029424466
-0.044846486 -0.07462694 -0.137939 -0.015160981 -0.02863714 0.022389255 -0.14421955 -0.0014315882
0.05298321 -0.11665378 0.120500505 -0.109782994 -0.06979354 -0.0638959 -0.07631986 -0.09685677
-0.11765904 -0.030255131 -0.052987017 0.038980022 -0.1191829 0.15168981 0.020260183 -0.113468006
-0.15153009 0.01810032 -0.05531594 -0.06696082 0.03355961 -0.1239346 0.078743435 0.04873109
0.064230055 -0.101656646 -0.097818166 -0.07319585 -0.08207936 -0.07462132 -0.02117003 -0.12236799
-0.01907387 -0.00074571295 -0.10201715 -0.17452538 -0.07490261 0.095029786 -0.13048859 -0.06411142
00000000: 1e27 8c3c 8e0a 0abe c4ee eabd 0d4e 573d
00000010: df22 fd3c c29e b3bd e736 32bc b3d3 9abd
00000020: ac54 203e b905 d9bd 5f3b cdbd afac afbc
00000030: aeef f3bd ac30 d3bb bd95 39be 17df 863d
00000040: 3438 993d f86f c7bc d90f f1bd a48f 0c3c
00000050: 0f59 13be 2290 2cbe 23e9 1dbd 443d cfbd
00000060: 20e8 21bd b649 e33b ba9e 3bbe c347 6c3d
00000070: 6d5b 03be bf4a aebd 0db0 8bbd cb22 9ebd
00000080: 7366 cbbd 69c3 a1bd 83c0 a2bd d4fa 35bd
00000090: 25cf 7c3c 6eb9 3ebd 1cd6 b23d ee6b 4a3c
000000a0: 8afd 423e 8cf2 c83c 3b0b 69bd c9eb 413c
000000b0: f62a 33bd 0e09 53be 511b 22bc 6e50 2bbd
000000c0: 9cb3 c8bd 75f9 e3bd 1b3d aabd d1f0 21bd
000000d0: fc68 a0bd 6e0a a1bd b016 f03c df91 fbbd
000000e0: aaaf 3ebd d7bc 343d f3e2 fbbd 526c 36bc
000000f0: b6e7 863c 99e8 883d dbad 8c3c f51e 44be
00000100: f97f 31be 08a1 80bc cdbc 35be efe3 a7bd
00000110: bef5 a2bd a1dc c3bd 560a 85bd dd50 ddbd
00000120: 3212 2c3d 82b0 d3bc 1193 d8bd 5f32 18be
00000130: 0456 35bd ef45 fa3c 1e8c 8a3d 940b f13c
00000140: f3b0 37bd 02d6 98bd e23f 0dbe c365 78bc
00000150: 6f98 eabc ac69 b73c 4aae 13be 21a4 bbba
00000160: ec04 593d 2de8 eebd f8c8 f63d e8d5 e0bd
00000170: eaef 8ebd dbdb 82bd 964d 9cbd d85c c6bd
00000180: 39f7 f0bd 9cd9 f7bc ea08 59bd 84a9 1f3d
00000190: 2a16 f4bd 9354 1b3e aff8 a53c ea61 e8bd
000001a0: b42a 1bbe 1f47 943c f892 62bd c122 89bd
000001b0: cd75 093d 6cd1 fdbd 3d44 a13d 409a 473d
000001c0: 0c8b 833d 5c31 d0bd e454 c8bd b5e7 95bd
000001d0: 3919 a8bd 10d3 98bd c56c adbc 129c fabd
000001e0: ce40 9cbc f37b 43ba 5eee d0bd c8b6 32be
000001f0: 8a66 99bd fa9e c23d cd9e 05be d94c 83bd

weight f4 [128, 128]
0.03515552 -0.041554593 -0.12014888 -0.07400741 0.008456799 -0.20537335 -0.032699294 -0.06360695
-0.09113151 -0.06815751 -0.09752214 0.029324107 -0.16046491 -0.0679551 0.024382195 -0.04955077
-0.06726358 -0.06740256 0.034684572 0.034997687 -0.06173523 0.014359458 -0.108614415 0.08160079
-0.03789179 -0.02147442 -0.016819555 -0.026390623 0.017397068 -0.08499327 -0.046764772 -0.12238829
-0.08818136 -0.066308744 -0.11132532 -0.066730246 0.047470387 -0.017818315 0.056798737 -0.0022904417
-0.09456583 0.067182675 -0.046263322 -0.020675901 -0.07926233 -0.0026096336 0.048173364 -0.01100567
-0.11715105 -0.17710038 0.094430454 -0.01367532 -0.0517612 -0.10693309 -0.04817746 0.004624887
0.019214846 -0.06539355 -0.058601793 0.021273058 -0.04143848 -0.13189235 0.05523235 0.03793403
-0.04137788 0.009628679 -0.12944524 -0.061871935 -0.17135602 -0.08997949 -0.13776644 -0.050884116
-0.004926637 0.020366453 -0.107906796 0.04043706 -0.06602046 -0.06767067 -0.046573047 -0.0035198594
-0.09825327 -0.008726093 0.0691814 0.108383015 0.075660415 -0.14963762 0.059087243 -0.10312411
0.033108532 -0.1373726 -0.12929007 0.013283887 -0.08088152 -0.089297265 -0.069677934 -0.10702841
-0.17400666 -0.08358382 -0.05897013 -0.021855853 -0.0067029977 0.039912067 0.05640583 0.07785761
0.029407931 -0.02179348 -0.2012122 -0.016790304 -0.051896933 0.03249233 -0.0912332 0.03838198
-0.062367354 -0.052891016 -0.15687594 0.009029263 -0.12421266 0.00014631987 0.018080868 -0.025805958
-0.1620471 0.013313605 -0.03199815 -0.06690676 -0.08487151 -0.16544561 -0.08665154 -0.07524417
-0.0038568075 0.07566994 -0.08928448 -0.05833998 -0.081142746 -0.2375513 0.03612118 -0.2682049
0.041437324 -0.13695064 -0.12826002 -0.05416555 -0.15616748 0.08741959 0.0060063503 -0.04762898
-0.13170673 -0.011508441 -0.0048269774 -0.2569425 0.033085223 0.085741825 0.066303775 -0.017703075
0.23496392 0.051345576 -0.1789961 0.041053828 0.0010485428 -0.12849358 0.017345272 0.008672112
0.12138857 0.1051595 -0.013696339 0.041336223 -0.100594915 -0.033084985 -0.06347371 -0.15717068
-0.07452003 0.042593498 -0.006623417 0.024738802 -0.11409594 0.0004271491 -0.26587608 0.06471157
-0.058197208 -0.033524696 -0.19629149 -0.012172948 -0.17804219 0.048259217 -0.08644262 -0.0409889
-0.011912131 0.10206838 -0.012517448 -0.055495262 -0.055207755 -0.05386065 -0.015503108 0.0973069
-0.003979821 -0.18666965 -0.012032603 -0.033703152 0.028442314 0.12945507 0.045077253 0.07062545
-0.17683701 -0.0005681698 0.11835689 -0.007513209 0.06359092 -0.042349793 -0.17094924 0.024714978
0.12510678 -0.006650797 -0.054648515 0.020709023 -0.12675026 -0.11575327 -0.15928629 -0.001517034
0.051345333 0.059598666 -0.027563415 -0.013087442 0.0229419 -0.08141428 0.024537232 0.26282656
0.09240827 -0.02346666 0.0491387 0.012522169 -0.061388213 -0.1705968 0.08758821 -0.015684651
-0.0171544 -0.31876916 0.0071421443 -0.17348772 -0.027353315 0.06877771 -0.12728068 -0.26918805
-0.055934552 -0.026372114 0.22455166 0.17326115 0.06238309 0.14168777 -0.015887232 0.14650413
-0.041417237 0.2463266 -0.04876211 -0.35128143 -0.15850045 -0.0039574956 0.343442 -0.22504923
00000000: 3cff 0f3d 2635 2abd 9e10 f6bd 3291 97bd
00000010: 638e 0a3c 644d 52be b2ef 05bd 5c44 82bd
00000020: 28a3 babd 2a96 8bbd b0b9 c7bd 1c39 f03c
00000030: ea50 24be 0b2c 8bbd 2bbd c73c c0f5 4abd
00000040: 7dc1 89bd 5a0a 8abd 6911 0e3d bc59 0f3d
00000050: 15de 7cbd ef43 6b3c 3c71 debd 511e a73d
00000060: 6c34 1bbd 1feb afbc 2ac9 89bc 2631 d8bc
00000070: 4c84 8e3c f410 aebd 6b8c 3fbd b6a6 fabd
00000080: 6e98 b4bd e1cc 87bd 88fe e3bd dea9 88bd
00000090: 4f70 423d b7f7 91bc cba5 683d 3c1b 16bb
000000a0: bbab c1bd 1297 893d 9c7e 3dbd 8260 a9bc
000000b0: 4a54 a2bd 6306 2bbb 6f51 453d 2051 34bc
000000c0: e4ec efbd cd59 35be c164 c13d 730e 60bc
000000d0: 8d03 54bd bcff dabd ba55 45bd 5d8c 973b
000000e0: 7468 9d3c 0eed 85bd 6f08 70bd d644 ae3c
000000f0: 65bb 29bd ca0e 07be 513b 623d b760 1b3d
00000100: da7b 29bd 9bc1 1d3c 4b8d 04be 6d6d 7dbd
00000110: f477 2fbe 2b47 b8bd a512 0dbe dd6b 50bd
00000120: a06f a1bb 8cd7 a63c 3dfe dcbd 55a1 253d
00000130: bc35 87bd ec96 8abd 61c3 3ebd 71ad 66bb
00000140: 0339 c9bd e3f7 0ebc faae 8d3d eaf7 dd3d
00000150: d9f3 9a3d 9b3a 19be 7705 723d bc32 d3bd
00000160: d09c 073d 67ab 0cbe 9e64 04be a9a4 593c
00000170: 36a5 a5bd 7ce1 b6bd 4eb3 8ebd b631 dbbd
00000180: cd2e 32be fe2d abbd aa8a 71bd 0c0b b3bc
00000190: d2a4 dbbb d67a 233d cd09 673d d073 9f3d
000001a0: e7e8 f03c 3d88 b2bc 920a 4ebe d28b 89bc
000001b0: e191 54bd ad16 053d 79d8 babd 6c36 1d3d
000001c0: e974 7fbd 40a4 58bd 16a4 20be 79ef 133c
000001d0: 3563 febd 716d 1939 541e 943c 0467 d3bc
000001e0: adef 25be 4f21 5a3c 7e10 03bd 6906 89bd
000001f0: 1dd1 adbd 936a 29be 5d76 b1bd 9e19 9abd
00000200: 7ec2 7cbb d7f8 9a3d c8da b6bd e7f5 6ebd
00000210: 2b2e a6bd a640 73be cdf3 133d 2752 89be
00000220: 2fba 293d ca3c 0cbe 9856 03be b2dc 5dbd
00000230: 5eea 1fbe 0b09 b33d ebd0 c43b 9b16 43bd
00000240: 21de 06be e68d 3cbc 9f2b 9ebb f88d 83be
00000250: 5f84 073d 6999 af3d 46ca 873d 0a06 91bc
00000260: 629a 703e bd4f 523d c14a 37be 0f28 283d
00000270: 426f 893a d293 03be ac17 8e3c 7915 0e3c
00000280: 929a f83d dd5d d73d 9c66 60bc 2c50 293d
00000290: b504 cebd 1f84 07bd 81fe 81bd 5af1 20be
000002a0: f59d 98bd 8576 2e3d 4009 d9bb 07a9 ca3c
000002b0: 22ab e9bd fbf2 df39 e920 88be 8087 843d
000002c0: 3260 6ebd 3151 09bd a300 49be 0b71 47bc
000002d0: b150 36be 75ab 453d d408 b1bd fae3 27bd
000002e0: 192b 43bc 3a09 d13d fb15 4dbc 004f 63bd
000002f0: 8721 62bd fc9c 5cbd bf00 7ebc d748 c73d
00000300: 2969 82bb 5426 3fbe 6524 45bc 510c 0abd
00000310: dbff e83c df8f 043e eda2 383d 13a4 903d
00000320: c314 35be 3bf1 14ba 1965 f23d 5d31 f6bb
00000330: f53b 823d fa76 2dbd 510d 2fbe 1177 ca3c
00000340: fe1b 003e eeee d9bb 1fd7 5fbd f8a5 a93c
00000350: d2ca 01be 0d10 edbd f21b 23be 37d7 c6ba
00000360: 7c4f 523d bb1d 743d accc e1bc b66c 56bc
00000370: a7f0 bb3c 88bc a6bd 4e02 c93c 3491 863e
00000380: 8c40 bd3d 273d c0bc a945 493d c929 4d3c
00000390: 3572 7bbd edb0 2ebe 7361 b33d 197d 80bc
000003a0: 6287 8cbc b635 a3be a608 ea3b c4a6 31be
000003b0: 0f14 e0bc 54db 8c3d de55 02be 04d3 89be
000003c0: a11b 65bd 550a d8bc dff0 653e 5f6b 313e
000003d0: 6985 7f3d 9916 113e f125 82bc 2e05 163e
000003e0: 1fa5 29bd 0a3d 7c3e c7ba 47bd 29db b3be
000003f0: f14d 22be e1ad 81bb a1d7 af3e 4e73 66be

bias f4 [128]
-0.030304762 -0.12888841 -0.03293191 -0.10628725 -0.089122675 0.084719814 -0.07754373 0.055696707
0.06072231 0.03982008 -0.057835322 -0.061725266 -0.018769333 -0.098773964 0.024700291 -0.02973467
0.018501813 -0.070256785 0.08451389 -0.09167724 0.00040678284 -0.038434677 -0.09652435 0.01032514
-0.0830543 -0.026510553 -0.04992857 -0.11760304 0.066206984 -0.021797307 -0.15329136 -0.06487612
-0.042311277 0.097910896 -0.055446714 -0.10048559 0.04967147 -0.0531362 -0.10855983 -0.122697435
-0.07254178 -0.13271675 -0.109531514 -0.07104243 -0.011124518 -0.06832464 -0.07045193 0.004162263
-0.049677383 -0.08767376 -0.10743884 -0.14200865 -0.039483298 -0.050899107 -0.03769898 -0.07261924
-0.098402284 -0.05368861 -0.054381456 0.019877909 -0.108697355 -0.06609929 -0.20431298 -0.031798143
-0.096495576 0.033399217 -0.12541556 -0.011596355 -0.08724356 -0.03635801 -0.10345321 -0.011541423
-0.119309 -0.009239193 -0.08105476 -0.08745092 0.1293169 -0.010203856 -0.056714065 -0.09145419
-0.1215754 -0.06448126 -0.03304749 0.0027178633 -0.08763239 -0.08712508 0.07044661 -0.08900143
0.052694663 -0.06258585 -0.10350987 0.13558249 -0.10406417 -0.1535669 -0.09672856 0.014794587
-0.11757565 -0.09687171 0.06323892 -0.21666326 -0.11454935 -0.0006577396 -0.12481735 -0.06671713
-0.09586972 -0.027984394 0.13666132 -0.10371915 -0.04425754 -0.05057888 0.0018981727 -0.0017652535
-0.0679125 0.021018017 -0.033761207 -0.07341388 0.10092126 -0.08273597 0.08593247 -0.08721983
-0.102490276 -0.12893611 -0.0059334408 -0.14005141 -0.11533851 -0.0564833 -0.011835577 -0.06876945
00000000: b141 f8bc 53fb 03be 9ce3 06bd 21ad d9bd
00000010: f385 b6bd 9581 ad3d 3fcf 9ebd 3b22 643d
00000020: f5b7 783d 611a 233d bbe4 6cbd a2d3 7cbd
00000030: 25c2 99bc 014a cabd 4458 ca3c 1f96 f3bc
00000040: 1d91 973c cae2 8fbd 9e15 ad3d 47c1 bbbd
00000050: 7845 d539 ae6d 1dbd 8fae c5bd c72a 293c
00000060: 5f18 aabd a92c d9bc e681 4cbd ddd9 f0bd
00000070: 8797 873d 4490 b2bc 69f8 1cbe c5dd 84bd
00000080: 974e 2dbd 8285 c83d 181c 63bd 64cb cdbd
00000090: 5074 4b3d 58a5 59bd 9e54 debd cb48 fbbd
000000a0: c990 94bd e6e6 07be 0f52 e0bd b27e 91bd
000000b0: 9c43 36bc caed 8bbd 1a49 90bd 9863 883b
000000c0: 837a 4bbd 4d8e b3bd e508 dcbd b76a 11be
000000d0: 3db9 21bd 957b 50bd 3f6a 1abd 65b9 94bd
000000e0: 2387 c9bd 97e8 5bbd 17bf 5ebd ffd6 a23c
000000f0: b89c debd 115f 87bd 6c37 51be c53e 02bd
00000100: 799f c5bd 9ecd 083d f06c 00be a3fe 3dbc
00000110: c0ac b2bd 23ec 14bd 47df d3bd 3d18 3dbc
00000120: 4758 f4bd fc5f 17bc 0a00 a6bd 7819 b3bd
00000130: a66b 043e 132e 27bc 024d 68bd 564c bbbd
00000140: 86fc f8bd c00e 84bd ce5c 07bd 2e1e 323b
00000150: 9c78 b3bd a26e b2bd 5046 903d 6246 b6bd
00000160: 5cd6 573d 032d 80bd fcfc d3bd 23d6 0a3e
00000170: 981f d5bd a440 1dbe a019 c6bd ff64 723c
00000180: 81cb f0bd ad64 c6bd 6883 813d f9dc 5dbe
00000190: da98 eabd 286c 2cba 3da0 ffbd fea2 88bd
000001a0: 5857 c4bd 873f e5bc f2f0 0b3e b56a d4bd
000001b0: 6547 35bd cd2b 4fbd 1bcc f83a 1460 e7ba
000001c0: b515 8bbd fa2d ac3c 3149 0abd 045a 96bd
000001d0: ceaf ce3d 7a71 a9bd 5dfd af3d 4fa0 b2bd
000001e0: 6ce6 d1bd d407 04be 4f6d c2bb a369 0fbe
000001f0: 9936 ecbd 085b 67bd 02ea 41bc ffd6 8cbd

weight f4 [128, 128]
0.064588055 -0.091436304 -0.008473758 -0.051413305 -0.024638584 -0.0937206 0.04965688 -0.09856193
-0.07317696 -0.0013545563 -0.055313386 -0.022807965 0.014779259 -0.1834437 -0.03189577 0.08102722
-0.09602681 0.06699366 -0.09519512 -0.010557106 0.01894845 0.009947759 -0.056930453 0.03866055
-0.015100584 -0.10689682 -0.09041661 0.043159828 -0.044068597 -0.08137754 0.07154808 0.08223531
-0.06088274 0.077697605 -0.044883728 0.08568894 -0.059362642 -0.0015004566 -0.048377186 0.016043682
-0.0046158144 0.08188139 -0.07569149 0.052430484 -0.14447704 -0.049416207 -0.070390396 -0.11371723
-0.012657876 0.055675246 0.024395619 -0.15641375 -0.0667092 -0.07706627 0.08190069 -0.009028035
-0.06755122 0.042664275 0.009181819 0.01828172 0.060560964 0.024378529 -0.08549563 0.085786484
0.035930328 -0.16136855 0.03633629 0.03994313 0.011625845 -0.106597304 -0.08209756 0.030353699
0.04167468 -0.051226676 -0.075918846 -0.06595768 -0.101576336 -0.033142827 -0.06416573 -0.09910142
-0.014739206 -0.118933775 -0.0030644655 -0.020356243 -0.040792312 0.093559556 0.04754512 0.0002725565
-0.04380085 0.07203518 -0.0472336 -0.06317871 -0.016199881 -0.006034825 -0.0030910692 0.030660026
-0.041673284 -0.025396569 -0.08868568 -0.0046483455 -0.012865845 0.12894213 -0.083563104 0.047644608
0.016978875 -0.10048488 -0.14272264 0.06171249 0.028104212 0.057080083 -0.070316195 -0.06606396
0.042863186 0.06152705 0.07035568 -0.060251642 -0.17342453 -0.13806431 -0.054910246 -0.07230325
0.06954461 0.06657149 0.022934115 0.025825404 0.009485603 0.06258388 -0.016366683 -0.094609775
0.026740704 0.0104562305 -0.017713081 0.047711316 -0.046422023 -0.1585802 0.027897015 -0.10247218
-0.021070387 0.019177647 -0.07429919 -0.052591063 -0.050218884 0.098846786 -0.06299649 0.07614369
-0.13058373 -0.062364124 -0.09768258 -0.042016923 -0.017227925 -0.061967716 0.04099356 0.012400677
-0.06612713 -0.0016186081 -0.03873433 0.062173028 -0.13323 0.03265282 0.007086615 -0.002379275
-0.04631984 -0.13265689 0.035521634 0.038279273 0.026222596 0.03590115 0.061183758 -0.18569471
0.0062106 -0.037288792 -0.006404059 0.050087463 -0.069429725 0.05190809 -0.015026037 -0.052734204
0.043087754 -0.034585666 -0.08037275 -0.06203512 -0.013436642 -0.09710292 0.036789626 0.10874629
-0.01908024 -0.06105269 0.01707844 -0.0013385803 -0.038983885 0.016474817 0.055427916 0.01409156
0.076504126 0.020512693 -0.0204948 -0.0003719247 0.1165482 -0.17643477 -0.07970153 0.078410074
0.07768329 -0.042763606 0.018581402 0.05226032 0.026834195 -0.051476527 0.05871728 -0.081695266
-0.0034508647 -0.0476783 0.0314597 -0.10504783 -0.05115713 0.07901492 0.029693792 -0.03222458
0.003246211 -0.013692938 0.080071226 -0.15608647 -0.015678583 -0.025302585 -0.038129922 0.051259752
0.06155016 -0.053244833 0.0026523436 -0.0118633425 -0.0010130311 0.025014812 0.0468351 -0.08498622
0.08949004 -0.0022431067 -0.015517647 0.02385389 -0.01154468 0.18363063 -0.12375598 -0.07967825
0.043340527 -0.0005954245 -0.17087924 0.03938433 -0.044069864 -0.1630305 -0.03442836 0.04161489
-0.09172196 -0.105815694 -0.106013365 -0.039061137 0.072514154 -0.103826284 0.031880293 0.021131722
00000000: be46 843d f542 bbbd 84d5 0abc c296 52bd
00000010: dbd6 c9bc 96f0 bfbd 0365 4b3d d6da c9bd
00000020: cddd 95bd 5e8b b1ba 4a90 62bd c5d7 babc
00000030: b524 723c aad8 3bbe 24a5 02bd 99f1 a53d
00000040: b4a9 c4bd f933 893d a9f5 c2bd b6f7 2cbc
00000050: c839 9b3c edfb 223c e82f 69bd 865a 1e3d
00000060: 7168 77bc b8ec dabd 582c b9bd 5cc8 303d
00000070: 4681 34bd 45a9 a6bd cd87 923d fc6a a83d
00000080: 2e60 79bd ec1f 9f3d 00d8 37bd af7d af3d
00000090: 3e26 73bd f8aa c4ba 2827 46bd 0a6e 833c
000000a0: 4240 97bb 6eb1 a73d 2404 9bbd 59c1 563d
000000b0: caf1 13be a668 4abd d728 90bd 94e4 e8bd
000000c0: fb62 4fbc ba0b 643d 52d9 c73c ed2a 20be
000000d0: d59e 88bd ecd4 9dbd 8dbb a73d 53ea 13bc
000000e0: 4b58 8abd bcc0 2e3d 576f 163c 8cc3 953c
000000f0: c60e 783d 7bb5 c73c 5518 afbd d3b0 af3d
00000100: ae2b 133d cc3d 25be 5dd5 143d 689b 233d
00000110: 547a 3e3c b04f dabd c422 a8bd 52a8 f83c
00000120: 12b3 2a3d 10d3 51bd 577b 9bbd d214 87bd
00000130: 4107 d0bd c6c0 07bd 5269 83bd aff5 cabd
00000140: b67c 71bc 8d93 f3bd 33d5 48bb 23c2 a6bc
00000150: d715 27bd 279c bf3d acbe 423d eae5 8e39
00000160: 8568 33bd 2e87 933d 0578 41bd d763 81bd
00000170: 9db5 84bc c8bf c5bb 8993 4abb bc2a fb3c
00000180: 9bb1 2abd 770c d0bc d6a0 b5bd 2651 98bb
00000190: 44cb 52bc 6809 043e 2223 abbd fe26 433d
000001a0: 4817 8b3c 04cb cdbd e225 12be 3cc6 7c3d
000001b0: ce3a e63c cecc 693d f001 90bd 8b4c 87bd
000001c0: 4f91 2f3d ca03 7c3d a416 903d 6dca 76bd
000001d0: 3396 31be bb60 0dbe 91e9 60bd ba13 94bd
000001e0: 686d 8e3d a256 883d 53e0 bb3c cc8f d33c
000001f0: 8169 1b3c fa2b 803d 6c13 86bc c5c2 c1bd
00000200: 520f db3c 9c50 2b3c 061b 91bc f16c 433d
00000210: 0525 3ebd d962 22be 4888 e43c efdc d1bd
00000220: ce9b acbc 711a 9d3c 2c2a 98bd ba69 57bd
00000230: 51b2 4dbd 2f70 ca3d 4e04 81bd 39f1 9b3d
00000240: beb7 05be 8671 7fbd ce0d c8bd f019 2cbd
00000250: 9421 8dbc dcd1 7dbd dde8 273d 362c 4b3c
00000260: a96d 87bd 7a27 d4ba e4a7 1ebd 25a9 7e3d
00000270: 726d 08be f7be 053d d636 e83b 9ced 1bbb
00000280: dfb9 3dbd 35d7 07be 227f 113d baca 1c3d
00000290: c5d0 d63c 160d 133d d29b 7a3d c126 3ebe
000002a0: 4a82 cb3b 22bc 18bd 24d9 d1bb 8328 4d3d
000002b0: 2c31 8ebd 949d 543d c42f 76bc d2ff 57bd
000002c0: c97c 303d b3a9 0dbd 789a a4bd 8a18 7ebd
000002d0: 5c25 5cbc e5dd c6bd b8b0 163d 60b6 de3d
000002e0: 2a4e 9cbc 6312 7abd 16e8 8b3c 4d73 afba
000002f0: 91ad 1fbd 32f6 863c 6208 633d 49e0 663c
00000300: 32ae 9c3d 3c0a a83c b6e4 a7bc e3fe c2b9
00000310: d3b0 ee3d 51ab 34be 8e3a a3bd 7695 a03d
00000320: 6b18 9f3d e428 2fbd 0638 983c eb0e 563d
00000330: 63d3 db3c 0dd9 52bd 8881 703d d94f a7bd
00000340: e727 62bb 524a 43bd e3db 003d 5123 d7bd
00000350: 248a 51bd 93d2 a13d 6540 f33c ecfd 03bd
00000360: 62be 543b 5858 60bc 62fc a33d 22d5 1fbe
00000370: 5f70 80bc 5e47 cfbc 1f2e 1cbd bff5 513d
00000380: 051c 7c3d 4117 5abd f1d2 2d3b 775e 42bc
00000390: afc7 84ba ddeb cc3c 29d6 3f3d 410d aebd
000003a0: 8e46 b73d 1601 13bb bb3d 7ebc 3c69 c33c
000003b0: e625 3dbc ab09 3c3e c673 fdbd 5a2e a3bd
000003c0: d685 313d 4316 1cba f8fa 2ebe 7751 213d
000003d0: 9a82 34bd 78f1 26be c104 0dbd 6074 2a3d
000003e0: b9d8 bbbd e6b5 d8bd 891d d9bd 92fe 1fbd
000003f0: 4d82 943d e0a2 d4bd e994 023d 6f1c ad3c

bias f4 [128]
-0.021230461 -0.08077812 -0.052422974 -0.011300678 -0.13879143 -0.045454256 -0.013198795 -0.10403183
-0.09223204 -0.051810257 -0.080747396 -0.099141724 -0.060312804 -0.07569637 -0.104374 -0.05218378
-0.055884264 -0.115427844 0.09630299 -0.06468616 -0.02902452 0.0060876617 -0.1394772 -0.029688302
-0.071765855 -0.07843521 -0.116861686 0.0049663684 -0.14322568 -0.08489982 -0.096056566 -0.12602946
-0.033776347 0.03117594 -0.04978943 -0.01851922 -0.009837613 -0.12131547 -0.04128089 0.02333086
-0.020116072 -0.059548814 -0.08184123 -0.064222984 -0.013242437 0.08176303 0.012925466 0.040680505
-0.10057349 0.11975812 -0.075745605 -0.0045391666 -0.04220262 0.0032977338 -0.06993693 -0.040583324
-0.011500699 -0.025174096 -0.0069369753 -0.031470437 -0.011598338 -0.07738318 -0.04650364 -0.055322226
-0.055704534 0.05057332 -0.05171175 -0.1353087 -0.014863756 -0.061867185 -0.033034824 -0.07120961
-0.004794782 -0.042156532 -0.09775965 -0.0057501155 0.07349211 -0.04590444 -0.067294285 -0.091856025
-0.012305427 -0.124028295 -0.09952565 -0.12560876 -0.09562563 -0.1279592 -0.0790762 2.718284e-05
0.016226357 0.008489376 0.05908151 -0.068566814 -0.037691917 0.08589366 -0.042976063 -0.13233472
-0.059103042 -0.07313817 -0.034303118 -0.080496415 -0.010729275 -0.088203356 -0.043872476 -0.013289564
-0.029047508 -0.1432599 0.006845657 -0.043262456 -0.051360115 -0.03501068 -0.14768201 -0.08626054
-0.042350307 -0.14427477 -0.13431005 -0.033217404 0.021147408 -0.082020335 -0.10197529 -0.091424346
-0.07881626 -0.08549085 -0.029367702 -0.006355969 -0.008233317 -0.043669447 -0.14813033 -0.08416918
00000000: 81eb adbc 006f a5bd 79b9 56bd 7b26 39bc
00000010: 571f 0ebe 3e2e 3abd c23f 58bc a40e d5bd
00000020: 27e4 bcbd fe36 54bd e45e a5bd d10a cbbd
00000030: 8f0a 77bd b306 9bbd 09c2 d5bd a9be 55bd
00000040: e6e6 64bd 6f65 ecbd 813a c53d 2d7a 84bd
00000050: d5c4 edbc 027b c73b 1cd3 0ebe e234 f3bc
00000060: faf9 92bd a4a2 a0bd 2e55 efbd ebbc a23b
00000070: c1a9 12be f5df adbd 4eb9 c4bd de0d 01be
00000080: 1159 0abd af64 ff3c 00f0 4bbd 9fb5 97bc
00000090: f12d 21bc 3f74 f8bd 2716 29bd 5c20 bf3c
000000a0: 76ca a4bc 75e9 73bd 609c a7bd 5787 83bd
000000b0: cef6 58bc 6073 a73d 55c5 533c 9aa0 263d
000000c0: 79f9 cdbd bf43 f53d 8320 9bbd 4abd 94bb
000000d0: a8dc 2cbd cb1e 583b 183b 8fbd b33a 26bd
000000e0: 6e6d 3cbc e839 cebc 914f e3bb 25e7 00bd
000000f0: f506 3ebc 137b 9ebd 9a7a 3ebd 8f99 62bd
00000100: 702a 64bd f825 4f3d b3cf 53bd 5d8e 0abe
00000110: 1c87 73bc 7268 7dbd 864f 07bd 58d6 91bd
00000120: 8c1d 9dbb 54ac 2cbd 3636 c8bd 776b bcbb
00000130: 0883 963d 4b06 3cbd 96d1 89bd 031f bcbd
00000140: b49c 49bc 8c02 febd 1bd4 cbbd 959f 00be
00000150: 5fd7 c3bd bd07 03be b4f2 a1bd b406 e437
00000160: 23ed 843c 0617 0b3c 74ff 713d c26c 8cbd
00000170: d762 1abd 04e9 af3d ab07 30bd c182 07be
00000180: 0816 72bd 77c9 95bd 6d81 0cbd 4edb a4bd
00000190: d7c9 2fbc f6a3 b4bd a0b3 33bd 79bc 59bc
000001a0: 0af5 edbc b9b2 12be 8851 e03b f933 31bd
000001b0: fc5e 52bd 5c67 0fbd f439 17be 5ea9 b0bd
000001c0: 8477 2dbd c4bc 13be 9388 09be f90e 08bd
000001d0: 543d ad3c 47fa a7bd 6cd8 d0bd b03c bbbd
000001e0: 6b6a a1bd d415 afbd 8994 f0bc bb45 d0bb
000001f0: 09e5 06bc bcde 32bd 7aaf 17be e460 acbd
