nerf_models/fox8.pth (torch, 646022 bytes, 22 tensors)

weight f4 [128, 63]
00000000: 0206 b9bd 3b71 de3d 0894 2b3d 4266 063e
00000010: 8760 bcbd fcff 73be dd1e a7bd 2746 793c
00000020: 0403 d33d 3b0a 4cbd 19eb 94be fbdf ba3d
00000030: 3d94 c53d 2687 20be d164 2ebc 1e5f d2bd
00000040: 88f8 3abe c5c5 943d 8f4e 96bd 1c03 5a3d
00000050: 0618 963e 668a 6dbe 1e79 1d3e afdd 3e3e
00000060: 347f 5ebc c62d 1f3e fd8a 38bd 6f59 703d
00000070: 80c7 433e 12f3 68bd 4e49 7abe 576c 9b3d
00000080: 0909 b73d 3ff2 0c3e c999 0fbd 1912 a9bd
00000090: 8233 4abd fe2f bfbc 09c4 87bd e875 803e
000000a0: fe39 bbbe a132 49bd 5abf 553e 824b 733e
000000b0: 750d 49be c9e3 42be 76c1 27be d853 a4be
000000c0: 0c3a 4c3c c467 023f 15ba b13d e495 273c
000000d0: b951 8a3e f259 9cbe cff2 013f 3f78 ea3d
000000e0: ec4f 083e 97d1 14bd 7971 f7be feb0 b73c
000000f0: 0e6b de3c 5e4d 8f3d d443 43be f532 96bd
00000100: c7c3 29bd 24be c93d a0f2 c83d 9cb3 553e
00000110: 26ce 183e 0341 d33d 72b6 f2bd 1c18 03bd
00000120: 6c6d 0a3c 56a6 2dbe cbb3 413e adfd 9bbd
00000130: c1c2 e9bc 264c 423e 4b5f e03d 47de 9bbd
00000140: 7efa 5fbe e8f9 c6bc d2b2 8a3d a9af 323d
00000150: cade 02be df1b b63d db14 8dbd e791 5a3d
00000160: 51fd 8abd 3ba3 3dbe 9ad6 873e 0fa9 333d
00000170: d01b c3bd 5b63 f3bd e2b0 bb3d 45e6 cbbd
00000180: d52b 853e 9a65 0d3c 160a 58be 0b01 f73d
00000190: bf36 c33c b68e 93bd 29d7 80be dc9a dabe
000001a0: a47a 03be e19d 18be 69cf 51bd 71f7 86be
000001b0: d943 36be 20f3 363e cf36 7a3e f865 bfbd
000001c0: 78e1 9b3d 70a8 41be 1071 babe 43ab f13c
000001d0: 80d8 053e a3ee ec3d 183d 3dbd 86db 04be
000001e0: 4f8e e6be ce49 15bd f441 043e 0946 11bd
000001f0: 9d0f 6abe dd1e 88be 3d96 0f3d 9532 abbc
00000200: 7720 59bd aa42 83bd ff9a e93d 90cb 253e
00000210: 0633 273e 105a 16be 427b a43e 71c9 233e
00000220: a334 a23d cfce 823b 46d4 6abe 9024 473e
00000230: bdca ffbd e692 0b3e 9747 183d 0b2d dbbd
00000240: 93ca 143e 85f1 833e ddf2 4cbd 921f 5dbc
00000250: e33d 47be 31fb 1c3c 011f 13be 47ae 49bd
00000260: 7ac6 a63d b2c9 34be 0422 193d d81a d63d
00000270: 898c 1a3e c2f6 823d 7c2e 29be 1ee8 00be
00000280: d536 87bb 6b1a 36be 155e 613d 7136 05be
00000290: c54f bb3d 077d 2fbc d0a4 e33d 6292 eabb
000002a0: 2702 41bb fd15 e53d 9187 093c 92ec 66bd
000002b0: 99cf 2abb d83d 613e 3c1f cb3c 4d5c a43d
000002c0: d935 80be f984 0dbe 3526 a83e f300 b63d
000002d0: 860b 143f 6b3a 96bd ca3e 10be 0085 d23e
000002e0: 5c81 a03e 8132 16be 6093 103e 3633 2abe
000002f0: 0a68 37bd b29f 89bc af51 f0bc 65da e53a
00000300: 5b82 76bd 6e2f eabd 9eba d5bd f7e9 57bd
00000310: 17a7 dfbd 8a90 823e 70e8 a93d a1dd e43d
00000320: 2b0c 553d ee1b 0cbe c81c 153e 9d7e 713e
00000330: 09d6 133d 4a10 003e aba3 cf3d 1454 19be
00000340: bc6c b9bd 21c3 f2bd bcf7 0fbd ec6b 91bb
00000350: 75a8 78bd d600 203c 0a09 b2bd ed29 20bd
00000360: db55 c4bd 1fb3 a33d 17fc 29be 588c 08be
00000370: ba49 6d3e c78b 7cbe d397 8d3b ae4d a3bd
00000380: cda0 8abe 5599 5e3c f67e 983d ed86 5b3e
00000390: 637f a33d cfac 283d d726 6cbe aafd 26be
000003a0: 396d a33d 79a2 453e bcd1 51be f8b7 bebd
000003b0: 9112 13be b092 933e a0bf 033e c488 ab3d
000003c0: fbc0 46be 22aa 31be 526a 91be 0f8b de3a
000003d0: 4204 8dbe 17d5 4abe 33be 17be 8434 7b3d
000003e0: 924e c63e c1da d1be 4981 b93e 568d 83bd
000003f0: 498b c7bd e856 85bd 54a7 6dbc d89e b23d
-0.09034349 0.10861441 0.04188922 0.13124946 -0.09198099 -0.23828119 -0.081601836 0.0152144795
0.103033096 -0.049814444 -0.29085615 0.09124752 0.09647415 -0.15676555 -0.010644154 -0.102720484
-0.1825887 0.07264284 -0.073392026 0.05322562 0.29315203 -0.23197326 0.15378234 0.18639253
-0.013580132 0.15544805 -0.045054425 0.05867904 0.19119072 -0.056872435 -0.24442026 0.075890236
0.0893727 0.13764285 -0.03505877 -0.08255405 -0.049365528 -0.023338314 -0.066291876 0.25089955
-0.36567682 -0.04912055 0.20873776 0.23759273 -0.1963404 -0.19032206 -0.16382393 -0.32095218
0.012465011 0.50939584 0.086780705 0.010228608 0.27015474 -0.30537373 0.5076112 0.11448716
0.13311738 -0.036332693 -0.4832876 0.022423264 0.027150657 0.069971785 -0.19068843 -0.07333938
-0.041446473 0.098507196 0.09811902 0.20869297 0.1492239 0.103151344 -0.11851205 -0.032005414
0.00844894 -0.16957983 0.18916242 -0.07616744 -0.028535249 0.18974361 0.10955676 -0.076107554
-0.21872899 -0.024289086 0.067723885 0.043624554 -0.127803 0.08892035 -0.068887435 0.0533618
-0.067865975 -0.18519299 0.26530915 0.0438624 -0.09526789 -0.11884185 0.09164597 -0.0995603
0.26010004 0.008630181 -0.21097597 0.12060746 0.023829816 -0.07204954 -0.25164154 -0.42696273
-0.12839752 -0.14903976 -0.051223192 -0.26360658 -0.1779932 0.17866182 0.2443497 -0.09345621
0.07611364 -0.1891191 -0.36414385 0.02950061 0.1307087 0.11568954 -0.04620084 -0.12974367
-0.45030448 -0.03644734 0.12915784 -0.03546718 -0.22857518 -0.26586047 0.035055388 -0.020898143
-0.053009477 -0.064091995 0.11406516 0.16190934 0.16328058 -0.14682794 0.32125288 0.15994813
0.07920196 0.0039919387 -0.22932538 0.19447541 -0.12489841 0.13630256 0.03717765 -0.10701951
0.14530401 0.25770202 -0.0500363 -0.0134962965 -0.19457202 0.009581373 -0.14367296 -0.04923847
0.08143325 -0.17655066 0.037385955 0.10454339 0.15092672 0.063947216 -0.16521639 -0.12588546
-0.0041264095 -0.17783515 0.055021364 -0.13009049 0.09146074 -0.010710961 0.1111542 -0.0071585635
-0.0029450746 0.111858346 0.008394138 -0.056377955 -0.002606368 0.21996248 0.024795167 0.080254175
-0.25041083 -0.13820256 0.3284165 0.088869 0.57830083 -0.07335361 -0.14086452 0.41117096
0.31348693 -0.14667703 0.14118719 -0.16621098 -0.044776954 -0.016799781 -0.029335825 0.00175364
-0.06018291 -0.11434828 -0.10435985 -0.05271336 -0.10920542 0.255009 0.08296287 0.11175085
0.052013557 -0.1368253 0.1456176 0.23583455 0.03609279 0.12506214 0.10138639 -0.1497348
-0.090539426 -0.11853624 -0.035148367 -0.004437914 -0.06070753 0.009765824 -0.0869313 -0.039102484
-0.09586688 0.07993149 -0.16600071 -0.13334787 0.23172656 -0.24662696 0.0043210774 -0.079738006
-0.27075806 0.013586362 0.07446091 0.21438189 0.079832815 0.041180428 -0.23061691 -0.16307703
0.07979817 0.1930026 -0.20490164 -0.09312433 -0.14362551 0.2882285 0.12866068 0.08375695
-0.19409554 -0.17350057 -0.28401428 0.0016978699 -0.2754231 -0.1980785 -0.14818649 0.06132938
0.3873182 -0.40987208 0.3623145 -0.06423442 -0.097433634 -0.06510717 -0.014505226 0.08721703

bias f4 [128]
00000000: 7770 04be e78c 93bd 8193 91bd 4a38 28be
00000010: 8937 c3bc 14a8 debd 0f72 1bbd 91ae 60bd
00000020: 5c8e b6bd 1b00 8fba c6e9 26be 3956 40be
00000030: 757b 2fbe 85d6 45be d7fb 51be 09eb f2bc
00000040: b102 b7ba 35b7 86be 1b4b 4ebc e14f 953d
00000050: 4ae5 c5bd c385 73bc eae5 843d 7e82 45be
00000060: 8f9c 53bd 0677 f0bc c5de 08be c08f 1dbe
00000070: f99a a3bd 1e43 8bbd 5d18 1dbe d531 13be
00000080: 65e7 cbbd 8e93 c2bd 536b 3abe 34c0 5fbc
00000090: 5c10 0cbe 06eb 07be e829 87bc a8c5 1abe
000000a0: c767 08be 4a23 33be e5c0 13bd 922a 45be
000000b0: fa26 1cbe d63d 62be 7a44 8ebd 544f fbbd
000000c0: 9cc0 77be d202 03be ab06 5d3b 6f4a 71bd
000000d0: 4b4d fbbd afdc a4bd eb11 02be 0a9b c2bd
000000e0: d41c 803d b9ca 7cbe 97fa d9bd 5788 ecbd
000000f0: 0024 66bd 9fe5 1dbd 3041 9dbc 8271 26be
00000100: ede1 eb3c 4d13 04be f97b 4cbe 6637 aaba
00000110: 8096 23be e4d1 3abd 8c93 0ebe 4ccd 28be
00000120: f792 303c c5f7 80bd fd2a 923d ce4c b2bd
00000130: cff9 1ebe 0ddd 2fbe 0d59 33be 6b58 98be
00000140: a7ab 19be 82eb 86be 40c1 a6bd 0d73 7fbe
00000150: d641 5ebd 2f42 76bd 36fb 60be 816f 0abe
00000160: 07ef 2dbe b22f 19be c8af 94bc 37b1 f3bd
00000170: 2d46 cdbd b6be b7bc cea9 acbd bdf9 ecbc
00000180: 5c97 1dbe 56b9 30bc ebdd 02be 2681 c93c
00000190: 5db1 c4bd ab0c 97bc 4e13 5cbe fe44 87be
000001a0: 3fd7 eebd 5c2b 823b 70db 5abe 8121 2bbe
000001b0: 3f7c 18be 0350 74bd f158 26be ee54 55bd
000001c0: 4b78 a4bd fb9f 88be 604a 36be 98b0 23be
000001d0: 218c 37be 831e 3abc efa4 23bb 07f3 fabc
000001e0: 3004 e4bd 391d 1ebe 3d52 a0bd 0728 38be
000001f0: b3f0 92bd b567 40be 0959 c3bb cca1 83be
-0.12933527 -0.07204609 -0.07108212 -0.16427723 -0.023830192 -0.10871902 -0.03795057 -0.05485398
-0.08913872 -0.0010910066 -0.16300115 -0.18782891 -0.17136939 -0.19320114 -0.20506226 -0.02965309
-0.0013962594 -0.2631165 -0.012591149 0.07290626 -0.09662874 -0.014863434 0.06489165 -0.1928806
-0.051662978 -0.02935363 -0.1336623 -0.15386868 -0.07988543 -0.06799911 -0.15341325 -0.14374478
-0.099562444 -0.095008 -0.18205003 -0.013656665 -0.13678116 -0.13273248 -0.016499475 -0.15114462
-0.13320838 -0.1749393 -0.03607263 -0.1925452 -0.15249243 -0.22093901 -0.069466546 -0.1227099
-0.24194568 -0.12794045 0.0033725898 -0.058908876 -0.12270602 -0.080499046 -0.12702148 -0.095022276
0.062554985 -0.24686708 -0.10643499 -0.11549442 -0.056186676 -0.038549062 -0.019196123 -0.16254237
0.028794253 -0.12897988 -0.19969167 -0.0012986481 -0.1597538 -0.045610324 -0.13923472 -0.16484565
0.010777227 -0.06297258 0.071371056 -0.087060556 -0.15524982 -0.17174168 -0.17514439 -0.29754958
-0.15006886 -0.26351553 -0.08142328 -0.24946232 -0.054262005 -0.06012171 -0.2197083 -0.13519098
-0.16985713 -0.149596 -0.018150225 -0.118990354 -0.100231506 -0.022429805 -0.08430825 -0.028927678
-0.1538977 -0.010786375 -0.12779967 0.024597716 -0.09604142 -0.018438658 -0.21491739 -0.26419824
-0.11662149 0.003972454 -0.21372771 -0.16712 -0.14891146 -0.059646618 -0.16244866 -0.05208295
-0.080307566 -0.26684555 -0.1780181 -0.15985334 -0.17924549 -0.011359814 -0.0024970134 -0.030633463
-0.11133611 -0.15440835 -0.07828186 -0.17984019 -0.07174816 -0.18789561 -0.0059615416 -0.2570938

weight f4 [128, 128]
00000000: 4404 a9be 33cf 473d 06f2 1c3e f90d 4dbe
00000010: a0a2 a3bd 79ed f2bc 8b75 33be a0e1 7c3b
00000020: 63db 21be ded2 babe 9723 953d 8a41 403e
00000030: 00c6 94be b12b fc3b 58b7 df3d c041 ccbc
00000040: 685e c9be 7bc0 94be ff13 193d fb0c 103d
00000050: 192b 08be 542e 053e 12c3 0b3e 861a 00be
00000060: 320c f6bd 0fec 9e3d 03dd e2bd f11c ff3d
00000070: 5248 65be e688 f13d 27b9 f53d dd7a 53be
00000080: a68c a63d 176e 173d eafc 26be 2314 90be
00000090: 0ae1 0c3e 1862 8e3c dcd2 a13c ea1d 23bd
000000a0: c5ad b9bd 276c ebbd df8e 023e 682d b6bb
000000b0: 366a 0dbe 29f2 debd 3ff3 163c 6994 c13d
000000c0: 082b fabd ab31 173e 47ec 8dbd fab6 59be
000000d0: 44b3 ea3d 422c 0c3e 0e7f 973d b4ed 60be
000000e0: 93ca 82bd 21ec bb3d a0db 2fbd 71e2 69be
000000f0: 636b 29bd 4eee aabc 7df2 81bd 9ef4 153e
00000100: b262 45bd 0e44 a93d 3bab e33d 1d20 5ebd
00000110: 1728 91bd 7f31 8cbe 769c 95bd 251f aa3c
00000120: 5bd6 a23d 4942 dcbd 8526 403e 3ba5 a13d
00000130: 8914 183d 6c6a d63c 5c38 b4bd e5ac 8abe
00000140: 40a4 e53d bc59 bb3d f2df dabd b601 2b3d
00000150: f1c6 e4bc d3e2 b03d 48bf efbc 9498 ca3d
00000160: bf01 babd 9d23 6dbe 9df6 4f3e 2589 9fbd
00000170: 2a1a aa3c d145 30bd e1ab 2a3d 014d b1bd
00000180: e7d1 4abe dff0 443e c5d9 0c3e 9d4b b0bd
00000190: eaf8 22be a8b1 9a3c 6dc1 973d 3d18 5ebd
000001a0: b15f 9fbe f2e0 f43c 349a 6fbe bd74 003e
000001b0: c7e5 b83d 9005 d03d 09f1 24be c8b5 b03e
000001c0: 5154 bf3d bd85 b1be b521 c03d 2870 9bbd
000001d0: fad8 a5bd bded dd3d 95d0 1e3e 1219 353d
000001e0: 1dc7 b0bd bca6 a23d 095e cd3c 7d5d a1be
000001f0: bedc 26bf 6822 903e 0f00 a1bd de43 a03c
00000200: 2756 2bbe 41dc 8e3d 7732 8bbd da98 06be
00000210: 7082 e63d e848 ef3c 8c05 6ebd 2f41 173e
00000220: 0d25 2cbe 97b0 d53c a6fd bfbd a75a 673d
00000230: 16e2 5fbe b4f3 4bbd 0290 9dbb 958d 7ebe
00000240: c6ee 7ebd 0874 a5bd e85a aabd 28e9 0ebd
00000250: f58d fa3d 09a7 99be 218c 39bd e1bb 6cbd
00000260: 7b09 b0be d75c eb3d e51f 943d ce2b 543e
00000270: 34c5 ac3d 3c38 43be 7614 923e 37dc 613e
00000280: 7042 3c3e e6d3 4a3b 5d5e 283e ff52 1fbd
00000290: cde7 243c 56a9 1fbe 7b53 51be d821 173e
000002a0: 692f 3cbe a75b 0dbe 68a6 a4bc b12d 9abd
000002b0: d7f1 4b3d 4718 b5bd e17c 8bbe 847c 493e
000002c0: 287d aebd f925 bdbd 4adf 243d fc26 603e
000002d0: 5403 9e3d 5210 a63d 2083 f2bd 28db d7bd
000002e0: 825a a63d 7b81 13be 7052 223d 46fb 10be
000002f0: 4afa 153e 9c8e 63bd 5b3e 76bd c8c6 873d
00000300: 10de 593e 45ac 113e 4b78 233e 3909 2ebe
00000310: 0bde 873d 36ae cdbc a12e 363c 2617 d03b
00000320: b72a 893d 6f16 debd 57f9 6fbd 6c0b 65bd
00000330: 4d02 5fbe a009 693e 3b6c 0fbe 7e38 98bd
00000340: 20d9 f5bd 007c 87bd 1bab 0d3e 1c5f e3bd
00000350: 47d9 453d 96be 00be ca9b 033d 8074 6b3d
00000360: 4358 99bb 67b9 9e3d b8f7 b73b a97c d93d
00000370: a0df 333d 946e ad3d 0d4b 22be 1fec 54be
00000380: 565c 50be a31e 933d 286d be3d bc62 333e
00000390: 5e5e 423d 6bd0 053e 9c25 173d e0a2 173d
000003a0: f373 893d d3a7 df3d a3ce 15be f3fe 4b3e
000003b0: 80a2 823d df83 eebd b455 95be d17f 873a
000003c0: 89aa 373e c4a5 fcbd cb22 d43d ca1d 00be
000003d0: 7c80 2ebe 4ddc 523c 0692 bdbb ceb3 643e
000003e0: 3ace 24be b576 f03d dc9f 28bd 12f2 61be
000003f0: 77d2 543e ee45 e3bd c41f d8bc 6c9d 59be
-0.33011067 0.048781585 0.153267 -0.20024861 -0.07990003 -0.029654251 -0.17525308 0.0038586631
-0.15806346 -0.36489004 0.07282179 0.18775001 -0.29057312 0.007695638 0.10923642 -0.024933696
-0.3932984 -0.290531 0.037372585 0.03516863 -0.1329769 0.13005954 0.13648632 -0.12510118
-0.12014045 0.07759868 -0.11077311 0.12456692 -0.2239087 0.117936894 0.11998206 -0.20652337
0.08132295 0.036970224 -0.16307417 -0.28140363 0.1375772 0.01738076 0.019753866 -0.03982345
-0.09066347 -0.11495238 0.12749813 -0.005559612 -0.13810048 -0.10886032 0.009213268 0.09452135
-0.12215239 0.1476504 -0.06929832 -0.21261206 0.114599735 0.13688758 0.07397281 -0.21965677
-0.06386294 0.091758974 -0.04293406 -0.22840287 -0.041362178 -0.020865586 -0.06345079 0.14644095
-0.048189826 0.082649335 0.11116644 -0.054229844 -0.07087725 -0.27381513 -0.07305233 0.020766804
0.07951041 -0.107548304 0.18764694 0.07892843 0.03712896 0.026173793 -0.08799812 -0.27085033
0.11212969 0.09147975 -0.106872454 0.04174968 -0.027926894 0.08637013 -0.029266015 0.09892383
-0.09082364 -0.23158117 0.20308919 -0.0778983 0.02076443 -0.043035332 0.041667823 -0.086572655
-0.19806634 0.1923251 0.13754947 -0.08608172 -0.15915266 0.018883541 0.0740994 -0.054222334
-0.31127694 0.029892419 -0.23398668 0.12544532 0.090282016 0.10157311 -0.16107573 0.34513688
0.09342254 -0.34672347 0.09381429 -0.075897515 -0.080980256 0.108363606 0.15509255 0.044213362
-0.08631728 0.07941958 0.025069254 -0.31516638 -0.65180576 0.2815125 -0.07861339 0.019563612
-0.16732083 0.06975604 -0.06796735 -0.13144246 0.11255348 0.02920957 -0.05811076 0.1477096
-0.16811009 0.026085181 -0.093745515 0.056482937 -0.21863589 -0.04979296 -0.004808427 -0.24858697
-0.06223943 -0.08078772 -0.0831812 -0.034890324 0.122341074 -0.3001025 -0.045299653 -0.057796363
-0.34382233 0.11492317 0.07232646 0.20719835 0.08436051 -0.1906442 0.28531235 0.22056662
0.18384719 0.0030949055 0.16442247 -0.03889751 0.010065031 -0.1559194 -0.20442002 0.14759004
-0.1837746 -0.13804494 -0.02009888 -0.07528246 0.049791183 -0.08842521 -0.27243713 0.19676405
-0.085199654 -0.09235758 0.040252008 0.21889871 0.077154785 0.081085816 -0.11841416 -0.105398476
0.08122732 -0.14404862 0.0396294 -0.14158353 0.14646259 -0.055555925 -0.06011806 0.066297114
0.21276116 0.14225872 0.15963857 -0.16995706 0.06634148 -0.025107484 0.011119516 0.0063504158
0.066976 -0.108441226 -0.0585874 -0.055919096 -0.21778221 0.22757578 -0.1400613 -0.0743265
-0.12004304 -0.06615448 0.13834803 -0.11102125 0.048302915 -0.12572703 0.032130994 0.05748415
-0.004679711 0.077502064 0.005614247 0.1061948 0.043914437 0.08468357 -0.15848942 -0.20793198
-0.20347723 0.07183578 0.09298164 0.17518133 0.047453277 0.13067786 0.0369011 0.037020564
0.06711569 0.10920682 -0.14629607 0.19921474 0.06378651 -0.11646246 -0.2916695 0.0010337775
0.17936148 -0.12336305 0.10358199 -0.12511364 -0.170412 0.012869907 -0.0057852296 0.22334215
-0.16094294 0.117413916 -0.04116808 -0.22064999 0.20783411 -0.110973224 -0.026382335 -0.21251458

bias f4 [128]
00000000: ebd1 1dbb 94ae aa3d 3a5d 0fbd 7a80 8f3c
00000010: c462 bcbd d13d 54bd 9b51 debd 34fc 373d
00000020: fdd5 dabd 1384 de3c f41a 57bc a669 15be
00000030: f70d 453c c5bc d53b 4e68 1ebd fbb2 0bbe
00000040: 7f8e 86bb c767 8e3b eaf9 fabd dc90 b5bc
00000050: afd4 803d 1b84 ffbc 911c a2bd a7d6 70bd
00000060: 7698 b13c 27ec 913b 9757 c5bd d36d 523d
00000070: cb67 c73c 308c 94bd 673a 4cbd 965f 9fbd
00000080: 00cc a6bd 3925 fbbd f9e2 953d a22d 213b
00000090: dffc 8dbd 2b97 28bd 52b9 15bc 5261 14bd
000000a0: 8e31 973d 517f 91bd 3a90 f93c 31b6 c23c
000000b0: 6ee6 40bc f3cd 09bd d54d 16bd 5ea0 d5bc
000000c0: a9a7 6fbd e0ec 413c 953e 56bd 8546 663d
000000d0: 612e b83d 54ea 473c 17bb b53b 070c bbbd
000000e0: d734 8e3c 1e66 0f3c 2c4f 32bc c64d f93c
000000f0: 6e3d 58bd 0b36 f43c 59a3 003c d4a9 0dbe
00000100: 471a febd 2898 febd 3a22 1f3d f008 863c
00000110: 4336 bfbd 2be4 493d 1202 04bd c48a 843d
00000120: aa37 dabd dafe a0bd 655c 01bd ad5b 44bd
00000130: ad0d 1bbd d7fe 09bd 9aa8 80ba 336d 10bd
00000140: 8a41 a0bd 9a4a 2c3d 4802 803c cfec 00bd
00000150: 9d3f 36be 7d0b a6bc 16e6 4bbd 31ef 8ebd
00000160: 2ab1 aebc 24df dcbd e191 50bd d898 28bd
00000170: a5b3 95bd 3d68 2e3d 471b 653d fc33 a93c
00000180: a400 06be 8acd 513c 7052 9cbd fbcb 9d3c
00000190: 1b62 8abd 4860 9ebd eb22 183b d768 743d
000001a0: 35b3 4f3d 2049 c3bd 9996 73bd 0279 163b
000001b0: 2c74 973c 94c7 ab3d f9f3 c5bd 09b4 e3bd
000001c0: 8c81 a6bc 49e3 a43d a845 5c3d b7a4 82bd
000001d0: 1ce2 b03c b1de f6bc 5fa3 3bbc 4551 003b
000001e0: 45fa 4cbd f1c8 33bd b996 d5bc 8373 8dbd
000001f0: 1a4f 9c3b 6b5b e3bc 5f0a 683d a8a2 95bd
-0.002408142 0.083340794 -0.035001017 0.017517317 -0.091985255 -0.051816765 -0.10855409 0.044918254
-0.10685346 0.027162587 -0.013128985 -0.14591083 0.012027255 0.006522747 -0.03867369 -0.13642494
-0.0041063423 0.0043458673 -0.122546986 -0.0221638 0.06290566 -0.031190922 -0.07915605 -0.05879846
0.021679144 0.0044532004 -0.09635847 0.051374268 0.024341485 -0.07253301 -0.049860384 -0.077819034
-0.08144379 -0.12262959 0.07318682 0.002459385 -0.06932997 -0.04115979 -0.009138422 -0.036225624
0.07382499 -0.07104362 0.03046428 0.023768516 -0.011773689 -0.033643674 -0.03669532 -0.026077446
-0.058509503 0.011836261 -0.052305777 0.056219596 0.08993221 0.012201864 0.0055459845 -0.091331534
0.01735918 0.008752374 -0.010883134 0.030432593 -0.05279296 0.029810926 0.007851445 -0.13834316
-0.12407356 -0.12431365 0.038851 0.016361684 -0.093365215 0.049289864 -0.032228537 0.0647178
-0.10655148 -0.07861109 -0.031582255 -0.04793899 -0.03785484 -0.0336903 -0.0009815872 -0.03526039
-0.078250006 0.042063333 0.015626088 -0.03147584 -0.17797704 -0.02026915 -0.049779974 -0.06979216
-0.021324713 -0.10784748 -0.05092037 -0.04116139 -0.07309655 0.042579878 0.055934217 0.02065467
-0.13086182 0.012805352 -0.07632911 0.019262305 -0.067569934 -0.07733208 0.0023214172 0.059670296
0.050708015 -0.09535432 -0.059469793 0.002296031 0.018488012 0.08387676 -0.09665675 -0.11118323
-0.020325445 0.08051164 0.053777367 -0.06379073 0.021592192 -0.030135484 -0.011452525 0.001957969
-0.050043363 -0.043892805 -0.026072847 -0.06906798 0.004770172 -0.027753552 0.056650516 -0.07306415

weight f4 [128, 128]
00000000: cb80 41bd b2a6 223b e0e0 94bc 3d43 e1bd
00000010: fd1c 1d3e b4fa f93d 12e9 66be 4ffa c8bd
00000020: 589e 523d 383b 35be cf83 09be 22e9 adbd
00000030: e21a 2a3d 02e7 dabd 0930 b9be ccb2 babd
00000040: 5dfd 81bd aae6 27be 3cb0 3b3e a467 fc3d
00000050: 0fae 623e 7e99 943d 7a9f ff3a 32d8 b13d
00000060: 280a d33e 6cc9 fbbd 0fcc 09bc 4d6d 76be
00000070: 9ab1 b5bd fe97 2d3d 338e 11be 6582 eebe
00000080: 7af7 27bd 7526 ccbd a9a0 d03d cdc7 f2be
00000090: 9539 96bd cd66 d43d 9d1b 8e3d d3be 66bc
000000a0: 89d1 50be 6be5 f0bd 4653 593d 7c3f 8abd
000000b0: 7ba9 b0bd 3b0b 9c3c 1a06 82be 491a 373d
000000c0: fcfe 023e 4ee0 373e 2626 1b3d 74eb eebe
000000d0: 31df 5fbe 7ca3 aebc 0b07 c5bd 5486 fcbd
000000e0: ea9d 833e b775 313e f715 19be 9565 23be
000000f0: 0d22 cc3d 68ed 573e e91c 913d 9dff babd
00000100: f2b4 d13d 98f3 0cbe 7796 8cbe 76b5 353e
00000110: fb38 bdbd 18f7 6ebe dfd9 17be ad93 09be
00000120: d74a a63c 6ac2 f13c edc0 703c 012b c4bd
00000130: b28c 8cbd 8fef bf3c 7b4b 8bbd b4c5 ca3d
00000140: 1b9d afbc 7cd7 aa3d fb37 8f3c 53a0 cfbc
00000150: 8685 f93d 5829 873d cb44 87be 6be1 613e
00000160: 194f 3dbe 320e 12be 2770 143c e340 fb3c
00000170: 34a1 103e 4c8b 6ebc 2efe b5bd 2e4d 47be
00000180: 741a 03bd f4b3 39bc bb65 5cbe 4105 c0bd
00000190: acd5 123e f908 64be c7e6 b33c 8dbf 06bf
000001a0: ab48 febc 85c3 023d d8bf d03d 5ebf a4bc
000001b0: a89c a9be c349 423d de65 c33b 446f 52bb
000001c0: 0d3f b5bd c106 68be 35a0 58bb 9448 b03d
000001d0: 2a56 b13d 63a8 b6bc d019 a0bd a8e5 883e
000001e0: 85e7 00bd 67eb 32bd ba5e 2c3e 2394 703d
000001f0: 97cf bd3d 7841 973e 311a b6bd 0cab 28be
00000200: fd3d 29be 9013 e0bd b5c7 fe3d 30f4 b73d
00000210: 4442 e0bb 4eeb 8b3a 461c d03d 76a0 943d
00000220: 2056 363e 44df 203e c48b 913d d3d4 dcbd
00000230: b0e1 2bbe 2194 1b3d da5f 9c3e 6ff6 853c
00000240: 805d 843b 1d60 b9bc 8d3d c8bd d3de 8ebe
00000250: e4f1 a4be b10e 99bd 1464 50be 03b7 083e
00000260: ee16 8cbe 62ab c8bd 4b1a 0d3e e2a6 6a3e
00000270: 7b46 40bd 63e5 d9be 5ac9 d33b 29b4 97be
00000280: cc2f 18be 9002 d9be 406c 6fbe e53b 4dbe
00000290: b54a e6bc fb0d b63a 2af0 b8bd 28f1 073d
000002a0: fa16 eb3d 3831 38be d133 be39 a3e8 81be
000002b0: 7443 9b3d e14a 863d 0520 a4bb ea98 9e3e
000002c0: b606 a13d 636b 0f3d 503d f93d 1b6a 75be
000002d0: a85e 35be 933c 4abe 3fb7 bbbd 755c 973e
000002e0: 9aa2 50be b0d6 b4be 797b 86bd 7448 c4bd
000002f0: 17be f73d da24 883d 7649 37be 5289 33be
00000300: 62d4 f6bd 1e6d 12be cd29 273d 0452 86be
00000310: 294e 3fbe 0b49 2ebe 4ae4 81bd c6cd 84be
00000320: 3bd4 403e 2b5e 9abe b161 b2bd eb85 9a3d
00000330: 78fa a7be 105d 9abe 43b2 61bd cf39 5bbd
00000340: 0122 d0bc 7a30 a3bc 3879 6bbd b7f6 383d
00000350: 944b 1fbd ed5e 36bd 9b0d 253e 5356 d0bd
00000360: 0621 033e cddc 3c3d e0d0 8bbc c3d9 87bd
00000370: f3e0 34be 4964 4b3c d24d 2cbe ced4 163e
00000380: 3e19 7c3b 25fe be3d d9f4 12be be60 03be
00000390: 7b64 1a3e 7315 0b3d 7477 d9bd 7b47 25be
000003a0: 0ee3 99be a08c 0b3e f6b6 283e 4642 bd3a
000003b0: bf63 24be e713 13bd b6b6 8ebe 1caf 2ebe
000003c0: 2d3d 1a3e add8 c8bd e065 d53d 06f9 8f3e
000003d0: bf21 583c 4bc5 9bbd c65c f5bd 1dec 67bd
000003e0: 8708 c0bd 9353 20be 522c df3d fb11 df3c
000003f0: ed47 3f3e 8c34 843d 3886 d8bd fdd8 2d3d
-0.047241967 0.0024818596 -0.018173635 -0.10999153 0.1534309 0.12206021 -0.22549847 -0.098133676
0.05142054 -0.17698371 -0.13429187 -0.08491732 0.041529544 -0.106885925 -0.3616946 -0.09116134
-0.06347153 -0.16396585 0.18328947 0.123244554 0.2213671 0.07255839 0.0019502484 0.08683814
0.41218686 -0.122942775 -0.008410468 -0.24065132 -0.088717654 0.04238128 -0.14214401 -0.46583858
-0.041007496 -0.099682726 0.101868935 -0.4741806 -0.07335202 0.1037117 0.069388606 -0.014083582
-0.20392431 -0.11762508 0.05305793 -0.0675039 -0.08626076 0.019048324 -0.2539528 0.0447028
0.12792581 0.17956659 0.037878178 -0.4666401 -0.21862485 -0.02131819 -0.09620484 -0.123303086
0.25706416 0.17330061 -0.14949785 -0.15956719 0.09967432 0.21086657 0.07085592 -0.091307856
0.10239591 -0.13764799 -0.27458546 0.17745003 -0.09239384 -0.23336446 -0.14829205 -0.1343524
0.020299358 0.02951165 0.014694435 -0.09578515 -0.06862773 0.02342966 -0.06801506 0.0990099
-0.021437218 0.08341882 0.017482748 -0.025345003 0.12183671 0.065996826 -0.26419672 0.22058646
-0.18487205 -0.14263228 0.009059942 0.030670589 0.14123994 -0.014559578 -0.088863716 -0.19463035
-0.03200765 -0.011334408 -0.21523182 -0.09376002 0.14339322 -0.22269048 0.02196063 -0.52636033
-0.03104051 0.031924743 0.10192841 -0.020110782 -0.33127332 0.047433626 0.0059630712 -0.0032109777
-0.088499166 -0.22658826 -0.0033054475 0.08607593 0.086590126 -0.02229709 -0.07817423 0.26737714
-0.031470794 -0.04368153 0.1683301 0.058735024 0.0926811 0.29542136 -0.08891714 -0.16471499
-0.16527553 -0.10941231 0.12440435 0.08982122 -0.006843837 0.0010674985 0.10161643 0.07257168
0.17806292 0.15710169 0.07106736 -0.107827805 -0.16785312 0.037983064 0.3054188 0.01635286
0.0040394664 -0.022628838 -0.09777365 -0.27904376 -0.32215798 -0.07473505 -0.20350677 0.13351063
-0.27361244 -0.09798314 0.13779561 0.22915223 -0.046942215 -0.4255782 0.006463212 -0.2962964
-0.14861983 -0.42384768 -0.23381138 -0.20042379 -0.028111795 0.0013889665 -0.09030183 0.03318897
0.11478992 -0.17987525 0.0003627823 -0.253728 0.07581225 0.06557251 -0.0050087 0.3097604
0.07862608 0.03501452 0.121698976 -0.23966257 -0.1771189 -0.1974967 -0.09165811 0.29562727
-0.20374528 -0.35320044 -0.06566519 -0.09584132 0.12096804 0.06647654 -0.17899117 -0.17532852
-0.120522276 -0.14299437 0.04081135 -0.26234448 -0.1868216 -0.17020051 -0.06342371 -0.25938243
0.1883096 -0.3014997 -0.087100394 0.07545074 -0.3280828 -0.30149126 -0.055101644 -0.053521927
-0.02540684 -0.019920576 -0.05748865 0.04515716 -0.038890436 -0.044524122 0.16118471 -0.10172715
0.12805566 0.04610901 -0.017067373 -0.066333316 -0.17663936 0.012414047 -0.16826561 0.14729616
0.0038467194 0.09325818 -0.14351214 -0.12829873 0.15077393 0.033956002 -0.10618487 -0.16140549
-0.3005604 0.13627863 0.16476044 0.0014439307 -0.16053675 -0.035907652 -0.27873772 -0.17058986
0.15062399 -0.098069526 0.10419822 0.28119677 0.013191639 -0.0760599 -0.11980586 -0.05662166
-0.093766265 -0.15656881 0.10897125 0.027230253 0.18679781 0.06455335 -0.10572475 0.042443264

bias f4 [128]
00000000: 85d6 313d faa6 1fbd 23c7 653c 3660 01be
00000010: c834 22bd b1cc 283d 04e0 743c 32f5 a3bc
00000020: e77d e8bc d58a da3c b687 b63c 5791 62be
00000030: 4ae4 09be f095 2cbe 85f0 40bd 9aed 713c
00000040: 18d0 523c a927 be3c 4462 00be 4429 a83d
00000050: 3923 2ebe d421 a63d b74f 4bbd d634 0c3d
00000060: a204 ed3c 37ea 12bd cac8 f3bd ea38 21bd
00000070: 8b89 3ebd ede1 133d dd2d 283d c38d c8bd
00000080: b2d6 3cbe 1363 9f3d 4ded 05be 2311 ae3d
00000090: bffc f9bd 5661 31bd 2bf6 52bc 6200 55be
000000a0: 716a eabc 53ce 8c3c 7ae6 0abe 15bc 0dbe
000000b0: a7dd 843c 0f62 8c3d df9e f3b9 e8b3 19bd
000000c0: ddbb d9bc de08 9abd 238f 17be ca26 34be
000000d0: a437 01be cafc 99bd 128f 8e3c 7591 48be
000000e0: 6f91 07bc 707c 843d 8bae 60bd 1b4e 6abd
000000f0: 410d 9abd 7c2d 81bc a934 94bd 0b8c 14be
00000100: e35d 3bbe a644 e6bd db4c 26be fce8 9b3d
00000110: fc94 94bd c5c5 d03d feb4 a3bc 513a 0ebd
00000120: af94 23be 5688 cfbd ecbe 4d3d eeef 9fbd
00000130: 23e4 0cbe 08a1 ccbd ce11 12be e6cb abbd
00000140: 6aa8 d9bd 44a9 b3bd 7ae7 51be 39ed 1dbd
00000150: 7c4d bab9 e8f3 533b 1de2 2dbd 174d df3c
00000160: ee6c 413d ce36 3a3d 3201 3ebc 7363 38be
00000170: c492 37be e7a7 c5bd d561 793d b508 a53d
00000180: 0195 023d 58fd 24be 5a57 20be f4e1 0cbe
00000190: 2338 f4bc e097 a8bc 1163 37be 6753 0f3d
000001a0: 4998 b9bd e14a c9bd 3dcc 9bbd 3d85 cf3c
000001b0: 4cf4 32be 83b2 d9bd ab0d 57bc 648c 05be
000001c0: f3fc 6fbe f270 febd 3c9c 8cbc 54e5 b03d
000001d0: 0421 cf3d 021c d13d 7aa9 953d e681 1ebe
000001e0: f858 c83c 4fed 2a3d c1c2 c53d 4f23 01bd
000001f0: 6541 d0bd dc74 ffbd 8507 63bd d395 06be
0.043417472 -0.0389776 0.014024529 -0.12634358 -0.039601117 0.041210834 0.014945988 -0.02001438
-0.028380347 0.026677528 0.022281509 -0.22125755 -0.13465992 -0.16854072 -0.047104377 0.014766121
0.012866996 0.02321227 -0.12537485 0.08210996 -0.17005624 0.08111921 -0.04963657 0.034230076
0.028932873 -0.035867896 -0.11903532 -0.039360918 -0.04651789 0.03610413 0.041059364 -0.09792664
-0.18441275 0.07782569 -0.13078804 0.08499362 -0.122064106 -0.043305717 -0.012876074 -0.20800927
-0.028615208 0.017188227 -0.13564482 -0.13841279 0.016218973 0.06854641 -0.0004646694 -0.037525088
-0.026578838 -0.075212225 -0.14800696 -0.17592922 -0.12618881 -0.07518919 0.017402206 -0.19586737
-0.00827442 0.06469047 -0.054853957 -0.057203393 -0.07522059 -0.015768759 -0.07236607 -0.14506547
-0.18297534 -0.112435624 -0.16240256 0.076127976 -0.07254979 0.101939715 -0.019983765 -0.034723584
-0.15974687 -0.10133426 0.050230905 -0.07809435 -0.13758902 -0.09991652 -0.14264604 -0.083885
-0.106278256 -0.08772519 -0.20498458 -0.03855631 -0.00035534415 0.0032341424 -0.042451967 0.027258439
0.047223024 0.045462422 -0.011596965 -0.18006687 -0.1792708 -0.096511655 0.060884316 0.08058301
0.031880382 -0.16112268 -0.15658322 -0.1375807 -0.029811924 -0.020580232 -0.17908885 0.034991648
-0.09062249 -0.09828735 -0.07607315 0.025332088 -0.17476004 -0.106297515 -0.013125817 -0.13041836
-0.23436336 -0.12423886 -0.017164342 0.08637491 0.10113719 0.1021042 0.07307716 -0.1547924
0.024456486 0.04173022 0.09656287 -0.031527814 -0.10168723 -0.12473461 -0.055427093 -0.13143091

weight f4 [128, 128]
00000000: e809 683e f56d 91bc be3c 67bc 0059 0cbd
00000010: fd0f 1cbe fb2f 8c3c a64e 843d 0612 413e
00000020: 8054 d7bd bc47 5c3d 9bbd 23be 3d85 65bb
00000030: e25f 923d 4d48 623d 4950 b33b 15a0 9a3e
00000040: 735c f9bd b46f 94be d8ef 6fbc e907 053d
00000050: 5024 b5bc 2999 15ba 5aa7 7d3c c81b 66bc
00000060: 26aa 903d d1b2 52be 035f 113e a32a 273d
00000070: afff c63d c5df e93c 3e73 083d 2249 4f3d
00000080: d8ad 143d 4ef9 ef3c 6c7f 4f3e 90d2 383e
00000090: efdf 01bd 5741 26be 8f6e c53d 96db 853d
000000a0: facb d7bd e3fa 96be 7f84 30be 25f8 b13d
000000b0: 0f91 cd3d 67c5 c3be 5f77 db3d 005c 4f3c
000000c0: 1f92 e7bc b404 c8bc 3db5 363e 59cc 983d
000000d0: 13c6 8abd a2d1 1a3e 0959 e63d 5c7f 923d
000000e0: 9670 6fbd c5d2 04bd f4df f7bd d907 ad3d
000000f0: 7dd6 63be 8374 033e 1649 83bd 594c a33c
00000100: 1bd6 6a3b 2bbd 5b3e 0641 9ebc e9c0 a23d
00000110: 3f39 233e fc1d 263e 6609 843d e341 1ebb
00000120: 311c 0b3e 0cc0 ecbd 2a0b 593e b9ee 4dbc
00000130: f7c8 f63d 0b0e f2bd 883a 993d f905 a6bc
00000140: a204 a33c a722 babd 0d50 0fbe 8665 aa3c
00000150: c218 39bd a40b ca3d b284 4cbd 0ef7 9b3d
00000160: df2e 463e 07eb 673e 488b c1bd b8a3 0b3e
00000170: c16b 713d 421b 723e 6111 663e 9769 3cbe
00000180: f101 d93d ebc8 19be 662a 2b3e 5742 15be
00000190: 6d77 8bbd ffa7 30bd e3b9 92be 0c29 29bd
000001a0: d194 5fbe 91cd 30be 44e5 0abe 74a6 d43d
000001b0: 1d7f 3cbe e032 08be ce10 2d3e 014a 443d
000001c0: 6bf8 0c3e 83d9 a03d 6b6f 58be efbd 38be
000001d0: 22a4 a9bd d048 54bd 5134 013e 09eb 50bc
000001e0: 5285 33be 83d2 363e fe11 f63c 9e29 a1be
000001f0: eb69 b23d f2fe 283e 3922 c0bb fd83 bebd
00000200: f73d 8fbe d60f a83d e214 3cbd ea73 efbc
00000210: 11a2 613d 3b28 8cbd 4c97 c2bd d188 623c
00000220: 97da 22be 92c4 21be d8a7 ddbc bc97 c73d
00000230: 66cf 72bd 0122 dfbc e2c9 43be 182c 273e
00000240: d03c 89bd 7f8c f6bd 522e 2ebd fea1 abbd
00000250: a54f 56be 9845 79bd ff83 9dbc b113 c9bd
00000260: e0ea b53c 8067 1cbe 1c94 0abe 8a4d 7a3d
00000270: b210 d23c f898 123e 2f1c 043d 0428 02be
00000280: e5a1 b53e f934 d6bb ecf0 3d3d 1e0b ad3d
00000290: 97cd 72be 4cd0 bfbd 76bf 6a3d 18ad c43d
000002a0: 5868 a8bc b9e1 c2bc a092 153e d861 3e3d
000002b0: d667 c9bd 6667 ebbc 8f21 79bc 68d5 49be
000002c0: ebc9 a2bd c781 65bd c9bc b73e b6a2 033e
000002d0: 46d4 1c3d 2c17 933d b58a 2bbe e255 373c
000002e0: 1e0c 6fbe 799c ca3d 9f62 28be da04 8bbe
000002f0: 5d93 743e 3075 e63d 0b5d 67be 7657 26be
00000300: 2183 04be 1bcd 53be 07e2 3c3e ae92 4cbe
00000310: aae1 11be 335b 773d da3e c33c 6b84 c33d
00000320: 5255 8abd 4553 953d 1ba8 4f3e 4f29 433d
00000330: a249 9f3d d726 b33b cd23 a7bd 653a c6bc
00000340: c258 cabb a7a0 69be da4a 43be 04a7 383d
00000350: 245b 42be 5fbe 8abc 64ca 5c3e aa93 073e
00000360: 1c22 993d fa97 1cbd 6cbe d63d 2bee 0abe
00000370: d0b2 cb3d 58e8 883e 844e de3d 9299 243d
00000380: 5832 2e3e e8f5 b23c ad06 13be 1fd4 c63d
00000390: deb7 ea3d 98ba 1ebe 9584 213e aa97 ce3d
000003a0: 5664 08be f8e3 223e 18b9 29be 11f7 ff3d
000003b0: cef1 33be 0d9a f63d 09f5 993c ba03 72be
000003c0: 1747 0a3d c49d 813e 1d0e 433d 131d d13b
000003d0: 680a 0f3d 6de0 d3bc 7635 1e3c 4aa9 8f3e
000003e0: 705c 48be 2e4e 11bd c646 bcbd 0d63 e6bd
000003f0: e312 b13d 0d08 51ba 7b01 63bd 9c7c 8cbd
0.22660029 -0.017752627 -0.014113603 -0.034264565 -0.15240474 0.017112723 0.064603135 0.18854532
-0.10514164 0.05377935 -0.15990297 -0.0035022043 0.071471944 0.055244733 0.005472217 0.30200258
-0.121758364 -0.28991473 -0.014644586 0.032478247 -0.022112042 -0.00057067216 0.015481794 -0.0140447095
0.07063703 -0.20576026 0.141964 0.040812146 0.097167365 0.028549084 0.03331303 0.050606854
0.036298603 0.029293682 0.20263451 0.18049073 -0.0317077 -0.16235863 0.09640228 0.06536023
-0.10536952 -0.29488286 -0.17238043 0.08689908 0.10037433 -0.38236544 0.107161276 0.012656212
-0.028267918 -0.024416305 0.17842574 0.07460851 -0.06776061 0.15119031 0.11247451 0.07153198
-0.05845698 -0.032427568 -0.121032625 0.084487624 -0.2224979 0.12837414 -0.064104244 0.019933866
0.0035833183 0.2145888 -0.019318115 0.07946951 0.15939806 0.16222376 0.06447105 -0.0024148158
0.13584973 -0.115600675 0.21195665 -0.012569123 0.1205005 -0.11819085 0.07481867 -0.02026652
0.01989967 -0.09088641 -0.1399538 0.020800363 -0.045189627 0.098655015 -0.049931236 0.07615481
0.19353817 0.2264825 -0.09450394 0.13636672 0.058940653 0.2364321 0.22467567 -0.18399654
0.105960734 -0.1501805 0.16715392 -0.14576088 -0.06809888 -0.043128964 -0.28657445 -0.04129891
-0.21834113 -0.17265917 -0.1356402 0.10383311 -0.18407865 -0.13300657 0.16900942 0.047922138
0.13766639 0.07853987 -0.21136253 -0.18041204 -0.08283259 -0.051827252 0.12617613 -0.012751349
-0.17531326 0.17853741 0.030037876 -0.31477064 0.087116085 0.16503504 -0.0058634547 -0.093025185
-0.27976963 0.082061455 -0.045918353 -0.029230077 0.0550862 -0.06843611 -0.09501514 0.013826565
-0.15903698 -0.15797642 -0.027057573 0.09745738 -0.05927982 -0.027237894 -0.19119981 0.16325414
-0.06701052 -0.12038516 -0.042524643 -0.08380507 -0.2092882 -0.060857385 -0.01922798 -0.09818209
0.022206724 -0.15273857 -0.13533062 0.061109103 0.025642727 0.14316165 0.03225344 -0.12710577
0.35475078 -0.0065370766 0.04637234 0.08449386 -0.23711239 -0.09365901 0.057311498 0.096033275
-0.020557567 -0.023789274 0.14606714 0.04648003 -0.09834258 -0.028735828 -0.015205755 -0.19710314
-0.07948669 -0.05603197 0.3588622 0.12855038 0.038288377 0.07182154 -0.16752131 0.01118991
-0.23344466 0.09893126 -0.16443871 -0.2715214 0.2388434 0.112528205 -0.22594087 -0.16244301
-0.12940647 -0.2068371 0.18445598 -0.19977829 -0.1424624 0.06038971 0.02383368 0.09546741
-0.06754555 0.07291273 0.20278971 0.047646817 0.07777716 0.0054672766 -0.08161125 -0.024197767
-0.0061751315 -0.2281519 -0.19071522 0.045081154 -0.1898008 -0.01693648 0.21561581 0.13239923
0.07477209 -0.038230874 0.10485539 -0.13567416 0.09946215 0.26739764 0.108548194 0.04018552
0.17011392 0.021845773 -0.14358015 0.09708428 0.11460851 -0.15500867 0.15773232 0.100875214
-0.13319525 0.15907276 -0.16574514 0.12498296 -0.1757271 0.120411016 0.0187936 -0.23634234
0.033759203 0.25315678 0.04762088 0.0063816397 0.034922034 -0.02586385 0.009656301 0.28058845
-0.19566512 -0.03547495 -0.091931865 -0.11249361 0.086461805 -0.0007973917 -0.055421334 -0.06859705

bias f4 [128]
00000000: 2d05 00be ea98 33be bb30 883d 8c86 d93d
00000010: 4547 6c3c cf50 2b3d 91e2 42be 02f2 a7bd
00000020: 6d69 19be ba2b 3fbe 3448 203e 8121 7e3d
00000030: 90e2 9fbd 1d81 07bd 4d9c 92bd 3887 54be
00000040: e1ce af3c 8dcf 1d3b 58a1 34be 9d5f aa3c
00000050: e315 4abc 45c8 06bd 4b4d 983d 6c75 cabd
00000060: f5a8 32bd c5a1 dcbd cffb 2fbe bfff 053e
00000070: 03e6 3abe 80d3 06be d468 723d 0559 acbd
00000080: 7ce7 f8bd 7c33 f9bd af86 debc 785d 3cbe
00000090: 8901 4bbe 1331 b6bc 2d15 8a3d cd82 ac3d
000000a0: 4506 413d 75b8 2c3e 57d0 343c ed8e c43d
000000b0: e355 7e3c 5f19 2bbe e715 3ebe 4b0c 053e
000000c0: 8849 21be bd78 1b3d 77b9 873c f2af 2bbd
000000d0: 454a 73bd cc9b 3b3d 4081 bf3d 5752 41bd
000000e0: 07f2 d0bd b25c c1b9 c83a 09be d1d5 9c3b
000000f0: 7ce4 76be 1c02 2fbd 532e 263e acf1 963c
00000100: 83b9 8e3d 8d47 19bd 3fe5 c33d 6e8e 713d
00000110: 13a7 b23d 4aa1 623d 3f7e 833d 6307 863d
00000120: ff7d 04be 02b9 eabd beda 853d c90e 0e3e
00000130: 0776 b1ba 1e30 18be 37b7 03be 355a 643b
00000140: 4876 813d b597 9b3b 27c5 c1bd 5558 c2bc
00000150: 9a22 80bd e8ad 3bbe 8fa0 1abe 051a 9b3d
00000160: c9c4 06be 5c92 013e 0ef1 65bd 2b29 c7bd
00000170: 26fe 0a3d 459e 62bd ee96 3dbe d325 17be
00000180: b877 173d cabb e5bc 6267 28be 02c5 b2bd
00000190: efac 563d 51ac 47bd 871f 36bd cf9b e4bc
000001a0: 107c 01be 76ca e73b d2e9 15be 1e4e 993c
000001b0: 499e 763d b90a c0bd 4879 ecbd 2fcf 9dbd
000001c0: 3d62 12be ce16 52be 908c 0cbd 32ae 203d
000001d0: 19e8 0ebd 7794 123d 9d6e 16be db1b 9bbd
000001e0: b878 dfbd 1b21 78bd a071 683d 0a67 583a
000001f0: 038f 0bbe 3be6 68bd 7776 433d 768c 40be
-0.12501974 -0.17538801 0.066499196 0.10621366 0.014421289 0.041825112 -0.1903174 -0.08200456
-0.14981623 -0.18669024 0.15652543 0.06204367 -0.07806885 -0.033082116 -0.07158718 -0.20754707
0.021460952 0.0024080009 -0.17639673 0.020797545 -0.01233432 -0.032905836 0.074366175 -0.09885678
-0.04361816 -0.107730426 -0.17185901 0.1308584 -0.18251805 -0.13166618 0.059182003 -0.08415417
-0.12153527 -0.12168023 -0.027163832 -0.1839503 -0.19824804 -0.022240197 0.0674232 0.08423386
0.04712512 0.1686724 0.011036 0.095975734 0.015523407 -0.16708897 -0.18563043 0.1299297
-0.15750706 0.037956942 0.016567929 -0.04191584 -0.059397 0.045802876 0.09350824 -0.047197666
-0.10202413 -0.00036880892 -0.1340133 0.004786231 -0.24110597 -0.04272662 0.16228609 0.018425785
0.06968977 -0.03742175 0.095652096 0.058973722 0.08723273 0.0553296 0.06420564 0.06544378
-0.12938689 -0.11461069 0.065358624 0.13872828 -0.0013539203 -0.14862105 -0.1286286 0.0034843807
0.063213885 0.0047483095 -0.09461432 -0.02372376 -0.062566 -0.18328059 -0.1510031 0.07573322
-0.13161005 0.12653488 -0.05613809 -0.09724649 0.03393378 -0.05532672 -0.18514606 -0.14760523
0.036979407 -0.028043646 -0.16445687 -0.087289825 0.052411016 -0.048748318 -0.04446366 -0.027906327
-0.12644982 0.007073696 -0.14639977 0.018714007 0.060209546 -0.09377045 -0.1154657 -0.07705533
-0.14295287 -0.20516512 -0.03431374 0.039228626 -0.034889314 0.03578612 -0.14690633 -0.075736724
-0.10911697 -0.060578447 0.056748986 0.00082551 -0.13628773 -0.05686019 0.0477204 -0.18803582

weight f4 [128, 128]
00000000: 006c 663d 6c71 353e 8abc 6fbe e1e1 e93c
00000010: a314 5d3d 0d6d 8cbc 4457 a0be 4fec 133d
00000020: 44b7 6bbe e8e3 74bd 6dc2 a0bc 1fbd 213e
00000030: d202 c0bc faa0 2bbd 4acc 77bd f45e e6bd
00000040: fc54 ffbd cfed 7ebe 39d5 153d dc88 1ebe
00000050: f769 0a3c 848a 97bd ec77 4ebe 40ae b8bd
00000060: 1bfa 853c 3ae1 b4bd 54dd 49bd 5985 52be
00000070: ba24 93be 940c 063d 0049 4fbc fea5 85bd
00000080: 967c 3e3d 4a2e 92be 9546 d1bd 74fa 453e
00000090: ee41 afb9 2955 0abe 77ea 45bd bf0c 303d
000000a0: 083b f4bd ec12 c4bc f1b9 003e b15d 61bd
000000b0: 8e56 77be 5457 2abb 4849 d53d 5957 ef3c
000000c0: 81b9 a5bd b9fa 103c 1bec 04be ba31 21be
000000d0: 0a9f bebd 9a2d efbd c9fb 78bd 0f82 4bbd
000000e0: 308f 28bc 66be 68bd c5bc 893e 4a28 41ba
000000f0: 6c18 433e 21f1 a6bd 7062 fe3d ed59 99bd
00000100: dbd7 11be 937e 643e 5840 5b3d a83e a13d
00000110: 3dd2 57be cfd6 05bd 8d98 c2bd 1d2d f7bd
00000120: f2cd 74bc fda4 8bbd d134 18bd b581 f4bc
00000130: 96b5 083e 6021 92be 2ce2 11bc 12e0 3a3d
00000140: 23bc 07bc bd7b 85be 65f4 47bd 6c85 f93d
00000150: 4422 fe3c 20f7 19bd 8ffc 3dbd 26b3 6bbd
00000160: 4a3b ab3d c559 403d 1e16 873d 2129 d43c
00000170: a2d9 b7bd 75d6 94bd 74a2 2bbd 7252 a8bd
00000180: 6f73 143d 423d 7fbc 7cd2 19bd 6684 f4bc
00000190: 9169 c5bc fd3b 523e b9a7 693b 1362 c0bd
000001a0: 8acf a6bd f794 5ebd 5d18 1a3d 9162 cd3d
000001b0: 617f b0bd e42d 9a3d df6a 233e 118b 603b
000001c0: 1192 58be 5765 433d 03ff 2cbc ddf0 15be
000001d0: 29e1 0ebd 670f aabd eed0 983a ce97 6b3c
000001e0: 1e4f 763d 94eb c03d 07b4 703d f71c 06bd
000001f0: 2e61 99bd 6d90 79bc 57c3 22bc b8ea adbd
00000200: 606a b93b d856 21be 3acb 343e 1a24 41be
00000210: 1a43 46be f865 4abe 3594 4d3c a21e 8e3d
00000220: 429b 1c3e bce4 073e d36c 11be 669f 78be
00000230: 4296 323e 4702 43be 7626 973d a2c0 8dbd
00000240: 40c7 a83d fc9e b2bd 36a2 52bd 41ad 4a3d
00000250: c274 0bbe dfb5 933d ca06 1a3d f5ae 233d
00000260: b107 a4bd d3c0 e53c 4179 293d 14ab 50be
00000270: 9d32 64be f5a6 b63d 88c6 febb 0751 92bc
00000280: 8b1a 7dbd 5eba 3a3d fa59 d3bc 852f 373d
00000290: 4f6c f23c d578 87bd 6bec 3dbe 2d12 0b3d
000002a0: 97cc 65bc 9246 09be 40c5 95bd ce06 7dbe
000002b0: 1d74 cebb c76a 973d a8db e23d cfde b2bd
000002c0: dc65 e5bd a3f4 dfbe 061d 0b3e 872a e03d
000002d0: 132d 2b3e f78e 99bc 613a b3bd 3f5c ecbd
000002e0: 8a07 e23c 6a66 8e3d 13ac 61bd b1b4 1bbe
000002f0: b56e 6a3b dd8d 13be 0c4d a7bd d85e 48bc
00000300: 3aca 51be 27da aa3e c73b 2abe 0a25 53be
00000310: 4886 f5bc 76d6 6cbe c4d8 0b3d 4290 59be
00000320: a48c 4a3c 2bb3 823e 2ef2 633e ea90 613d
00000330: d953 72bd 3f97 91be 5f9a 29bd 51f3 8ebd
00000340: 1dd6 cdbd d6c6 963c a246 a0be 816e 78be
00000350: 38b5 443d af30 05bf ebab c1bd 8aad 923d
00000360: 9849 8ebd b52a 92bd 9bb1 42be 2622 153d
00000370: bca0 6bbe c842 623a 3e52 203d 7eee 923d
00000380: 57e7 363d f8f1 a4be 76f8 40bd 7ac6 28bc
00000390: f29f 97b9 824b 093d 35c9 c43b daa4 66bd
000003a0: 6227 643e d07e 8ebd 62b4 bbbd 9cc9 04be
000003b0: 2a16 cdbd b1b8 90bd 9c61 f13c deb4 3f3e
000003c0: 02bf 47bd f8e7 2dbd 282d f9bb f996 f4bd
000003d0: 8b1a a4bc b2b6 ab3d e69f 18bd 115d c8be
000003e0: e195 dcbe 9425 87be c6b3 a83d 24f3 fbbc
000003f0: 6af3 b6be be1b 2fbe a74a 2abc 6c84 0dbe
0.05625534 0.17719048 -0.23411766 0.02855009 0.05397476 -0.017141843 -0.31316578 0.036114033
-0.23019129 -0.05978766 -0.01962396 0.157948 -0.023438845 -0.041901566 -0.06049756 -0.112485796
-0.12467381 -0.24895404 0.036580298 -0.15481895 0.008448116 -0.07399467 -0.20162934 -0.090176105
0.016354611 -0.08832021 -0.04928334 -0.2055868 -0.28738958 0.03272684 -0.012651682 -0.06525801
0.046505533 -0.2855094 -0.102185406 0.19333822 -0.00033427723 -0.13509049 -0.048319306 0.042980906
-0.11925322 -0.023934804 0.12570931 -0.05502099 -0.24154112 -0.0025991993 0.10414368 0.029216455
-0.08092023 0.008848839 -0.12980692 -0.15741625 -0.09307678 -0.1167862 -0.060786996 -0.04968458
-0.010288045 -0.056822203 0.26901832 -0.0007368369 0.19052285 -0.081514604 0.12421119 -0.07487855
-0.14242499 0.22313909 0.05352816 0.07873279 -0.21076293 -0.03267556 -0.09501753 -0.120691516
-0.014941679 -0.068185784 -0.037159745 -0.029847005 0.1335052 -0.28541088 -0.008904021 0.045623846
-0.008284601 -0.26070967 -0.048817057 0.12183651 0.031022198 -0.037589192 -0.046383437 -0.057543896
0.08360918 0.04696061 0.065960154 0.025898518 -0.08977057 -0.07267467 -0.041902974 -0.0821885
0.0362429 -0.01557857 -0.03755425 -0.029848289 -0.02409819 0.20530696 0.003565295 -0.09393706
-0.08145054 -0.054341283 0.03762089 0.10028566 -0.086180456 0.07528284 0.15958737 0.0034262578
-0.2114947 0.047704067 -0.010558846 -0.14642663 -0.0348827 -0.08303719 0.0011658946 0.014379455
0.060134046 0.09419933 0.058765437 -0.032742467 -0.07489239 -0.015232188 -0.009934268 -0.08492035
0.005658433 -0.15755785 0.1765565 -0.18861428 -0.19361535 -0.1976546 0.012547542 0.069394365
0.15293601 0.13270849 -0.1420167 -0.24279556 0.17440131 -0.19043837 0.07380383 -0.069215074
0.08241129 -0.0872173 -0.051424228 0.049481634 -0.13618758 0.072124235 0.03760413 0.039961774
-0.080092795 0.028046047 0.041375402 -0.20377761 -0.22284932 0.08918563 -0.0077751316 -0.017860902
-0.06179289 0.04558789 -0.02579974 0.044723053 0.029592661 -0.06614844 -0.18547218 0.03395288
-0.014025829 -0.13405827 -0.07313013 -0.24709627 -0.006300463 0.07393413 0.11077052 -0.087339036
-0.11201069 -0.4374133 0.1358529 0.109456114 0.16716413 -0.018744929 -0.08751369 -0.11541032
0.027591486 0.06953128 -0.055095743 -0.15205647 0.0035771553 -0.14409585 -0.081689924 -0.012229644
-0.204873 0.33369562 -0.16624366 -0.20619598 -0.029971257 -0.23128685 0.03414227 -0.21246436
0.012362633 0.2552732 0.22260353 0.05506984 -0.059161995 -0.28435704 -0.041406985 -0.06980003
-0.100506045 0.01840536 -0.3130389 -0.24260904 0.048024386 -0.5202741 -0.09456619 0.07162006
-0.06947631 -0.07137052 -0.19013064 0.03640952 -0.23010534 0.0008631167 0.039140932 0.07174395
0.044654217 -0.32215858 -0.04711195 -0.010301227 -0.00028920133 0.033519275 0.006005431 -0.05630956
0.22280648 -0.06957781 -0.09165265 -0.12967533 -0.10013993 -0.07066477 0.02946549 0.18721339
-0.048766144 -0.04245755 -0.00760426 -0.11942858 -0.020032188 0.08384456 -0.037261866 -0.39133504
-0.430831 -0.26395857 0.08237414 -0.030755587 -0.35732585 -0.17100427 -0.010393775 -0.13820046

bias f4 [128]
00000000: e602 923d 2386 603d 305b 1c3d 3239 73bd
00000010: c147 aebd 72e9 16be 4671 e73d 07e3 84bd
00000020: 03e8 babd 512e 18be 1db2 84bd 9460 ebbd
00000030: 393f d03b cf7a c33d bbd1 863c 9be2 31bd
00000040: 5eeb 613d 569c 083e d7b0 00be a540 28be
00000050: 1aa5 2d3d 9f7e c7bd 5485 bdbd ed6d 2dbe
00000060: fdad d6bc fa6d dcbd b4c6 e53d b730 063e
00000070: 488e 9abd 8f27 37bd be30 b5bd 27cb 03be
00000080: ae4e 85bd c06c b9bc 4ba1 40be 2f6b b73d
00000090: 4a58 5cbd 160b bfbd acd1 21bd 6d27 e2bd
000000a0: 8944 0bbe 9ad0 d7bd d021 4f3d 25a5 09be
000000b0: d49b 76bd 755b 983c 25ab 633d 15bd 88bd
000000c0: 43c2 0f3d 3bc5 05be 1d64 8c3d dc32 e9bd
000000d0: 4030 373d 2007 a63c 9278 16be 04f8 11bc
000000e0: 3654 903d 70a1 ccbd 7424 523c 4a15 dfbd
000000f0: 4a9c f0bb 083e 02bb a047 90bd 5cd2 7dbd
00000100: 64bc 8b3d 84e9 62bd 2511 643d 114a 283e
00000110: 2200 bebd 38d2 fcbd 1663 c83d 8038 103e
00000120: 7b68 8d3d 22ca dcbd e5d3 20bd a3c3 bfbc
00000130: 4286 163e 6491 923d d599 c23c b05f 54bd
00000140: f05a 03be bf84 edbd d82c 7dbd af62 cbbd
00000150: 6968 b6bd 92ed bcbd 6c8c 2e3d 3dfb 10bd
00000160: 64e4 47bc 0681 74bd 680c 143e 6201 adbd
00000170: f0e5 88bd ed94 2f3d 34b9 c0bd f9db 593e
00000180: c99e 95bd 8b9b 15bd d48d 80bd d885 dc3c
00000190: d7c8 b7bd 9922 fe3d bcb9 d3bd f64f 49bd
000001a0: b558 a33c 29ca acbd 9197 b6bd 9f47 cabd
000001b0: 81ea 383e 48a4 c4bd 2362 2a3e e84b 393e
000001c0: 80c8 6f3d cf38 df3d bfc0 003e 06b2 ba3d
000001d0: 86fd 093d 40d1 dc3d a507 9abd f03e 06be
000001e0: d916 083e df07 72bd 6fc2 0a3e 90aa f7bc
000001f0: 7fec 133e 3abe b5bd bfcf bf3d e105 5bbb
0.07129459 0.054815423 0.0381729 -0.059380718 -0.0850978 -0.1473749 0.11300902 -0.064886145
-0.09126284 -0.14861418 -0.06479285 -0.1149303 0.006355193 0.09544908 0.01645743 -0.043429
0.055156104 0.13340887 -0.12567459 -0.1643091 0.04239378 -0.09740948 -0.09253946 -0.16936465
-0.026206011 -0.10763164 0.1121954 0.1310452 -0.07546669 -0.04471546 -0.088471875 -0.12870465
-0.065091476 -0.022634864 -0.18811528 0.089559905 -0.053795137 -0.09328286 -0.0395066 -0.11042676
-0.13600363 -0.105378345 0.050569355 -0.13441904 -0.060207203 0.018598298 0.055583138 -0.066766895
0.03509737 -0.13063519 0.068550326 -0.11386654 0.04472375 0.02026707 -0.14694431 -0.008909229
0.07047312 -0.09991729 0.012826074 -0.108927324 -0.00734285 -0.00198734 -0.070449114 -0.061968192
0.06823042 -0.05539848 0.055680413 0.16434504 -0.09277369 -0.123447835 0.09784524 0.14084053
0.06904694 -0.10780741 -0.03926458 -0.023408717 0.14699653 0.07156637 0.023754993 -0.051849067
-0.12827659 -0.11597585 -0.061810344 -0.09930932 -0.089066334 -0.092250004 0.042614385 -0.03539585
-0.012200449 -0.05969336 0.14457858 -0.084475294 -0.06684482 0.042866636 -0.09410325 0.21275319
-0.073056765 -0.03652529 -0.062770516 0.02691929 -0.08973854 0.12408943 -0.103381604 -0.049148522
0.01993976 -0.084369965 -0.08915628 -0.09876942 0.18058206 -0.09601647 0.16638999 0.18095362
0.05854082 0.10899507 0.12573527 0.091159865 0.033689044 0.10782099 -0.07520989 -0.13109946
0.13289966 -0.059089538 0.13550733 -0.030232698 0.14445685 -0.088741735 0.09365796 -0.0033420252
