nerf_models/fox_check2.pth (torch, 647458 bytes, 22 tensors)

weight f4 [128, 63]
00000000: 35e9 24bd 2c53 44bd 49db 82bd e6d4 0e3d
00000010: c51a d5bd caf5 aabc a282 fabd 017b 63bd
00000020: 1052 cc3c 8c05 d13b 1d9f e6bb bcec 6c3b
00000030: 6962 74be e52b 5ebe 8e6d 033e 2a1a 63bd
00000040: 3a6d 523e 6474 b1bc 90b2 d53c ddc4 afbd
00000050: e708 623e 842f 1ebe 1524 05be 1086 48be
00000060: ebdd 75be 3d68 07be fe95 82bd 1911 18bc
00000070: 3c5a 46be 6245 82be ee70 d3be ef71 f5be
00000080: 4989 413e abce eabb dc0b d93d 42df b23c
00000090: 348f a73d e2ad 2bbe b01b 843e e437 a4bd
000000a0: da46 14be d1a1 f03d 26d2 c8bc 86b9 1ebc
000000b0: a803 073e d0a1 be3c 8ba8 3c3c 5bf1 f5bc
000000c0: e600 003d de9b 343d a6f8 3cbb c378 fc3a
000000d0: 5c5c e3bc e24b 853d cfe2 493d c391 99bb
000000e0: 920d bcbc a0ef 4d3a 3de8 6c3d 8b1f 363c
000000f0: 923c 253d ad58 0abd 0884 b9bc f5ca 10bd
00000100: f515 09bd 3b87 07be fd75 66be 08f1 aebe
00000110: a76c efbd 0745 843c 445b 41be 8504 42bd
00000120: fcbb a0bd 376a f03d 93a2 78be 264a 05be
00000130: cce5 15be e83e b9be 1eb8 52be fddd b73b
00000140: fcf4 2d3d a6e4 573c f8b0 04be 93f2 2abe
00000150: 4597 693d 837f 42be 1fff 573d baac a63d
00000160: 7023 a83e a32b 0e3e ee02 73be 0f46 2bbe
00000170: 5e39 5c3e ea5b 063f d5b0 f73e 1264 763e
00000180: 64d1 463d 0604 45bd b3c4 21bc a9f0 a23e
00000190: e902 1b3e 9e7f eebc e4f1 d83d daf6 b53d
000001a0: 6624 d2bc 9c09 d1bb b1d2 41bc a19c a6ba
000001b0: a154 afbb 446c cbbd 95b2 743c d597 a53c
000001c0: 34b9 27bd 9221 1ebd 430e 4abd 2fc4 143d
000001d0: 0bd9 903c 2708 553a b7d5 2f3d 31f6 d2bb
000001e0: 1c4a 6e3c c568 8f3c 2d4f 6c3b e055 7e3c
000001f0: b180 783c f239 bab9 dd19 b5bd 21dc 553d
00000200: f7d4 e3bc c857 383e df06 743d e3cd 95be
00000210: afa9 34bd fc1f c43d c8ca 98bd 39cf a9bb
00000220: ea1f 933e b6e9 06be 2502 68bc 2685 fd3c
00000230: 5441 6b3d 7302 543e 7ecb 093f 2baa 05be
00000240: 972a e83d c46f 0e3e 2135 4f3d 7a4c f63d
00000250: 67f9 083e 202f 00be fb34 113c 0002 f83d
00000260: c62c 0c3e c9b7 343e 1869 71be 7dfc 6fbe
00000270: 7817 00bf 736f c73d 7cd9 adbd 3bd4 d9be
00000280: c9f7 3c3e 3c47 153e c501 10be 2dc6 e43d
00000290: 79a8 123d 9430 31bb 9cec f43c 142c d43d
000002a0: 860e f23d 172d d43c eb95 9e3d aa22 c93c
000002b0: 81c8 0d3d 59d4 3bbd 35db 643a 5558 9ebc
000002c0: 69d9 f8bc ba98 30bd 81ac 543b c455 b1bc
000002d0: cea6 a83b 8ceb 713c 039e 2abc baf8 ea3c
000002e0: 7a28 c1bc affe b9bc 88b1 fe3c 22a0 fb3b
000002f0: 8d0c 3fbc 35db 86bd 8899 06be 841c 7cbe
00000300: 0d34 733c 2617 c8bc 5fbb 97be 66d0 2f3d
00000310: 35df 0bbe ca50 a4bc 82a3 413e 1336 983e
00000320: 7e9e 7fbe 200d 7dbc 0d14 1abe 666d 6abe
00000330: 07b9 023d 25d8 463e 1ba5 d73e 33b9 97bd
00000340: d06d b8bd 5a9f 48be 4f55 2b3e 7cf9 b6be
00000350: 59bc da3d 503b 01be 798d 543e ec85 a3bb
00000360: 22cd 54bb f872 70bd 507f 123d 1484 d03e
00000370: 0d6d 7b3e 58eb 5ebc 30be 71be 646b 193c
00000380: 98a8 753c 413a b33e b6dd 7b3e 11a5 363e
00000390: 3368 5dbd 7e6a 463c f42f 8bbd 02a3 e13d
000003a0: ce41 cebb ba95 a53c 0497 d9ba 2d23 743d
000003b0: f4fe bf3c 9ddb 24bd 9b91 f0bc cdb8 6bbd
000003c0: 0046 23bd 3a6f 0fbd ca72 5dbd 4cf4 cdbc
000003d0: 55ce 893c 623c 77bd 1b62 f8bc 2535 edbb
000003e0: cb62 d7bc f2a0 033d cd57 e3bc a189 c73c
000003f0: 22b3 d53c eb65 933e 067b abbd 48cc 1abe
-0.040261466 -0.04793088 -0.063894816 0.034871005 -0.104054965 -0.020869154 -0.122319475 -0.055537228
0.024941474 0.006378835 -0.0070380107 0.0036151847 -0.23865665 -0.21696432 0.1283476 -0.055444874
0.20549479 -0.021661945 0.026086122 -0.085824706 0.22073708 -0.15447813 -0.13002045 -0.19582391
-0.24010436 -0.13223357 -0.06376265 -0.00928142 -0.19370359 -0.2544356 -0.41297096 -0.47938487
0.18900026 -0.00716575 0.10597965 0.021834973 0.08181611 -0.1676555 0.25802374 -0.08018473
-0.14480153 0.11749614 -0.02451427 -0.009687787 0.13184988 0.023270518 0.011514793 -0.030022314
0.031250857 0.04409396 -0.002883473 0.0019262064 -0.027754001 0.06508614 0.049288567 -0.0046865656
-0.02295569 0.00078558363 0.057838667 0.011115919 0.040340967 -0.033775974 -0.022645965 -0.035349805
-0.033468205 -0.1323518 -0.22505946 -0.34168267 -0.11690646 0.016146196 -0.18882471 -0.04736759
-0.07848355 0.11739009 -0.24280767 -0.13016567 -0.14638442 -0.36180806 -0.20578048 0.00561118
0.042469963 0.013177073 -0.12958133 -0.16694097 0.057029027 -0.18993954 0.052733537 0.08138414
0.32839537 0.13883834 -0.23731586 -0.16725944 0.21506259 0.52484 0.483771 0.24061611
0.048539534 -0.04809954 -0.009873557 0.31824234 0.15137829 -0.029113587 0.10593012 0.08884974
-0.025652122 -0.0063793194 -0.011830018 -0.0012711474 -0.0053506647 -0.099327594 0.014935155 0.020214
-0.040948108 -0.038606234 -0.049330007 0.036319908 0.01768162 0.000812652 0.042928424 -0.0064380397
0.014544036 0.017506013 0.0036057935 0.015523404 0.015167401 -0.00035519857 -0.08842824 0.052211884
-0.02781151 0.18002236 0.059576865 -0.29258642 -0.044107135 0.09576413 -0.074605525 -0.0051821736
0.28735286 -0.13175091 -0.014160668 0.03094728 0.05743535 0.2070406 0.5382613 -0.13053195
0.11336248 0.13909823 0.050587777 0.120263055 0.1337639 -0.12517977 0.008862729 0.121097565
0.13688955 0.17648233 -0.23575246 -0.2343616 -0.5003581 0.09738054 -0.084887475 -0.42544731
0.18453898 0.14577955 -0.14063175 0.111706115 0.0358052 -0.0027037011 0.02989798 0.1035997
0.118191764 0.025900407 0.07743438 0.024552662 0.034615044 -0.045856807 0.0008730174 -0.01932923
-0.030377107 -0.0431144 0.0032451453 -0.021647342 0.005146838 0.014765631 -0.0104136495 0.028683055
-0.023578871 -0.02270445 0.031090513 0.0076790014 -0.011660707 -0.06584779 -0.13144505 -0.24620253
0.014843953 -0.0244251 -0.2963514 0.042923354 -0.13659365 -0.020058054 0.1891003 0.29728755
-0.24962804 -0.015445024 -0.15046711 -0.22893295 0.031914737 0.1941839 0.42118153 -0.07408371
-0.0900532 -0.19592038 0.16731761 -0.35737216 0.10680456 -0.12620282 0.20757093 -0.00499033
-0.0032470901 -0.058703393 0.035765946 0.40725768 0.24553318 -0.013605915 -0.23607707 0.009363983
0.014993809 0.35005382 0.24596295 0.17836405 -0.05405445 0.012110351 -0.06796256 0.110174194
-0.0062944656 0.020212997 -0.0016600792 0.05960386 0.023437 -0.040248502 -0.029366305 -0.057549287
-0.03986168 -0.035018183 -0.05406455 -0.025140904 0.01682202 -0.06036032 -0.030320218 -0.0072390013
-0.026292225 0.03213591 -0.027751828 0.024357619 0.026086394 0.28788695 -0.08373074 -0.1511699

bias f4 [128]
00000000: 6a0d 03be 4da9 193c 715e 75bd b7f4 963c
00000010: 1d07 9b3c 6707 febd a769 09be d6a5 01bd
00000020: c737 cdbd 0419 23be 8297 213b 42b3 fabd
00000030: 4b31 38be 23e0 103e 1ef4 aabd bd8c 21bd
00000040: 5bcf ab3c 0dcf 1abe 7d99 e7bd 6a21 1cbe
00000050: 30d4 07be dbb1 a4bd 48d0 04be 6feb 4bbc
00000060: c5a9 fabd 3c4d 223c 4de6 3bbe 44a5 90bd
00000070: e424 c03d f42a ca3d 31cf 41be 275e ffbd
00000080: c2df 283c 8c8d 473d 8925 08be 403b 84bd
00000090: 8394 4f3d 4503 8ebd fedf 843c f864 4bbe
000000a0: 3a91 693d 0598 3dbe a0cf 9f3d ef24 73bd
000000b0: e280 013e e478 47bd 7944 d53d 0748 11be
000000c0: 4866 0bbe 3561 67bd 76b7 c7bd 4233 bdbb
000000d0: eec0 7abd 805d febd 761b 92bc b397 b4bd
000000e0: 6c93 48be 1c7e 9bbd 9a57 5abd 00aa 023e
000000f0: ec40 59bd c30d 863d dd74 b2bd 8e24 c23d
00000100: 079c adbc fc69 1fbd 3bf7 ac3c 2628 16be
00000110: 7a42 2bbe 7736 883d 34fc abbd 477a cf3c
00000120: 340f 39be cce5 46bd c0ec a8bc 5306 913c
00000130: 8805 3abe 38ff 17bd aa56 a63d ad26 2c3e
00000140: 5524 d438 67f7 b7bd f3f4 b7bd 9bb7 723c
00000150: e819 a3bc b453 0fbd c45b 66bd bcbb 0f3d
00000160: 8092 1abe 4ae1 19be 0c2c 31bd 3233 e63c
00000170: 465f e9bd 244e a3bc da45 3a3d f820 e13c
00000180: 40d1 1ebc 11e2 f33d af81 17bd b079 acbd
00000190: 6776 4ebd 0fb0 e3bd 1b73 79be b0c3 08be
000001a0: fbd8 03be 3a68 c4bc 702e c43d ab16 a93d
000001b0: 7def 383b 9f97 02be 9b5d 983d b2dd 113e
000001c0: 6a9c 863d a38d 09bd 7767 df3d aeea 8d3d
000001d0: a1e5 a9bc d786 41bd 675e 99bd 0318 c93c
000001e0: 50b1 6ebc 1cd9 9b3d 7b97 c6bd f1ad 20be
000001f0: e5a6 aebd 6a18 8d3c 1f83 2dbd bd1b a4bd
-0.12798086 0.009378743 -0.05990452 0.018427236 0.01892429 -0.12403756 -0.1341921 -0.031652294
-0.10020404 -0.15927511 0.0024656956 -0.12241222 -0.17987554 0.14148001 -0.08347343 -0.03944086
0.020972898 -0.15118046 -0.113085724 -0.15247121 -0.13264537 -0.08041736 -0.12970078 -0.012446268
-0.12239412 0.009906109 -0.18349572 -0.07062772 0.09382036 0.09871474 -0.18926693 -0.1246913
0.010307254 0.048718974 -0.13295569 -0.064566135 0.05067874 -0.06934217 0.016220089 -0.19862735
0.057023264 -0.18515022 0.07803273 -0.059361394 0.12646821 -0.048699275 0.10413451 -0.14187633
-0.13613236 -0.05648919 -0.09751789 -0.0057739327 -0.06121915 -0.124201775 -0.01783536 -0.08817997
-0.19587487 -0.07592413 -0.0533062 0.12760162 -0.05304043 0.065455936 -0.08713696 0.094796285
-0.021192564 -0.038919434 0.021113982 -0.14663753 -0.16724578 0.06651013 -0.08397713 0.025326861
-0.18072206 -0.048558995 -0.020620704 0.017703211 -0.18166173 -0.03710863 0.081219986 0.16811629
0.00010115715 -0.08982735 -0.08982267 0.014814283 -0.019909814 -0.034991935 -0.05623986 0.035091147
-0.15094948 -0.15027347 -0.043254897 0.028100584 -0.11395125 -0.019934721 0.045476772 0.027481541
-0.009693444 0.11908353 -0.03698891 -0.084216475 -0.050405886 -0.11117565 -0.24360316 -0.13355899
-0.1287574 -0.02397548 0.0957917 0.08256277 0.0028218918 -0.12753151 0.07439729 0.14244726
0.06572802 -0.03358234 0.10908406 0.06929527 -0.020739378 -0.047247734 -0.07488709 0.024547582
-0.014568642 0.0760977 -0.09696861 -0.15691353 -0.08527926 0.017223556 -0.042361375 -0.08013103

weight f4 [128, 128]
00000000: 8c8c e0bc 2cd1 e83c 704d d2bd 3142 c6bd
00000010: 5f7a 103e 311e 57bd 3282 b6bd ebbf a3be
00000020: fdc6 81be 2b57 2e3e 5721 bdbe 6dc3 f6bd
00000030: 18de 113d 7688 6a3c ef53 1cbe 4a4a d0bc
00000040: c96d 8b3d 3b84 823d d989 acbc e07b 4bbe
00000050: 9f5e e23d e77d 94bd 9b49 56be 6ec5 a43c
00000060: d14b a7bd a9bd 043e a539 a83c 0dd7 1fbd
00000070: a96a 5fbd a8ad cfbd 0b9d b13d e978 b93d
00000080: 1c10 d3bd 596e a3bd 94ed 51bd e555 5ebd
00000090: 4764 a93c 5ac9 b4bd d010 cd3b 07eb 4b3c
000000a0: 034e 77be c9fe 093d ab25 ab3d 810c 5cbe
000000b0: 534b 3c3d 19c0 abbd ace2 0d3e eddf 5d3c
000000c0: c286 263e 8e72 ebbd 1fd9 d0be cf4e 5ebe
000000d0: e661 ac3c 025d 97bd 0940 3bbe 0e07 ba3c
000000e0: e5b2 973d 638e 73be 6465 ab3c 1b02 4dbe
000000f0: e824 043e b4ae 523e 2ed1 493c f4cb 6b3d
00000100: a7e7 b7be 786b a93d d634 533d 69bb 82bc
00000110: 34be 0a3e 27f1 033d f093 3d3d 591a 5dbe
00000120: d81e c6bd bad1 253d 0f09 e1be c81d 113e
00000130: ce95 15bd 0b91 07bd be49 0bbd 92e8 2abc
00000140: 3f76 b0bd efcc 023e 0ebd dfbd 5d31 8cbe
00000150: aa16 5a3d 53f0 8cbd 7717 3fbd 65d0 f3bd
00000160: 1d30 0d3d 8239 35bd b09e fc3b 803b 003e
00000170: 9918 c23d ee2c 03bd 12de c5bc 5227 6abe
00000180: 3042 be3d 3456 89be 89d5 cebd 4ce6 bcbd
00000190: f69b 573d 4d40 6bbe 77ce 253d cb16 e13b
000001a0: 5f27 073d 2930 2bbe 2257 423e ad93 f2bd
000001b0: eee4 103e f403 393d ea6f f53d dd7d 68be
000001c0: afd5 0ebe 1bf7 d5bd ccbc f73d 9491 c3bd
000001d0: 8dd9 b7bd add6 f83d 3a23 bbbb bdcc 6e3c
000001e0: 81ee 863d edca 25bc 4c3a 4a3c 4d12 0f3e
000001f0: b2ad e73c 1669 9abe b964 ed3d debd 823d
00000200: 2891 f6bd 9d64 6fbc 50b5 39bd b21f 64be
00000210: d4af f5bd be0b c53b c345 8e3d 0a4e 543d
00000220: b5fc f63c 768e fabd db05 263d fc7c b2be
00000230: 440d abbd 3a17 413d c244 683d b2db 23be
00000240: 8b61 8e3d c2ea 6bbd ddbc 6a3e 2019 003d
00000250: 184e 8d3d e7fc 403e a9e1 d9bb fd18 fbbd
00000260: 359e 25be 222e c3bd b4cd d8bd 7b13 89bd
00000270: e665 ab3d 440e fbbc f393 443d 2d05 41bd
00000280: 4181 6abe 24b6 403d 8e6c 0dbe 60a9 483d
00000290: 61e3 1e3c fa3c 52bb cec4 95bd 07e5 89bd
000002a0: 4ba6 63be 9050 2b3e 8725 903d 5ac6 42be
000002b0: 0b2e 563e 26cd 493d bcfd 6f3d 0857 db3d
000002c0: fcf1 0c3e 896e 383d 454c 1e3e ab41 8a3e
000002d0: fb3e bb3d 2bc8 b7bd 6f65 2a3d 23a5 00be
000002e0: 855f 913d 019d 07be ed27 f53c 61a5 fe3d
000002f0: 30e4 38bd 1a99 a9bd fa5e babc 4c9b 81bd
00000300: e291 693d 28b9 5c3d 6f20 a93d 7d74 67be
00000310: ccbc eebd 34a2 2cbb 386c 81bd 3cd1 e33d
00000320: 9378 90bd df7a 573e 4cbe d1bc a973 64bb
00000330: 0910 503d dd6d 3e3e 8eb1 bc3d 953d 183d
00000340: 3102 ee3d c3bf 89be 8689 77bd f040 9e3d
00000350: 8d61 063e 8ffd d0bd 9301 4f3d 42fa 35be
00000360: d342 2bbe a429 6f3e d6dd c03d 275d 123e
00000370: 0beb 08bd 8c02 23bd f0f2 743d 201e 2abe
00000380: b6cf c8bc c767 263e e778 6dbe 8a0b b33d
00000390: 13db 03bc d474 dabb 2748 dd3d 6ee7 38bd
000003a0: 3519 89be f02a 35be 0fe3 843d 777b ddbc
000003b0: 9781 c2bc 2412 b1bd 49bb 01bd cb48 0c3e
000003c0: d09f 913d 6fd9 4bbd 5a2d 4e3d 94a7 2bbd
000003d0: 927c 33bd 3391 acbd 2cf7 963d 7ef3 8bbe
000003e0: 63b7 25be 49de aa3e e395 8e3d bd4c 2cbe
000003f0: edca 46be b525 0abe 0944 4fbc a265 96be
-0.027410768 0.028420053 -0.10268676 -0.09680594 0.14109181 -0.052519027 -0.089115515 -0.3198236
-0.2534713 0.1702544 -0.369395 -0.12048993 0.035612196 0.014314761 -0.15266393 -0.025426049
0.06808049 0.06372877 -0.021061825 -0.19871473 0.11053204 -0.072505765 -0.20926516 0.020113673
-0.08168758 0.12962975 0.0205353 -0.039023448 -0.05454508 -0.10140544 0.08672532 0.09056265
-0.10305807 -0.079800315 -0.051251963 -0.054281134 0.020677699 -0.08827467 0.0062581077 0.012446172
-0.24150853 0.033690248 0.08356794 -0.21489145 0.045970272 -0.08386249 0.13856 0.013542158
0.16262344 -0.11496459 -0.4079065 -0.2170975 0.021042775 -0.07390787 -0.18286146 0.022708442
0.07407168 -0.23784785 0.02092237 -0.20020334 0.12904704 0.20574456 0.012317939 0.05756755
-0.35918924 0.08272451 0.05156406 -0.015958505 0.13549119 0.032212403 0.046283662 -0.21592082
-0.09673852 0.040483214 -0.43952224 0.14171517 -0.036519818 -0.033097308 -0.034005873 -0.010431426
-0.08616304 0.12773488 -0.10924731 -0.2738141 0.05324427 -0.06881776 -0.046653237 -0.119049825
0.034469713 -0.044244297 0.0077093467 0.12522697 0.09477348 -0.03202527 -0.024153743 -0.22866562
0.09289968 -0.2682358 -0.10099322 -0.09223613 0.05263897 -0.22973748 0.040480103 0.006869172
0.03299653 -0.1671759 0.18978551 -0.11844573 0.1414983 0.045169786 0.119842365 -0.22704263
-0.13948701 -0.10447522 0.12096557 -0.09549251 -0.089770414 0.12150321 -0.0057109864 0.014575181
0.0658846 -0.010119182 0.012343001 0.13971825 0.028281067 -0.301583 0.11591477 0.063838705
-0.12039405 -0.01461139 -0.04533893 -0.22277716 -0.11996427 0.0060133627 0.069469 0.051832236
0.030149797 -0.122342035 0.040532928 -0.3486098 -0.083521396 0.04714129 0.056706198 -0.16001776
0.069521986 -0.05759693 0.22923608 0.03127396 0.06899661 0.18846475 -0.0066492152 -0.122606255
-0.16173632 -0.095302835 -0.1058611 -0.06693169 0.08369045 -0.03064645 0.047992658 -0.047124077
-0.22900869 0.047048703 -0.13810942 0.048989654 0.009697766 -0.0032079802 -0.07312928 -0.067331366
-0.22231404 0.16729951 0.07038408 -0.19020978 0.20916001 0.04926791 0.05859159 0.10709959
0.13764185 0.04502729 0.15458782 0.27003226 0.09142872 -0.08973726 0.04160064 -0.12562995
0.07098297 -0.13243486 0.029926265 0.12433887 -0.04513949 -0.08281155 -0.022750366 -0.06328449
0.05702389 0.053887516 0.08258139 -0.2260303 -0.11657104 -0.0026341798 -0.06319469 0.11123893
-0.07054248 0.21042965 -0.025603436 -0.0034858978 0.050796542 0.18596597 0.09213553 0.037168104
0.11621512 -0.26904115 -0.060433887 0.077272296 0.1312315 -0.102046125 0.05053861 -0.17771247
-0.1672471 0.23355728 0.09417312 0.14293347 -0.03342728 -0.03979735 0.059801996 -0.16613054
-0.024513107 0.16250525 -0.23190652 0.08742435 -0.008047837 -0.006666759 0.108047776 -0.045142584
-0.26777044 -0.1769216 0.064886205 -0.027036412 -0.023743434 -0.08646038 -0.03167275 0.13699643
0.0711056 -0.049767908 0.05033622 -0.04190786 -0.04381997 -0.08426132 0.07371363 -0.27334207
-0.16183238 0.33372715 0.069621824 -0.16826148 -0.19413348 -0.13490947 -0.012650498 -0.29374415

bias f4 [128]
00000000: e1aa 08bd 79a1 bc3c 3fcc b3bd 751f c1bd
00000010: 7c19 bfbd ac82 d6bd 58d3 0dbd 8af0 0abe
00000020: ec2e 82bd 9a35 faba 2537 24bd e9a4 a13c
00000030: 3cd6 0f3d 7851 8cbc 90f6 03be 9ef2 13bc
00000040: 802b 9ebd eeaf de3c d6e2 e1bc 509b 57bd
00000050: 1c0f e63c efab 653d dabc e3ba a6bc 18bd
00000060: 1a7a c73d 2fee b7bc 9c96 013e 312d 81bc
00000070: 3273 9cbd 9073 62bd f253 6bbd 2d89 19bc
00000080: f554 e83d 93ed 49be 5da6 94bd f797 193d
00000090: dc05 93bd 0239 bdbd 5584 d3bd 71c8 22bd
000000a0: 8e1d 953d 72a4 d53d 1f8d d9bb 2f31 053d
000000b0: 22ad b1bd 96bf f3bd 3634 bcbd 15a2 d6bd
000000c0: f0d1 0abe 67bb 21bb 305d 05bd 589d 82bb
000000d0: 4dae dabd 2b9b 533d 0843 cdbc 6812 6cbc
000000e0: a2cc ebbd 7712 53bb 3264 a0bc 118a 2a3d
000000f0: 8311 363d a5c2 f2bc 9e28 c6bd 5cc2 75bd
00000100: 78ac 85bd 670d fdbd b2db d0bc 14b6 e4bd
00000110: ea86 6e3c db9c 0dbe 3f67 b8bd f0aa 813c
00000120: b313 b7bc 3683 71bd a0e2 26bd bcec ca3d
00000130: feca 503d e095 23be 62c5 57bd dc1c 67bd
00000140: 6275 abba f959 13bc 182c c13d 9bd3 0fbd
00000150: 98eb 9dbd e9b4 24bc db56 18bd 65c5 4e3c
00000160: cfdd b2bd 6524 033d ea99 07bc 5590 0a3d
00000170: a0ae debd ea4a a7bd 5542 f1bd 16c4 563b
00000180: 6d3e 00be c260 08be 434c ec3c e22a fdbb
00000190: a0a4 2abd 1a74 7abd 47ed d7bc eec2 563d
000001a0: 219d 1f3d e9ba c8bd f344 45bd 9043 0bbd
000001b0: 5fd5 f1bd a313 f0bd bc76 57bd ac6b f0bd
000001c0: 526b 4dbd eff6 8abc 5734 c7bd 199a 83bc
000001d0: 901c ac3c 3e53 03bc f2a2 cfbd 35b7 58bd
000001e0: c0ad bfbc c8a5 9cbd f694 873d 9b09 8bbd
000001f0: b86f ea3c 37f4 593b df06 423c 698d be3d
-0.033366088 0.023026215 -0.08779191 -0.09429828 -0.09331033 -0.104741424 -0.03462538 -0.13568321
-0.06356606 -0.0019089461 -0.040091652 0.019731956 0.03511642 -0.017128691 -0.12887025 -0.009030012
-0.07723141 0.0271835 -0.027573984 -0.052638352 0.028083377 0.05607217 -0.0017375008 -0.037289284
0.09740086 -0.022452442 0.12655109 -0.01576862 -0.07639159 -0.05528599 -0.057453103 -0.009371084
0.11344329 -0.19719534 -0.07258294 0.03749844 -0.07178852 -0.09239389 -0.10327975 -0.039741937
0.07281028 0.10431756 -0.0066391374 0.03251761 -0.086756006 -0.119017765 -0.09189646 -0.104801334
-0.13556647 -0.002467835 -0.032559574 -0.003986042 -0.106777765 0.05166165 -0.025056377 -0.014408685
-0.1151364 -0.003220705 -0.019579027 0.041635577 0.044450294 -0.02963383 -0.09675716 -0.05999981
-0.065270364 -0.12356072 -0.025495384 -0.11167541 0.014558533 -0.13829367 -0.09004068 0.01582858
-0.02234826 -0.058963023 -0.04074347 0.09908435 0.05097484 -0.15975142 -0.052678473 -0.056424007
-0.0013081247 -0.008993619 0.09432238 -0.035113912 -0.077109516 -0.010052898 -0.037192207 0.012620305
-0.08733713 0.03201713 -0.008276442 0.033829052 -0.10873151 -0.081685856 -0.1178023 0.0032770685
-0.12523814 -0.1331816 0.028844958 -0.0077260593 -0.041660905 -0.06114588 -0.02635826 0.052431993
0.03896821 -0.09801275 -0.04816146 -0.03399998 -0.118082754 -0.117224954 -0.05260347 -0.11739287
-0.050151177 -0.01696345 -0.0972678 -0.01606469 0.021009713 -0.008015452 -0.10138501 -0.052909095
-0.02339828 -0.07648808 0.06620209 -0.067889415 0.028617725 0.0033257136 0.0118424585 0.093043156

weight f4 [128, 128]
00000000: 691a cebd 82b5 e9bc a308 afbc cdeb 623c
00000010: f6eb e3bb 28fc 633d 0d4f 143d 0cec 7cbc
00000020: df9a 6dbd b85d 113e 8b9d 04bd d4e1 a13d
00000030: 3760 33bc d14f 333d dbe0 35bd c89f 7abe
00000040: 817e 85bc e4bd 0dbd 0005 c1bd d426 063d
00000050: 80d4 3abd 089c b7bd 17c5 8b3d 8468 d13d
00000060: 5261 4fbe 3ecb a03c 1aa7 22be af9d 34bd
00000070: 0f2c 553d c8e7 bf3b 9f30 b03c 3d16 8e3e
00000080: c8fa 5b3d a38c 28be 26e5 653c 40ed 85bd
00000090: ee29 d0bb 25f3 9ebd 6373 af3d ce11 2fbd
000000a0: 270a 0f3e 6b11 8cbe 6677 84bd c3dc d3bd
000000b0: 63b3 593e 240b 203d 2890 8abd d191 8fbe
000000c0: 4e7a a9bd 8d3e 8abe 6dbe 4bbd 943d 1ebd
000000d0: ec19 753d 38aa 37be 3e27 cd3c da3c 353e
000000e0: 147d 3f3d d18a 2c3b 077d 40bc 1468 33be
000000f0: 49ac 19be 1aff 053e 53f0 9a3d a4c3 8f3c
00000100: 2647 11be 0b5f 053e d20a 3dbc 0972 2abd
00000110: 23c3 ddbc 7bfa 1ebe 5bae dc3e 9e08 083e
00000120: fb5e 6e3d 2650 a2bc 2445 67bd fbac 70bd
00000130: 4ef5 9abd 9fd0 91bd 150a 62be 23c8 283d
00000140: cdac 5dbe 1d93 b53d 24cb 49be 1762 92bd
00000150: 16b2 8f3c 4014 fdbd 7eba 783d b3ac 3abc
00000160: 2d5d 86bd cad4 afbd a467 04bc ca10 8d3d
00000170: 5f1e 8c3c ce6f ae3c 2308 313d 9c11 91bb
00000180: 30b8 6bbd f5cf cb3d 1a2b 81bd cfc8 9bbd
00000190: cbf9 d1bc 04c0 a6bd 59eb 81bd f173 d3bd
000001a0: beea e7bd 5c5e fbbc d35d 633d 28eb 243d
000001b0: ec89 be3c 31c8 beba 6bb2 04bc 5d5b 133d
000001c0: 83f2 fcbc 42dc 82bd ce36 463d da6c cfbd
000001d0: 4744 053d 75d6 38be 0f33 fbbd fc00 0c3d
000001e0: d151 a3bb 4472 483d 43d6 57be ed42 0fbd
000001f0: 2812 cabc fae7 c23d 2868 d33d befc 963c
00000200: e47c acbd 0631 c3be ebdd f63d 3128 7dbe
00000210: e0b1 19be 1ecd 423d 3916 adbd 5a82 a53d
00000220: 6d31 1e3d e486 48be 1393 82bd 1aa6 39bd
00000230: c12f acbd a66c 9d3c 98b1 033d c9cd 12be
00000240: 614c e8bc e01e 11be 6d20 83bb 5fce 8a3d
00000250: 1af0 323d cf5b a13d b413 ac3d 6926 693e
00000260: 9562 4b3e fead c5bd bb45 e3bd 2ab6 a33d
00000270: e328 d53b 17a4 ecbd 1b38 5bbd 42d7 91bd
00000280: 8dba c53a 65a1 a8bd 44eb 1d3e 1db6 783d
00000290: e885 db3c 3867 f3bd d01b 3d3e 90e5 cd3d
000002a0: 73c8 07be 5f58 77be f916 a6be cc1c b5be
000002b0: 79e8 9b3d 6110 06bd 2953 a9bd 2d4c 26be
000002c0: c84f 903e 83ed 40be 8beb 34be 78f4 86bc
000002d0: 17bf c93d 3b8c 8a3d 2081 e8bc 9122 a9bd
000002e0: 04a9 5dbd 6eaa 40bb 425a a53d 71ea 593e
000002f0: 716d 443e d3db b23d 28c5 bfbc bfb9 0c3d
00000300: 4348 1abd 89b1 323c 6fc0 32bd 4bab 07bd
00000310: 279d 89be 093e fd3c 1e84 50bd 149f 123d
00000320: 53dd b7bd a854 eabd 41b2 66bd 9f77 333d
00000330: 3cf3 6cbe ee6b 463d 1b16 cfbd 9f24 dd3d
00000340: 59c9 a03a 28ee 60bd 5aa3 91bd 6209 6bbe
00000350: 0b95 62bd c7b9 20be 6de4 08be 9108 b2be
00000360: c85d 04be 9649 9c3d 7fc7 cbbc e758 88be
00000370: 9f1c 04bd a136 8e3b 7fea 053d cb0c 8fbd
00000380: 0fe9 c5bd 7b3a 71be d8e1 103d bfe0 943e
00000390: add9 093c 9863 53be 125c 17be 2e66 993d
000003a0: 1252 113d 8777 0b3e fb1f 15bf 734c 94bd
000003b0: 5d42 88be 8efa e23c 98c5 493e 926b 19bd
000003c0: 7be7 913e 92f8 02be 3e73 cbbc bf1e 273d
000003d0: da2e fabd c31e 79be 0d30 c3bc 53aa 92bd
000003e0: 2ffe da3d d02f c4bd eba0 50bd 6753 a53d
000003f0: 1679 ab3c 5bfb 0cbe 8d7a 8ebe 054f 333e
-0.10063631 -0.028528932 -0.021366423 0.013850165 -0.006955619 0.055660397 0.0362082 -0.015437137
-0.058009025 0.14195907 -0.032376807 0.079044014 -0.010948232 0.04377729 -0.044403892 -0.24475014
-0.016295673 -0.034604922 -0.09424782 0.032751873 -0.045612812 -0.089653075 0.06824701 0.10225013
-0.20251969 0.019628163 -0.15884057 -0.04409569 0.05204397 0.005856488 0.02150756 0.2775134
0.05370596 -0.16459899 0.014031684 -0.065393925 -0.0063526547 -0.0776122 0.0856693 -0.04274159
0.13968717 -0.2735704 -0.06468086 -0.10344841 0.21259837 0.039073125 -0.06765777 -0.28040937
-0.08275281 -0.27000847 -0.04974215 -0.038632944 0.059839174 -0.17936027 0.025043126 0.17698994
0.046750143 0.0026327858 -0.011748559 -0.17520171 -0.15007128 0.13085595 0.075653695 0.017549343
-0.14187297 0.13024537 -0.011538224 -0.04161266 -0.027070588 -0.15525238 0.43101773 0.13284537
0.05819605 -0.019813608 -0.056462422 -0.058758717 -0.075663194 -0.071198694 -0.22074158 0.04120649
-0.2164795 0.0886595 -0.19706398 -0.071476154 0.017540973 -0.12357378 0.060724728 -0.011393714
-0.065607406 -0.08585508 -0.0080813505 0.06887968 0.017104326 0.021293547 0.04322065 -0.004427148
-0.0575487 0.09951774 -0.06307049 -0.076066606 -0.025631806 -0.08142093 -0.06343717 -0.103248484
-0.113240704 -0.030684642 0.0555094 0.040263325 0.023259126 -0.0014555511 -0.008099179 0.035975803
-0.030877357 -0.06389667 0.04839211 -0.10128184 0.032535817 -0.18050559 -0.12265598 0.034180626
-0.0049841185 0.048937097 -0.21077828 -0.034975935 -0.02466686 0.09516902 0.103226006 0.018431064
-0.084222585 -0.3812334 0.12054046 -0.24722363 -0.1500926 0.047558896 -0.08451504 0.08081503
0.038621355 -0.19582707 -0.063757084 -0.045324422 -0.08407546 0.019216847 0.03215179 -0.14336313
-0.028356733 -0.14171934 -0.004001668 0.067776434 0.04368601 0.07878839 0.084021956 0.22768559
0.19861825 -0.09652327 -0.110972844 0.079937294 0.006505118 -0.11554735 -0.053520303 -0.07121135
0.0015085504 -0.082339086 0.15421778 0.06072055 0.02679725 -0.11884922 0.18467641 0.10053551
-0.13260059 -0.24154805 -0.32439402 -0.35373533 0.076127 -0.032730464 -0.08267815 -0.16239996
0.28185868 -0.18840604 -0.17667978 -0.016473994 0.098509006 0.06765028 -0.028381884 -0.08258546
-0.054116264 -0.002939846 0.08073856 0.21280839 0.19182374 0.087333344 -0.023409441 0.03435683
-0.03766657 0.0109065855 -0.04364055 -0.033122342 -0.2687771 0.03091337 -0.050907247 0.03579624
-0.08977761 -0.11441928 -0.05632234 0.04381525 -0.23139662 0.048442774 -0.10111638 0.107980005
0.0012267038 -0.054914623 -0.07111235 -0.22952798 -0.05531792 -0.15695868 -0.13368388 -0.3477216
-0.129264 0.07631223 -0.0248754 -0.26630327 -0.032253858 0.0043400084 0.032694336 -0.06984862
-0.09663593 -0.23557465 0.03537163 0.29077718 0.008413714 -0.20643461 -0.14781216 0.07490192
0.03547866 0.13619815 -0.58251923 -0.07241144 -0.2661313 0.027707364 0.19704282 -0.037456103
0.28496918 -0.12790135 -0.024835225 0.040800806 -0.122159675 -0.24328141 -0.023826623 -0.07161393
0.10693013 -0.09579432 -0.050934713 0.08072548 0.020931762 -0.1376776 -0.27827874 0.17510612

bias f4 [128]
00000000: 70ef f3bd b447 3b3c 943e f8bd 99ae fbbd
00000010: 93db 0dbd d73f edbd f596 14be 8df3 f9bc
00000020: 19cf 9f3c 8e96 38be bdf9 9cbc d32d d8bd
00000030: e0e3 b1bd f815 933d 99df 95bd a606 f5bc
00000040: 058f c6bd 02ba 4a3d da58 043a 3543 0ebe
00000050: 8b2b f4bd da3a f73a fb82 0ebd 9083 cfbc
00000060: 37ef d8bd 1fc9 c8bd 8741 98bd d4d5 1c3e
00000070: 019c 91bd 05aa cebd 916d b8bd 245c 1c3e
00000080: 6e2d aabc 2a85 c1bd 935c 40be 5c5a 0dbe
00000090: 5352 b5bd f9c4 94bd dcd1 b0bd d075 03bd
000000a0: 6b8c 50bd f59f 0b3e 8da0 4ebe 2945 553d
000000b0: d58f b9bd f800 0ebe 62a8 06bd d9a7 57bd
000000c0: 30e9 0ebe a853 6cbd 7b09 cfbc 0b95 1cbe
000000d0: 5b2f 08bc 70e3 7ebd f9b8 ffbd 4388 1bbe
000000e0: 1ad6 b2bd e4b0 e7bd f649 1cbe 1097 13be
000000f0: 0471 83be 5b8d c63d 84bf 2abe 222f 0d3d
00000100: 4cb1 1dbe f3e3 28be 8092 c0bd f3ee 643d
00000110: 0a24 24be 1640 96bd 2c3c febd a452 12be
00000120: 2bfa f2bd e383 fd3d b1b1 3a3c 524f e7bc
00000130: e5b6 483c f6ee 5bbe 6102 b0bd e05a e3ba
00000140: 1a9a 9f3d 0df6 e23d ed49 34bd 5f77 b7bd
00000150: 3316 a6bd 7f93 813d a8ff 363d 7a67 04be
00000160: de61 c63d 47c7 b63c b5c5 d6bc 3f85 a7bd
00000170: bcd9 09be 136c 343b 7808 b5bd 4fd5 9bbc
00000180: f6e5 7cbd c883 4abe 70cd d7bc 4c4b 03be
00000190: c534 57bd 162b eebd a716 2cbe 3ad2 fabd
000001a0: 6846 893d 4879 46bd 6fc7 973d 1ab4 e0bd
000001b0: bcef 93bd b723 c1bd ffb9 49be 7735 f23c
000001c0: 54df 2abd 1164 0bbd 65c6 92bd 1bdd b8bc
000001d0: 2026 a7bc 41a0 0cbe 3731 fa3b afb0 f2bd
000001e0: bec7 e23c d93b 9c3c b44c b3bd 61ae c3bd
000001f0: 140f c8bd 7108 22bd c8ed 36be 6794 0539
-0.119109035 0.01143067 -0.12121311 -0.12289161 -0.03463323 -0.11584442 -0.1451071 -0.030511642
0.019507932 -0.18026182 -0.019162053 -0.10555615 -0.08686042 0.071819246 -0.073180385 -0.029910397
-0.096952476 0.049493797 0.00050486403 -0.13892825 -0.11922368 0.0018862144 -0.03479288 -0.025331289
-0.105925016 -0.09803986 -0.07434373 0.15315944 -0.071098335 -0.100910224 -0.09005273 0.15269524
-0.020773616 -0.09449227 -0.18785314 -0.13804 -0.08853593 -0.07264132 -0.086337775 -0.032094777
-0.050915163 0.13635238 -0.20178433 0.05206791 -0.09060637 -0.13867557 -0.032875426 -0.052650306
-0.13956141 -0.05769697 -0.025273075 -0.1529123 -0.008312072 -0.06222862 -0.124864526 -0.15188698
-0.08732243 -0.11313036 -0.15262589 -0.14413095 -0.25672162 0.0969493 -0.1667462 0.034468777
-0.15399665 -0.16493206 -0.09402943 0.055891942 -0.16029373 -0.07336442 -0.124138206 -0.14289337
-0.11864122 0.12378671 0.011394904 -0.028236065 0.012250637 -0.21477875 -0.08594204 -0.0017345808
0.077930644 0.11082087 -0.044015814 -0.08958315 -0.08109703 0.06326961 0.044677407 -0.12930098
0.096866354 0.02231182 -0.026217321 -0.081797116 -0.13461965 0.0027530238 -0.08839506 -0.019022612
-0.061742745 -0.19776833 -0.026343077 -0.12821692 -0.05254056 -0.11629312 -0.16805516 -0.12247129
0.06702882 -0.048455507 0.07411086 -0.10971852 -0.0722346 -0.0943064 -0.19699858 0.02956651
-0.04171689 -0.034030978 -0.07166747 -0.022566369 -0.020403922 -0.13733007 0.0076352614 -0.11850106
0.027683135 0.019071506 -0.08754864 -0.095547445 -0.09768501 -0.03955883 -0.17864144 0.00012739153

weight f4 [128, 128]
00000000: dac6 5b3e 943c c5bd bb45 b43c 8104 123e
00000010: 0cab 9ebd 4665 753e ca9f 34bd 3557 813d
00000020: 832c d2bd cbd9 3cbe f81d 11be 07b3 46bd
00000030: 4290 933e cab7 873e c5cf cebd ed97 c23d
00000040: e460 66be aab4 533e 34dc a63c c4ef 03bd
00000050: e06b 0abe fc85 203e 8585 d0bd a421 2cbe
00000060: f145 29bd 33ae 9d3d ceaa 1d3d 6146 64bc
00000070: 74bd d1bd 3113 79bd 4063 1c3e b41a 643d
00000080: 684e a7bb c2ba c53c 9d83 8f3d 8b8c 03be
00000090: b4f8 e83e 003d 563e 1158 44be c5e2 58be
000000a0: c695 45bd 6644 ee3c 11f3 ff3c d298 85be
000000b0: 36c7 35be 44fc 81bd 91ab 363e 7b2e abbd
000000c0: 169c e6be ad4e aebd cb69 1abe 6d5a 263e
000000d0: 3997 c63d 7114 60bd 2355 afbc 06b3 af3b
000000e0: 76dd 54be 68ce ea3d 883e 413d c896 2b3d
000000f0: 5917 ce3d edab a339 a4f3 983d cf21 28be
00000100: 2ac7 c2bc 587d 62bd 32ee 8f3d 16ed 9dbd
00000110: 7ef4 e23d 3081 d3bd 4a43 b3be fac8 00be
00000120: f4e1 9c3d 76bf 6e3e d167 9cbd c45c 153c
00000130: e39f e23e 5d72 58be 629f b83d d6b8 6abe
00000140: 75ac 81be b5d0 11bd cf03 95bd ca32 dabd
00000150: 2b69 073d 699f 253d d5dc 463d c3e4 1cbd
00000160: 14c6 63bd c360 bd3d 27cd 083c 3d27 94be
00000170: 48de 8c3c 543c b9bd e8dc 143e c9b1 ed3b
00000180: 0f7e 1c3e cdc2 253e a926 81be 1558 d23e
00000190: a38c 8b3e 872f 423d 6e87 4c3e 18fd a73e
000001a0: 41eb cfbd cfa9 efbc 33f7 113d aeee 4fbd
000001b0: 742d f03d a8a3 193e 849c 2fbd 563e b43d
000001c0: 18af 04be 5039 47bd 8bbe ccbd 1f88 7bbc
000001d0: d2ad 5ebe 9310 b03c 4561 04be 21a2 113e
000001e0: 11e7 853d 2e7d b4be cc4a acbd cb06 6ebe
000001f0: b5a2 29be fb01 49bc ff55 af3c 7d6a c3bc
00000200: 6f71 823d 910c a83d 6342 dabc 60a5 e4bc
00000210: 50af 0bbd 974e 23bd 1f11 96bd ad93 d5bc
00000220: 018e cfbb 9a60 75bd a210 9b3c f123 9a3d
00000230: 80f5 0dbd 6dbf 2cbd 1dae 14bc 044d 53bd
00000240: 9b1f 2a3d 0b1c 413d 4d08 c0bd 7c19 afbd
00000250: 7fad 83bd e1f9 abbb 3f72 4e3c afdc 243b
00000260: a1d6 54bd 8c2d 83bd 24f4 0dbd 7c93 6ebd
00000270: 09e9 143d 313f 2ebd b0cc c8ba 2da0 323c
00000280: fafc 553d c57b 83bd 0406 c4bb d046 b23c
00000290: 7569 debc 3041 a83c a7c3 bfbd 5222 b9bd
000002a0: 9a31 aa3c 9fc5 a5bd f85b a9bd a074 703c
000002b0: 2405 103d b4e1 be3c 57da 473d 6ab7 05bd
000002c0: 5b00 d1bc 1ee9 c5bd 299b 5ebd d54e 6a3c
000002d0: a8c3 a9bd 2bcc 95bd c808 913d 1675 753d
000002e0: aefc 9a3d ffc8 90bd e74e 0ebd 4142 5e3d
000002f0: 88de 9bbd f2df b5bd 275d 05bc fdac 4b3d
00000300: 44ef 97bd 7389 a2bd 5545 153d 1a46 4abc
00000310: dc37 5dbd 0ddc 6d3c cd80 8d3d 338f a9bc
00000320: 828a aa3d bbe5 71bd 06af 9ebd 3da6 fb3b
00000330: 8d81 91bd 839d cebc 9cef 923d c224 463d
00000340: 9697 953a 2fe6 a4bc d7f0 fb3c 2835 693d
00000350: 3b15 2cbd 0493 d4bc 183b 49bd 8360 dc3c
00000360: cda0 11bd e829 073d ec0e 943d 910e 583d
00000370: a309 9bbd 6d25 a9bd 0f05 cebd 01fd 37bd
00000380: fca5 32bc e5ea 90ba d8bd 1fbb e99c 09bd
00000390: 2ae7 013d 639e 22bd e622 74bd 9990 b4bc
000003a0: 4ed3 133d b9e4 a53d 3384 98bd 30f2 7fbc
000003b0: 8693 0b3d a633 44bd 6fbc a93b 0160 2a3c
000003c0: 08a1 a0bd d94a f03b b655 863c d9b0 d8bd
000003d0: 43d9 d9bd 67b9 ccbc 0645 e93b 4585 acbd
000003e0: 5606 19bc aca3 e8bc 1507 f2bc 1b94 11bd
000003f0: b4e6 69bd 30dd 86bd 6b2b 443d d003 263d
0.21462575 -0.09630695 0.022005906 0.1425953 -0.07747468 0.23964414 -0.0440977 0.063154615
-0.10262396 -0.18442456 -0.14171588 -0.048510578 0.28820997 0.26507407 -0.10098223 0.09501634
-0.22497898 0.20674387 0.020368673 -0.03221108 -0.13517714 0.15676111 -0.10181717 -0.16809708
-0.041326467 0.076992415 0.03849297 -0.013932795 -0.102412134 -0.060809318 0.15272236 0.05568953
-0.0051057823 0.024136905 0.07007525 -0.12846582 0.45502245 0.20921707 -0.1917422 -0.21180256
-0.04823854 0.02908535 0.031243833 -0.26093155 -0.17751774 -0.06346944 0.17838885 -0.08358475
-0.4504096 -0.085111 -0.1507942 0.16245432 0.09696812 -0.054706994 -0.021402901 0.0053619174
-0.20787606 0.1146515 0.047178775 0.041891843 0.10063047 0.00031217877 0.07468346 -0.16419147
-0.02377661 -0.05529532 0.07027854 -0.07711236 0.110817894 -0.10327375 -0.35012275 -0.12576666
0.07660285 0.23315224 -0.07636989 0.009116355 0.4426261 -0.21137376 0.09014775 -0.22922072
-0.25326887 -0.03559943 -0.07276117 -0.106542185 0.03305928 0.04043523 0.048550446 -0.0383041
-0.055608824 0.092469715 0.008349693 -0.28936186 0.017195836 -0.0904471 0.14537394 0.0072538597
0.15282463 0.16187592 -0.25224808 0.41082826 0.27255735 0.047408607 0.19973537 0.32810283
-0.10152293 -0.029255776 0.03563614 -0.050764732 0.117274195 0.15003836 -0.042873874 0.08800952
-0.12957418 -0.04863864 -0.09997281 -0.015352278 -0.21745995 0.021492278 -0.1292773 0.14222004
0.06538213 -0.35251755 -0.08412704 -0.23244779 -0.16565974 -0.012268539 0.02140331 -0.023854489
0.06369292 0.08205522 -0.026642984 -0.027910888 -0.034102738 -0.03986987 -0.07327484 -0.026071394
-0.006334067 -0.05990658 0.01892883 0.075263865 -0.034657955 -0.042174745 -0.009074715 -0.05158712
0.041534048 0.047145884 -0.09376583 -0.08549783 -0.06429576 -0.0052482937 0.012600481 0.0025155952
-0.0519625 -0.06405172 -0.03465666 -0.05824612 0.036355052 -0.042540733 -0.0015319791 0.010902447
0.05224321 -0.064200915 -0.0059821624 0.021762282 -0.027149895 0.020538896 -0.093634896 -0.09039749
0.020775605 -0.08094334 -0.08269495 0.014676243 0.035161152 0.023300983 0.04879221 -0.03264562
-0.025512865 -0.09663604 -0.05434719 0.014301022 -0.082892716 -0.073143326 0.07081753 0.059926115
0.07567726 -0.07069587 -0.034743216 0.054262403 -0.07610804 -0.08880605 -0.008139885 0.04972552
-0.07418683 -0.079363726 0.036443073 -0.012345815 -0.05400835 0.014517796 0.069093324 -0.020698166
0.083271995 -0.05905698 -0.07748227 0.0076797293 -0.07104788 -0.025221592 0.07174608 0.0483749
0.0011412974 -0.020129291 0.03075449 0.05693546 -0.042012434 -0.025949009 -0.04912862 0.02690149
-0.035553742 0.03299895 0.072294086 0.052748267 -0.075701974 -0.082590915 -0.100595586 -0.044919018
-0.010903832 -0.0011056332 -0.002437463 -0.033596907 0.031714596 -0.03970183 -0.059603594 -0.022041606
0.036090188 0.08100266 -0.0744709 -0.015621707 0.034076236 -0.04790082 0.0051799337 0.010398866
-0.07843214 0.0073331413 0.016398292 -0.10580606 -0.106371425 -0.02499075 0.007118824 -0.08423857
-0.0093398895 -0.028398357 -0.029544393 -0.035541635 -0.05710478 -0.06585157 0.04789297 0.04053098

bias f4 [128]
00000000: 8f90 08bd 29af 15be 63ff efbd acf2 a8bd
00000010: c747 673c 18fd 72bd acca 1dbe d682 b9bd
00000020: b2d7 143b 1379 f9bc 3626 a6bd 0eb0 31bd
00000030: a401 debd 7b18 4dbd 6722 b5bd 5167 14be
00000040: 7075 9e3c 5345 09be 3904 81be 2f07 193d
00000050: e6ab e8bb 1d80 90ba 30dd 1bbe 0818 10be
00000060: b5ba e9bd 6417 fcbd bf64 86bd cdc0 cbbc
00000070: 0c7e fd3c 486d 06be 9646 dcbd 8b03 6cbd
00000080: eef7 bebd dd22 eabd 0a4a 00bd 229a ebbd
00000090: 208e 16bd 9e3a 5dbc bfed 27be b8bd fa3d
000000a0: b1a1 f5bd 2717 98bd d0fe 80bd c498 98bc
000000b0: f3a3 50bd b148 b3bd e013 99bd 4c9d 63bd
000000c0: fd5a c9bd 2135 3dbd 54aa 79bd d2bf 64bb
000000d0: ca70 e7bd b06e 00be 4692 3dbe d00e ab3d
000000e0: b043 14be 83cd 6ebd 6ff0 36be b3a7 fb3c
000000f0: a89f 2dbe 0d7a 36bd 7282 12be 362b f1bd
00000100: 6ca4 07be 6fa3 a3bd 1295 e0bd a7b0 01bd
00000110: 048d c4bd b07e c83c 4a2a a4bd bd03 fcbd
00000120: edcd 06bd b97f e6bc c685 973d c972 babd
00000130: 74a6 27be 8240 80bd f99a 893d cf30 083d
00000140: 0c14 27be aba9 e3bd 1cab adbc 97f5 dabd
00000150: be8a edbd 8653 0cbf 0ba2 4fbd dbf5 c63d
00000160: 32af 22bd 803a fbbd 2640 20be 0f81 4ebd
00000170: 1a0e 93bd 1836 a33d da12 13be ad2d 693d
00000180: edca 8cbd c1d0 dcbc b49f 5abd 5fdf e5bd
00000190: b897 6f3d 78f0 efbd 30da d63d b4f5 4a3d
000001a0: 1c2a d43d 39b6 76bd aed4 903d 8ded 20be
000001b0: c0ea 14be b5f8 92bd acd1 e2bc 2ba5 c6bc
000001c0: 2934 acbd d8df 15bd 70fb 423d 25bc 9cbc
000001d0: 7467 0a3c 9228 b73c 8008 f2bd 54ce b7bd
000001e0: 4aa1 b2bd 6b5d dcbd 64dc d5bd e0c4 76bd
000001f0: fa9d 59be dbd8 263d 99e4 0ebe 2c17 8ebc
-0.033340987 -0.146176 -0.11718633 -0.08249411 0.014116234 -0.0593234 -0.15409344 -0.09058158
0.0022711572 -0.03045324 -0.08112757 -0.04338079 -0.10840157 -0.050072175 -0.08844452 -0.14492537
0.019343108 -0.13405351 -0.25198534 0.037360366 -0.00710057 -0.0011024509 -0.15221095 -0.14071667
-0.11412565 -0.12309149 -0.065621845 -0.024872208 0.030943893 -0.13127625 -0.10755651 -0.057620566
-0.093246326 -0.11432431 -0.03132061 -0.11504008 -0.036756635 -0.013502745 -0.16399287 0.12243217
-0.11993731 -0.07426291 -0.062986016 -0.018627532 -0.050937604 -0.08754099 -0.07474494 -0.055569932
-0.09831808 -0.046193246 -0.060953453 -0.0034904373 -0.1130081 -0.12542224 -0.1851283 0.08352435
-0.14478946 -0.05830146 -0.17865156 0.030719614 -0.16955435 -0.04454999 -0.14307573 -0.1177582
-0.13246316 -0.07990157 -0.10965933 -0.03166261 -0.09597209 0.024474472 -0.080158785 -0.123054005
-0.03291123 -0.028137075 0.07398562 -0.09103925 -0.1637209 -0.06262304 0.06719012 0.033249673
-0.16316241 -0.11116346 -0.021199755 -0.10691374 -0.115987286 -0.54814947 -0.050691646 0.09714862
-0.03971786 -0.12267017 -0.1564947 -0.05041605 -0.07180424 0.07969302 -0.1436266 0.056928325
-0.068746425 -0.02695501 -0.05337496 -0.11224245 0.0584943 -0.11715788 0.10490835 0.049550727
0.10359594 -0.060232375 0.070718154 -0.15715618 -0.14542675 -0.07176343 -0.02768787 -0.02424868
-0.08408386 -0.036590427 0.04760307 -0.019132683 0.008447517 0.022358213 -0.118180275 -0.08974901
-0.0872217 -0.107600056 -0.10442427 -0.06024635 -0.2125167 0.040734153 -0.1395439 -0.017345034

weight f4 [128, 128]
00000000: a791 01bc f78f 65bb a7d4 853d d518 ab3c
00000010: 7e95 76bc 78a5 a83d 2fb6 28bd 35ac 0c3d
00000020: c809 393d 1697 d6bd 5770 c13d 324f e2bc
00000030: d5f9 4f3d 9359 dbbd 398f 373d 7de3 a2bd
00000040: 97c8 fdbc d376 d0bd 3cad d6bd 34c2 11be
00000050: e739 b3bd 7ba6 a4bc e8a4 2ebc dddc dabc
00000060: b88d fb39 52e2 bbbd 37bd 043d edd3 2bbd
00000070: 8a78 70bd fced 58bb dc06 05bd 37d7 b23c
00000080: 8186 283c 8dd2 933c d6ad 813d 824c a13d
00000090: d91f 733d 32e2 673d d831 5ebd a60e 0b3d
000000a0: 20a3 a5bc 4b63 07bc 8517 9ebd 9b9a 9bbd
000000b0: 71e0 edbb f2f4 adbd dc0a a1bd 050c b1bc
000000c0: 3d74 983d c7fa 38bd da70 a73d 8bf9 1bbe
000000d0: 7152 34bd 2992 803d 0da4 c63c 7f5d 30bd
000000e0: 7b5d ed3c 2da9 37bd 3c1e 9dbd edc7 81bd
000000f0: b395 cc3c 12cb e7bd 4e69 3bbd ffaf b23a
00000100: a463 0fbd c454 d8bd 61df 1e3d bd9b b9bd
00000110: 48bc 333d 1baf 483d 2bc1 803c 47b8 82bd
00000120: 2faf a4bd b866 90bb 5b07 c1bd 8545 f13c
00000130: 25e9 aabc a2a7 c5bd e641 42bd 8aef 07be
00000140: 0da3 95bd 4e08 eebd 5803 0d3c 5dc1 133d
00000150: 8ce5 1dbd 1e3f b4bd 152f b33d ecf9 61bd
00000160: 9b60 8a3c e2d7 23bd ea92 96bd 6b31 02be
00000170: 3612 96bc f3ea ae3b 1741 a93b ed62 22bd
00000180: e2a7 d1bd 03b5 bdbc e10e 883b 4542 f63c
00000190: edcd 0bbe ead6 2abd 4f14 d0bc 63fd 5bbd
000001a0: 83d1 a5bd ee32 b33c 5c66 4cbc a7e4 613d
000001b0: e24d 10bd 3ab4 d3bd 3a0d 263d 3086 503d
000001c0: f6f0 7abc fe1a fa3c 511d f3bc 2e2c d9bd
000001d0: 330e 46bd f4fc 39bd 2cac 973d 228a 90bc
000001e0: 9bda f2bd 6930 8dbd 35a3 1fbd c2e3 35bd
000001f0: d8f3 94bd 0ecc 0dbe 05cd d8bc 14dd 80bc
00000200: 5551 403d cc5b bc3c 6c9a efbb 0bbc c5bc
00000210: 7c71 eebd e39c 60bd d880 04bd c7af cc3c
00000220: bc2f 353c 237a 593d 29fe 46bd 03bf 943d
00000230: 6a13 4fbd 4df3 40bd f3e0 89bd bcc5 a0bd
00000240: dbeb c7bd 0683 f9bd d377 863b 14e1 94bc
00000250: 6006 94bd e8b7 ddbd 07a8 973d 91c2 5abd
00000260: 0b85 763c d949 993d 1a57 703d 78e5 563d
00000270: 296e d1ba 6d91 45bd 9c2c 7e39 86e6 d6bd
00000280: 6733 3abc 3143 d1bc 8dfe 8c3d 41b9 9dbb
00000290: 2864 b9bd de7a 26bd 3be3 6abe bf3e afbd
000002a0: 919d c2bc 66f3 693c c523 9a3d 5613 86bb
000002b0: 2ba0 eebd 9b8e a43d bbbd 98bc e7a2 b83d
000002c0: 8d7f 63bd 8578 853d 35b5 8c3d 49ba 843d
000002d0: 732c a8bc 2f59 253c d61f 93bc 4b75 14bd
000002e0: f05c 783d 74fc 09bd 61fe 763d 4b5e 14bd
000002f0: 7b7d 07bd 06a0 5dbd 8afd b73b 2947 a53d
00000300: d00f febd 72e3 e4bd 5f1f 313d 659c 09bd
00000310: 84df 9f3d 99a3 763a c2d5 7e3a 9a8d 5cbd
00000320: 24c5 8d3c 6f4b 25bc c8a0 85bd b9b4 793d
00000330: 1132 cf3d 31b9 adbc b35d d7bd fd83 ac3c
00000340: 85c7 67bd d7f5 d63c c838 133d a227 823d
00000350: afae 3abd e6ae c23d 32fe 6abd 0907 16bd
00000360: c267 2fbc a565 883c 40cf ecbc a35a 15bd
00000370: f515 b13c f0e2 71bb 9283 bdbc 34fc d1bd
00000380: 5260 0dbd 8302 77be 1ea5 96bd f45b c1bc
00000390: f0a6 fabd cbc6 0f3d 2bba 01be 6897 21be
000003a0: dcee 2c3c feea 693d 8fd8 d73b 6aad 963d
000003b0: 68dd e13c 945f 4c3d 1c8e 09be 651f 54bc
000003c0: 0727 05bd 2427 9fbd f74f 33bd b9ea d2bd
000003d0: 4e90 27bd aa3a 15be 5317 c23a f41b 0cbd
000003e0: 0dd4 ac3b 8872 e53c 1d57 ffbc 00e4 853c
000003f0: ada6 99bc 182e 333d 6846 0e3d c217 86bc
-0.007908261 -0.0035028437 0.06534701 0.020885864 -0.01505029 0.08234686 -0.04118937 0.034343917
0.045175344 -0.10478036 0.09445255 -0.027625654 0.050775368 -0.10710444 0.044814322 -0.07953546
-0.030979438 -0.10178914 -0.104822606 -0.14234239 -0.08751278 -0.020098915 -0.010659434 -0.026716644
0.0004798004 -0.091740265 0.03240701 -0.041950155 -0.058708705 -0.0033100834 -0.032477245 0.021831138
0.0102859745 0.018044734 0.06331985 0.07875921 0.059356544 0.0566122 -0.054246753 0.033949517
-0.020219386 -0.008263419 -0.0771933 -0.07597848 -0.0072594215 -0.08493985 -0.078633994 -0.021612177
0.07444046 -0.045161035 0.081758216 -0.15231912 -0.044023935 0.06277878 0.024248147 -0.043057915
0.028975239 -0.044839073 -0.076717824 -0.06336961 0.024973726 -0.113180295 -0.045754723 0.0013632773
-0.035007134 -0.10563043 0.03878725 -0.09062908 0.04388073 0.04899512 0.01571711 -0.06382804
-0.08041226 -0.0044067763 -0.09425231 0.029452095 -0.020863125 -0.09651114 -0.047426127 -0.1327497
-0.0730649 -0.11622678 0.008606754 0.036073077 -0.03854899 -0.08801101 0.087492146 -0.055169985
0.016891768 -0.040000804 -0.073522404 -0.12714164 -0.01831923 0.0053380667 0.00516523 -0.039645124
-0.10237099 -0.023157602 0.0041521643 0.030060897 -0.13652773 -0.041708864 -0.025400309 -0.053708445
-0.08096602 0.021874871 -0.012475576 0.0551497 -0.035230525 -0.1033711 0.040539958 0.05090922
-0.015316239 0.030530449 -0.029677065 -0.1060413 -0.048353385 -0.04540725 0.07405886 -0.017643992
-0.11858102 -0.06893999 -0.038974006 -0.04440666 -0.07273072 -0.13847372 -0.026464948 -0.015730418
0.046952564 0.02299299 -0.0073121097 -0.024137517 -0.11642739 -0.05483712 -0.032349437 0.02498616
0.011058744 0.053094994 -0.04858223 0.07262995 -0.050555624 -0.04710703 -0.06732359 -0.07850215
-0.09761783 -0.12183194 0.0041036396 -0.018173732 -0.072277784 -0.10826093 0.074050955 -0.05340821
0.015046368 0.074847884 0.058676817 0.052464932 -0.0015978265 -0.048234392 0.00024239946 -0.104931876
-0.011364794 -0.025544735 0.06884489 -0.0048133438 -0.090523064 -0.04064452 -0.22938244 -0.0855689
-0.023756774 0.014279222 0.07526354 -0.0040916605 -0.11651643 0.08035012 -0.018645158 0.09015446
-0.055541564 0.06517128 0.068705 0.064808436 -0.020529008 0.010092064 -0.017959516 -0.03624467
0.060635507 -0.033688024 0.06030119 -0.036222737 -0.033078652 -0.05410769 0.005614941 0.08070213
-0.1240536 -0.11176194 0.04324281 -0.033596415 0.07806304 0.0009408533 0.00097211835 -0.05384598
0.017305918 -0.010088786 -0.06524807 0.060963366 0.10116971 -0.02120647 -0.105159186 0.02105903
-0.05658676 0.026240272 0.035942823 0.063552156 -0.045576748 0.095060155 -0.057371326 -0.036627803
-0.01070589 0.01665003 -0.028907418 -0.03646339 0.021616915 -0.0036908947 -0.023134027 -0.10253182
-0.034515686 -0.24122052 -0.07355712 -0.023603417 -0.12238872 0.035101693 -0.12668674 -0.15780413
0.010554995 0.05710887 0.006587095 0.07357295 0.027571395 0.049895838 -0.13433117 -0.012946938
-0.032507923 -0.07771137 -0.043777432 -0.10298676 -0.040909104 -0.1457316 0.0014807977 -0.034206346
0.005274302 0.028008714 -0.031169469 0.01634407 -0.018756235 0.04374513 0.034735113 -0.01636875

bias f4 [128]
00000000: a4bd cabc f041 60bd f4a9 9cbc 5cfb 91bb
00000010: 4b16 3abd fbb1 4f3d 54df 05bd 40e1 d5bd
00000020: 807e 82bd 1b74 64bd 96b4 663d 6935 96bc
00000030: cdcc 0ebd febc 04bb cb7f b33c 897a 063c
00000040: 714b 6d3b 3bda 60bd d172 6ebb ff1d 7cbd
00000050: e47a 6fbd dd02 d8bd ebc4 2dbc 1528 d1b9
00000060: dce1 d7bd 9232 46bd 8123 3ebd 2365 603c
00000070: 4db3 debd c12f 72bc 3aed f2bd cba2 88bd
00000080: 5d99 4f3d a639 b0bd 3ee4 30bb deab eebd
00000090: 2dff 8fbd 561b 90bd 04e9 8bbd a587 823c
000000a0: 971d f5bd 746a 143d ea42 d43b 5785 043d
000000b0: 93e8 1f3e 424c 973b daf0 823d a20d 343c
000000c0: d8f9 42bd 21de aabd e467 0dbd 8705 603b
000000d0: 22b9 33be f240 7ebd 0b53 f8bc 818f cdbd
000000e0: 57cd c4bd 71f6 c4bd 1e21 73bd f6e8 153d
000000f0: 8ead 043e b18b 1a3a 871f 51bd bf26 90bd
00000100: 7190 3ebc 66c4 91bd 492c 053c d531 1dbd
00000110: a639 6bbd 8c11 d9bd 3790 0cbe 3f19 07bc
00000120: ef6f c33c 622d bfbd a45d d5bd 6a38 96bd
00000130: 4df3 25bd 6244 cabc d6af 95bd c053 d7bb
00000140: 4f12 703d 3a6c cdbd b86a 62bd dcc9 f9bb
00000150: b100 acbd 9206 6fbd 9683 27bd 2bbe 57bd
00000160: cc6c 033e 7c4f f2bd 864e d3bb 1095 10bd
00000170: e077 a5bc 2452 86bd a15f 87bd e1d9 b5bd
00000180: 28f6 c3bd 2624 f8bd fdfe 273d b73e 6bbc
00000190: 664b f03c a716 03be 4044 a3bd b98f 9bbc
000001a0: 2dbd d5bd e6ba 30bd e003 2a3d 6fec 3cbd
000001b0: 24f3 28bd 7f0f 93bd 7a98 1fbe 92cc c9bd
000001c0: 5b84 a63b fa5a 74bd 3c2b 98bc 91ef 6dbd
000001d0: f748 623c 25d5 5ebc 01a2 5cbd 1851 4ebb
000001e0: b2ed a43c d4a1 3abe 4ebb 98bd a513 a5bd
000001f0: c768 dcbd 621f 32be 190a e03c 2096 3f3c
-0.02474863 -0.054750383 -0.019124009 -0.004455013 -0.045431416 0.050706845 -0.032683685 -0.10443354
-0.06371784 -0.05577479 0.056324564 -0.018336015 -0.034863282 -0.002025425 0.021911522 0.008207926
0.0036208297 -0.05489562 -0.0036384354 -0.061552044 -0.058466807 -0.10547421 -0.010606031 -0.0003989345
-0.10541126 -0.04838807 -0.046420578 0.013695988 -0.10874043 -0.014781893 -0.118616536 -0.06671675
0.050683368 -0.086047456 -0.0026991512 -0.11653875 -0.07031093 -0.07036464 -0.068315536 0.015933821
-0.119685344 0.036234334 0.0064777033 0.032353725 0.15616064 0.004617245 0.06393595 0.010989578
-0.04760155 -0.08343149 -0.034522906 0.0034182982 -0.17551091 -0.062073655 -0.030313035 -0.10037137
-0.09609478 -0.096173175 -0.059357755 0.036599122 0.12956831 0.00058954494 -0.051055457 -0.0703864
-0.011631117 -0.07117538 0.008128234 -0.0383776 -0.057428025 -0.1059905 -0.13726889 -0.008245765
0.023857085 -0.09334828 -0.10418251 -0.07334979 -0.040515233 -0.02469081 -0.07308929 -0.006571263
0.05861121 -0.10030408 -0.055277556 -0.0076229405 -0.083985694 -0.058355875 -0.040896975 -0.052671593
0.12834471 -0.11831567 -0.0064485697 -0.035298407 -0.020198762 -0.06558636 -0.06610037 -0.08879448
-0.09568435 -0.1211627 0.04101466 -0.014358214 0.029332828 -0.1280161 -0.07972002 -0.01898943
-0.10436473 -0.04314699 0.0415076 -0.04612392 -0.041247502 -0.0718069 -0.15585509 -0.09853472
0.005081696 -0.059657075 -0.018575303 -0.058089796 0.0138113415 -0.013600622 -0.053865436 -0.003148144
0.020132873 -0.18225795 -0.074576005 -0.080603875 -0.10762172 -0.17394784 0.027348565 0.011693507
