nerf_models/fox_a3.pth (torch, 646330 bytes, 22 tensors)

weight f4 [128, 63]
00000000: b117 d33d 7cb5 a33e f566 433e 9e22 32bc
00000010: 83c7 013e 2407 563c b76c 133e 0f6a d3bd
00000020: 5c68 d5bd e1bc 09bc 69f2 b4bd 4f7a a8bd
00000030: 9b1b ac3d f530 9ebe 4247 123e 39c7 873e
00000040: 1c80 c2bd ccee 5abd 1738 aa3e c004 8bbe
00000050: 3c89 813d 4bd0 af3c 82fe 27be 6014 5ebe
00000060: 6b8c a83e 473b afbe 0a25 79bb 8f91 3a3d
00000070: 0059 303e 95d3 97bd e1c5 d3bc f848 343e
00000080: 90f1 8e3d d618 893d 2ef0 54be 906d 78ba
00000090: 7935 ae3c cf74 7cbd 70da 2f3d 3de6 5fbd
000000a0: b458 40bd bd05 b1bd 2dd4 19be f9e3 7cbc
000000b0: 3d3e c83b c99e 003c 4cf9 853d fc4b 063d
000000c0: edee fa3c 301a 343c 0fdc 0339 4a18 083c
000000d0: cd50 9dbc 5f05 24bd 30bd 17bb 8279 2ebc
000000e0: 0503 00bd 7aa8 adb9 9f35 6aba db82 fc3c
000000f0: cadf b43b be85 71bc 18a4 5d3d 4d51 56be
00000100: fea0 57bd f484 b9bd 5dcb 27bd 8c50 9cbc
00000110: 704f 4dbe 31e8 edbd 30db c2bb c82b de3d
00000120: 9eac 28bd 47d5 91bd adc0 0bbe 7a9f 013d
00000130: d5bf 0ebe b47a f53d 0a78 d33d 16bb 303e
00000140: 8bd5 3cbe 1807 de3d fd1a f43d 8825 0dbe
00000150: b347 bb3d f37a 403d a2c9 f43c 3676 843e
00000160: 64e3 ab3e a829 813d 11e1 c83d 9c92 3dbe
00000170: 5aaf 01be 5236 893e 4db2 0b3d 5885 80bd
00000180: 32cc 2cbc 27b5 2d3e 4f88 f43c 8aec 8cbd
00000190: 9a1f 513d 79f4 92bd 3ef8 55bb 9203 fcbd
000001a0: 5c07 053b d657 f0bd b23d 0dbd 06bf 9a3d
000001b0: 42ea 73ba 830e 623d 0c60 2f3c cf57 eb3c
000001c0: 15c3 c13c fd73 2b3c 8785 353c e022 c1bc
000001d0: 0dbd 4f3d f2aa ddbc 4a99 883c 03bc b83c
000001e0: 7240 74bc eccb 31bc aa2e c23c 1f33 053c
000001f0: cc85 bdbb 193b 143d a0d9 a1bd 1c40 f3bd
00000200: d371 7a3c f648 f7bb 0903 e5bd cf71 393e
00000210: 4bd8 96bd 41ae 55be ff60 9f3c 7c85 e1bc
00000220: d01e 2dbe 8ab8 b0bc d1c2 7f3c 1bb9 67be
00000230: ca20 60bd 99f8 6f3e ef2c b73d bd8f 963d
00000240: d017 5bbd b376 52be 3d94 cbbc 2f72 28bd
00000250: f8b2 edbd 0ebf 86be ac58 4dbe ba4b 31be
00000260: ebdd acbe c44f aebe e867 f23d ded4 333e
00000270: 04e7 06be 6286 c1be f697 473e 2c66 3c3c
00000280: 3956 3bbe fabb 823d 37d5 17bc fb0f d53e
00000290: 9fb7 7abd 971f 553e 4da7 51bd 9cdd f2bd
000002a0: 2ad3 163d 388a 013e 0f95 953d 8daa 593d
000002b0: d858 c1bd 46e2 e7bb a756 81bc 8060 c63c
000002c0: 4ea5 e43c 4b1a b63c 6d5f 6cbc 725c 2abc
000002d0: d37b 89bd a7a5 d33b efd3 813d 0677 303c
000002e0: b5bc 10bc 0d54 c03b 6b0e d9bb ddaf 9f3d
000002f0: 907b a43c e5e1 d63e bb7c f9bd bbf6 623e
00000300: 4ab9 933e 69a7 fc3c 4bdd 053d 159c e3bd
00000310: 4308 07bd 81cb f2bd 1b65 613d 9942 d93d
00000320: 7bdc 02be 9038 0bbe 2425 423d 5bfa a2be
00000330: 1189 753e 665e 843e da35 d33c 7faa 41be
00000340: d204 30be cccd de3d dbb0 ad3d 1326 433e
00000350: dc25 a93e 61a5 913e 0a7b be3d 9b78 8cbe
00000360: 84e2 563d 5804 acbd 25d0 dfbd 5c40 32be
00000370: 6f48 30be 166a c03d c54d ddbb 8fcd e8bc
00000380: 21f7 ca3c d090 a4bd 18c1 ea3b d7b5 1b3c
00000390: 98a7 583d 8f39 1fbc a35d aa3d 8eec abbc
000003a0: 56fe 61bd 6e94 cf3d f3de 2c3d 9727 0abd
000003b0: c3d0 33bd d20e 56bc f9f5 2abc d8ee f0bd
000003c0: 3472 c6bc 8bae c539 5759 013d 1479 09ba
000003d0: f0d7 f03c 2309 723c 5e28 d83b f821 7b3c
000003e0: fa6f df3c b64a 993c 0adf 13bc 767b 673c
000003f0: fee0 52be 0eac 9b3c 75a5 8dbd 5bba 51be
0.10307253 0.319744 0.19082244 -0.010872511 0.12673764 0.013063226 0.1439694 -0.103229634
-0.104202956 -0.008406849 -0.088352986 -0.082264535 0.08403703 -0.30896726 0.14284995 0.26519182
-0.09497091 -0.05345039 0.33245918 -0.2715206 0.063250035 0.021461627 -0.16405681 -0.2168746
0.3291963 -0.34224913 -0.0038016462 0.04554897 0.17221451 -0.07413403 -0.025851192 0.1760596
0.06979668 0.0669419 -0.20794746 -0.00094767753 0.021265732 -0.061634835 0.042932928 -0.05466293
-0.046959594 -0.086436726 -0.15022345 -0.015435212 0.006110935 0.007850357 0.0654169 0.032787308
0.030631507 0.010992572 0.00012575112 0.008306572 -0.019203568 -0.040044185 -0.0023153536 -0.010649087
-0.03125288 -0.00033122656 -0.0008934382 0.030824115 0.005519842 -0.014741359 0.05411157 -0.20929451
-0.05264377 -0.09058562 -0.040965427 -0.019081376 -0.20049834 -0.116165526 -0.0059465393 0.10848194
-0.041180246 -0.071207576 -0.13647719 0.03164623 -0.13940366 0.119862944 0.1032563 0.17258868
-0.18440835 0.10841197 0.1191921 -0.13783848 0.09144535 0.046992254 0.029881302 0.25871438
0.33571923 0.063067734 0.09808553 -0.18512958 -0.12664548 0.26799256 0.034105588 -0.06275433
-0.010546731 0.16963635 0.029850153 -0.06881054 0.05105553 -0.07175536 -0.0032649185 -0.123053685
0.0020298576 -0.117355034 -0.034482665 0.07555966 -0.00093046215 0.05518962 0.010704052 0.028728394
0.023652593 0.0104646655 0.011079199 -0.0235762 0.050717402 -0.027059052 0.016674656 0.022550588
-0.014907943 -0.010851841 0.023703892 0.008129864 -0.005783772 0.036189172 -0.07902837 -0.11877462
0.015285927 -0.0075465394 -0.111822195 0.18109821 -0.07365473 -0.20867254 0.019455431 -0.02752947
-0.16906285 -0.02157237 0.015610413 -0.22629206 -0.05471877 0.23434676 0.08944117 0.07351635
-0.053489506 -0.20553093 -0.024850959 -0.04112452 -0.11606401 -0.26317638 -0.20053357 -0.17314044
-0.3376306 -0.3404523 0.11836225 0.17561671 -0.13174063 -0.37797838 0.19491562 0.011498969
-0.1829461 0.0638351 -0.009267143 0.41613755 -0.06121027 0.20812832 -0.05118494 -0.11858675
0.036822475 0.12650383 0.07303821 0.053141166 -0.09440774 -0.0070765344 -0.01578839 0.024215937
0.027910855 0.022229334 -0.014427048 -0.010398017 -0.06713071 0.0064589563 0.06339251 0.010770565
-0.008834054 0.0058693946 -0.006624033 0.07797215 0.02007845 0.4196922 -0.121819936 0.22164433
0.28852302 0.030841546 0.032681745 -0.11113755 -0.032966863 -0.118552215 0.055028062 0.106084056
-0.12779419 -0.13595796 0.0473987 -0.3183163 0.23978068 0.2585327 0.025782514 -0.18912695
-0.17189339 0.108790964 0.08480998 0.19057493 0.33036697 0.28446487 0.093008116 -0.27435765
0.052462116 -0.08399266 -0.10928372 -0.17407364 -0.17215131 0.09395234 -0.0067536556 -0.02841833
0.024776043 -0.08035433 0.007164132 0.009503803 0.052894205 -0.009718313 0.08318641 -0.020986822
-0.055174194 0.101357326 0.04220481 -0.033729162 -0.043900263 -0.013065057 -0.010434621 -0.11764306
-0.024224378 0.00037704813 0.03157934 -0.00052441773 0.029399842 0.014772686 0.006596609 0.015327923
0.027275074 0.018712383 -0.009025345 0.0141285565 -0.2059364 0.01900294 -0.06916324 -0.20481245

bias f4 [128]
00000000: aa42 dfbd 6bff 42bd 1ca7 ad3c b967 173d
00000010: a51b 8ebd 9612 443d 3ea8 a33d 92ae b8ba
00000020: 6f1c 41be baf4 13be 1497 5c3c 4732 1fbe
00000030: ba81 b6bc df40 f4bd 7346 29be 8ac0 60bd
00000040: 8577 b4bd d26e e8bd e70c 74bd 8e59 213c
00000050: 9698 22bc 4c11 663c 623d c2bd 1e95 e63b
00000060: de97 efbd 9f3d e5bd f5d0 983c 63b6 05be
00000070: 5314 733d b268 c4bd f058 373b 4f4c 09be
00000080: 9da3 023d 18f9 22bd 982d f5ba 3e9f fb3c
00000090: 1720 6fbd 3439 53bd eac0 9dbd 0fac ab3d
000000a0: e0f5 86bd 11b9 373d 0bfe 2dbe d25f adbd
000000b0: 870b a23d 7e51 a2bd 67fd d73b f004 d43d
000000c0: 1b7a 693d 92ca cf3d 5379 013c d18c 57bd
000000d0: 7030 58be 3776 18be 5503 0c3d b4a7 353d
000000e0: 5157 02bc c9e9 5e3d f816 04be 2315 fcbd
000000f0: fe6b 70bd 88df febd 6d60 3c3d a4a6 23be
00000100: c607 0fbe 9ce5 0cbd 6f1f 91bd 7662 f5bd
00000110: 3bc2 87bd c9e6 01bd d83c 8dbc d68e ecbd
00000120: 4229 a13b b4c1 123d e792 313d f837 423c
00000130: 42f7 3ebd d3a0 243e 6809 b23d f0c0 01be
00000140: 3f68 5a3c 2c46 2e3c 5c75 eabd e6e9 1e3d
00000150: 6292 36be 742d 903d a625 9ebb 78c5 fcbc
00000160: 6efc e4bd 55fc 70bd db9d 3c3d 3a72 41be
00000170: ca18 023d c911 d63c 72e1 29bd cffd e7bd
00000180: c74d 97bd 001f f93b 92bb 93bc 6da7 85bd
00000190: 6330 04be fffe a4bd b432 a53c a305 333d
000001a0: 6b3c 693d 0a52 3abe e71a ebbd e1f5 823d
000001b0: 8e98 ecbd cdbd 90bd 4bb3 06be 6f65 06be
000001c0: 4026 993d e4fd 61bd 7f7a a8bd 0ca2 d43c
000001d0: 5ac6 d7bd cac6 40bd 56bb 81ba 4f32 15be
000001e0: 16bd 1bbc f6fe 123e 7067 c2bd 967d 11bb
000001f0: 1c0d 42bd 3c62 ea3c 0cee 8eb9 552c 96bd
-0.10901387 -0.047606867 0.021197848 0.036964152 -0.069388665 0.047869287 0.07991074 -0.0014090112
-0.18858503 -0.14448825 0.013463754 -0.15546523 -0.022278655 -0.11926436 -0.1653078 -0.05487112
-0.08811859 -0.11349262 -0.059582617 0.009848012 -0.009924075 0.01404221 -0.09484364 0.007036819
-0.11698888 -0.11193394 0.018654326 -0.13057856 0.059345555 -0.095902815 0.0027976595 -0.13408016
0.031894315 -0.039788336 -0.0018705605 0.030715581 -0.058380213 -0.051568225 -0.07702811 0.08382427
-0.06589866 0.044854227 -0.16991441 -0.08465542 0.07912355 -0.079257 0.006591487 0.10352504
0.057001214 0.10146059 0.007902461 -0.052624527 -0.21112227 -0.14888845 0.034182865 0.044349387
-0.007955388 0.054422174 -0.12899387 -0.12308719 -0.05869674 -0.12444979 0.045990396 -0.15981537
-0.13967809 -0.03439866 -0.070860736 -0.119816706 -0.066288434 -0.031714235 -0.017240927 -0.11550681
0.0049182484 0.03582926 0.043352988 0.011854164 -0.046622522 0.16076975 0.086932 -0.12671256
0.013330518 0.0106368475 -0.11448166 0.03879728 -0.17829278 0.070399195 -0.0048262654 -0.03085588
-0.1118096 -0.058834393 0.04604898 -0.1889123 0.031761922 0.026131527 -0.041474767 -0.11327707
-0.07387882 0.0076025724 -0.018033776 -0.065260746 -0.12909083 -0.08056449 0.020165779 0.043706547
0.056942385 -0.18195358 -0.114797406 0.06394554 -0.11552535 -0.070674516 -0.13154332 -0.13124631
0.07477999 -0.05517377 -0.08226489 0.025956176 -0.105358794 -0.04706458 -0.0009897749 -0.14569972
-0.009505531 0.14355072 -0.094923854 -0.00222001 -0.047375783 0.028611295 -0.0002726171 -0.073326744

weight f4 [128, 128]
00000000: 204a 60bd 294c 20be f631 bd3d faaf 493e
00000010: ab70 babe 5921 ad3d 9925 67be dabc 153e
00000020: 13c4 c5bd f065 003e ba4c 053d 5042 9f3d
00000030: 63f6 b9be a0af 6bbe 3ab8 14bd 4dba 0b3e
00000040: d101 cf3e 5c0a 36be 267d 55bd e92d 053e
00000050: 8aee 273e 1bf4 43be 7b9d 51be cc40 003e
00000060: 66f4 81be 0552 f53d ba25 1bbe 6bd9 56be
00000070: 7275 733e cfeb 9ebd 5eb4 2b3e f115 4fbe
00000080: 0c0d 67bc b73a b7be 1ce6 a0bc 25d5 54be
00000090: 5c27 d73e 4551 443e e841 0fbd 2dc4 74bd
000000a0: 2522 16be 6a3f 123e a9f5 1b3e 11c9 62be
000000b0: fa16 6bbe ecfc 843e 1bf1 04bd 44b4 8fbe
000000c0: 22b3 65be 6c53 48bd 97e7 6f3e e516 ef3b
000000d0: ae05 abbd 81cf 19be 226b cc3c af9d d4bd
000000e0: 1650 5fbe 9f90 e5bd 8531 4fbe e827 9abe
000000f0: 758e acbd de03 a5bd 02cd 363e 37bb 8dbd
00000100: 2745 283e a64b 36bd 86b1 0f3d 3303 7abe
00000110: 0862 073d d963 fabc 1032 023d 7a7a bcbc
00000120: 5fd3 8fbd 94c3 eb3c e857 1a3e d8de 17bb
00000130: 0a02 77be 1f42 433e 6e95 843b 5a1f a2bd
00000140: 456f 74bd 95ab 9bbc e633 9bbe eb2e c9bd
00000150: 8d53 ec3d 4f0b 12bd c239 78bd 82cf 2c3c
00000160: 5845 b3bc 5e95 3d3b 4403 78be db27 95be
00000170: 1dbc ab3d baf2 103e d9ee 993d 2cb3 50be
00000180: 5d1b a6bd 8d14 d9be 2f6f 76bd e76c 923d
00000190: 2f9c 2dbd 0694 fabd f8b4 b13d e44f f43b
000001a0: db3b 99be 503d 83bd 4e6d cb3e f708 aa3d
000001b0: 777c 9fbe 54fd 0dbe 67e8 6e3d 7a6c 753d
000001c0: b512 b9be 81e4 c6bd 167e 40bd f11f b3be
000001d0: fd34 d13c 9802 d93c 22ef f5bd 5af4 c73d
000001e0: fe16 283b 271d 063e d403 8d3d b124 02bd
000001f0: eb79 76bd abf8 163c b44b 01be 1e55 9dbc
00000200: 5aae 5e3c 2f6b 1ebe deec 34bd e57e 2d3e
00000210: a1d6 8fbe 1a61 203e ced4 b8bd 0930 953d
00000220: e6c7 b33d d62c 75bd 980d bcbc c195 d8be
00000230: 9b8b 643d 0ce3 2e3d a7c2 6dbd 61c3 853e
00000240: af74 403e f58b 8e3d a1f2 4c3d c651 933c
00000250: 15d5 373e 2a52 ab3b bded 42be 6741 a4be
00000260: dc75 413d 3e70 afbd e5fc de3d 2738 303d
00000270: 7e65 66bd b29a 003d 4dfc c4bd d14c 95bc
00000280: 51a9 363e 460c 353e 2a88 203e 4152 90bd
00000290: c078 ee3d 1c4a f0bc 6335 51bb 0c5b 00be
000002a0: 8e8b ebbd 1d4c 8abd 7f4d 57bd 0796 7bbd
000002b0: 7d2f f03c cbbe b43c 147d dbbd ed1d d53c
000002c0: 0420 8f3d d2bc 65bd 600d 6fbe ba85 ef3d
000002d0: 3bb1 073d 51e9 47be 9ac1 a1be 658e bbbd
000002e0: 1f54 3cbe 15a9 da3d 06b9 3bbd dda6 53be
000002f0: e217 293d 3907 6d3d 3fa5 763e a022 a1bd
00000300: c1d1 bdbc 3eec 903e 8f95 f43c e2ce 0dbd
00000310: 6bc7 503d 054d 1dbd 0ae7 0c3c 8607 063e
00000320: 6759 0dbc f44d 9f3d de34 f53c 0a9a 7ebd
00000330: 7a38 86be 0054 373d 3f8a d23d ec9a 58bd
00000340: e1c6 31be 25c3 2fbd c0fc df3c 4f65 2ebe
00000350: 8c89 9c3e 8a39 cd3e 3680 4ebe 1e35 61bc
00000360: 2556 c13d 98db 2b3d 87d1 3f3d a3d9 21be
00000370: 9f2f b7be 5cba 4f3e 1da4 6f3e 516a e1bd
00000380: 1dd4 383c dd5e fcbc 58fd e8bb 7196 c5b9
00000390: a1b4 783c ccfe fbbd 3b92 8b3c 9c34 f3bc
000003a0: e8e4 13be 2122 dd3c 6c87 b93e f1ec 8dbd
000003b0: c8c9 d6bc e024 f1bd f717 12bd a14c 9c3d
000003c0: 5b13 163d 5235 6abd d5ab e83d 63e9 13bb
000003d0: 40ce 053b 9137 863d 42a4 383b 1bfd 623e
000003e0: 57ff 4fbe 6e47 473c 98e9 1fbe 920c 213d
000003f0: 442e 36be 205c 8abb b234 8d3d a437 32be
-0.05475819 -0.15654053 0.09238045 0.19696036 -0.36414084 0.08453626 -0.22572936 0.14622822
-0.09656539 0.12538886 0.032543875 0.0777632 -0.3632079 -0.23016214 -0.036308505 0.13645287
0.40431073 -0.1777739 -0.052121304 0.13005795 0.16399589 -0.19136088 -0.2047023 0.12524718
-0.25381774 0.119785346 -0.1515111 -0.20981376 0.2377527 -0.07759821 0.16768023 -0.20223214
-0.014102232 -0.35786983 -0.019640975 -0.20784433 0.42022216 0.19171627 -0.034974962 -0.0597574
-0.14661463 0.14282003 0.1523043 -0.22147013 -0.22957984 0.25974214 -0.0324565 -0.2806722
-0.22431615 -0.048907682 0.23428188 0.0072964304 -0.08350693 -0.15020563 0.024953429 -0.10381638
-0.21807894 -0.11209225 -0.20233734 -0.3010857 -0.08425609 -0.08057378 0.17851642 -0.06920474
0.1643263 -0.044505738 0.03508141 -0.24415283 0.033052474 -0.03056519 0.031786025 -0.02300762
-0.07022738 0.028779782 0.15072596 -0.0023173597 -0.24121872 0.19068192 0.0040461337 -0.07916136
-0.059676427 -0.019002715 -0.30313033 -0.09823402 0.115393735 -0.035655316 -0.060601957 0.010547521
-0.021883652 0.002892814 -0.24219996 -0.2913197 0.08385489 0.14155093 0.0751626 -0.20380849
-0.08110688 -0.42398492 -0.060164627 0.07149678 -0.042385276 -0.122352645 0.08677095 0.0074558128
-0.2992848 -0.06408179 0.3973183 0.08302491 -0.31149647 -0.13866168 0.058327105 0.059917904
-0.36147085 -0.097115524 -0.046995245 -0.34985307 0.025537962 0.026490495 -0.120085016 0.09763403
0.002564847 0.13097058 0.06885496 -0.031773273 -0.060174864 0.0092145605 -0.12626535 -0.019205626
0.013591373 -0.15470575 -0.044171207 0.16942938 -0.28093436 0.15662041 -0.09024964 0.072845526
0.08778362 -0.059857212 -0.0229557 -0.42301753 0.0557972 0.042696998 -0.058046963 0.26125625
0.18794511 0.069602884 0.050036076 0.017983329 0.17952378 0.0052283006 -0.19036002 -0.32081148
0.04723154 -0.085663304 0.108880796 0.0430223 -0.056249134 0.03139753 -0.09618435 -0.018225105
0.17838027 0.17680463 0.15676942 -0.07046939 0.11644125 -0.029332213 -0.003192269 -0.12534732
-0.11501227 -0.06752799 -0.05256414 -0.061422374 0.02931952 0.022063633 -0.10717216 0.026015246
0.06988528 -0.056088276 -0.23344946 0.11695428 0.033128005 -0.19522597 -0.3159302 -0.09158019
-0.18391465 0.10676781 -0.04583075 -0.20669122 0.041282542 0.057868216 0.24086474 -0.07867932
-0.023171308 0.28305238 0.029856471 -0.034621127 0.05097143 -0.03840353 0.008600006 0.13088807
-0.008627272 0.0777854 0.029932436 -0.06215862 -0.26214963 0.044757843 0.102802746 -0.05288212
-0.17361023 -0.042910714 0.0273422 -0.17030834 0.3057369 0.4008296 -0.20166096 -0.013745574
0.09440259 0.041957468 0.04683068 -0.15805678 -0.3577852 0.20285934 0.23402448 -0.11006606
0.0112810405 -0.030806953 -0.007110279 -0.00037686856 0.015179784 -0.12304458 0.017037502 -0.029688172
-0.1444279 0.026993813 0.3623613 -0.069299586 -0.026219264 -0.117746115 -0.035667386 0.07631803
0.036639553 -0.057179756 0.11360899 -0.002256953 0.0020417124 0.06553567 0.0028174077 0.22166865
-0.20312248 0.012163026 -0.15616453 0.03931863 -0.17791086 -0.004222408 0.068948165 -0.17404038

bias f4 [128]
00000000: e4ad 01bd dd7d 04be ad24 23be 9d78 f4bd
00000010: b851 a2bb 3df6 aabd d521 6fbd 9be6 9f3d
00000020: 3d24 09be a80d f13c 28c4 1ebe e0d9 423c
00000030: 53ba 833d 7320 0cba 1202 653d f939 b33d
00000040: ed4f c1bd bd73 b5bd a3f7 33be 7084 e1bd
00000050: 6a39 6c3d 1102 58bd cea5 34bd 1682 6cbd
00000060: 4993 e23b 807e f9bd c86d da3c 2557 a4bc
00000070: 2fe5 86bd 196f 07bc 163e 34be 1458 f0bc
00000080: 9424 aa3d 31e0 86bd 169a 0ebe 09f7 d33b
00000090: 3028 113d da1e d3bc 39fe 173e b35f 0bbe
000000a0: 9597 a6bd 25fb b8bd c60f 9cbd 479a 09bd
000000b0: 1bd1 89bc cacb 0cbe 0cef 023d d125 8dbd
000000c0: 9361 d7bc 9556 713c b9d9 3fbd 55b3 18bc
000000d0: 6936 f9bd 0979 5dbd 7835 42bd a7de 79bb
000000e0: 434a f83a e666 81ba ffe3 e63d ba3f 2dbe
000000f0: 02d9 183c c46c e4bd 6a5f 1ebd 5062 703d
00000100: 6a6e 03bd 61cf d0bd da2b d93c c01a 15be
00000110: 310e fabd 036b 383b a244 81bd b3d1 08be
00000120: a274 54bc fcd3 0dbc c145 073c 3301 023d
00000130: 37a6 10be 6f8d 5c3c a33b ecbd 6f8e c9bd
00000140: ec11 a63b 6651 0c3e f52a 69bd 1a66 e4bd
00000150: 1ba5 acbd ccab 21bc 4814 0dbc 7e5b 07be
00000160: 6cf2 48be 50d6 0cbc e91e b8bd 95aa 9d3d
00000170: 19cc e7bb 7fd2 5bbd 5d93 0a3c 345e 21be
00000180: ba14 c4bc 0df5 1bbe 9e1f e4bd a292 cdbd
00000190: 5d37 18b9 dfa7 c8bd 35ba 7dbc 7f7b 5fbd
000001a0: 99ac c1bd 107b a1bc 9434 f7bd b9a5 cbbb
000001b0: 6d05 f43d 519d b1bd c1fc 5bbd 87d5 8cbc
000001c0: 3c8e a3bd 4ed3 e4bd 1ba7 f6bd df25 abbd
000001d0: 51fa d8bd eb51 9c3c bf67 90ba a8d1 e9bc
000001e0: ad90 62bd f7b0 953d 8294 f0bd 030b a4bc
000001f0: 2bc7 fbbd 3818 0cbd 09a2 043c 218c 71bd
-0.031659976 -0.12938638 -0.1593196 -0.11937068 -0.0049535893 -0.083477475 -0.058381874 0.078076564
-0.1339273 0.029425457 -0.15504515 0.011892766 0.06432023 -0.00053454115 0.055910178 0.08751292
-0.09439073 -0.08859966 -0.17574935 -0.110115886 0.05767194 -0.052736346 -0.044103436 -0.057741247
0.0069145304 -0.12182331 0.026663676 -0.020061085 -0.06586682 -0.008266234 -0.17601809 -0.029338874
0.08307758 -0.0658573 -0.13925967 0.006468658 0.035438716 -0.025771547 0.14843072 -0.13610725
-0.08134381 -0.09032277 -0.07620196 -0.033594396 -0.016823342 -0.13749614 0.031966254 -0.068919785
-0.026291644 0.014730115 -0.046838496 -0.0093201 -0.12168581 -0.054070506 -0.047414273 -0.0038127096
0.001894303 -0.0009872585 0.112739556 -0.16918841 0.009329082 -0.11153558 -0.038665213 0.058687508
-0.03208772 -0.101958044 0.026510168 -0.14560986 -0.12209738 0.0028139956 -0.06311919 -0.13361244
-0.012967261 -0.008656498 0.008256377 0.031739425 -0.14125906 0.013461455 -0.11534812 -0.0984162
0.0050680544 0.13702926 -0.056925733 -0.11152287 -0.08429929 -0.00986762 -0.008610792 -0.13218495
-0.19623727 -0.008596018 -0.08990271 0.076985516 -0.007073891 -0.05366754 0.008457986 -0.15758592
-0.023935664 -0.15230198 -0.11138843 -0.100377336 -0.00014516474 -0.09797644 -0.01548629 -0.054561134
-0.094567485 -0.019712001 -0.12070575 -0.006214824 0.119150974 -0.08672584 -0.05370784 -0.017191662
-0.079861134 -0.11173116 -0.120435916 -0.08356833 -0.10594619 0.01908203 -0.0011017247 -0.028542355
-0.055313755 0.07309144 -0.117470756 -0.020024782 -0.12293848 -0.034202784 0.008095273 -0.058971528

weight f4 [128, 128]
00000000: a74b a7bc bc7f abbd 8e68 313c 0a6e acbd
00000010: 3006 f5bd 48e1 56bd b794 3cbd 6c0d debc
00000020: 2798 823c 5f8a acbb a37a eebd e5e9 893c
00000030: defc 56bd fe37 993d 8fd9 43bd 1292 8abd
00000040: 47d5 0cbe 0d16 3abd 98d9 cebc c69a b9bd
00000050: a50b bebb c19f 0c3d 7b6a 88bd aa93 c3bd
00000060: c64b cc3c d6a3 3bbd 10ba 693e 6e0e a0bd
00000070: a654 e63c df35 49bd 4ab4 0fbe ea91 d9bd
00000080: ea42 cdbd 6cdf e73c c02c 1fbe 11b1 d4bd
00000090: bfae e83d 77cc 6bbd 8dfd 043e b6db 983d
000000a0: 07f5 95bc ccbe 69bc 23f5 4ebb 0830 aebd
000000b0: 65c6 c5bc 553b 873d 24a1 17be cde9 ffbd
000000c0: 6589 353d 9249 99bd fa02 f6bc 4b9a e2bd
000000d0: ba66 86bc 9847 c9bd 6353 09bd c701 d63c
000000e0: 9ac1 bebd a83c efbc b861 0abe 94ee 4dbd
000000f0: 5fe8 5ebd ab10 38bb ead1 833d 53c1 413d
00000100: b6f6 04bd 6881 5bbc e58e 833d b367 593d
00000110: dff6 bb3c f365 18be 7a97 20be 300a debd
00000120: 173f 92bd 6132 7fbc 9bd1 993d b529 68bc
00000130: d73e ccbb f71e 923d 4cad 6b3c 2e2b a1bd
00000140: 571d 05be 25b9 673d 714d 29bd 6b9f f1bd
00000150: 7c96 a33b 9bd3 2d3d b5ba 19be 6750 cabd
00000160: 3b83 d0bc 6517 63bd b327 59bc b041 16bd
00000170: c386 e7bd 2e3b 99bd eb81 283d 929f 4abe
00000180: 1d7f adbd 10d3 59be ff37 b23d bb23 edbd
00000190: eff5 11be add3 333d b3e3 87bd d508 ab3d
000001a0: 0023 7c3d 479e 2d3d ff1d b43d 9161 fb3c
000001b0: 5005 953d 25c3 863b d451 85bc 6b94 813d
000001c0: 5f44 e0bd ead7 563c b615 0fbd 3d9f 463d
000001d0: 0208 afbd f7e2 7fbd e489 96bc 1bf7 e13d
000001e0: 374a a3bd cb9c 173e 1784 68bd a485 7bbd
000001f0: c8a9 f9bd 7bd7 f7bd a55f 54be 5015 bbbd
00000200: 3561 a43e c1e4 9abc 7a4b 203e 6d12 0fbd
00000210: 1e2a df3d 27a8 573c 5bbc 6fbd 6d09 abbc
00000220: 9670 b6bb df02 c43d 78ac 15bd 6061 b13e
00000230: 2a4a 9ebe ed59 7dbc 5c74 68be 3b19 64be
00000240: 145d 53be 6711 ec3c 0a15 af3c f16a 2a3c
00000250: 7b2d 5bbe d2b7 9abe 2bf7 8bbe f5af 763d
00000260: 3482 2f3d b416 e63d 5c9c 55be 1d04 a23d
00000270: 446c 8dbd 4da2 08be 96f4 0ebe 8c55 a73d
00000280: 51bf 88be ac1a 153e 4698 0c3c 9c03 17be
00000290: 94fe 1ebe 67b2 463d 9253 e2bb aba8 82bd
000002a0: a6d2 a43c b077 d33d ec92 8d3d 304c 75bd
000002b0: a6b6 1cbd 26b7 033d 2e18 933d 813b 053e
000002c0: 8f67 0b3d 8b8d 403c a3ef 61bc 2b88 b63d
000002d0: ac8e a53d 7ad8 d9bc 950d babd ccc7 a43d
000002e0: 1ca7 5cbe b0f9 21bd 4180 983d 64b2 de3c
000002f0: e668 da3d 0b9e 9bbd 74ae 98bd 8881 6abe
00000300: eb72 da3c 83ff 95bd 557d 8cbc 12d8 063d
00000310: eccc c93c 2e46 f93d 30dc 1ebd da4f 6e3d
00000320: 6c69 823d cc62 bebc adfe cabd 585d c2bd
00000330: ecec ab3d 97a1 54bb 581e 093d 698d d6bd
00000340: db36 013c fd1b 8bbe 7398 3fbe be58 4e3d
00000350: ec69 363d ff1e 9c3d 498a 06be dc4c 063e
00000360: 45ae 363d c3ff ccbd b9cd d7bc 4fd1 0ebe
00000370: 45ef 9dbc bef7 1cbe 447a 07bc 69e3 4abe
00000380: 81b7 423e 05a6 a1bd 2b29 ee3d a27d 103e
00000390: 7d1d 2f3e 9941 133e 5c50 9d3d 5529 16ba
000003a0: d696 a63d 7ef0 aa3d 9366 cf3d 26da 97bd
000003b0: ab7e 38be 0087 b63c 873b 65bd bccb 2bbe
000003c0: 87ea 563b 749d e7bd f333 fa3c 0cda 94bd
000003d0: 52f2 16be 9fcb 4cbe 4a26 023e 731b c23d
000003e0: 304e 303e a5c4 1d3e d5d1 f1bd db50 91be
000003f0: f8e0 03bd 08a0 303d 0ffd a2bd 9a7a 0ebd
-0.020421816 -0.08373973 0.01082815 -0.08419426 -0.11964071 -0.05246094 -0.046040263 -0.02710601
0.015941693 -0.0052655186 -0.11644485 0.016835162 -0.052487247 0.07481383 -0.047814902 -0.06766142
-0.13753234 -0.045431186 -0.025250241 -0.09062724 -0.005799728 0.03433204 -0.066609345 -0.09549649
0.024938475 -0.045810543 0.22824883 -0.07815252 0.028116535 -0.04912364 -0.14033619 -0.10623534
-0.100225285 0.028304778 -0.15544415 -0.10385335 0.11361455 -0.05756804 0.12987347 0.074637815
-0.018305315 -0.014266681 -0.0031579218 -0.08505255 -0.024142453 0.066031136 -0.14807564 -0.12495766
0.044320483 -0.074847355 -0.030030716 -0.11064585 -0.016406406 -0.098281085 -0.03352679 0.026123894
-0.0931427 -0.029203728 -0.13513839 -0.050276354 -0.054420825 -0.0028086107 0.06436522 0.04730351
-0.032461844 -0.013397552 0.06423739 0.05307741 0.022944866 -0.1488264 -0.15682784 -0.10841787
-0.0714094 -0.015575976 0.07510682 -0.0141701 -0.006233077 0.07134812 0.014384579 -0.07869564
-0.12999474 0.056573052 -0.04133362 -0.11797985 0.0049923044 0.04243813 -0.1501263 -0.09878617
-0.0254532 -0.055442233 -0.013254094 -0.03668374 -0.11305001 -0.07481991 0.041139524 -0.19787434
-0.084715106 -0.2127192 0.08702087 -0.11579081 -0.14253972 0.04390304 -0.06635227 0.08351294
0.061556816 0.042387273 0.08794784 0.030686172 0.07276404 0.0041126185 -0.01627437 0.063271366
-0.10950541 0.013113001 -0.034932815 0.048491705 -0.08546449 -0.06247231 -0.018376298 0.1103346
-0.0797314 0.14805906 -0.056766596 -0.061406747 -0.12190586 -0.121016465 -0.2073961 -0.091349244
0.32105413 -0.018907906 0.15653792 -0.03492968 0.10896705 0.013162649 -0.05852924 -0.020878518
-0.0055676205 0.0957086 -0.036541432 0.34644604 -0.30915958 -0.0154633345 -0.22700638 -0.2227525
-0.20640975 0.028816892 0.021372337 0.010401473 -0.21404068 -0.3021837 -0.27337012 0.0602264
0.04284878 0.11234799 -0.20860428 0.07910941 -0.06905416 -0.13343163 -0.1396049 0.08170614
-0.26708463 0.14560956 0.008581227 -0.1474747 -0.15526801 0.04850998 -0.006906935 -0.06379827
0.020119976 0.10325563 0.06912789 -0.05988711 -0.038260125 0.032157086 0.07182346 0.1301098
0.034034308 0.0117524965 -0.013790044 0.08912691 0.08083853 -0.026592482 -0.09084622 0.08045921
-0.21548122 -0.03954476 0.074463375 0.027184673 0.10664539 -0.07598504 -0.07455149 -0.22900975
0.026666125 -0.073241256 -0.017149607 0.032920904 0.024633847 0.12171589 -0.038784206 0.05818162
0.06367764 -0.02324047 -0.09911857 -0.0949046 0.08394799 -0.0032444948 0.033476204 -0.104761906
0.007886614 -0.2716979 -0.18710499 0.0503776 0.04453461 0.076230995 -0.13138689 0.13115257
0.04459979 -0.1000972 -0.026343213 -0.13947032 -0.019279132 -0.15328881 -0.0082688965 -0.19813313
0.19015314 -0.07892994 0.11628946 0.14110425 0.17101093 0.14380492 0.07681343 -0.0005728205
0.081342384 0.083466515 0.10126986 -0.074146554 -0.1801707 0.02228117 -0.055964973 -0.16776937
0.0032793598 -0.11309329 0.03054235 -0.07268152 -0.14740875 -0.1999955 0.12709919 0.09477892
0.17217326 0.15407045 -0.118076004 -0.28382 -0.03219697 0.043121368 -0.07958423 -0.03478489

bias f4 [128]
00000000: 158b 36be de3c a03c 43c4 903d 8425 1fbe
00000010: 86fd debb 1f64 11be b6ec 0e3e c84f c7bd
00000020: 9c2c 1b3d 29c8 12bc 6657 533d d297 47be
00000030: 7544 c3bd a965 023d 6d88 4fbd 798d fbbc
00000040: bcb4 87bc fd21 03bd 351d 1dbe 17a7 05be
00000050: 66fe eb3c e310 98bd a123 b9bd 2c6e ce3b
00000060: 00a3 3bbd 79c5 d0bd 8397 12be 4f5a 6dbd
00000070: 65db 7dbd 7325 d8bc d99f e5bc abf8 a2bd
00000080: a54b e1bd 0e82 093e e903 92bd eec1 b6bd
00000090: 4ef4 eabd 05d6 89bd 3701 aebc b2f6 72bd
000000a0: 43a8 52bb cead 853c d1cd 1bbe 9add 0a3e
000000b0: 1872 25bd 9925 20be 7ab4 36bb c752 3cbe
000000c0: b47b 0abe 1632 81bd 1873 debd a90b e03c
000000d0: 1d69 07be 6344 b43c 5008 103d 8dc9 e7bd
000000e0: bf6b 26be fd7c 43bd ec85 02be ae77 38bd
000000f0: 060c cf3c fd94 fcbd 5557 f5bd 111b 903d
00000100: d827 8ebc 1673 e1bd c4bd 69bd 91b2 e63d
00000110: 4211 eb3d 6b08 a2bd 7cd6 0c3b 5fa0 1dbe
00000120: 709f 24be e9a3 8bbd 18af 81bd 03c8 64bd
00000130: 01d1 66bd 4336 0abd 7b5f 29be d5a4 c5bd
00000140: f87d 0cbe 4be3 2fbb 3b6f 14be cada 8dbd
00000150: eca9 0dbd 24bc ecbd c539 24be 7cb6 debd
00000160: ac77 e0bd 197c b13c 864f 85bd 389b 14be
00000170: 2083 0ebe fb72 a2bd e738 74bd d403 cebd
00000180: 4488 eabd c9c8 ae3d b5a2 00be 912e 883d
00000190: dfe5 763d da75 ecbd 51c8 00bc b495 82bd
000001a0: c6cf c3bd 6a7e 29be fb8a 09be 8ebe 21be
000001b0: bc28 c0bc ef9a 9abd 888b 5ebd 7b4f 55bc
000001c0: dca6 f1bd 9949 6ebd 7bef 8dbd a9bb acbd
000001d0: 587a d8bd dee5 04be 4002 c93b cdc5 dcbd
000001e0: c5c2 b23d 7d6b 18be cc50 6bbc db53 96bc
000001f0: 3d4c d7bd d006 f1bd 4839 3c3c e37c 4abd
-0.17826493 0.019560274 0.07068684 -0.15541655 -0.0068051247 -0.1419835 0.13957486 -0.09732014
0.03788434 -0.008958855 0.05159702 -0.19491509 -0.095345415 0.031835232 -0.050667215 -0.030707108
-0.016565673 -0.032014836 -0.15343173 -0.13052021 0.02880783 -0.07425096 -0.09039999 0.0062997546
-0.045809746 -0.10193915 -0.1431561 -0.057947453 -0.06197681 -0.026385045 -0.028030323 -0.07957586
-0.11000756 0.13428518 -0.07129652 -0.08923708 -0.11472379 -0.06730274 -0.021240814 -0.0593173
-0.0032143749 0.016318228 -0.15215231 0.13561097 -0.04039201 -0.15639342 -0.0027878569 -0.18390952
-0.13523751 -0.06308381 -0.10861796 0.02734931 -0.13223691 0.022005266 0.035164177 -0.1131774
-0.1625204 -0.04772662 -0.127464 -0.04503601 0.025274288 -0.12333105 -0.11979548 0.070364125
-0.017352983 -0.11008279 -0.05706574 0.112645276 0.11477901 -0.07911762 0.0021490147 -0.15393208
-0.16076446 -0.06818373 -0.063322246 -0.05585481 -0.056351665 -0.033743154 -0.16540329 -0.0965058
-0.13719928 -0.0026838358 -0.14495556 -0.06926496 -0.03458588 -0.115593225 -0.16037662 -0.1087465
-0.109603256 0.02166562 -0.065093085 -0.14512336 -0.13917208 -0.07932087 -0.05962458 -0.10059324
-0.11451772 0.085343905 -0.12562068 0.06649507 0.060277816 -0.11545916 -0.007860259 -0.0637621
-0.09561114 -0.1655213 -0.13431923 -0.15795347 -0.023456924 -0.075490825 -0.054332286 -0.013019438
-0.11799404 -0.058175657 -0.06930443 -0.08434231 -0.1057021 -0.12978312 0.0061343014 -0.10779915
0.087285556 -0.14884754 -0.014362525 -0.018350532 -0.10512588 -0.117688775 0.011488266 -0.049435508

weight f4 [128, 128]
00000000: de8d ecbd 427e e23b 35e2 a93b 0127 f7bd
00000010: a2dc 22bd f67c 91bd a3de 8e3d 3b69 0ebc
00000020: e1ca d93d 940b 2a3d 50d2 02be 1fd0 80bd
00000030: edd7 bebd e575 ca3a 3f0b ecbd 080a 9bbc
00000040: f81e 72bc efe1 aebd e93f 763d 78de d13c
00000050: 0210 0abd d468 72bc 8477 6b3e 9a6d 65bc
00000060: c0de c73b efd3 9fbd ff5a 86bd 83d6 803e
00000070: 9dd7 023d a4f9 e73b 1ef6 7c3e a867 e33d
00000080: 0158 de3d 705a 203e c857 8cbd a716 c63d
00000090: 8f43 473c 10ae 1b3e 2f24 253e 6647 743c
000000a0: ba50 9dbe f846 e63d 6de2 253e 7f6c 603d
000000b0: c825 f53c effa 8a3d 13b1 74bd 3cb1 b7bc
000000c0: c6cd 8b3d f0ce a43d 4892 143e 91b2 173d
000000d0: 703d fcbc be3f 123c 3b5b 0ebd 57ef 42bd
000000e0: 61cb 05bd 0b7a fc3d 51ad 9d3b f97d c7bd
000000f0: 1c00 0cbd 8ddb c8bc 6722 863d 2cd0 013e
00000100: ec2e ed3d 94e1 943d 3920 abbc 3b45 64be
00000110: 4fed c5bd 195f 50bb 631d 19bd 3bf9 f13b
00000120: c918 81bb d979 8f3e 26be 5d3d d6e3 913d
00000130: 7410 6fbe 2e41 1fbe 4386 b0bd eec9 71bc
00000140: 65f1 49be 3917 ffbc 3ca5 dc3d e25f b0be
00000150: 2cd3 033b ee12 e2bd c206 0ebe 0ce9 e8bd
00000160: 2cc1 903d de99 eabc c2b4 523a 1825 833d
00000170: 87e6 943d 2baf fbbd 3382 1b3e 1c67 dd3d
00000180: a3b4 093c 3fb7 253e 4319 7c3c 8fb9 9abe
00000190: 2265 4ebe ceef 143c db1e 983e b28c 17bd
000001a0: e53d dcbc 926c d53c 7bae 1c3c 3824 09be
000001b0: f140 02be 8516 49bd 4c5c 173d 929e eb3d
000001c0: a05e abbd 516a b93c 1121 613c 586e 8dbe
000001d0: 79ed 01bd 4af7 b3bc 5233 00bb 45e1 babd
000001e0: d0d7 70be 1042 d3bc 6f34 6fbe cda6 99be
000001f0: b2a1 6dbd c273 56bd 3a17 433e 3e95 e2bd
00000200: c00f bb3c aae3 43be a35c 683d 2a50 46bc
00000210: 963e b3bc ccb7 113d bcae 9cbc be00 13bd
00000220: cabb e6bc c44f ba3c 2290 a13c c31b b73d
00000230: 2795 223d 9710 623d 832d a4bd 0306 bd3d
00000240: 90c5 d3bd 3bca ecbd 45c4 e1bc c381 613d
00000250: 982a dabd 1392 433d be3a a23d ed65 a2bd
00000260: e537 b1bd f305 91bd 3936 373d 8c25 1d3d
00000270: 1b35 f3bd 20b6 b03d 401c 14bc 067d 29bd
00000280: 5225 2f3c 4705 463d 12a7 463d 6968 a0bd
00000290: e759 77bc c3a3 ddbd 4af1 4d3c 3ff3 913d
000002a0: d1f7 4a3c 0b91 993c 89ef b53d 0bf9 95bd
000002b0: f13e a7bd 7485 8e3d 2939 7cbd 234f 2b3d
000002c0: c57f 8d3d 97f4 e1bc 10f2 853d 9234 f5bc
000002d0: cdc4 50bd 7a7c 94bc 1a63 493c 5f12 afbd
000002e0: f67d 95bd c280 53bc e486 563c 1e1a adbc
000002f0: 383b 65bd fd3e 663d b7da 133d f3cc cbbd
00000300: 8722 613d 773b 9d3c 7ea6 d3bd 9440 8c3b
00000310: f51d e4bb cd3a 3f3d acd7 9c3c b148 19bb
00000320: b6ac b13d 149b 11bd 4060 f3bb 9d3c 833d
00000330: e871 c43b 68da 28bd b602 943d d504 e8bc
00000340: f0c8 70bd 03c0 cebd 5d3d 92bd c40c 33bd
00000350: ebdb 9ebd e57d 7dbc fbdf 4f3d 5df5 c2bd
00000360: 0604 1b3d 93ea ae3c 7600 02bc 258e 84bd
00000370: 9f07 3cbd ff2d 5939 9795 0bbe 6be8 1e3c
00000380: 636b bb3c ffa8 20bc 9b99 28bd 8343 0d3c
00000390: 4de5 a4bd a084 efbd 8592 0e3e a1c2 963c
000003a0: 2e83 26bd da70 013d 2bac 653b 2038 1e3d
000003b0: 636d ddbc d64b 293d 42ae 143d 449a 52bd
000003c0: a266 0e3d 4272 9a3a dd42 3cbd 400d 38bd
000003d0: bfef 633d 2dce 1bbc 05f4 d13d 35de ac3c
000003e0: e550 9abd 5518 2bbd 94c7 51bd e74a a1bd
000003f0: 23b9 c5bc a925 8fbd 6da5 2b3d 27f1 993a
-0.115504965 0.0069120238 0.0051844367 -0.12067986 -0.039761193 -0.071039125 0.06976058 -0.008692081
0.10634399 0.041514948 -0.1277554 -0.06289696 -0.09318528 0.0015446512 -0.115255825 -0.018925682
-0.014777891 -0.08539187 0.060119543 0.025618777 -0.033706672 -0.014795501 0.2299481 -0.014003182
0.006099552 -0.07804095 -0.06560325 0.2516366 0.031943906 0.00707932 0.24703261 0.11103755
0.10856629 0.15659499 -0.068526804 0.09672289 0.012162103 0.15203118 0.16127084 0.014909601
-0.30725652 0.11244005 0.16199656 0.05479097 0.029925242 0.06786143 -0.059739184 -0.02242338
0.068263575 0.08047283 0.14508927 0.03703553 -0.030791014 0.00892633 -0.034754973 -0.047591534
-0.03266466 0.12327965 0.0048119207 -0.09740824 -0.03417979 -0.024518752 0.065495305 0.12677068
0.11581215 0.07269588 -0.020889388 -0.22292034 -0.09664404 -0.0031794964 -0.03738154 0.007384447
-0.003939722 0.2802265 0.054136418 0.071235344 -0.2334612 -0.15552208 -0.086193584 -0.014757616
-0.19720991 -0.031139003 0.107737035 -0.34448153 0.0020114882 -0.11038767 -0.13869765 -0.11372575
0.070680946 -0.028637823 0.0008037799 0.064035594 0.07270532 -0.1228927 0.15186386 0.10810682
0.008404884 0.16183184 0.015386882 -0.30219695 -0.20155767 0.009090377 0.2971104 -0.036999412
-0.026884982 0.026052747 0.009563084 -0.13392723 -0.12720086 -0.049093742 0.036953256 0.11504854
-0.08367658 0.022633703 0.013740794 -0.27623248 -0.031720612 -0.021968503 -0.001956184 -0.09124998
-0.23519826 -0.025788337 -0.23359846 -0.3001007 -0.058015533 -0.05235649 0.19051829 -0.11063622
0.022834659 -0.19129816 0.05672897 -0.012104074 -0.02188043 0.035575673 -0.019126289 -0.03588938
-0.028165717 0.022743113 0.019722048 0.08940842 0.039693024 0.055191603 -0.08016493 0.09229662
-0.103404164 -0.1156201 -0.027559409 0.05505539 -0.10652655 0.04774673 0.079213604 -0.07929597
-0.08653239 -0.07081213 0.044729445 0.038365886 -0.118753634 0.086284876 -0.009039938 -0.041378997
0.01069005 0.048344877 0.048499174 -0.07832415 -0.015097118 -0.10822251 0.012569735 0.07126474
0.012388186 0.01874592 0.08883578 -0.07322892 -0.08166302 0.06959048 -0.06157795 0.041823518
0.06909136 -0.02758245 0.065403104 -0.029932294 -0.050968934 -0.018125761 0.012291694 -0.08548426
-0.07299416 -0.012909116 0.013093684 -0.021130618 -0.05596468 0.056212414 0.036097255 -0.099512
0.05496457 0.019193394 -0.1033449 0.0042801592 -0.006961579 0.046686936 0.01914581 -0.0023389275
0.0867552 -0.035548285 -0.0074272454 0.064080454 0.005995024 -0.041223913 0.072270796 -0.028322617
-0.05878538 -0.10095217 -0.0714061 -0.043713346 -0.0775679 -0.01547191 0.050750714 -0.095194556
0.037845634 0.021352088 -0.00793468 -0.064724244 -0.045905706 0.00020711868 -0.13631283 0.009698967
0.022878354 -0.009805917 -0.041162115 0.008622053 -0.08051548 -0.11695218 0.1392308 0.018403353
-0.040652446 0.031601764 0.0035045247 0.038627744 -0.027029699 0.04133209 0.036298998 -0.05141665
0.034765847 0.0011783319 -0.045962203 -0.04493451 0.05564856 -0.009509605 0.10251621 0.02110205
-0.07534961 -0.04177125 -0.051215723 -0.078756146 -0.024136132 -0.06989605 0.04190581 0.0011744843

bias f4 [128]
00000000: da19 98bc a2ad c5bd 6184 6cbd b612 a2bc
00000010: a426 b8bd 93d1 b8bc f182 ddbd 742e 7fbd
00000020: 7040 453d 0910 c8bd 1825 c239 074a aa3d
00000030: 1766 f6bd 5243 2d3d 2324 8cbd 9e08 073d
00000040: ae2c 10be 0674 c7bd b976 01be 723b b6bd
00000050: 9353 b0bd 584d 1abd a8b4 9fbd 8a12 7c3d
00000060: a4b6 74bd c200 a2bc 727f 303b 7e7c 08be
00000070: 06f0 b43d 6359 153d 48ad 9e3d 3b4a 58bd
00000080: ba35 dbbd 32c8 d93d 5dea f2bd e0a8 c1bd
00000090: 45a6 64bd 42e4 193d 67e8 96bc e60e 61bd
000000a0: d72a 03bd 345f d23d 9a4e 33bd d2d1 37bd
000000b0: bc53 ccbc 9659 fdbd c8c0 08be 755d aabd
000000c0: 5b67 25bc c0f5 95bc cd71 afbd 6834 fbbd
000000d0: 1aa7 21bd 4223 c8bd 9ede 3d3d a540 fd3c
000000e0: 66b0 05be 4902 2a3b 40f1 2abd bd75 2ebc
000000f0: 1cf6 e0bd df2b ffbd 1550 5e3d 4357 ed3b
00000100: 89f2 2e3d 21a2 c4bd 9258 153c a5e8 403d
00000110: a407 69bd 2ca4 443d 5115 47bd 7da2 ecbc
00000120: 9da8 39be 6ab6 cabd cc2b dbbd 4405 29bd
00000130: d710 82bc fba2 e4bd a38b c6bd 2fd2 09be
00000140: d002 b7bd c852 4fbd 03ae a6bd 457f 3b3d
00000150: c7b5 86bd 6a96 b3bd c574 01be f955 023e
00000160: d8c0 d1bd 828a 323b a1aa 5f3c 6a43 663d
00000170: 730a ebbd dd12 bcbd 6c0e 19bd bcb8 693d
00000180: 1c8d 103d 49e5 96bd c3c3 ecbb 3ea5 3cbd
00000190: 542c b3bd 2a8d 9b3d fb2b bebc 3ff4 d3bd
000001a0: dece aebd d475 e93c 02ac 01bd 4942 41bc
000001b0: d9f6 55bd 74b4 3fbd a21a 753b e8ab 1ebe
000001c0: b12d f6bd 7dd5 c8bd 8d01 06be 1bdc 29be
000001d0: 2122 93bd 0a9c 50bd 2769 dfbd b4e3 33bd
000001e0: 5abb a23b 809e 133d 678e 91bc d8d6 9abd
000001f0: 986e acbd 0f96 56bd 83cb b3bc 9eb0 7e3d
-0.018567014 -0.096522585 -0.057743434 -0.019784313 -0.08991745 -0.02256087 -0.10815991 -0.06230016
0.048157156 -0.097686835 0.000370302 0.08314901 -0.12031191 0.04230053 -0.0684283 0.032967202
-0.14079544 -0.097389266 -0.12642945 -0.08898057 -0.086096905 -0.037671417 -0.07798129 0.061541118
-0.059744492 -0.019775752 0.0026931432 -0.1332874 0.08834843 0.0364622 0.077478945 -0.052805167
-0.10703607 0.10633887 -0.118611075 -0.094560385 -0.05582263 0.0375712 -0.018421365 -0.05494585
-0.032023277 0.10272065 -0.043776132 -0.044877835 -0.024942271 -0.12370603 -0.1335479 -0.08318607
-0.010095443 -0.01830566 -0.08566628 -0.12265855 -0.039466 -0.0977235 0.046354882 0.030914614
-0.13055572 0.0025941303 -0.04173398 -0.010648188 -0.10984442 -0.124595396 0.05427559 0.0072430684
0.04271177 -0.09601236 0.009115355 0.047096867 -0.056892052 0.04800813 -0.048604313 -0.028886074
-0.18130727 -0.09898074 -0.10701713 -0.041264787 -0.01587717 -0.111638986 -0.09694602 -0.13459085
-0.08936083 -0.050616056 -0.08138659 0.04577567 -0.0657764 -0.087689236 -0.126422 0.12728108
-0.1024186 0.0027243202 0.013651521 0.056216635 -0.114766024 -0.091832854 -0.03736727 0.057060942
0.035290822 -0.073679514 -0.007225485 -0.046056025 -0.08748689 0.07595284 -0.02321433 -0.103493206
-0.085355505 0.028498568 -0.03165818 -0.011795589 -0.052237365 -0.046802953 0.0037399908 -0.15495265
-0.12020434 -0.09806345 -0.13086529 -0.1658787 -0.07184244 -0.05093006 -0.10908728 -0.043918326
0.0049661817 0.03603983 -0.017768098 -0.075605094 -0.084195316 -0.0523892 -0.021947628 0.062180154

weight f4 [128, 128]
00000000: f4bd a53c 7d3e 233d a7f3 37bd 65f6 f03c
00000010: 9bd0 533d 75e7 b3bc 2624 693d 3580 003d
00000020: bf81 bb3c 0220 723d 8080 483d 5709 0f3d
00000030: ea8a 9f3c b95a 20bc b8fc 6a3c 77bf 4cbd
00000040: acbc a1bd 9770 403c 26b3 953d dd1e 223d
00000050: 8457 6cbd 8852 3d3d 462f 623d 8d98 3a3d
00000060: 57c3 8bbd 85d1 cabd 8a54 c4bc 53a2 253d
00000070: 7f9f d5bc fb65 9d3b d803 1bbd 5725 9b3d
00000080: 0c50 c8bc 19f9 24bd 20a4 2d3d a098 873d
00000090: c953 8bbd 18e5 583d f319 6fbc 19ed 4cbc
000000a0: 352d 8bbd efa2 d4bd 9c4f 593d e84a db3c
000000b0: cef8 203d 3ea4 7ebc 33dd e7bc ff67 cabb
000000c0: b1dd 643d 8885 fdbc bced efbd 7d88 4a3d
000000d0: a44b 68bd c3de 73bb e11f d3bc 77b0 4bbd
000000e0: 1787 37bd c5c3 8abd e4e5 093d 0006 b53c
000000f0: 9603 863b 3db2 653d f3a6 1dbd 1fc2 653c
00000100: e888 e6ba 6178 963d 0bb7 1dbd e811 4bbd
00000110: 8ce9 2fbd d9c4 8cbd e865 303d 4359 893c
00000120: a503 babb e460 f4bc ee1d 67bd 9c8a e63b
00000130: 2bc4 5ebd 0194 96bd 20ea 3d3c 50b5 55bd
00000140: d581 633d e018 9fbd 8fac 8eba a36c 733d
00000150: d804 ac3c 5491 8dbd 1767 cc3c 7d50 90bd
00000160: 24b8 13bd 4e40 f73c 420e ca3b b45b 083c
00000170: c83e c13b f8a7 463d a102 f9bd ab36 50bd
00000180: 5bc6 56bd aaa6 563d fb43 c03c 82dd 743d
00000190: 41f9 1a3c 58fc 543d e7fb 8ebc a76e 3b3d
000001a0: 937a 3e3d 99ea 523c d887 513d d54f 94bd
000001b0: 067a 053d 553e 4ebd 765f 95bc ab48 b9bb
000001c0: 42b8 b1bd 6c0e 7f3c e731 983d 2441 333d
000001d0: e1db 18bd 33d0 a4bc c8d4 073d dd68 8a3d
000001e0: fe5a 3cbd 1bdd d53c 6cfb 52bd 7d8f 7e3c
000001f0: 0b07 103c a036 233d 29a3 40bd 819d 02bd
00000200: 36a3 a23d ab61 253d 2a5e bebc 3d0d 94bd
00000210: 6a7c 7fbd f14f 07bc 074b 53bd 44e6 9c3d
00000220: bd47 703d d35c e03c 4c16 ab3c 8bb3 c23c
00000230: f7e8 a2bb 6332 a4bd 44cf 833d ff32 88bd
00000240: 6ba5 67bd 3508 473b bd9e edbc 57ea 33bd
00000250: 3927 00bd b9b7 a23d 0fd4 adbd c2b4 97bd
00000260: 10a5 ea3c a8d4 d8bc 89e7 db3c 7dae 3e3d
00000270: 7912 f6bc 4941 543d 0737 debc e631 24bd
00000280: d18e e73c eade a1bd 9d08 8f3d 657d 833d
00000290: 48ac ccbc 410d 5c3d efa0 a23d c190 923d
000002a0: d10b 53bd f86f 943d 01c0 d2b9 1e27 ef3c
000002b0: 5aef 29bd a724 043d bc70 a5bd 8c73 98bd
000002c0: b5df 41bd 65f6 593c 2b2e 633d b8b2 28bd
000002d0: 19af b23c b8bb 5dbc 67ff b3bd 54bc a33d
000002e0: a373 90bd ab51 213d d1d2 083d 404d 92bd
000002f0: 3783 abbc ec24 3fbd 10c3 86bd efbe b1bd
00000300: f28f 1ebd 08d0 11bd 8d80 3ebc f985 ff3c
00000310: 28aa 703d 1e83 c8bc f8b0 62bd f6f2 ee3c
00000320: 3066 233c e1fa 79bd c981 a5bc c93c b53d
00000330: 4b59 5abd c412 4f3d 645a b43d 26f9 f93b
00000340: 48a0 353d 9000 46bd cd9a 1abd c3a5 233d
00000350: 88e7 12bd 002a 523d 2fc7 50bd 4297 abbd
00000360: 43c0 0e3d 1d3d c93c d6da 39bd 74a4 8bbd
00000370: 2902 923d 9cba 1f3d 4c8a 963a 3ebe 89bc
00000380: 7708 703d 3efb 503d 909a ae3d b35a a93c
00000390: 4c34 2a3d a43c 8dbd dc72 81bd c6fc 09bd
000003a0: 937f e53c 072e 57bd 39ec a63d 2fe8 793d
000003b0: 4b75 93bc ba9d 9abd 8c9b c8bb 5b0e 813d
000003c0: 7884 8c3d fb25 ca3a 7b5e 55bd ae54 803d
000003d0: ff65 363c d5f0 0dbd 6d58 9fbd 9ce5 55bb
000003e0: d8f6 9d3c b491 88bd 8b44 133d 71a0 e43c
000003f0: 2fcf 9bbc 2848 853b 83d0 723d dc3e 4e3c
0.020232178 0.039854515 -0.0449101 0.029414365 0.051712614 -0.021960953 0.05691924 0.031372268
0.022889016 0.059112556 0.048950672 0.034921017 0.01947542 -0.009787255 0.014342479 -0.049987283
-0.078973144 0.0117455935 0.073095605 0.039580215 -0.05770065 0.046221286 0.055220865 0.04555564
-0.068243675 -0.09903244 -0.023966093 0.040438008 -0.02607703 0.004803417 -0.037845463 0.075754814
-0.024452232 -0.04027662 0.04239285 0.06620908 -0.0680309 0.052952856 -0.014593589 -0.0125077
-0.06795732 -0.103826396 0.053054437 0.026769117 0.03929978 -0.015542088 -0.028303718 -0.006176948
0.055875484 -0.030947462 -0.11715266 0.04944657 -0.05671276 -0.0037211634 -0.025772037 -0.049728837
-0.044806566 -0.06775621 0.033666506 0.022097588 0.004089783 0.056078184 -0.038489293 0.014023333
-0.0017588409 0.07347179 -0.03850464 -0.049577624 -0.042947337 -0.06873483 0.043065935 0.016766196
-0.005676704 -0.029831357 -0.056425028 0.0070355665 -0.0543863 -0.07352448 0.011591464 -0.052174866
0.05554374 -0.077684164 -0.0010885167 0.059429776 0.020998403 -0.06912485 0.0249515 -0.07046602
-0.036064282 0.03018203 0.0061662504 0.008322645 0.0058973767 0.04850003 -0.121587045 -0.050833385
-0.05243526 0.052405037 0.023469916 0.05978156 0.009458841 0.051998466 -0.0174541 0.045759823
0.046503615 0.012873315 0.05115494 -0.07241789 0.032587074 -0.050352413 -0.018233996 -0.0056544147
-0.086777225 0.015567403 0.07431393 0.043763295 -0.037319068 -0.020118808 0.03316191 0.06758282
-0.045985214 0.026106408 -0.051509306 0.01553714 0.008790742 0.039847016 -0.0470306 -0.03188849
0.07941286 0.040376347 -0.02323826 -0.072290875 -0.06237451 -0.008258806 -0.051585224 0.07661107
0.058662165 0.027388012 0.020884655 0.023767253 -0.004971619 -0.08017423 0.06436017 -0.06650352
-0.05655424 0.0030369882 -0.029006356 -0.043924656 -0.031287406 0.079451986 -0.084877126 -0.07407524
0.028643161 -0.02646859 0.026843803 0.046553124 -0.030038105 0.051820073 -0.027125848 -0.04008665
0.028266342 -0.079038456 0.06984065 0.064204015 -0.024984494 0.053723577 0.07940852 0.07156516
-0.05152494 0.07247919 -0.00040197375 0.029193457 -0.04148803 0.032261517 -0.08078143 -0.07443914
-0.047332484 0.013303374 0.05546395 -0.041186064 0.021812009 -0.013533525 -0.087889485 0.07994905
-0.07053306 0.039384525 0.033404175 -0.071436405 -0.020936592 -0.04666607 -0.06580174 -0.08678996
-0.038711496 -0.035598785 -0.011627329 0.031191813 0.058756024 -0.024476584 -0.05534455 0.029168587
0.009973094 -0.061030272 -0.020203488 0.088494845 -0.053307813 0.050555006 0.08806303 0.0076285778
0.04434231 -0.04834038 -0.037745286 0.039953005 -0.035865337 0.051309586 -0.050971206 -0.083784595
0.034851324 0.024565274 -0.045374714 -0.06818476 0.07129318 0.038996324 0.0011485307 -0.016814347
0.058601823 0.051020853 0.08525574 0.020673132 0.04155378 -0.06896332 -0.06320736 -0.03368833
0.028014934 -0.05253413 0.08150525 0.061012443 -0.018000266 -0.07549615 -0.0061220583 0.06301566
0.06861204 0.0015422696 -0.052092057 0.06266151 0.011132716 -0.034653503 -0.07780538 -0.0032638079
0.019282743 -0.06668416 0.03595404 0.027908536 -0.019019691 0.0040674396 0.059280884 0.012588229

bias f4 [128]
00000000: 5742 58bd b54d 9bbd 21a3 a0bb 9ac1 183c
00000010: 93e4 173d 3354 35bd 40b9 b63c f7f0 eebc
00000020: ab22 f6bd 19ae 9cbd 8e4c aa3b 5f1f 303d
00000030: 651d 1b3d 8212 86bd 6540 acbb b84b a2bc
00000040: e642 0bbd bb1d 983c 879a afbd 4aa4 aebd
00000050: 06c2 993b de53 dfbd 36c6 03bc 4abc b7bd
00000060: 0e33 e23b 578d 5abb a5a8 60bd 471b 8fbd
00000070: d0f5 90bb eb66 073d 9a13 85bc 9838 15be
00000080: 1d8c 85bd 1587 a43c 1c81 dbbd 174a a6bd
00000090: dda4 9dbd 81cb 00bd 04a4 d1bd f460 efbd
000000a0: d485 f0bc 44e8 1e3c c1b1 00bd 1985 ba3c
000000b0: 571f 95bd 0a19 7abd f666 a5bc 21a7 e4bd
000000c0: f2f9 c7bc 8026 e7bc fe16 4237 25a2 aebd
000000d0: 8877 c93c 0030 03bd e787 0ebd 8645 78bc
000000e0: f16d 833b b3ae f03c 6f46 9cbc 23db aebd
000000f0: 79a0 b2bb e5e5 373c ec97 c2bd 8d4a b63c
00000100: afd5 7c3b b0c0 13bd 4362 a0bd 494f 683d
00000110: 6bf3 05be ae2c 92bd fb85 b5bd 504a 7bbb
00000120: 2d4c 54bd 2361 d7bc 6b5b 5bbc c82a 313d
00000130: 2bd5 f33c d341 0b3d fd3c 33bd a28f 5fbd
00000140: 0356 603b 7006 1d3d f08a 56bd 6706 75bd
00000150: 370a 45bd ce61 eabd 6ceb 9ebd 2275 80bd
00000160: ce74 d33b bd72 adbd f8c0 c7bd a8bf 7cbd
00000170: 0af0 cbbc 426f 03bd e6d4 39bd 0ad4 77bd
00000180: 8ba6 8e3c 0349 3ebd a3a4 96bd d049 dbbd
00000190: 18d0 86bc 6c94 a8bd f3a3 dcbd e235 c93d
000001a0: a19c ddbb 2bc0 c2bd 12e4 debd 4d92 66bd
000001b0: e976 b9bd 7fa1 88bd 37d4 0dbd 6afc 48bd
000001c0: 886b 3c3c be18 cfbd 8f0c a3bb 9c21 ecbc
000001d0: 9ec7 4f3d b073 55bd 228c 073c 6e0f 8c3d
000001e0: 050e ddbd 5530 2bbd 45be 8dbd cdf1 cd3c
000001f0: c721 82bd 51fe c53c 1980 03bc 1589 7a3c
-0.05279764 -0.07583181 -0.004902259 0.009323502 0.03708322 -0.04426975 0.022305131 -0.029167635
-0.12018331 -0.07650394 0.0051971143 0.042998668 0.03786983 -0.06546499 -0.0052567 -0.019811496
-0.033999346 0.018568864 -0.085743956 -0.085274294 0.004692319 -0.10904668 -0.008042863 -0.0897146
0.006903059 -0.0033348405 -0.054848332 -0.069876246 -0.0044238344 0.033057135 -0.016244698 -0.1457237
-0.06520865 0.020083943 -0.10717985 -0.081196 -0.07697461 -0.031444076 -0.102363616 -0.11688414
-0.02936069 0.009698931 -0.03141952 0.022768544 -0.07281368 -0.061059035 -0.020190697 -0.1116469
-0.024411175 -0.0282166 1.1568654e-05 -0.0852702 0.02459313 -0.0320282 -0.034797575 -0.015153294
0.004010909 0.029380178 -0.019076554 -0.08537891 -0.0054512587 0.011224245 -0.09501633 0.022252345
0.0038579514 -0.036072433 -0.07831242 0.056716237 -0.13081138 -0.07137428 -0.08863445 -0.0038343854
-0.05183046 -0.026291436 -0.013388495 0.04325369 0.029764732 0.03399832 -0.043759335 -0.05458034
0.0034230954 0.038336217 -0.052378595 -0.05982056 -0.048105445 -0.11444436 -0.07759747 -0.06272341
0.006453133 -0.0846915 -0.09753603 -0.061706215 -0.024894733 -0.032088526 -0.04536905 -0.06050495
0.017413398 -0.04645635 -0.07355621 -0.10707438 -0.016456649 -0.08231434 -0.10773458 0.098247305
-0.0067630564 -0.095093094 -0.10883345 -0.056291867 -0.090558834 -0.06671428 -0.034626212 -0.049068846
0.011500247 -0.10112141 -0.0049758623 -0.02882462 0.05072748 -0.05211228 0.008273156 0.068388805
-0.1079369 -0.04179414 -0.06921057 0.025139714 -0.06354099 0.02416912 -0.008026146 0.015291472
