nerf_models/fox_fixed.pth (torch, 647432 bytes, 22 tensors)

weight f4 [128, 63]
0	0xbd3782b9	-0.0448024
1	0xbc92571c	-0.017863803
2	0xbe6940ad	-0.22778578
3	0xbdde62b2	-0.108586684
4	0x3d381fdd	0.044952262
5	0xbe3b2b27	-0.1827818
6	0xbdc43291	-0.09579957
7	0xbe43727b	-0.1908664
8	0x3da04541	0.07825709
9	0x3e23da50	0.16001248
10	0x3de914f6	0.11380951
11	0x3dcb4d7c	0.09926888
12	0xbda7f463	-0.0820091
13	0x3e32c548	0.1745807
14	0x3e22b8d1	0.15890814
15	0xbd4e36c2	-0.05034519
16	0xbddd08aa	-0.10792668
17	0x3e66a8f8	0.22525394
18	0xbc690bce	-0.014224006
19	0xbda296be	-0.07938908
20	0xbb2a7ab1	-0.0026013071
21	0xbc1cc40c	-0.009568226
22	0xbd6d0373	-0.057864618
23	0xbb8402c7	-0.0040286514
24	0xbd0e3532	-0.0347187
25	0x3e179f2c	0.14806813
26	0x3dcc8666	0.09986572
27	0x3eab770d	0.33489266
28	0xbea099a5	-0.3136722
29	0xbd957efd	-0.07299612
30	0x3e57d2c8	0.210765
31	0x3d48ab62	0.04899157
32	0xbdda1893	-0.106492184
33	0x3db2cac1	0.087300785
34	0xbe7d7727	-0.24752484
35	0xbc72a0fc	-0.0148088895
36	0xbd47e85c	-0.04880558
37	0x3e40e9c6	0.18839177
38	0xbcd456c8	-0.025920287
39	0xbd3d797f	-0.046258446
40	0xbea6fd12	-0.32614952
41	0x3e857d43	0.2607213
42	0x3eaf6f6a	0.3426469
43	0x3d8a1730	0.06742704
44	0xbd978e98	-0.074002445
45	0x3d9ba324	0.07599476
46	0x3d81b6e4	0.06333712
47	0x3c38ae22	0.011271985
48	0x3e246e67	0.1605774
49	0xbe113c08	-0.14183056
50	0xbec54427	-0.3852856
51	0x3bd68f54	0.0065478478
52	0xbe6e67a2	-0.2328172
53	0xbece8fd7	-0.40344116
54	0xbe977b20	-0.29586124
55	0x3e44515e	0.19171664
56	0xbd9bfe01	-0.07616807
57	0x3c20ffdd	0.009826628
58	0x3dece39b	0.1156685
59	0xbf176b5c	-0.5914819
60	0x3d04bd48	0.032407075
61	0xbe924d5a	-0.2857464
62	0x3ea17536	0.31534737
63	0xbd29bb56	-0.041438423
64	0xbcbf6223	-0.023362225
65	0x3c70c7a2	0.014696034
66	0xbebf6166	-0.37378997
67	0x3ec7382f	0.38910052
68	0xbdd4033c	-0.103521794
69	0x3c9d4cb8	0.019201621
70	0xbe87ce63	-0.26524648
71	0x3c152eee	0.009105427
72	0xbb13dbbe	-0.0022561396
73	0xbdce1771	-0.10063065
74	0x3e02c52f	0.12770532
75	0xbd48aa02	-0.048990257
76	0x3e01bfc7	0.12670814
77	0x3e3ac422	0.18238881
78	0x3c3c82a4	0.0115057565
79	0x3dded4d6	0.10880439
80	0x3dcbc9c6	0.099505946
81	0x3d9a8da4	0.07546547
82	0x3db036af	0.0860418
83	0xbd67e4a0	-0.05661452
84	0x3d09bad3	0.033625435
85	0xbe0aa10f	-0.13538001
86	0xbc3ebcbc	-0.0116416775
87	0xbe889892	-0.26678902
88	0xbdfbd1a9	-0.12295849
89	0xbe86d6b2	-0.26335675
90	0xbe065eab	-0.1312205
91	0x3db5e882	0.08882238
92	0xbd73f577	-0.059560265
93	0x3e7f5023	0.24932913
94	0xbd8ce740	-0.06880045
95	0xbe1f194a	-0.15536991
96	0xbd9a1c32	-0.07524909
97	0x3d8ea129	0.069643326
98	0xbd34e489	-0.04416326
99	0x3e2c5711	0.16830088
100	0x3d8f516a	0.069979504
101	0x3da936e6	0.08262424
102	0x3d84b4cc	0.06479797
103	0xbe12e3c7	-0.14344703
104	0x3e25ea1a	0.16202584
105	0xbe72d73c	-0.23714918
106	0x3c5fa790	0.01365079
107	0xbdffb8ce	-0.124864206
108	0xbdb24bed	-0.08705888
109	0x3e38ed3a	0.18059245
110	0xbea24f82	-0.31701285
111	0x3e8c12c9	0.27358082
112	0x3ea3cae3	0.31990728
113	0x3da1f3ca	0.07907827
114	0x3e04b898	0.12961042
115	0xbe97808b	-0.29590258
116	0x3d164122	0.03668321
117	0x3e91863a	0.2842272
118	0xbe69b40e	-0.22822592
119	0xbe4298d0	-0.19003606
120	0xbe9000c8	-0.28125596
121	0xbe3fa5b8	-0.1871556
122	0x3e9addee	0.30247444
123	0xbd624caf	-0.055248912
124	0xbea92057	-0.33032486
125	0x3e7eaf60	0.24871588
126	0xbd10af4a	-0.03532342
127	0xbd1b3cc0	-0.037899733
128	0xbe0c2d48	-0.13689148
129	0x3e78b988	0.24289525
130	0xbe5c930a	-0.21540466
131	0xbcd3992b	-0.025829872
132	0x3e566685	0.20937546
133	0x3d009e7f	0.031401154
134	0x3e2df646	0.16988477
135	0x3e54c383	0.20777707
136	0xbe9259cf	-0.28584144
137	0xbdc15e47	-0.0944181
138	0xbe317619	-0.17330207
139	0x3e701b9e	0.23448035
140	0x3de2b6cf	0.11070024
141	0x3e1001c3	0.14063172
142	0x3ec1e262	0.3786803
143	0x3cc1afa8	0.02364333
144	0x3d721810	0.05910498
145	0xbd81c7bd	-0.06336925
146	0x3d892a16	0.066974804
147	0xbd9406da	-0.07227869
148	0x3d8df62b	0.069317184
149	0x3db7cd9b	0.08974763
150	0xbd950668	-0.072766125
151	0xbdac4c45	-0.08412985
152	0xbd6bb1d3	-0.057542633
153	0x3ceac002	0.02865601
154	0x3bc19180	0.0059072375
155	0x3e9721de	0.29518026
156	0xbce53a4a	-0.027981896
157	0xbd4a3eda	-0.049376346
158	0x3d95096d	0.072771885
159	0x3e4b8b57	0.19877373
160	0x3cf98434	0.030458547
161	0xbe361ad3	-0.1778367
162	0x3e00e871	0.1258867
163	0x3d3033eb	0.043018263
164	0xbe863d3c	-0.26218593
165	0x3dffa61f	0.12482857
166	0x3d05f6ee	0.032706194
167	0x3d1141bf	0.03546309
168	0xbd000c6b	-0.031261843
169	0xbea0ac64	-0.31381524
170	0xbe961446	-0.29312342
171	0x3e2f72cd	0.17133637
172	0xbde99e8a	-0.11407192
173	0xbdabbcd6	-0.08385627
174	0xbe7bb555	-0.24580891
175	0x3e6faf37	0.23406683
176	0x3e8fdd5d	0.28098574
177	0xbe200275	-0.15625937
178	0x3f00c2d2	0.5029727
179	0x3e141efd	0.14464946
180	0x3e330f7c	0.17486376
181	0xbe38d121	-0.18048526
182	0x3eacf481	0.33780292
183	0x3e261058	0.16217172
184	0x3cd3a7d9	0.025836872
185	0xbde616df	-0.11234831
186	0x3ec7ad10	0.38999224
187	0xbdd5529c	-0.10416147
188	0xbebe82bb	-0.37209114
189	0xbd9b4fb6	-0.07583563
190	0x3d3bf918	0.04589185
191	0xbe05d3ff	-0.13069151
192	0x3c04f59d	0.008115199
193	0xbe48be13	-0.19603758
194	0x3bc9669c	0.006146265
195	0xbbae5c0d	-0.005321032
196	0x3cc220bf	0.023697255
197	0x3c8a6243	0.016892558
198	0xbe31e6df	-0.17373227
199	0x3e43b7ef	0.19113134
200	0x3d2b429c	0.04181157
201	0xbdce4479	-0.10071654
202	0xbce3c2ca	-0.027802844
203	0x3e60db6a	0.219587
204	0x3d7bafd6	0.061446987
205	0x3d3af726	0.045645855
206	0x3e0eae89	0.13933767
207	0x3da93525	0.0826209
208	0xbdee5e3f	-0.1163907
209	0xbdf56457	-0.11982029
210	0xbde98540	-0.114023685
211	0x3d3fd13a	0.046830393
212	0x3c1082a6	0.0088202115
213	0x3ce39fa2	0.02778608
214	0x3e1f8f69	0.1558205
215	0x3b08695d	0.0020814755
216	0x3e4b4ba6	0.19853076
217	0xbca249e4	-0.019810624
218	0x3e5c6746	0.2152377
219	0x3d566c85	0.052349586
220	0xbde63598	-0.11240691
221	0xbd54f784	-0.05199386
222	0xbe1ce16a	-0.15320364
223	0xbe7eec01	-0.24894716
224	0xbe870ba7	-0.26376078
225	0xbe461f13	-0.19347791
226	0xbeada462	-0.33914477
227	0xbe08f192	-0.13373402
228	0x3e84891c	0.25885856
229	0x3d5d9dcc	0.054105565
230	0x3c8a1828	0.016857222
231	0x3ea2adce	0.31773227
232	0x3e43a650	0.19106412
233	0x3df398a1	0.11894346
234	0x3e4b13ea	0.19831815
235	0xbdddbacd	-0.10826645
236	0xbe73a0cf	-0.23791812
237	0xbe3ce792	-0.18447712
238	0x3ecf9bdd	0.40548602
239	0xbc1b6dda	-0.00948664
240	0x3ee0d6cb	0.43913874
241	0x3e928170	0.28614378
242	0xbe1f4503	-0.1555367
243	0xbe184844	-0.14871317
244	0x3b74d4b5	0.0037358229
245	0xbebb2c2b	-0.36557135
246	0x3cac494b	0.021031043
247	0xbeae6100	-0.3405838
248	0xbcb917bb	-0.022594323
249	0xbe13414d	-0.14380379
250	0x3e756b4c	0.23966712
251	0x3dccc0be	0.099977
252	0x3dcd1d63	0.10015371
253	0x3cbfd62c	0.023417555
254	0x3ce87b31	0.028379055
255	0x3b5f642f	0.0034086814

bias f4 [128]
0	0xbdeaf372	-0.11472215
1	0xbe6db2bb	-0.23212712
2	0x3cc84b4f	0.024449972
3	0xbdfa34fc	-0.12217137
4	0xbe46ba78	-0.1940707
5	0xbd70d483	-0.058796417
6	0xbd0cf582	-0.034413822
7	0xbea7823e	-0.32716554
8	0xbd9b67dd	-0.0758817
9	0xbe30149e	-0.17195365
10	0xbe1772a9	-0.14789833
11	0x3d94be9c	0.07262918
12	0xbe820c7f	-0.2540016
13	0xbdb34a38	-0.087543905
14	0x3d0ac38b	0.03387789
15	0xbe168640	-0.1469965
16	0xbdb3da55	-0.08781878
17	0xbb910a97	-0.0044263112
18	0xbdb9a7a8	-0.09065181
19	0xbe5ea3c7	-0.21742164
20	0x3ca76a04	0.020436294
21	0xbe6bcc04	-0.23027045
22	0xbd0cfaab	-0.034418743
23	0xbe62c8a4	-0.22146851
24	0xbdf73bf6	-0.120719835
25	0x3ba7287c	0.0051012617
26	0xbe67e1ab	-0.22644679
27	0xbd07edf1	-0.033185903
28	0xbe16a4c0	-0.14711285
29	0xbd72328e	-0.059130244
30	0xbca36be9	-0.019948917
31	0xbdafd22b	-0.08585008
32	0xbd498513	-0.049199175
33	0xbdebd4e4	-0.11515215
34	0xbe0737ba	-0.13204852
35	0xbe7c253d	-0.2462358
36	0xbd81955a	-0.06327315
37	0xbdf400bc	-0.119142026
38	0xbd4f207d	-0.050568093
39	0xbe5be8d7	-0.2147554
40	0xbd95ac61	-0.07308269
41	0x3a28ea19	0.00064435747
42	0xbde61775	-0.11234943
43	0xbe68512f	-0.22687219
44	0xbdefd1a4	-0.11709908
45	0xbe3012f9	-0.17194737
46	0xbe4e1dbb	-0.20128529
47	0xbe0e3a08	-0.13889325
48	0xbe190740	-0.14944172
49	0xbe1bc1f6	-0.15210709
50	0x3c9c13d6	0.019052427
51	0xbdd93d29	-0.106073685
52	0xbde00f98	-0.10940474
53	0xbdf463b1	-0.11933077
54	0xbe82203e	-0.25415224
55	0xbe020bb3	-0.12699775
56	0x3cfd3c49	0.030912535
57	0xbda0ad5e	-0.07845567
58	0xbe1960ca	-0.14978328
59	0xbd22d4d2	-0.039753743
60	0xbe7c7630	-0.2465446
61	0xbd98775a	-0.074446395
62	0xbc8d9ccd	-0.017286683
63	0xbe048476	-0.12941155
64	0xbe5a561d	-0.21321912
65	0xbdc33baa	-0.095328644
66	0xbd3650be	-0.044510596
67	0xbc659e27	-0.014014757
68	0xbe098a33	-0.13431625
69	0xbe85442c	-0.26028574
70	0xbe48ff32	-0.196286
71	0xbe669e19	-0.22521247
72	0xbd0e4df2	-0.034742303
73	0xbda59383	-0.08084776
74	0xbe2b1371	-0.16706635
75	0xbc8db193	-0.017296588
76	0xbd857504	-0.065164596
77	0xbc284c2b	-0.010272066
78	0x3c77333e	0.015087901
79	0xbdcdaeb6	-0.10043089
80	0xbd0df047	-0.034652974
81	0xbbbc8354	-0.00575296
82	0xbe61d046	-0.22052106
83	0x3d3a9129	0.04554859
84	0xbdbb6ced	-0.09151635
85	0xbdaf819b	-0.08569642
86	0xbe11253d	-0.14174362
87	0xbe741897	-0.23837505
88	0xbd195a60	-0.037439704
89	0xbe688edc	-0.22710747
90	0xbcede4cd	-0.029039765
91	0xbda46d20	-0.080286264
92	0xbd98d6f9	-0.07462878
93	0xbdf4b58e	-0.11948691
94	0xbe8e445c	-0.2778653
95	0xbe1987b5	-0.14993174
96	0xbe20e63f	-0.15712832
97	0xbd58c243	-0.052919637
98	0xbe89532d	-0.2682127
99	0xbca478eb	-0.02007719
100	0x3d487ded	0.048948217
101	0xbd8be02e	-0.06829868
102	0x3e1770cb	0.14789121
103	0x3b0036e2	0.0019563963
104	0xbe0a37bd	-0.13497825
105	0xbe51f0da	-0.20502034
106	0xbde268e6	-0.11055164
107	0xbe6a1838	-0.22860801
108	0xbe71ab7c	-0.23600572
109	0xbe3d9eb9	-0.18517579
110	0xbe369fb1	-0.17834355
111	0xbe58cd97	-0.21172176
112	0xbe74fbc8	-0.23924172
113	0xbe9126cb	-0.2834991
114	0xbd541e4f	-0.051786717
115	0xbe304464	-0.17213589
116	0xbd099e98	-0.033598512
117	0xbe05f00e	-0.13079855
118	0xbe859aae	-0.26094574
119	0xbe16b6b5	-0.14718135
120	0xbda8c88a	-0.08241375
121	0xbe25fa9b	-0.1620888
122	0xbd83cbac	-0.06435332
123	0xbe219c73	-0.15782337
124	0x3cf2334f	0.029565481
125	0xbe378024	-0.17919976
126	0xbe54db79	-0.20786847
127	0xbd589361	-0.052874926

weight f4 [128, 128]
0	0x3ea24b58	0.31698108
1	0xbe275600	-0.163414
2	0xbcb23d74	-0.021757819
3	0x3e9fcd59	0.31211355
4	0x3b7ee6f7	0.003889499
5	0xbe9c5c9e	-0.3053941
6	0x3e75e592	0.24013355
7	0xbe6fb764	-0.23409802
8	0x3e9dda24	0.3083049
9	0x3d8e3038	0.06942791
10	0xbe8791de	-0.26478475
11	0x3e05684f	0.13028072
12	0x3deffe2c	0.11718401
13	0xbe3adc1b	-0.18248026
14	0x3d8beb9b	0.068320476
15	0x3d929666	0.071575925
16	0x3d45b8a4	0.04827179
17	0x3dcd373f	0.10020303
18	0x3c122934	0.008920956
19	0xbd0f4661	-0.034979228
20	0x3dbcb089	0.09213359
21	0xbe526e8c	-0.20549983
22	0xbe0fcef2	-0.14043787
23	0xbe0a4eaf	-0.13506578
24	0x3e23a2da	0.15980092
25	0x3dd02ad6	0.1016442
26	0xbca64d29	-0.020300465
27	0xbe926624	-0.28593552
28	0xbc88df95	-0.016708175
29	0x3dbe6f92	0.09298624
30	0x3e855fa5	0.26049533
31	0xbd16ae4f	-0.036787327
32	0x3d6b10ca	0.05738906
33	0xbbda4fa5	-0.0066623264
34	0xbec5a009	-0.3859866
35	0xbd5b0f84	-0.053481594
36	0xbda351d3	-0.07974591
37	0x3d97c0c7	0.07409816
38	0x3e44e326	0.19227275
39	0xbd711f13	-0.058867525
40	0xbd2ce080	-0.042206287
41	0x3d86c5c9	0.06580693
42	0xbdf975ab	-0.121806465
43	0xbd87c681	-0.066296585
44	0xbd26c7e5	-0.040717978
45	0x3e279b5c	0.16367859
46	0xbecaa780	-0.39580917
47	0xbec7f4ae	-0.39053863
48	0x3d8dcc68	0.06923753
49	0x3d5fb17b	0.054612618
50	0xbc04f28e	-0.00811447
51	0x3db2d3ec	0.08731827
52	0xbbaacfad	-0.005212745
53	0x3bc54ef3	0.0060213744
54	0x3d3a78ba	0.04552529
55	0xbd8421b4	-0.06451741
56	0xbeb0b6ac	-0.34514368
57	0xbe01eba0	-0.1268754
58	0x3d8f4909	0.06996352
59	0xbe2c7a5a	-0.16843548
60	0xbd1f26d5	-0.038855392
61	0x3cac4fee	0.021034207
62	0xbe0ec815	-0.13943513
63	0x3c865239	0.016396629
64	0xb89ca37d	-7.469112e-05
65	0xbeebca51	-0.46052793
66	0xbdfd80ac	-0.12378058
67	0x3db6d50f	0.089273565
68	0x3de2bf2e	0.11071621
69	0x3d492abe	0.049113028
70	0xbea70184	-0.32618344
71	0xbd3c379e	-0.04595148
72	0xbe0557d5	-0.13021787
73	0x3dabd104	0.08389476
74	0x3dcc6715	0.09980599
75	0x3deede6f	0.116635196
76	0xbe19f88b	-0.15036218
77	0x3d12749a	0.03575573
78	0x3dec1891	0.11528123
79	0xbd9965e7	-0.074901395
80	0xbd8f231a	-0.06989117
81	0x3e001307	0.12507258
82	0x3e04d8a8	0.12973273
83	0x3e6e87bf	0.2329397
84	0xbd74f000	-0.059799194
85	0xbd8f83f0	-0.07007587
86	0xbcb51e6a	-0.02210923
87	0xbd1ed277	-0.038774934
88	0xbe4c30d5	-0.19940503
89	0x39ce4647	0.00039343743
90	0x3e00d8c3	0.12582688
91	0x3d4635d8	0.048391193
92	0xbeb1e6e1	-0.3474646
93	0x3be807cc	0.0070810076
94	0xbe6346e4	-0.22195011
95	0xbd8ea84d	-0.069656946
96	0xbe3b4f87	-0.18292056
97	0xbe54757c	-0.20747942
98	0x3d88c41f	0.06678032
99	0x3daf0e88	0.085476935
100	0x3e5051fa	0.20343772
101	0xbdac683e	-0.0841832
102	0x3e8e518f	0.277966
103	0xbd53aa09	-0.05167583
104	0xbf06591f	-0.5247974
105	0x3e51a419	0.20472755
106	0x3e603161	0.21893837
107	0xbeb48ceb	-0.35263762
108	0xbc41f909	-0.01183916
109	0xbe4ef3a9	-0.20210136
110	0xbe06ae53	-0.13152437
111	0x3db6550a	0.08902939
112	0xbe29b953	-0.16574602
113	0xbe154e19	-0.14580573
114	0xbe07babc	-0.13254827
115	0xbe08aad3	-0.13346414
116	0x3d81d102	0.06338693
117	0xbe1072b0	-0.1410625
118	0xbcde467d	-0.02713322
119	0xbd8bf44a	-0.06833704
120	0xbb2e1454	-0.002656241
121	0x3c8e0ecd	0.017341042
122	0x3d3dce3c	0.04633926
123	0xbd50a621	-0.050939683
124	0x3df2f631	0.118633635
125	0xbe05d786	-0.13070497
126	0xbd90b1a0	-0.07065129
127	0xbe675693	-0.22591619
128	0xbd74dc3c	-0.059780344
129	0xbe02a79a	-0.12759247
130	0xbdd23ebc	-0.10265872
131	0x3db31d0c	0.087457746
132	0xbdbca15e	-0.09210466
133	0x3eac573a	0.336603
134	0x3b14ce7d	0.0022706084
135	0xbda9613c	-0.08270499
136	0x3cf2e015	0.029647866
137	0xbe0ad8a9	-0.13559212
138	0xbe4f2b51	-0.20231368
139	0x3d2453c3	0.040118944
140	0xbe68838f	-0.22706436
141	0x3cd4cc41	0.025976302
142	0x3e7ce54d	0.24696846
143	0x3e0e6da5	0.13909014
144	0x3e2576c7	0.16158591
145	0xbe6a7ac4	-0.22898394
146	0xbdd6d3d2	-0.1048962
147	0x3d73ca82	0.0595193
148	0xbb9f106d	-0.004854253
149	0x3c77a653	0.015115338
150	0x3daa6221	0.08319498
151	0xbe2613ad	-0.16218443
152	0xbe9c79f5	-0.30561796
153	0x3c97bc75	0.01852248
154	0x3c39ec5a	0.0113478545
155	0xbdc9d932	-0.0985588
156	0x3e32726f	0.17426465
157	0x3e5d5058	0.2161268
158	0x3e3971da	0.18109837
159	0xbe427ff1	-0.18994118
160	0xbdb5ebcb	-0.088828646
161	0xbda8a9e5	-0.0823553
162	0xbdc9ed96	-0.09859769
163	0xbe0e46e2	-0.13894227
164	0xbd5a2957	-0.05326208
165	0xbd1fb338	-0.038989276
166	0xbd4899d0	-0.048974812
167	0xbdfcc55f	-0.12342333
168	0xbe395e21	-0.18102314
169	0x3db916f4	0.09037581
170	0x3daed699	0.08537025
171	0xbd9debfb	-0.07711025
172	0xbc089756	-0.008336863
173	0xbdc3d6c6	-0.09562449
174	0xbda5159d	-0.08060763
175	0x3b63f484	0.0034783194
176	0xbe7ff1e0	-0.24994612
177	0xbe705dee	-0.23473331
178	0x3df85cb1	0.121270545
179	0xbe98d20b	-0.2984775
180	0xbcfa9f5d	-0.030593568
181	0x3d24c47f	0.040226456
182	0xbe4334fb	-0.19063179
183	0x3deb9b15	0.11504189
184	0x3e4f7b28	0.20261824
185	0x3e4d461e	0.20046279
186	0x3db5127f	0.088414185
187	0x3df88967	0.121355824
188	0xbc92e4b6	-0.017931323
189	0xbd82ee26	-0.063930795
190	0xbdc91428	-0.098182976
191	0xbe1976d3	-0.14986734
192	0xbe0c6f98	-0.13714445
193	0xbcfded01	-0.030996801
194	0xbd7f25e3	-0.06229199
195	0xbb787b9a	-0.003791547
196	0x3cc8c6c0	0.024508834
197	0x3e093374	0.13398534
198	0xbe9006ab	-0.28130087
199	0xbe24e936	-0.16104588
200	0x3e10af0d	0.14129277
201	0xbde34a04	-0.11098102
202	0x3dfa5fdc	0.12225315
203	0x3d1049da	0.03522668
204	0xbe077433	-0.1322792
205	0x3e6e4fd2	0.23272637
206	0x3da1bdd1	0.07897533
207	0xbde25fb3	-0.110534094
208	0xbbf6f3d6	-0.0075363917
209	0xbefeecff	-0.4979019
210	0xbe90b55c	-0.28263366
211	0x3e644576	0.22292122
212	0xbdbe300a	-0.092865065
213	0x3c9aae2a	0.018881876
214	0xbdcc186e	-0.09965597
215	0x3e12eb22	0.14347509
216	0x3dabc417	0.083870105
217	0x3d9b0797	0.07569807
218	0x3e024cdb	0.1272463
219	0x3d1ba678	0.038000554
220	0x3e1aadb6	0.15105328
221	0x3e04d385	0.12971313
222	0x3db1c392	0.0867988
223	0xbdbc5975	-0.0919675
224	0x3e085a0d	0.13315602
225	0x3c930fa5	0.017951796
226	0xbebaa49e	-0.36453718
227	0xbe231dcf	-0.1592934
228	0xbdb89b40	-0.090139866
229	0x3e38bafe	0.18040082
230	0xbe899872	-0.2687412
231	0xbd96f090	-0.073701024
232	0x3d30999e	0.04311525
233	0x3d20b992	0.039239474
234	0x3e9f7e9a	0.31151277
235	0xbdfc2f9e	-0.1231377
236	0xbe00d073	-0.12579517
237	0xbe92a5d0	-0.2864213
238	0xbf04be96	-0.5185331
239	0x3bf1a1ff	0.007374048
240	0x3e27a3fb	0.16371147
241	0xbe3e547d	-0.18586917
242	0x3cf5a059	0.029983686
243	0xbe1808f4	-0.14847165
244	0xbd4e3d11	-0.050351206
245	0xbe182489	-0.14857687
246	0xbe0f0411	-0.13966395
247	0xbe3938ba	-0.18088046
248	0xbe56d029	-0.20977844
249	0x3a404284	0.00073341304
250	0x3d024f0b	0.031813662
251	0xbe23944a	-0.15974537
252	0x3dd1fc98	0.102532566
253	0xbdacb743	-0.08433392
254	0x3d5310d6	0.051529728
255	0x3e0b3f63	0.13598399

bias f4 [128]
0	0xbc4e1f07	-0.01258064
1	0xbc9f2a0e	-0.019429233
2	0x3ccf10e3	0.025276607
3	0x3c9b5bd4	0.018964685
4	0x3cebb71b	0.028773835
5	0x3c8b18a0	0.016979516
6	0x3d00594d	0.031335164
7	0xbcbbbc68	-0.022916988
8	0xbcc4422f	-0.02395734
9	0xbdd962bf	-0.106145374
10	0xbc607cfe	-0.013701675
11	0xbceeff42	-0.02917445
12	0x3c669c82	0.0140754
13	0xbd6119c6	-0.05495622
14	0xbd80ac2a	-0.06282838
15	0xbd4d34df	-0.05009925
16	0xbd781df2	-0.060575433
17	0xbd09a637	-0.03360578
18	0xbd41a6ca	-0.047278203
19	0x3c851ca9	0.016249018
20	0x3d631da0	0.055448174
21	0xbd06f8d7	-0.032952156
22	0x3cbafb5d	0.022824937
23	0xbddda11a	-0.10821743
24	0x3caabb1b	0.020841172
25	0x3bb8e2ea	0.0056422846
26	0x3c063516	0.008191368
27	0xbdee18eb	-0.116258465
28	0x3d7911c3	0.060807955
29	0x3b5dfe3f	0.0033873466
30	0xbe32b6e6	-0.17452583
31	0xbdc50e77	-0.096218996
32	0xbcc36c8a	-0.023855466
33	0xbd97a727	-0.07404929
34	0xbdcabb32	-0.09898986
35	0x3d9e3a33	0.07725944
36	0xbdbb5c37	-0.09148448
37	0xbc68d0e7	-0.014209962
38	0xbdac94d0	-0.08426821
39	0xbe02b6ad	-0.12764998
40	0x3d86ad24	0.06575993
41	0xbd71eb08	-0.059062034
42	0x3d8456b6	0.06461851
43	0xbaeaa5cc	-0.0017902195
44	0xbdbe9dee	-0.093074664
45	0x3d949236	0.0725445
46	0x3d27c861	0.04096258
47	0xbd2d6fd2	-0.04234297
48	0x3d990138	0.074709356
49	0xbd7195ed	-0.05898087
50	0xbd9cacf5	-0.076501764
51	0x3d0dd355	0.03462537
52	0xbdf50076	-0.119629785
53	0xbb221ead	-0.0024737522
54	0xbd708cb7	-0.058727946
55	0xbccfe91e	-0.025379714
56	0x3a0edaa4	0.000544945
57	0xbc299f2f	-0.010352894
58	0xbd0aa828	-0.033851773
59	0xbd54955e	-0.05190026
60	0xbc9ddb60	-0.019269645
61	0xbcc5e9e0	-0.024159372
62	0x3cd4bb88	0.025968328
63	0x3dabd8e8	0.08390981
64	0xbdf1895a	-0.11793776
65	0x3de5444f	0.111946695
66	0xbd9092a6	-0.07059221
67	0x3d6421bd	0.055696238
68	0xbdd1600f	-0.102234
69	0xbd93d363	-0.07218053
70	0x3c42f4a5	0.011899148
71	0xbc64badf	-0.013960569
72	0x3d247e8b	0.040159743
73	0xbc5d3e94	-0.013503689
74	0xbd8d0449	-0.06885583
75	0x3d757b10	0.059931815
76	0xbd770e33	-0.060316276
77	0x3b955620	0.004557386
78	0x3d759f11	0.05996615
79	0xbde8d9a5	-0.113696374
80	0xbdb8fee7	-0.09032994
81	0xbdb6c11e	-0.08923553
82	0xbc83f74b	-0.01610913
83	0x3d6ed7be	0.058311217
84	0xbdaf3b30	-0.08556211
85	0xbc5f4a80	-0.013628602
86	0x3d929e0c	0.07159051
87	0xbe0ee16e	-0.13953182
88	0xbd0fbfaa	-0.035094894
89	0x3d4b81b9	0.04968426
90	0xbd86e249	-0.06586129
91	0xbcb4a967	-0.022053434
92	0xbdaf40d7	-0.08557289
93	0xbc8efd40	-0.017454743
94	0x3da6d196	0.08145444
95	0x3cbbfab5	0.022946695
96	0xbd2540ac	-0.04034488
97	0xbd7b2117	-0.061310854
98	0x3c653f38	0.013992123
99	0xbc1df12b	-0.009640018
100	0xbd818608	-0.063243926
101	0x3c14e2c3	0.009087267
102	0xbd569d40	-0.05239606
103	0xbd301eb1	-0.04299802
104	0x3cfb4d1f	0.030676423
105	0xbde045b8	-0.10950798
106	0x3d7c5cb7	0.061611857
107	0x3d87454a	0.06605013
108	0x3d3d0a76	0.046152554
109	0xbd9d0597	-0.07667082
110	0x3d2cbe64	0.04217376
111	0x3d38c72e	0.045111828
112	0x3de34190	0.110964894
113	0xbcf823b3	-0.03029046
114	0x3bd87c92	0.006606647
115	0x3c866706	0.016406547
116	0xbd7e6525	-0.062108178
117	0x3d6b24aa	0.057408012
118	0xbdc81c85	-0.09771065
119	0xbe1471e9	-0.14496578
120	0xbd72421e	-0.059145086
121	0x3d83ec1b	0.06441518
122	0xbdd2f601	-0.10300828
123	0xbd66989d	-0.056297887
124	0xbc97a957	-0.018513365
125	0xbc28dca8	-0.010306515
126	0x3cc9d63c	0.024638288
127	0xbd30a0f9	-0.043122265

weight f4 [128, 128]
0	0x3cdee4aa	0.027208645
1	0xbc3c1101	-0.011478663
2	0xbc3eafe9	-0.01163862
3	0x3e985431	0.29751733
4	0x3e299279	0.16559781
5	0xbebd206e	-0.36938804
6	0xbe8a3c5c	-0.26999176
7	0x3e3eb99d	0.18625493
8	0xb997926e	-0.00028910063
9	0x3d5a7d5d	0.053342212
10	0x3e3e0704	0.18557364
11	0xbd26eb03	-0.04075147
12	0xbe98cb79	-0.29842737
13	0xbe201129	-0.15631546
14	0xbcd7f3d1	-0.026361378
15	0xbe92436d	-0.28567067
16	0xbdc168cd	-0.09443817
17	0xbe7e2b25	-0.24821146
18	0xbc9ce3fc	-0.01915168
19	0xbda60aa9	-0.08107502
20	0x3d806020	0.062683344
21	0xbe02254b	-0.12709539
22	0xbe4b74a7	-0.19868718
23	0xbea0a5d5	-0.3137652
24	0xbe953adf	-0.29146478
25	0xbdd539ce	-0.10411416
26	0x3dccd60a	0.10001762
27	0xbe842149	-0.25806645
28	0xbe01133b	-0.12604992
29	0x3df0bdea	0.11754973
30	0xbe81d421	-0.25357154
31	0x3d0e0689	0.0346742
32	0xbdb1ee86	-0.08688073
33	0xbdee313c	-0.116304845
34	0xbeba5dd7	-0.3639972
35	0x3e34872f	0.17629693
36	0xbdf9c2cf	-0.1219536
37	0xbdbbbd0a	-0.09166916
38	0x3e5e9ddc	0.21739906
39	0x3d8a9f4c	0.06768665
40	0xbd7610f2	-0.060074754
41	0x3ced812e	0.028992262
42	0x3cc11e61	0.023574056
43	0x3d9f6c00	0.07784271
44	0x3df92ae8	0.12166387
45	0xbee416dc	-0.4454869
46	0x3d1228ef	0.03568357
47	0x3e3ca42e	0.18422005
48	0x3de88df1	0.11355198
49	0xbe260b21	-0.16215183
50	0x3cbc7250	0.023003727
51	0xbe2ad4f0	-0.16682792
52	0xbe385c79	-0.18004026
53	0x3db986bf	0.09058904
54	0x3e32dffb	0.17468254
55	0xbe56bc38	-0.20970237
56	0x3e2a4092	0.16626194
57	0x3e7b212b	0.24524371
58	0x3e1ae21a	0.15125313
59	0xbe0b6898	-0.13614118
60	0x3df9df69	0.12200815
61	0xbd160ba8	-0.03663221
62	0x3dd91f37	0.10601657
63	0xbdec5a31	-0.1154064
64	0xbd3e1d29	-0.046414528
65	0xbd2e6cef	-0.042584356
66	0xbc5a2f44	-0.013316933
67	0x3c9d6815	0.01921467
68	0xbdfaad8b	-0.12240132
69	0x3db3af91	0.08773721
70	0x3d9cd0f4	0.07657042
71	0xbcf7fa05	-0.030270586
72	0x3ea7f9db	0.32807812
73	0x3dcefac4	0.101064235
74	0x3e09d72a	0.13460985
75	0x3d1f7d98	0.038938135
76	0xbe03cd20	-0.12871218
77	0x3d564a05	0.052316684
78	0xbe90f1a0	-0.28309345
79	0xbca682f9	-0.020326125
80	0x3d0047de	0.031318538
81	0xbdd8d827	-0.10588103
82	0x3e2a4a82	0.16629985
83	0xbe626233	-0.22107773
84	0x3e759fa0	0.23986673
85	0x3da74821	0.08168054
86	0xbe264e8d	-0.16240902
87	0xbbdfad8c	-0.0068261083
88	0xbe774236	-0.24146351
89	0xbd919754	-0.07108942
90	0x3d05ad36	0.03263589
91	0x3e0622eb	0.13099258
92	0xbe747a77	-0.23874842
93	0xbe7474ca	-0.23872676
94	0xbe280f38	-0.16412055
95	0xbe0f3e82	-0.13988689
96	0x3cd9a4c6	0.026567828
97	0xbe2c6b01	-0.16837694
98	0xbd8d9fe0	-0.06915259
99	0xbe594d2f	-0.2122085
100	0xbee2b628	-0.442796
101	0xbd3bde64	-0.045866385
102	0x3cb84cdb	0.022497585
103	0xbe23d5b7	-0.15999494
104	0xbe1a1566	-0.15047225
105	0x3d53d9ad	0.051721264
106	0x3e290737	0.16506658
107	0xbda6dce9	-0.08147604
108	0xbd8b9f4a	-0.06817491
109	0xbd2bd107	-0.04194739
110	0xbaf5acb3	-0.0018743485
111	0x3b149e29	0.0022677279
112	0xbd33036c	-0.043704435
113	0xbea549b9	-0.32282808
114	0x3c7195d1	0.014745192
115	0x3e4615a6	0.19344196
116	0xbb47c023	-0.0030479513
117	0xbed2ab22	-0.4114619
118	0x3e1b0dd6	0.15141997
119	0xbd98d688	-0.074627936
120	0x3e16b370	0.14716887
121	0xbd976105	-0.07391552
122	0x3cae2dc9	0.021262066
123	0xbe1831db	-0.14862768
124	0xbc829811	-0.015941652
125	0xbe82d94b	-0.25556406
126	0xbd3a3ddb	-0.045469146
127	0x3e2b0066	0.1669937
128	0xbe47d255	-0.19513829
129	0x3db3e2d2	0.08783497
130	0xbc192f99	-0.009349727
131	0x3ea40922	0.32038218
132	0x3d895adc	0.06706783
133	0xbe8e6280	-0.27809525
134	0x3e57b56c	0.210653
135	0x3df5277d	0.119704224
136	0xbcdbf310	-0.0268493
137	0x3ddb0bb2	0.1069559
138	0xbe2089d1	-0.15677573
139	0xbf014330	-0.50493145
140	0xbd983db4	-0.07433644
141	0x3e0b7708	0.13619626
142	0x3e433481	0.19062997
143	0x3c35ba6d	0.011091811
144	0xbe44dcda	-0.19224873
145	0xbda8f1b2	-0.08249225
146	0xbca6320a	-0.020287532
147	0x3e2beaf6	0.16788849
148	0x3c1d5f97	0.00960531
149	0xbea4acde	-0.32163137
150	0x3e5eba32	0.21750715
151	0xbd4d4a92	-0.050119944
152	0xbd228587	-0.039678123
153	0xbe66121e	-0.22467849
154	0x3d9d0c02	0.07668306
155	0x3d47a7ae	0.048743896
156	0xbe802ebc	-0.25035655
157	0xbd3641e3	-0.04449643
158	0xbe2ce06c	-0.16882485
159	0xbec476a9	-0.3837178
160	0xbe09747f	-0.13423346
161	0xbdd45acc	-0.10368881
162	0xbdafa0c6	-0.08575587
163	0xbe23c34d	-0.1599247
164	0xbe5c8783	-0.21536069
165	0xbee0f5c7	-0.43937513
166	0x3ddde75d	0.10835145
167	0xbe3679ac	-0.17819852
168	0xbeb04122	-0.34424692
169	0xbc5e919d	-0.013584522
170	0xbeaf4483	-0.34231958
171	0xbea9699a	-0.3308838
172	0xbb160351	-0.002289016
173	0x3d71d130	0.059037387
174	0x3dcfca4b	0.10146006
175	0x3de8d022	0.11367823
176	0x3e999f39	0.3000429
177	0x3d9468a8	0.07246524
178	0xbe02fb48	-0.12791169
179	0x3d1fb772	0.038993306
180	0xbe995561	-0.2994795
181	0x3e6d7be7	0.23191796
182	0xbc38ecf0	-0.011286959
183	0xbe66bd05	-0.22533043
184	0xbc4b6450	-0.012414053
185	0x3d2ea2b8	0.04263565
186	0xbe472fc0	-0.19451809
187	0xbdff4840	-0.124649525
188	0x3de60bfe	0.11232756
189	0x3d233805	0.039848346
190	0xbe719350	-0.23591352
191	0x3d5fb329	0.05461422
192	0xbd7ec688	-0.062201053
193	0xbd69dec1	-0.0570972
194	0x3c52e60f	0.012872233
195	0xbd8cd690	-0.06876862
196	0xbd807f02	-0.06274225
197	0xbcc2e6d2	-0.023791704
198	0xbdb9105c	-0.090363234
199	0xbe225278	-0.15851772
200	0x3e021be7	0.12705956
201	0xbec5f51c	-0.38663566
202	0xbe16afef	-0.14715551
203	0xbd4126f2	-0.04715628
204	0xbd94405c	-0.07238838
205	0xbdd1d416	-0.1024553
206	0xbe3b142b	-0.18269412
207	0xbd8b32ee	-0.067968234
208	0x3e1ebec8	0.15502465
209	0x3d8fbf24	0.07018879
210	0xbd967fa1	-0.07348562
211	0xbda76148	-0.08172852
212	0xbf0451c5	-0.5168727
213	0xbe1bbf20	-0.15209627
214	0xbdaabd2d	-0.08336864
215	0x3d5eae91	0.0543657
216	0xbdd19977	-0.10234349
217	0xbe00998b	-0.12558572
218	0xbdb72bbd	-0.08943889
219	0xbe8e0d98	-0.27744746
220	0xbda29c11	-0.079399236
221	0x3d4308b2	0.047615714
222	0xbd690d0d	-0.05689721
223	0x3e1f5c1a	0.15562478
224	0xbda5646a	-0.08075793
225	0xbe2a3c31	-0.16624524
226	0xbec025a7	-0.37528726
227	0x3e09b22b	0.13446872
228	0x3e762c88	0.24040425
229	0x3d83d279	0.06436629
230	0xbdc2513c	-0.094881505
231	0x3dacaf4d	0.084318735
232	0x3d1ae7b8	0.03781864
233	0x3dbbf937	0.09178393
234	0x3d8ed62b	0.06974443
235	0xbe8f1e67	-0.27952883
236	0x3df5c7b0	0.12000978
237	0xbe19d7a4	-0.15023667
238	0xbd837128	-0.06418067
239	0x3c317474	0.010830987
240	0x3e3a6ae8	0.18204844
241	0xbd664485	-0.05621769
242	0x3ebe2bb5	0.3714272
243	0x3d9596ef	0.07304179
244	0x3da86f80	0.08224392
245	0x3e69b856	0.22824225
246	0x3dc20e33	0.094753645
247	0xbd83cc17	-0.064354114
248	0xbe31e5fc	-0.17372888
249	0xbe402320	-0.18763399
250	0xbec164bb	-0.37772164
251	0x3e12151a	0.14265862
252	0xbd474675	-0.048651177
253	0x3d96b794	0.073592335
254	0xbcef5ce0	-0.029219091
255	0xbda51f06	-0.08062558

bias f4 [128]
0	0xbe10dbd5	-0.1414636
1	0x3ce1a445	0.02754415
2	0xbdeda7d0	-0.11604273
3	0x3d3953f6	0.045246087
4	0xbadb487f	-0.001672998
5	0xbd3714c6	-0.044697545
6	0xbc329e0a	-0.010901937
7	0xbc8c0426	-0.017091822
8	0x3d2b621e	0.04184162
9	0x3cfe00db	0.031006267
10	0xbdd8aae3	-0.10579469
11	0x3d1ef8fc	0.03881167
12	0xbe0c4188	-0.13696873
13	0xbd7f1ed2	-0.062285252
14	0x3c993cb3	0.018705701
15	0xbe011b41	-0.12608053
16	0xbe353c9c	-0.17698902
17	0xbd09f646	-0.03368213
18	0xbde68a96	-0.11256902
19	0xbd4b5943	-0.049645673
20	0x3b187276	0.0023261583
21	0x3cbad671	0.022807332
22	0xbe35c3a6	-0.17750415
23	0xbb35bdee	-0.0027731615
24	0xbde225f2	-0.11042394
25	0xbd920728	-0.07130271
26	0x3d611fc9	0.054961953
27	0x3d5d2786	0.05399277
28	0xbd34b14e	-0.044114403
29	0xbda4d1a5	-0.08047799
30	0xbdb41361	-0.08792759
31	0x3c4633c4	0.012097303
32	0xbbee9770	-0.0072812364
33	0x3db0d53c	0.08634421
34	0x3df5f91f	0.12010407
35	0x3dc56be7	0.09639721
36	0x3ce1604a	0.027511735
37	0xbda0a372	-0.07843675
38	0xbe26f983	-0.16306119
39	0x3d9bc2c2	0.076055065
40	0xbd1f6ce3	-0.0389222
41	0xbd95c505	-0.07312969
42	0xbd17015b	-0.036866527
43	0xbce3de8a	-0.027816076
44	0x3c71f247	0.014767236
45	0xbd12387b	-0.035698395
46	0x3d2f821b	0.042848688
47	0x3d821d34	0.06353226
48	0xbcd3fc61	-0.02587718
49	0xbd549b43	-0.05190588
50	0xbcdb444f	-0.02676597
51	0xbd99b658	-0.075054824
52	0xbd1a7b41	-0.0377152
53	0xbe00a7c2	-0.12563995
54	0x3da1cf28	0.0790084
55	0xbdf4dd60	-0.119562864
56	0xbc900942	-0.01758254
57	0x3d1f60f0	0.038910806
58	0xbd435fad	-0.047698665
59	0x3d3b1a19	0.045679186
60	0x3a083141	0.00051953277
61	0xbd4399c9	-0.047754083
62	0xbd63af6b	-0.055587213
63	0xbd0d8912	-0.03455455
64	0xbd6507b4	-0.05591555
65	0x3cbbc0ad	0.022919023
66	0xbd94f13f	-0.072725765
67	0x3d25da66	0.040491484
68	0xbd2a4a50	-0.041574776
69	0xb98cd49c	-0.00026861287
70	0xbc42b215	-0.011883278
71	0xbdfdd95d	-0.123949744
72	0xbdf9958b	-0.12186726
73	0xbda01faa	-0.078185394
74	0x3d3cdc2d	0.046108413
75	0xbdadb18f	-0.08481132
76	0xbd87f13f	-0.06637811
77	0xb9ff78b7	-0.0004872733
78	0xbd2d8fac	-0.042373344
79	0xbd8f842f	-0.07007634
80	0x3dbfe358	0.09369534
81	0xbd708441	-0.058719877
82	0xbcc69561	-0.024241151
83	0xbd637dfd	-0.055540074
84	0x399a57e1	0.00029438644
85	0x3d2ca886	0.042152904
86	0xbdfdeda2	-0.123988405
87	0xbe49361c	-0.19649547
88	0xbc89a31d	-0.016801411
89	0xbd882342	-0.0664735
90	0xbc9cc53c	-0.019137017
91	0xbddb9d25	-0.10723332
92	0xbd6e2744	-0.058142915
93	0x3d571896	0.05251368
94	0xbe267213	-0.16254453
95	0x3ce27b2a	0.02764662
96	0xbe8a12ba	-0.26967412
97	0x3dcf3365	0.101172246
98	0xbc9ae3a8	-0.018907383
99	0x3d375c46	0.044765733
100	0x3d87e4dc	0.06635448
101	0x3ba74aa8	0.0051053353
102	0xbd8af379	-0.0678472
103	0xbd5f0bd3	-0.054454636
104	0xbd1f40d6	-0.03888019
105	0xbd94ab6b	-0.07259258
106	0xbdba8962	-0.09108235
107	0xbd0717a6	-0.032981537
108	0xbd82c1c4	-0.06384614
109	0x3c1ee61f	0.00969842
110	0xbe0b2951	-0.1358998
111	0x3ce43fae	0.027862396
112	0xbe1191e7	-0.14215814
113	0x3caf9982	0.021435503
114	0x3da5d2c1	0.08096839
115	0xbd368318	-0.044558614
116	0xbd53e24d	-0.05172949
117	0xbe0f571e	-0.13998076
118	0xbd92adfa	-0.0716209
119	0xbd1ba259	-0.037996624
120	0xbd133e63	-0.03594817
121	0x3de20500	0.1103611
122	0x3d3d9187	0.046281364
123	0xbd46f02c	-0.04856889
124	0x3d8f2efb	0.06991383
125	0xbd274dc6	-0.040845655
126	0xbd8b6760	-0.068068266
127	0x3c15257c	0.009103175

weight f4 [128, 128]
0	0xbe66a98b	-0.22525613
1	0xbe7f4f25	-0.24932535
2	0xbe7ec1b6	-0.24878582
3	0xbacc7ea3	-0.0015601706
4	0x3c35aebe	0.011089025
5	0x3e5440dc	0.20727867
6	0x3e4113eb	0.18855254
7	0xbebcebd7	-0.36898682
8	0xbee28885	-0.4424478
9	0xbd28a491	-0.041172568
10	0xbd2926ba	-0.0412967
11	0x3ce07dfd	0.027403826
12	0x3e84137c	0.25796115
13	0x3d8adf2f	0.0678085
14	0xbd33b8b0	-0.043877304
15	0x3c3018a3	0.010748061
16	0x3dd94dcd	0.106105424
17	0xbe192a51	-0.14957549
18	0x3ddfb2e9	0.10922796
19	0xbe258a6b	-0.16166084
20	0x3dffc4d1	0.124887116
21	0x3e040394	0.1289199
22	0x3e077394	0.13227683
23	0xbe956477	-0.2917821
24	0x3d73bb34	0.059504703
25	0x3b1fcf9d	0.0024385222
26	0xbda14d1a	-0.07876034
27	0x3da9ec2e	0.08297001
28	0x3db9dfdd	0.09075902
29	0x3d4d4eee	0.0501241
30	0x3e4b8588	0.19875157
31	0xbed4897b	-0.4151114
32	0xbe84831f	-0.25881287
33	0xbe1aa556	-0.15102133
34	0x3e87d8f7	0.2653272
35	0xbe1a8cb7	-0.15092741
36	0xbe1d0578	-0.15334117
37	0x3dd096ed	0.10185037
38	0x3e4b7fdb	0.19872992
39	0xbda8460b	-0.08216485
40	0x3d2e031f	0.042483445
41	0xbd817f76	-0.06323139
42	0x3e1baede	0.15203425
43	0xbe8117b0	-0.25213385
44	0xbd00a2cc	-0.031405255
45	0x3e2ca440	0.16859531
46	0xbe80dc22	-0.25167948
47	0x3cf2024b	0.029542109
48	0xbe0883f2	-0.13331583
49	0xbea51fca	-0.32250816
50	0xbea4aacb	-0.32161555
51	0xbc5eaea4	-0.013591442
52	0xbecd0f30	-0.4005065
53	0x3cfe4da0	0.031042874
54	0x3ba447b9	0.005013433
55	0xbd959625	-0.073040284
56	0x3eb5aaf2	0.35481983
57	0xbebb6593	-0.36600932
58	0x3e126171	0.14294983
59	0xbe39f90f	-0.18161415
60	0xbe1e44d9	-0.15455951
61	0xbf0073c5	-0.5017665
62	0x3e260a94	0.16214973
63	0x3e185561	0.1487632
64	0x3de2594e	0.1105219
65	0x3e2a56ed	0.16634722
66	0xbe55c208	-0.20874798
67	0xbca4634d	-0.020066882
68	0xbc90630e	-0.017625358
69	0xbda92a7e	-0.08260058
70	0x3c751c8b	0.014960418
71	0xbe85fca8	-0.26169324
72	0xbec62113	-0.3869711
73	0xbe005c2a	-0.12535158
74	0x3e827c8c	0.25485647
75	0xbcf52b9c	-0.029928021
76	0x3c5eac7f	0.013590931
77	0xbe048462	-0.12941125
78	0x3ea33fa4	0.3188449
79	0x3d05957c	0.032613263
80	0x3e3d320f	0.18476127
81	0xbde7599c	-0.112963885
82	0xbd75c12b	-0.059998672
83	0x3e3d21f2	0.1846998
84	0x3c0db8dc	0.008650031
85	0x3e1a9454	0.15095645
86	0xbe7a97a1	-0.24471904
87	0xbe67a22c	-0.22620457
88	0x3e050169	0.12988819
89	0x3e1c2527	0.15248547
90	0x3dc8369d	0.09776042
91	0x3e046a82	0.12931255
92	0x3e431bda	0.19053593
93	0xbdef3990	-0.11680901
94	0xbe5e75fe	-0.21724698
95	0x3d486632	0.048925586
96	0xbe7746fa	-0.24148169
97	0xbe52eb0f	-0.2059748
98	0xbd8f6536	-0.07001726
99	0xbe637148	-0.22211182
100	0xbe4d0263	-0.20020442
101	0xbb85d7ea	-0.004084577
102	0x3f3ccc08	0.73748827
103	0x3cb3ee65	0.021964261
104	0xbb8e78e5	-0.004347908
105	0x3d4d7a86	0.050165676
106	0x3d86cc19	0.06581897
107	0xbe6a77e5	-0.22897299
108	0xbb8e6620	-0.0043456703
109	0xbce4d28c	-0.027932428
110	0xbeae0ab2	-0.33992535
111	0xbe032825	-0.12808283
112	0xbe494d79	-0.1965846
113	0xbe6d932c	-0.23200673
114	0xbed840bf	-0.42236897
115	0xbd374945	-0.04474761
116	0x3e0ad3f8	0.13557422
117	0xbe78e58a	-0.24306312
118	0xbf0fb403	-0.5613405
119	0xbd9a1bbd	-0.07524822
120	0x3d85b915	0.06529442
121	0xbdfea408	-0.1243363
122	0xbde19a3a	-0.110157445
123	0xbe22f61e	-0.15914199
124	0xbe799a2f	-0.24375223
125	0xbe0977f2	-0.13424662
126	0x3c4ed286	0.012623435
127	0xbda1d8cd	-0.079026796
128	0xbdde41c2	-0.10852386
129	0x3d2bf57d	0.041982163
130	0xbcd8a17d	-0.026444191
131	0x3db447c2	0.08802749
132	0xbdb5ec86	-0.08883004
133	0x3ae42e52	0.0017408824
134	0xbe48bb2b	-0.19602649
135	0x3e854902	0.26032263
136	0x3e0a8955	0.1352895
137	0x3e381d7f	0.17980002
138	0x3c5daf2f	0.013530537
139	0x3e29ad00	0.165699
140	0x3e084c7a	0.13310423
141	0x3d143f0a	0.03619293
142	0xbda3bca2	-0.07994963
143	0xbdf043f1	-0.11731709
144	0xbde6b2ae	-0.11264549
145	0x3dd16807	0.1022492
146	0xbe37ae01	-0.17937471
147	0xbe035fee	-0.12829563
148	0x3ba4bf20	0.0050276667
149	0x3e350246	0.17676648
150	0xbe1e155a	-0.15437832
151	0x3d94cd2d	0.07265697
152	0xbdbe179a	-0.092818454
153	0xbd3f941c	-0.046772107
154	0xbe16507f	-0.14679144
155	0xbdc2cf59	-0.09512205
156	0xbd035131	-0.032059852
157	0xbe8e31ff	-0.2777252
158	0xba0205a5	-0.00049599475
159	0x3e038a22	0.12845662
160	0xbe59ab82	-0.21256831
161	0x3d08390d	0.033257533
162	0xbd891402	-0.06693269
163	0xbe4f1a9f	-0.20224999
164	0x3c4fe09f	0.012687831
165	0xbd628c34	-0.05530949
166	0x3bcc59c4	0.006236287
167	0x3dfff580	0.12497997
168	0xbeb586bf	-0.35454366
169	0xbba7cd32	-0.0051208967
170	0x3d33976b	0.043845575
171	0x3e6f2a46	0.2335597
172	0xbe26400b	-0.16235368
173	0x3e5df7db	0.2167658
174	0xbdd4d2d9	-0.103917785
175	0x3dd874ca	0.10569151
176	0x3e44066e	0.19143078
177	0xbe9677b0	-0.2938819
178	0x3dc785ec	0.097423404
179	0x3e4bc5d6	0.19899687
180	0x3dbd3850	0.092392564
181	0x3da6d759	0.08146543
182	0xbe3ff00b	-0.18743913
183	0xbe010c23	-0.12602286
184	0xbe18a06b	-0.14904945
185	0x3d16ce0a	0.036817588
186	0x3dc194f8	0.09452242
187	0x3e0cc85a	0.13748303
188	0x3deb5a33	0.114918135
189	0x3d5af037	0.053451743
190	0xbd36a953	-0.044595074
191	0xbc7af3be	-0.015316902
192	0xbc174fdf	-0.009235351
193	0xbd7b5dee	-0.061368875
194	0xbd53ea6c	-0.051737234
195	0x3e0ae37e	0.13563344
196	0x3ca03906	0.01955844
197	0x3df8fa0d	0.121570684
198	0x3e119f39	0.14220895
199	0x3be3f84c	0.0069570895
200	0xbe3ca5ea	-0.18422666
201	0xbe889bc2	-0.26681334
202	0xbe6dff0f	-0.23241828
203	0xbe44ff47	-0.19238006
204	0xbcb45ba5	-0.022016356
205	0x3b3fe41a	0.0029280246
206	0xbe0e48a4	-0.13894898
207	0x3e311654	0.17293674
208	0x3c8ed7cc	0.017436884
209	0xbde9a8be	-0.11409138
210	0x3d9af5e1	0.07566429
211	0x3e06fd88	0.13182652
212	0xbc6c2537	-0.01441317
213	0xbe8d3525	-0.2757961
214	0xbd220599	-0.03955612
215	0x3e294396	0.16529688
216	0xbe906837	-0.2820451
217	0xbddf29b3	-0.10896625
218	0xbde620bf	-0.112367146
219	0xbd826fd0	-0.06368983
220	0x3c9b842e	0.018983927
221	0x3e3bc355	0.18336232
222	0x3e7d053f	0.24709032
223	0x3dadf5fa	0.08494182
224	0xbd3649d5	-0.044504005
225	0x3d8a476e	0.067519054
226	0x3e0d0940	0.1377306
227	0xbd77b3f8	-0.060474366
228	0xbdfe06bb	-0.124036275
229	0xbd8cab93	-0.06868663
230	0x3c2790af	0.010227366
231	0x3e7298ed	0.23691149
232	0xbd9582a0	-0.07300305
233	0xbe70bd62	-0.23509744
234	0xbdb98d84	-0.09060195
235	0x3c4d886e	0.012544734
236	0xbe8eeb30	-0.2791381
237	0x3d92de90	0.07171357
238	0x3d5a6e44	0.053327814
239	0x3e478808	0.19485486
240	0xbd7a4740	-0.061103106
241	0xbdfe01e5	-0.12402705
242	0xbe06109c	-0.13092273
243	0x3e56d423	0.20979361
244	0xbe479a80	-0.19492531
245	0x3daea2e3	0.08527162
246	0xbd0f67b6	-0.035011016
247	0x3cf5e642	0.030017022
248	0xbe4762d9	-0.19471301
249	0x3c83b7cb	0.01607885
250	0xbd99abc5	-0.075034656
251	0x3dc87e82	0.097897545
252	0xbe4ea39b	-0.20179598
253	0x3da384d3	0.079843186
254	0x3d912892	0.07087816
255	0x3ce5d797	0.028056903

bias f4 [128]
0	0xbe0f0caf	-0.13969682
1	0xbcfcf914	-0.030880488
2	0xbe357a44	-0.17722422
3	0xbdf68c5e	-0.12038492
4	0xbe459165	-0.19293745
5	0xbd01ef0d	-0.031722117
6	0xbdd6eda2	-0.104945436
7	0x3e25e195	0.16199334
8	0x3d0fa87d	0.035072792
9	0xbcac949d	-0.021066958
10	0x3e2eeca4	0.17082459
11	0x3d5acb45	0.05341651
12	0x3d4fdb5d	0.05074631
13	0xbd897cab	-0.06713232
14	0xbe641393	-0.22273092
15	0x3e047eca	0.12938991
16	0x3d0bd011	0.034133974
17	0xbdb1102f	-0.08645665
18	0xbd7aafa8	-0.061202675
19	0xbe0fbe19	-0.1403736
20	0xbde9f476	-0.1142358
21	0xbc9517e4	-0.018199869
22	0x3d2a9590	0.04164654
23	0xbe22436e	-0.15846035
24	0x3cd146c4	0.025546439
25	0x3e0b48be	0.13601968
26	0xbe92c3ad	-0.28664914
27	0x3c8f8bdb	0.017522743
28	0x3cf6b79d	0.03011685
29	0xbe10da92	-0.14145878
30	0x3df1c6bc	0.11805484
31	0xbe2c9b25	-0.16856058
32	0xbdcf5af3	-0.10124769
33	0xbe3cd8db	-0.18442099
34	0x3cac1e7b	0.021010628
35	0xbd30b03c	-0.04313682
36	0xbe36cd01	-0.1785164
37	0x3d36a835	0.04459401
38	0xbe35ed8e	-0.17766401
39	0x3e1cbf54	0.15307361
40	0xbe322268	-0.17395937
41	0xbe05397d	-0.13010211
42	0xbd2df092	-0.042465754
43	0xbe1907a4	-0.14944321
44	0x3c476576	0.012170186
45	0x3dbc1381	0.091834076
46	0x3ccac340	0.024751306
47	0xbd093a4b	-0.033502858
48	0xbd8d04f3	-0.068857096
49	0xbd2f06a8	-0.042730957
50	0xbdd8447f	-0.105599396
51	0xbe1567f8	-0.14590442
52	0xbc96cf48	-0.018409386
53	0xbe4b8747	-0.19875823
54	0x3d9352fe	0.07193564
55	0xbd384f14	-0.04499729
56	0x3dea744c	0.11447963
57	0xbd3ebdcb	-0.04656772
58	0xbd035b4c	-0.03206949
59	0xbd75b8f4	-0.05999084
60	0xbcbd26ba	-0.023089755
61	0xbe6080b0	-0.2192409
62	0xbcfeec11	-0.031118425
63	0x3d7c3ea3	0.061583173
64	0xbe29171c	-0.16512722
65	0x3cc9e9b9	0.02464758
66	0x3d3a26c8	0.04544714
67	0xbe044fe2	-0.12921098
68	0x3cc52af7	0.024068339
69	0x3be2192e	0.0068999743
70	0xbd19d3cc	-0.0375555
71	0xbe012e89	-0.12615408
72	0xbdd9a46a	-0.106270626
73	0xbc2f5ba4	-0.010703001
74	0xbde389eb	-0.1111029
75	0xbe0ffd49	-0.14061464
76	0x3cfdbdb9	0.030974256
77	0x3d0a8a5e	0.033823363
78	0xbc5940a4	-0.01326004
79	0x3d355326	0.04426875
80	0x3c558bfe	0.013033865
81	0xbe28d931	-0.16489102
82	0x3d9e0195	0.077151455
83	0xbe14376b	-0.14474265
84	0xbdecd4d0	-0.11564028
85	0x3d464670	0.04840702
86	0xbdd4d367	-0.10391884
87	0x3db0adf2	0.086269274
88	0x3d83d340	0.06436777
89	0xbe47c026	-0.19506893
90	0xbc5953d8	-0.013264619
91	0x3c156341	0.009117902
92	0xbe262beb	-0.16227691
93	0xbb2b81bd	-0.002616986
94	0x3df921cb	0.121646486
95	0xbe30c49c	-0.172625
96	0xbded055a	-0.11573286
97	0xbd84fb58	-0.064932525
98	0x3d88a4e9	0.06672079
99	0xbbb7bb4c	-0.0056070443
100	0xbcf73b74	-0.030179717
101	0xbb42d65b	-0.0029729817
102	0xbe4b3b6a	-0.19846883
103	0x3cdf853d	0.027285213
104	0x3d9d72f2	0.0768794
105	0x3d31c9c9	0.043405328
106	0x3d8f33cd	0.06992302
107	0x3d329631	0.043600265
108	0x3dda9bd1	0.10674251
109	0xbe686580	-0.22694969
110	0xbb9cac44	-0.004781278
111	0xbe034372	-0.12818697
112	0xbd427584	-0.047475353
113	0x3d5d2624	0.05399145
114	0x3d45eb96	0.048320375
115	0x3e0caad8	0.13737047
116	0x3c7a026a	0.015259365
117	0xbdc2612a	-0.09491189
118	0xbe00124c	-0.1250698
119	0x3c62c6a4	0.013841305
120	0x3dd34b32	0.10317077
121	0x3de46998	0.11152953
122	0x3c9a7d4b	0.018858572
123	0xbe2a9cda	-0.16661397
124	0xbe357fd0	-0.17724538
125	0x3d9a556d	0.07535825
126	0xbe324f31	-0.17413022
127	0xbdb1f093	-0.08688464

weight f4 [128, 128]
0	0xbcafb55a	-0.02144878
1	0x3d9354c0	0.07193899
2	0x3e00d8b1	0.12582661
3	0x3df6ed33	0.12056961
4	0xbb5a3c99	-0.003330028
5	0xbcec7011	-0.028862031
6	0xbe22f7a2	-0.15914777
7	0x3c529fe5	0.012855505
8	0xbe723497	-0.23652874
9	0x3da3609f	0.079774134
10	0x3e3e8700	0.18606186
11	0xbe10b031	-0.14129712
12	0xbdc7e97c	-0.097613305
13	0xbcb79b6b	-0.022412976
14	0x3d3ef3d3	0.046619248
15	0x3ddbaaf4	0.10725966
16	0x3c23219c	0.009956744
17	0x3dfa655a	0.122263625
18	0x3cea3688	0.028590456
19	0x3c40537c	0.011738654
20	0x3e119afd	0.1421928
21	0xbd5d6b9e	-0.05405771
22	0xbd300835	-0.042976577
23	0xbc17b127	-0.009258545
24	0xbd1993e0	-0.03749454
25	0x3cb74124	0.022369929
26	0xbe274b27	-0.16337262
27	0xbc095805	-0.008382802
28	0x3dffc8cc	0.12489471
29	0xbdb1e5b0	-0.086863875
30	0xbc9ec251	-0.019379767
31	0x3d030f66	0.031997107
32	0x3bb70736	0.0055855764
33	0x3e0fde5e	0.1404967
34	0xbde58426	-0.11206846
35	0x3e2797ad	0.16366453
36	0xbe7d6a7b	-0.2474765
37	0x3ddf5d20	0.10906434
38	0x3c7982b9	0.015228921
39	0x3ddc1442	0.10746051
40	0xbea92919	-0.33039168
41	0x3dac9218	0.08426303
42	0xbe985492	-0.29752022
43	0x3dc56a0e	0.09639369
44	0xbd617e66	-0.055052184
45	0x3cff7c2a	0.031187136
46	0xbb3330f5	-0.0027342413
47	0xbd40ede7	-0.04710188
48	0xbcb05977	-0.021527035
49	0xbd931a63	-0.07182767
50	0xbd79c61d	-0.06097995
51	0xbe02f0db	-0.12787192
52	0x38c04000	9.1671944e-05
53	0xbc8bbef4	-0.017058827
54	0x3d6aeb88	0.057353526
55	0x3df150c2	0.117829815
56	0xbcde99da	-0.027172972
57	0x3c094846	0.008379048
58	0xbdc03cda	-0.093866065
59	0xbe94a9c3	-0.29035768
60	0x3d9780ae	0.073975906
61	0x3df50074	0.11962977
62	0xbc95e7ad	-0.018298948
63	0x3d212579	0.039342377
64	0xbc85f8b8	-0.01635395
65	0xbe2dd404	-0.16975409
66	0xbdb0137e	-0.08597468
67	0xbc9159f2	-0.017743085
68	0x3de46e0b	0.111538015
69	0x3d83e437	0.06440013
70	0x3c9438d6	0.018093508
71	0x3ccec7d8	0.025241777
72	0x3d336646	0.043798707
73	0xbded602d	-0.1159061
74	0x3ddb40ab	0.10705694
75	0xbe167e3a	-0.14696589
76	0xbd60c034	-0.0548708
77	0x3d80198f	0.06254875
78	0xbd5fa2bb	-0.05459855
79	0x3e1dec24	0.15422112
80	0x3d32657a	0.043553807
81	0x3cc5b679	0.024134861
82	0x3d9e743f	0.07737016
83	0xbdb28d2d	-0.087183334
84	0xbe41a64d	-0.18911095
85	0xbe91a465	-0.28445736
86	0xbb978caa	-0.0046249228
87	0xbde0de0b	-0.10979851
88	0x3d601529	0.05470768
89	0x3db2d6e7	0.087323956
90	0xbe264f96	-0.16241297
91	0x3e0b9b26	0.13633403
92	0xbe3eb745	-0.186246
93	0xbdd1f7b0	-0.10252321
94	0xbd94eeb4	-0.072720915
95	0xbd4714f1	-0.048603956
96	0x3d21959a	0.03944931
97	0xbe1d39ad	-0.15354033
98	0x3e963922	0.29340464
99	0x3de3cd06	0.111230895
100	0xbd8e7472	-0.06955804
101	0xbddc6406	-0.107612655
102	0x3cd4a165	0.025955865
103	0xbc166d7c	-0.009181377
104	0xbd72ecbc	-0.0593078
105	0x3ae88345	0.0017739317
106	0x3d544cda	0.051831104
107	0x3c263b54	0.010145981
108	0xbd8a24fa	-0.06745334
109	0x3e04dcd4	0.12974864
110	0xba38c5f9	-0.0007048543
111	0x3d3e1e8d	0.046415854
112	0xbd33d3b0	-0.043903053
113	0x3d6d98eb	0.058007162
114	0xbd2bfd0d	-0.041989375
115	0x3d723b89	0.05913881
116	0xbbcd0f7f	-0.006257951
117	0xbd900257	-0.07031696
118	0x3c8773fb	0.016534796
119	0x3eb9354a	0.3617347
120	0x3cfcdacd	0.030866051
121	0x3dfc6831	0.123245604
122	0xbd915e2a	-0.070980385
123	0x3e3fa422	0.18714955
124	0xbd78ffef	-0.060790952
125	0xbcbe91b7	-0.023262842
126	0xbe6dfd96	-0.23241267
127	0xbe6a7c53	-0.22898988
128	0xbe21504e	-0.1575329
129	0xbe198198	-0.14990842
130	0x3bef8382	0.007309378
131	0x3c2942ee	0.010330899
132	0xbcbd23e0	-0.023088396
133	0x3ead9e91	0.3391004
134	0xbea4bb34	-0.32174075
135	0x3d0b71dc	0.03404413
136	0x3d5f84bf	0.054569956
137	0xbe1e64bd	-0.15468116
138	0xbd0085a9	-0.03137747
139	0xbe41b069	-0.18914951
140	0x3c38b1db	0.011272873
141	0xbd787cd8	-0.060665935
142	0x3cbc0d1d	0.022955472
143	0x3e19cfa7	0.1502062
144	0x3da95749	0.082686014
145	0x3c681e30	0.0141673535
146	0x3b34f8d3	0.002761413
147	0xbdaa52ba	-0.0831656
148	0x3deec046	0.11657767
149	0xbdbf8039	-0.093506284
150	0x3dfd2f5a	0.12362547
151	0xbd874e46	-0.06606726
152	0x3cd396ce	0.025828745
153	0xbca64d8e	-0.020300653
154	0x3baa3a34	0.0051949266
155	0xbd236631	-0.03989238
156	0xbd56bde1	-0.052427176
157	0xbd4e81b1	-0.050416652
158	0xbce1cd4d	-0.027563715
159	0xbd2c59cd	-0.04207783
160	0x3e0ee2b0	0.13953662
161	0xbd75245a	-0.05984912
162	0xbb8a101d	-0.0042133466
163	0xbd8f1ffc	-0.069885224
164	0x3e02dc70	0.12779403
165	0xbd97d146	-0.074129626
166	0xbd90f1eb	-0.07077392
167	0x3d7f5b4e	0.062342934
168	0xbe39f6ab	-0.18160503
169	0xbca1c15b	-0.01974552
170	0xbd094c3a	-0.03351996
171	0xbe842bf5	-0.25814787
172	0xbd2a269e	-0.041540734
173	0xbda5d5b6	-0.08097403
174	0x3da5058f	0.08057701
175	0xbe7feacd	-0.24991913
176	0xbd15032d	-0.03637998
177	0xbd05b377	-0.032641854
178	0xbd180153	-0.037110638
179	0xbe3ad741	-0.18246175
180	0xbe02429d	-0.12720723
181	0xbdb99368	-0.09061319
182	0x3d9a1b7e	0.07524775
183	0x3d1a2fe5	0.037643332
184	0xbdafc38b	-0.08582219
185	0x3e067741	0.1313143
186	0xbd606305	-0.054781932
187	0xbd3a346c	-0.04546015
188	0x3d93d173	0.07217684
189	0xbd99d814	-0.07511917
190	0xbdd1551a	-0.1022131
191	0xbd935daf	-0.07195603
192	0x3e14223d	0.14466186
193	0xbe2b9bf8	-0.16758716
194	0xbdc800c8	-0.09765774
195	0xbc964642	-0.018344048
196	0xbdbe3e60	-0.09289241
197	0x3e1cf45a	0.15327588
198	0xbd99e76c	-0.07514843
199	0xbea2c44e	-0.31790394
200	0x3ccfd3d4	0.025369562
201	0x3d9d6d1a	0.07686825
202	0xbe3ce68b	-0.1844732
203	0xbe92f8fe	-0.2870559
204	0x3e5e5248	0.21711075
205	0xbe54e60c	-0.20790881
206	0x3e520934	0.20511323
207	0x3d43527f	0.047686096
208	0x3d4082e3	0.046999823
209	0x3dc0c164	0.09411886
210	0x3d7b22de	0.06131255
211	0x3e6cb730	0.23116755
212	0x3cc09447	0.023508204
213	0x3dee0bb6	0.116233274
214	0x3d81a06d	0.06329427
215	0x3d16b056	0.03678926
216	0xbe07b696	-0.13253245
217	0xbc24a732	-0.010049628
218	0xbe034fc7	-0.12823401
219	0x3c698d56	0.0142548885
220	0xbd5312e3	-0.051531684
221	0x3e39332f	0.18085931
222	0xbd74997c	-0.059716687
223	0xbd74706e	-0.059677534
224	0xbcf21ec1	-0.02955568
225	0xbe1590b6	-0.14605984
226	0x3e9cbafd	0.3061141
227	0x3dae0c33	0.084984206
228	0x3d9315a2	0.071818605
229	0xbe1b97c3	-0.15194611
230	0xbd2f7341	-0.042834524
231	0x3d2b00c5	0.04174878
232	0x3d304751	0.043036763
233	0x3db84d3e	0.08999108
234	0x3de7324e	0.11288892
235	0x3cefc004	0.029266365
236	0x3df4c010	0.119506955
237	0x3db2d17c	0.08731362
238	0xbd85a798	-0.065261066
239	0xbcc13b7b	-0.023587933
240	0xbe94e39e	-0.29079908
241	0x3e14f508	0.14546597
242	0xbe1decb9	-0.15422334
243	0xbda9a543	-0.08283474
244	0xbd45d48f	-0.048298415
245	0x3caebf32	0.021331403
246	0x3dfbc832	0.122940436
247	0xbe115ff6	-0.14196762
248	0x3b48d35b	0.0030643556
249	0x3dc8388e	0.09776412
250	0xbe27d8da	-0.16391316
251	0x3ca6dc14	0.020368613
252	0xbca90ef5	-0.020637015
253	0xbea9a72f	-0.33135363
254	0xbdc51346	-0.09622817
255	0xbe7af18d	-0.24506207
