nerf_models/fox_a5.pth (torch, 646074 bytes, 22 tensors)

weight f4 [128, 63]
00000000: cc98 d4bd 279f 203e 8d9e 81bd 302d 8dbd
00000010: 5f4b 2c3e fdf1 38be 1452 c6bd d8a9 d3bb
00000020: 9e98 bdbd 61f3 003d 5cee 19be 1c96 69be
00000030: e793 b5bd 3908 babd 81e8 bd3d 75b1 3dbe
00000040: 8117 a2be 519c a4bd 4ac1 8d3e 95ed db3b
00000050: 3d3d 0e3e dbef ebbe 2986 6ebe e61e afbd
00000060: 1a72 ed3d a435 ad3e 1e48 393e ab64 543e
00000070: 5300 fe3d bacc b4bd 8be3 a4be 4985 58be
00000080: f763 bdbe ff02 8a3d 4d70 8dbe fdee 573d
00000090: fed1 9b3e 0d2e 81bd f77f aa3d b417 6f3c
000000a0: cf9d 0e3e 9ac5 6bbe 8e81 56bd 3e1e 30bd
000000b0: f13a afbe 32c6 8d3d ad95 333c 61c1 58bb
000000c0: e827 823d 24be 58bb 5ddb b2bd 1ff8 c6bc
000000d0: 6522 2e3d d3fb 6c3d 05e6 1fbd 580c 5e3b
000000e0: 9845 043b 3e03 113d 7fec 193d ea14 243d
000000f0: 69b3 abbd 4fbb de3c 6eb1 a63d 0b3e ae3c
00000100: aa62 fe3c 20b1 61be f125 17be dce4 283c
00000110: 75cd 9bbd 7e3f ebbd ab43 d7bc 3b3b 6d3b
00000120: c8c6 083e 92b6 06be 32c7 8abe 6d2e 0abd
00000130: e53e 07be e7d5 203d 3b3a 9f3d ec22 67be
00000140: 7ce4 c9bd 9ed6 9dbd a042 863a e438 80be
00000150: 2c6a 2fbe d8c4 8abd 7f51 823c 6236 673e
00000160: 14cc f1bd eec5 0cbe e1c0 2c3e 56de 8c3e
00000170: ddb3 e73d 2b1d ffbe d68d a9bc 5987 873d
00000180: f0eb a6bd 6d3d 7cbe c47b 76be 9919 58bd
00000190: aad5 76be 4652 74bd 46c9 963d 5cc3 90bd
000001a0: cbd0 453e 64ba aebd e5d2 7abe c706 143e
000001b0: 158e a0bd 329e 563d 20cc 47bc bc42 b7bd
000001c0: b220 2fbd 3dda 88bd ce68 c83c 62b7 843d
000001d0: 10c4 ec3c 885c d7bc 1eac 2e3d 471e abbd
000001e0: aed6 36bc 357f e73c f2ad 1fbd aaec 733d
000001f0: 6a8f bc3c 2487 293c 5ed1 10bd 399d 23bc
00000200: 5dd4 223e 51e2 c6bd c34a 803d 564f 223d
00000210: 806d f4bd d9aa 92bc 978d c0bd a016 64bd
00000220: cb58 c9bd 642d 2c3d 2668 893c 7b68 bcbd
00000230: 801f 2fbd c6d7 083e cf65 1fbe 87a6 59be
00000240: 2650 4bbe 1d83 093e ab98 09be 63ba 573d
00000250: c095 9bbe 978e 8fbd 8b66 6cbe 8b57 0b3e
00000260: 59a9 ef3d 07c5 143e c2c8 00be cc12 debd
00000270: c4ff a7be f22e 053e 155c a3be ce0a 993c
00000280: ba7f bebe 46aa bcbe 92b7 49bd 0497 1c3d
00000290: d27d b7bc ef0d abbd 5d20 b43d c4ca c53e
000002a0: d21d ab3d b02a babe 0823 95bc b19d 913c
000002b0: 06c1 a3bd ee80 fe3c 67b7 82bd 79ef e0bd
000002c0: 7e5b a4bd 977a 52bd 79e8 9bbb 5cde 0ebd
000002d0: e80d 24bc 01f8 0f3d af59 74bd dd62 8d3a
000002e0: 44e6 6d3d 0f63 41bb 4557 d63c 5a1f cebc
000002f0: becc a73d 27f1 37be 4409 8ebd f986 8c3c
00000300: a07b afbd d1d6 12bd c034 e03d 07d6 e93c
00000310: c1ca 25be 2c0f 033d 8e79 b4bd d6a6 043e
00000320: eba3 ec3d 91d4 453d b8f2 0bbe aa3a e4bd
00000330: de5b 083e 36e5 21be 3410 ba3d 5509 acbd
00000340: e1e9 ef3d 7981 56be 3ac3 87bd c7ea d1bd
00000350: 8987 8e3e 4a21 77be 9716 b1bc cfba 37bd
00000360: 3db4 a3bd 166a 7e3e ad0a cabd e8f2 873e
00000370: d3d2 babe c26c 873e 8253 c5bd 8c7d 3fbe
00000380: ed4a 213d 543d 87be 9e5a 29be eb3c e2bd
00000390: eda3 8b3e 354d 93bc 36b3 c4bd 38dd d2bc
000003a0: 41c6 6e3d bf3b ce3d 905a 12be 02ed 7d3d
000003b0: 1063 173d b02a f9bc 28ef dcbd e75e 58be
000003c0: f91b 58bd 247a ae3d 8dd6 003c d738 a5bd
000003d0: 39c2 1a3d b68d 2e3d 9d69 7bbd 0840 0dbe
000003e0: 9477 26bd 059d b73c dc38 0ebd 5154 39bb
000003f0: 113f 8abe d441 fc3d fd68 89bd 112f 68be
-0.10380706 0.15685712 -0.06329069 -0.068933845 0.16825627 -0.18061061 -0.09683624 -0.006459456
-0.09257625 0.031482104 -0.15032333 -0.22811168 -0.08866101 -0.090835996 0.09272862 -0.18524726
-0.31658557 -0.080376275 0.2768653 0.0067116716 0.13890548 -0.46081433 -0.23293366 -0.08550815
0.11594029 0.33829987 0.18093917 0.20741527 0.124024056 -0.08828111 -0.32204852 -0.21144594
-0.3699033 0.06738853 -0.2762474 0.05271815 0.3043365 -0.063076116 0.083251886 0.014593054
0.13927387 -0.23024598 -0.052369647 -0.04299759 -0.34224656 0.069225684 0.010960978 -0.0033074247
0.06355268 -0.0033072317 -0.087332465 -0.024288235 0.04251327 0.057857346 -0.039037723 0.003388187
0.0020183083 0.035403483 0.037579056 0.040059008 -0.08383829 0.027188925 0.08139311 0.021269819
0.031052906 -0.22040224 -0.14760567 0.010308471 -0.07607547 -0.114867195 -0.026277384 0.0036198634
0.13357079 -0.13155583 -0.271051 -0.03373568 -0.13207586 0.039266493 0.077747785 -0.22571915
-0.09858033 -0.077069506 0.0010243244 -0.25043404 -0.17130345 -0.06775826 0.015908001 0.22579339
-0.11806503 -0.13747379 0.16870452 0.2751338 0.11313603 -0.4982694 -0.020697515 0.066176124
-0.0815047 -0.24632807 -0.2407065 -0.052758787 -0.24104944 -0.059648775 0.073626086 -0.07068512
0.1931793 -0.08531645 -0.24494512 0.1445571 -0.078396 0.05239696 -0.012194663 -0.089482754
-0.04275579 -0.06682251 0.024464037 0.0648029 0.028902084 -0.02628924 0.042644612 -0.08355384
-0.011159582 0.0282589 -0.038984247 0.059551872 0.023017604 0.010347161 -0.035355918 -0.009986215
0.15901323 -0.09711135 0.0626426 0.039626442 -0.11934948 -0.017903732 -0.09402006 -0.05568564
-0.09831389 0.042035475 0.016773295 -0.091996156 -0.04275465 0.13363561 -0.1556618 -0.21254931
-0.19854793 0.13428922 -0.13437144 0.052667987 -0.30387688 -0.07009619 -0.23085992 0.13607614
0.117022224 0.14528285 -0.12576583 -0.10843429 -0.3281232 0.1300619 -0.3190619 0.01868191
-0.37206823 -0.36848658 -0.049247332 0.038229957 -0.022398863 -0.08352267 0.08795235 0.3863126
0.08355297 -0.36360693 -0.01820518 0.017775388 -0.07995801 0.031067338 -0.063826375 -0.10983176
-0.08025263 -0.051386442 -0.0047579375 -0.034880027 -0.010013081 0.035148624 -0.05965584 0.001078691
0.058080927 -0.0029508506 0.02616466 -0.025161434 0.08193348 -0.17963086 -0.06935361 0.017154204
-0.085685015 -0.035849396 0.10947561 0.028544439 -0.16190626 0.03199689 -0.08812247 0.12954268
0.11554702 0.048298422 -0.13666809 -0.11144002 0.13316295 -0.15810093 0.09085122 -0.084002174
0.11714531 -0.20947827 -0.066290334 -0.10249858 0.2783778 -0.24133793 -0.021617217 -0.04485589
-0.07993362 0.24845156 -0.098653175 0.2655251 -0.3648897 0.26450163 -0.096350685 -0.18700236
0.039378095 -0.26413977 -0.16538474 -0.110467754 0.27273503 -0.017981151 -0.09604494 -0.025740251
0.05829454 0.100699894 -0.1429236 0.061993606 0.036959708 -0.030415863 -0.10787803 -0.21129952
-0.05276105 0.0851939 0.007863653 -0.08067482 0.03778288 0.042615615 -0.061380018 -0.13793957
-0.040641382 0.02241374 -0.034722194 -0.0028279016 -0.2700124 0.12317243 -0.06709478 -0.22674204

bias f4 [128]
00000000: 869c 04bd e4ea a6bd f0dd 0ebe 60e7 f2bd
00000010: e644 98bd 540e 0a3d c528 9d3d 2f1b d5bd
00000020: 5fcc 54be e6f4 3dbe 28a6 6b3d a150 64be
00000030: 0cf7 7fbd 6967 c3bc be60 7fbd 4b86 283d
00000040: 2525 9abd 5b09 19be e492 5f3c 693e 25be
00000050: eb88 5d3c 3d04 d23d 8703 5ebd 29cc 43be
00000060: 1240 a2bd 92d0 1bbd a91e cdbd b8c8 dbbd
00000070: a1ef 6bbe ab6c 4d3c b669 7ebd 37f9 13be
00000080: 5054 15be 3d7a 013d fae5 453d 0866 323d
00000090: 8b55 6e3d 263a a8bd d698 b2bd ae1a 48bd
000000a0: b228 49be 690d 0fbe 72fb aebd d440 abbc
000000b0: 4523 5fbd 0ff0 e7bd 56c4 463d 2186 acbd
000000c0: 8cd6 bbbd 9717 36be 3bc8 2dbe 0554 f8bd
000000d0: 9de6 b2bd 4277 a1bc fa43 8f3d 7523 0ebe
000000e0: 8b50 2abe 312f 15be 914a aebd 0077 16bd
000000f0: 7cf7 cdbd da60 2fbd 9c31 a0bc 6e8f 41be
00000100: 3b4a 2bbc e155 4cbd 9c14 88bd 8d1b 073d
00000110: 70be 5fbd adb1 b2bd 15b7 b2bd a777 333c
00000120: 03b5 b6bd 9225 70be 7873 16be 0639 09be
00000130: 2a2e ec3c 5053 1bbe 6832 67bd 2012 b9bd
00000140: 2e27 37bd 4be8 253e f4d0 eabd 3af9 babd
00000150: 10a5 5a3d 5296 b9bd acfe 04be 4c9f aebd
00000160: 9ba1 acbd 444f 22be f6d4 d9bc 2009 9abd
00000170: a624 b0bd 39fa 003d 8c66 dfbb 52f5 4bbe
00000180: 4310 a4bd 7cbe 02be 275a 3f3d 5b07 04bd
00000190: 7532 fd3d 9c2a 09be 7f49 37be 6e8e c2bd
000001a0: 4381 82bd a54f e4bd 8e85 edba e59c 11be
000001b0: c611 ccbd 1b62 6fbd 34bc 0fbe 4adc 8bbc
000001c0: 2b58 20be 63a4 21be 7234 6dbe cec1 53bd
000001d0: 57f1 04be 2a5d 00be 8e06 0dbe e78a d73c
000001e0: f323 a5bd 3457 82bc ff19 c73c f623 cbbd
000001f0: c71c 9abd 296d 31bd d8b9 8e3c 1ef7 30bd
-0.032375835 -0.081502706 -0.1395185 -0.118605375 -0.07435016 0.03370507 0.07673792 -0.104055755
-0.20781086 -0.18550453 0.057531506 -0.22296382 -0.06249146 -0.02385302 -0.06234812 0.041143697
-0.07526616 -0.14944975 0.013645861 -0.16137089 0.013521413 0.10254715 -0.054202583 -0.1912085
-0.07922377 -0.038040705 -0.100156136 -0.107316434 -0.2304063 0.0125381155 -0.062112533 -0.14450537
-0.14582944 0.031610716 0.048315026 0.043554336 0.05818705 -0.08214216 -0.087205574 -0.04885357
-0.1964443 -0.1396996 -0.08544053 -0.020904936 -0.054476995 -0.113250844 0.048527084 -0.084240206
-0.09171781 -0.17782436 -0.16970913 -0.121254005 -0.08735392 -0.019710187 0.069953874 -0.13880713
-0.16632287 -0.14568783 -0.08510316 -0.03673458 -0.100569695 -0.042816974 -0.019554906 -0.1890237
-0.01045471 -0.049886588 -0.06644556 0.03298526 -0.054624975 -0.08725295 -0.087263264 0.01095382
-0.08921244 -0.23451832 -0.14692485 -0.13400659 0.028830606 -0.151685 -0.056444556 -0.0903666
-0.0447151 0.16201894 -0.11465636 -0.091295674 0.053380072 -0.090618744 -0.12987775 -0.08526477
-0.08429261 -0.1585055 -0.026590806 -0.07521272 -0.0860074 0.03148863 -0.0068176445 -0.19917801
-0.08010914 -0.12767977 0.046716835 -0.032233577 0.123631395 -0.1339516 -0.1789913 -0.094998226
-0.06372311 -0.111480035 -0.0018121467 -0.14220007 -0.099643275 -0.05844317 -0.14036638 -0.017072815
-0.15658633 -0.15785365 -0.23164538 -0.0516985 -0.12982689 -0.1253554 -0.13772032 0.026311351
-0.080634974 -0.015910722 0.024304388 -0.099189684 -0.0752502 -0.043316994 0.017422602 -0.04320442

weight f4 [128, 128]
00000000: a4f3 cabb 30ce 1ebd 02a0 6b3d f20c ccbc
00000010: 2cb5 7fbd 05fc 8bbd 95df 1dbd 1a34 0cbc
00000020: 5d05 6b3d 6464 943b 994a e73c 0e83 a63c
00000030: ccaf 7cbd ebbf 8ebd 7de6 61bd 704a 3cbd
00000040: 7e9c 87bc 750a 92bb 554d a9bd 9511 70bd
00000050: 5e2e f3bd 7e5d 213d d382 df3c 3c2f 80bd
00000060: c576 c4bc e0f9 85bd 1a59 153c 629e 92bd
00000070: 889a d43a b7fc e33c eeca 0cbd a3e4 c5bd
00000080: e510 c4bd b75a 4abc 2a39 5ebd f509 2ebd
00000090: 571c c2bd b04e dabd 23f7 68bd 34c8 bbbd
000000a0: e2eb 30bd 3897 283d 388c 26bd dc71 61bd
000000b0: 1e3e 43bd 8a09 0cbd 3ec0 96bd 18cd f7bb
000000c0: ce7a 20bd 5560 abbd afd4 b8bd ca02 243c
000000d0: cb91 94bd 246e aabc 6a05 a3bd 114a b3bd
000000e0: 2caa 01bd ef9a e6bd b9b6 24bc 8454 d9bd
000000f0: 24ef a9bd 4b00 b5bd 5934 c1bd 47c0 9ebd
00000100: 79fb b4bd 3db1 d13b 9021 a9bc 715a 113c
00000110: 1134 5a3c e143 4abc b02c 12bd 0a28 fabb
00000120: 0d0c 9fbc cb67 87bd cccd b9bd 77d0 27bb
00000130: ff5c acbd 6839 d4bd 2a5e babc 837d eabd
00000140: 88b6 7d3d ff54 b33c 52b3 8fbd 7832 28bc
00000150: 094e 27bd fa95 ca3c a8b5 77bd c19c b5bd
00000160: aae0 fd3c bf2e 2dbb 044e 93bd 46ad 63bd
00000170: 11ec e0bb 1c34 a0bc 1731 04bd 9c5f 763c
00000180: dc68 aabd b9a3 223d 7663 04bd c21b 9ebd
00000190: dab7 14bd 1699 b03b 4e46 b6bc 9449 763d
000001a0: 1e27 21bd e201 e03c b5a5 c33c d58f f6ba
000001b0: babf 7fbd a83b 47bd c16b 9ebd 1a86 43bd
000001c0: a43f 29bd e129 96bd 21ff 87bd a90e 37bd
000001d0: ff3d 7a3d 3f6f abb8 9838 553c 0267 4fbd
000001e0: 224c 01bd 45dd 57bd 01c3 333d 4717 e53c
000001f0: bd5a 9bba 7c5d 873b f6a0 173d 7438 b2bc
00000200: fbf5 073e 16c8 503d de04 143e 93c1 e6bd
00000210: af52 8e3d 5467 343d 30eb 923c df4e 903d
00000220: ffdc f2bb 1f3f 923c 878d 503d ac8a a8bd
00000230: 3e71 54bd 882c 53bc 820f 863d 4cfc 263e
00000240: 19c1 8bbc 77b9 9ebc cefb 243e 9693 fabd
00000250: 6b4d c9bc 5d74 a13d 00b5 c23c 88a7 f33d
00000260: b6e2 2e3d 43a9 8a3d 5b19 3c3d 1714 94bd
00000270: d96a 2fbe f820 683c b5d5 c5bc 8cf3 1abd
00000280: 3f65 943e 0af2 b33c 0a63 75be 1608 48bd
00000290: 0028 853e 8f52 2e3d 19c3 35bd 94a8 dbbb
000002a0: 1475 db3d 0c9f e5bd f106 663d fe60 d9bc
000002b0: 66ed 233e be70 9c3c 2099 07be 41ab c5bd
000002c0: af5c 853d 410e 3bbd 96f4 4b3e e994 04be
000002d0: 8afc fa3c 60ab 333c abf9 fc3d 0d5d 243e
000002e0: d0f9 9dbc 2bbb 8f3c cca2 8f3d 8262 3fbe
000002f0: 1948 483d 15d1 963d 9d18 4d3d 11aa e4bd
00000300: 62aa 0bbe bd1c 54bd 562d 13be 8cff a53d
00000310: 802f f9bc db7f 4fbc c7b9 a93d d64f d7bd
00000320: 9cad 213e 54f9 873c b639 ed3d f36b 2c3e
00000330: a529 8f3d 0072 16be 7686 b73c 12a0 98bd
00000340: f9c4 ebbd ab5c b13d d685 d1bc 2b2e 233c
00000350: c5a4 183e b1c1 0b3e da01 00be a381 11bd
00000360: 6ade 173d db40 d4be 9b2b 55bd 82fb 90bd
00000370: b4c6 a9bc 9d6c 183e b5cd b3bd fbe7 643c
00000380: 91d7 19bb ebba f4bd 36e5 6abd 1b58 933e
00000390: 0859 583e be06 8bbd 0b32 4d3e 1157 f83d
000003a0: 7d39 bd3d 99a1 24be 2526 05bd a2b9 b2bd
000003b0: 89be e73c 60e8 dfba f5bd 81bd ef47 293e
000003c0: b8fd dcbd 90a6 b0bd 5338 16be 848a 003e
000003d0: 48a3 113e 2e03 c0bd 605f 143e ba9e c4bd
000003e0: b055 d23d bdcd e43d f5ae 30be 61a1 b63d
000003f0: e4a1 9f3d b553 0dbe 77e7 06be e19b e13b
-0.006193595 -0.038770854 0.057525642 -0.024908517 -0.06242864 -0.06835178 -0.038543303 -0.008557344
0.05737816 0.004528569 0.028233813 0.020326164 -0.06169109 -0.06970199 -0.05515145 -0.045969427
-0.016554113 -0.004456813 -0.08266703 -0.058610518 -0.11874078 0.0393958 0.027284062 -0.06259009
-0.023982415 -0.065418005 0.009115482 -0.071591154 0.001622037 0.027830465 -0.034373216 -0.096627496
-0.09573535 -0.01235073 -0.054253735 -0.042489965 -0.09478062 -0.1065954 -0.056876313 -0.09169045
-0.043193705 0.04115984 -0.040661067 -0.055040225 -0.04766666 -0.034188785 -0.07360886 -0.007562291
-0.039179616 -0.08367983 -0.09024941 0.010010431 -0.0725437 -0.020804472 -0.07960017 -0.087543614
-0.03165643 -0.1126002 -0.01005333 -0.10611823 -0.082975656 -0.088379465 -0.09433813 -0.07751518
-0.08837027 0.0063993023 -0.020645887 0.008871661 0.013318078 -0.012345285 -0.03568715 -0.0076341676
-0.019414926 -0.06611594 -0.09072456 -0.0025606432 -0.08416175 -0.10362512 -0.022749979 -0.11449721
0.061941653 0.021891115 -0.070166245 -0.010265939 -0.040845904 0.024729718 -0.060475975 -0.08867789
0.030990917 -0.0026425568 -0.07192615 -0.05558517 -0.006864079 -0.019556098 -0.03227338 0.0150374435
-0.083207816 0.03970692 -0.032321416 -0.07720138 -0.036308147 0.005389343 -0.02225032 0.060128763
-0.039343946 0.027344648 0.023882726 -0.0018811176 -0.062438704 -0.048640877 -0.07735396 -0.04773531
-0.041320458 -0.073322065 -0.06640459 -0.044691715 0.06109428 -8.1746366e-05 0.013013981 -0.050635345
-0.031566747 -0.052701253 0.043887142 0.027965201 -0.0011852604 0.0041310173 0.03701874 -0.021755435
0.13277428 0.050972067 0.14454982 -0.1126739 0.069493644 0.044043854 0.017934412 0.070462935
-0.0074115987 0.017852364 0.05091622 -0.082295746 -0.05186581 -0.012889035 0.06545927 0.16307181
-0.01705985 -0.019375546 0.16111681 -0.12235181 -0.024573049 0.07883523 0.023767948 0.118971884
0.042696677 0.06770565 0.04592262 -0.07230394 -0.17130603 0.014168017 -0.024149755 -0.03782992
0.28983495 0.021966 -0.23963562 -0.048835836 0.2600708 0.042559203 -0.044375513 -0.0067034457
0.1071569 -0.112119764 0.056158964 -0.026535507 0.16008529 0.019096728 -0.13242006 -0.09651805
0.065118186 -0.04566789 0.19917521 -0.1294743 0.030637998 0.010966152 0.12352308 0.16051121
-0.019284159 0.017545303 0.07013473 -0.18689921 0.048896883 0.07364098 0.0500723 -0.1116525
-0.13639215 -0.05178522 -0.14372763 0.08105382 -0.030418158 -0.01266476 0.08287387 -0.10513274
0.15788883 0.016598381 0.11583273 0.16838054 0.06990365 -0.14691925 0.022402983 -0.07452406
-0.11512179 0.08660253 -0.025576513 0.009959738 0.14906605 0.13648106 -0.12500706 -0.03552402
0.037077345 -0.4145573 -0.05204354 -0.07079221 -0.020724632 0.14885183 -0.0877947 0.013971324
-0.0023474435 -0.11949714 -0.0573475 0.28778157 0.21127713 -0.06788395 0.20038621 0.121259816
0.09239481 -0.1607727 -0.03250708 -0.08726813 0.028289096 -0.0017082803 -0.063350596 0.16531347
-0.107905805 -0.08625519 -0.14669923 0.1255284 0.14222443 -0.093756065 0.14489508 -0.09600587
0.1027025 0.11172054 -0.17254241 0.08917499 0.0779455 -0.13801463 -0.13174234 0.0068850373

bias f4 [128]
00000000: b413 12bb 3a6e 88bc 7c61 693d ec2e 023e
00000010: da19 5fbd b6bd 2d3d d7d2 18bc 88d0 24bd
00000020: 0b0e e6bd fdbb 24be 75d7 82bc 87f3 37be
00000030: 8ce0 fabc 041d d1bd 9b6d 37bd 7c09 cbbd
00000040: c8d0 40bd aa87 0fbe 5573 f8bd 02f0 db3b
00000050: 7cdc fdbd 4ac9 a93c 3011 243d 8c60 86bd
00000060: 13cb 59bc 0672 fabb 6c0c e1bd d8bf d4bd
00000070: 14b6 95bd c330 e83a 7c7f 17be 6787 87bc
00000080: 3432 973c ba92 b93c b5b6 24be 4396 3b3c
00000090: 70ab a4bd a588 443d 67b3 efbc 7592 443c
000000a0: 9421 bbbb 5df5 e1bc cf15 0cbd 6bd7 f23c
000000b0: 80c6 4ebd b536 2ebd 6d84 4abd 47f1 53bd
000000c0: 73f8 45bc e769 fcbd acb8 68bd a7bb 64bc
000000d0: 4e51 343d c9f1 85bd 8262 3fbe 586e 9dbd
000000e0: 4593 17be 8e6f 933d e58f 4f3c 6ef2 04be
000000f0: 61eb 74bc 8305 c8bd a8bc 8dbb 6e0b 99bd
00000100: f45b efbd 15f7 5f3d 46d0 fabd 7a9c 30be
00000110: d1ef eebc 8644 06be db79 93bd e307 f0bc
00000120: 4c89 a73d 3658 e0bd 185d d7bc 78e6 40be
00000130: 6587 3c3c e4d4 35bc 90c3 ae3d aa2f d1bd
00000140: 650f 62bd a604 41bb 7810 38bc f2b9 aebd
00000150: d692 fdbc 8c51 353d 4c82 96bc be22 13bd
00000160: 0d30 b8bc efbd ddbd fdd9 31bd 7006 01bc
00000170: cd43 84bd f0f7 d0bd cff1 4bbe c592 63bc
00000180: 252e 16bd 01fd 99bd a4a4 1d3c e190 7cbd
00000190: ff67 863c 0892 cfbd df3e b4bd 658e 59bd
000001a0: f6a8 a53a 2470 46bc 4e34 28be b9b6 74bd
000001b0: 9c95 0ebe ffea 06be f236 5ebd fbd3 58bd
000001c0: bbe6 92bd e5d1 2cbc a737 5f3d e656 16bd
000001d0: 11f7 a6bd bc6b 0ebd 808c 8abd 0dc8 c0bd
000001e0: a5fa 87bd fbd8 b5bd 6d24 6a3d 0b61 2ebd
000001f0: 8571 38be cca9 97bd 1412 863d 7a88 25be
-0.0022289576 -0.016654123 0.056977734 0.12713212 -0.054468013 0.04241725 -0.009327612 -0.040237933
-0.11233147 -0.16087337 -0.015971879 -0.17963992 -0.03062465 -0.102106124 -0.044782262 -0.099139184
-0.04707411 -0.14016595 -0.12131373 0.006711961 -0.1239557 0.020725865 0.040055454 -0.065613836
-0.013293046 -0.007642987 -0.109886974 -0.10388154 -0.07310119 0.0017714727 -0.14794725 -0.016544057
0.018456556 0.022652972 -0.16085322 0.011449399 -0.080405116 0.047981877 -0.02926035 0.011997809
-0.00571079 -0.027582819 -0.034200486 0.029643735 -0.050482273 -0.04253264 -0.049442697 -0.051743772
-0.012083161 -0.12324887 -0.05681674 -0.013960755 0.04402285 -0.065402575 -0.18689921 -0.07687062
-0.14802273 0.07199012 0.0126685845 -0.12983105 -0.014948697 -0.09766676 -0.004325468 -0.07472883
-0.116874605 0.054678995 -0.12246756 -0.17247191 -0.029167088 -0.13112077 -0.072009765 -0.029300636
0.08180484 -0.10954325 -0.026289508 -0.18837917 0.01150689 -0.01109812 0.08533394 -0.10214169
-0.055190463 -0.0029452234 -0.011234395 -0.0853156 -0.030953806 0.044267222 -0.018372677 -0.035921805
-0.02248385 -0.108272426 -0.04342078 -0.00787507 -0.064582445 -0.1020354 -0.19916461 -0.013889973
-0.0366651 -0.0751896 0.009621773 -0.061661605 0.016407011 -0.10135275 -0.08801054 -0.053114314
0.0012638855 -0.012111697 -0.16426203 -0.05974457 -0.13924259 -0.13175581 -0.05425162 -0.052936535
-0.071729146 -0.01054809 0.054496434 -0.036703967 -0.08152593 -0.034770712 -0.067650795 -0.09413157
-0.066396035 -0.08879276 0.057163645 -0.042573016 -0.18012054 -0.07405433 0.06546417 -0.16165343

weight f4 [128, 128]
00000000: 4990 a9bd 07e0 78bd cab9 023d 6e4b 98bd
00000010: 0698 90be 37f3 6cbe 6ce2 6dbe 2332 493c
00000020: 4a71 3e3e 0c1d b9bd fb9a f83d eee9 70be
00000030: de22 243d a6f8 77be 2e9b bfbc 97d3 c23c
00000040: 8967 3bbd 99d9 7cbd 0a6a 1d3d 5070 293e
00000050: e71b 193e ff47 27be 81eb abbe 7e2b 393e
00000060: 3dd2 48be f7b2 97bd 629e d93c 7d24 2d3d
00000070: 0552 853e c3a8 b03d a4d2 d93d b183 b83d
00000080: f073 5dbb e119 733c e312 91bb 463c 5fbe
00000090: 447e 2a3e 217c 723e 58ec a2bc acdc 573d
000000a0: 02e6 60be f25b 9dbe de64 75be 4183 3ebd
000000b0: a95c 473e 4edd 803e 4ca5 03bd fb60 dabd
000000c0: b32c ce3d 1019 9abc ed30 4d3d e861 92ba
000000d0: 5e68 69bd 4467 33bd 19bf 64bd 4429 613e
000000e0: 38b1 3c3d 32e4 713d 8c97 a63d 2ab6 933d
000000f0: b5c0 dcbd 7a52 7cbd e097 b2bc 6ec5 8a3d
00000100: 7cc5 10be 8808 61be 8e84 833a 62e9 e73d
00000110: 25bf acbe 84fc 25bd 6337 54bd 5322 8e3d
00000120: 83ac 6cbd 2172 25bd 0a85 69bd 8fed aa3c
00000130: 0f06 6c3d e0bd 33be 4c2c c6bd 8a4e d5bd
00000140: 5e0d dbbd 93e4 393d aa63 d5bd 0a9a 1f3d
00000150: 75e1 dabc 3571 40be e86f 83bd 2ff6 2a3d
00000160: 16e5 7c3c 57ff e63d 6a93 8cbd 6113 31be
00000170: ec49 5abe 5c3b 1cbd 19d1 273d 2a9a fcbc
00000180: 6ee1 a33d 8538 273d e775 debd f18f d6bd
00000190: e887 1d3e b1a1 a43d bc1d 0abe a1f3 ffbd
000001a0: 4547 493d ace0 1dbc edb4 4cba 298b 18be
000001b0: 840f 53be acab 093e db6e 9bbc 94d4 6d3d
000001c0: 6db0 4bbe 9088 843d e437 663e 1f58 bdbb
000001d0: 80d6 be3c 5e29 be3c 7bee 1ebd 4354 b8bb
000001e0: 4a25 6cbe d980 a9bd eefb cabd 5bcd 90be
000001f0: 57b3 b93d b883 1b3c cd68 493e 2318 9cbd
00000200: 9bf0 af3d 8d9b a0bc 1a90 89be 9c6d 28be
00000210: 2969 58bd 3475 ac3d 1a9b b03d a618 0fbe
00000220: afb3 753d cd6a 053e 6c26 51be d3a0 7a3e
00000230: c510 5fbe 5b9d 973d 5a04 81bc 20bd a8bc
00000240: 877b 96bd 09e7 abbe 3c5e 06be 2b0a 073e
00000250: 501c dfbe 796c 803d e55c 6bbe 3054 a0bd
00000260: 9761 8a3d b895 c33d 0a4c 853c 5b92 163d
00000270: 9a41 993c 265f 04be 96d7 b33c a9bd 8cbe
00000280: d7af 8bbe d976 a8bb 6bae cd3d 9ce3 22bc
00000290: 9d22 54bd e36d 65bd 40fc 71bd e1e1 22bd
000002a0: 3a76 8e3d b86d 18bd c3c0 b7bd 27c1 3d3d
000002b0: 9abd 4bbe f651 1a3e 0a0f 0f3e c952 08be
000002c0: 056b 92be 846c 823d 64b8 74bd f265 88bd
000002d0: 4719 d03b 853b 3fbd 29f9 953d 5feb c83d
000002e0: 2dbb 2dbe 5d67 5fbe 6e67 023d e18b dbbc
000002f0: 6a48 77bc 41fe fdbd 45e7 62be f035 873d
00000300: e850 7f3d 145c 163d 6d75 f93d 9a36 153d
00000310: 9099 313d 29c6 863d f0d9 47bd bd79 01be
00000320: 92c2 1fbd cde0 b1bd 25bf 363d 25af 6e3d
00000330: bd3f 7a3d 9815 5c3d 78a6 62bd 6eb5 c73d
00000340: cfe4 4bbe 1dce 0d3e e5be de3d b030 4bbd
00000350: cd75 d6bd b262 3ebe 855d 82bd 8b1c a63d
00000360: 487d 6bbd b8c9 023e 8eef dd3c 9e6d c23d
00000370: 1cf6 f7bc 84cc 623d 2b74 4d3d dee2 1e3d
00000380: 7e9e 823d 609c a13c 9a39 243e 4eb2 123e
00000390: 2f87 083d 2070 a6be 26cf 033d fbaa 043d
000003a0: 58f5 1c3e 11d1 bcbd f1ec c3be 5c32 26be
000003b0: 161a fc3d f915 d1bd a6ad 90bd 42de 893d
000003c0: a157 06bd 1d94 ff3d 7352 89be 12c8 debd
000003d0: dad0 023d d13a 353e 9354 f6bc ebe7 483e
000003e0: b464 9d3d 9daf 233c ccaa 123e 7c89 10bc
000003f0: 2e9e 7dbc 9b0c cfbd 2f55 d7bd ae0b 9f3e
-0.08279473 -0.060760524 0.031915464 -0.07436262 -0.28240985 -0.23139654 -0.23230904 0.01228002
0.18597904 -0.090387434 0.12138935 -0.23526737 0.040072314 -0.24215946 -0.023389425 0.023782535
-0.045753036 -0.061730955 0.038431205 0.1654675 0.1495205 -0.16336058 -0.33578113 0.18082997
-0.1961145 -0.07407182 0.02656478 0.042271126 0.26039138 0.08625939 0.1063588 0.09009493
-0.0033791028 0.014837713 -0.0044273003 -0.21800336 0.16649729 0.23680164 -0.019888088 0.052700683
-0.21962741 -0.3073421 -0.23964259 -0.046511892 0.19468941 0.25168842 -0.03214006 -0.10663029
0.100671194 -0.018810779 0.050095487 -0.0011168094 -0.056984298 -0.043799654 -0.055846307 0.21988398
0.046067446 0.059055515 0.08134374 0.072124794 -0.107789434 -0.061602093 -0.021800935 0.06775938
-0.14137834 -0.2197591 0.0010034011 0.11323811 -0.33739582 -0.04052402 -0.051810633 0.069401406
-0.057781707 -0.040392045 -0.05701164 0.02086523 0.057622965 -0.175529 -0.09676418 -0.10415371
-0.10695909 0.045384 -0.104194 0.038965262 -0.026718834 -0.18793185 -0.06417829 0.041738685
0.015435478 0.11279171 -0.068640545 -0.17292549 -0.21317261 -0.038142547 0.040970895 -0.03083523
0.08001982 0.040825386 -0.10862332 -0.104766734 0.15383875 0.08038653 -0.13487905 -0.124976404
0.049140234 -0.0096360855 -0.00078089425 -0.14896835 -0.20611387 0.13444394 -0.018973758 0.05806406
-0.1989152 0.0647136 0.22482258 -0.005778327 0.023295641 0.023213085 -0.03880165 -0.005625279
-0.230611 -0.08276529 -0.09911333 -0.28281674 0.090674095 0.009491853 0.19668885 -0.07621791
0.08590814 -0.019605422 -0.26867753 -0.16448063 -0.052834664 0.08420792 0.08623333 -0.13974246
0.059985813 0.13029023 -0.20424813 0.24475412 -0.21783741 0.0740306 -0.015749145 -0.020597994
-0.0734778 -0.33574703 -0.13121885 0.13187473 -0.43576288 0.062706895 -0.22984655 -0.078285575
0.06756895 0.09550041 0.01627161 0.03676067 0.01870804 -0.12926921 0.021953385 -0.2748845
-0.27282593 -0.005141121 0.10043033 -0.009941962 -0.051790822 -0.056013 -0.059078455 -0.039766196
0.06956144 -0.03721401 -0.08972313 0.046326783 -0.19896546 0.15070328 0.1397058 -0.1331283
-0.28597274 0.06368354 -0.05974616 -0.066600695 0.0063506695 -0.04668762 0.07322914 0.098105185
-0.16965933 -0.21816774 0.03183692 -0.026800098 -0.015092948 -0.12402011 -0.22158535 0.06602085
0.062333018 0.036708906 0.121806 0.036429025 0.04335934 0.06580765 -0.048791826 -0.12644096
-0.039003916 -0.086854555 0.044615883 0.0582725 0.06109594 0.05373153 -0.05533454 0.09751402
-0.19911502 0.13848157 0.10876254 -0.04960698 -0.104716875 -0.18592337 -0.06365494 0.08110913
-0.057492524 0.12772262 0.027091768 0.09493564 -0.030268721 0.055370823 0.050159615 0.038790576
0.06377886 0.019727886 0.16037598 0.1432583 0.033332046 -0.3250742 0.032179974 0.032389622
0.15327966 -0.09219564 -0.3826671 -0.16230148 0.12309663 -0.10209269 -0.07064371 0.067318454
-0.032798413 0.12479422 -0.26820716 -0.10878004 0.031937458 0.17698218 -0.030069625 0.1961972
0.07685223 0.0099906 0.14322966 -0.008821841 -0.0154796075 -0.10109826 -0.10514294 0.31063598

bias f4 [128]
00000000: 1385 8fbe 3c32 01bc 380f 2abd 9aef 87be
00000010: 3b46 b7bd 7b25 fb3d 3686 1ebe 52b6 9cbd
00000020: 2ecb a93d 086b 69bd 1953 9abc 6105 28be
00000030: 0039 06be 0be1 51bc 6c91 973c ea1e 40be
00000040: 0121 57be 779b 2fbe 1b25 d0bd 7004 dbbd
00000050: 0e5e 9fbd 9cc9 a03c b650 e7bd d6e4 073d
00000060: 150a 73be 4072 debb d0e2 963d 99ee 473e
00000070: 8ced 8ebc 10b7 4cbe d77a 6b3d 0501 853d
00000080: c626 07be ebf1 7ebd b106 0e3c 7944 f1bd
00000090: 5866 643d b9fd 30be 80d6 f03d a960 43be
000000a0: af7d 953d cad1 13bd 28a9 fc3c c28c 113d
000000b0: 214d d3bd ecb3 d2bd e2c4 acbd 63b2 23be
000000c0: 5e89 3ebe d783 9b3d 9607 b9bd c20f 75bc
000000d0: f7a5 6dbd 2eb3 12be a18d bdbd 7b1a 34be
000000e0: 791d 6fbc 156f 20bd 7681 e63d 68a3 53bd
000000f0: 73d4 b13c e01f e3bd 8276 e4bd a98f e1bd
00000100: 89d7 45be 7a51 9dbd 4ef8 52be 7f4a 0cbd
00000110: 91e7 b9bc 2424 01bd 9678 1e3d 29d7 a3bd
00000120: db25 07be 279b 32be 08e2 dcbd 8826 c6bc
00000130: 7d16 eabd f4ad 503c 3670 9e3d b06c cdbd
00000140: bd6c cfbd 9878 9d3d 79cc 1fbe f9cf d63d
00000150: 6d5c babd 0258 b73c 7c7f 6bbd c7a9 a23d
00000160: d147 ffbd 7c17 10bc 05b5 55be bf58 0ebe
00000170: 72bd a83d 7b1f 9f3d 896e a6bd c95d cdbd
00000180: 6a5e e6bd ef44 5e3c 41e2 a8bd b6e1 63bd
00000190: 8a0f acbd 0d4e 82bc da4a 00be 53f2 843d
000001a0: 1c8d cc3b 45b7 1a3d 806c b23c 933b 0fbd
000001b0: 4128 833c 912a c53a ece6 a5bd 321f 9fbd
000001c0: ae45 74bc 3194 b4bd 7072 84be fe87 d4bd
000001d0: ccda 7abd 480b 02be 06f2 a0bd 75bd b33c
000001e0: 6754 f9bd 7fad f13d 03a9 ebbd 38ff fbbd
000001f0: fa6b 34be e685 c0bd 289b eebd cf07 253e
-0.28031215 -0.007885512 -0.04151842 -0.2654999 -0.08948942 0.12263008 -0.15480885 -0.07651962
0.082907066 -0.05698684 -0.018838452 -0.16408302 -0.13107681 -0.012810002 0.01850196 -0.18761793
-0.21008684 -0.17149149 -0.10163327 -0.10694206 -0.077816114 0.019627385 -0.11294691 0.03317722
-0.23734315 -0.006788522 0.0736748 0.19524612 -0.017447256 -0.19991708 0.057490196 0.06494335
-0.13198385 -0.06224243 0.008668588 -0.11780638 0.055761665 -0.17284288 0.11759663 -0.19079842
0.07299363 -0.036088742 0.030842379 0.035534628 -0.103174455 -0.102882236 -0.0843599 -0.15986018
-0.18607089 0.07593506 -0.0903465 -0.01495737 -0.058019605 -0.14326164 -0.09255529 -0.17588226
-0.014594429 -0.039168436 0.112551615 -0.05166951 0.021707749 -0.11090064 -0.11155416 -0.11013729
-0.19320501 -0.07681556 -0.20602533 -0.034250733 -0.022693427 -0.031528607 0.03868922 -0.08000023
-0.13198034 -0.17441998 -0.107852995 -0.024188295 -0.114300705 0.012736786 0.07736246 -0.10030496
-0.10128162 0.07689017 -0.15605344 0.104888864 -0.0909966 0.022380833 -0.057494625 0.07942539
-0.1246487 -0.008794662 -0.20869835 -0.13901041 0.08239259 0.07769676 -0.08126552 -0.10027654
-0.11248477 0.01356624 -0.082462795 -0.055635177 -0.08401401 -0.015906358 -0.12528554 0.06491532
0.0062424075 0.037772436 0.021780252 -0.034968924 0.016010405 0.0015042593 -0.081006855 -0.07769622
-0.014909191 -0.08817328 -0.2586856 -0.10377501 -0.061243817 -0.12699616 -0.07858662 0.021940926
-0.121743016 0.1180067 -0.11506846 -0.123045385 -0.17619315 -0.09400539 -0.116506875 0.1611626

weight f4 [128, 128]
00000000: bcb1 b0bc 9f61 663c 056e cd3a 04a9 81bd
00000010: cd85 9bbc b2f3 42bd 63d9 82bd 004a e5bb
00000020: 7d63 95bd 9bd2 573d 43bf 5bbd af3f c8bb
00000030: f71a 67bd 101f 613d 1c59 5f3d 7530 6e3d
00000040: e02d debc 7bd2 88bd d077 02bc 1b83 91bd
00000050: 203e 3fbd c922 f63c 1527 81bd 8310 733d
00000060: 8cc5 dd3a 7710 42bc b769 d23c 8fe5 1bbe
00000070: bc21 183d eae2 6bbd c6b4 c8bb 175c 61bd
00000080: 944a 383d 08c5 453d 0525 e6ba a0fe 283b
00000090: 19e8 80bd 1c79 c5bd 9f05 6c3d c9d6 c6bc
000000a0: 3d9b f8bc 7dc6 8abd 1b6e 9b3d e957 7e3c
000000b0: b3ae 1fbd 2af7 fd3c 8e65 283a a493 553c
000000c0: b2da 75bd ab95 9dbd 33b2 813d 8a1a 143b
000000d0: 692b 93bd 894d 313d 5ffa 82bc f53b fdbc
000000e0: 5b17 9dbd 3098 d03c 2c69 bc3c 36d8 943d
000000f0: 51a7 69bc 136d 8bbd 41d6 b2bb 9883 46bd
00000100: ef70 8e3d 3469 84bc cd57 90bd ee88 86bd
00000110: 1fee 693d 8949 3fbd 801d 28bd c9f6 433c
00000120: 7fae 8c3d 46e7 81ba 62b8 f7b8 e242 6b3c
00000130: 5016 02bd eff9 35bd c165 80bd 7656 993a
00000140: 98ca eebb 3cd9 073d 4ea0 e0bc b324 cfbd
00000150: f4ea fb3c 2df5 e03c bce7 543d a5e3 af3c
00000160: de5b 823c d65b c6bd 8442 90bc 39a3 5cbd
00000170: 12a0 883d a2cb bb3c e568 8ebd d2e4 01bd
00000180: 612b a83d 893c b6bd 1b03 63bc e95f 123d
00000190: 2de0 ab3d 1b31 ddbd 1dba e13c 4891 38bd
000001a0: d3a5 c8bc 0884 243d 5163 dbbd 54a5 f03c
000001b0: bf6c 05bd b4d8 3b3c 9d53 44bc f915 92bc
000001c0: 9bde 4abc a10a 963c 23cb 15bc d82f 9bbc
000001d0: 75a8 afbc 0311 b13d 51c1 26bd 910b 393d
000001e0: 5ba3 ae3d 864b 02be b96d 89bd db5d 303d
000001f0: 13bb 173d 298b 6abd de11 cebc 3382 a13d
00000200: 4909 80bd d6ef dbbd 9694 71bc 09c0 bcbd
00000210: 4a59 9e3c c78c 49bd aa7f 803d 8887 5dbc
00000220: a103 333c 01a4 b8bd 0cfa 0a3d 1cb9 913b
00000230: 0e2d 38bd 8bc4 133a 39d8 d8bc c4e3 a2bd
00000240: 9723 51bd be20 da3c a38c 34bd 5a64 e23c
00000250: f2be 293d cfbe a2bd f734 88bd fe11 533c
00000260: 18e2 f63c 1951 55bc dcbe a93c 76c4 0f3d
00000270: 347e 973b efba 0d3d 4b68 ca3c c62d 373d
00000280: ae34 02bd 10f9 83bd 5dce 74bd 6175 933c
00000290: b99e b5bd da79 edbd 7f92 97bd c075 49bd
000002a0: a338 a7bd 97b4 c63c c534 b0bd d19a c8bd
000002b0: 9f85 f53c f2d9 6abd e8cc 05bc 67c2 9abd
000002c0: a5c5 09bd 7d89 8a3d c9cd 35bb 7dd3 5dbc
000002d0: 2694 883d c4da 303d 33f0 113d 9d57 60bc
000002e0: c7a1 bc3b 7066 193d 2a21 cebc 1846 993d
000002f0: bd6c 67bd 02ea 8f3d 321f 4b3d 565a 0cbd
00000300: 556a a6bd bd97 403d 845d b3bc d2e5 cfbd
00000310: ebee 56bd d792 c23c ea2f 473d 51a9 d1bb
00000320: 0dae 1cbd fa56 8abd 3c30 b2bd 275f 97bc
00000330: 9bed 523c e45b 2bbd 5fde a9bd 2553 ec3b
00000340: 95fe 8abd c794 fa3c 7c55 9dbd ed9e 1cbb
00000350: 005a 2c3d c865 ecbc a6a2 953d 353f d1bd
00000360: 8fff 6ebd fcaf afbd 2240 85bd 2929 9bbd
00000370: c1a0 eabd 92ac a8bc c49e 9ebd 4f9c 9fbd
00000380: be93 e9bc ceaf 093d 0fe3 383d 4c18 2c3c
00000390: e8a1 d4bd 65cb ffbc 4384 0bbd aa58 cd3c
000003a0: 6413 e73c b778 16bd d4f7 d0bd e0b7 9ebc
000003b0: 2e19 18bc e08a 8d3d 2d49 debb 8160 8aba
000003c0: 045a 2ebd 43ec f9bc 2c53 b4bd 0749 bc3c
000003d0: 2df1 cdbd 0dea dabc 46c6 f93b 1b2e 663d
000003e0: 4eab 493d 2a78 d23c c744 14bc 5ab8 17bd
000003f0: 9ac8 acbd bd43 d0bc 36d1 ffbc e295 21bc
-0.021569125 0.014061361 0.0015673047 -0.06331065 -0.0189847 -0.047595687 -0.063891195 -0.006997347
-0.072943665 0.052691083 -0.0536492 -0.0061111073 -0.0564222 0.054961264 0.05452834 0.05815168
-0.027121484 -0.06680771 -0.007963136 -0.071050845 -0.046690106 0.030045884 -0.063062824 0.05934192
0.0016919835 -0.011844746 0.025685174 -0.15224288 0.037141547 -0.05758945 -0.0061250655 -0.055019464
0.044993 0.048283607 -0.001755864 0.0025786534 -0.06294269 -0.096422404 0.05762255 -0.02427234
-0.03034746 -0.0677614 0.0758936 0.015523889 -0.038984966 0.031001646 0.0006423824 0.013035689
-0.060023017 -0.076945625 0.06332817 0.0022598826 -0.07186014 0.043286834 -0.015988527 -0.030912379
-0.0767047 0.025463194 0.022999369 0.072678015 -0.014261083 -0.06807914 -0.00545767 -0.04846534
0.06955134 -0.016163446 -0.07047997 -0.06569086 0.057111856 -0.046700988 -0.04104376 0.011960694
0.0686922 -0.0009910844 -0.00011812222 0.014359208 -0.03175956 -0.04442781 -0.06269408 0.0011698741
-0.0072873347 0.033166155 -0.02742019 -0.10114422 0.030751683 0.027460659 0.05197881 0.021470854
0.015912946 -0.09685485 -0.017609842 -0.0538666 0.06671156 0.022924248 -0.06953601 -0.03171236
0.08211399 -0.08898265 -0.013855721 0.035736 0.083923675 -0.10800382 0.027554566 -0.045060426
-0.024493134 0.040164977 -0.107123025 0.02937571 -0.03257441 0.01146524 -0.011982826 -0.017832743
-0.012382175 0.018315615 -0.00914267 -0.018943712 -0.021442631 0.08645823 -0.040711705 0.045177046
0.08527251 -0.12724122 -0.06710381 0.043058258 0.037043642 -0.05726162 -0.025155004 0.07886162
-0.06251771 -0.107391044 -0.014744898 -0.09216315 0.019329686 -0.04920652 0.0627435 -0.013521083
0.010926158 -0.09015656 0.03392987 0.0044471156 -0.044964842 0.0005636892 -0.02647029 -0.07953599
-0.05105933 0.02662694 -0.044079434 0.027635742 0.041441865 -0.0794655 -0.06650727 0.012882708
0.030137107 -0.0130198235 0.020720892 0.03509947 0.004623199 0.034602102 0.024707934 0.044721387
-0.03178852 -0.06443989 -0.059767116 0.018000307 -0.088681646 -0.11595507 -0.07400989 -0.04918456
-0.081650995 0.024256034 -0.08603815 -0.09795154 0.029970942 -0.057336755 -0.008166529 -0.075566106
-0.033635754 0.06764505 -0.0027741066 -0.013539192 0.06668882 0.04317738 0.035629462 -0.013692764
0.00575659 0.037451208 -0.025162298 0.074840724 -0.056500185 0.07027055 0.049590297 -0.03426584
-0.0812575 0.04701971 -0.021895178 -0.101512566 -0.052473944 0.02375166 0.04862968 -0.006398358
-0.038251925 -0.06754871 -0.08700606 -0.01847799 0.012874032 -0.04183568 -0.08294367 0.00721206
-0.06786839 0.03058852 -0.076823205 -0.0023898438 0.04207802 -0.028857127 0.07306413 -0.10217134
-0.05834919 -0.08578488 -0.06506373 -0.0757621 -0.114564426 -0.0205901 -0.07745126 -0.077934854
-0.028512832 0.033614926 0.045138415 0.01050384 -0.10382444 -0.031224916 -0.03406168 0.025066692
0.028207488 -0.036736216 -0.102035195 -0.019374788 -0.009283347 0.06911254 -0.0067836256 -0.0010557325
-0.042566314 -0.030508166 -0.08804926 0.02298404 -0.10055766 -0.026722932 0.007622513 0.056196313
0.049235635 0.025692064 -0.009049601 -0.037041046 -0.08436699 -0.025422925 -0.03122769 -0.009862395

bias f4 [128]
00000000: 6e0c 24be 4dfe 36bd a62a 4a3d 64ab f0bd
00000010: d06a 223d 2e7b 64bd b4ba dbbb f852 22be
00000020: ab93 a03d 0eee a2bd 630e b33c 3938 6bbd
00000030: e34e 87bd ee73 b83d afaf ec3d 4dc0 43bd
00000040: d26d 2dbe 44a9 8e3d 2099 79bd 8c18 4dbe
00000050: 9dc3 82bd d97c f5bc 3f6e 01be 45e5 cdbd
00000060: c0dd f6bd 9942 babd 9cf4 863d 5605 ba3d
00000070: 42ac bfbd 5fa5 f8bd 939d dfbc c6f9 84bd
00000080: bc5c 11be 5e2e afbd 8e50 d53d b3aa 473d
00000090: 6dd3 a9bd 25f8 c6bd 7ab1 38bd 1087 0ebe
000000a0: 8c9d 6ebd b2a9 b3bd 0291 04be 1a09 bb3d
000000b0: 67ca 98bd 178c 613d d836 1bbe b7a5 6ebd
000000c0: 1d11 10be 103c 56bc 98df fa3c 32b7 d5bd
000000d0: 580d fbbd ccc0 28be ef17 213d 6ad6 ec3d
000000e0: 8add cb3d f613 883c ddbd f3bc 8e54 89bc
000000f0: 57e9 f8bd 5c14 62bd 68ef 70bd 57f1 63bd
00000100: 1a86 aebd 6326 8cbd 3e3e f7bd 1811 893c
00000110: b764 f0bd d90d 36bd f963 23be 8ed2 cdbd
00000120: b8d8 02be 1062 a3bd 5327 103e d10a 26be
00000130: 5f6f cdbd 261b 52bd 3382 b5bd a441 08be
00000140: 6acf 70bd 0684 1dbb cb42 143e 3202 44bd
00000150: c950 65bd af8e 0cbe 67d3 eebd 31a1 56bd
00000160: 2306 52bd 2ef3 7b3d caa7 92bd 646b 18bd
00000170: 8fd9 b5bd d305 e33c 63b3 00be 0c14 cf3d
00000180: ae02 94bd ca1d 85bd 45cb c2bd cf5d 69bd
00000190: ef18 3abd 1941 fabd 5e92 36bd a9be 8ebd
000001a0: 71e8 d7bd 859f 6bbd 9fbb 04be 90d5 4dbd
000001b0: b7ab 17bd 26e3 a4bc 5e89 aebd cb5d dabd
000001c0: c05f 843d a311 ca3d 6df5 d0bd 30ce 82bd
000001d0: 41cd f3bc 7f5b f33d 1cb1 00be 10af 0fbe
000001e0: 628b 19be 81b4 1e3d fb9c c1bc b05e f0bd
000001f0: 0d9b 06bd 4448 0c3c cd85 26bd 2d87 c53d
-0.16020367 -0.044676114 0.04935708 -0.1175144 0.039652646 -0.055781536 -0.0067056064 -0.15851963
0.078406654 -0.079555616 0.021857446 -0.057426665 -0.06606843 0.09006487 0.115569465 -0.047790814
-0.16936424 0.069658786 -0.060937047 -0.20028895 -0.063849665 -0.029966759 -0.12639712 -0.10053495
-0.12054014 -0.09094734 0.06589624 0.09083049 -0.093590274 -0.12140917 -0.027296817 -0.06492953
-0.14195532 -0.08553766 0.10415755 0.048746776 -0.082922794 -0.097152986 -0.04509113 -0.1391871
-0.058255717 -0.08772601 -0.12945941 0.09132595 -0.0746048 0.05506524 -0.1515764 -0.058263507
-0.14069028 -0.013075843 0.030624196 -0.10435332 -0.122584045 -0.16479796 0.039329465 0.11564334
0.099543646 0.01661108 -0.02975362 -0.016763952 -0.12153881 -0.055195197 -0.058822066 -0.05565008
-0.085216716 -0.06843259 -0.12072419 0.016731784 -0.1173796 -0.0444468 -0.15956105 -0.10049926
-0.12777984 -0.07977688 0.14077501 -0.16215064 -0.10031008 -0.051295422 -0.08862724 -0.1330629
-0.058791555 -0.002403499 0.14478604 -0.047853656 -0.055985246 -0.13726304 -0.116614155 -0.052399818
-0.051275384 0.06151121 -0.071609095 -0.03721179 -0.08879387 0.027712738 -0.1256843 0.101112455
-0.072270736 -0.064998224 -0.09511427 -0.05697423 -0.045433935 -0.12219448 -0.04457318 -0.06969959
-0.105423816 -0.057525177 -0.12962197 -0.050252497 -0.037028994 -0.020127844 -0.085222945 -0.10662421
0.06463575 0.09866645 -0.10203061 -0.063869834 -0.029760959 0.11882686 -0.12567562 -0.14031625
-0.14994577 0.03874636 -0.023634424 -0.1173681 -0.03286271 0.008562151 -0.040654946 0.09644923

weight f4 [128, 128]
00000000: a558 163d 294f d0bc 6f52 703d 044d e0bd
00000010: 6c99 adbd da6b 43bc e395 d0bd 39f8 df3d
00000020: 39ee b4b9 d748 2abb ace0 833d 27af fb3c
00000030: bf24 813d 3f7f 04be 192c ab3c f59e 99bd
00000040: 8aa1 f43b 7b6a d3bd ba82 62bd ce73 f8bc
00000050: 91ff 8abd dc64 82bd b68c 5cbd 2460 f93c
00000060: d07d 7c3d af99 8cbc c32b 9dbd e2ea f3bd
00000070: f501 a03b 8b0c 91bd 30f8 373d ea51 3fbd
00000080: 508b 8b3c aa74 053d 110a a8bc eab3 a83b
00000090: 9559 eb39 be46 6e3d 047a d1bc ce59 9ebd
000000a0: 16ef 363d 1d38 5dbb dfcc 0d3c db04 74bd
000000b0: 5b38 533c 23a5 093c ffc2 84bc 0fd8 a0bd
000000c0: c60d 8dbd edd3 33bd f0d8 f3bd ed60 b0bd
000000d0: 10e5 fd3c adc2 8dbd 1265 9b3d 094d e3bd
000000e0: e778 04be 5b88 14bd e967 d33c a149 6d3c
000000f0: 9cea 2e3d e8f0 88bc 4438 b3bd 09da d63c
00000100: 9e89 ebbc f969 2a3c a784 1dbc f3b5 8fbd
00000110: 3e6e 57bd 44b5 8dbc 8957 963d 5ee0 c73c
00000120: 8267 083d 7ab8 7c3d 0ab7 01bd bfaa 633b
00000130: a46e 92bc 9eae eb3c b82a 633c f150 88bc
00000140: 4633 9a3d 6b70 283d 18bb 153c dc26 193d
00000150: 3894 293d 9bd8 3d3d 010b 8d3d 7035 4b3c
00000160: 9a37 d6bc 6962 9ebc 06ec 5e3d d027 a9bd
00000170: de77 bfbd f469 2a3d 644a e53c 546e e9bc
00000180: db67 bb3d f069 313d 844e b13d e052 483d
00000190: a251 6fbd a9cd 02bd 9ca7 7abd ee9d 283b
000001a0: 561c b43a 40b0 49bd 88b7 9ebd 59df b03d
000001b0: 4a35 46bd 7866 69bd 5833 703d a94e 143d
000001c0: 16a7 d0bc 22b9 3e3c bd6d 08bc b2e3 87bd
000001d0: fb1c fcbc a7a2 bebd 3cc9 b8bd 8278 8d3c
000001e0: fa81 ab3d cc40 453d 3fd1 1ebd 5df6 a43d
000001f0: a53f 72bc f808 80bd a092 363d 215b 393d
00000200: 002b ad3c 2d24 d23c 2297 933d 3268 afbb
00000210: afe1 823d 5a40 9bba ffa5 6dbd 2064 13bd
00000220: 90f3 68bd 12c4 863d 23c3 5bbc 9192 55bd
00000230: ca72 60bd e156 7e3c ba26 aa3c 18d4 cd3b
00000240: 89b7 ac3d 1de8 f73c 2519 a0bc 75d1 24bc
00000250: e43a 15bd f70a 30bd b2d0 11bc 098b 743c
00000260: 4091 9ebd 99e1 6ebb ec52 04bd 9b4f 333d
00000270: 51c7 e33c b2d2 72bd 002d f2bb 8b38 53bd
00000280: 9b03 c93c b291 af3c 8ea2 05bd fe26 febc
00000290: 802b 6b3d dcc2 913d bd96 133d 2800 a23d
000002a0: d103 4fbd 2343 923d 27c6 44bc 40b6 71bc
000002b0: 97e3 a53d d6c4 473d 649a dbbc a2b3 a03d
000002c0: 9e59 e93c 14f9 5dbd 9d0e 98bd eeb9 b33d
000002d0: 4c9b 4a3d e9b6 3d3d 60cd 6fbc f24d e6bc
000002e0: da62 b3bc 4980 d4bc 9559 5fbc 5f88 333d
000002f0: 8f55 ca3c 1f1e 823d 450c 1fbd 7038 523c
00000300: 9df9 75bd fd3f 8dbd 60c4 9abd 562d aabc
00000310: 4aef 113d 71a3 11bc 4c18 63bd 08a6 b03d
00000320: f7d0 433d bfbc 8e3d bbf3 573b 7ec5 8dbd
00000330: 005a b03d 9acc 60bd c369 4d3c 137e a53d
00000340: 33a6 923d 4ade 84bd 2221 b2bd eca6 74bc
00000350: be10 98bd 2d28 9a3d 695e 0fbd 64ff aabd
00000360: 8110 46ba b796 aebc 2d18 abbd 8829 76bc
00000370: 63df 7fbd e0de 973d 9dd3 113c 626f 113d
00000380: 0a4a 89bd 5a94 803c 0df9 9ebd 9ae2 29bc
00000390: 299c f43c eeb4 99bd 4e83 893d 3a69 74bd
000003a0: 760d 41bd a913 b33d e480 af3d 072c dd3c
000003b0: 7666 e43c 732f 733b 32a5 793d 3c01 09bd
000003c0: 38c6 d1bc ade5 ec3c 2b35 63bd 79c9 aa3c
000003d0: e8da 263d e760 3439 3df4 9cbd 8d80 aabc
000003e0: 251f 86bd 3358 35bd e373 403c de8d 88bd
000003f0: b5f6 213d 63d2 4ebb 255e d9bc 8378 80bd
0.03670563 -0.025428372 0.058672365 -0.109521896 -0.084765285 -0.011927569 -0.101848386 0.109360166
-0.00034509765 -0.0025983357 0.06439337 0.030723168 0.06305837 -0.12939166 0.02089505 -0.07501022
0.007465546 -0.10323044 -0.05530045 -0.030328657 -0.06787027 -0.06366894 -0.05384513 0.030441351
0.06164342 -0.017163126 -0.076743625 -0.11910035 0.004883046 -0.070824705 0.044914424 -0.04670898
0.017034203 0.032581963 -0.020512613 0.0051484006 0.00044889437 0.058172934 -0.025570877 -0.07731973
0.044661604 -0.003375537 0.008654802 -0.059574943 0.012891854 0.008401188 -0.016206263 -0.0785371
-0.06887393 -0.04390328 -0.11906612 -0.08612237 0.030993015 -0.06921897 0.07587637 -0.11098678
-0.12936746 -0.03626285 0.025806384 0.0144828865 0.04270421 -0.016716436 -0.08750966 0.026227014
-0.028752144 0.010401242 -0.009614146 -0.07017126 -0.05259537 -0.017298348 0.07340915 0.024398979
0.033301838 0.061699368 -0.0316687 0.0034739224 -0.017875023 0.028769787 0.013865165 -0.016640158
0.07529311 0.041122835 0.009138845 0.037390575 0.041401118 0.04634915 0.068868645 0.012402877
-0.02614956 -0.019334035 0.05442431 -0.08259547 -0.09349035 0.04160495 0.027989574 -0.028494991
0.09150668 0.04331392 0.08657554 0.04890716 -0.05842746 -0.031934414 -0.061195 0.00257289
0.0013741355 -0.04924035 -0.077498496 0.0863635 -0.048390664 -0.056982487 0.058642715 0.03620783
-0.025470298 0.011640819 -0.008326945 -0.06635226 -0.030775538 -0.09308367 -0.090227574 0.017269377
0.083744004 0.0481575 -0.03877377 0.080548026 -0.014785682 -0.06251711 0.044573426 0.045252923
0.021138668 0.025652016 0.07206561 -0.005352997 0.06390702 -0.001184474 -0.058019634 -0.03598416
-0.056872904 0.06580366 -0.013413223 -0.05214173 -0.05479697 0.015523643 0.02077042 0.006281387
0.08433444 0.030262047 -0.01954324 -0.010059704 -0.036433116 -0.042979207 -0.0088998545 0.014925727
-0.07742548 -0.0036450385 -0.032305643 0.04377709 0.027805002 -0.059282966 -0.0073906183 -0.051567595
0.024537852 0.021431778 -0.032625727 -0.031024452 0.05741453 0.071172446 0.036032427 0.07910186
-0.05054075 0.071417116 -0.012010134 -0.014752924 0.0810005 0.0487717 -0.026807018 0.07846762
0.028485116 -0.054192618 -0.07424662 0.08775698 0.04946451 0.046317015 -0.014636368 -0.02811334
-0.021897722 -0.025940077 -0.013632198 0.043831225 0.024699 0.063534014 -0.03883006 0.012830839
-0.060052503 -0.068969704 -0.07556987 -0.020773571 0.035628594 -0.008889065 -0.055443093 0.08625418
0.047806706 0.06969594 0.0032951671 -0.06922434 0.08610916 -0.054882623 0.012537423 0.080806874
0.07160606 -0.06487711 -0.08697726 -0.014932375 -0.07425068 0.07527194 -0.035002146 -0.08349493
-0.000755556 -0.0213121 -0.083542205 -0.01502455 -0.062468898 0.07415557 0.00890055 0.035506614
-0.06703575 0.01569574 -0.077623464 -0.010368967 0.02985962 -0.07505213 0.067144975 -0.059670664
-0.047131978 0.08743984 0.08569506 0.026998533 0.027880888 0.003710714 0.06094856 -0.033448443
-0.025607213 0.028918112 -0.055470627 0.020848023 0.04073611 0.00017202237 -0.07663772 -0.02081325
-0.06548909 -0.044273566 0.01174638 -0.06667684 0.03954192 -0.0031558506 -0.02653415 -0.06272986

bias f4 [128]
00000000: 6103 b9bc 00ef 81bd 9b97 babd 47af 37bd
00000010: 6827 6fbd 369f 40bd 691f 503d e79e e5bd
00000020: 5dfc 92bd 7593 83bd dd0a 61bc cfe8 3dbd
00000030: 6324 b3bd 5ce3 a2bb 9093 d5bd ba1e 8bbd
00000040: 7e1c 04bd a21e e9bb 0159 7fbd 2445 17be
00000050: 4001 76be 0cec 91bc 0625 81ba 9ff8 c73c
00000060: 89cd 5dbc 928a 833c 83d0 97bc 6de8 d3bd
00000070: 5f49 fb3d 7dda 0ebe 06fe 96bd fddc 40bd
00000080: 7114 86bc 31cc afbd 75f8 593b 7836 d93d
00000090: 4be6 16be 5b32 adba f068 2bbd 5dff 5bbd
000000a0: 0b19 94bc aedc 38bc 4aad cebc b218 7e3d
000000b0: 82dc 9cbd 215f d5bd 2c58 2cbd 2f52 c1bd
000000c0: 0dac 02bd 19b4 abbd b812 27bd fd61 0d3a
000000d0: aa47 0fbd aaab 96bd ee54 0abc 5f4a 88bc
000000e0: 8390 bbbd 9a8c 17be baad 03be 3cf3 15bc
000000f0: 98d0 0cbd e766 18be c2b4 86bc 8d50 fabc
00000100: 6e17 9d3d e96d debb cc69 1dbc 7145 e8bc
00000110: 5230 c2bc eb83 623c 0278 02bc fca9 9bbd
00000120: 39b9 f9bd 169b b0bd 8e23 77bc d0e9 e1bc
00000130: c110 c8bc 19e3 56bc 7ec5 8cbd e6c6 efbd
00000140: e5c4 ba3c 59f2 da3c 011b 10be 4482 afbc
00000150: abdc 05be 562d 7abe 3cfe e8bd f905 283d
00000160: 85e5 69bd 7b8a 26bc 1bad 8ebd bbdb b3bd
00000170: 4ece 61bd 7c74 8c3d 4425 63bd 271b 06bc
00000180: 6ee6 bfbc a8f0 893b 9950 c13a 8d1e f1bb
00000190: 42a0 f1bd 3f71 573c 2097 1abe 8add e1bb
000001a0: 4544 61bd 8810 5bbd b8c3 cfbd 6404 7dbd
000001b0: c456 fdbd 844e 96bd fdb1 97bc 1352 8fbd
000001c0: 0f3d 6bbc adbc 0cbd 623e 52bc 8c82 1cbd
000001d0: 38ee 6bbd 7199 19bc 9c16 a8bd fcc1 9fbd
000001e0: c435 22bd 82b9 40bd 7697 01be ec9d af3d
000001f0: 8a70 4dbd 1c8b c5bd 9764 1ebc b8eb 4bbd
-0.022584619 -0.06344414 -0.09110948 -0.044844892 -0.05838719 -0.047026835 0.050811205 -0.11211949
-0.07177041 -0.064246096 -0.0137355 -0.0463646 -0.087471746 -0.004970951 -0.10428536 -0.0679297
-0.032253735 -0.0071142474 -0.06234074 -0.14772469 -0.24023914 -0.017812751 -0.0009852953 0.024410544
-0.013537773 0.016057286 -0.018532043 -0.10347066 0.12269854 -0.13950534 -0.0737267 -0.04708575
-0.01636717 -0.08583868 0.0033259664 0.10606092 -0.14736287 -0.001321386 -0.041848123 -0.05371033
-0.018078348 -0.011283083 -0.025229115 0.06203527 -0.07659246 -0.10418535 -0.042076275 -0.094395034
-0.03190236 -0.0838396 -0.040789336 0.00053933245 -0.034980454 -0.07356961 -0.0084431 -0.016637025
-0.09158423 -0.14799729 -0.1285924 -0.00915223 -0.034378618 -0.14883004 -0.016443614 -0.030555988
0.076704845 -0.0067880047 -0.0096077435 -0.028353425 -0.023704682 0.013825397 -0.007963182 -0.07600781
-0.121935315 -0.0862333 -0.0150841605 -0.02757731 -0.024422051 -0.013115668 -0.06873606 -0.11707859
0.022798965 0.026726888 -0.14072801 -0.02142442 -0.1307246 -0.24431357 -0.11376616 0.04102132
-0.057103653 -0.010164852 -0.06966611 -0.08782145 -0.055128388 0.06858155 -0.05545546 -0.008185185
-0.023425307 0.0042095967 0.0014748751 -0.0073583783 -0.11798145 0.013149559 -0.15096712 -0.0068928646
-0.054996748 -0.053482562 -0.10144752 -0.061771765 -0.12370065 -0.073391944 -0.018517489 -0.06998076
-0.014357819 -0.034359623 -0.012832256 -0.038210437 -0.05760023 -0.009374962 -0.082074374 -0.078006715
-0.039602056 -0.047051914 -0.12655434 0.08575043 -0.050156154 -0.09645674 -0.009667537 -0.049785346
