nerf_models/fox_check.pth (torch, 647432 bytes, 22 tensors)

weight f4 [128, 63]
00000000: d5e9 213c f715 dcbc 1877 073c 1ab5 fdbd
00000010: 8796 b23d f966 bb3d 100b 9a3d 8557 0f3e
00000020: d91b db3d a9b4 213e 8903 113d bb4f de3a
00000030: 5571 b9bd cfb7 0dbe fa68 363e dbff 1f3e
00000040: 4403 af3d f0b3 673d 3867 c03c 9fed 023e
00000050: 392f dcbd 96bd 90bd 799e 003d 1903 19bd
00000060: 4962 bf3c 1b05 ac3e 9cfb 5e3e 811b eb3d
00000070: 0cb2 36be 8df2 12be 5998 893c 5aab c2bd
00000080: bee1 a33e 918a 27bd 3028 4dbd 3ee6 4e3d
00000090: e11d 7e3a 46b6 49be 1946 bc3d 6716 b13d
000000a0: 391e 823d 6a37 2abe 5682 443e 02fa ad3c
000000b0: e374 b13d a6d7 cfbd 7a57 3abe 2645 81be
000000c0: 8269 273e da5f 8ebe 1ea3 40be f5be afbe
000000d0: 87fd 33be 0bd8 703e 0009 8e3e d1dd 743e
000000e0: 3b46 503e 836c 5bbc 7bdc 8d3c bfc4 aabe
000000f0: e2c4 033f 21ce 89be 1ead 4e3e 2922 6e3d
00000100: 5162 953d de3a 863d 9c28 93bc 45cc f73d
00000110: f1d6 f1bc 468f 03bd 2896 d73b 6da5 903d
00000120: 9d12 a73c 3066 eabb 53dc 09be 9057 b23d
00000130: b3c0 00be 110b bb3d 75c2 16be 0398 78be
00000140: 5887 80be 1a6e c0bd 24e3 af3a 807e 483e
00000150: 2d11 d83d faf7 6cbe 5ded 42bd ce5b 6e3c
00000160: f1c9 203d fd4f 8f3d 2db6 b0bc 22e7 29be
00000170: fdab df3c 510c 3abe 8de6 1f3d e17a 513d
00000180: cf87 023c 8fe3 d5bc 2a27 3cbd 7532 f0bd
00000190: a071 17bd 9409 663e 557e 913e 9fc9 413e
000001a0: 7204 10be 53f7 7f3e 7d10 cb3c f1df 103e
000001b0: cde8 cc3e a593 85be 8636 8d3e 50f5 b13d
000001c0: 48a8 98be 5ffe 19be cf54 153e 2e0f b8bb
000001d0: 607a f13d 15e6 4ebd 0016 a1bd 1f27 d63c
000001e0: 485c 80be 24d1 8fbe 0d8f 9abd 5733 07be
000001f0: 4249 dc3e 9576 a8be 1fc9 653d d82f bb3d
00000200: f0a7 1cbc 89ba 02be 81ba 8b3d e8eb 043d
00000210: c97e e2bd 2a4d 1e3e f875 3b3d 549b 6fbc
00000220: 7380 813e 5b3e 45be 405f a53b d994 f0bd
00000230: e4ed 703d 4591 d9bd 592b 32be e466 55be
00000240: 76c0 01bd 8757 1b3e 84da edbd 8eed b53d
00000250: 0ccb 46be 5388 15be c102 803c bd01 a93e
00000260: af48 09bc 0b60 963e f8a6 95be 4871 7fbe
00000270: 5050 b1bc 54aa e23c b528 3f3e b33f aebe
00000280: 0a1b 2ebe 0d06 b8bd bb24 363c aa55 513e
00000290: f7bd 813c eeed 7c3d f059 413e 7fc2 c73d
000002a0: 5cc5 303e 0d51 4bbe 4eff 84be 5853 64be
000002b0: 5c63 48be abf6 21be 5b72 56be d182 943e
000002c0: a74f dcbd 607c 083d 4c22 a5bd ebb3 513e
000002d0: 24e2 85bc 5d7d 203e b3f6 4f3e c7fe df3e
000002e0: 8f94 97bd 8bcf a43e dee3 ff3d c709 f83d
000002f0: b604 303c 1017 6d3d 60b4 a0bc 5c41 b5bd
00000300: 14e3 01be 7418 203e 1de4 273d ba3e 1a3d
00000310: 666b 043e 2f1b 92be eb1a 333e 854e 3abe
00000320: 7f02 463c 84a5 60be 0bbd 9ebe 1d61 98bd
00000330: 5fad 70bd bec9 183c bcbf 76be e170 71bd
00000340: 3757 b73e 7d7a ebbd 1d20 a5bd de96 b33e
00000350: 78b2 5b3e 82cd 56bd 2683 f5bd a524 b9bc
00000360: c0e2 a3be 7a8d d1be c6fb 5c3d bb6f 77bd
00000370: 8a22 a9bd a96c 56bd a5be c53c 4680 7abc
00000380: d35d 9b3d 0c1b bdbd 073a 8dbe 7d5e bb3e
00000390: 219e 3fbe ea2a f73d deee ebbd da0c c83d
000003a0: 1b82 ff3d 19d7 3fbd 3ee6 883e a3f7 04bd
000003b0: 06b0 b3bd 4341 48be a07d a5be e53a a13d
000003c0: 364e 86bd 160a dd3d 6380 6dbd 7e97 073e
000003d0: 82ac 933e fb10 87be 5db1 463e 8f1f 9dbd
000003e0: 2e25 db3e e2d8 04be 2bc6 ddbc 9800 713e
000003f0: a3dd 913c cf6b 1b3c 6379 0e3d 2184 403c
0.00988241 -0.026865942 0.00826814 -0.12388058 0.08720117 0.091505 0.07521641 0.1399823
0.10698671 0.15791573 0.035403762 0.0016961017 -0.090548195 -0.13839649 0.17813483 0.15624945
0.08545545 0.056568086 0.023486719 0.12785958 -0.107511945 -0.07067411 0.03140113 -0.03735647
0.023362296 0.33597645 0.21775669 0.11479855 -0.17841357 -0.14350338 0.016796278 -0.09505339
0.32008165 -0.04090363 -0.050087154 0.050512545 0.00096937834 -0.19698438 0.091930576 0.08646851
0.06353421 -0.16622701 0.19190344 0.021237377 0.086648725 -0.101485536 -0.18197432 -0.2524807
0.16348842 -0.27807504 -0.18812224 -0.34325376 -0.17577182 0.23519914 0.2774124 0.23912741
0.20339291 -0.01339257 0.017317047 -0.3335323 0.51472294 -0.26915076 0.20183226 0.058138046
0.07294143 0.06554197 -0.0179637 0.12099508 -0.029521437 -0.032119058 0.0065791793 0.070628025
0.020394618 -0.007153295 -0.13462953 0.087081075 -0.12573509 0.0913297 -0.14722617 -0.24276738
-0.2510326 -0.09396 0.0013419134 0.19579506 0.10550151 -0.2314147 -0.04758965 0.014548255
0.039255086 0.069976784 -0.021571243 -0.16592076 0.02730369 -0.18168761 0.03903823 0.051142577
0.00796695 -0.026109485 -0.045935787 -0.11728374 -0.036973596 0.22464591 0.28416696 0.18924569
-0.14064196 0.2499669 0.024788136 0.14147927 0.40021363 -0.26089206 0.2758066 0.08689368
-0.29815888 -0.15038441 0.14583133 -0.005617044 0.11790919 -0.050512392 -0.07865524 0.026141701
-0.25070405 -0.2808925 -0.07546816 -0.13203178 0.4302464 -0.3290297 0.056100007 0.09139985
-0.009561524 -0.1276647 0.06822682 0.03245154 -0.110593386 0.15459123 0.0457668 -0.014624435
0.2529331 -0.19262068 0.005046755 -0.117471404 0.05882062 -0.10623411 -0.17399348 -0.20840031
-0.031677686 0.15170108 -0.11613944 0.088832006 -0.19413394 -0.14602785 0.015626313 0.3300914
-0.0083791455 0.2937015 -0.2922895 -0.24945557 -0.021644741 0.02766911 0.18667872 -0.34032974
-0.17002502 -0.08985529 0.011117156 0.20442834 0.015837653 0.061750345 0.18881965 0.09753894
0.17262787 -0.19855137 -0.25976032 -0.22297418 -0.19569153 -0.15816753 -0.2094206 0.29006055
-0.1075738 0.03332174 -0.08063182 0.2047879 -0.016343184 0.15672822 0.20308952 0.43749067
-0.07401382 0.32189593 0.12494634 0.1211124 0.010743311 0.057883322 -0.01961726 -0.08850357
-0.1268428 0.15634328 0.04098903 0.037657477 0.12931594 -0.28536364 0.17490737 -0.18194015
0.012085556 -0.21938139 -0.31003603 -0.07440398 -0.05875909 0.009325443 -0.24096578 -0.05894554
0.35808727 -0.11497972 -0.08062766 0.3507604 0.21454799 -0.05244208 -0.11987905 -0.022600481
-0.32008934 -0.4092825 0.053951047 -0.06040929 -0.08258541 -0.05234972 0.024138758 -0.015289372
0.07586255 -0.092336744 -0.27583334 0.36595526 -0.18712665 0.12068732 -0.1152017 0.09768076
0.124759875 -0.046835992 0.2673816 -0.032462727 -0.08773808 -0.19556145 -0.32322407 0.07872561
-0.06557886 0.10792939 -0.057983767 0.13241383 0.2884255 -0.26380143 0.19403596 -0.07672035
0.42801803 -0.12973359 -0.027072033 0.23535383 0.01780588 0.009486153 0.034783732 0.011750252

bias f4 [128]
00000000: 252e dcbd 8ade cabd 3aa1 313c 8394 1ebe
00000010: 38bb 30be 89d3 dcbd 9b7f 653d 0b8b dbbd
00000020: 936d 5f3d fbb8 6bbd 1b1d 79bd af9b 3ebe
00000030: 7978 3cbe 65a1 94bc f76f 38be 8711 2fbe
00000040: d412 a4bd e82b 28be e30c 20bd edb1 21be
00000050: 5840 da3c 1dd9 26be 8361 c5bd b607 b5bd
00000060: 6e16 4bbd 6efe 65bd 9233 3bbd e654 78be
00000070: 5b66 8bbd 37c3 efbd 0dbd f6bd e1e5 4cbd
00000080: 1ae4 eabd 7cd3 9fbd 04f3 a33d 2cfe 1cbe
00000090: 347f 27be ab88 6cbd de1a 02be bf1e d4bd
000000a0: 5045 74be 8f61 2abe 259a 18be 9254 033d
000000b0: ec77 3cbe c1c2 4bbe 0725 18be b8c6 58be
000000c0: ff25 72bd e2f2 d6bb 1d5e 20be 4a66 babc
000000d0: f387 23bd 5852 69be cf77 91be 7abe 38bd
000000e0: 8e1b 4bbd a26a efbd 2bac d7bc f259 cc3c
000000f0: 9b5f 82bd 78e0 18be 85ac 12bd ed3d 7cbd
00000100: 1aba 86bd 52a8 a5bc ae44 2fbe ff47 46be
00000110: e64c 69be 27ba 17be ce24 8bbd 0402 fdbd
00000120: 7ba7 25be e3d7 03be 359b f2bd 98e7 0a3e
00000130: ff21 2dbe eadf 2d3d 323c 72be 2d52 28bb
00000140: ea25 33bc 07ec 56bd d575 97bd 9c20 e0bd
00000150: 3ccd c5bd 8ce6 18bd f9de c23c 3858 35be
00000160: 1a3c 5abd 7d8a 573c af59 63bd 3a85 3bbc
00000170: 2899 82be 6201 c5bd 08af 3cbe 2ee3 74bd
00000180: 1c0a 42be 459d 1abd 8a5b 74be 7afc d2bd
00000190: a1fd 54be eb62 313d d92b 02be 5c66 3ebe
000001a0: b8cf 17be 1ff8 33bb a252 c3bd 4404 90bd
000001b0: 310c 4dbe 0d2c 58bd 351d 8bbc 497d ecbd
000001c0: 7318 96be cdbe e0bd 3ae8 38bc aed0 133d
000001d0: 8318 ddbd 52ba 5cbe 005b c6bd c95c d33c
000001e0: 39a2 90bd 6dde 5bbe afbe 46be c5b7 99bc
000001f0: 5d5c 22be c4e3 05be 801b 9b3d c4c5 17be
-0.10750989 -0.09905727 0.010841662 -0.1548634 -0.17258918 -0.10782535 0.056029897 -0.1071988
0.054547857 -0.057549458 -0.060818773 -0.18614076 -0.18405332 -0.018143365 -0.18011461 -0.1709653
-0.08011404 -0.16422999 -0.03907479 -0.1579053 0.02664201 -0.1629376 -0.096377395 -0.08839361
-0.049581937 -0.056150846 -0.04570348 -0.24251136 -0.06806632 -0.11707156 -0.12047777 -0.050023917
-0.11469288 -0.07804009 0.08005336 -0.15331334 -0.16357118 -0.057747524 -0.12705562 -0.10357427
-0.23854566 -0.16638778 -0.14902551 0.032063074 -0.18405122 -0.19898511 -0.14857875 -0.21169555
-0.059118267 -0.0065597156 -0.15660901 -0.022753853 -0.039924573 -0.22785318 -0.2841172 -0.045103528
-0.049586825 -0.116902605 -0.026327213 0.024945233 -0.063658915 -0.14929378 -0.03580906 -0.061582495
-0.06578465 -0.020221863 -0.17116043 -0.19363402 -0.2278324 -0.14817105 -0.06794129 -0.123539
-0.1617717 -0.12875323 -0.1184601 0.13564909 -0.169075 0.04244987 -0.23655775 -0.0025683746
-0.010934332 -0.052471187 -0.073955216 -0.1094372 -0.09658286 -0.03732924 0.023787962 -0.17709434
-0.053279974 0.013155577 -0.05550545 -0.011445338 -0.25507474 -0.096194044 -0.18426144 -0.059786968
-0.18949169 -0.03774764 -0.23863044 -0.10302062 -0.20799877 0.043307226 -0.12712039 -0.18593735
-0.14825332 -0.0027461124 -0.09537245 -0.070320636 -0.20024182 -0.052776385 -0.0169817 -0.11547334
-0.29315528 -0.10973892 -0.011285836 0.036087684 -0.10795691 -0.2155545 -0.096853256 0.02580108
-0.070621915 -0.21471567 -0.19408678 -0.018764386 -0.15855546 -0.13075167 0.075736046 -0.14821535

weight f4 [128, 128]
00000000: f637 2ebd 9542 95be 4439 d6b9 c219 a43c
00000010: fe1c 8dbe af56 383d 721d d2be a871 713d
00000020: 3943 59bd 514e 503e b213 4a3d 567b 543d
00000030: 3dbe c03d 797c a7bd 35d0 d7be 7e9e a83c
00000040: aa94 7ebe 073a 86be 07c9 1ebe 4daa 08be
00000050: 8e63 83be 42ea 41be 130b 95be cd75 143d
00000060: f6d5 493d 3fa3 273e d81c b8be daa8 3e3e
00000070: 7628 9d3d bc79 ddbe 0893 5b3e 96d0 5cbd
00000080: b850 a8be 638a 32bf 7fad a83d e2fb 3cbe
00000090: d471 c53d 8063 41be 52f2 e9bd 99ec 3ebd
000000a0: 6589 45be e3a3 0bbd 7645 acbd 0ded 82be
000000b0: 6fd1 04bd c166 883e a0af 793c fe1a a23d
000000c0: c3fc c0be fda3 5f3d a726 99bd 45c0 863c
000000d0: 590e 513d 36a8 67be f650 76be 930d ed3d
000000e0: bd8b 2a3e f01c fabd 631f 133e 89ef 4fbe
000000f0: ce8b c33c 0e8f 37bd 19f0 c13d 443c d3bc
00000100: 072b f23d ff18 123c d08b a0be a55a 57be
00000110: 7398 03be fe76 bdbd 07a0 163e 5d05 39be
00000120: c01c fdbd 109f 9a3d 6a88 773c e15f f938
00000130: 90eb 263d 0bc1 10be 59b5 23be 1191 d6bd
00000140: ea5e 1b3c 1d93 c6bd a766 db3c bf37 893d
00000150: d845 ec3d bf3a 8b3e f543 32bd 1f30 9bbd
00000160: c981 5b3e a30f aebe d125 2f3e 9bfe 823c
00000170: 7db7 aebc e658 c43d 4d81 353e 0302 30bd
00000180: d8b6 4fbe 6d7d cfbb cf7e 52be 9a21 89be
00000190: 40e3 eebd e8c4 1abe 5719 b2bc f6bb 64be
000001a0: e39a 1f3d ea69 55bd fc86 4a3e be45 9bbe
000001b0: 54d9 01be aa92 29be 32e8 783d 529c cdbd
000001c0: da99 533e 7aa3 69bd 14ea e03c 29ea 503e
000001d0: 59da 553e 13af c63c a657 66bc a52f c93d
000001e0: 5cd5 dc3d b53b 15be 6965 98be a22f 33be
000001f0: bb15 83be 59a3 a93d 1c26 10be 0ada adbd
00000200: ac30 d8bd 1cd1 1b3d 6e3a 323e a193 943d
00000210: 9545 543c f8c7 8dbd 192d 2dbe 983c 283e
00000220: d6a7 513d 28e0 263d c3b7 c33d d76f 85bc
00000230: 810a 453e 74f5 be3c 275d f03d 81ef 123e
00000240: 22d4 c33d 3cae e33b 5bdd 0e3e 57fa a13d
00000250: ba2c f8bd c058 c43d 4542 15be 6cce 313d
00000260: 4836 56be b081 adbd 947c fe3b 7721 ee3d
00000270: 5d48 8fbd e5ee 103e efa6 ddbd 204e 3c3e
00000280: 07c7 aa3d 55a8 b6bd d15c 2d3e 2b41 64be
00000290: cae1 93be e11e 0dbc 8ed5 01bc 696f 8fbc
000002a0: 6861 18bc ea35 f2bd d6c3 1a3e c954 e93d
000002b0: b605 d23d e86f 00be ebcb 41be 2aa2 e1bd
000002c0: 6e2d ae3d b694 02be 63e7 313d 8109 13be
000002d0: a3a9 063e 13dd 5fbd f7ad c6bd b69e a63d
000002e0: 3c3a e8bd 82e5 eabd 02d0 353e fe50 3bbe
000002f0: 4dcd a13b c56c 59bd 40fa 133e e940 01bd
00000300: c791 613c 24cd de3d c6aa 2e3e 2824 5c3e
00000310: 6063 f7bb 5b65 de3c 59fb 0abe 8c71 803d
00000320: fd3e 62be d72d 533d 1ac9 363d 9979 0cbe
00000330: 42cb a9bc 4980 6d3d 2f80 bd3d fb0b aa3d
00000340: 9d37 3ebe 466b 073e 09d8 c73c 6337 a13d
00000350: 546c 67be 07d5 e03d b1e2 a8be d19c d23b
00000360: a765 353d 5922 fdbd f6f8 ca3d b75d 983d
00000370: efa7 3a3d ba51 85be eddc 45be b4eb 1ebe
00000380: 3378 043e 7f16 05be 72d7 ba3c a299 f6bd
00000390: ec4e a23d f4fe 5bbd 0c7b 23bd a35e 0abc
000003a0: 7592 2dbe fbe0 ae3d d657 b6bd 1b8e f93c
000003b0: 786d 1fbd eaf0 273e a69f e23d 1553 52bd
000003c0: 0e2b 103e dcc5 11be 5259 513d 9d3d b1be
000003d0: 7456 8abe c5a9 0ebd 4a81 e13d ce7f 203d
000003e0: fe52 0fbe 7463 5b3d d17b 1cbd abea 7f3d
000003f0: cec8 87be ff45 b7bd 3dad af3d 372b ee3d
-0.042533837 -0.2915236 -0.00040859927 0.020031814 -0.27561182 0.045004543 -0.4103809 0.05894628
-0.053042624 0.20342375 0.04933519 0.051875435 0.09411285 -0.08178038 -0.42151037 0.020583387
-0.24861398 -0.26216146 -0.15506373 -0.13346215 -0.25661892 -0.18937019 -0.2911001 0.036245156
0.049276315 0.16370867 -0.35959506 0.186191 0.07673733 -0.43256938 0.21442807 -0.05390986
-0.32874084 -0.6974241 0.08236217 -0.1845546 0.096408516 -0.18885612 -0.11423172 -0.046612356
-0.19290693 -0.03409184 -0.08411686 -0.2557148 -0.032426294 0.26640895 0.015239626 0.079153046
-0.37692842 0.05459975 -0.074780755 0.016449103 0.051039074 -0.22622761 -0.24054322 0.11574855
0.16654868 -0.12212551 0.14367442 -0.20306219 0.023870375 -0.044814162 0.09469623 -0.025785573
0.11824613 0.008917092 -0.31356668 -0.21030672 -0.12851124 -0.092512116 0.14709483 -0.18068452
-0.12358999 0.0754987 0.015108207 0.00011891104 0.040751994 -0.1413614 -0.15987147 -0.10476888
0.0094830785 -0.096960284 0.026782347 0.06700086 0.11536759 0.27193257 -0.04352184 -0.07577538
0.21436228 -0.33996305 0.1710427 0.015990546 -0.021327728 0.095872685 0.17725106 -0.04297067
-0.20284593 -0.0063320906 -0.20556186 -0.26783448 -0.11664438 -0.15114176 -0.021740599 -0.22337326
0.03896607 -0.05210296 0.19778055 -0.30326647 -0.1268056 -0.16559854 0.060768314 -0.10039581
0.20664158 -0.05704067 0.027455367 0.20401825 0.20884074 0.024253404 -0.014058983 0.098235406
0.107828826 -0.14573558 -0.2976487 -0.17498639 -0.25602517 0.08283109 -0.14077038 -0.08488853
-0.105561584 0.03804122 0.17405102 0.072547205 0.012956043 -0.06922907 -0.16911735 0.16429365
0.05118545 0.040741116 0.09556534 -0.016288681 0.19242288 0.0233104 0.117365174 0.14349176
0.095619455 0.0069482606 0.13951628 0.07909077 -0.12117906 0.0958724 -0.14576061 0.04340975
-0.20919144 -0.084720016 0.0077663157 0.11627477 -0.06996224 0.14153631 -0.10822856 0.18389177
0.08338743 -0.089188255 0.16929938 -0.22290485 -0.288832 -0.008613319 -0.007924451 -0.01750918
-0.009300567 -0.118266895 0.15113768 0.113931246 0.102549955 -0.12542689 -0.18925445 -0.110172585
0.08504759 -0.12752041 0.04343356 -0.14359094 0.13150649 -0.054654192 -0.0970115 0.081357405
-0.11339232 -0.114695564 0.1775513 -0.18292615 0.004937804 -0.053082246 0.14450932 -0.031556044
0.013767666 0.10878971 0.17057332 0.21498168 -0.007549688 0.02714794 -0.13572444 0.06271657
-0.2209434 0.05155739 0.04462538 -0.13718261 -0.020726804 0.05798367 0.09252965 0.08303066
-0.18575902 0.13224515 0.024395006 0.07871892 -0.22599918 0.10978132 -0.32985452 0.0064273854
0.044286396 -0.12360067 0.09910767 0.0743975 0.04557031 -0.26038915 -0.19322558 -0.15519601
0.12936477 -0.12996863 0.02280781 -0.12041022 0.079252094 -0.05370994 -0.03991227 -0.008445415
-0.169504 0.08539005 -0.08903472 0.030463269 -0.038922757 0.16400495 0.11065607 -0.051348764
0.14078924 -0.14235634 0.051110573 -0.3461732 -0.27019083 -0.034829874 0.11010988 0.039184384
-0.13996503 0.053561643 -0.038204018 0.062479656 -0.2652039 -0.089488976 0.085779645 0.11629336

bias f4 [128]
00000000: fb57 a5bd c269 92bd 7519 bcbd 47d5 4ebd
00000010: 8236 803b 88ad 533c 7566 de3c ce5e 69bb
00000020: a242 53bd 7d72 d0bc 020c 6ebc f574 56bd
00000030: 9062 073e 8c2c d0bd 2cd4 e5bd 800c 453d
00000040: 0563 6fbd 3eb5 c7bc 2fcc 80bd 962d ab3d
00000050: 1811 6dbd d064 e13b da61 debc 630a 98bd
00000060: 8ea3 b83d 1878 d5bd 4690 5cbd d872 e9bc
00000070: 59f4 213d 2314 d1bd baea bbbd 72dc a2bd
00000080: 6888 3cbd 6a17 c8bd a4fb b8bc 6489 9a3c
00000090: 1cda 97bc f677 a4bd ba85 983c e659 82bd
000000a0: 8bcf 03be d8de 42bc d2d7 f0bd 4f11 9bbd
000000b0: f77e 943c d9f7 1c3d 1d16 b3bd 87b7 803d
000000c0: 7b7a d6bd 8e01 f33c 5ad1 113d 7680 793d
000000d0: 003f aabd 074a 4cbd d36c be3c 2409 afbd
000000e0: 788a b8bd 9fa1 3bbc 0fd8 dbbd 7f66 07be
000000f0: abf6 26be 40f7 c2bd 6d9c bf3c f3f9 3a3d
00000100: 1ecc 613d f887 fcbb 273b 833d 4de7 b0bd
00000110: eaea 173d e26b 683d 9f3f 3a3d 1065 08be
00000120: 8054 bdbd a38e d3bc 5756 47bd d50f d53c
00000130: f141 b53a 2e04 7ebd 2494 a73c 36ea 7fbd
00000140: addf ecbd aad6 ffbb b500 313d 3c17 8cbd
00000150: 0666 12be 3370 7b3d 3dd2 ed3c c739 613d
00000160: de37 bdbd 4397 7fbd 616c cbbc 33e6 793d
00000170: 882b de3c 1892 a9bd 15eb 87bd 606e 56bd
00000180: b2ba 86bd d7c9 00be 6044 063c ef1d 243d
00000190: ff51 743d 3618 bfbd 62b5 843a 58f6 48bd
000001a0: f91c 863c 2717 943c 4578 f93c e3ac 4bbd
000001b0: 085c 41bd 416d cdbd 221f 053c 3cf0 d4bd
000001c0: 3363 d1bd a192 f7bc 420b 6e3c bfe5 26bd
000001d0: 7652 cabd f779 793c 9263 8bbd f551 313d
000001e0: 7c56 bebc 731a 02bd 683b 8dbd 56b4 abbd
000001f0: bd35 71bd 32d5 ad3b 86db 55bb 65f1 bf3c
-0.080734216 -0.07149078 -0.09184543 -0.050496366 0.003912748 0.012919791 0.027148465 -0.0035609487
-0.051577218 -0.025445217 -0.01452923 -0.052357633 0.13221192 -0.10164747 -0.11222109 0.048107624
-0.05844404 -0.024378415 -0.06288945 0.08358304 -0.05787763 0.006878473 -0.027146269 -0.07423856
0.090155706 -0.10423297 -0.053848527 -0.028497145 0.03953967 -0.10208919 -0.0917563 -0.07952203
-0.046028525 -0.09770091 -0.02258093 0.018864341 -0.01853662 -0.08030693 0.018618453 -0.06364803
-0.1287214 -0.01189395 -0.117599145 -0.07571661 0.018126948 0.038322303 -0.08744452 0.06285005
-0.1047258 0.029663827 0.035600044 0.060913526 -0.083127975 -0.049875285 0.02324525 -0.08546665
-0.09010786 -0.011452108 -0.10734569 -0.13222693 -0.16305034 -0.095198154 0.02339002 0.045648526
0.055126302 -0.0077066384 0.06407767 -0.08637867 0.037089266 0.05674351 0.04547083 -0.13319802
-0.09244633 -0.02582485 -0.048666324 0.026008526 0.0013828856 -0.062015705 0.020456381 -0.06247922
-0.115661 -0.0078075724 0.043213565 -0.06840369 -0.14296731 0.0613863 0.029030913 0.05498674
-0.092391714 -0.062400114 -0.024831953 0.06101055 0.027120367 -0.08279818 -0.06636635 -0.052351356
-0.06578578 -0.12576996 0.008195013 0.04006761 0.05964851 -0.0933079 0.0010124857 -0.049063057
0.016371237 0.018077446 0.030452857 -0.049725424 -0.04720691 -0.10030604 0.008125098 -0.103973836
-0.10223999 -0.030221285 0.014529051 -0.040746447 -0.098790094 0.015226833 -0.06806101 0.04329105
-0.023234598 -0.031763505 -0.068960965 -0.08384006 -0.05888914 0.005304956 -0.0032632067 0.023430536

weight f4 [128, 128]
00000000: ed45 d1bd fa25 783d 1e66 d53c ff50 53be
00000010: 92da 0a3e cb86 ae3d fd98 c6bd f57e 1cbe
00000020: c3d1 1abd cd72 0cbc d550 8c3d 42d6 acbe
00000030: 58a9 913c a1d5 64be 6364 e03d 4c04 0dbe
00000040: 8265 7abe 8bfc 653e aab5 023e 2374 413e
00000050: dd2d 6b3d 0411 ec3d 6966 553d 4072 373e
00000060: 49c6 f33d 9e53 54ba d5e9 0f3e 667d a73d
00000070: 6867 043e 17ce 873c 6205 023e 8b88 0bbe
00000080: 4a1b 413d 4c3e e6bc 6632 3a3e 50b3 bd3d
00000090: 8507 92bd 3d31 19be 3d23 2abb 341d d4bd
000000a0: 7bd2 0abe b80d 99bd 16ad 4dbd 1b8b c63d
000000b0: c547 8fbd f878 873c 8107 86be 8dd8 2bbe
000000c0: bcfa 253e 895c f53d bb70 cd3d 7797 8d3d
000000d0: 829f 233d 7041 c83c 06b6 bfbd 146a 933d
000000e0: 160a 713e 3ac4 d73d efdb 323e 3c15 7b3d
000000f0: 15ed fc3b e21d e33d 60a3 07be ba71 1a3e
00000100: ea67 b7be 1d57 9ebd 3720 97be 3f22 803d
00000110: 0bdb b43d 64a3 1fbd 5555 583e 1344 953d
00000120: 6748 51bd c567 a93d 7d82 273c b2d7 15be
00000130: 9c50 b6bc 584f 0ebd 38c5 22be 4482 993d
00000140: 5166 8ebd 3ab4 a03d 2889 e23d 9bf5 65bd
00000150: e267 b6bd 329e eabd 588f b93d 8df0 a6bd
00000160: 85ba 7f3d f6f2 053e aade 523c 0e59 ebbd
00000170: 3efa 38be e509 913d 2508 17bd a32d 15be
00000180: 1a71 873e acb9 edbc dc2b 71bd 2929 d0bd
00000190: 15e7 05bc d1d7 6c3e 0bfb de3d 8d91 b23d
000001a0: 478b a63d 980b 26bd ed7b 6a3a 059d 1c3e
000001b0: f0ff 2abe 202a d6bd eb6b 303d 9a5d b73d
000001c0: e05e 95bd e21f 8e3d 392a 14bc 53df a93e
000001d0: 96bd efbd 1d91 5dbe 052c 4b3e c631 06be
000001e0: 56f7 6ebe 9f15 503c e4f6 7a3c d250 be3d
000001f0: f0e9 c03d 145c 263e deaa 45be 391f a3bd
00000200: 710e 043e 95fb ef3d 0a38 513e 2bb7 83bc
00000210: a2f9 013d 0fcc 1dbd 2b57 4a3d 6b06 c1bd
00000220: 8a15 99be 1102 f63d 146d fbbd 333c 8d3d
00000230: a659 36bd f9a4 423d 1afd e2bd fb82 bf3d
00000240: 835e 7f3e 3c9c 59be 348e 88be 8e4e b2bc
00000250: 5623 86bd afa0 69bd b4d2 833c 28ae ccbd
00000260: b937 eebc 60be e8bd 9c9f 45be 1dc0 b7ba
00000270: ec5f edbd 1c0f f7bb 47ce 9aba dfe3 113e
00000280: 42b1 763c 5f12 7cbc 6d60 42be 5333 053d
00000290: 1e29 2ebd c323 02be 0cc7 d5bd 3ec3 d7bc
000002a0: b50e 433e a960 063e 005a 343e aa3e 233e
000002b0: 6854 833d 12cc c93c 35d9 083e 645b 54be
000002c0: 517d 853d 204f de3c 382f 0c3e 1f71 853d
000002d0: 8f24 073e 67a9 533d 0abf 023e 5af1 df3c
000002e0: 45ca d0be a408 833d 8f98 173d b3ab 1bbd
000002f0: cf0c 9bbd 93f0 6a3d da38 983d 37e6 6ebe
00000300: e0d6 c73d a764 9fbd cdac ae3d 2c2d 74bd
00000310: 804e 87be f523 d0bd c83b 3cbe e6d2 b23c
00000320: dc96 a73d 7341 1f3e 878d 373d a0aa f93d
00000330: c2a6 1f3e aa82 87bd 158b 2e3e 227c f1bc
00000340: 72f4 703d d430 f83c 78e2 9d3d 3670 bdbd
00000350: 35f3 e43d aab8 96bd 957e 80be bb5e e73c
00000360: 6802 afbc 44de 0fbe baf0 f7bd d327 b6bd
00000370: c9b2 db3c b86d a63d 5089 d4bd 2639 3dbe
00000380: aec9 fe3d b02c 183d f068 1c3c 9d67 90be
00000390: 4981 493c 6fc0 21be 7cef e33c c0ca 813d
000003a0: 79c9 383d e35f 863c 9721 0fbd 8d9f 37be
000003b0: 3e0f 99be 946b e03c 1c29 143e d075 84bd
000003c0: 1d03 bc3d e9eb c1bd 842b c93d 0d5c 2bbd
000003d0: 730b 463e 2f30 323e 56db efbe 1cd0 373d
000003e0: 3dc1 503b 1a52 17bc d533 d6bd 5152 393d
000003f0: 502f d8be 5b0e 8cbe ae7c 413d 4662 d03b
-0.102184154 0.060583092 0.02604967 -0.20636366 0.1355994 0.085218035 -0.09697149 -0.15282805
-0.0377977 -0.0085722925 0.06851355 -0.33757216 0.017780945 -0.22347118 0.10956647 -0.1377117
-0.24452785 0.22459619 0.12764612 0.18891959 0.057416786 0.11526683 0.05209962 0.17914677
0.11903054 -0.0008099618 0.14054044 0.08178215 0.12930071 0.016577763 0.12697366 -0.13626306
0.047145166 -0.028105877 0.18183288 0.09262717 -0.071303405 -0.14960189 -0.0025960945 -0.103571326
-0.13556854 -0.0747332 -0.050213896 0.09694501 -0.06996111 0.016537175 -0.261776 -0.16781826
0.16208929 0.1198054 0.10031267 0.06913655 0.03994704 0.024445266 -0.0936089 0.07197967
0.23539004 0.10535474 0.1746671 0.061299548 0.007718692 0.11089684 -0.13245916 0.15082446
-0.35821468 -0.07731459 -0.29516765 0.06256532 0.08830842 -0.03897418 0.21126302 0.07288375
-0.05109444 0.082717456 0.010223982 -0.14633062 -0.022255234 -0.034743637 -0.15895545 0.07495549
-0.06953109 0.078468755 0.11061317 -0.05614243 -0.08906533 -0.114559546 0.09060544 -0.0815135
0.06243374 0.13080963 0.01287047 -0.11491595 -0.1806421 0.07081965 -0.036873 -0.1456819
0.26453477 -0.0290192 -0.05887972 -0.10164101 -0.00817277 0.23129202 0.108877264 0.08719168
0.08132034 -0.0405384 0.0008944858 0.15294273 -0.16699195 -0.104572535 0.04307167 0.089534
-0.072934866 0.06939675 -0.00904327 0.33178195 -0.117060825 -0.21637388 0.19841011 -0.13104925
-0.23336539 0.012700467 0.015317652 0.09292759 0.0941962 0.16246063 -0.19303462 -0.079649396
0.12896134 0.11717907 0.20431533 -0.016078552 0.03173221 -0.038524684 0.049399536 -0.09425052
-0.29899246 0.12012113 -0.122766644 0.06896248 -0.04451909 0.04752061 -0.110834315 0.093511544
0.24938397 -0.21251005 -0.26670992 -0.021765973 -0.065497085 -0.057038005 0.016091682 -0.09994155
-0.029079305 -0.11364436 -0.19299167 -0.0014019046 -0.11590561 -0.007539643 -0.0011810743 0.14247082
0.01505691 -0.015385239 -0.18982096 0.03251965 -0.04251968 -0.12708955 -0.10438356 -0.026338216
0.19048579 0.1312281 0.17612457 0.15941873 0.064125836 0.024633441 0.13364108 -0.20737988
0.06518043 0.02713734 0.13689888 0.06515717 0.1319754 0.051675227 0.12768188 0.027336765
-0.4077932 0.063981324 0.037010726 -0.038005542 -0.075708024 0.057358336 0.074327186 -0.23330007
0.09757781 -0.0778287 0.08529053 -0.05961339 -0.26427078 -0.10163108 -0.1838218 0.02182908
0.08183071 0.1555231 0.044812705 0.12190747 0.15590957 -0.06616719 0.17045243 -0.029478136
0.05882687 0.03029672 0.07709211 -0.09249918 0.111792006 -0.073594406 -0.25096574 0.028243413
-0.021363452 -0.14049631 -0.12106462 -0.088943146 0.02681865 0.08126396 -0.10377753 -0.18478832
0.12440811 0.037151992 0.009546503 -0.2820405 0.01229889 -0.15796064 0.027824156 0.063374996
0.045114014 0.016403144 -0.034944143 -0.17931958 -0.2989444 0.027395047 0.14468807 -0.064677835
0.09180281 -0.094688244 0.09822753 -0.041835833 0.19340305 0.17401193 -0.46847028 0.044876203
0.003185346 -0.009235883 -0.10459105 0.04524452 -0.42223597 -0.27354702 0.047238044 0.0063593714

bias f4 [128]
00000000: 2666 8dbd eeca a73c d765 01be b4c8 a93c
00000010: bc68 0d3e f900 9e3c ef6b ffbd 7c92 febd
00000020: 44d1 94bd 54af 52be 2199 863c 93ea 58be
00000030: f0ba afbd 7870 0dbc bea5 1abe 18b2 d9bd
00000040: 91b2 8fbd 1675 4cbc f00b 2bbe 0f99 2ebe
00000050: 9da4 a9bd aea0 fb3d cbe9 01be 2331 f9b9
00000060: 2c0b 0cbe 767e 7cbe ddce a73d d0eb 1f3d
00000070: 747b 31be 0b15 4ebd a3f7 edbc ec49 1abe
00000080: 5e64 dabd 443e eebd 7301 82bd d77c 223d
00000090: bd3c 2bbe 74d3 03bd 2c88 f83d 948d 03bd
000000a0: 7e72 bdbd 45cf 18be b500 0ebe b371 01bd
000000b0: fd49 afbd c2b3 313b 1066 11be 3f30 72bd
000000c0: 9417 353c 9d3e df3d b56d 2dbe 0d77 56bc
000000d0: 9ca9 0e3d 4294 21be 19a6 7a3b 6e18 05be
000000e0: d33b 6ebd 1671 48bd 832e 12bb 7b54 25be
000000f0: 334d e3bd 846d adbd e8eb 323d 2ee0 c4bd
00000100: 22dd 683d 3cc7 18bd 8e4e 163e c801 6abe
00000110: e5f9 57bd cc32 903d 7828 c1bd 2b2c 2dbe
00000120: 9b6b 093c e5d1 3b3e 321b 30be db75 c1bd
00000130: 19d3 ee3c aa5c 8b3d d74e 77bd 4f57 febd
00000140: a47d d0bc 0994 f33d 09f7 95bd 273b 31be
00000150: f203 8cbd 0a32 2cbe 1410 debc 5b7c 16bc
00000160: cade 7c3c 706f a83d 4355 5bbc 1474 353d
00000170: b9fe 9cbd 0477 2f3d 4ec8 d4bd 9368 e5bd
00000180: 9caf 2cbe 1aa7 81be cccd 04bd a3e0 f6bd
00000190: d8a7 07be 9441 a9bc 14b5 3a3c 1076 44bd
000001a0: fc40 cdbd 2050 133d 1feb 08be 35f7 34bd
000001b0: 9c45 fcbc 0d73 833d 529a bebd da8d 5ebe
000001c0: b59e 1dbc 9bca 24be 7da3 15bd 2076 4fbe
000001d0: 7bc9 c9bd 704b b5bd 4ac8 16be ed64 9bbd
000001e0: c106 74bd 240f c73c 594b 083d 2544 4cbc
000001f0: 209d 3abe 8cbf c4bd d1ae 4dbe 5891 16be
-0.06904249 0.020482507 -0.12636505 0.020725586 0.13809484 0.019287573 -0.124717586 -0.124302834
-0.07266477 -0.20574695 0.01643044 -0.21183233 -0.085805774 -0.008632772 -0.15102288 -0.10629672
-0.07016481 -0.012479087 -0.16703773 -0.17050575 -0.082833506 0.122865066 -0.12686841 -0.0004752959
-0.13676137 -0.24657616 0.08193753 0.039043248 -0.1733225 -0.050313037 -0.029048746 -0.15067261
-0.10663675 -0.1163297 -0.06347933 0.039669838 -0.16722389 -0.03218408 0.12135348 -0.03211744
-0.09250353 -0.14922817 -0.13867457 -0.031602573 -0.08559034 0.00271152 -0.1419909 -0.059128042
0.011052985 0.109006144 -0.16936381 -0.013089907 0.03482972 -0.15779212 0.0038245975 -0.129976
-0.05816252 -0.048935972 -0.0022305555 -0.16145508 -0.11098709 -0.08468154 0.04368201 -0.096130714
0.056851514 -0.03729938 0.14678404 -0.22852242 -0.052728552 0.07040939 -0.09431547 -0.1691138
0.008387472 0.18341787 -0.17197874 -0.09446307 0.029153394 0.06804784 -0.060377922 -0.124189965
-0.025450535 0.1189347 -0.07322509 -0.17307721 -0.0683669 -0.16815963 -0.027107276 -0.009184922
0.015433976 0.0822438 -0.013387027 0.044300154 -0.07665772 0.04283811 -0.103897676 -0.112015866
-0.16863865 -0.253228 -0.032422826 -0.12054565 -0.13247621 -0.020661153 0.011395711 -0.047964156
-0.100221604 0.035965085 -0.13370942 -0.044181067 -0.030794911 0.064184286 -0.09306778 -0.217338
-0.009620358 -0.16092913 -0.036532868 -0.20259905 -0.098528825 -0.08852279 -0.14724842 -0.075876094
-0.059576754 0.024299212 0.033274982 -0.012467419 -0.18224001 -0.09606847 -0.20086218 -0.14703882

weight f4 [128, 128]
00000000: 7f64 e03d 29ad 4dbc d4cc 41bd 1945 853e
00000010: 8b44 0d3e 13ba 46be 4ede babc c385 39be
00000020: bb7b 20be 7eff 433e 8edb c0bd cd68 0d3e
00000030: c2ec 9b3c 292d 503e 4a55 98bd 6417 8e3e
00000040: c38a df3d 65ad 243e b4df 793c bc25 33bd
00000050: 30f0 4d3e 51c7 ee3b dd18 96bd fb3f 2a3e
00000060: 7e89 a2bc 08d1 3bbe ff1e 9d3d a0af 0dbd
00000070: 37c1 36be c09d e0bd e240 09be f774 c4bd
00000080: 0c71 063d 975c 71bd 4b2b dabd 0037 563d
00000090: e94d c23d 9a97 423e d091 e8bc 6bff fc3c
000000a0: 6d44 af3d fec4 fb3c 8058 ae3d 1409 c13d
000000b0: 36ea 3b3e 08dc 05be 9072 13be 6a5d 91bc
000000c0: d9b4 f2bd 965f e9bd a6a0 04be be0a 943c
000000d0: cded 983d 6e10 0a3e 48ca 4cbe 33c3 fabd
000000e0: ffdf 97be 9e92 173e 1620 37be 8f7f 613d
000000f0: d53f febd 6f1c 8abd f6fc 933c a8f0 afbe
00000100: 238b 90be c1ef 0bbd 5dbc c4be 660a 75be
00000110: 8ef9 5cbe 785a 1f3e 7784 4fbe e2f7 edbd
00000120: fb7a 92be f4fa 903d f845 0d3e 0814 af3d
00000130: a391 693d c9a9 55be 2f2c 1d3e 4104 a7bd
00000140: 1e3c ef3d bab8 e7bd 48b4 143e 37c3 b93e
00000150: 9adc 8f3e 00e2 c83e c470 66be 2778 c4be
00000160: 232e 043c c6ec 30be bd3b 2a3e 3619 10bd
00000170: 26eb ad3d 071b 193d 690e a53d 6cda 52be
00000180: 4f4e c0bc 813b 28bd b441 993d a539 6c3d
00000190: d9d5 e83d 0dd2 a6be a381 f4bd a77b b2bd
000001a0: ca83 1a3e b756 eabe 3e8a abbc 4474 f9bd
000001b0: 0d7d d2bd 3edc bf3d 7d12 8ebd 0bf4 983e
000001c0: 1315 093e e381 e5bd c8f3 d8bd 05b1 db3e
000001d0: 0124 3bbe 1349 92bd 05c3 7dba be3c 99bd
000001e0: f583 9bbe 81ad 19be 268f b0bd d637 803e
000001f0: a501 18be 39d2 263e 2ca2 60bd fd29 8bbe
00000200: 935e 32be a0a7 913d dcf3 30be a6a4 2a3d
00000210: a01a 153e f783 41bd faa2 73be ed2c 87be
00000220: 9c11 11bc 321d d0bd ec03 d5bd 9378 113e
00000230: 1624 773d 2f14 983d 90f2 31be a142 29bd
00000240: 50f6 8d3b 535c c73d 2e38 8bbe 2de6 86be
00000250: 217f 013e 8531 523d 2c95 8a3e 313d 30be
00000260: 52ac c33d 182a 0ebe b747 50be ecca 44bc
00000270: 322e 64be 4588 a4bd 27fe 9ebc 13ab 75be
00000280: 6cc4 f43d b69c 0bbe 1452 9abd 0dee 36be
00000290: 7548 14be 38cd 39bd d22c 2b3e f3b0 53bc
000002a0: f4b6 1cbe 458a f13c 2bfc 87bd 11ec 003e
000002b0: 8d0a 82bd 6c51 c0bc ae66 35bd 16c6 febd
000002c0: 631d 8abe faf3 50bd 2565 ff3d 421d 58bd
000002d0: 0668 67bd fb99 50be 2f7f 593d 1583 043e
000002e0: b2a0 99bd a000 27be 06c5 e0bc e35c 2fbe
000002f0: ed2a dabd bd32 e1bd 81e9 b2bc 2de9 02be
00000300: a65c 943d b523 d0bc 22c9 843a 8f70 28bd
00000310: 1d80 523e c1a7 5cbe 299d e8bd 700c aa3c
00000320: 4a7d e5bd c1b0 5c3e 5fc4 aabe a11f 09be
00000330: b31a 7ebe 8674 143e 2b8f 79bc 4701 f2bd
00000340: fc23 39bc 2a19 a63d 6672 78be ef93 543d
00000350: 6ecf 293e 44b3 47be 8446 913e 2d11 95bd
00000360: d750 c6bc fdfb 333e a83a 05be 94df 873d
00000370: 44ed b3bb 4b43 13bc 4066 623e 9c80 76bd
00000380: 1ce5 0f3d 62bd f2be 6125 b2bc 8290 bf3e
00000390: af97 67be e48f 5bbd f4cd 5f3d c4d4 143e
000003a0: 2301 ecbd ccfc 44bc 282b d83d 971f b9be
000003b0: 5531 d83b 039c a6bd dcb5 71ba 0d3e 83bb
000003c0: 4977 0bbe 7894 ebbd b287 5fbd 5fa3 8d3b
000003d0: 6f87 133d 42d3 dbbd fe84 b1bd e492 3abe
000003e0: 8f27 ea3d ffcb b3bd 76a5 84bc 12be c7bb
000003f0: 5856 253d 17d6 45be 85c7 2f3e 2059 4a3e
0.10956668 -0.012553492 -0.04731448 0.2602928 0.13795678 -0.19406919 -0.022811081 -0.18117432
-0.156722 0.19140431 -0.09416877 0.1380951 0.019033793 0.20329727 -0.074381426 0.2775222
0.109151386 0.1608177 0.015251089 -0.04373716 0.20111156 0.007286944 -0.07328961 0.16625969
-0.019840952 -0.18341458 0.07671928 -0.034591317 -0.17847143 -0.109675884 -0.13403657 -0.09592622
0.032822654 -0.05892619 -0.10652789 0.052298546 0.094875164 0.19003144 -0.028389841 0.030883512
0.08557973 0.030733582 0.08512974 0.0942556 0.18351063 -0.13072217 -0.14399171 -0.017744739
-0.118509 -0.11395185 -0.12951908 0.018071529 0.07467232 0.1348283 -0.19999039 -0.122442625
-0.29663083 0.14802024 -0.17883334 0.05505329 -0.12414519 -0.067437045 0.018064957 -0.34363294
-0.28231153 -0.034164194 -0.3842496 -0.23929748 -0.21579573 0.15561855 -0.20265375 -0.116195455
-0.28609452 0.070791155 0.13796222 0.085487425 0.057023656 -0.20865549 0.15348886 -0.08155108
0.11681388 -0.11314531 0.14521897 0.3628175 0.28097993 0.39234924 -0.22503954 -0.3837292
0.0080676405 -0.17277822 0.16624351 -0.035180293 0.08492117 0.03737929 0.08059389 -0.20591134
-0.02347484 -0.041072372 0.07483235 0.05767216 0.11368913 -0.3258213 -0.11938789 -0.08714991
0.15089336 -0.45769283 -0.020939942 -0.12180379 -0.10277758 0.0936818 -0.0693712 0.2987369
0.13386945 -0.112064146 -0.105933726 0.42908493 -0.18275453 -0.07142844 -0.0009680244 -0.07482289
-0.30374113 -0.15007593 -0.086210534 0.250426 -0.14844377 0.16291131 -0.05484216 -0.27180472
-0.1741889 0.0711205 -0.17280525 0.041660927 0.14560938 -0.047244992 -0.2379264 -0.26401463
-0.008854296 -0.101618186 -0.10401139 0.14206152 0.06033715 0.07425725 -0.17377687 -0.041323308
0.0043323413 0.09734406 -0.271913 -0.26347485 0.12646152 0.051316757 0.27066934 -0.17210843
0.09554352 -0.13883245 -0.20339857 -0.012011271 -0.22283247 -0.08033804 -0.019408299 -0.23991041
0.11951527 -0.13633999 -0.075351864 -0.17864247 -0.14480765 -0.045361727 0.16716316 -0.012920606
-0.15304166 0.029484877 -0.06639894 0.12590052 -0.06349669 -0.023476325 -0.044287376 -0.12440126
-0.26975545 -0.051013924 0.12470464 -0.052762277 -0.05649569 -0.20371239 0.053099807 0.12940629
-0.07501353 -0.16308832 -0.027437698 -0.17125277 -0.10652719 -0.10996006 -0.021839859 -0.12784262
0.07244234 -0.025407651 0.0010130743 -0.04112297 0.20556684 -0.21548368 -0.11358101 0.020757884
-0.112055376 0.21551801 -0.33352944 -0.13390972 -0.24814872 0.14497575 -0.015231888 -0.1181665
-0.011300083 0.081102684 -0.2426239 0.051898893 0.16583034 -0.19501978 0.28374112 -0.07278667
-0.02420847 0.17576595 -0.13010657 0.06634441 -0.0054909308 -0.008988212 0.22109318 -0.060181245
0.035130605 -0.47410113 -0.02174634 0.37414938 -0.22616456 -0.05360402 0.05463977 0.14534289
-0.11523654 -0.012023162 0.105551064 -0.36156914 0.0065976777 -0.081352256 -0.00092205196 -0.0040051998
-0.13619722 -0.115029275 -0.05457277 0.004322454 0.03601783 -0.107336536 -0.08667944 -0.18220097
0.114333265 -0.087791435 -0.01619218 -0.006095656 0.040365547 -0.1931995 0.17165954 0.19760561

bias f4 [128]
00000000: dc76 0dbd 51de 743c e040 993d 033a 15be
00000010: 9773 553d 1aa4 e7bd c407 35bd a867 b93d
00000020: a85b f63d 711b 8d3c 8761 c53b 96e8 aa3d
00000030: b123 05be 8c5c 3b3e da64 51be 366b adbd
00000040: 854b ebbb d89b 72bb 233e 28be f34f c23c
00000050: 6d10 963d 8c6b 20be 7b7a c33d f5e0 3b3d
00000060: 1d90 57be cb4d c6bc 6cfd eb3d 3648 0d3d
00000070: 7c3c e0bd 4f12 373c dfa3 20be e06a 05be
00000080: c7dc b93d d614 46b9 500a 553b 9988 15be
00000090: 2455 e03d 1219 81bd 7c50 2bbe f082 58be
000000a0: 216a fcbb 60ad 6e3d 1af6 9cbd 3b28 f3ba
000000b0: dd04 9fbd a082 0abc 89a5 09bd 5844 4b3c
000000c0: e973 12b9 8129 60bd fe89 7dbe 34af d13d
000000d0: e9ad 24be a395 8dbc cc71 94bc 7fc1 753d
000000e0: aa1c 36be 7520 21bd b121 303c 38be 943d
000000f0: 6817 3cbd a7ee 0ebe 494a 003d 0c92 9d3d
00000100: 2115 8c3c b5ae 9a3c c74c ea3d 5b3c 0d3d
00000110: 9ba0 293e c34d 88bd 8229 04be 8ad8 413d
00000120: 98d5 b4bd fb91 d1bb c893 153d 296e c53d
00000130: 4bbb 6a3c 47a9 51be fd4a e13b bedb 42be
00000140: 93be e73d ac6f 4cbe 536c e8bc d6b1 a53c
00000150: 6137 82bc 6509 1ebd 6beb 8fbd 076a d13c
00000160: e47d 7e3c 8580 39bd f5fa e1bd bc6b cf3b
00000170: 56c6 043e 4f2d b0bd 427a 213b e7b1 2dbd
00000180: 27ea 2fbd fa60 15be 30ff 35be 72dd c8bd
00000190: c8fc fbbd 6df3 893c fafc a6bd 58c4 7a3d
000001a0: c51d 02be ab8d 93bd ebd5 cd3d 95ff f3bd
000001b0: f9b3 87bd 1a5a bcbc d850 58be 3f0c c53d
000001c0: a64d 1abe c832 f2bc 80ef c13d bee1 9bbd
000001d0: 3ad8 37bd 04a3 12be 82c6 02be c0bf bb3d
000001e0: 514d 693d a940 8dbc 6e27 1abe 683e 19bd
000001f0: 96a8 923d e7de 8bbc 2939 20be 0076 46bb
-0.03453718 0.0149455825 0.07483077 -0.14572911 0.05211219 -0.11310597 -0.04419686 0.09052974
0.12029201 0.017225 0.006023589 0.083451435 -0.13001896 0.18297023 -0.20448628 -0.084677145
-0.0071806335 -0.003701916 -0.16429953 0.023719763 0.07327352 -0.15666026 0.09544846 0.045868833
-0.21051069 -0.024207016 0.11522946 0.034492694 -0.109490365 0.011173799 -0.15687512 -0.13029051
0.09075313 -0.00018890513 0.0032507367 -0.14602889 0.10953739 -0.0630361 -0.16729921 -0.21143699
-0.0077030812 0.058270812 -0.07664128 -0.0018551418 -0.077645995 -0.008453995 -0.033605132 0.012406431
-0.00013966825 -0.05472708 -0.24759671 0.102384955 -0.16081966 -0.017283266 -0.018120669 0.059998985
-0.17784372 -0.039337594 0.01075022 0.07262844 -0.04592076 -0.13958226 0.031320844 0.07693872
0.017099919 0.018882135 0.11440425 0.034481388 0.16565172 -0.06655457 -0.12906459 0.04732565
-0.08829802 -0.006395576 0.03651789 0.09640152 0.014326881 -0.2047473 0.0068753944 -0.19029137
0.11315646 -0.19964474 -0.028371966 0.0202264 -0.015895547 -0.038583178 -0.07027324 0.025563253
0.015532944 -0.04528858 -0.110341944 0.0063299816 0.12966284 -0.08602392 0.0024639522 -0.04240599
-0.042947914 -0.14587775 -0.17773128 -0.09807862 -0.123040736 0.016839707 -0.0815372 0.061222404
-0.12706669 -0.072047554 0.10050567 -0.11913983 -0.06626124 -0.022992183 -0.2112459 0.096214764
-0.15068683 -0.02956523 0.09469509 -0.07611416 -0.044883944 -0.14319998 -0.12771037 0.09167433
0.0569585 -0.017242746 -0.15054104 -0.03741303 0.071610615 -0.017074062 -0.15646805 -0.0030282736

weight f4 [128, 128]
00000000: 6018 5dbe 2590 013d e6bf a5bc 99a3 8abe
00000010: 662f 9f3d a4b2 7bbd 2e1d 06bd 0fdc 013c
00000020: 95b6 56bd cb5c 86bd 2254 ff3d 2bcf 1bbe
00000030: c148 4d3c 082b 243d 3a13 e8bd 7c63 29be
00000040: d454 0f3e 65fc 3dbd a1fe 83bd dffa df3d
00000050: b83c cd3c dd13 d0bd 3b8c 3bbd 7b80 af3b
00000060: 0d86 59be 536a c1bd 1389 a33d 6d67 5ebe
00000070: 224b 2dbe e5cf cebc 881b 27be d3cd 9dbc
00000080: 6d1a 58be 2f69 adbd a6f0 aebd f966 fc3d
00000090: fc1c 2c3e 2a93 b7bc 1bfe a2bd dfc8 3cbd
000000a0: 08cf 233d 3619 c7bd 70c4 8fbd a52e f4bd
000000b0: a40c 39bd baa5 a03d b350 2abd 6c9e b23c
000000c0: a7d1 2abe b18c 833c dea7 a3be e8c8 94bc
000000d0: 57bc c8bd 2c16 cfbc 0f38 8ebd 1c43 b9bb
000000e0: 259e 77be bbac e5bd 832f 95bd 2ba5 87bb
000000f0: cb70 87bd 5131 3ebe bc36 9e3c 74f8 31be
00000100: 521b a1bd 9d51 93bd aaaf bd3c 1362 3ebe
00000110: 0dd1 3c3d b584 cdbd 5718 c6bd e073 113a
00000120: 710c aabd 2e11 01bc 5fcb cabd 37ba 46be
00000130: d314 123d 5743 c5bd 4109 6ebe 4102 543d
00000140: d884 0fba 3b99 7e3d 9098 15bd 0a47 223d
00000150: 7f70 d33b 9eba 8c3d f32c a0bc cec2 8bbc
00000160: 60a9 0a3d c143 c1bd 57b3 8fbd 5b69 773d
00000170: f61a 813d a67f ce3d e44c b83b 5abc 2bbd
00000180: ca4a 1e3d 348f 81bd 922d 90bd f080 3bbd
00000190: 3684 f23c 0d30 3d3d fbe8 753d 786a c9bd
000001a0: dc30 63bd 761a 40bc e294 54bd f90b 0e3e
000001b0: 6ada 813d 7598 c73d e936 c5bd f3a3 a7bb
000001c0: 4f2f 8f3d 3990 c3bd 153b 0ebe 5767 f6bd
000001d0: b6b6 a3bd 3569 b8bc 76da a3bd 2a97 d0bc
000001e0: b964 8bbd 18ef 90bc 239b 493c 8683 2fbd
000001f0: 621a a4bc eed0 e9bc 55ca 003c 36b6 42bc
00000200: e6f3 ea3d 17f1 82bc 1f05 803d 174f cb3b
00000210: e38a 0abe 60c1 03bb 5413 8abc db70 97bd
00000220: 0e5c e43d a1c6 8cba a1fd 28be 2cb0 fabc
00000230: 0fc5 78bd 4104 8dbd 7597 113e 731e 17bc
00000240: 73a2 543d 8276 a93c 7ab5 36bb bb47 cabb
00000250: df44 31be 0c43 8c3e ab2c 3bbd 27ac dbbc
00000260: 6def 12bd 2916 71bd 9e49 85bc b51e e7bd
00000270: 4b1c 3fbd 50c8 eabd cae1 f7bc 61af 14bd
00000280: fb11 c0bd 6c2e e0bd 558f c3bd 23af 453d
00000290: 874e 443d 45cf d8bd 1498 aa3d ab91 07bc
000002a0: e21b 603c 95b3 12be f400 b73c 7c23 c03c
000002b0: 682b 4ebe 4da7 7f3b e221 d4bd 727f 7abd
000002c0: a33e e0bc 2581 8cbd 94f1 98bd fb2c cfbc
000002d0: 44d1 953c 5cb9 893c e0f5 32bd 6378 bbbc
000002e0: 85ce 1bbd b41f cebd 3e51 17be 994c 943d
000002f0: 04c5 8cbd 02ad a13d 404a 773a 4b7a 7fbd
00000300: bf48 ecbd 83bb 78bd bde0 acbd 78ee 5b3d
00000310: ca20 40be 435f 97bd 8308 b83d 5329 d53d
00000320: 22ed eabd 07e8 0bbe 53ab cbbd cae0 0abe
00000330: f428 a7bc 2755 c13d 0819 4dbd 8bea 2e3d
00000340: 4e22 c7bd cf5e aabd 30ef ac3d 38ce ffbd
00000350: a848 e1bc 987c 00be 0eeb 553c e9fb 10be
00000360: 4f7e 9bbc bad6 0e3d 1be4 a9bd b845 f1bb
00000370: 7776 23ba 015e 103b 2eb6 e6bc 61ab 38be
00000380: ac70 b9bd 6bbd f73c 80dd 533e 76bd a13d
00000390: 82c7 18bc d66d 76bd a7c4 93bd f979 233d
000003a0: 01fd bdbc 68f0 0abe fe6e d7bd 5629 533d
000003b0: 840b 773d 2a23 a6bd 54e7 a13d e3c3 37bd
000003c0: 9050 fa3c 8dc4 1bbd b999 ebbd 9369 e0bd
000003d0: 5552 ffbd 328f 0dbd 9eba 9138 d001 3fbd
000003e0: 33aa 95bd a636 b7bd 65b9 93bd 8251 20bc
000003f0: 2ca4 15be e6d9 0fbd cad5 073c 2bb2 10be
-0.2159133 0.031631608 -0.020233106 -0.2707794 0.077727124 -0.06144966 -0.03274267 0.007926001
-0.052420218 -0.065606676 0.12467219 -0.15215747 0.012529553 0.0400801 -0.11331792 -0.16541857
0.13997203 -0.04638328 -0.06445051 0.10936522 0.025053367 -0.101600386 -0.04578803 0.0053558922
-0.21242543 -0.09444108 0.07985129 -0.21719141 -0.16923192 -0.025245616 -0.16319096 -0.019263184
-0.2110383 -0.08467328 -0.08541994 0.12324328 0.16807932 -0.02240904 -0.07958623 -0.046090003
0.039992362 -0.097216055 -0.07019889 -0.11922959 -0.04517807 0.0784411 -0.041580867 0.021804057
-0.16681539 0.016058298 -0.3196401 -0.018162206 -0.09801548 -0.025279127 -0.06944286 -0.005653752
-0.24181421 -0.11214586 -0.07284453 -0.0041395626 -0.066133104 -0.185735 0.019313209 -0.17379934
-0.07866539 -0.07193301 0.023155052 -0.185921 0.046097804 -0.100350775 -0.09672611 0.0005548578
-0.08303154 -0.007877631 -0.09902071 -0.19406973 0.03566439 -0.09631985 -0.23245718 0.051759962
-0.00054748124 0.06215785 -0.036522448 0.03961853 0.0064526196 0.06871532 -0.019552683 -0.017060664
0.033852935 -0.09436751 -0.07016628 0.06040321 0.063039705 0.10082941 0.0056244005 -0.041927673
0.038645543 -0.06326142 -0.07039942 -0.04577726 0.029604059 0.046188403 0.06003664 -0.098347604
-0.055466518 -0.011725059 -0.0518998 0.13871755 0.06340487 0.09745876 -0.09629614 -0.00511598
0.06991445 -0.09548993 -0.13889726 -0.12031429 -0.07993834 -0.022511104 -0.080006525 -0.025462706
-0.06806321 -0.017692134 0.012305054 -0.04285004 -0.020032112 -0.028542008 0.00786074 -0.011884263
0.11472301 -0.015984101 0.06250977 0.0062044966 -0.13529544 -0.0020104274 -0.01685492 -0.07394572
0.111503705 -0.0010740348 -0.16503002 -0.030601583 -0.060734805 -0.06885577 0.14217933 -0.009223568
0.051912736 0.020686392 -0.0027879165 -0.0061731017 -0.17311428 0.27394903 -0.045696896 -0.026815487
-0.035872865 -0.058859024 -0.016270455 -0.11285154 -0.04665784 -0.11463988 -0.030259032 -0.036300067
-0.093784295 -0.10946354 -0.09548823 0.048262727 0.047926452 -0.105864085 0.08329788 -0.008274476
0.013678523 -0.14326318 0.022339322 0.02345442 -0.20133746 0.003900963 -0.10358025 -0.061156698
-0.027373618 -0.0686057 -0.07467952 -0.025290003 0.018288262 0.016812019 -0.043691516 -0.022884553
-0.03803875 -0.10064641 -0.14777085 0.07241172 -0.06873515 0.07894327 0.00094333664 -0.062372487
-0.11537313 -0.0607257 -0.08441303 0.05369422 -0.18762508 -0.073912166 0.089859985 0.104082726
-0.11471011 -0.1366273 -0.09944787 -0.13562313 -0.02040527 0.0944007 -0.0500727 0.042704146
-0.0972334 -0.083188646 0.08444059 -0.12490505 -0.027500466 -0.12547529 0.01305653 -0.14158596
-0.018981127 0.034872748 -0.08295461 -0.0073630475 -0.0006235609 0.0022028687 -0.028163042 -0.18034126
-0.090546936 0.030241689 0.20689964 0.07897465 -0.00932491 -0.06016334 -0.07215243 0.039911244
-0.02319193 -0.1356827 -0.10519217 0.051553093 0.060313717 -0.08112176 0.079054505 -0.044864547
0.030555993 -0.038029242 -0.1150393 -0.10957637 -0.124668755 -0.03456039 6.948899e-05 -0.046632588
-0.073078535 -0.0894597 -0.072130956 -0.009785058 -0.14613408 -0.035119914 0.008290717 -0.14130466

bias f4 [128]
00000000: 216b 833d da10 61bd 993d e7bd 7875 a93d
00000010: aeac 80bd e935 bb3d 5227 65bd 2134 9ebd
00000020: ca3b 12be bfba 9cbc f9f7 473d a761 f1bc
00000030: 7c9c 54bd f6bd 473c 1e4b 463e c37f 9fbd
00000040: eff8 ffba c286 b2bd 9898 0ebe 4960 33bd
00000050: 675e 3cbd 693e debc 864d b8bd 435f 003d
00000060: b404 ebbd 7c3a be3d 32d3 b8bd ec4d 33be
00000070: 7d5a bdbd 8e7d d0bd a1cc 5fbc 7682 c2bd
00000080: 28e6 1c3d 8cd6 e23d ff02 0cbe a7c3 a9bd
00000090: 0699 9bbd 81ca 0cbe 31af 1a3d 7163 fcbd
000000a0: 5a43 743d 590c dbbd 5628 d63d 7f5a ffbd
000000b0: 7c79 12bd de9d 12be 1dee d8bd d17b 853d
000000c0: 050d 113e a40e e1bd 879f 78bd 63ca ab3d
000000d0: aeb0 cd3d e572 d3bd 0a24 f4bc f837 1bbe
000000e0: 93e2 e73d 0d0e 463b b406 033e 57d6 2abe
000000f0: 6aec 04bc bc87 b2bd 36a8 06be b0bc 48bd
00000100: 8528 e7bd 5f9a 0b3d 996f 953d 60a8 1c3d
00000110: 59fb 7ebd 6df0 453d 22e8 e1bd e591 433d
00000120: 6504 c1bd c892 2cbd bb01 5c3b cbf3 8abd
00000130: 1630 9c3d 1ab3 01be 3098 83bd 1015 143d
00000140: 70c9 4abd a8ff 0ebd a4f3 423e d3c9 85bd
00000150: 3cd7 f8bd c4f2 aa3d 2c2a bb3c e2ef 8bbd
00000160: cc3d a4bd 8902 d3bd 96e7 1dbe aabf a6bd
00000170: 942b a23b 333d b9bd 5169 183e 0bb1 01be
00000180: a2fa 81bd 3389 d6bd 70a6 1e3d 7b76 75bd
00000190: dad4 7a3d 7976 afbd 360d c23d 6dc3 da3c
000001a0: 4551 3dbe 84ba a93d 8c73 d53d f86f d9bc
000001b0: 3fec ab3d 54af ce3d 677e a2bd c1da f7bd
000001c0: 0505 813c 2915 e5bd 7aa1 a8bd a9fc c53c
000001d0: 5ee5 02be 5fb6 e43d 511a c0bd 2f50 81bd
000001e0: 34a3 a1bd fdd8 1cbe 7439 193e ce95 b8bd
000001f0: 26a1 c43d a0da 08be fd56 43bd ae45 523d
0.064169176 -0.05494771 -0.11291046 0.082743585 -0.06282936 0.09141142 -0.055945702 -0.077247865
-0.1428062 -0.019132016 0.04882047 -0.02946551 -0.051907048 0.012191286 0.19364592 -0.077880405
-0.0019529144 -0.08717109 -0.13925397 -0.043792997 -0.045988467 -0.027129369 -0.089991614 0.03134085
-0.114755064 0.09288499 -0.09024657 -0.17510194 -0.09245775 -0.10180198 -0.013659627 -0.0949754
0.03830543 0.11076078 -0.13673018 -0.08289271 -0.07597546 -0.13749124 0.03776473 -0.123236544
0.059634544 -0.106957145 0.10456912 -0.12468433 -0.035760388 -0.14318034 -0.105922915 0.06517757
0.14165123 -0.109891206 -0.060699012 0.083882116 0.100434646 -0.10324649 -0.029802341 -0.15158069
0.113225125 0.0030220777 0.12795526 -0.16683327 -0.008113006 -0.087172955 -0.13150105 -0.04900807
-0.11287025 0.034082767 0.07296676 0.038246512 -0.062251423 0.04832499 -0.11030604 0.047746558
-0.09424666 -0.04213217 0.0033570367 -0.06784781 0.07626359 -0.12665978 -0.06425512 0.0361529
-0.049508512 -0.03491178 0.19038254 -0.065326355 -0.12150428 0.08347085 0.022847258 -0.068328634
-0.08019599 -0.10303218 -0.15420374 -0.08142026 0.0049490426 -0.09044876 0.14883925 -0.12665193
-0.063466325 -0.104753874 0.038732946 -0.059927445 0.061238147 -0.08567519 0.09475176 0.026704514
-0.18488033 0.08287528 0.104224294 -0.026542649 0.0839467 0.10092035 -0.079342656 -0.12102271
0.015749464 -0.111856766 -0.08233924 0.02416833 -0.12782809 0.11167597 -0.093800195 -0.06314122
-0.07892457 -0.1531715 0.14963323 -0.09012948 0.09601049 -0.13364649 -0.04769038 0.051335983
