nerf_models/fox_a6.pth (torch, 646074 bytes, 22 tensors)

weight f4 [128, 63]
00000000: 6ad7 8abe 3ad5 90be 87d4 95be 9951 ffbd
00000010: a846 d0bd 14eb 75bd 6d8d 26be 4311 6bbc
00000020: 6ae5 8cbd b9c8 c73d 534e 92bd 288f 06be
00000030: 7c69 153e 8d4c f43d 6a2a fe3c 8738 763d
00000040: 6067 303d fa91 0f3e b47c d13e 4363 c33e
00000050: 8f81 52be 444e 393e b1e6 5b3e ec0c 1abf
00000060: 8540 6a3f b497 7a3f 65a2 66bf bb80 acbe
00000070: c887 c3be 566e b73c 02cd 91be fa23 5139
00000080: 68c9 c03e 6ca1 35be 7159 13bd 5b69 953d
00000090: ce0f 393e 7480 c63e ca17 333e 1f60 e53c
000000a0: d9d3 153e 6fd0 dfbc f53d 673e 2f76 883e
000000b0: ec98 973d 8ab7 34bc a508 9f3d e75a 163c
000000c0: 2cc9 ca3a bfda a63c ca6a 903d 3717 a43c
000000d0: efbd b73b c6a1 8bbc b95f ec3b 6662 433b
000000e0: ecdb 0bbd 282d a3bb f555 683c 0be5 c53c
000000f0: 0d71 04bc 7737 7a3b c87f 40bb 11ca 0cbe
00000100: 536f 953d fd54 2bbe 4069 17bd daf7 913e
00000110: e6c7 84be 2bc0 edbd 61a4 4abe b6b5 38be
00000120: 1f20 3e3e 4e89 b73e d088 a1be 1f0a b8bd
00000130: 0cc6 bcbe 9dac 6dbd 9f6c d43e 19f0 b83e
00000140: bdcc 7b3e 1461 f93a b193 c5be 1f8e 31bd
00000150: 2783 393f 06d3 9cbd bfd6 fb3e 9dcd ad3e
00000160: 2b51 18be 1417 c63e 3cb1 63be 9ef8 943e
00000170: 0ddb 1e3f 4fb1 ed3e d8d0 0e3f c7bc 92be
00000180: 0007 6ebe 8092 16be d0f1 0e3e bfcf d73e
00000190: 23eb b23e 0007 b13e a189 53bd d445 42be
000001a0: 1385 cebc 1c32 a5be 1fe2 01bf 0de8 023e
000001b0: b4ba 9abd 8578 cdbc 092d b13c 34b5 d93d
000001c0: c683 d83d 0150 183d d1b3 3fbd 00b4 b2bb
000001d0: 51e8 943d 0fa8 6dbd 7086 c4bc 86a7 66bc
000001e0: 4874 1cbc 8885 d2bc b799 223c fd01 4c3c
000001f0: 7f70 ca3c 7396 9339 dc34 f8be a4f9 21be
00000200: dbaa 54be 9898 b8be 9aa1 32be cdf7 40be
00000210: a186 60be d5e6 86be fa75 bebe a552 d63d
00000220: 536a b73c bab1 6fbe 8a2c 83be fc78 32bd
00000230: c7fb 00bf fca4 b93e 6602 ab3e 0f21 b73e
00000240: b32e 653b 3895 263e 6425 98be 3837 743e
00000250: 1317 b53e ccf1 9f3e c1a1 553e 4b4a 993e
00000260: fb11 273f 6f73 003f 8366 3b3f 3701 f2bd
00000270: 09cb 473f 4f8d 4c3f dfcf 323f 0976 db3d
00000280: 813d ec3d 8367 a8be 4ace e1bd 44ec 293c
00000290: cd4e 2ebe 8a44 6dbe ee1d 7dbe affd f9bc
000002a0: de11 dbbe 6c82 2abe fdac 0c3e b52a 6dbd
000002b0: 44cb ffbc 313f 88bc 4c4e 12bd da2e 29bd
000002c0: 9231 083d 1dac 963c d3e4 bdbc 65fa aa3b
000002d0: 1457 6a3b 9562 babc 1717 3bbc 9c58 ba3c
000002e0: 2815 ffba ee36 303a 20c9 2f3d c212 063c
000002f0: 369e c2bc 2457 803e 4396 55bd 3ec1 df3e
00000300: 9798 d93d 053f 04be 7c5b d83e ec28 e9bd
00000310: d49f 99be ab17 18be f257 503d 9414 d83c
00000320: 68f3 623e ee10 f8bc 1d4e a3be 05a0 5bbe
00000330: f6e2 be3d 4f2a 50be 5376 cdbe cb8d 533e
00000340: 6206 b5be b82f 87bd 2160 cc3e 0b64 9b3d
00000350: bd66 b13e 8444 6e3e 6eea cdbe 66a3 98be
00000360: 23e7 92bc 0f84 2bbe a0de 813e 9498 cc3e
00000370: e379 303d 8cdb 6bbe 712d 16bf c520 213d
00000380: 779d 5bbd cfc9 cdbe 43a7 ca3e cf7b 353f
00000390: 5c01 b23e bee3 803e 4f3b 773d 9b52 483d
000003a0: 6a42 533f ad89 4c3e e366 3c3e b84f 3cbd
000003b0: 2bab 823d ae1c c53d 5cc2 d83d ced0 fd3b
000003c0: 4a6b 7ebd 7434 183d 1b6d 36bd 45a0 d3ba
000003d0: 4cc1 7abd b2a9 343b f3a2 c23b b410 16bc
000003e0: 5265 bebb 6c6d 563d efca a53c bbb8 d13a
000003f0: 9b9b 74be 3823 cdbe 606b 963e d402 5abe
-0.27117473 -0.2828768 -0.29263708 -0.124667354 -0.101697266 -0.06003864 -0.16264887 -0.014347377
-0.06879695 0.09755082 -0.071438454 -0.13140547 0.1459102 0.119286634 0.031026084 0.060112502
0.043067336 0.1402053 0.40915453 0.38161668 -0.20557235 0.18096262 0.2147472 -0.6017597
0.915047 0.9788773 -0.90091544 -0.33691964 -0.3818953 0.02239148 -0.2847672 0.00019945196
0.3765366 -0.17737359 -0.03597397 0.072954856 0.18072435 0.38769877 0.17489544 0.027999936
0.14631595 -0.027321069 0.22582228 0.26652667 0.074022144 -0.011030087 0.07765321 0.009176946
0.0015471331 0.020367978 0.070516184 0.020030601 0.0056073586 -0.017044913 0.0072135595 0.0029813289
-0.03414528 -0.0049797483 0.01418065 0.024157068 -0.008083594 0.0038180032 -0.0029373039 -0.13748957
0.07296624 -0.16731639 -0.03696561 0.28509408 -0.2593376 -0.11608919 -0.19789268 -0.18038067
0.1856694 0.35846943 -0.31549692 -0.089863054 -0.36869848 -0.058025945 0.4148912 0.3612068
0.2458982 0.0019026124 -0.38589242 -0.043348428 0.7246575 -0.07657437 0.49187276 0.33945933
-0.14874713 0.38689482 -0.22235578 0.2909593 0.62052995 0.46424338 0.5578742 -0.2865965
-0.23244858 -0.14704323 0.13959432 0.42150685 0.3494502 0.34575653 -0.051644925 -0.1897195
-0.02520994 -0.32264793 -0.5073566 0.12783833 -0.07555142 -0.025081882 0.02162792 0.10630265
0.10572009 0.037185673 -0.046802346 -0.0054535866 0.07270873 -0.0580216 -0.023989886 -0.014078027
-0.009549208 -0.025698438 0.009924344 0.012451646 0.024711845 0.00028150118 -0.48477829 -0.15817887
-0.20768301 -0.3605392 -0.17444459 -0.18844528 -0.21926357 -0.26347986 -0.37199384 0.10464982
0.022389567 -0.23407641 -0.25619918 -0.04357241 -0.5038418 0.36258686 0.33400267 0.3576741
0.0034970462 0.1626786 -0.29716027 0.2384919 0.35369167 0.31239164 0.20862485 0.29939494
0.6526181 0.5017614 0.73203295 -0.11816638 0.7804418 0.7990312 0.69848436 0.10715873
0.115351684 -0.32891473 -0.11025675 0.0103712715 -0.17022248 -0.23170677 -0.24718449 -0.030516474
-0.4278707 -0.16651314 0.13737865 -0.057902057 -0.031224854 -0.016631695 -0.0357192 -0.041304447
0.0332504 0.018392617 -0.023180401 0.0052178376 0.003575747 -0.022752086 -0.011419079 0.02274733
-0.0019461261 0.00067220523 0.042916417 0.008183183 -0.023757081 0.25066483 -0.052145254 0.4370212
0.10624807 -0.12914665 0.42257297 -0.11384758 -0.30004752 -0.14852779 0.05086512 0.026377
0.22163165 -0.03028151 -0.31895533 -0.21447761 0.09320633 -0.2032864 -0.40129337 0.20659558
-0.35356432 -0.066008985 0.3991709 0.07587441 0.34648696 0.23268324 -0.40217918 -0.29812163
-0.01793248 -0.16749595 0.25365162 0.39960158 0.04308499 -0.23032969 -0.5866309 0.039337892
-0.053616967 -0.4019303 0.39580736 0.7089204 0.34766662 0.25173753 0.060359295 0.048906904
0.82523215 0.19974394 0.18398623 -0.045974463 0.06380304 0.09624611 0.10583946 0.0077458387
-0.062114038 0.0371594 -0.044537645 -0.0016145787 -0.0612195 0.0027566967 0.005939835 -0.009159256
-0.005810418 0.052350447 0.020238368 0.0016000489 -0.23887484 -0.40065932 0.29378796 -0.21290141

bias f4 [128]
00000000: abe1 41be 6ffd 12be 1c05 87be 9a5e 57be
00000010: f4f0 2cbe 002b 94be 38a1 913d 801e b5bd
00000020: 4bc7 05be 6e17 42bd 4351 94bd f90e 1ebc
00000030: 76c8 65bd c0a3 2bbe 4cb9 24be a982 17be
00000040: d5b0 423b 2ce6 ab3d 10e1 b83d 8b41 96be
00000050: 6afd 4a3e 3e18 65bc 8691 b9bc 69d3 c1be
00000060: 83c8 70be 223d 80be 72ec c93c 5c6f 8cbe
00000070: 8e62 75bd 6203 33bd 9f8f 36be d859 c8bd
00000080: 2b29 04be 3aa9 81be b77e d33b b91a 61bd
00000090: e948 41be a4c7 94bd e49e 36be 4af1 aabd
000000a0: 6f49 673d 31e2 11be c3b6 b8bd 46ae 27be
000000b0: 43c9 ebbd fcee 5bbe d2ee 93be 852b 0d3c
000000c0: 70ad 3cbe dd0c a3bd 2051 723d c1d6 38be
000000d0: cfde fdbd 5509 87be 2131 0ebb 3438 20bc
000000e0: 6f38 36be 81e4 3ebe 128e 063d 2a13 2bbe
000000f0: c77f 0abe 459b 6bbe 8772 0a3c 5727 e3bc
00000100: ccc0 aebd 6848 d9bd fca1 06bd a8d5 9dbe
00000110: e91f 6abe 20a0 8bbd 0f35 953d ec48 4ebd
00000120: 6d50 43bd afec 25bc 9860 ddbd 3799 1ebe
00000130: ccb9 4e3d 8be2 07be 79e8 25bb cfef d6bd
00000140: a6a4 3cbe f715 93bd 3e61 32be 180e 2fbd
00000150: a1f4 70be 74d9 aabd 3260 1b3d 432a 6bbe
00000160: 286b c7bc 8a69 0bbd aa98 b83c 81f9 88be
00000170: 7ea1 2cbe 1126 a9bd a6d8 7a3b 9c06 82be
00000180: 8a01 17be 24d5 4dbe 9891 7c3c 2e57 56be
00000190: c55a 72bd a6c1 03be 2d07 3a3c 57de 0ebe
000001a0: 4e09 a6bd 2918 b1bd 2588 a1bd 6de8 a4be
000001b0: 0fbc fabd c1b4 86be 86e0 7b3d be68 84be
000001c0: 70bc 23bd dcec 07be e8eb 64be ef15 7cbe
000001d0: 33ac 8cbe f6cc 0bbe 03c0 3bbe 8292 aebd
000001e0: 8ffd 62bd 2606 0ebe e17b 55be 4768 61be
000001f0: 20d3 58be a8aa 27be deb1 aabd 5607 823b
-0.18933742 -0.1435449 -0.26371086 -0.21032181 -0.16888791 -0.28939056 0.07110828 -0.08843708
-0.13064305 -0.047385626 -0.07242062 -0.009647124 -0.056099378 -0.16761684 -0.1608631 -0.14795937
0.002970745 0.08393511 0.09027302 -0.2934688 0.19823232 -0.013982831 -0.022652399 -0.37856606
-0.23513989 -0.2504664 0.024648879 -0.2742871 -0.059908442 -0.043704398 -0.17828225 -0.09782761
-0.1290633 -0.25324422 0.0064543146 -0.054957125 -0.1887547 -0.07264641 -0.1783405 -0.083468035
0.056466516 -0.14246441 -0.09019234 -0.16375074 -0.11512997 -0.21477884 -0.28893143 0.008616333
-0.18425536 -0.07961438 0.059159398 -0.18050672 -0.12396013 -0.26374307 -0.0021696764 -0.009779025
-0.17794965 -0.18641855 0.032850333 -0.1670653 -0.13525306 -0.2300845 0.008450157 -0.02772872
-0.08532867 -0.106095135 -0.032869324 -0.3082707 -0.22863735 -0.06817651 0.07285511 -0.050362512
-0.047684122 -0.010127231 -0.108094394 -0.15488134 0.05047016 -0.13270013 -0.0025315566 -0.104949586
-0.18422183 -0.07181924 -0.17419907 -0.04273805 -0.23530819 -0.08342257 0.037933536 -0.2296534
-0.024343088 -0.034036197 0.022533733 -0.26752856 -0.1685848 -0.08259214 0.0038276105 -0.25395668
-0.14746681 -0.20100838 0.015415572 -0.20931694 -0.059168596 -0.1286684 0.01135425 -0.13952003
-0.081072435 -0.08647186 -0.07887296 -0.32208577 -0.122429006 -0.2630978 0.06149342 -0.25861162
-0.03997463 -0.13273948 -0.22355616 -0.24617742 -0.27475128 -0.13652405 -0.18334965 -0.08524038
-0.055417594 -0.13869533 -0.20848037 -0.22012435 -0.21174288 -0.16373694 -0.08334707 0.0039681597

weight f4 [128, 128]
00000000: 50e8 06be 61e3 b43e a9b5 d03e 090b ebbd
00000010: 2ad3 0cbe 80b2 6ebc 95eb f8be 7143 a1be
00000020: 6903 8dbe 7ad4 79be c5ed df3d c48c e73e
00000030: e756 9e3d 53a5 1a3d 6fc4 da3e 07fa 153e
00000040: 9295 88be 21f5 6f3c ad56 823e 6a3e 103e
00000050: 2065 33be 69c5 ddbe e5f2 bfbd 261a a73d
00000060: c445 e0be 2669 ad3d 2aeb 6e3e fb70 bc3d
00000070: ff79 1cbe adad b3bc 1eb8 143e e3d1 c4be
00000080: 920c 93be 27ef cbbd a0ea aa3e 58cc 37be
00000090: be52 053e fc2a 773d 0390 96be e7b4 24be
000000a0: 7cfb acbc 53f9 cebd f363 123f 7445 0bbf
000000b0: 9b94 a3be 50ef ac3e 4576 b73d 4ff2 cebe
000000c0: 5571 263e 8979 81be 359c 9b3d 7de8 5b3c
000000d0: 2bc1 adbc 876e 16be 4f04 6ebe 7f67 6a3e
000000e0: f067 30bd fe70 01bd c874 b23c f232 423e
000000f0: c3ee 8d3e 01f4 3ebe 3a55 913e 803e 8f3e
00000100: 3c85 013e 4051 8abe b8ad 6c3e 20b0 3cbe
00000110: f4da c63e 1773 d1be 15f6 333e 37d7 563d
00000120: 7b8e 93be 60bd 97be 02c6 ecbd 9c54 dbbd
00000130: 0163 69be 2f8f b13d b3a6 77be cc7f da3d
00000140: d0ac e83d 7a40 403e 0750 7e3d d420 8e3e
00000150: 0211 8d3d 120f 7dbc f5e2 5c3e 7ec3 233e
00000160: c9ac c6bd b9ef 3dbd 0cf5 d8bd d2fe c13d
00000170: c20f 27be c569 02bf 6486 06bf d7f5 8ebd
00000180: be7a e6bd a3b3 dd3d 239c 06bd 7347 3c3d
00000190: 8cb2 d9be d693 d6be 49d6 413d 5fca febd
000001a0: c411 f73e 9e3d 9b3e 932f 58bc 6795 893c
000001b0: dc12 ca3e 1b3e c83d c266 18bf 019c 753e
000001c0: 908e a43c fb0d 353e d549 1e3d ab96 10bf
000001d0: ed44 63be 9f45 293e 4024 243e 0164 5f3e
000001e0: 7dfe 88be d668 ee3d cd7b 203e 082f 53bd
000001f0: acd0 e6bd b2ac 553e f0ff 623e 728c bbbc
00000200: bac5 0e3e d0f0 2e3e 2dad 18be 12eb 86be
00000210: 9bd2 39be 334d bebe 0f2c a33e c905 1abd
00000220: 8eaa edbe 7982 81bf 6cb2 be3d ec23 c1be
00000230: c532 8fbd 2f44 f9bd c9bc 2fbf f4cb fabe
00000240: 022f 81be d075 9d3e 70dc b2be 0513 38be
00000250: 512a dabe 2248 4ebf fa38 bcbe 5dbf 533e
00000260: c7eb f33e c92f 763e d91d 27bf c286 6cbd
00000270: 429a f13d 899d 683e 172b 2e3e bc43 91be
00000280: 40e5 a7bf c70b 2b3e 8153 f9be ec58 0e3e
00000290: bfdc 52be 36bb fcbd f7ad f1be 79db 513d
000002a0: 82ea ab3e 87e6 13bf d690 61bf 2d5d f8be
000002b0: b68c 3bbe 7e5b 03bf dfb7 b5bd 8a2a 383d
000002c0: d2c9 a03e db46 16be 70cb bfbe b019 57be
000002d0: cbb3 0a3e 31d5 65bf 579e 0ebd b80a 30be
000002e0: 30b3 87be 8102 b43d af92 5f3e d250 e5be
000002f0: 7801 a03d dc9f 2d3e b350 9dbe b9f3 e8be
00000300: 83d6 c63e aeb0 cdbe 8533 fbbe c5aa cfbd
00000310: 1df2 10be ed18 11bf 8f7d d83b 7701 cabe
00000320: 837c 82be 1bb1 35be 2742 0b3e 8ba3 33bf
00000330: f193 b2bd ffc9 903e 84c8 6abf 117b 3ebf
00000340: fe61 cabd f8ea cfbe 81fa c13a 0b20 9839
00000350: 0ebb 76be 7ae3 c1be e48f 783e b941 fc3e
00000360: 0d1e c33d 098f 2abf f862 86bf f69a bfbe
00000370: b19d 9b3c 946f e4bd 7313 19be 1c50 6bbd
00000380: 99b8 59bf 23b5 b8bd be6d 88be ee91 9f3d
00000390: 2d8b 05bf 546c 53be 6824 cf3e c370 3b3e
000003a0: ae92 77be d413 b5bd 1214 efbe 9f39 56bf
000003b0: 1996 663e 91b5 a53d 1be9 f93e 4d69 88be
000003c0: ba8d fa3d a745 83be 4292 b73e 4280 9f3e
000003d0: a4e6 83be e76f a13e 065e 90bd 45c6 993d
000003e0: f716 33bf 6ad3 d7be 15c3 b2be b958 1abf
000003f0: 99bb 3fbf c91f cabe 7a9d 863e bf02 3abf
-0.13174558 0.35329726 0.40763596 -0.11476714 -0.13752428 -0.014568925 -0.48617235 -0.31496766
-0.27541664 -0.2439746 0.10934023 0.45224583 0.07731419 0.03775532 0.42727992 0.14646159
-0.26676613 0.014645846 0.25456753 0.14086309 -0.17519045 -0.43314674 -0.093725 0.08159284
-0.43803227 0.08467321 0.23331895 0.09201237 -0.15280913 -0.021933401 0.1452336 -0.3844138
-0.28720528 -0.09957724 0.3338213 -0.17949045 0.13019845 0.060343727 -0.29406747 -0.16084634
-0.02111601 -0.101061486 0.5718376 -0.5440285 -0.31949314 0.3377633 0.08958105 -0.40419242
0.1625417 -0.25288036 0.075981535 0.013422129 -0.021210274 -0.146906 -0.23243831 0.22891043
-0.043067873 -0.0316019 0.021784201 0.18964747 0.27721223 -0.18647768 0.28385335 0.2797737
0.12648481 -0.27015114 0.23113143 -0.18426561 0.38838923 -0.4090812 0.17574342 0.05245134
-0.2881964 -0.2963667 -0.115612045 -0.10709497 -0.22791673 0.08669888 -0.24184684 0.106689066
0.11361086 0.18774596 0.06208804 0.2775942 0.068880096 -0.015445488 0.21570952 0.15992543
-0.09700925 -0.046371195 -0.10593614 0.09472431 -0.16314605 -0.5094264 -0.52548814 -0.06980484
-0.1125388 0.108252786 -0.032863747 0.045966577 -0.42519033 -0.41909665 0.0473235 -0.12440943
0.48255742 0.30320448 -0.013194936 0.016794873 0.39467514 0.09777471 -0.59531796 0.23985292
0.02008751 0.17681114 0.03864463 -0.564799 -0.22194262 0.16530465 0.16029453 0.21815492
-0.2675666 0.116410896 0.15672226 -0.051558524 -0.1127027 0.2086666 0.22167945 -0.022894118
0.13942614 0.1708405 -0.14909811 -0.2635122 -0.18146746 -0.37168273 0.31869552 -0.037603173
-0.46419185 -1.0117942 0.09311375 -0.3772272 -0.069921054 -0.12171208 -0.6864744 -0.4898373
-0.25231177 0.30753946 -0.34933805 -0.17976005 -0.4261041 -0.80578816 -0.3676222 0.20678468
0.4764082 0.24041666 -0.6527992 -0.057745703 0.117970005 0.22716345 0.17008625 -0.2837199
-1.3116837 0.16703711 -0.4869652 0.13901109 -0.2059202 -0.12340395 -0.47203037 0.051234696
0.33577353 -0.5777363 -0.8811163 -0.48508587 -0.18315396 -0.5131148 -0.08872961 0.044962443
0.31403977 -0.14675467 -0.37459898 -0.21005893 0.13545148 -0.8977843 -0.034818973 -0.17191589
-0.26503897 0.0878954 0.21833299 -0.44788224 0.0781278 0.16955513 -0.3072563 -0.45498446
0.38835534 -0.40173858 -0.49062744 -0.101399936 -0.14154859 -0.5667866 0.0066067646 -0.39454243
-0.2548562 -0.17743342 0.13599454 -0.7017142 -0.08719624 0.2827911 -0.9171221 -0.74406534
-0.09881972 -0.40608954 0.0014799387 0.00029015573 -0.24094793 -0.37868863 0.2427364 0.49268892
0.09527216 -0.66624504 -1.0498953 -0.37422913 0.018996092 -0.11154094 -0.14948826 -0.057449445
-0.850473 -0.09018924 -0.26646227 0.07791506 -0.5216549 -0.20646793 0.40457463 0.18304734
-0.24177048 -0.088416725 -0.46695 -0.8368167 0.22518195 0.08091272 0.48810658 -0.26642838
0.122340634 -0.25639078 0.35853773 0.3115254 -0.25761902 0.31530687 -0.070491835 0.0750852
-0.69956917 -0.42153484 -0.3491446 -0.6029163 -0.74895626 -0.39477375 0.2629202 -0.7266044

bias f4 [128]
00000000: f7b8 91be 44ab cabb e157 5dbe e759 fdbd
00000010: d704 0ebe 60ff 04be f2dc b9be 6470 18be
00000020: a7cc 4cbe 6038 94be 078f 12be 504c 3ebe
00000030: 1e5b 87be e3be 21bd 0b0f 8dbe 0bae 633d
00000040: d031 5bbe 0b16 1abc 484f 58be 9d4c 2a3a
00000050: bfd7 bdbe d3cc a4bd 995c abbd bc4d 10be
00000060: cc7c a4be 8c86 81bd 4bad 4dbe e2e6 cebc
00000070: 1485 8dbe b768 52be f6da 48be 25cc 853d
00000080: 7988 f5bc f54a 49be 78c1 92bd 825b 11be
00000090: bcd4 e4bd 3bbe 0dbe 1604 02be d085 04be
000000a0: 3185 e33d 4d3a d6bc 0b93 163d 6d89 b93d
000000b0: 10a7 9cbd dd07 b1be c043 c93d 1dc4 9dbd
000000c0: a9be a43d 3444 1bbe e4b7 7fbe e572 6ebd
000000d0: f7ea 20be 2663 603e 1704 84bd f73a 0cbe
000000e0: 6e00 7c3d 0250 6ebe 3e52 903e fb36 6d3d
000000f0: 577d f0bd 607a 50be 7251 3ebe 2c79 3cbe
00000100: 8292 3abd baba 56be b9e6 b5bd 4ef9 51be
00000110: 427a 513e 35e9 a2bd dd01 93bd b0ab 94bd
00000120: a1f6 88be bc49 0cbe 1766 57be a08a c9bd
00000130: 6db2 adbd 0af7 ca3c 56d3 34be 4500 73be
00000140: e03f 8e3e ada5 91bc 9780 9fbe 6616 a6be
00000150: 0922 ecbd f424 e93c a8c0 d93c e9d1 7cbe
00000160: be87 26be 8746 c4bd 6255 cebd f3c5 20be
00000170: f5c7 873c c38c 91bd 6a06 22be 805c f9ba
00000180: 89b5 9bbd 652d a93d 6b4d f6bd eb8c 23bd
00000190: c7ef abbe 4279 0bbd 7aae 87be 003f 0fbe
000001a0: f1d2 91bd cf75 12bd 02ff d7bd e3c7 a2be
000001b0: 210f 4f3d 4998 ffbd a1e0 2fbe 0eb2 88bd
000001c0: 3a27 1bbe f3f1 60be d4d1 0ebc 2eb9 093e
000001d0: b4e0 d9bd 75d1 71bc 41a2 683e c7bb 9a3d
000001e0: 4ba8 0dbc 499d 2aba 816f 13be c566 11be
000001f0: c22a 223e a20f 3bbd fcb7 383d 6de6 00be
-0.2846143 -0.0061849672 -0.21615554 -0.12370663 -0.13869034 -0.12988043 -0.3630138 -0.14886624
-0.19999944 -0.2894926 -0.14312373 -0.18583798 -0.26436704 -0.039488684 -0.2755054 0.055585902
-0.2140572 -0.0094046695 -0.21123993 0.00064964016 -0.37078664 -0.080468796 -0.08367271 -0.14092153
-0.32126462 -0.06324491 -0.20085637 -0.025256578 -0.27640593 -0.20547758 -0.19614777 0.06533078
-0.029972302 -0.196575 -0.071658075 -0.14195064 -0.11173388 -0.13842098 -0.12696871 -0.1294167
0.111093886 -0.026150847 0.036761325 0.09059415 -0.07649052 -0.34576312 0.098273754 -0.07703421
0.08044178 -0.15162736 -0.24972492 -0.05821504 -0.15714632 0.21912822 -0.064460926 -0.13694368
0.061523847 -0.23272708 0.28187746 0.05791376 -0.11742657 -0.20359182 -0.18585756 -0.18405598
-0.045549877 -0.20969668 -0.088818975 -0.20505258 0.20456794 -0.07954637 -0.0717809 -0.07259309
-0.26750663 -0.13700002 -0.21035038 -0.09840894 -0.08481298 0.024776 -0.17658743 -0.23730572
0.27783108 -0.017779196 -0.31152794 -0.32438964 -0.11529929 0.028460003 0.026581123 -0.2468945
-0.16262719 -0.095837645 -0.10074879 -0.15700512 0.01657484 -0.07106926 -0.1582276 -0.001902476
-0.076029845 0.082606114 -0.12026485 -0.03992931 -0.33581373 -0.034051187 -0.26500303 -0.13988876
-0.07120312 -0.035756882 -0.10546686 -0.31793126 0.050551537 -0.12480218 -0.17175533 -0.06674586
-0.15151682 -0.21967296 -0.008717019 0.13449547 -0.10638562 -0.014759411 0.22718145 0.07555347
-0.008646081 -0.00065084227 -0.14398004 -0.1419936 0.15836623 -0.045669205 0.045097336 -0.125879

weight f4 [128, 128]
00000000: a017 11bd eb96 81be 765b afbd 1b7c 96be
00000010: 0a97 313e 1171 07bc 9000 a5bd e735 3b3d
00000020: e43a 66bd accf 84be a073 b23e 3e8c 593e
00000030: be6a 44bd d552 1abf b58b 8d3d c9f6 54be
00000040: b477 e93d 7273 853e 0ad3 fabd fff7 8dbe
00000050: 1069 f03c 6c0a 673e 5f90 993d f0cc b83d
00000060: 617d 85bc 92cf 91be 7fec 823e c77f 0c3e
00000070: f70a 903d a263 74be 0164 f8be d304 ecbb
00000080: cd90 cfbc 4859 033e 98bd 88bd 3021 06bd
00000090: f302 1ebd 9084 67be 4b76 8c3e aadd fcbd
000000a0: a6a6 9bbe c7ee 7fbd b550 62bd aa9d 91bd
000000b0: 82b4 683d 3bfa e83c d767 4e3c 4126 b9bc
000000c0: 7908 d93d 0fab 4dbe 3357 d93d 83cb 593d
000000d0: 4fff 84bd ec5f 35bf a42d 5cbe 22b9 5f3e
000000e0: 3cb4 bfbe 5ab0 4bbe 1cb0 c1be d27b a03d
000000f0: f9d9 803d 1938 a03d e29b adbe 0416 333e
00000100: 6ea0 1dbc 2ba2 43bf 5553 62be 8f69 763e
00000110: 8151 bf3d fe84 06bf d119 cebd 4a7e b6bd
00000120: 3c7f 203f 6ece 2c3f 6266 613e c34a f6bc
00000130: 00bf 633e 6546 c4bd 5515 d83e 3c8f 4abb
00000140: 2abb 23bf d318 3dbe 2ab6 fa3b 88fe 943d
00000150: bfee c53e 0bbe 693d 6d09 a33d eeb0 3c3c
00000160: 7d36 8a3e af8c c23b 929a 0fbd c1bc a33d
00000170: db7e ca3c b788 a1bd cf2b a23c 09ed 09be
00000180: a1a8 eebd 2e77 40be be52 413e 4ca7 02bf
00000190: f909 1e3d d6e0 18be b390 0f3e 6d82 d0bd
000001a0: 8b73 b73d 7dac 26be 5341 643e c7de 11be
000001b0: 8cd2 953d c4d7 8ebd 22ba 773e 83c6 80bd
000001c0: 8259 8d3e 34fe 013d 0aa0 2dbe 21c9 43be
000001d0: b48e c33e ec8e b1be d621 c0bd ff53 4abd
000001e0: 3f21 83bd f341 dbbd 6c73 bb3d 76fe 34bf
000001f0: 2484 06bc fdf2 06bf e311 75be f4e1 c4bd
00000200: f43a a6bc c5de 1d3d 072e 653d 5143 573e
00000210: 7779 0b3d 2e57 d3bc 065c 1bbc a2ca d9bd
00000220: 3f1e 97bd 3b49 d7be 3fdf b3be e747 a6be
00000230: be50 08bf fba1 31be 98d0 28be a3b2 b63d
00000240: 4802 8e3d bdd7 29bd ec03 f13c 4719 4a3e
00000250: 0553 313e 115a 70be e343 a0bd 1d4d 31bd
00000260: a447 ea3c d714 34bd 562c 28be 2991 ad3d
00000270: 883e e53d 5190 1bbe 896f 7cbd 89da 8fbc
00000280: 76c8 103e fb92 8c3e 57d5 1d3e 49b2 b83c
00000290: 080b 07be 023a 023e 6098 05be 8ce3 b2be
000002a0: 52ee 743e a1cf 973d 9fa0 963e a490 b3be
000002b0: 6031 073d e2b9 86be e4b5 d43d a7ab c0be
000002c0: 5e8a 80be 2691 06bf 7fc7 c1be 04c9 b5bb
000002d0: d1b7 753d adca 273e 2dd9 8c3e 2d6f ddbd
000002e0: 3f23 48be 643a 13be 6325 093e b87d b9be
000002f0: f648 e1be ea83 f83b 11eb 33bf fb23 f3bd
00000300: 4f45 65be caf1 36bf f3c1 afbe aa2f 8abe
00000310: b69c d5bb f8fd aebd 6c22 ccbe 8698 cc3e
00000320: 70e1 b0be fe3f 2a3e f396 dabd f15e a43c
00000330: d789 85bd 2236 cabe 1793 b6be 10a8 49bd
00000340: e6c9 e63d e096 433e d171 17be 7252 9f3e
00000350: 42aa aabe 9c2b a13e 86a6 aebd d849 fcbd
00000360: a788 0bbe b78b 733d ca16 e9be a95c 14bb
00000370: 5b0a 133e ae68 85be 66d6 80bd 013d bbbe
00000380: 1335 87be cd38 323e f8ab b1be bd6e 3bbe
00000390: 511c 0e3d 1713 a23e 0a7b e23d efa0 2b3e
000003a0: 8763 c13c 5b16 dcbd 3b4d e2bd 30da 543d
000003b0: e9d0 c3be c331 233d 412f 5bbe 612a 6ebd
000003c0: 57ae cfbd 0cd1 7fbe 9370 953d b313 673d
000003d0: 340e a0be e2ed 03be d9f2 f03e 5ff0 023f
000003e0: fa2d c2bc bc37 7a3d d73d 443b 84d1 e0be
000003f0: 3c10 d1be d43b c8be c1c6 3dbd 7bc4 0abf
-0.03542292 -0.25310454 -0.08562367 -0.2939156 0.17342773 -0.008266703 -0.08056748 0.045705702
-0.056208506 -0.2593969 0.3485384 0.21244904 -0.04795336 -0.6028264 0.069114126 -0.20797266
0.11399785 0.2606464 -0.12247284 -0.27728269 0.029346973 0.2256257 0.0749824 0.09023464
-0.016295137 -0.28478676 0.25571057 0.13720618 0.070333414 -0.23866132 -0.48513797 -0.0072027235
-0.025337601 0.12827027 -0.06676787 -0.032746494 -0.03857703 -0.22609162 0.27434 -0.123469666
-0.3040058 -0.062483575 -0.05525275 -0.0711015 0.05681277 0.028439632 0.012598 -0.022601249
0.10597319 -0.20084785 0.10612335 0.0531726 -0.06494009 -0.7084949 -0.21501786 0.21847966
-0.37442195 -0.19891492 -0.37829673 0.07836117 0.06291575 0.078232 -0.33907992 0.17488867
-0.009620769 -0.76419324 -0.22102101 0.24063705 0.093417175 -0.5254668 -0.10063518 -0.089108065
0.62694144 0.67502487 0.22011712 -0.030064946 0.2224083 -0.09583739 0.42203775 -0.0030908128
-0.63957465 -0.18466501 0.00765111 0.072751105 0.3865871 0.057066005 0.07960782 0.011516793
0.26994696 0.005937181 -0.03505952 0.07994986 0.024718693 -0.078874044 0.01979628 -0.13469328
-0.11653257 -0.18795463 0.1887922 -0.51036525 0.03858373 -0.14929518 0.14020042 -0.10181127
0.08957585 -0.16276737 0.22290544 -0.14245139 0.07315549 -0.06974748 0.24192098 -0.06287863
0.27607352 0.031736568 -0.16955581 -0.19119693 0.3819481 -0.34679353 -0.09381454 -0.04939651
-0.064028256 -0.10705938 0.09152874 -0.70700777 -0.008210216 -0.5271452 -0.23932604 -0.0961341
-0.020291783 0.038542528 0.0559521 0.21021773 0.034051385 -0.025798406 -0.009482389 -0.10634352
-0.07378816 -0.42048058 -0.3513126 -0.32476732 -0.532482 -0.17346947 -0.16485822 0.08920791
0.06934029 -0.04146551 0.029420815 0.19736205 0.17316826 -0.23471858 -0.07825448 -0.04328643
0.028598614 -0.043965187 -0.16423163 0.08474953 0.111935675 -0.15191771 -0.061629806 -0.01756026
0.1413897 0.27455887 0.15413414 0.02254595 -0.13187802 0.1271744 -0.13046408 -0.3493923
0.23919037 0.07412649 0.2941942 -0.3507129 0.033006072 -0.26313692 0.103862554 -0.3763096
-0.25105566 -0.5256523 -0.37847516 -0.0055476446 0.059989754 0.16385908 0.27509442 -0.10812221
-0.19544695 -0.14377743 0.13393168 -0.36228728 -0.44000977 0.0075840848 -0.7028056 -0.11872097
-0.2238972 -0.7146269 -0.3432766 -0.2698949 -0.0065189255 -0.085445344 -0.39870012 0.39960116
-0.34546995 0.16625974 -0.106733225 0.020064803 -0.065204315 -0.39494425 -0.35659096 -0.049232543
0.11268978 0.19100523 -0.14789511 0.31117588 -0.3333302 0.31478584 -0.085278556 -0.12318772
-0.13626347 0.059459414 -0.455252 -0.0022638238 0.14359419 -0.26056427 -0.06290893 -0.3656998
-0.2640768 0.1740448 -0.34701514 -0.18303962 0.034694973 0.3165519 0.11058624 0.1676061
0.023607029 -0.107464515 -0.11049887 0.051965892 -0.38245323 0.03984238 -0.21404745 -0.058145884
-0.101406746 -0.24982089 0.072968625 0.05641527 -0.31260836 -0.12883714 0.47060278 0.5114803
-0.023703564 0.06108831 0.0029944086 -0.43909848 -0.40832698 -0.39108145 -0.046332125 -0.54206055

bias f4 [128]
00000000: f1ad 01be 0cfc 503e e7dd 12bf f962 ddbd
00000010: f175 0fbe 9108 d8be bae3 2fbe 3735 6fbe
00000020: 6ffd 37be 506c 9cbe 6467 aebe 6f6b 1bbf
00000030: 13be c3bd aa5f 77be 53be dcbe c759 0dbf
00000040: 618a ffbd 3f26 80be 73ea dfbe ab80 4d3d
00000050: a60c 12bf 23b1 a7be 73ac 0c3d 9593 f5be
00000060: 395c ee3e fe11 09bf b30d aebd 4066 95be
00000070: 147b 0bbe d904 bfbd 99bf 76be a374 4c3e
00000080: 8273 f9be 1c88 8ebe bbf3 0bbe 9138 88be
00000090: b341 34be b261 18bf 9fb4 00bf cc9a 0abf
000000a0: 8be0 dfbe f871 bcbe 2cfd 063f 50f1 333d
000000b0: 20b3 8e3c 64d1 5c3e 1906 cbbd 2c6d bcbe
000000c0: 340f 9a3d ff1c a3be f277 6fbe ede8 e73e
000000d0: eb07 c2be 099b 57be 262a 76be f60b 973e
000000e0: 006e 963e 94e5 d8be db2c 6a3e 2ef7 7fbe
000000f0: acdc 14bf 5e0a b9be b386 bdbe 3ab2 f1be
00000100: 4191 1ebe 198a eebd 74cf 8cbe 89f5 16be
00000110: d2eb d8be d95e 223c 762d d7be fa89 05bf
00000120: a245 12bf 42ed c4be 2c20 55be 3c44 d5be
00000130: 1c83 e13e f1a5 e0be fcfb 1fbe 58fc 12be
00000140: 8e87 73bc 747a a1be 3ffe adbe fe9a f33d
00000150: 8a8a 9bbe a603 b9be 09dc 28bf f5cc f0be
00000160: 2f30 32bf 37e2 05bf b5c1 f2be 9112 ddbe
00000170: 055a b2be 35eb 483d 730d 17bf 33a2 5bbe
00000180: 7454 54be 08af bbbe 2d4d e53d d8f7 9abd
00000190: 9329 7abe eefe a4be 7231 ad3e ef16 c5be
000001a0: 2178 37be a25b 223e 72f4 0dbf 76f2 5cbc
000001b0: 5585 67be f4bf 793e d8b7 d83e 1774 c5be
000001c0: 25de fdbe 8d69 17be 6043 88be 6488 f2be
000001d0: a9fc b9be f0a0 c7be fd70 4fbe 6222 86be
000001e0: 81bb 6cbc 0d7f 40bd f01b bbbe b177 40be
000001f0: 0a25 073e 9462 3dbe 75de 96be b566 abbe
-0.1266401 0.20408648 -0.57369846 -0.10809893 -0.14009835 -0.42194036 -0.17176715 -0.23360144
-0.17967771 -0.30551386 -0.34063256 -0.60710806 -0.09557738 -0.24157587 -0.43113956 -0.55215114
-0.124775656 -0.2502918 -0.43733558 0.050171535 -0.5705055 -0.32752332 0.034344148 -0.4796416
0.46554735 -0.5354308 -0.08498707 -0.29179573 -0.1362117 -0.093270965 -0.24096526 0.19966368
-0.48720938 -0.27838218 -0.13667195 -0.26605657 -0.17603187 -0.5952407 -0.50275606 -0.5414245
-0.43726 -0.368057 0.5273006 0.043931305 0.017419398 0.21564251 -0.099132724 -0.36802042
0.07522431 -0.3185806 -0.233856 0.45294896 -0.37896666 -0.21055235 -0.24039516 0.29501313
0.29380798 -0.42362654 0.22868674 -0.24996635 -0.5814922 -0.36140722 -0.3701683 -0.4720629
-0.15485097 -0.11647434 -0.27502024 -0.14742102 -0.42367417 0.009910309 -0.4202687 -0.5216366
-0.571375 -0.38462263 -0.20813054 -0.4165362 0.4404534 -0.43876603 -0.15623468 -0.14354074
-0.014863862 -0.31538737 -0.33983037 0.11894797 -0.30379134 -0.36135596 -0.65960747 -0.4703137
-0.6960477 -0.522983 -0.47413412 -0.43178228 -0.34834304 0.049052436 -0.59004897 -0.21448593
-0.20735341 -0.36656976 0.11196361 -0.07566804 -0.24429922 -0.32225746 0.33826786 -0.3849406
-0.1791692 0.15855268 -0.5545112 -0.013485542 -0.22609456 0.2438963 0.42327762 -0.38565132
-0.49583545 -0.14786358 -0.26613903 -0.47369683 -0.36325577 -0.38989973 -0.20257945 -0.26198107
-0.014449001 -0.046996165 -0.36544752 -0.18795659 0.13197723 -0.18494636 -0.29466596 -0.33476797

weight f4 [128, 128]
00000000: 96cc 7abe f2c8 aebd 1a06 05bf ee79 7a3c
00000010: 7d88 833e d31a c43d d397 463d dde7 763d
00000020: aa12 91bd d43e 103e 7ff4 c73e 172d 283d
00000030: 7c87 f5be 174d 503d 4a55 60be 307b e73e
00000040: 0d79 88be e9b4 2ebd 2be4 e13b 146b 743e
00000050: 8c03 b9be 9aea f8be 2f32 7cbb acfe dc3d
00000060: 0a81 413b 3a32 80be 6194 08be 7114 4c3a
00000070: 8b32 2bbe 09f0 76bc 91f6 593d 8de2 84be
00000080: a1c6 cbbc c71c 863e d4de 1dbf 512b b2be
00000090: 309c 593d 2781 b4be c504 ecbe e5e5 afbe
000000a0: b417 a5be 1cfe 14bc bc2d 123e 21df 98be
000000b0: 0f59 aabe 6741 c4be d89a 6bbe 5498 a6be
000000c0: 9cb0 a93d 0fb6 a1bd f0ab 96bc dcc0 6a3e
000000d0: d72a 0fbf d9e2 143d 9954 22bf 9ae9 5abe
000000e0: b046 683c 006d afbd b3b6 8cbd c074 8d3e
000000f0: ba8a 15be f1d2 0cbe 4fcf 0abe 4a0a a3be
00000100: a351 1ebf c6aa 06bf 5272 a13d dba5 883e
00000110: 4822 0c3d 3569 e5be da65 d0be fcaa d3be
00000120: 0a28 e33d f94e 17bd 7b65 f3bd ef94 6bbd
00000130: 9d81 16be e025 1c3e b0b0 a33d ea37 7cbd
00000140: 9f85 a2bc 66de 833b 29e3 333d 1f39 c5bd
00000150: eac1 83bd a31f 303e b28a ae3d 69ed 94be
00000160: 3b07 86be b6ed 46be 5ce3 eabd 2d81 aabe
00000170: d179 1f3e 164d 92bd afd1 f83d d33c 513b
00000180: 9ad0 873e bbe5 14bb 8e77 913e 5fb0 d5be
00000190: 8ae8 513e 4e84 1dbf ff6c 28be 950c a13c
000001a0: 0f12 0bbf d653 7eba ea9b f5be cf21 9bbe
000001b0: e3fa b63e db84 0e3d 62a6 27be 44e0 acbe
000001c0: 496a b9be a48a b5bd 1be5 ec3e 8953 21bd
000001d0: 1f44 d93e 6a0a b7be b41b d0be 772c 2a3e
000001e0: da82 d73c f94c d83c dcd9 773e ba96 393e
000001f0: d621 15be d5e9 7abe 9ed1 45be c8d7 c63d
00000200: 351b 66be 139d 33bd 2c01 c0be 0906 2e3b
00000210: 8ef7 4cbe 2c6f 5abe 139c 8fbd 5a1c a3bc
00000220: 1c59 bdbd d87d 26be a29c 90be c1e1 c43e
00000230: db0d 003e 4fe6 37bd a7cb 6ebe 2a90 573d
00000240: 2f62 8b3d 4c1f 4b3d fbba 7e3e ba0f 083c
00000250: af61 7dbd 941a 0dbe 878b 0bbd 2801 4e3c
00000260: 3d40 373d d58d d4bd 7c40 913d 826c 6cbe
00000270: 9a75 153e 7112 b5bc 2fac 0fbd f3c4 fd3d
00000280: 6949 4e3e 4889 053e fa07 3bbe 41b8 2d3e
00000290: 32c0 db3d 4469 afbd 9fb8 d1bc fe25 21bd
000002a0: 4949 eb3e ad81 343e 2a33 42bd 94f3 3abe
000002b0: 1943 adbe 1777 0fbe ae50 cbbd 95e8 2abe
000002c0: a250 0a3c 8e01 13be 18fb 81be e063 223d
000002d0: c0e0 50bd 229f 05bd 03a1 b6be 6e40 b43d
000002e0: 389a ec3b 7ead 51bd 0ac8 dc3c ce70 58bd
000002f0: 4a31 d6bd 3d5b 793e 8f23 683e a47c 093d
00000300: c79b b8be 379c eebd 709d f6bb e605 92be
00000310: bfb1 9cbd da46 25be eece bebd a48f ecbe
00000320: afe1 9a3d 2c88 ba3d db5d b7be 63d8 033e
00000330: 1fa8 7dbd ef76 aa3e bcdc 583e 17ed 8c3c
00000340: 2f8a 49bc 6c4b b2bd e3cf 063c 25c2 25bd
00000350: 5d83 11be d11a 58bc c3c9 583c 0f82 82bd
00000360: 32ae a73d 34df 81be cedb 20be e7b7 8c3d
00000370: 6948 3c3c a18b 21bd 7c8d 53be 9c41 11bc
00000380: e1aa 84bd c2a1 fa3b c5ee 38be 7bb7 50be
00000390: 16c2 0a3d 72ee 12bd 5c55 41be 16f2 273e
000003a0: 5303 e63b 53b2 66bd 3442 e7be a15e 373b
000003b0: 091f 8fbe 9c4a 093e c1a7 a83c 99da 44be
000003c0: a246 7f3e 634e 0fbe d3d6 a33d bc7d 203d
000003d0: b65e 0f3d 798d 2ebe b4f9 d4be fece fbbd
000003e0: 4d98 61be c5c4 b9bb 0e53 003d 6fa7 293e
000003f0: 3f99 12be f9b9 8c3d fdf4 693c 22d6 703d
-0.24492106 -0.08534421 -0.51962435 0.015287859 0.2569007 0.09575429 0.048484635 0.060279716
-0.07083638 0.14086467 0.39053723 0.041058626 -0.4795493 0.05085477 -0.21907535 0.45211172
-0.26654854 -0.042652998 0.006893655 0.23868972 -0.3613552 -0.48616487 -0.003848206 0.10790762
0.0029526376 -0.2503832 -0.13337852 0.00077850284 -0.167185 -0.015071877 0.05321366 -0.25954095
-0.024874987 0.2619383 -0.61668134 -0.34798673 0.053127468 -0.35254785 -0.4609739 -0.34355083
-0.32244647 -0.0090937875 0.14275259 -0.29857734 -0.3327107 -0.38331148 -0.23008287 -0.32538092
0.08285639 -0.07896053 -0.018392533 0.22925133 -0.55924743 0.03634915 -0.63410336 -0.21378174
0.014177009 -0.08565712 -0.068707846 0.27628136 -0.14603701 -0.13752343 -0.13555644 -0.31843787
-0.6184332 -0.5260433 0.07883133 0.26689038 0.03421238 -0.4480683 -0.40702707 -0.41341388
0.11091621 -0.03694055 -0.1188459 -0.05751508 -0.14697881 0.15248823 0.07992685 -0.06157676
-0.019839106 0.0040243147 0.04391781 -0.096300356 -0.064334705 0.17199568 0.08522548 -0.2908738
-0.2617739 -0.19426617 -0.114691466 -0.33301678 0.15573813 -0.07143609 0.12149369 0.0031927123
0.26526338 -0.0022719938 0.28411525 -0.41736123 0.20498863 -0.61530006 -0.16447829 0.01965932
-0.5432443 -0.00097018236 -0.47970515 -0.3029923 0.35738286 0.03479467 -0.16372064 -0.3376485
-0.36213902 -0.08864334 0.46268544 -0.039386306 0.42434785 -0.35750133 -0.40646136 0.16618524
0.026307512 0.02640389 0.242042 0.18123904 -0.14563689 -0.24503262 -0.19318244 0.09709126
-0.22471316 -0.04385097 -0.37500894 0.002655389 -0.2001631 -0.21331471 -0.07012191 -0.01991098
-0.09245512 -0.16258943 -0.282445 0.38453487 0.12505285 -0.044897374 -0.23319875 0.05262772
0.068058364 0.049590394 0.24876015 0.008304531 -0.061860736 -0.1377967 -0.03406861 0.012573518
0.044738997 -0.10378615 0.070923775 -0.23088267 0.14595643 -0.02210352 -0.035076316 0.12391081
0.20145191 0.1304065 -0.18264762 0.16964819 0.10730018 -0.08565 -0.02560073 -0.039342873
0.4595435 0.17627592 -0.047412075 -0.1825698 -0.33840254 -0.14010273 -0.09927498 -0.16690286
0.008442076 -0.14356062 -0.25386882 0.03964603 -0.05099559 -0.032622464 -0.35669717 0.088013515
0.0072205327 -0.051190846 0.026950855 -0.052841954 -0.1045862 0.24351211 0.22669815 0.033566132
-0.3605635 -0.11650889 -0.007526092 -0.28520125 -0.0765109 -0.16140309 -0.093168125 -0.4620334
0.07562577 0.09108004 -0.35813794 0.12875514 -0.06192791 0.33293864 0.21177953 0.017202897
-0.012301012 -0.08705792 0.008228275 -0.040468354 -0.14210267 -0.013189987 0.0132316975 -0.06372463
0.08187522 -0.25365603 -0.15708849 0.06871014 0.011491873 -0.0394398 -0.20659441 -0.00886574
-0.06477905 0.0076486776 -0.18059833 -0.20382492 0.0338765 -0.03587193 -0.18880218 0.16400942
0.0070194392 -0.056322407 -0.45167696 0.0027979987 -0.27953365 0.13407367 0.020587804 -0.19224013
0.24929288 -0.13994746 0.07999959 0.03918241 0.035002433 -0.17046155 -0.41596758 -0.1229534
-0.22030754 -0.0056692087 0.031329207 0.16567777 -0.14316271 0.06871409 0.014279601 0.058797963

bias f4 [128]
00000000: 667d d1bd 85a8 53bd 314d 11be fc59 5bbe
00000010: 8d60 f3bd b7c6 4dbe dc42 c9bd f82e 52be
00000020: 6254 09bf 05a0 df3e 79f4 27be 50ff 86be
00000030: b0b3 d7be e315 4f3d 35e2 53be 96ce 8e3e
00000040: 222d dabe 2816 15bf 10ee d6be 2815 2dbe
00000050: bb8c d4be d0b1 b83d 25bf e8bd a950 fc3c
00000060: f151 07be d311 34be 5099 2bbe f3a1 84bd
00000070: e922 8cbe 9207 92be efa0 daba bf87 0cbf
00000080: 4d9d 96be 578d 08bf 1053 4abe f2aa 00bf
00000090: 4bd6 43be 8fbf f5be 1296 e4bc 6f3a 6fbd
000000a0: 6f59 30be ce74 43be 89d7 b2be deb9 a6be
000000b0: 14f9 07be 8512 cebe 87b0 4ebd c63e 2abe
000000c0: f997 14bf 2956 dcbe 40de 3a3e 4800 b93e
000000d0: 5e96 33be 30e9 42be b14b 6cbe 12d7 f6be
000000e0: d316 a3bd 58e8 12be 21ea f43c 796e 2ebe
000000f0: 1441 20be d6d9 91be 0488 78be 452d 22be
00000100: 0043 95be b002 37be c8ec 8abe c32f 62be
00000110: b140 5abe 05f5 12bf 91cc 6dbe df1c 123e
00000120: 40d8 1abe cfac b4be 5262 74be d85d 48be
00000130: a460 8dbe 000d 23be 5001 c0be 7dae a8be
00000140: 0d8d d4be dcbb 343e f1a4 a1be fe6f f9be
00000150: 798d e7bd 1952 eebe 556e 1bbe 9adb 9cbe
00000160: 6e28 9e3e 31d8 b1be 516a ddbd fa55 febe
00000170: cac0 fe3d 2269 96be be53 bcbe 6045 20be
00000180: 8a15 02bf 07dc 2b3e 4f75 99be 3977 25be
00000190: d509 5dbe 4250 64be b2a2 5b3c ff1b aa3e
000001a0: bef6 e0bd 11ae 96be 7bb6 8abc 6064 c5bd
000001b0: 59c8 55bc 3e56 00bf 16bc 58be 622e 51be
000001c0: 16b3 a3be 53d1 5fbe a62b 84be b74b ffbe
000001d0: 6b9b 94be d49e 3cbe 9f2e cfbe 5a8c 943a
000001e0: 3490 55be 4d24 30be c98c 30be ce3e 34be
000001f0: f5d7 83be 1331 a5be 8532 01be 936a b0bc
-0.10228996 -0.051674385 -0.14189602 -0.21421045 -0.1188365 -0.20095335 -0.098272055 -0.2052573
-0.5364438 0.43676773 -0.16401853 -0.26366663 -0.42129278 0.050557982 -0.2069176 0.27891988
-0.4261256 -0.5823693 -0.41978502 -0.16902602 -0.4151362 0.0901829 -0.11364583 0.03080018
-0.13214852 -0.17584924 -0.16757703 -0.06476202 -0.27370384 -0.285214 -0.0016680042 -0.5489463
-0.29416886 -0.5334067 -0.19758248 -0.5026084 -0.19124715 -0.4799771 -0.02790359 -0.058405336
-0.17221616 -0.19087526 -0.34930065 -0.3256368 -0.1327861 -0.40248504 -0.05046132 -0.16625509
-0.5804439 -0.43034485 0.18248844 0.36133027 -0.1753783 -0.19034266 -0.23075749 -0.4821096
-0.07963338 -0.14346445 0.029896798 -0.1703433 -0.15649825 -0.28486508 -0.24270636 -0.15837581
-0.2915268 -0.17872119 -0.27133775 -0.22088532 -0.2131374 -0.5740512 -0.23222567 0.14268826
-0.15121555 -0.35288092 -0.23865631 -0.19567049 -0.27612793 -0.15922928 -0.37501 -0.32945624
-0.41513863 0.17649788 -0.31571153 -0.48718256 -0.11306281 -0.4654701 -0.15178807 -0.30636293
0.3089022 -0.34735253 -0.10811294 -0.4967497 0.12439115 -0.29377085 -0.3678264 -0.15651464
-0.50814116 0.16783153 -0.29972312 -0.16158761 -0.21585782 -0.22296241 0.013405489 0.33224484
-0.10984562 -0.29429677 -0.016932717 -0.09638286 -0.013048255 -0.50131595 -0.21165499 -0.2042785
-0.3197257 -0.21857195 -0.2581455 -0.49862453 -0.29024825 -0.18419963 -0.40465257 0.0011333332
-0.2085579 -0.17201348 -0.17241205 -0.17602083 -0.257507 -0.32264003 -0.12616928 -0.021535194

weight f4 [128, 128]
00000000: 8bf0 6cbe 1cce 85be 416e 0e3e 3923 e13d
00000010: 1719 90bd 1454 823e 2e1e afbd 4fb4 72bd
00000020: 75a8 14be 9bdd bebe 8044 b53d 9438 2b3e
00000030: 1366 f2bd b24b 0bbe 8a95 f93b 9b03 74be
00000040: c415 54be 727c e139 edd0 febe 9c29 6dbd
00000050: 4876 dabd 8532 30be 3b4b 14be 5de7 b0bd
00000060: 5fa8 aabd 3ebb 243e c868 f0bc 1db2 843d
00000070: febd 5dbd 63a2 95be b70a 93bc 9788 ccbe
00000080: f09f 1abd 591c 513c 1d12 b6bd e25e fabe
00000090: 696f dc3d 3c05 4bbe 83f8 8dbe 6e64 7a3e
000000a0: 328e 28bf 5d29 77bd cef2 3e3d 7b16 8e3d
000000b0: 84a8 93bd cd5c fe3d ddc5 bfbe 1a58 18bd
000000c0: 0c7b 913c c090 ab3e 19d0 d7be 400f 05bf
000000d0: 7da0 103d e90e 113d 9652 9e3e 4cce 003e
000000e0: c994 523c 48a0 ddbd 65df 9cbb af58 fdbe
000000f0: b4c1 6cbd 9a1f 11bf 21ae 3a3e 16ab 6a3e
00000100: 5e9f 77be 4fd8 7e3d bcfb 55be b493 05bd
00000110: 05e0 c93c 0989 38be 4ce5 46bd af7b 433e
00000120: 2079 0e3c 1a0b 64be f641 84be c93d 4c3e
00000130: 2ef5 f8bd 446a 34bd 684b 09bf 0ecb 8e3d
00000140: 8871 82bd a3f3 84be 14cf f5be 80ad d5be
00000150: c9fe 033d 50cb d4be b3bf a63d f2fc 6abe
00000160: f850 00be e87a 5dbe 55c8 3d3e 9439 b0be
00000170: ad34 523b 3297 9ebe 935f fbbd 2960 b73c
00000180: c84c 8b3c 2742 00bf ff40 c9bd ed61 b7be
00000190: 2b90 96bd 42a4 b83c c246 28bd 5072 46be
000001a0: 5af7 a5bd 653e 14bd 4f63 f8bc 34ce 50be
000001b0: 1ece a2bc e4a2 9d3e f985 70bd b7ba b73d
000001c0: d07d 003e e0fc 70bd 4826 33be db5a 09bc
000001d0: 5c20 d43d 1748 01be 4e7e 023d b75e 53be
000001e0: b1f4 c7bd 3631 3dbe fdcc 823d e78b 4d3d
000001f0: c6f5 b7bd d785 d6be 999d 1cbf 5d80 f2be
00000200: dff3 87bc a3cf 9ebd 359e b8bc 933c dbbb
00000210: 3635 793b c38c 6e3d 3e9d 5c3d 99b4 23bd
00000220: 7c25 dbbd 041f 01be 0df7 c23d 63ad a03d
00000230: 4cb5 9fbd dfdb 1cbd f1ff 8e3d 297f 57be
00000240: affb edbd 7a95 473d e05d c9bc 9627 99bb
00000250: 5b08 eabd 7314 7dbe 7c4b ed3c 4933 18be
00000260: a483 0fbd 7211 9bbd c5bf 13bb f8b8 34be
00000270: beeb 5abd f4d0 babd 94ec 1cbd b78a bcbe
00000280: 71c9 f13d 7684 f53d 9df7 32bd f7a9 1ebe
00000290: 72f9 63be 0866 62be 90f6 d73d 870f 2c3d
000002a0: 8920 a5be d84f bfbd f6f3 b03e b2fc 4c3d
000002b0: 38fc 9ebd fa3b c5bd 7a04 a9be 6861 57be
000002c0: 08b6 61bc 0c3c cebd 7850 a3be 38f4 c6bd
000002d0: 804d 50be 8d11 34bd 773a f43d 2059 9dbd
000002e0: b9a8 b13c e57a 573d 7cd6 2bbe 89bf 493c
000002f0: ec80 583d f0af ddbc 1f0f 0e3e 5afe 2a3e
00000300: 02db fbbd a075 acbd 613d 24bd 76cf 82be
00000310: 83fc 2e3c ac02 88be 145a d73d 7dca 1dbd
00000320: af4f 843d 5fe7 75be 8931 03bd dbe8 12be
00000330: 5751 9dbd 6fb3 63bc 062e 81bd 4384 4c3c
00000340: 403f 7ebe c8d1 983d e1cc 173e 49b5 75bd
00000350: 9b26 2d3d 73a2 9bbe 4fd0 3ebc 7918 a33d
00000360: 572c cfbe 78ba 613d de58 9abc 5068 b73d
00000370: e83a 9a3b 2169 413d f800 90be 8ad4 6dbd
00000380: 8270 c5bd cfa4 30be 9f79 18bb 01c9 fcbd
00000390: ff20 ad3b 4e9c e3bb 21e7 183d 14a1 a83d
000003a0: 50b5 57bd af9b a13e 99ab ffbb 46b2 a6bd
000003b0: d580 9fbd 3076 fc3c f397 233d 46e0 7dbd
000003c0: 99c9 393d e26f 1fbe 9089 20be 18ac c0bd
000003d0: 44c7 d7bc 5112 07be c05d 2bbe ac57 00be
000003e0: ba2a bb3c 181f a63c a6f7 56bd bd0a 50bd
000003f0: acae 14be 049a febd 973e 67be 9db1 d2be
-0.23138635 -0.2613381 0.13909246 0.10993046 -0.070360355 0.25454772 -0.08550678 -0.059253987
-0.14517386 -0.37278447 0.08850956 0.16720802 -0.11835875 -0.13603094 0.0076167034 -0.238295
-0.20711428 0.00043008063 -0.49768773 -0.05790101 -0.106670916 -0.17206772 -0.14481823 -0.08637879
-0.083328955 0.16087052 -0.029346839 0.06479285 -0.05413627 -0.29225454 -0.017949445 -0.3994796
-0.037750185 0.012763106 -0.088901736 -0.48900515 0.10763437 -0.19826216 -0.27728662 0.24452373
-0.6584197 -0.06034218 0.046618275 0.069378816 -0.07209876 0.12420044 -0.37455645 -0.037193395
0.017758869 0.33508873 -0.42150953 -0.51976395 0.035309304 0.03541461 0.30922383 0.12578696
0.012852856 -0.10821587 -0.004787373 -0.49481723 -0.057801917 -0.56688845 0.18230487 0.22916827
-0.24181888 0.062218007 -0.2089681 -0.032611564 0.024642954 -0.18021025 -0.04855852 0.1909015
0.008695871 -0.2226986 -0.25831574 0.19945444 -0.12156139 -0.044046655 -0.53630686 0.06972323
-0.063693106 -0.2596713 -0.4800955 -0.41733932 0.032225404 -0.41561365 0.081420325 -0.22948053
-0.12530887 -0.21628916 0.18533452 -0.3441893 0.0032074854 -0.30974728 -0.12274089 0.02238472
0.017004386 -0.5010094 -0.0982685 -0.358169 -0.073517166 0.022539262 -0.041083105 -0.19379544
-0.08103819 -0.036192317 -0.030320792 -0.2039116 -0.019873675 0.30788338 -0.058721516 0.0897116
0.12547994 -0.05883491 -0.17495072 -0.008383478 0.103577346 -0.12625156 0.031858735 -0.206416
-0.09763468 -0.18475804 0.06386755 0.05018225 -0.089824244 -0.41898987 -0.61177975 -0.47363558
-0.016595779 -0.07754447 -0.022536376 -0.0066905706 0.00380261 0.05823971 0.053860895 -0.039967153
-0.10700509 -0.12609488 0.095197774 0.07845571 -0.077982515 -0.038295623 0.06982411 -0.21044602
-0.116202705 0.048726536 -0.024580896 -0.0046739085 -0.11427375 -0.24714832 0.028966658 -0.14863314
-0.03503765 -0.07571687 -0.0022544723 -0.17648685 -0.053447478 -0.09121886 -0.038311556 -0.3682458
0.11806 0.119881555 -0.043693174 -0.15494524 -0.22263125 -0.22109234 0.10545075 0.042006996
-0.32251385 -0.09341401 0.34561127 0.050045677 -0.07762951 -0.0963058 -0.33011228 -0.21033251
-0.01377631 -0.10070047 -0.3189733 -0.0971455 -0.20342064 -0.04396205 0.11925214 -0.07683015
0.021686899 0.052607436 -0.16781038 0.012313732 0.052857324 -0.027061433 0.13872956 0.1669859
-0.12297632 -0.08420873 -0.040097598 -0.25548905 0.010680321 -0.26564538 0.10515228 -0.038523186
0.06460511 -0.24014042 -0.032029662 -0.1434664 -0.0768153 -0.013897761 -0.063076064 0.0124827055
-0.24828815 0.074618876 0.14824249 -0.05998734 0.042273145 -0.30397376 -0.011646344 0.07963652
-0.40463516 0.05510947 -0.018841203 0.08955443 0.004706729 0.0472194 -0.2812574 -0.05806402
-0.096406 -0.1725037 -0.0023265851 -0.12343026 0.0052834745 -0.006946123 0.037329797 0.08233848
-0.052663147 0.3156409 -0.0078024385 -0.08139472 -0.07788245 0.030818075 0.039939832 -0.061981462
0.045358274 -0.15570024 -0.15677476 -0.09407824 -0.026340134 -0.13190581 -0.16734982 -0.12533444
0.022847522 0.020278499 -0.05248227 -0.05079149 -0.14519757 -0.1243172 -0.2258247 -0.41151133

bias f4 [128]
00000000: 51ec b7bd 3727 04be 4401 e6be 5544 9bbc
00000010: 7d9c 66be a87d 23be db82 a1be 75b9 03be
00000020: a4b4 22be 2ef5 74bd c06f 8bbd 81f9 153c
00000030: eb59 c4bd 7e32 8cbd 9348 08be 2a7e 93be
00000040: a266 00be ce3f ba3d 5c87 dfbe c692 a8be
00000050: 4269 0bbe aa09 01be fddb 40be a2f4 07be
00000060: a58e ffbd 1e9d 9dbd 0c44 0cbe 4250 423c
00000070: 884a 4fbe 4e62 49bc 61e9 54b9 454a 53be
00000080: 2566 c1bd 0f73 bbbe e162 2dbb 3559 a9bd
00000090: 4c33 c1bd 534f 25be 8765 0fbe 0fbf 9ebe
000000a0: 4e87 72be 94eb 97be 314d 6dbe 49e1 d7be
000000b0: 09a0 4bbe f2ee 82be 3362 a7bd 4896 9abe
000000c0: bcc4 75be 0189 d6bd 4cc4 2abe ee8c 82bd
000000d0: e6c2 aabd e71c adbd 6c0f dfbd 3552 49be
000000e0: 6d5a 4cbe 0b26 6ebd 1b0f 18be f9cf 10be
000000f0: b44f 39be e384 abbd 7787 de3d 5c79 cabd
00000100: 7637 7dbe 4230 693d b79c 9dbd 6d90 36be
00000110: ca38 69be 2d6d 32be 387b ffbd 8719 29be
00000120: 1d54 22be 4e10 94be 607d 43be e9ff 79be
00000130: c3e8 e7bd 69de 51be 2355 d2bd 2c93 2f3c
00000140: 9eb7 94be 00f9 dfbd 3f18 42be 1f23 f3bd
00000150: 71c9 05be 6254 a2bd c762 c3be 5c14 2cbe
00000160: 6b64 17be 5675 5ebd 7c6f 26be 0cef 0fbe
00000170: 9319 adbe 179f c6bd 392b ebbe 6339 083e
00000180: e648 58bd 9488 5abe 46dd a2bc 74a8 c8bc
00000190: 6c14 91bd 390f dfbc fc4d cfbd 993b 61bd
000001a0: a851 673c f9a2 0abe e188 463d 8eef 19be
000001b0: 44a0 85bd fa15 b5be c2b1 f93b 4d29 c9bd
000001c0: 140e 29be 032f 65be 5af8 b73d a422 ffbd
000001d0: 7bad 733c c47e 8fbd 42e4 fabe d8ad fdbc
000001e0: 2aa0 0fbe 4b04 9c3c 5fcb ab3e c9c8 60be
000001f0: 449d 88be 6f45 1fbf 07a4 a1be 5474 60be
-0.08980621 -0.12905584 -0.4492284 -0.018953482 -0.22520633 -0.15965903 -0.31545147 -0.12863715
-0.15889221 -0.059804134 -0.06808424 0.009153725 -0.09587463 -0.06845568 -0.13308935 -0.28807193
-0.12539151 0.09094201 -0.43657959 -0.3292448 -0.13614371 -0.12601343 -0.18833919 -0.13276914
-0.12478379 -0.07695983 -0.13697833 0.011859955 -0.20243275 -0.012291504 -0.00020304836 -0.206338
-0.09443311 -0.3661122 -0.0026456641 -0.08268968 -0.09433612 -0.16143541 -0.14003573 -0.3100514
-0.23684427 -0.2967192 -0.23173977 -0.42164066 -0.19885267 -0.25572926 -0.08173027 -0.3019278
-0.2400083 -0.1047535 -0.16676444 -0.063745365 -0.08337955 -0.08452778 -0.10891613 -0.19660266
-0.1995637 -0.05814175 -0.14849512 -0.14141835 -0.1809681 -0.083749555 0.108656816 -0.09886429
-0.24728188 0.056930788 -0.076959066 -0.17828532 -0.2277557 -0.1742446 -0.12474674 -0.16513644
-0.15852399 -0.2891869 -0.19090796 -0.24414028 -0.11323693 -0.20494999 -0.10270145 0.010716241
-0.2904634 -0.10936165 -0.18954562 -0.11871933 -0.13065125 -0.07926251 -0.381613 -0.16804641
-0.147844 -0.05431112 -0.16253465 -0.14056033 -0.33808574 -0.09698313 -0.45931414 0.13303141
-0.052803896 -0.21341163 -0.019880902 -0.024494387 -0.07083973 -0.027228938 -0.10122296 -0.054988477
0.014118589 -0.13538732 0.04847038 -0.15032789 -0.06524709 -0.3536833 0.0076200673 -0.098223306
-0.16509277 -0.22381215 0.08982916 -0.12457779 0.014872904 -0.070066005 -0.49002272 -0.030966684
-0.14025941 0.019045016 0.33553597 -0.21951593 -0.26682484 -0.6221532 -0.31570455 -0.21919376
