nerf_models/fox_a4.pth (torch, 646074 bytes, 22 tensors)

weight f4 [128, 63]
0	0xbd8b79d3	-0.068103455
1	0x3d698a4f	0.057016667
2	0x3da93f0d	0.08263979
3	0x3df6168f	0.120160215
4	0xbde499c0	-0.11162138
5	0xbddb9f51	-0.107237466
6	0xbce3193c	-0.027721994
7	0x3b4a317a	0.0030852244
8	0xbc479cdc	-0.012183394
9	0xbdfcb158	-0.12338513
10	0x3d912117	0.070863895
11	0xbc2357b9	-0.009969645
12	0xbcd81b4a	-0.0263802
13	0x3dbe9a85	0.09306816
14	0xbd16459e	-0.036687486
15	0xbdbf92f6	-0.093542024
16	0x3d9e01c0	0.077151775
17	0xbdea98ec	-0.11454949
18	0xbd3a764c	-0.045522973
19	0xbbf45271	-0.007456117
20	0xbda007e4	-0.07814005
21	0xbd95ba6a	-0.07310946
22	0x3d1d731f	0.038439866
23	0x3db9e957	0.09077709
24	0xbde96f49	-0.11398179
25	0x3dd36659	0.10322256
26	0x3c6219db	0.01380011
27	0xbdf636e0	-0.12022185
28	0xbdb2a010	-0.08721936
29	0x3dcbdd29	0.09954292
30	0x3c93c7fa	0.018039692
31	0xbbb24fc7	-0.005441639
32	0x3b6964e0	0.0035613105
33	0x3d30b80c	0.04314427
34	0xba8e2b75	-0.0010846691
35	0x3d6e9bc8	0.058254033
36	0x3dcecfea	0.1009825
37	0xbdd08c41	-0.10183001
38	0xbde6b8d0	-0.11265719
39	0x3cf7e0dd	0.03025859
40	0xbd702828	-0.058632046
41	0x3e00071f	0.12502716
42	0x3c9d76b3	0.01922164
43	0xbcb02c1b	-0.021505406
44	0xbdf6549c	-0.12027857
45	0x3d470374	0.048587278
46	0x3dacd823	0.08439662
47	0xbdf3935b	-0.1189334
48	0xbd4d28b7	-0.050087657
49	0x3ce62f06	0.028098594
50	0x3daedc57	0.0853812
51	0x3d5f93e2	0.05458439
52	0x3cef2b10	0.029195338
53	0xbd337093	-0.04380853
54	0xbcdc38b5	-0.026882509
55	0xbd066088	-0.032806903
56	0x3c79cf26	0.015247142
57	0xbd58f578	-0.052968472
58	0x3d096fe1	0.03355396
59	0x3de2f9e9	0.11082823
60	0x3d88c3e7	0.066779904
61	0xbcdf64fc	-0.027269833
62	0x3da13c56	0.07872836
63	0xbc96b868	-0.018398479
64	0x3dc8d8f3	0.09807005
65	0x3dfdcac5	0.12392191
66	0x3dd9729f	0.10617565
67	0xbdcfb66b	-0.10142215
68	0x3d21502d	0.039383102
69	0x3da61cc6	0.08110957
70	0xbd96b181	-0.07358075
71	0x3db73f25	0.08947591
72	0x39991967	0.0002920136
73	0xbd3c377a	-0.045951344
74	0xbc8bf0ab	-0.017082533
75	0xbdb27e93	-0.08715548
76	0x3d960841	0.07325793
77	0xbdf81e69	-0.12115175
78	0x3d90f638	0.070782125
79	0x3d84a4af	0.064767234
80	0x3dddd725	0.10832051
81	0x3d2155fd	0.039388645
82	0x3df22028	0.118225396
83	0x3c520fd7	0.012821159
84	0x3db85705	0.09000973
85	0xbd7f04ab	-0.06226031
86	0xbdeb72e4	-0.11496523
87	0x3d78711f	0.060654756
88	0xbd233c15	-0.03985222
89	0xbdc45866	-0.09587173
90	0x3dfa44fe	0.122201905
91	0xbceaa5b4	-0.028643467
92	0x3c9c3e60	0.019072711
93	0xbd9f7c9d	-0.0778744
94	0xbd8def65	-0.069304265
95	0xbdc93a0e	-0.09825526
96	0xbde82a75	-0.11336223
97	0xbde86a0e	-0.11348353
98	0xb9c9cb2d	-0.00038489085
99	0xbd2cec00	-0.042217255
100	0x3d14ac50	0.036297143
101	0xbd87f8f2	-0.066392794
102	0xbd122ecc	-0.03568916
103	0x3daf09b6	0.08546774
104	0x3cdf220e	0.027237918
105	0x3dd8bc35	0.10582773
106	0x3d7765f6	0.060399972
107	0xbdfd1697	-0.12357824
108	0xbde14f2c	-0.11001429
109	0x3db510a6	0.08841066
110	0x3ca1880e	0.019718196
111	0xbd9092db	-0.070592605
112	0x3d571611	0.05251128
113	0x3d9e1551	0.077189095
114	0xbd497c32	-0.049190708
115	0x3d2893bb	0.04115651
116	0x3dd86fc2	0.10568191
117	0x3d683106	0.056687377
118	0x3cd1aedc	0.025596075
119	0xbd264037	-0.040588584
120	0x3d0248b8	0.03180763
121	0x3d0d6be1	0.03452671
122	0x3dda06c3	0.10645821
123	0x3d942557	0.072336845
124	0x3d401c70	0.04690212
125	0x3d30046b	0.042972963
126	0x3d5de858	0.05417666
127	0x3b6dcc78	0.0036285203
128	0x3de15d2c	0.11004099
129	0x3d78bbc5	0.060725946
130	0xbd008454	-0.031376198
131	0xbce82106	-0.02833606
132	0xbdd261f4	-0.10272589
133	0x3d556cdc	0.05210577
134	0x3d20d6a1	0.039267186
135	0xbbcfaea0	-0.0063379556
136	0x3c65fecd	0.0140378
137	0xbd843435	-0.0645527
138	0xbd96f293	-0.07370486
139	0x3d4e2d05	0.050335903
140	0xbc661be7	-0.014044738
141	0xbda50db4	-0.08059254
142	0x3ddbbee0	0.10729766
143	0xbd4aac89	-0.04948095
144	0xbc53296c	-0.012888294
145	0x3c29f139	0.010372453
146	0xbcc41382	-0.023935083
147	0xbd8a36d8	-0.06748742
148	0xbd062087	-0.032745864
149	0x3e00172e	0.12508842
150	0xbd7766e0	-0.060400844
151	0xbd81178b	-0.063033186
152	0x3d258a83	0.0404153
153	0x3ccdbabc	0.025113456
154	0xbde72fc9	-0.11288411
155	0x3b4d1446	0.0031292601
156	0x3d6e1787	0.058127906
157	0xbd989e1a	-0.074520305
158	0xbd1adb63	-0.03780688
159	0x3ddf6b9b	0.10909196
160	0x3da89132	0.08230819
161	0x3de4d831	0.11174048
162	0x3dca0e07	0.09865957
163	0xbdcf21e3	-0.10113885
164	0x3dbbc531	0.09168471
165	0xbd0356f7	-0.032065358
166	0x3de14224	0.109989434
167	0xbc98ba00	-0.01864338
168	0xbd44e5f9	-0.04807088
169	0x3da458c3	0.080247425
170	0x3ca6824c	0.020325802
171	0x3da49f7b	0.08038231
172	0xbcfdd048	-0.030983105
173	0xbd19cefc	-0.03755091
174	0x3d73556d	0.05940764
175	0x3cde5010	0.027137786
176	0x3d9f55fb	0.07780071
177	0x3d93d177	0.072176866
178	0x3da84527	0.08216315
179	0xbd657f75	-0.056029756
180	0x3d9631e2	0.07333733
181	0x3ddbeac5	0.10738138
182	0x3cdaf717	0.02672915
183	0xbd854dd6	-0.06508987
184	0xbdc7a35f	-0.097479574
185	0xbd8648a0	-0.06556821
186	0x3defe99b	0.117144786
187	0xbd768db8	-0.060193747
188	0xbcce9e0c	-0.025221847
189	0x3de08e98	0.109646976
190	0x3dacc471	0.08435906
191	0x3e00c78e	0.12576124
192	0x3c6b1b40	0.014349759
193	0x3cf99366	0.030465793
194	0xbc5708c3	-0.013124648
195	0x3df14c20	0.11782098
196	0x3d2a6240	0.041597605
197	0xbbf406b9	-0.0074470905
198	0xbc93a564	-0.0180232
199	0x3cfd32f4	0.030908085
200	0x3db1eb2f	0.08687436
201	0x3dda01f1	0.106449015
202	0x3dd1ec41	0.1025014
203	0x3df153c0	0.11783552
204	0xbc88fcbd	-0.016722078
205	0xbddc0b74	-0.10744372
206	0x3d243529	0.04008976
207	0x3c29936c	0.0103500895
208	0x3d036570	0.03207916
209	0xbdba7ad5	-0.091054596
210	0xbdf7e05a	-0.121033385
211	0x3dcd9439	0.10038037
212	0x3d4f6589	0.05063394
213	0x3b826633	0.0039794683
214	0x3cf5c3a6	0.030000519
215	0x3cb6d3f0	0.022317857
216	0xbd92273b	-0.07136389
217	0xbdd56b1a	-0.104208186
218	0xbd13dfc9	-0.03610209
219	0x3c8c70c4	0.017143615
220	0xbc531acf	-0.01288481
221	0xbdcdfbbe	-0.10057782
222	0xbd0421ca	-0.032258786
223	0xbd094b8c	-0.033519313
224	0xbdb20286	-0.086918876
225	0x3d8c1f39	0.06841893
226	0xbd961437	-0.073280744
227	0xbd973884	-0.073838264
228	0x3dc78561	0.09742237
229	0xbce927ad	-0.028461302
230	0x3d631db1	0.055448238
231	0x3d650ad7	0.05591854
232	0xbd864d9a	-0.0655777
233	0x3d7a0e89	0.061049018
234	0x3d20edf0	0.039289415
235	0xbda9d3f6	-0.082923815
236	0x3ccb2dad	0.024802053
237	0x3ca5b3f6	0.020227414
238	0xbdd203d3	-0.10254636
239	0xbdef0c0c	-0.1167222
240	0x3d408393	0.04700048
241	0x3d31a73c	0.043372378
242	0x3da49dfc	0.08037946
243	0xbd964e19	-0.07339115
244	0xbe005a02	-0.12534335
245	0x3da36960	0.07979083
246	0xbdec44f8	-0.11536592
247	0x3d4f9704	0.05068113
248	0x3db41ef1	0.08794964
249	0xbd52ff60	-0.051513076
250	0xbdd01432	-0.10160102
251	0x3dc4ca27	0.0960887
252	0xbdf34bcc	-0.118796915
253	0x3db38138	0.08764881
254	0x3dc0f7f1	0.09422291
255	0x3dade398	0.08490676

bias f4 [128]
0	0x3dca70f2	0.09884824
1	0x3dde13c7	0.10843616
2	0xbdf41d89	-0.11919696
3	0xbcaec102	-0.021332268
4	0x3d48bfb0	0.049010932
5	0x3d892d4f	0.06698095
6	0x3dfbfb83	0.123038314
7	0x3d8d4457	0.068978004
8	0xbda65064	-0.08120802
9	0x3dec46ab	0.11536916
10	0x3df431d0	0.119235635
11	0x3da3e543	0.080027126
12	0xbdd0fa9e	-0.102040514
13	0xbd284823	-0.04108442
14	0xbd198aab	-0.03748576
15	0x3d37aedc	0.044844493
16	0xbc8f63b0	-0.01750359
17	0x3cd32730	0.025775522
18	0x3d24ee1d	0.040266145
19	0xbce73310	-0.02822259
20	0xbdb89669	-0.090130635
21	0xbda0e93f	-0.07856988
22	0xbd76e2c7	-0.060274865
23	0x3db76e44	0.089565784
24	0x3d81f7fe	0.06346129
25	0xbc0853da	-0.008320773
26	0x3cae826c	0.021302424
27	0xbd6345b1	-0.055486385
28	0x3dc3f349	0.09567887
29	0x3db38177	0.08764928
30	0xbd4697ec	-0.048484728
31	0x3c298da1	0.010348708
32	0x3dc542cf	0.09631883
33	0x3d222dfb	0.03959463
34	0xbdbb23a8	-0.0913766
35	0x3dc20a05	0.09474567
36	0xbd1254b4	-0.03572531
37	0xbd76c988	-0.06025079
38	0x3dfff3a9	0.12497646
39	0x3d4c303c	0.049850687
40	0x3d148505	0.03625967
41	0xbd1267ef	-0.03574365
42	0xbc34af5b	-0.011028136
43	0x3c00a054	0.007850725
44	0xbdf09fe3	-0.11749246
45	0xbd5a2664	-0.05325927
46	0x3d8fa470	0.07013786
47	0x3cafc43b	0.021455875
48	0x3c935e56	0.017989319
49	0x3bf6071e	0.0075081727
50	0xbdf2ff6c	-0.11865124
51	0x3cd33308	0.02578117
52	0xbcfdc396	-0.030977052
53	0xbdc9a069	-0.09845049
54	0x3defc5e1	0.11707664
55	0x3ce38e77	0.027777893
56	0xbdf789c4	-0.120868236
57	0x3de48b73	0.1115941
58	0xbddf5842	-0.10905506
59	0x3bcf8226	0.0063326536
60	0xbdf4a93f	-0.11946344
61	0x3d4e2a88	0.05033353
62	0xbd9daccf	-0.07698976
63	0x3b3fb5ae	0.0029252577
64	0x3df603ad	0.1201242
65	0x3d39480d	0.04523473
66	0x3cccb82d	0.024990166
67	0x3c7d8c78	0.015475385
68	0x3de962fe	0.113958344
69	0x3c75df4e	0.015006853
70	0xbd856efd	-0.0651531
71	0xbde3901f	-0.11111473
72	0xbb145e68	-0.0022639278
73	0xbd0cfe71	-0.03442234
74	0x3ccd3816	0.025051158
75	0xbdfb8927	-0.12282019
76	0xbc4d2599	-0.012521171
77	0x3d02bdeb	0.0319194
78	0x3d1ebdd3	0.03875525
79	0x3d03128d	0.032000113
80	0xbdfde9d3	-0.12398114
81	0x3cfe814b	0.031067511
82	0x3cac59d7	0.021038933
83	0x3de8df9a	0.113707736
84	0xbd2027e6	-0.03910055
85	0x3bcabb90	0.00618691
86	0xbd8d3c45	-0.06896261
87	0x3dfe9e19	0.124324985
88	0x3cc86b93	0.024465358
89	0xbd848392	-0.064704075
90	0x3d2b588e	0.0418325
91	0xbd37311b	-0.044724565
92	0x3d083cc4	0.033261076
93	0x3dcbdf6a	0.09954722
94	0xbd51a64b	-0.05118398
95	0xbd93d53c	-0.072184056
96	0x3ddaa4f4	0.106759936
97	0x3c9dbbc5	0.019254575
98	0x3b212fa4	0.0024595046
99	0x3cfa04a9	0.0305198
100	0x3d1b34d2	0.03789217
101	0x3dbe523a	0.09293027
102	0x3ccd206e	0.025039878
103	0x3d759413	0.059955668
104	0xbd883ca2	-0.0665219
105	0xbd874579	-0.06605048
106	0x3dffc982	0.124896064
107	0x3da79b7b	0.081839524
108	0xbd8c6ed3	-0.068570755
109	0x3d63c264	0.055605307
110	0xbd2e6a78	-0.042582005
111	0x3db6e619	0.089306064
112	0x3d9d770f	0.07688724
113	0xbda292ef	-0.079381816
114	0x3cc69b67	0.024244023
115	0x3d62231e	0.05520927
116	0xbd890fb2	-0.06692447
117	0xbdb240fb	-0.087038
118	0xbd798f15	-0.06092747
119	0x3dd08255	0.10181109
120	0x3df4570e	0.11930667
121	0x3c818a9a	0.01581316
122	0x3c771e9f	0.015082984
123	0x3d5a8116	0.053345762
124	0x3de457e2	0.11149575
125	0x3da87466	0.08225326
126	0xbb46a091	-0.0030308107
127	0xbdecc0b6	-0.11560194

weight f4 [128, 128]
0	0x3d232077	0.039825883
1	0x3d376c9b	0.04478131
2	0x3d81171b	0.06303235
3	0x3b69a1eb	0.003564949
4	0x3b3d607a	0.0028896616
5	0x3d39d33d	0.04536747
6	0xbd48d41f	-0.04903042
7	0xbd549139	-0.051896308
8	0xbd85db9f	-0.0653603
9	0xbd3425d6	-0.043981396
10	0x39b3ecef	0.0003431807
11	0x3db4797a	0.08812232
12	0xbd3048d6	-0.04303821
13	0xbd0d289d	-0.03446256
14	0x3c72d1b6	0.014820507
15	0xbc9dd8cf	-0.019268421
16	0x3afeb8ae	0.0019433701
17	0x3d992bbe	0.07479046
18	0x3b62d6ca	0.0034612888
19	0xbcaf23b2	-0.021379326
20	0x3d4e86cb	0.050421517
21	0x3d80d5d7	0.06290787
22	0x3d1a7320	0.037707448
23	0xbda31cfe	-0.07964514
24	0xbc951c46	-0.018201958
25	0x3d298c86	0.04139378
26	0x3d2a95fa	0.041646935
27	0x3c869e2d	0.016432846
28	0xbd47fec3	-0.048826944
29	0xbdb07b0c	-0.08617219
30	0xbd9c1e69	-0.07622988
31	0xbcc91340	-0.024545312
32	0x3cbeec5e	0.023306068
33	0xbd8b10b4	-0.06790295
34	0x3ca52a00	0.020161629
35	0xbd6f6a75	-0.058451135
36	0xbd10a7ec	-0.035316393
37	0x3d644e6e	0.05573886
38	0xbd20675f	-0.039161082
39	0x3ce3072f	0.027713386
40	0xbd80f348	-0.06296402
41	0x3d2b542a	0.041828312
42	0xbd87fd3f	-0.066401
43	0xbd8608ff	-0.065446846
44	0xbd0649b0	-0.032785118
45	0xbd4f2833	-0.050575446
46	0xbd8c5ec2	-0.06854011
47	0xbdb27d85	-0.08715347
48	0x3cf4bde1	0.029875698
49	0xbcb8133b	-0.022470107
50	0xbbfae2dd	-0.0076564387
51	0xbdb3720f	-0.08761989
52	0xbd7e641d	-0.062107194
53	0x3dac0e69	0.08401186
54	0xbd5eb744	-0.054373994
55	0xbd7597a6	-0.059959076
56	0x3d4f12b9	0.050554965
57	0x3c5f089e	0.013612894
58	0xbd1a8631	-0.03772563
59	0x3da846b1	0.08216608
60	0xbd91f813	-0.071273945
61	0x3d6ad572	0.057332464
62	0xbcb12fd7	-0.021629257
63	0xbc3ca0e5	-0.01151297
64	0x3c2f67c1	0.010705889
65	0x3da7afa4	0.08187798
66	0x3c86e274	0.016465403
67	0xbda82e01	-0.082118995
68	0x3bd44dd1	0.006479003
69	0xbd897896	-0.06712453
70	0xbd31e3d5	-0.04343017
71	0x3ca24708	0.019809261
72	0x3db4fd9a	0.08837433
73	0x3ce5d902	0.028057579
74	0x3d00963b	0.03139327
75	0x3d6f0f62	0.05836428
76	0xbd6868e7	-0.056740668
77	0x3d913b6a	0.070914105
78	0x3cdb72a3	0.026788061
79	0xbc6104a1	-0.013734014
80	0xbd9b0645	-0.07569555
81	0xbd9311c7	-0.07181125
82	0xbc7a5cc7	-0.015280909
83	0xbc4def2f	-0.012569233
84	0x3d409023	0.04701246
85	0xbcf49802	-0.02985764
86	0xbd4dc922	-0.050240643
87	0xbd9249ce	-0.071429834
88	0xbd0202ff	-0.03174114
89	0xbccc24d3	-0.024919903
90	0x3da79800	0.081832886
91	0xbd8b46ed	-0.068006374
92	0xbd5060cc	-0.050873563
93	0x3da9f43c	0.08298537
94	0xbda040ba	-0.078248456
95	0x3d5722bc	0.05252336
96	0x3d9505c8	0.07276493
97	0x3ce7d472	0.028299544
98	0xbdaaa0e3	-0.08331468
99	0xbd8c8391	-0.06861032
100	0xbd9aed0d	-0.07564745
101	0x3cea5997	0.028607173
102	0x3b9a6c38	0.0047126077
103	0xbca531a6	-0.020165276
104	0x3d463461	0.048389796
105	0xbccc2e43	-0.024924403
106	0xbcac34d6	-0.021021288
107	0x3d8b42c5	0.06799845
108	0xbd91a1c0	-0.071109295
109	0x3c9a63b0	0.018846363
110	0xbcc79931	-0.02436504
111	0xbcbcd7a7	-0.02305205
112	0xbd575d75	-0.052579362
113	0xbd873dcb	-0.06603583
114	0xbb620741	-0.0034489187
115	0x3cb1893e	0.021671887
116	0xbd5a121d	-0.05323993
117	0xbd0ecf74	-0.03486581
118	0x3d4d6388	0.05014375
119	0x3cf2d397	0.02964191
120	0x3bb56085	0.0055351877
121	0xbc917652	-0.017756615
122	0x3d45f408	0.04832843
123	0xbc9a8355	-0.018861452
124	0x3c4ed48d	0.012623918
125	0x3d551f1f	0.052031633
126	0x3cc2ecfd	0.023794645
127	0x3c4a5841	0.012350143
128	0x3d56c952	0.052438088
129	0xbaf66d97	-0.0018800971
130	0xbd361f24	-0.04446329
131	0xbdacb985	-0.084338225
132	0xbcec2d35	-0.02883015
133	0xbd014704	-0.031561866
134	0x3d344032	0.044006534
135	0x3d38f516	0.045155607
136	0xbb444fd9	-0.002995482
137	0xbb9a5006	-0.0047092466
138	0xbd1452b7	-0.036211696
139	0xbbec105a	-0.0072040977
140	0xbd220069	-0.039551172
141	0xbca64752	-0.02029768
142	0x3ce927b3	0.028461313
143	0x3c5bfed8	0.013427459
144	0x3d271c9d	0.040798772
145	0xbda141f0	-0.07873905
146	0x3d4039b4	0.04693003
147	0xbd5c6c5e	-0.053814285
148	0xbb21e579	-0.0024703427
149	0x3cc2d399	0.023782538
150	0xbcdbf8db	-0.026852062
151	0x3d20f7f3	0.039298963
152	0x3d36525f	0.04451215
153	0xb91a80b9	-0.00014734537
154	0x3d45ffdb	0.048339706
155	0xbcba0c4e	-0.022710945
156	0xbc896044	-0.016769536
157	0xbc0dd3f2	-0.008656489
158	0x3d141d05	0.036160488
159	0x3cd8b1be	0.026451942
160	0x3d3cc9bb	0.046090823
161	0x3da301fa	0.079593614
162	0x3bb6f7e7	0.0055837515
163	0xbc97959a	-0.018503953
164	0x3d8f7e68	0.07006532
165	0x3cbd2323	0.023088044
166	0xbb25f6dd	-0.0025324144
167	0xbcfb5707	-0.030681146
168	0x3c2fb896	0.010725161
169	0xbd53d69a	-0.051718332
170	0x3db39959	0.08769483
171	0xbd97c96c	-0.07411465
172	0x3da88b37	0.08229678
173	0xbd187163	-0.03721751
174	0xbd04e9fd	-0.03244971
175	0xbd916f44	-0.071013
176	0xbd035912	-0.032067366
177	0x3af722f7	0.0018855025
178	0xbcb6ab39	-0.022298442
179	0xbc0e613c	-0.008690175
180	0xbd6b1b15	-0.057398874
181	0xbd83e1c5	-0.064395465
182	0xbd508ccb	-0.05091552
183	0x3d07f429	0.033191834
184	0x3d65e123	0.05612291
185	0xbd2220c8	-0.039582044
186	0xbdb26546	-0.087107226
187	0x3d94206b	0.07232746
188	0x3d9967e9	0.074905224
189	0xbcdaf6eb	-0.026729068
190	0xbd27710e	-0.0408793
191	0xbd2d848c	-0.042362735
192	0xbcbfb952	-0.023403797
193	0x3d623244	0.05522372
194	0x3d282a0d	0.041055728
195	0xbc76273c	-0.015024003
196	0x3bd6d762	0.0065564374
197	0xbb1b3838	-0.0023684632
198	0xbcbe8abe	-0.023259517
199	0x3d435306	0.0476866
200	0x3d5d8b9c	0.05408822
201	0xbc55f34c	-0.013058495
202	0x3d879ed9	0.06622095
203	0xbd49ecf7	-0.049298253
204	0x3cb0fa74	0.0216038
205	0x3d96172c	0.073286384
206	0xbc05769b	-0.0081459535
207	0xbb12a5b6	-0.0022376603
208	0xbd3f0625	-0.04663672
209	0xbd340727	-0.043952134
210	0x3cc5690e	0.024097946
211	0x3d94db7d	0.072684266
212	0x3d6120d3	0.054962944
213	0x3d691269	0.056902323
214	0xbdac35a7	-0.08408671
215	0xbbed682e	-0.007245085
216	0xbbab2374	-0.005222732
217	0x3b950ccf	0.004548646
218	0xbd92a783	-0.071608566
219	0xbd4636d8	-0.048392147
220	0x3d44d791	0.048057143
221	0x3d059ecf	0.032622155
222	0x3cd0d0a2	0.025490109
223	0x3d562e98	0.05229053
224	0x3d962986	0.07332139
225	0x3dad19bb	0.08452173
226	0x3d994b03	0.074850105
227	0x3dac4944	0.08412412
228	0xbc76a23a	-0.015053326
229	0xbd763725	-0.060111184
230	0xbcc4ed5b	-0.024038961
231	0xbd9f1b40	-0.077688694
232	0xbda6f519	-0.081522174
233	0x3db190ef	0.08670222
234	0xbcf099a4	-0.029370137
235	0x3db21d4f	0.086969964
236	0xbd10961a	-0.035299398
237	0x3a036e43	0.00050136837
238	0xbd336c0b	-0.04380421
239	0x3d6e48b0	0.05817479
240	0xbb83d94d	-0.004023707
241	0x3c83dcd0	0.016096503
242	0xbd1061f1	-0.035249654
243	0x3da63382	0.08115293
244	0xbdab24ed	-0.083566524
245	0xbda9a440	-0.08283281
246	0xbd2cb7e5	-0.042167563
247	0xbce2e04b	-0.027694842
248	0xbd43eafc	-0.04783152
249	0x3d6ff54e	0.05858355
250	0xbb4ce41f	-0.00312639
251	0x3c4a300a	0.012340555
252	0x3d35ecba	0.044415213
253	0x3d8195b4	0.06327382
254	0x3d9ab04a	0.07553156
255	0xbd7c1ab5	-0.061548907

bias f4 [128]
0	0x3d2d3a03	0.042291652
1	0xbc1e11ff	-0.009647845
2	0x3c96ee26	0.018424105
3	0xbd354469	-0.044254694
4	0xbccfa564	-0.02534742
5	0xbd9e5dff	-0.07732772
6	0x3c91008b	0.017700454
7	0xbd7ff5d1	-0.06249029
8	0x3cac0f3a	0.021003354
9	0xbd45a906	-0.048256896
10	0x3da546fe	0.08070181
11	0xbce67e3a	-0.028136361
12	0x3cf4647a	0.029833067
13	0x3d987e88	0.07446009
14	0x3d934d4d	0.07192478
15	0x3d1456a1	0.03621543
16	0x3d07623e	0.033052675
17	0x3db30b30	0.08742368
18	0x3d926b04	0.07149318
19	0xbae6ab32	-0.0017598628
20	0x3b5e7b54	0.003394802
21	0x3d93bf24	0.072141916
22	0x3c317d39	0.010833078
23	0xbd62df9b	-0.055389028
24	0x3db0ec5f	0.08638834
25	0x3d41f3e9	0.04735175
26	0xbd0f7d75	-0.035031755
27	0x3875f0c9	5.86368e-05
28	0x3dae08c8	0.08497769
29	0xbd764615	-0.06012543
30	0xbd225dcd	-0.039640237
31	0x3c16c090	0.009201184
32	0xbd6e7021	-0.058212403
33	0x3d0da4e3	0.034581076
34	0x3b9095c5	0.004412385
35	0x3d87b1b1	0.06625689
36	0xbd36ea06	-0.044656776
37	0xbd49bfcc	-0.049255177
38	0x3c9fb906	0.019497406
39	0xbd48bf9a	-0.04901085
40	0xbc7476b5	-0.01492088
41	0xbbe23e25	-0.006904381
42	0xbd945b32	-0.072439566
43	0xbda16340	-0.078802586
44	0xbd06ab36	-0.032878123
45	0x3b355233	0.0027667403
46	0xbd98d1bb	-0.07461878
47	0xbd0d648b	-0.034519713
48	0xbd34abf7	-0.04410931
49	0xbcfea55e	-0.031084713
50	0xbda761cf	-0.081729524
51	0x3d0dd6cb	0.03462867
52	0x3c59a29f	0.013283401
53	0x3d192cfb	0.037396412
54	0x3dac3ad7	0.0840966
55	0xbda0de6f	-0.07854926
56	0xbd25294e	-0.040322594
57	0xbc868b53	-0.016423857
58	0x3c9f782b	0.01946648
59	0x3a72702d	0.0009248283
60	0x3d8e1cbb	0.06939074
61	0x3d03ba46	0.032160066
62	0x3c7c72c6	0.0154082235
63	0x3d5fe413	0.054660868
64	0x3c8ad85b	0.01694887
65	0x3d2773c6	0.040881895
66	0xbbc2ee4b	-0.005948817
67	0xbd817ad7	-0.06322258
68	0xbbf63b08	-0.0075143613
69	0xbd5a0283	-0.05322505
70	0x3cb97b2b	0.022641739
71	0x3d897219	0.067112155
72	0xbc1d156d	-0.009587628
73	0x3b7d4463	0.0038645498
74	0x3c821eb2	0.015883777
75	0x3d9471d0	0.072482705
76	0x3d8519cf	0.06499063
77	0xbd7fc58c	-0.062444255
78	0x3bd66b32	0.0065435404
79	0x3cf87989	0.03033139
80	0xbd8e6774	-0.06953326
81	0xbc85527f	-0.016274689
82	0xbd9f6529	-0.07782967
83	0xbd5d9432	-0.05409641
84	0x3bea3697	0.007147621
85	0x3c05ce81	0.00816691
86	0xbd3078f7	-0.04308411
87	0xbd5e80fc	-0.054322228
88	0xbd602351	-0.05472118
89	0xbd5f9aa3	-0.054590832
90	0x3c1572ad	0.009121579
91	0x3d088b23	0.033335816
92	0x3c726515	0.014794608
93	0x3d968db2	0.07351245
94	0xbbafddc1	-0.0053670113
95	0xbc522cfe	-0.01282811
96	0xbab087e7	-0.0013468236
97	0xbce4ffa9	-0.02795394
98	0xbda15600	-0.07877731
99	0x3d73022c	0.059328243
100	0x3c9d9131	0.019234272
101	0x3d102ee5	0.035200972
102	0x3d74c910	0.05976206
103	0xbd4cdaba	-0.05001328
104	0x3da26b85	0.07930664
105	0xbc7a8066	-0.015289402
106	0x3da7ad11	0.08187307
107	0xbc62da3d	-0.013845977
108	0xbd6eec51	-0.058330838
109	0xbd2200c3	-0.039551508
110	0xbd1155ea	-0.035482325
111	0x3d81ed48	0.06344086
112	0x3d60de6d	0.05489962
113	0xbc683ff8	-0.014175408
114	0x3d16b5ca	0.03679446
115	0x3cdd62e5	0.027024696
116	0xbd4c2c3a	-0.049846865
117	0x3d865c86	0.06560616
118	0xbd7cecf9	-0.061749432
119	0xbd1cf506	-0.03831961
120	0xbcdc069f	-0.026858626
121	0x3c832e34	0.016013242
122	0x3d82f1f0	0.06393802
123	0x3d2e5b44	0.042567506
124	0x3d0933df	0.033496734
125	0xbd3c9617	-0.046041574
126	0xbd66853e	-0.056279413
127	0xbd893f08	-0.067014754

weight f4 [128, 128]
0	0x3cac6404	0.021043785
1	0x3d3a9149	0.04554871
2	0x3c66b19a	0.014080429
3	0x3d535ae5	0.051600356
4	0x3dad104b	0.08450373
5	0xbd6daa9b	-0.05802403
6	0xbd466cc3	-0.048443567
7	0x3c178f91	0.0092505375
8	0x3b73455e	0.0037120203
9	0x3d7409a0	0.05957949
10	0x3da68d70	0.08132446
11	0x3b502216	0.0031758598
12	0x3d89f06a	0.067353085
13	0x3da2b60b	0.07944878
14	0xbd3f4744	-0.046698824
15	0xbb8656ab	-0.004099687
16	0x3cddd074	0.027076937
17	0xbd1dd313	-0.038531374
18	0x3b29ed90	0.0025928952
19	0x3cbc62d3	0.022996342
20	0xbb041551	-0.0020154307
21	0xbd0dd674	-0.034628347
22	0xbc8cb23b	-0.01717483
23	0xbc6082ca	-0.013703058
24	0x3d14cb5e	0.03632676
25	0x3c1bc253	0.00950678
26	0x3ccc1ff1	0.024917575
27	0xbdac79c6	-0.08421664
28	0x3d3286b2	0.043585487
29	0x3cb88a83	0.022526985
30	0x3b952890	0.0045519546
31	0x3d12570f	0.035727557
32	0x3d10438f	0.03522068
33	0x3da64189	0.081179686
34	0xbd1e1353	-0.038592648
35	0x3ce21e3c	0.027602307
36	0xbd97295a	-0.07380934
37	0x3d0513c9	0.03248957
38	0xba198cc6	-0.00058574637
39	0xbc6db8bf	-0.014509379
40	0x3d987f1e	0.07446121
41	0xbd0900af	-0.033447918
42	0xbd34574d	-0.04402857
43	0x3ca420ed	0.020035231
44	0x3c3279e1	0.010893316
45	0xbd4a2ca6	-0.049358986
46	0x3d3f860b	0.046758693
47	0xbd8833ac	-0.06650481
48	0x3c8cc0d6	0.017181795
49	0x3d62a827	0.055336144
50	0xbd9a0109	-0.07519729
51	0xbd9e4d49	-0.07729585
52	0x3c4fb4c0	0.0126773715
53	0xbd8ef4ee	-0.069803104
54	0xbd8b77c1	-0.068099506
55	0x3d92badf	0.07164549
56	0xbc6e0e16	-0.014529726
57	0xbbd00244	-0.0063479263
58	0x3d81c4d4	0.0633637
59	0xbda9c4ac	-0.08289465
60	0xbd4fdfa7	-0.0507504
61	0x3d86452c	0.06556162
62	0x3d5aef73	0.053451013
63	0x3d8197a3	0.063277505
64	0x3d6c43b1	0.057681743
65	0xbd65506c	-0.0559849
66	0xbd7294b4	-0.059223846
67	0x3d1f7cf1	0.038937513
68	0x3cbad777	0.02280782
69	0xbd536e9d	-0.05161916
70	0xbcf93222	-0.030419413
71	0x3d9d85bf	0.07691526
72	0x3c7e3227	0.015514887
73	0xbc9e480c	-0.019321464
74	0xbd69ebb1	-0.05710954
75	0x3d8319a7	0.06401377
76	0xbcc2eb99	-0.023793982
77	0xbcd44c9a	-0.025915433
78	0xbd1e9629	-0.038717423
79	0x3cdf1153	0.02722994
80	0x3d923277	0.07138532
81	0xbdab2083	-0.083558105
82	0x3d12d645	0.035848875
83	0x3db02564	0.08600882
84	0x3cf5c5a7	0.030001475
85	0xbd3f7000	-0.04673767
86	0xbcfa5565	-0.030558297
87	0x3cb2c2c2	0.021821383
88	0xba386fa4	-0.0007035679
89	0x3d7f5ef6	0.06234642
90	0x3db2ebd3	0.08736386
91	0x3d488c2c	0.048961803
92	0x3d645cfb	0.055752736
93	0x3d7fe4bf	0.06247401
94	0x3db13e43	0.086544536
95	0xbb927f71	-0.0044707586
96	0xbc99efc4	-0.018791087
97	0xbd6d496f	-0.05793136
98	0x3d8dffa5	0.06933526
99	0xbda4300c	-0.08016977
100	0x3d6f6891	0.05844933
101	0x3c607e5e	0.013702003
102	0x3ca85d46	0.020552289
103	0xbab16a87	-0.0013535776
104	0x3cc16a8e	0.02361038
105	0xbd31dc51	-0.043423
106	0x3d6f705b	0.05845676
107	0xbcf60e38	-0.030036077
108	0x3ce7153d	0.02820837
109	0x3cafb770	0.021449775
110	0x3c88588f	0.01664379
111	0x3c8f604d	0.017501974
112	0x3bd9fda9	0.006652553
113	0x3d26edb9	0.040754054
114	0xbc376d48	-0.011195488
115	0xbd29c79f	-0.04145014
116	0x3d78de25	0.06075873
117	0x3d674ca5	0.05646958
118	0x3cb2d0ca	0.021828074
119	0x3d61d1d8	0.055131763
120	0xbda89ae1	-0.08232666
121	0x3daed169	0.085360356
122	0xbd13f082	-0.036118038
123	0x3d35b16b	0.044358652
124	0xbcfd65b6	-0.030932289
125	0x3da29e0b	0.079403006
126	0xbd7041ed	-0.05865662
127	0xbd9188b3	-0.071061514
128	0xbc667717	-0.014066479
129	0x3bc63108	0.0060483254
130	0xbd9a1fff	-0.07525634
131	0x3c236e50	0.009975031
132	0x3d5cb8ea	0.053887285
133	0xbb438c55	-0.0029838283
134	0xbd26fcef	-0.04076856
135	0xbd8d2f3d	-0.068937756
136	0xbc41a7a7	-0.011819757
137	0x3d2cc741	0.04218221
138	0x3d0cf8b8	0.034416884
139	0x3d9ba769	0.0760029
140	0x3dae2bb3	0.08504429
141	0xbd85da68	-0.06535798
142	0xbb62b013	-0.0034589812
143	0xbd7bb348	-0.061450273
144	0x3ca3d79b	0.02000027
145	0x3d990217	0.07471102
146	0x3d1535e6	0.036428355
147	0xb97401d0	-0.00023270329
148	0x3d4cf77d	0.05004071
149	0x3c17efa5	0.009273444
150	0x3ce00f8d	0.027351165
151	0xbd9eeb62	-0.077597395
152	0x3da3ca65	0.07997588
153	0x3d034006	0.03204348
154	0x3da44296	0.08020513
155	0xbd877365	-0.06613807
156	0x3d8eff9a	0.06982346
157	0xbdac1b88	-0.08403689
158	0x3d1f4bbb	0.03889058
159	0x3cd70d47	0.026251448
160	0xbd97d96f	-0.07414519
161	0x3d7deb63	0.06199206
162	0x3c0b78f5	0.008512725
163	0x3d3296a4	0.043600693
164	0x3d862ce0	0.06551528
165	0x3c8695a5	0.016428778
166	0x3c88542f	0.016641704
167	0x3d0f7843	0.0350268
168	0xbc903f0f	-0.017608194
169	0x3d124e71	0.03571934
170	0xbd18b6b5	-0.037283618
171	0x3ad9499d	0.0016577725
172	0x3cb3157d	0.021860832
173	0xbd5a9767	-0.053367045
174	0x3aa5b6df	0.0012643001
175	0x3d625acb	0.05526237
176	0xbd082a41	-0.03324342
177	0xbd0f5001	-0.034988407
178	0x3cb18e15	0.021674195
179	0xbd1efa59	-0.03881297
180	0x3da649d2	0.08119549
181	0xbd861ba1	-0.065482385
182	0xbcb95913	-0.022625482
183	0x3cfee628	0.031115606
184	0xbd6bae02	-0.057538994
185	0xbd92c1d8	-0.07165879
186	0x3d55dd91	0.052213255
187	0x3d1ee503	0.03879262
188	0xbd5fbe2b	-0.054624718
189	0x3d52f5c7	0.051503923
190	0x3da02e4c	0.078213304
191	0x3c08c6a5	0.008348142
192	0x3ca35bcc	0.019941233
193	0xbb970d1b	-0.0046097166
194	0xbd073f10	-0.033019125
195	0xbc51ef63	-0.012813422
196	0x3d8095e3	0.062785886
197	0x3d32ecb2	0.04368276
198	0x3c9b5475	0.01896117
199	0x3daf9598	0.085734546
200	0x3d6cebaf	0.057841953
201	0xbd214c4e	-0.03937941
202	0x3d86964f	0.06571638
203	0xbd437768	-0.047721297
204	0xbd600ddc	-0.054700717
205	0xbd3bac48	-0.045818597
206	0x3c539264	0.01291332
207	0xbc4aca47	-0.012377328
208	0xbdad5a9e	-0.084645495
209	0xbd9bc89a	-0.07606621
210	0x3d2aefbc	0.041732535
211	0x3c92205b	0.017837694
212	0xbc8879f8	-0.016659722
213	0x3d71aad4	0.059000805
214	0x3d5eb221	0.054369096
215	0xbc85d1b6	-0.01633535
216	0xbc9fe7c2	-0.01951969
217	0xbd749d69	-0.05972043
218	0xbcac9dee	-0.0210714
219	0x3d7bc840	0.06147027
220	0x3d5c037c	0.05371426
221	0x3c81a9de	0.01582807
222	0x3d888066	0.06665115
223	0xbc887866	-0.016658973
224	0x3da5bffe	0.0809326
225	0x3d251d1c	0.040310964
226	0x3d769205	0.06019785
227	0x3d8c5739	0.06852574
228	0xbd325cbf	-0.04354548
229	0x3d969b3f	0.073538296
230	0xbd62c3f7	-0.055362668
231	0x3d58ba70	0.052912176
232	0x3d9e4a32	0.077289954
233	0x3d3b8d8b	0.045789283
234	0x3cab4a96	0.020909589
235	0x3d04d12c	0.032426044
236	0x3cc397e3	0.023876136
237	0x3cb95809	0.022624986
238	0x3d8813d6	0.066444084
239	0x3cb4b9aa	0.022061188
240	0xbd26b9ce	-0.04070454
241	0x3a2d6775	0.00066148426
242	0x3bd93aad	0.006629309
243	0x3da9de3b	0.0829434
244	0x3d30e23f	0.043184515
245	0xbd9d3378	-0.076758325
246	0x3c864e5c	0.016394787
247	0xbd7c8c65	-0.06165733
248	0xbd4eb3f0	-0.05046457
249	0xbca09c9a	-0.019605923
250	0xbd04e458	-0.032444328
251	0xbd832c39	-0.06404919
252	0x3ce3ba58	0.027798817
253	0xbc7415ca	-0.014897773
254	0x3cb57bb9	0.022153722
255	0x3c24d5f7	0.010060779

bias f4 [128]
0	0xbd0241b5	-0.031800944
1	0xbb84e989	-0.00405616
2	0x3d2c70dd	0.042099822
3	0x3d34d4d0	0.044148266
4	0xbdad613b	-0.08465811
5	0xbd861069	-0.06546099
6	0x3d98dc3a	0.0746388
7	0xbd96a23d	-0.07355163
8	0x3d9b6eda	0.07589503
9	0xbc7683c7	-0.015046067
10	0x3c57fe34	0.013183165
11	0x3cd8cc59	0.026464628
12	0xbd52471f	-0.051337358
13	0x3d376bd0	0.044780552
14	0x3d5d113f	0.053971525
15	0x3d9c1dc9	0.076228686
16	0xbd352161	-0.044221286
17	0x3d0158a6	0.031578682
18	0xbd417127	-0.04722705
19	0x3c91e4b7	0.017809255
20	0x3da4f38e	0.08054267
21	0xbb73af9c	-0.0037183529
22	0xbd98e126	-0.07464819
23	0x3d523ea3	0.051329266
24	0x3d806f56	0.06271236
25	0x3c6506ff	0.013978719
26	0xbd1b12eb	-0.03785984
27	0x3d2d73b5	0.042346675
28	0xbb7df995	-0.0038753499
29	0xbd854bc6	-0.06508593
30	0xbd7e7c30	-0.062130153
31	0xbc0817dc	-0.00830647
32	0xbcd484fe	-0.025942322
33	0xbd5cb235	-0.05388089
34	0xbd995c85	-0.0748835
35	0xbc8021b6	-0.015641075
36	0x3c0517f1	0.008123384
37	0x3d8cfb66	0.06883888
38	0x3d8c56f8	0.068525255
39	0x3d30506a	0.04304544
40	0xbd86ac5e	-0.06575845
41	0x3c6b88a1	0.014375837
42	0xbd3a4a8a	-0.045481242
43	0xbd607f16	-0.0548087
44	0x3cbac268	0.022797778
45	0xbd8b704d	-0.06808529
46	0xbd97e9a7	-0.074176125
47	0x3d74c789	0.059760604
48	0xbc886007	-0.016647352
49	0x3b47e743	0.0030502833
50	0xbd79e0c7	-0.06100538
51	0x3db030bd	0.08603046
52	0x3d4ad45d	0.04951893
53	0x3d23e55a	0.04001365
54	0xbd93d1a0	-0.07217717
55	0x3d259ea4	0.040434495
56	0x3d05ac6c	0.032635137
57	0xbcf7241d	-0.030168587
58	0x3cd87302	0.026422027
59	0x3d1b169f	0.03786337
60	0xbdb426ea	-0.08796485
61	0x3d33f8e4	0.043938532
62	0xbbaab3fe	-0.005209445
63	0xbd8e68f9	-0.06953616
64	0xbd12acf3	-0.03580947
65	0x3d8159e7	0.06315976
66	0x3d139561	0.03603113
67	0x3d0316ef	0.032004293
68	0xbccb36e8	-0.024806455
69	0x3be7ea30	0.007077478
70	0xbd11041a	-0.035404302
71	0x3d8619f2	0.065479174
72	0x3c68418f	0.014175787
73	0x3d7de4f8	0.06198594
74	0xbd291c6d	-0.041286875
75	0xbc57f3f3	-0.013180721
76	0xbbd804e0	-0.006592378
77	0xbda29a74	-0.07939616
78	0xbdaaf2df	-0.08347105
79	0x3d94dd70	0.07268798
80	0x3cf046b0	0.029330581
81	0x3db36042	0.08758594
82	0xbd7dc02a	-0.06195084
83	0xbcb92125	-0.022598812
84	0x3d026c9c	0.03184186
85	0x3d5d108a	0.05397085
86	0x3b729df6	0.0037020422
87	0x3ce147d9	0.02750008
88	0xbcb25a37	-0.021771533
89	0xbdaa9bad	-0.08330474
90	0xbd97c15d	-0.07409928
91	0xbc87dd85	-0.01658512
92	0xbd0b7bbe	-0.034053557
93	0xbd431433	-0.047626685
94	0x3c636852	0.013879852
95	0x3c935ca8	0.017988518
96	0xbdb23e1c	-0.08703253
97	0x3d943376	0.07236378
98	0xbd6e9a97	-0.058252897
99	0xbd5f922f	-0.05458277
100	0xbcd4b727	-0.02596624
101	0xbcab3351	-0.020898493
102	0xbd96bfa9	-0.07360775
103	0xbb2c833d	-0.0026323341
104	0x3b07dab1	0.0020729715
105	0x3d022d0c	0.03178124
106	0xbcdad121	-0.026711049
107	0xbc5cb3b0	-0.013470575
108	0xbd92d8c9	-0.07170255
109	0x3d9a54df	0.07535719
110	0x3d8245f9	0.063610025
111	0xbcc537f4	-0.024074532
112	0xbd5bc674	-0.053656057
113	0x3d43468c	0.0476747
114	0x3d9c08e2	0.07618882
115	0xbd12f74c	-0.035880372
116	0xbc405a35	-0.011740257
117	0xbd00981b	-0.03139506
118	0x3d677296	0.056505762
119	0xbd330504	-0.043705955
120	0xbd0d72af	-0.0345332
121	0x3c01535c	0.00789341
122	0xbca726e0	-0.02040428
123	0x3da5c3d3	0.08093991
124	0x3d909937	0.070604734
125	0xbd4f7ab6	-0.050654136
126	0xbd47849c	-0.04871045
127	0x3d736fd7	0.05943283

weight f4 [128, 128]
0	0xbd739d61	-0.05947626
1	0x3cadbc93	0.021208083
2	0xbcc68117	-0.024231477
3	0xbda914bd	-0.08255909
4	0x3ccc2079	0.024917828
5	0xbcbf4089	-0.023346202
6	0x3b74eced	0.0037372664
7	0x3cafb18f	0.021446971
8	0x3ca518be	0.0201534
9	0x3c92b298	0.017907426
10	0xbcd8b0bf	-0.026451467
11	0xbdb2c4bf	-0.087289326
12	0x3ab237f1	0.0013596994
13	0x3d57f555	0.0527242
14	0xbc407585	-0.011746769
15	0x3dad82a1	0.08472181
16	0xbcffd5e9	-0.03122993
17	0xbd28059d	-0.04102098
18	0xbce1b475	-0.027551869
19	0x3ca5b54d	0.020228053
20	0xbcb7b8be	-0.02242696
21	0xbcc3c201	-0.02389622
22	0xbd913bee	-0.07091509
23	0x3d2f1388	0.042743236
24	0x3d84d6df	0.06486296
25	0x3d88dac2	0.0668235
26	0xbd5fb354	-0.05461438
27	0xbd6110df	-0.05494773
28	0xbcdb8dff	-0.026801107
29	0x3a7501c9	0.00093462743
30	0x3d6930d1	0.05693132
31	0xbd1fafc1	-0.03898597
32	0x3ce1b3dc	0.027551584
33	0xb9450cff	-0.00018792225
34	0x3aa59f2f	0.0012635941
35	0xbd3eef0b	-0.046614688
36	0xbda52e7a	-0.08065505
37	0xbdaa516b	-0.083163105
38	0x3d8e6885	0.06953529
39	0x3d5f368c	0.05449538
40	0x3cb00ce9	0.021490531
41	0x3d82005e	0.06347726
42	0xbc8f2552	-0.01747385
43	0x3daa28c0	0.08308554
44	0x3b1a4773	0.0023541122
45	0xbd9a115e	-0.07522844
46	0xbd242396	-0.040073
47	0x3c03cb56	0.0080440845
48	0x3bf7e0e9	0.007564653
49	0x3d130471	0.035892908
50	0xbda267ab	-0.07929929
51	0x3d484dd6	0.048902355
52	0xbd17c95d	-0.03705727
53	0xbc95a760	-0.018268287
54	0x3d9b451e	0.075815424
55	0x3d8d34ac	0.06894812
56	0x3d2e34f5	0.042530973
57	0xbd1f9529	-0.03896061
58	0x3d80f191	0.06296075
59	0x3cf45836	0.029827219
60	0x3d621322	0.055194028
61	0x3dabc5d4	0.08387342
62	0xbd853873	-0.065049075
63	0x3d954c22	0.07289912
64	0x3d0e0949	0.034676824
65	0xbc97f23b	-0.018548122
66	0x3d606d69	0.05479184
67	0xbb08358e	-0.0020783874
68	0xbd3d1b2e	-0.0461685
69	0xbca6dc03	-0.020368582
70	0xbd6453f4	-0.055744126
71	0x3abcf039	0.0014414854
72	0x3d2a308f	0.041550215
73	0xbd015443	-0.0315745
74	0x3cd5db8b	0.026105663
75	0xbd771da9	-0.06033102
76	0x3ba594c1	0.0050531332
77	0xbd31767e	-0.043325894
78	0x3d3aa970	0.045571744
79	0x3d886902	0.06660654
80	0x3d20c1f8	0.039247483
81	0x3c6d22c0	0.014473617
82	0xbd761a6b	-0.060083788
83	0xbcb2aac2	-0.02180994
84	0xbd9ad57c	-0.0756025
85	0x3d47d8e3	0.048790824
86	0x3d972d72	0.07381715
87	0xbd34787a	-0.044060208
88	0x3cba43bf	0.022737382
89	0xbb110f20	-0.002213426
90	0x3da6f61e	0.08152412
91	0xbd5cde12	-0.05392272
92	0xbd6afc39	-0.057369445
93	0x3c537a0a	0.012907514
94	0x3c9e095b	0.01929157
95	0x3cbbe408	0.022935882
96	0x3af5a46b	0.0018741017
97	0xbd94fc10	-0.072746396
98	0x3d34a68a	0.044104137
99	0xb978e6ce	-0.00023737104
100	0xbdafc300	-0.08582115
101	0xbc8b219c	-0.0169838
102	0x3cc2f92a	0.023800451
103	0xbcb4d538	-0.022074327
104	0xbbd9a4eb	-0.006641974
105	0xbcec8ff0	-0.028877228
106	0x3ce69aa5	0.028149912
107	0xbd9c7f8b	-0.076415144
108	0xbc7ce203	-0.015434745
109	0x3d220a30	0.039560497
110	0xbd863d53	-0.065546654
111	0x3d9f03f7	0.07764428
112	0x3d3576cb	0.044302743
113	0xbd25ccbf	-0.040478464
114	0x3d232fc8	0.03984049
115	0x3c8df3c9	0.01732816
116	0xbd31aff5	-0.043380696
117	0xbd86e1ba	-0.06586023
118	0xbd2324aa	-0.039829887
119	0xbdb11dc5	-0.08648256
120	0x3ccccdb1	0.025000425
121	0x3d0add10	0.033902228
122	0x3d44211c	0.047883138
123	0xbdae4e1c	-0.08510992
124	0x3d9732a3	0.07382705
125	0xbd04cbc0	-0.032420874
126	0xbd4d2a58	-0.05008921
127	0x3d6a959b	0.05727158
128	0x3da7660c	0.08173761
129	0xbd54a865	-0.051918406
130	0xbd076961	-0.03305948
131	0xbd98200d	-0.07427988
132	0x3da16404	0.078804046
133	0xbd8343bc	-0.06409404
134	0xbd3abf58	-0.045592636
135	0xbd163f2c	-0.03668134
136	0xbd194476	-0.037418805
137	0xbd95509b	-0.07290765
138	0x3c4820ab	0.01221482
139	0x3cdc5ca0	0.026899636
140	0x3c4f8f46	0.012668436
141	0x3d3a366c	0.045462057
142	0x3ce3e97b	0.027821293
143	0x3d43da9c	0.047815904
144	0x3c95a437	0.01826678
145	0x3d0edccd	0.03487854
146	0xbd43fe54	-0.047849968
147	0x3ce4b05a	0.027916122
148	0xbd9c15ab	-0.0762132
149	0xbd67a514	-0.056553915
150	0xbcc755bb	-0.024332872
151	0x3d41b4e4	0.04729165
152	0xbc337e95	-0.0109554725
153	0xbcbbe715	-0.022937337
154	0x3d1e277a	0.038611867
155	0xbcdea326	-0.027177405
156	0x3db47b17	0.0881254
157	0xbcd41de9	-0.025893169
158	0x3cfe7d48	0.031065598
159	0xbdb03c09	-0.08605201
160	0x3c835929	0.016033726
161	0xbdb134f0	-0.08652675
162	0xbd893f91	-0.067015775
163	0xbd54d9ed	-0.051965643
164	0xbcb06cd5	-0.02153627
165	0xbd677c90	-0.056515276
166	0x3da41e10	0.080135465
167	0x3c96ff8a	0.018432397
168	0x3cd6f619	0.026240395
169	0xbc18469f	-0.009294181
170	0xbd6d73fb	-0.057971936
171	0x3caaee7c	0.020865671
172	0xbd32fcc9	-0.043698106
173	0xbd74027c	-0.05957268
174	0xbd72df26	-0.059294842
175	0x3cda4e89	0.026648777
176	0xbd340b57	-0.043956127
177	0xbcbf49b5	-0.023350576
178	0x3d4db925	0.050225396
179	0xbda71cce	-0.08159791
180	0xbd6b35ad	-0.057424236
181	0xbc985c1f	-0.018598614
182	0x3d6c6d88	0.057721645
183	0x3c6af86c	0.014341455
184	0xbd98ecf2	-0.07467069
185	0x3c1a4a7f	0.009417175
186	0x3d4bf973	0.04979844
187	0xbcc90f73	-0.0245435
188	0xbd9b4ce7	-0.07583027
189	0xbca4e975	-0.020130852
190	0xbd9c79aa	-0.07640393
191	0xbcd5f45c	-0.026117496
192	0x3ce37a05	0.027768144
193	0x3ceea96e	0.029133525
194	0x3d3d297a	0.046182133
195	0xbd56ed18	-0.052472204
196	0x3d9a9ba6	0.07549219
197	0x3d4a6f20	0.049422383
198	0xbbd7d597	-0.006586741
199	0x3db14f9f	0.08657765
200	0x3d58699e	0.0528351
201	0xbcd0d567	-0.025492383
202	0xbd638ae4	-0.05555238
203	0x380cc229	3.3559427e-05
204	0xbd99836a	-0.07495768
205	0xbcbd5f6b	-0.023116788
206	0x3cbadaa5	0.022809336
207	0x3d6a5668	0.05721131
208	0x3d73a367	0.059482004
209	0x3d24fdbe	0.04028105
210	0xbd5be4f0	-0.05368513
211	0xbd3e4fa8	-0.046462685
212	0x3d8909dc	0.06691334
213	0x3cf80e30	0.030280203
214	0xbd5e4c6e	-0.054272108
215	0x3d299373	0.041400384
216	0xbc890013	-0.016723668
217	0xbd004793	-0.03131826
218	0x3d90bc2b	0.0706714
219	0xbd198eb2	-0.0374896
220	0xbcb7203b	-0.022354236
221	0x3d4fe097	0.050751295
222	0xbd4265cc	-0.047460362
223	0xbdab5b78	-0.08367056
224	0xbcd0ce88	-0.025489107
225	0x3c4ca94c	0.012491535
226	0x3caf60f9	0.021408545
227	0xbc9f28ff	-0.019428728
228	0xbdab0173	-0.08349886
229	0x3d8b4f20	0.06802201
230	0x3d3cfd6b	0.046140116
231	0xbcb9a171	-0.02265999
232	0x3c3a36c0	0.0113655925
233	0xbda633be	-0.08115338
234	0x3d1cce1f	0.03828251
235	0xbc88a33f	-0.016679404
236	0xbb759ab2	-0.0037476239
237	0xbd9cadb1	-0.076503165
238	0x3dab40fb	0.083620034
239	0x3d8dcc2a	0.06923707
240	0x3cbb3352	0.02285162
241	0xbd8cfd22	-0.06884219
242	0xbda85034	-0.082184225
243	0xbda8e38a	-0.08246525
244	0xbd8ce6b7	-0.06879943
245	0xbd2f340c	-0.042774245
246	0x3ab68d0a	0.0013927531
247	0x3d927d34	0.07152787
248	0x3d879e31	0.066219695
249	0x3d895fdb	0.06707736
250	0xbd34633e	-0.044039957
251	0xbd0812aa	-0.033220924
252	0xbd5cfe1c	-0.053953275
253	0xbd955ae9	-0.0729273
254	0x3c5ccb49	0.013476201
255	0xbbc1379f	-0.005896523

bias f4 [128]
0	0xbd5f33cc	-0.054492757
1	0x3c790f49	0.015201398
2	0xbdb13648	-0.086529315
3	0x3c19760e	0.009366525
4	0xbd814ac4	-0.063130885
5	0xbc3f173d	-0.011663255
6	0x3d10cba7	0.035350468
7	0xbd899458	-0.067177474
8	0x3ced644b	0.028978487
9	0x3d38f17c	0.045152172
10	0xbd4b16ee	-0.049582414
11	0x3da34c89	0.07973582
12	0x3c8796a8	0.01655133
13	0xbcb47820	-0.022029936
14	0x3d7f0b91	0.06226689
15	0xbd9478bf	-0.07249593
16	0x3cadc679	0.021212803
17	0xbc9d69d1	-0.019215496
18	0xbd0886f6	-0.033331834
19	0x3cc7f748	0.024409905
20	0xbc980465	-0.018556783
21	0x3da330ab	0.07968267
22	0x3da0bfe4	0.078491
23	0x3d90f809	0.07078559
24	0xbdadaee8	-0.08480626
25	0xbda9f2ba	-0.082982495
26	0x3b4b0bc6	0.003098236
27	0x3d76f7c4	0.06029488
28	0x3d2351cc	0.03987293
29	0x3d8b5f97	0.06805342
30	0x3d997b3c	0.07494208
31	0xbbf6b88b	-0.0075293235
32	0xbd7e99b3	-0.062158298
33	0xbd9de644	-0.07709935
34	0xbd80ce61	-0.06289364
35	0xbd4f71d7	-0.050645676
36	0xbd14a4e5	-0.03629007
37	0x3c3dce7a	0.011584872
38	0x3d206fa5	0.039168973
39	0x3d2ac6db	0.04169355
40	0xbd53bced	-0.051693846
41	0xbd4a921b	-0.049455743
42	0x3d634963	0.05548991
43	0xbdafb3f2	-0.08579244
44	0x3daf3aff	0.085561745
45	0x3d1cce00	0.038282394
46	0xbd2cff69	-0.042235766
47	0xbd94c95b	-0.07264968
48	0x3cec34a8	0.028833702
49	0xbdad57e9	-0.08464033
50	0x3d810c14	0.06301132
51	0xbd6fd067	-0.058548357
52	0xbd900f01	-0.07034112
53	0x3d37a650	0.044836342
54	0xbd321ef3	-0.043486547
55	0xbd792a2e	-0.06083124
56	0x3dad20d3	0.08453526
57	0xbc8dae17	-0.017294927
58	0xbd3ecb88	-0.04658082
59	0xbcb8faeb	-0.022580585
60	0xbc825c86	-0.01591326
61	0xbd80d526	-0.06290655
62	0x3d98c629	0.07459671
63	0xbd56370f	-0.0522986
64	0x3cd7c4f9	0.026339041
65	0x3c93d975	0.018048028
66	0xba1938a0	-0.00058449246
67	0xbdabc737	-0.083876066
68	0xbd8346af	-0.06409966
69	0x3d18eadb	0.03733335
70	0xbd2a505e	-0.04158055
71	0x3d903e67	0.07043152
72	0x3ca8debd	0.020614022
73	0x3d4d7820	0.05016339
74	0x3d971db3	0.073787116
75	0xbcef4142	-0.029205922
76	0xbd94de03	-0.07268908
77	0x3d3a2c4d	0.045452405
78	0xbd51013c	-0.051026568
79	0x3daabfe7	0.08337384
80	0xbd91ae55	-0.07113329
81	0x3dadbe04	0.08483508
82	0xbd38d9f0	-0.045129716
83	0x3d7eec03	0.062236797
84	0x3d412bf4	0.047161058
85	0xbb82f175	-0.003996069
86	0xbd9727a4	-0.07380608
87	0x3d3a1d7c	0.045438275
88	0x3d542b20	0.05179894
89	0xbd9354df	-0.07193922
90	0x3d23bbc1	0.039973978
91	0xbd7dc02a	-0.06195084
92	0xbd68acbe	-0.056805365
93	0xbd273817	-0.040824976
94	0xbd4636f7	-0.048392262
95	0xbda45295	-0.08023564
96	0x3da40370	0.08008468
97	0xbba435f0	-0.0050113127
98	0xbd8a88c9	-0.06764371
99	0xbd93be3b	-0.07214018
100	0xbd54cf1e	-0.051955335
101	0xbd1c9503	-0.038228046
102	0xbc5293f7	-0.01285266
103	0xbd69370f	-0.056937274
104	0x3c50c168	0.012741424
105	0xbbf059b1	-0.007334911
106	0x3cd84d71	0.026404114
107	0xbd325e9d	-0.04354726
108	0x3d9aa5fc	0.0755119
109	0xbdafed6e	-0.08590208
110	0x3c0e0ee6	0.008670544
111	0xbd40f483	-0.047108185
112	0x3d5f6406	0.05453875
113	0x3c3ace1e	0.011401681
114	0xbda24ff0	-0.07925403
115	0x3d5e00fd	0.05420016
116	0x3d658a68	0.056040198
117	0x3d87bc04	0.06627658
118	0xbca7dd33	-0.020491218
119	0x3d8945df	0.0670278
120	0xbcde7502	-0.027155403
121	0x3d1758d5	0.03694995
122	0xbd4a471c	-0.04938422
123	0x3d8bf14e	0.068331346
124	0xbd5613d3	-0.052265
125	0x3cf89bfc	0.030347817
126	0xbcefdcaa	-0.029280026
127	0x3c90a712	0.01765779

weight f4 [128, 128]
0	0xbca7d63d	-0.020487899
1	0xbda48a1b	-0.08034154
2	0x3b0699ab	0.002053837
3	0xbdaaf775	-0.0834798
4	0xbd215fb2	-0.039397903
5	0x3d5e6f5a	0.054305412
6	0x3ba6abe2	0.005086408
7	0x3d5d9675	0.054098565
8	0x3cea5a79	0.028607594
9	0x3cf8c653	0.030368006
10	0x3c81dbad	0.01585182
11	0xbc380396	-0.011231324
12	0xbd9b7146	-0.075899646
13	0xbd9e0d2d	-0.07717357
14	0xbca73c2d	-0.020414436
15	0xbd084a65	-0.033274073
16	0x3d260ba5	0.04053845
17	0x3d9eecc9	0.07760007
18	0xbd5a8b18	-0.053355306
19	0xbd3d1b6d	-0.046168733
20	0x3d9ad33f	0.07559823
21	0xbcd29ae1	-0.025708618
22	0xbd2fb337	-0.042895522
23	0xbca61c41	-0.020277144
24	0xbb3ea80b	-0.002909186
25	0x3d24db6f	0.04024833
26	0x3d748d2e	0.059704952
27	0xbdb15b33	-0.08659973
28	0xbb474c95	-0.0030410637
29	0x3d346492	0.044041224
30	0x3dac4206	0.084110305
31	0x3daa874b	0.08326586
32	0xbc8c8d6a	-0.017157275
33	0xbc48031b	-0.012207772
34	0xbbd40091	-0.006469794
35	0xbbcc1890	-0.006228514
36	0x3ca72bc2	0.020406608
37	0x3b924ccb	0.004464721
38	0xbc1b1707	-0.009465939
39	0xbc3958c4	-0.011312667
40	0xbdadabec	-0.08480057
41	0x3ce4f22e	0.027947512
42	0x3d30936f	0.043109354
43	0xbd9bae28	-0.07601577
44	0xbda5eb98	-0.081015766
45	0x3d0cfe44	0.034422174
46	0xbd34835a	-0.04407058
47	0xbd3c878d	-0.04602771
48	0xbbe5dec0	-0.0070150793
49	0x3c2528c9	0.010080525
50	0xbd159353	-0.036517452
51	0x3af57c78	0.0018729111
52	0x3d9a2cc6	0.07528071
53	0xbda98a8d	-0.082783796
54	0xbcb5bea2	-0.022185627
55	0xbd785ce6	-0.06063547
56	0xbda9ac69	-0.08284838
57	0xbd5a45ee	-0.053289346
58	0x3c866cad	0.016409243
59	0xbd804c22	-0.06264521
60	0xbc945413	-0.018106496
61	0xbc165c98	-0.0091773495
62	0x3d557d58	0.05212149
63	0xbca8e47c	-0.020616762
64	0x3d6359a9	0.05550543
65	0xbd99fbb0	-0.07518709
66	0xbd8b626e	-0.06805883
67	0xbd132db8	-0.035932273
68	0xbd5fc6f1	-0.054633085
69	0x3c9ab409	0.018884676
70	0xbda4b0d5	-0.080415405
71	0x3d99c148	0.075075686
72	0xbd1db566	-0.038503073
73	0x3cae6f95	0.02129344
74	0xbd0a425f	-0.033754703
75	0xbb37d742	-0.0028051888
76	0xbc012cc7	-0.007884211
77	0xbd83407a	-0.06408782
78	0x3d3ea707	0.04654601
79	0x3d5aae8a	0.05338911
80	0x3d8b546f	0.06803214
81	0x3c6c102c	0.014408153
82	0xbcf81be3	-0.030286735
83	0x3db259d8	0.087085426
84	0x3d1b6dfe	0.037946694
85	0xbd6d62e1	-0.057955626
86	0xbc357835	-0.011076023
87	0xbd5ec97f	-0.05439138
88	0x3d8f776e	0.07005201
89	0x3ce924f0	0.028459996
90	0x3c0c87c8	0.008577295
91	0xbd7ca2fb	-0.061678868
92	0x3cdcbdeb	0.026946029
93	0x3cb158df	0.021648822
94	0x3d3a4342	0.0454743
95	0x3d8aea40	0.06782961
96	0xbb488a6d	-0.0030600086
97	0x3d9ea89b	0.07747003
98	0x3d1a984a	0.03774289
99	0x3cfbfb19	0.030759381
100	0x3da1f781	0.07908536
101	0x3d18e45f	0.037327167
102	0xbd778fe7	-0.06043997
103	0xbc9e9459	-0.019357847
104	0xbca97daa	-0.020689804
105	0xbd54010a	-0.051758803
106	0xbca8c127	-0.020599915
107	0x3dac9479	0.084267564
108	0x3b6030ad	0.00342087
109	0xbda6ca57	-0.08144062
110	0x3c2d4cfc	0.010577437
111	0x3aeec852	0.0018217659
112	0xbda5f9de	-0.08104299
113	0xbbc7615a	-0.0060846033
114	0xbdb05d04	-0.08611491
115	0xbd91ef10	-0.07125676
116	0x3d4c2b2e	0.049845867
117	0x3d0da166	0.03457775
118	0xbc40cdbb	-0.0117678
119	0xbd441352	-0.047869988
120	0x3d3670fd	0.044541348
121	0x3bbbf2a3	0.0057357117
122	0xbd3f75ef	-0.04674333
123	0x3d9968a9	0.074906655
124	0x3c44f7f6	0.012022009
125	0x3c518e06	0.012790209
126	0x3d742769	0.059607897
127	0xbc665b9a	-0.014059925
128	0x3d9b62a4	0.075871736
129	0xba8ce4cf	-0.0010749343
130	0xbd4facdc	-0.05070196
131	0x3d174955	0.03693517
132	0xbda3e76e	-0.08003126
133	0x3bede4b8	0.0072599314
134	0xbd97d079	-0.0741281
135	0xbd836cb4	-0.06417218
136	0xbd448659	-0.047979686
137	0xbd5d0b07	-0.053965595
138	0x3c30e75c	0.010797348
139	0xbd4e2a24	-0.050333157
140	0xbd55e00d	-0.052215625
141	0x3c5f71c1	0.013637961
142	0xbcad4b15	-0.021153966
143	0x3d47f2ff	0.048815724
144	0x3cf37229	0.029717522
145	0xbda74278	-0.08166975
146	0xbd259715	-0.040427286
147	0x3db29929	0.08720619
148	0x3d5d3f24	0.054015294
149	0x3dac121c	0.084018916
150	0xbd7740da	-0.06036458
151	0xbd63a2db	-0.055575233
152	0x3d9f355e	0.07773851
153	0xbda17464	-0.07883528
154	0x3cd973c1	0.026544454
155	0xbd085d41	-0.03329206
156	0x3bb6c90e	0.005578167
157	0x3b3a1732	0.0028395173
158	0xbd08b081	-0.033371452
159	0xbcc1570b	-0.023601076
160	0xbd098e45	-0.033582944
161	0xbd361f38	-0.044463366
162	0xbd763e18	-0.06011781
163	0x3c18a5ae	0.009316845
164	0x3c5e3fcd	0.013565016
165	0xbd447969	-0.04796735
166	0x3dad8f64	0.08474615
167	0xbd5a7f3a	-0.05334399
168	0xbd8b1bd5	-0.06792418
169	0xbdb501a8	-0.088382065
170	0x3d9a8508	0.07544905
171	0x3daf94ea	0.08573325
172	0x3d7baccf	0.0614441
173	0x3d5061b1	0.050874416
174	0x3d6a9434	0.057270244
175	0xbda69d13	-0.08135428
176	0xbcfa7d31	-0.030577274
177	0x3d5d74a6	0.054066323
178	0xbd6eb36a	-0.05827657
179	0x3c8fa8ef	0.017536609
180	0xbcdd3e09	-0.02700712
181	0x3cf34eb1	0.029700609
182	0x3d1559c0	0.036462545
183	0x3d971706	0.07377438
184	0xbd7bcbb3	-0.06147356
185	0xbc81b364	-0.01583261
186	0x3d2cc50b	0.042180102
187	0xbc349def	-0.011023982
188	0x3ca90804	0.020633705
189	0x3c3c3ccc	0.0114891045
190	0xbb910156	-0.004425208
191	0x3d1fdf73	0.039031457
192	0xbcfa80f9	-0.030579077
193	0x3d8eb575	0.06968204
194	0x3c6a6602	0.014306547
195	0xbc7989c0	-0.015230596
196	0x3d9b2fcb	0.07577475
197	0x3d781d75	0.060574967
198	0x3daf3d01	0.085565574
199	0xbc85eaf8	-0.016347393
200	0xbad3d56f	-0.0016161631
201	0xbd6b6a78	-0.057474583
202	0x3cd3eaab	0.025868734
203	0x3d9f15e4	0.07767847
204	0x3d57030f	0.05249315
205	0x3d9764d1	0.07392276
206	0x3d84df1f	0.064878695
207	0xbca7a858	-0.020466015
208	0xbd29b14b	-0.041428845
209	0x3cd1ac69	0.025594907
210	0x3d341df8	0.043973893
211	0xbd14b186	-0.036302112
212	0xbd7efe13	-0.062254023
213	0xbdb4b36f	-0.08823287
214	0x3d9e2d90	0.07723534
215	0xbcce7e65	-0.025206754
216	0x3c9b97a8	0.018993214
217	0xbd774c9e	-0.060375802
218	0xbcbffd83	-0.023436313
219	0xbd4d67b5	-0.05014773
220	0xbdaedcd6	-0.08538215
221	0xbd064e5c	-0.032789573
222	0x3d7b85f6	0.061407052
223	0x3d525f10	0.05136019
224	0xbcf73dec	-0.030180894
225	0x3d1ec22d	0.0387594
226	0xbd804ada	-0.06264277
227	0xbcc50264	-0.024048992
228	0xbd5f296c	-0.054482862
229	0x3d0a65c6	0.033788465
230	0xbdafd891	-0.08586229
231	0xbd304070	-0.043030202
232	0x3bbc50af	0.005746923
233	0xbd3926f0	-0.04520315
234	0x3d250270	0.040285528
235	0xbc09324d	-0.008373809
236	0xbd4a9475	-0.049457986
237	0xbdab8f9a	-0.08376999
238	0x3d78a495	0.060703833
239	0xbcf8d877	-0.030376656
240	0x3b5fa88e	0.0034127566
241	0x3d4cfcd9	0.05004582
242	0x3d3b45e5	0.045720953
243	0xbda6372b	-0.08115991
244	0xbd8f5ceb	-0.070001446
245	0xbd6bb7a1	-0.05754817
246	0xbd94a251	-0.07257522
247	0x3bbaeb10	0.005704291
248	0x3ce79f7a	0.028274287
249	0xbd989c4e	-0.07451688
250	0x3d07012b	0.0329601
251	0x3d9b036e	0.075690135
252	0xbd93576e	-0.0719441
253	0x3d3ebab7	0.046564784
254	0x3d422ce6	0.0474061
255	0xbd230303	-0.039797794
