nerf_models/fox_bounds.pth (torch, 647458 bytes, 22 tensors)

weight f4 [128, 63]
0.21007892 -0.29853842 0.1291612 0.12433451 -0.13123442 -0.057469852 -0.011203966 0.06629008
0.056511723 0.004100248 -0.029526876 0.038087677 -0.13305838 0.052919343 0.018605098 -0.33038947
0.11091149 -0.23569363 -0.29229096 -0.07315288 -0.10088087 -0.18917856 -0.057352558 -0.18304299
-0.30840746 0.23098975 -0.101694465 -0.052287396 -0.071074665 0.30831397 0.3207376 -0.2821264
-0.19506486 0.08920172 0.18042722 -0.08633852 0.18968262 -0.0927126 -0.071753696 -0.04867605
-0.13912083 -0.026426481 0.018995285 0.114815876 -0.114154264 -0.008918157 -0.044405006 -0.026282487
0.05540653 -0.06278688 -0.012436873 0.000621197 0.05092534 -0.03444409 0.03387156 -0.03517896
-0.09888256 -0.050181754 -0.017113741 -0.01828994 -0.039509054 0.042928908 -0.014520442 -0.16090733
0.056311436 0.0031730728 -0.045812808 -0.052164316 -0.0067971577 -0.012866837 -0.03792655 0.02877826
0.13026154 0.102704 -0.02984525 -0.019119583 -0.18842684 -0.069725454 0.18088318 0.06399536
-0.08034847 -0.15427962 0.008102929 0.13221754 -0.282197 0.10141292 -0.13378619 -0.16144305
-0.16699322 0.3064121 0.09788114 0.004106528 -0.0148940645 -0.07533873 0.012959219 0.25653422
-0.17482615 0.43006238 0.21448892 -0.06904214 0.09653059 -0.022075921 0.027721094 0.05616712
0.0032790145 0.22382568 -0.012581342 0.054138407 -0.007091022 -0.009422213 -0.117642105 0.036762513
0.007824951 -0.015826827 -0.015117867 -0.03944824 0.04690577 -0.052308142 0.050085213 -0.0044099432
0.0032489086 -0.015298118 0.0076606153 0.08321421 0.03727444 0.028071487 0.24406093 0.09804687
0.1778514 0.30187765 0.16510245 0.19196832 -0.058779296 0.06822306 -0.060924266 0.08652535
0.34161967 0.2084636 0.035109084 -0.21781923 -0.08337695 -0.21583824 0.2108546 0.10177228
-0.15829976 -0.34043875 -0.17538378 -0.05628227 -0.1835836 -0.1491639 -0.20131598 0.1557292
-0.343632 -0.1168111 0.18852448 0.27288568 0.22628301 -0.18484353 -0.30832854 -0.060467605
-0.07840692 0.055012867 0.104702264 0.21054159 0.10810682 0.040890634 0.036131427 -0.1697578
0.062288195 0.14888352 0.118704386 -0.02018209 -0.0052711368 0.017546533 -0.010933833 -0.006914124
0.026856396 -0.017011913 0.05520565 -0.016719645 0.0033097065 0.029671071 -0.006696428 0.02700776
-0.00858487 0.039815295 -0.032251615 0.0627086 0.013077199 0.007943866 0.23497517 0.111512095
-0.11772743 0.28611287 0.07604631 0.07071191 0.06365162 -0.1513457 0.05686096 0.030873863
-0.14834034 0.13163595 -0.19339935 -0.07461394 -0.00013628557 -0.08169526 0.07423498 0.110748746
0.061133973 0.19858462 0.17324482 0.12184867 -0.17247635 0.1681751 -0.02147851 -0.429581
-0.3687447 -0.36983022 -0.08688943 0.085013546 0.18786918 -0.30643466 -0.14183906 -0.21723211
-0.09829257 -0.07025849 -0.04186717 -0.1082945 0.07701931 -0.08752721 0.0002985518 -0.09066898
-0.11040402 0.06618487 -0.08150616 -0.07631225 -0.067613736 0.0016772102 0.049598902 -0.013673799
0.011491722 0.02962553 0.010065673 0.05973077 0.013169319 -0.002109823 -0.0009558823 0.020160217
-0.03567836 0.01144935 -0.00162272 -0.02758314 -0.26403317 0.26065174 -0.20710194 -0.05733945
00000000: ee1e 573e 07da 98be d542 043e 17a3 fe3d
00000010: 5162 06be 8265 6bbd d790 37bc 18c3 873d
00000020: d678 673d 605b 863b 59e2 f1bc d301 1c3d
00000030: 7540 08be f4c1 583d b869 983c cf28 a9be
00000040: 9025 e33d ac59 71be 29a7 95be 2dd1 95bd
00000050: a19a cebd 06b8 41be 84ea 6abd 9f6f 3bbe
00000060: 95e7 9dbe 9488 6c3e 3045 d0bd 4f2b 56bd
00000070: 988f 91bd 54db 9d3e b837 a43e df72 90be
00000080: 15bf 47be 64af b63d eac1 383e 40d2 b0bd
00000090: 293c 423e 1be0 bdbd 9af3 92bd 8a60 47bd
000000a0: b175 0ebe 597c d8bc 009c 9b3c 9624 eb3d
000000b0: b6c9 e9bd 761d 12bc 06e2 35bd 5f4e d7bc
000000c0: f5f1 623d 6896 80bd 07c4 4bbc d3d7 223a
000000d0: 1797 503d 3f15 0dbd e8bc 0a3d d017 10bd
000000e0: f182 cabd 628b 4dbd 1e32 8cbc c9d4 95bc
000000f0: 3fd4 21bd 39d6 2f3d 26e7 6dbc e4c4 24be
00000100: d2a6 663d 54f3 4f3b 36a6 3bbd 40aa 55bd
00000110: b1ba debb 6dcf 52bc df58 1bbd 63c0 eb3c
00000120: 4863 053e 7a56 d23d 077e f4bc aca0 9cbc
00000130: f7f2 40be 38cc 8ebd 7139 393e 0010 833d
00000140: bd8d a4bd 7afb 1dbe 26c2 043c 0964 073e
00000150: 207c 90be 94b1 cf3d 3fff 08be 5451 25be
00000160: 4500 2bbe 0ce2 9c3e e875 c83d 0e90 863b
00000170: 3c06 74bc 314b 9abd e752 543c 7458 833e
00000180: a005 33be 2331 dc3e fca2 5b3e f765 8dbd
00000190: d4b1 c53d 90d8 b4bc 5917 e33c 7e0f 663d
000001a0: bce4 563b 8f32 653e f921 4ebc 3cc0 5d3d
000001b0: ce5b e8bb a05f 1abc 58ee f0bd 4a94 163d
000001c0: 3934 003c 43a7 81bc eeb0 77bc 7a94 21bd
000001d0: 4420 403d 1041 56bd 2726 4d3d 4981 90bb
000001e0: a4eb 543b f5a4 7abc e605 fb3b 366c aa3d
000001f0: 15ad 183d 2df6 e53c 1ceb 793e cccc c83d
00000200: ad1e 363e b58f 9a3e 9e10 293e 5893 443e
00000210: 8fc2 70bd 88b8 8b3d b98b 79bd 3434 b13d
00000220: c6e8 ae3e 7b77 553e 8bce 0f3d 010c 5fbe
00000230: 89c1 aabd b304 5dbe 45ea 573e fc6d d03d
00000240: 5519 22be fd4d aebe ce97 33be 3d88 66bd
00000250: 57fd 3bbe 6cbe 18be c725 4ebe 7a77 1f3e
00000260: 89f0 afbe a83a efbd 900c 413e acb7 8b3e
00000270: bcb6 673e 9f47 3dbe 3ddd 9dbe e1ac 77bd
00000280: cf93 a0bd 2c55 613d 246e d63d 3798 573e
00000290: 1c67 dd3d f07c 273d 8cfe 133d fdd4 2dbe
000002a0: e821 7f3d ec74 183e 491b f33d e954 a5bc
000002b0: 80b9 acbb bfbd 8f3c d223 33bc e08f e2bb
000002c0: f201 dc3c 915c 8bbc 521f 623d a3f7 88bc
000002d0: a9e7 583b bf10 f33c b66d dbbb 613f dd3c
000002e0: 8ea7 0cbc 5d15 233d 451a 04bd 5e6d 803d
000002f0: c041 563c fd26 023c 559d 703e 7460 e43d
00000300: 141b f1bd 637d 923e 2bbe 9b3d 68d1 903d
00000310: c85b 823d 5efa 1abe 0ae7 683d 2feb fc3c
00000320: 88e6 17be 93cb 063e 7b0a 46be 32cf 98bd
00000330: e1e7 0eb9 d84f a7bd 8208 983d 3dd0 e23d
00000340: 9e67 7a3d c459 4b3e 1767 313e cc8b f93d
00000350: a49d 30be 1836 2c3e b3f3 afbc 0af2 dbbe
00000360: 1bcc bcbe 635a bdbe 16f3 b1bd 951b ae3d
00000370: c760 403e 01e5 9cbe 423e 11be 1872 5ebe
00000380: 9d4d c9bd afe3 8fbd e97c 2bbd 82c9 ddbd
00000390: 4dbc 9d3d 7741 b3bd f286 9c39 a8b0 b9bd
000003a0: 811b e2bd ef8b 873d b4ec a6bd 9949 9cbd
000003b0: 1279 8abd d6d5 db3a 3828 4b3d 1208 60bc
000003c0: c747 3c3c 3db1 f23c 7eea 243c 40a8 743d
000003d0: 21c4 573c f544 0abb 2d94 7aba 0a27 a53c
000003e0: 7923 12bd 0e96 3b3c 73b1 d4ba 0af6 e1bc
000003f0: 5b2f 87be 2574 853e 8812 54be c5dc 6abd

bias f4 [128]
-0.104665704 0.00013047799 -0.033988602 0.06627401 0.053722776 -0.21990012 0.05544076 -0.039086245
-0.12285726 -0.000922051 -0.11221637 -0.010150645 -0.12706882 -0.035428148 -0.03281581 -0.115639515
-0.13834746 0.079290375 0.110921115 -0.18350515 -0.091917045 0.05605896 -0.059274733 -0.10382538
-0.052003726 -0.15243506 -0.058079783 -0.041753814 -0.0037812314 0.027626934 -0.02088868 -0.116474904
-0.054946307 -0.07087457 0.017161475 0.00842502 0.103265665 -0.12800995 -0.07022865 -0.124089934
-0.06550691 -0.06675406 0.047880292 -0.16052914 -0.053005453 0.057262596 -0.05625311 0.10805795
-0.034685574 0.018914068 0.048534453 -0.039095566 -0.11134247 -0.07398566 0.09670714 -0.07443329
-0.17463857 0.05298953 -0.009247053 -0.06350507 -0.009822736 0.12687726 -0.029304558 -0.20267875
-0.114060625 0.0103336675 -0.038445383 -0.037112698 -0.10211738 -0.0792264 -0.015541725 -0.17894228
-0.027514825 0.0031232687 0.09034783 0.07916376 -0.066539854 -0.028765857 0.08879558 -0.025703408
-0.07669256 -0.0465039 0.10081145 0.015453013 -0.2079446 0.04317003 0.06750406 0.0009965671
-0.102862105 -0.04275456 0.07739888 -0.07688594 -0.19552526 -0.0344643 -0.03493339 0.029508622
-0.12297593 -0.010436523 -0.07059118 -0.10248538 0.03385828 -0.07053107 0.028046241 -0.07458135
-0.09760463 0.08243818 -0.17494181 -0.07648181 -0.040779755 -0.044468578 -0.15363966 0.04307443
-0.2042766 -0.16322215 -0.045391195 -0.12149315 -0.03532931 -0.13674326 -0.07722068 0.052567758
0.021000817 0.093875945 -0.10267346 -0.09829795 0.030590676 -0.042118847 0.14667661 -0.076602966
00000000: f95a d6bd ebd0 0839 a237 0bbd abba 873d
00000010: 6a0c 5c3d 7f2d 61be da15 633d e618 20bd
00000020: 969c fbbd ccb5 71ba b2d1 e5bd e44e 26bc
00000030: 541e 02be 1b1d 11bd df69 06bd 69d4 ecbd
00000040: f5aa 0dbe fe62 a23d 9c2a e33d c6e8 3bbe
00000050: 013f bcbd 149e 653d 10ca 72bd 67a2 d4bd
00000060: dc01 55bd f017 1cbe 11e5 6dbd 0c06 2bbd
00000070: 89ce 77bb e151 e23c bd1e abbc 658a eebd
00000080: 610f 61bd b026 91bd 3996 8c3c 1809 0a3c
00000090: f37c d33d 0a15 03be 0ad4 8fbd dd22 febd
000000a0: 7d28 86bd 5ab6 88bd 201e 443d c061 24be
000000b0: 3f1c 59bd 2f8c 6a3d a969 66bd 7d4d dd3d
000000c0: 7612 0ebd adf1 9a3c 10cc 463d ac22 20bd
000000d0: 8507 e4bd cb85 97bd 650e c63d 7b70 98bd
000000e0: 74d4 32be 8d0b 593d f480 17bc f20e 82bd
000000f0: 8aef 20bc 1dec 013e 1d10 f0bc 058b 4fbe
00000100: 9e98 e9bd 8b4e 293c e878 1dbd 7c03 18bd
00000110: eb22 d1bd 7341 a2bd b8a2 7ebc a53c 37be
00000120: c566 e1bc c1af 4c3b 4808 b93d 9c20 a23d
00000130: 0c46 88bd 60a6 ebbc 75da b53d f48f d2bc
00000140: fd10 9dbd e07a 3ebd 3c76 ce3d a22e 7d3c
00000150: 6eef 54be 0fd3 303d 923f 8a3d 3e9f 823a
00000160: 5ea9 d2bd 681f 2fbd 4e83 9e3d 6076 9dbd
00000170: c637 48be 702a 0dbd 5016 0fbd 11bc f13c
00000180: ceda fbbd f3fd 2abc 1c92 90bd dbe3 d1bd
00000190: fbae 0a3d 9872 90bd 3bc1 e53c 1bbe 98bd
000001a0: f0e4 c7bd 59d5 a83d f223 33be 7fa2 9cbd
000001b0: ac08 27bd af24 36bd b753 1dbe d06e 303d
000001c0: e32d 51be b523 27be 1eec 39bd 67d1 f8bd
000001d0: 77b5 10bd 6d06 0cbe e025 9ebd 4a51 573d
000001e0: e809 ac3c 0842 c03d 7746 d2bd 7050 c9bd
000001f0: 4c99 fa3c d084 2cbd 6532 163e 04e2 9cbd

weight f4 [128, 128]
0.023195699 -0.007579015 0.10617834 -0.04917415 -0.02850062 -0.036144137 0.19103186 0.053182863
-0.16170922 -0.051091805 0.033176865 -0.2784858 0.066466495 0.19452496 -0.029590776 -0.0199307
-0.08946343 -0.015989153 -0.1201671 -0.11794612 0.18689306 -0.22753309 0.04803582 -0.24582689
0.018720461 0.16569626 0.03312508 0.093522 0.061848752 -0.09875224 0.13821392 -0.32661974
-0.109163 -0.04670288 0.01651954 -0.16359594 0.051070876 0.14986362 -0.22251257 -0.08984208
-0.40829834 -0.30409968 0.158005 0.14643024 -0.21937434 -0.22865695 -0.11926652 -0.039129507
-0.17950162 -0.09663193 0.09896084 0.09441019 0.07288706 -0.110389635 -0.117361695 -0.124233395
-0.06577042 -0.0025259908 -0.11122032 -0.23220348 -0.075703174 -0.16634706 -0.21733128 0.2200143
-0.08174355 0.2219439 -0.26940882 -0.069513544 -0.016306303 0.04106378 0.019997332 -0.022504332
-0.09473079 -0.16271779 0.0030033863 -0.39714244 0.3586079 -0.19253583 -0.14935288 -0.115915716
0.059623353 -0.17210853 -0.014326386 0.074315146 -0.0076324143 0.29943648 0.059578165 -0.08506699
0.21357086 -0.10595388 0.23646978 -0.008384353 0.08791321 -0.038454823 -0.10124439 0.08426997
-0.037930187 -0.1500313 0.13464051 0.14442603 -0.30284727 0.07310825 0.037139896 -0.12673315
0.028643852 0.15114714 0.18153553 -0.101947315 0.1251138 -0.032349937 -0.12905382 0.10785872
-0.12647349 0.10211387 -0.41767767 -0.032874584 0.16534421 -0.07874808 -0.06211736 0.22730353
-0.08972486 0.049152765 -0.023126816 0.047621224 -0.08290921 -0.1328306 0.25435314 -0.07392026
-0.073854975 -0.09312343 -0.14277719 0.0027861912 0.15336326 0.18658338 0.07176983 -0.27658027
0.059406407 0.03838176 -0.17732252 -0.28107667 -0.18472286 0.05071408 -0.16292424 0.08202478
0.041541133 -0.19045013 -0.055439755 0.08102574 0.40604475 -0.011231041 -0.34928703 0.04640391
0.03702311 -0.21343778 -0.1945263 -0.086242504 -0.079073116 -0.056664247 -0.1952439 -0.03217684
0.025034225 -0.026770908 0.083443545 -0.083734244 0.10978278 0.031563338 -0.00755435 0.14194667
-0.053538334 0.20918657 0.07346479 -0.02923722 0.014916031 0.011204702 0.006863758 0.10135979
-0.14556202 -0.11108429 -0.0798967 0.04696146 0.10986666 -0.39885703 -0.116692096 0.03936924
0.0069461977 0.06037938 0.03703565 -0.0038339535 0.040742703 -0.025720628 0.03064504 0.11835107
-0.2302613 0.03520342 0.070895456 -0.28765956 0.037866887 -0.013756441 -0.2861039 0.044180144
0.100353405 -0.06884047 -0.263554 -0.24721755 0.18478839 0.18499559 0.06545329 0.11209983
-0.10643297 -0.24581312 -0.080590315 -0.07963728 0.0980694 -0.08580535 -0.184018 -0.13602321
0.060825713 -0.059673306 0.01176489 0.14771537 0.06565835 -0.08046966 -0.27054963 -0.0052376753
-0.20545502 -0.050550867 -0.09580815 0.04345872 0.10020049 0.133067 0.03834358 0.10804851
0.047107324 -0.042809017 -0.112451084 0.05397841 -0.09875397 0.08675899 -0.232333 -0.11403589
-0.10112149 0.064447865 0.35394675 0.1544978 0.07565579 0.048392 0.06793555 -0.011373169
-0.080029495 0.14974082 0.327238 0.09635118 0.13735943 0.11113147 0.24706237 0.051733475
00000000: e804 be3c 6359 f8bb 0874 d93d d56a 49bd
00000010: 227a e9bc e00b 14bd db9d 433e 46d6 593d
00000020: 1a97 25be a445 51bd 77e4 073d b195 8ebe
00000030: 961f 883d 8d31 473e 5b68 f2bc b545 a3bc
00000040: 9a38 b7bd affb 82bc 2b1a f6bd bc8d f1bd
00000050: e560 3f3e 6ffe 68be 35c1 443d 0bba 7bbe
00000060: a75b 993c 48ac 293e 2aae 073d 7688 bf3d
00000070: 1e55 7d3d 9d3e cabd f387 0d3e b43a a7be
00000080: da90 dfbd 854b 3fbd fd53 873c b285 27be
00000090: b22f 513d d975 193e 56da 63be 20ff b7bd
000000a0: 7b0c d1be f4b2 9bbe 10cc 213e cff1 153e
000000b0: aba3 60be 0c25 6abe 0142 f4bd 4346 20bd
000000c0: 46cf 37be f6e6 c5bd fbab ca3d 215a c13d
000000d0: d045 953d f613 e2bd 545b f0bd 146e febd
000000e0: a4b2 86bd 188b 25bb 7bc7 e3bd c0c6 6dbe
000000f0: 440a 9bbd e256 2abe 178c 5ebe 6e4b 613e
00000100: 2a69 a7bd 4345 633e f4ef 89be 1e5d 8ebd
00000110: cc94 85bc 7f32 283d 72d1 a33c 015b b8bc
00000120: 3702 c2bd 7e9f 26be 76d4 443b 4156 cbbe
00000130: 749b b73e 1d28 45be f6ef 18be 3865 edbd
00000140: 9e37 743d 383d 30be 38b9 6abc 8a32 983d
00000150: 5519 fabb bd4f 993e 3c08 743d 9a37 aebd
00000160: 52b2 5a3e 59fe d8bd 2225 723e 865e 09bc
00000170: d70b b43d ce82 1dbd 3859 cfbd bc95 ac3d
00000180: af5c 1bbd cea1 19be 34df 093e 6be4 133e
00000190: cc0e 9bbe c7b9 953d 0120 183d 56c6 01be
000001a0: 83a6 ea3c 51c6 1a3e 73e4 393e c1c9 d0bd
000001b0: d51d 003e 5e81 04bd af26 04be 08e5 dc3d
000001c0: 4482 01be 1421 d13d d9d9 d5be 80a7 06bd
000001d0: fe4f 293e ac46 a1bd c66e 7ebd 42c2 683e
000001e0: abc1 b7bd 6954 493d 7374 bdbc 790e 433d
000001f0: 4ecc a9bd bf04 08be 933a 823e 8163 97bd
00000200: 4741 97bd 7fb7 bebd 2f34 12be 8898 363b
00000210: 420b 1d3e b70f 3f3e 10fc 923d ee9b 8dbe
00000220: 2254 733d 3136 1d3d 0994 35be 48e9 8fbe
00000230: fd27 3dbe 91b9 4f3d 9dd5 26be 9cfc a73d
00000240: 0927 2a3d 5c05 43be cc14 63bd d3f0 a53d
00000250: 19e5 cf3e 6602 38bc c0d5 b2be 0712 3e3d
00000260: 8ba5 173d 6f8f 5abe e731 47be e99f b0bd
00000270: 16f1 a1bd c518 68bd 04ee 47be ddcb 03bd
00000280: 9314 cd3c aa4e dbbc 73e4 aa3d dc7c abbd
00000290: cbd5 e03d 8f48 013d 7b8a f7bb 785a 113e
000002a0: 034b 5bbd 0135 563e b574 963d e582 efbc
000002b0: 5e62 743c ed93 373c 60e9 e03b b995 cf3d
000002c0: 360e 15be 2980 e3bd e2a0 a3bd a95a 403d
000002d0: c501 e13d fd36 ccbe 44fc eebd a441 213d
000002e0: ee9c e33b 5e50 773d b2b2 173d 1143 7bbb
000002f0: d2e1 263d 11b4 d2bc 4f0b fb3c 0c62 f23d
00000300: 9ec9 6bbe 7631 103d a331 913d 1d48 93be
00000310: 4f1a 1b3d b262 61bc 367c 92be 3df6 343d
00000320: 1686 cd3d 3bfc 8cbd 8df0 86be 9926 7dbe
00000330: 2b39 3d3e 7c6f 3d3e 600c 863d 9894 e53d
00000340: 87f9 d9bd 6fb6 7bbe 890c a5bd df18 a3bd
00000350: 9cd8 c83d b7ba afbd 376f 3cbe ab49 0bbe
00000360: 6224 793d ff6b 74bd 86c1 403c b342 173e
00000370: e377 863d 47cd a4bd 7b85 8abe cea0 abbb
00000380: cd62 52be 6d0e 4fbd 1037 c4bd c501 323d
00000390: ea35 cd3d b742 083e 280e 1d3d 8a48 dd3d
000003a0: 9cf3 403d 8258 2fbd c14c e6bd 7718 5d3d
000003b0: 853f cabd b3ae b13d b4e8 6dbe a68b e9bd
000003c0: c918 cfbd 3efd 833d 8238 b53e ac34 1e3e
000003d0: 6cf1 9a3d b136 463d cb21 8b3d 8756 3abc
000003e0: 81e6 a3bd a855 193e bd8b a73e c453 c53d
000003f0: f3a7 0c3e e598 e33d ebfd 7c3e 7be6 533d

bias f4 [128]
0.028421935 0.042497855 -0.077392586 -0.0817628 0.0026076213 -0.04322808 0.02485529 -0.0177645
0.033564534 -0.058460824 0.0008228594 -0.18759307 0.00521756 -0.11436999 -0.063261464 -0.0926767
-0.029592287 0.09070624 -0.005822208 -0.06934831 0.049798418 -0.0251298 -0.1470752 -0.045146037
-0.06844182 0.021215182 -0.13782853 -0.023770858 -0.077526145 0.10140765 0.0011379804 -0.08162679
-0.044131264 -0.049411763 -0.025148395 -0.1272042 -0.10103781 0.037505183 -0.10900485 -0.063585944
-0.104969695 0.003882055 -0.03844675 -0.15672106 -0.09275185 -0.045737516 0.017822191 -0.069190115
-0.08304343 -0.10198103 0.029362649 0.018728752 -0.0660146 -0.056572977 0.09280012 -0.026200902
-0.023010107 -0.0281674 0.028141387 -0.12928246 0.02845537 -0.025817528 -0.09763865 0.05376284
-0.051640958 -0.1252323 -0.12061755 0.06268669 -0.06767716 -0.002055454 -0.049499165 0.002879427
-0.008872395 -0.05504495 -0.08821108 -0.02880305 -0.14140926 -0.019994523 0.039542273 -0.004988335
-0.01342207 0.013454821 -0.060163457 -0.06929403 -0.113977246 -0.06550297 -0.07941182 -0.058347613
0.07818328 0.03752506 0.03539979 -0.010501898 -0.027467117 -0.019300789 0.029427012 -0.097399816
-0.14662702 -0.10518118 -0.099378444 -0.07211653 -0.082832776 0.022924544 -0.011480228 0.06803641
0.025748909 -0.0074949297 -0.004842391 -0.11742201 0.012645992 -0.036727894 -0.11503452 -0.026856285
-0.028701408 -0.047770847 -0.06769234 -0.06320956 -0.046446174 0.004527037 -0.016495312 -0.0434164
-0.041214224 -0.070276216 -0.0031927943 -0.016186198 -0.20828357 -0.13078429 -0.07164934 0.05726298
00000000: 1ed5 e83c 3b12 2e3d 0180 9ebd 4173 a7bd
00000010: a0e4 2a3b ed0f 31bd 529d cb3c db86 91bc
00000020: f77a 093d 9e74 6fbd 29b5 573a 6618 40be
00000030: 11f8 aa3b d03a eabd 3a8f 81bd 48cd bdbd
00000040: 866b f2bc 31c4 b93d 38c8 bebb 7d06 8ebd
00000050: 6df9 4b3d 03dd cdbc e29a 16be 0deb 38bd
00000060: 3a2b 8cbd 76cb ad3c ec22 0dbe 1abb c2bc
00000070: 07c6 9ebd d0ae cf3d 4928 953a f22b a7bd
00000080: fcc2 34bd fd63 4abd 0204 cebc d141 02be
00000090: e9ec cebd 099f 193d ef3d dfbd 5939 82bd
000000a0: 5afa d6bd 136a 7e3b 577a 1dbd 7c7b 20be
000000b0: aff4 bdbd 4357 3bbd d8ff 913c 8cb3 8dbd
000000c0: ac12 aabd 6edb d0bd f089 f03c 0a6d 993c
000000d0: aa32 87bd 11b9 67bd fd0d be3d 46a3 d6bc
000000e0: b17f bcbc 52bf e6bc c488 e63c 9f62 04be
000000f0: 3c1b e93c 487f d3bc c6f6 c7bd 6c36 5c3d
00000100: 7885 53bd e53c 00be 5606 f7bd e161 803d
00000110: 539a 8abd ccb4 06bb a3bf 4abd c5b4 3c3b
00000120: 865d 11bc d076 61bd 03a8 b4bd 60f4 ebbc
00000130: 97cd 10be 8ecb a3bc 14f7 213d 3075 a3bb
00000140: 3ee8 5bbc 9c71 5c3c f56d 76bd 07ea 8dbd
00000150: e76c e9bd 6c26 86bd aaa2 a2bd e8fd 6ebd
00000160: 8e1e a03d e1b3 193d 5fff 103d 2710 2cbc
00000170: b802 e1bc b01c 9ebc eb10 f13c 8e79 c7bd
00000180: 6525 16be 3b69 d7bd ed86 cbbd d5b1 93bd
00000190: 3ba4 a9bd 41cc bb3c 9117 3cbc ac56 8b3d
000001a0: 60ef d23c 0798 f5bb ebac 9ebb f37a f0bd
000001b0: 2331 4f3c fd6f 16bd 3897 ebbd b601 dcbc
000001c0: 371f ebbc 5dab 43bd 48a2 8abd 0474 81bd
000001d0: 583e 3ebd 8a57 943b 2d21 87bc 65d5 31bd
000001e0: 3fd0 28bd faec 8fbd 333e 51bb eb98 84bc
000001f0: 4a48 55be 51ec 05be e4bc 92bd 968c 6a3d

weight f4 [128, 128]
-0.03987267 -0.0975228 -0.004435831 -0.13526966 -0.07317234 -0.13091478 0.09767483 0.21582033
-0.06591233 -0.10692528 0.055368345 -0.06467232 0.045000155 -0.014510496 0.00051637023 0.14494218
-0.013862019 -0.23167413 0.080153726 -0.07251817 0.16378741 0.05428158 0.0339879 -0.034539115
0.05779248 -0.14184505 -0.20028655 0.07349501 -0.00171445 -0.24251117 0.22500654 0.10998457
0.01875771 0.07085423 0.11095427 -0.027801506 -0.22753067 -0.07564403 0.034731515 0.00059853826
-0.06484278 -0.25929025 0.024448704 -0.11865698 0.18832834 0.037040107 -0.021401249 -0.07368783
0.026926322 -0.0077691916 0.13334928 -0.021159638 0.13512284 -0.24433582 -0.26649684 -0.009867929
0.029293057 0.04105363 0.017285665 0.0002242147 -0.2550294 -0.06588046 0.08434707 0.059045505
-0.16052106 0.02010375 0.022753058 -0.082892545 0.14053598 0.01097342 -0.00048829534 0.18299189
-0.047933374 0.04675362 0.10355016 -0.06492073 -0.17589001 -0.10014153 0.2250497 0.026369398
0.106497385 -0.14610656 0.10008265 0.08507312 -0.011182469 0.03523727 -0.090032615 0.25797847
0.14531069 -0.16469914 0.00734615 -0.0680771 0.18711029 -0.04514862 0.12906414 0.028006796
0.07242505 -0.042447552 0.16155721 0.07177757 -0.07506921 -0.06665372 0.0035977873 -0.08395511
-0.070151724 -0.22774039 -0.3849625 -0.015869727 -0.24533206 0.37038013 -0.044505317 -0.14468308
0.0019623926 -0.005904615 0.069530405 -0.052875813 0.019331876 -0.12635112 0.05412281 0.046292942
-0.20833991 0.13970107 0.0590772 -0.11098113 -0.008491292 -0.03441822 0.043779094 -0.4430048
0.29359078 -0.1255897 -0.059232775 0.08783364 -0.0349713 0.018239895 0.17175137 0.15738025
-0.049806826 -0.12066409 0.015276696 0.5842506 0.06808549 0.08738732 -0.105307356 -0.19546358
0.28978118 0.04223857 0.06990865 0.14837512 0.009673687 0.15101762 0.055335578 0.051908176
-0.008255536 -0.09617705 0.036572564 0.17206338 0.17639849 -0.06350663 -0.13425851 -0.26918113
0.036949504 -0.17249182 -0.026619868 0.0030494845 0.23235746 -0.10563388 0.25880077 0.06115593
0.023457037 0.0027858526 0.12125832 0.05677846 0.060347386 -0.07479993 0.07781748 -0.0042922776
0.055747576 0.017474674 0.18458375 -0.005818017 0.4238063 -0.28985605 0.04436536 -0.086019315
-0.02994035 -0.11050329 -0.036980484 0.14456326 -0.13511431 -0.10087352 -0.0023050525 -0.107643336
0.06474852 -0.008504015 0.030353671 0.040848423 -0.003373686 0.13654333 -0.028894695 -0.034252018
-0.01657771 0.034605358 -0.04647447 0.037285022 0.044101156 -0.07355138 -0.22777635 0.0037966587
-0.24610505 0.051850427 0.08433977 0.008319987 -0.07754324 0.056690514 0.17668022 0.17721447
0.17389576 -0.08082946 0.0045567127 0.090030424 0.14989491 0.072523795 -0.185893 0.1463539
0.040503416 -0.047589492 0.07858506 0.017965984 -0.2491222 0.1658694 0.20853409 -0.14971909
-0.23583432 0.15988854 -0.08094324 0.19130191 -0.019561902 -0.20397976 -0.11468731 0.10675622
-0.006189093 -0.0040672333 0.016693646 0.05099567 -0.16763319 -0.24859643 -0.22145918 0.018188499
-0.13468842 -0.04473157 0.01861899 -0.05208127 0.0673832 -0.003804595 -0.00792625 0.025828116
00000000: 8651 23bd 09ba c7bd 735a 91bb 2184 0abe
00000010: 61db 95bd 860e 06be be09 c83d 0100 5d3e
00000020: 0bfd 86bd a4fb dabd ebc9 623d ec72 84bd
00000030: 1552 383d 6ebd 6dbc 055d 073a b96b 143e
00000040: 861d 63bc fc3b 6dbe a327 a43d 6884 94bd
00000050: e3b7 273e 5d56 5e3d e536 0b3d e378 0dbd
00000060: cfb7 6c3d d43f 11be eb17 4dbe 8d84 963d
00000070: 65b7 e0ba d954 78be 1d68 663e 973f e13d
00000080: c5a9 993c 061c 913d fe3b e33d fcbf e3bc
00000090: cdfd 68be 42eb 9abd a242 0e3d 39e7 1c3a
000000a0: 4bcc 84bd b1c1 84be a648 c83c 6e02 f3bd
000000b0: 25d9 403e 5eb7 173d ac51 afbc a5e9 96bd
000000c0: 9794 dc3c b494 febb b78c 083e fa56 adbc
000000d0: a45d 0a3e 2b33 7abe 4672 88be 18ad 21bc
000000e0: fef7 ef3c da27 283d ab9a 8d3c 2d1b 6b39
000000f0: 3793 82be 56ec 86bd 28be ac3d b3d9 713d
00000100: a25f 24be 9fb0 a43c 9f64 ba3c 91c3 a9bd
00000110: aae8 0f3e dcc9 333c f200 00ba 3a62 3b3e
00000120: c955 44bd b980 3f3d 1b12 d43d 29f5 84bd
00000130: 831c 34be 0117 cdbd 6e73 663e a304 d83c
00000140: 4d1b da3d f59c 15be 22f8 cc3d d13a ae3d
00000150: ad36 37bc f554 103d 0563 b8bd c115 843e
00000160: 53cc 143e e4a6 28be f9b7 f03b 026c 8bbd
00000170: d799 3f3e c2ed 38bd 6429 043e 826e e53c
00000180: 9653 943d 7cdd 2dbd 416f 253e 1e00 933d
00000190: e3bd 99bd bf81 88bd dbc8 6b3b a8f0 abbd
000001a0: b5ab 8fbd c734 69be ce19 c5be 3b01 82bc
000001b0: 5438 7bbe 77a2 bd3e 354b 36bd cd27 14be
000001c0: 7c9b 003b 807b c1bb f565 8e3d 4f94 58bd
000001d0: e25d 9e3c 3062 01be e1af 5d3d ab9d 3d3d
000001e0: 0f57 55be cc0d 0f3e effa 713d 134a e3bd
000001f0: 0f1f 0bbc 1ffa 0cbd b551 333d 86d1 e2be
00000200: 8851 963e 969a 00be 119e 72bd 20e2 b33d
00000210: 113e 0fbd d56b 953c 97df 2f3e 4a28 213e
00000220: 3e02 4cbd bc1e f7bd 1b4b 7a3c 7391 153f
00000230: 6870 8b3d 20f8 b23d 62ab d7bd 9b27 48be
00000240: 335e 943e 5a02 2d3d 442c 8f3d a6ef 173e
00000250: 627e 1e3c 5da4 1a3e 8fa7 623d ab9d 543d
00000260: 3a42 07bc 79f8 c4bd 1dcd 153d 6231 303e
00000270: cea1 343e c40f 82bd 107b 09be 1cd2 89be
00000280: 5d58 173d b2a1 30be e911 dabc dcd9 473b
00000290: 1def 6d3e 9356 d8bd 8981 843e a47e 7a3d
000002a0: f928 c03c da92 363b 4856 f83d 8890 683d
000002b0: d22e 773d b530 99bd c55e 9f3d 3ca6 8cbb
000002c0: 9257 643d 0c27 8f3c 8603 3d3e 10a5 bebb
000002d0: 24fd d83e 0368 94be 74b8 353d e52a b0bd
000002e0: 7745 f5bc 8d4f e2bd d978 17bd 6408 143e
000002f0: 685b 0abe c796 cebd 5d10 17bb 1c74 dcbd
00000300: df9a 843d 6d54 0bbc 43a8 f83c ad50 273d
00000310: 0f19 5dbb 04d2 0b3e 91b4 ecbc d84b 0cbd
00000320: facd 87bc 59be 0d3d 045c 3ebd 2eb8 183d
00000330: 6aa3 343d 1ba2 96bd 343e 69be 5dd1 783b
00000340: f602 7cbe 1d61 543d 54ba ac3d 8e50 083c
00000350: fdce 9ebd 5034 683d a9eb 343e b677 353e
00000360: bb11 323e ea89 a5bd 7a50 953b df61 b83d
00000370: 0d7e 193e 5b87 943d bc5a 3ebe ccdd 153e
00000380: e9e6 253d 33ed 42bd 34f1 a03d 662d 933c
00000390: e419 7fbe abd9 293e f689 553e f64f 19be
000003a0: 8d7e 71be d2b9 233e 92c5 a5bd a6e4 433e
000003b0: 4840 a0bc 12e0 50be 2ee1 eabd 01a3 da3d
000003c0: e0cd cabb 6d46 85bb 1dc1 883c d6e0 503d
000003d0: 09a8 2bbe 1090 7ebe 32c6 62be 0c00 953c
000003e0: c3eb 09be 7338 37bd da86 983c 2b53 55bd
000003f0: 3400 8a3d 8356 79bb 1add 01bc 7c95 d33c

bias f4 [128]
-0.042019747 -0.015637733 0.047531907 -0.11464069 -0.21509458 -0.1466179 -0.06743933 -0.08614931
0.042976227 0.031083776 -0.078632474 -0.15120064 0.056375034 0.090289444 -0.0021085897 -0.11033582
-0.12441702 -0.16758715 -0.0472463 -0.15093483 -0.029366195 -0.10534435 -0.006515444 -0.021829493
-0.032395184 -0.11848557 0.034338504 -0.0043788785 -0.120549455 -0.12953088 -0.0056744674 -0.00949973
-0.059825663 0.0064118546 -0.13851908 0.00055867346 -0.15366228 -0.05257433 -0.11375917 -0.12789127
-0.12951405 -0.12647879 -0.048399907 -0.06468258 -0.1073869 -0.05395765 -0.083392225 -0.10708114
-0.09744608 -0.042884924 -0.08485373 0.01333969 -0.06532159 -0.026793862 -0.0032592465 -0.07146565
0.014901232 -0.079657495 -0.013892799 -0.11163953 -0.048539657 -0.03852618 -0.0065660775 -0.120442286
-0.059773427 -0.13718912 -0.011135407 -0.049392734 -0.039652485 -0.07672338 0.02076665 -0.068568766
-0.09674483 0.0296469 -0.14186887 0.14830707 -0.020073058 -0.049092103 0.015998855 0.067174606
-0.16611226 -0.17250778 -0.11463963 -0.14041784 -0.15738274 -0.087055996 -0.06533428 -0.08728896
0.11554773 0.11079531 -0.03649351 -0.13131948 -0.020998057 -0.12220718 -0.06461276 -0.13271914
0.010435375 0.06816086 -0.13628933 -0.06390853 -0.087284304 -0.11993218 -0.016648844 -0.077334836
-0.1272768 -0.0020939836 0.173043 -0.11894377 -0.12236395 -0.08634903 -0.14210123 0.0013644029
-0.13974217 0.06660651 -0.07994249 -0.087324366 -0.026149184 -0.09382465 -0.080689155 -0.018429786
0.038208753 0.11553417 -0.112195134 0.15967572 -0.21645086 -0.020005567 -0.13167165 -0.17895895
00000000: e61c 2cbd b41a 80bc d1b0 423d bdc8 eabd
00000010: c141 5cbe 0123 16be a21d 8abd 0d6f b0bd
00000020: d707 303d 67a3 fe3c 100a a1bd 57d4 1abe
00000030: 82e9 663d ace9 b83d 4430 0abb bff7 e1bd
00000040: 5ace febd f79b 2bbe 5685 41bd a98e 1abe
00000050: 6091 f0bc c7be d7bd 817f d5bb c4d3 b2bc
00000060: d0b0 04bd 90a8 f2bd 88a6 0c3d b27c 8fbb
00000070: a2e2 f6bd bea3 04be e2f0 b9bb c1a4 1bbc
00000080: c10b 75bd 891a d23b f2d7 0dbe f173 123a
00000090: a559 1dbe 2e58 57bd 91fa e8bd eef5 02be
000000a0: 559f 04be a883 01be fb3e 46bd 4d78 84bd
000000b0: aaed dbbd b202 5dbd 8bc9 aabd 5b4d dbbd
000000c0: cf91 c7bd 1aa8 2fbd cbc7 adbd b78e 5a3c
000000d0: 53c7 85bd cd7e dbbc 1599 55bb 955c 92bd
000000e0: 4c24 743c 7823 a3bd 9f9e 63bc 44a3 e4bd
000000f0: 85d1 46bd a1cd 1dbd 4028 d7bb 72aa f6bd
00000100: fbd4 74bd 4e7b 0cbe 4871 36bc 0950 4abd
00000110: a56a 22bd 2621 9dbd d21e aa3c c86d 8cbd
00000120: 2722 c6bd 0ede f23c 1346 11be cfdd 173e
00000130: 4170 a4bc cd14 49bd 0810 833c d792 893d
00000140: 5519 2abe e1a5 30be 2fc8 eabd b2c9 0fbe
00000150: f128 21be 6a4a b2bd fbcd 85bd 8ec4 b2bd
00000160: 4aa4 ec3d a7e8 e23d 387a 15bd 9d78 06be
00000170: 1e04 acbc c247 fabd b253 84bd 87e7 07be
00000180: 23f9 2a3c ec97 8b3d 6e8f 0bbe 7ae2 82bd
00000190: 1dc2 b2bd 019f f5bd 2863 88bc ba61 9ebd
000001a0: d954 02be 373b 09bb 2f32 313e cb98 f3bd
000001b0: f399 fabd c3d7 b0bd fc82 11be c4d5 b23a
000001c0: 9218 0fbe fe68 883d e3b8 a3bd 1ed7 b2bd
000001d0: d036 d6bc 2327 c0bd 5b40 a5bd 10fa 96bc
000001e0: c880 1c3d 2e9d ec3d 90c6 e5bd 0882 233e
000001f0: 4ba5 5dbe b7e2 a3bc efd4 06be 0441 37be

weight f4 [128, 128]
-0.0732663 0.23547934 0.19454966 -0.08141733 -0.07341977 0.0725852 0.0077038566 0.1041569
-0.040938556 0.054931834 0.10908952 -0.062332876 -0.008950408 0.022462875 0.13287978 -0.20908222
-0.0036041106 -0.07355139 -0.19398391 -0.15284018 -0.06918741 -0.16179469 -0.06909981 -0.10894668
0.015973568 0.044306684 0.09453713 0.076153964 -0.09750025 0.08450173 -0.038608387 -0.04230348
-0.014857499 0.063940495 0.15799975 -0.15107971 0.060239293 0.18078038 -0.08558489 -0.1992968
0.01715642 0.13246877 -0.10547599 -0.019639757 0.07430737 -0.028098268 0.1364896 0.2358789
0.026212672 -0.0042806505 -0.033051543 0.06107969 -0.18823627 0.21687979 0.13356118 0.12068571
-0.06653446 -0.18849328 -0.08331424 -0.1419061 -0.17789903 0.19815835 -0.07401908 0.02983667
0.0005925116 -0.07091783 0.022177039 -0.104878746 -0.17568044 -0.061930176 -0.25306666 0.3611494
-0.22425763 -0.040625647 0.076518096 -0.112004675 -0.20328434 0.016164394 -0.019331167 0.024472015
-0.0933891 0.019551583 -0.07950403 -0.07756455 -0.12922199 -0.22759034 -0.07045868 -0.05676952
0.049990878 -0.066047534 -0.048537444 0.05286529 -0.028138055 0.09395404 0.10753763 -0.027040493
-0.21961929 -0.10177844 0.089356445 -0.07879209 0.1738309 0.079109155 -0.024750143 -0.038561694
-0.12823515 0.09086904 0.028960055 -0.0051438585 -0.06681071 -0.19049786 -0.07109581 0.13376038
0.08898433 0.029408678 0.043581698 -0.16780302 0.015190322 -0.19068864 -0.13714157 -0.03731612
0.16157362 0.0055925245 0.0351522 0.032537937 0.035323467 0.23632678 0.11199565 -0.075290814
-0.038043585 -0.047849208 0.011541335 -0.17429124 -0.17784719 -0.0010357727 -0.06310776 -0.15732773
0.050314777 0.011640717 -0.008373573 -0.12897731 -0.092798315 -0.15915856 -0.031415675 -0.08169479
0.021969464 -0.033200994 -0.2090985 0.014551995 -0.08417659 0.06845029 0.19467433 -0.08691553
0.08967005 -0.06531611 -0.16611372 -0.028827015 0.02859741 0.10837648 -0.08395354 -0.031983662
-0.084727965 -0.21369402 -0.022950377 -0.10023049 -0.017015561 0.1650645 -0.017485633 -0.06698153
-0.07255179 0.054301452 0.103747584 0.015516484 0.084796816 0.02747423 0.0035658025 -0.033427645
0.07490925 -0.0014260641 0.009695072 0.009902516 -0.114294186 -0.12354053 -0.08102408 -0.104867645
-0.0030041118 -0.0037152779 -0.044261746 0.047686417 -0.07859858 -0.15991046 -0.015170789 0.07475084
-0.004759669 -0.05670497 -0.021356752 0.04788363 -0.03524404 0.04926867 -0.147607 -0.101061344
0.026375944 -0.019189699 -0.015210791 0.13228148 -0.015212873 -0.040711436 0.0295433 -0.079224996
-0.051703017 0.04543331 -0.20939958 -0.030897563 -0.10949545 -0.06998122 -0.01608981 0.008773973
0.27470088 0.09268224 0.13861719 -0.0645624 -0.00044532865 -0.20555995 0.10851622 0.03343061
-0.21713579 -0.021317 0.027725816 0.0008036559 0.042363644 -0.15990873 0.058805525 -0.08574008
0.053226717 0.12739027 0.14880472 -0.024884943 -0.20622617 0.007578082 -0.0018014968 0.17559214
0.10738958 0.017522944 -0.0282645 -0.02364834 0.040786054 -0.2015552 -0.05493519 -0.12303607
-0.0059784236 0.055779748 -0.03632998 0.016677605 -0.094126925 -0.09361377 -0.027700158 -0.08102374
00000000: a40c 96bd 7f21 713e 0738 473e 21be a6bd
00000010: 1b5d 96bd 8da7 943d a270 fc3b 3650 d53d
00000020: 30af 27bd 3400 613d 546a df3d c250 7fbd
00000030: bba4 12bc 1004 b83c a311 083e a619 56be
00000040: f132 6cbb 1ca2 96bd b8a3 46be 2382 1cbe
00000050: 21b2 8dbd 82ad 25be 3484 8dbd 701f dfbd
00000060: 00db 823c ed7a 353d af9c c13d 9cf6 9b3d
00000070: 36ae c7bd 3e0f ad3d d423 1ebd 6a46 2dbd
00000080: de6c 73bc 3cf3 823d b0ca 213e a4b4 1abe
00000090: 7abd 763d 7e1e 393e 2147 afbd 7614 4cbe
000000a0: 9f8b 8c3c e5a5 073e cc03 d8bd 8ee3 a0bc
000000b0: 762e 983d 572e e6bc eec3 0b3e 3d8a 713e
000000c0: f5bb d63c b344 8cbb 0e61 07bd b22e 7a3d
000000d0: 02c1 40be bc15 5e3e 43c4 083e 122a f73d
000000e0: 3843 88bd 6204 41be a8a0 aabd d54f 11be
000000f0: 2a2b 36be 06ea 4a3e 5197 97bd 086c f43c
00000100: c852 1b3a 5e3d 91bd 9fac b53c abca d6bd
00000110: 93e5 33be 7faa 7dbd f491 81be 93e8 b83e
00000120: cba3 65be 1467 26bd 85b5 9c3d b562 e5bd
00000130: c529 50be 316b 843c 655c 9ebc 8979 c83c
00000140: c942 bfbd a42a a03c 02d3 a2bd 2ada 9ebd
00000150: c552 04be 710d 69be a44c 90bd 2887 68bd
00000160: 3cc3 4c3d ee43 87bd 33cf 46bd 4689 583d
00000170: c781 e6bc fa6a c03d b03c dc3d 0684 ddbc
00000180: e1e3 60be 3771 d0bd 8300 b73d bf5d a1bd
00000190: ba00 323e fb03 a23d d0c0 cabc def2 1dbd
000001a0: 1350 03be 8c19 ba3d a33d ed3c d08d a8bb
000001b0: 0ed4 88bd df11 43be ae9a 91bd 7bf8 083e
000001c0: 6b3d b63d 78ea f03c b982 323d 8ed4 2bbe
000001d0: d4e0 783c e243 43be d76e 0cbe cad8 18bd
000001e0: 8e73 253e 7f41 b73b c1fb 0f3d 8046 053d
000001f0: 57af 103d a6ff 713e fa5d e53d 1232 9abd
00000200: 97d3 1bbd 88fd 43bd de17 3d3c 6779 32be
00000210: 931d 36be c4c2 87ba a43e 81bd 851a 21be
00000220: de16 4e3d b5b8 3e3c 5031 09bc a112 04be
00000230: 0b0d bebd 76fa 22be b9ad 00bd 994f a7bd
00000240: 4ef9 b33c c4fd 07bd eb1d 56be 7e6b 6e3c
00000250: c764 acbd aa2f 8c3d b558 473e c500 b2bd
00000260: eea4 b73d 74c4 85bd b719 2abe a226 ecbc
00000270: 1e45 ea3c 7df4 dd3d d5ef abbd 4d01 03bd
00000280: db85 adbd 9bd2 5abe 6e02 bcbc a545 cdbd
00000290: 3864 8bbc ab06 293e 083e 8fbc 9d2d 89bd
000002a0: 0896 94bd 336b 5e3d 9d79 d43d da38 7e3c
000002b0: f4a9 ad3d a311 e13c 3db0 693b 6deb 08bd
000002c0: 056a 993d c5ea baba 14d8 1e3c 2a3e 223c
000002d0: 1213 eabd d102 fdbd f4ef a5bd d9c4 d6bd
000002e0: a2e0 44bb 057c 73bb ce4b 35bd d552 433d
000002f0: 4bf8 a0bd 91bf 23be e78e 78bc f816 993d
00000300: fff6 9bbb 7843 68bd 5bf4 aebc a021 443d
00000310: 0e5c 10bd f2cd 493d 4a26 17be 40f9 cebd
00000320: 5d12 d83c b733 9dbc ae36 79bc cc74 073e
00000330: 6a3f 79bc 09c1 26bd ca04 f23c b740 a2bd
00000340: 8bc6 53bd 4718 3a3d d86c 56be e31c fdbc
00000350: 273f e0bd 5052 8fbd c7ce 83bc b6c0 0f3c
00000360: 98a5 8c3e 30d0 bd3d aaf1 0d3e 4b39 84bd
00000370: 007b e9b9 4f7e 52be c03d de3d 89ee 083d
00000380: d858 5ebe fda0 aebc 4021 e33c 6fac 523a
00000390: 8085 2d3d 1dbf 23be 10de 703d 7f98 afbd
000003a0: 4204 5a3d 9872 023e 4460 183e 82db cbbc
000003b0: f42c 53be 8f51 f83b 3420 ecba 6dce 333e
000003c0: 11ef db3d 478c 8f3c f48a e7bc 2aba c1bc
000003d0: 470f 273d 7d64 4ebe b903 61bd 56fa fbbd
000003e0: a7e6 c3bb 4e79 643d bfce 14bd 799f 883c
000003f0: 9ec5 c0bd 94b8 bfbd 71eb e2bc c6ef a5bd

bias f4 [128]
-0.17326544 0.04693055 -0.049184922 -0.07044672 -0.0101111885 0.10753193 -0.031584784 -0.067743406
-0.025441058 0.023218948 -0.057006832 -0.088538975 -0.064649485 -0.054137554 -0.033400156 -0.06680866
-0.11546548 -0.14663099 -0.13620251 0.09665312 -0.10937321 -0.11570989 -0.11761356 0.047253415
-0.13896754 -0.13920869 -0.086385064 -0.11882955 -0.026492001 -0.052589454 -0.068907276 -0.067212544
-0.0858211 -0.053595927 0.012854643 0.00798241 -0.032979812 0.028985007 -0.16389678 -0.12644483
0.02852537 0.050749246 -0.0895978 -0.16599761 -0.08854902 -0.13959207 -0.06672657 -0.012209758
-0.04862915 -0.09646089 -0.08986897 -0.047329385 -0.12202164 -0.11711917 -0.05608945 -0.11971957
-0.13233662 -0.13130514 -0.023837242 -0.019598586 0.014290962 0.0425155 -0.055122897 -0.13285884
-0.03543963 -0.1006461 0.0074647586 -0.051789526 -0.0355129 -0.08438143 -0.066265844 -0.03874443
-0.19250248 -0.07995088 -0.15582652 -0.00077678065 -0.009507524 0.073856905 -0.109685086 -0.0479572
-0.048211806 0.098690115 -0.14847781 -0.10299515 -0.11205382 -0.069663964 0.01422066 -0.03858838
-0.047692753 -0.07480796 0.0950333 -0.05279663 -0.13454376 -0.03762771 -0.09105965 -0.21487515
-0.11044061 -0.15251519 0.044083025 -0.07486822 0.06338834 -0.11454129 -0.18036395 0.009931814
0.009763379 -0.07161976 -0.098079436 -0.005367704 -0.013263965 -0.015075141 -0.08547252 -0.0043698847
-0.09411696 -0.106223956 0.0069855656 -0.05494341 0.013485553 -0.14972353 0.008021034 0.110203005
-0.009961234 -0.068477035 0.026428998 -0.14403336 -0.16958241 0.0039798534 -0.025673736 -0.17704691
00000000: 7f6c 31be 403a 403d 2176 49bd 5f46 90bd
00000010: 66a9 25bc b339 dc3d 0c5f 01bd 0ebd 8abd
00000020: c469 d0bc aa35 be3c ff7f 69bd ec53 b5bd
00000030: f366 84bd 57bf 5dbd 9ace 08bd fbd2 88bd
00000040: 2a79 ecbd 6f26 16be ac78 0bbe 12f2 c53d
00000050: 10ff dfbd 4ff9 ecbd 61df f0bd cc8c 413d
00000060: 824d 0ebe b98c 0ebe a7ea b0bd e85c f3bd
00000070: c105 d9bc 0a68 57bd 421f 8dbd bba6 89bd
00000080: f9c2 afbd 6787 5bbd 489c 523c a7c8 023c
00000090: d715 07bd f771 ed3c 8fd4 27be c17a 01be
000000a0: 09ae e93c 71de 4f3d 0d7f b7bd 47fb 29be
000000b0: 3059 b5bd 39f1 0ebe f1a7 88bd 700b 48bc
000000c0: 5c2f 47bd 498d c5bd 390d b8bd 75dc 41bd
000000d0: 7be6 f9bd 2ddc efbd 0dbe 65bd 892f f5bd
000000e0: 4083 07be db74 06be 5246 c3bc 378d a0bc
000000f0: a424 6a3c bc24 2e3d 8cc8 61bd 260c 08be
00000100: 2529 11bd 8b1f cebd ef9a f43b 4121 54bd
00000110: fa75 11bd 2cd0 acbd 63b6 87bd 7bb2 1ebd
00000120: 5f1f 45be 49bd a3bd fd90 1fbe dea0 4bba
00000130: 72c5 1bbc 4a42 973d 93a2 e0bd c56e 44bd
00000140: be79 45bd 0b1e ca3d 910a 18be 1fef d2bd
00000150: 797c e5bd fbab 8ebd c5fd 683c d90e 1ebd
00000160: 7a59 43bd ea34 99bd d2a0 c23d 4741 58bd
00000170: d7c5 09be 831f 1abd 7b7d babd 3b08 5cbe
00000180: b02e e2bd f12c 1cbe 6790 343d 8254 99bd
00000190: bfd1 813d a094 eabd 54b1 38be 0cb9 223c
000001a0: 94f6 1f3c 61ad 92bd dfdd c8bd 91e3 afbb
000001b0: 1a51 59bc b9fd 76bc 370c afbd 4031 8fbb
000001c0: 65c0 c0bd f28b d9bd 2ce7 e43b 570c 61bd
000001d0: 82f2 5c3c 2051 19be a86a 033c 1db2 e13d
000001e0: 7234 23bc b03d 8cbd a081 d83c 7b7d 13be
000001f0: 03a7 2dbe 6e69 823b ba51 d2bc c94b 35be

weight f4 [128, 128]
-0.013745767 -0.12170421 -0.060464635 0.014295907 0.014752715 -0.09945062 0.13758919 -0.04353739
-0.06260913 -0.06456797 -0.012188703 0.050552443 0.068139985 0.035944298 -0.20161262 -0.008755306
0.0852537 -0.0058293305 -0.042394046 0.025664533 0.120129354 -0.12339895 -0.04064592 0.03207139
0.033418775 0.13509543 0.019872556 -0.0084400885 0.06271054 -0.06701993 -0.010092593 0.06628575
0.01335167 0.0646337 -0.06973774 -0.26196772 -0.028892597 -0.058494955 0.034893934 -0.03338295
-0.10661258 -0.010422709 0.08356879 0.047052033 0.02152181 0.064147115 -0.011931611 0.00421668
0.03907349 0.029675005 -0.028129032 -0.049969204 -0.08618481 -0.004260277 -0.13835119 -0.008769686
-0.033682484 0.0082500065 0.062379323 -0.14367536 -0.073795386 -0.0517232 0.010075957 -0.018907126
-0.08727257 -0.018697819 -0.047522813 0.037507337 -0.119798124 -0.031783566 -0.022873342 -0.07369407
-0.06823847 0.06904302 -0.054451905 -0.10388076 -0.15202677 0.048127417 0.048079446 -0.033813104
-0.006301451 -0.07883678 -0.070806466 0.05898463 -0.018349262 0.0018329266 -0.0991328 -0.029786358
0.08350571 -0.09819579 -0.009515644 -0.02809812 -0.060073413 -0.09077814 -0.08867483 0.011254608
0.055596597 -0.058434967 -0.0449594 -0.11228513 -0.04611447 0.08884742 0.02435271 -0.04824054
-0.1529158 -0.0136949485 -0.058827605 -0.053746667 -0.057123106 -0.039795976 -0.037515145 -0.07327644
-0.029796991 -0.0021344367 -0.0788627 -0.0455369 -0.0051827696 0.08598669 -0.23900981 0.0020697503
0.019312862 -0.020541266 -0.12937807 -0.014837688 -0.15050182 -0.094343685 -0.11375507 -0.08673736
-0.040445063 -0.0896298 0.08297687 -0.08101924 -0.074948825 0.032821152 -0.07142563 0.038153857
-0.005395555 -0.062780924 -0.048082225 0.017420331 0.050700635 0.020518541 -0.0202236 0.006683468
0.06448705 -0.068379655 -0.048917223 -0.030009346 0.054959144 0.03353786 -0.0638153 -0.053546242
-0.045305658 -0.027568929 -0.08642615 0.03270241 -0.0276208 0.025783025 0.005515251 -0.013139027
0.02508695 0.061047535 -0.030270113 -0.017308794 0.07686168 -0.0075550363 -0.020602664 -0.034583375
0.009569386 -0.044070568 -0.033414252 0.03066808 0.017705439 -0.08938913 -0.041023888 -0.08999467
-0.026401352 -0.022843435 0.05162924 -0.09744635 0.019651491 -0.02389164 -0.10699446 -0.0064647705
-0.01595477 -0.014363066 -0.08784574 0.02100208 -0.01283303 -0.030663328 0.026555277 -0.056176204
0.018261025 0.002310272 0.06078654 -0.09817601 -0.06927159 0.05270753 -0.020973599 0.02980687
-0.0072438107 0.07880903 -0.02307046 -0.0230512 0.03147199 -0.020931326 -0.054529928 0.0065923254
0.028168222 -0.06428863 -0.07188259 0.056251787 -0.07743456 -0.06079661 0.058845617 0.0551351
0.059351195 0.004509808 0.037733555 0.062598035 0.07568583 -0.037697684 -0.06158764 0.04501369
-0.039327897 -0.030994192 0.06022283 -0.02723377 -0.09271844 0.082685255 -0.056482125 -0.025859913
0.0050807623 -0.042386472 0.07550102 -0.07702779 0.008204702 0.016234597 0.04939873 -0.017309217
-0.04684503 0.016851027 0.041327447 -0.061537385 0.050450407 -0.03025304 0.00055392546 -0.06378871
0.029596174 0.07435979 0.023322927 0.007926989 -0.05664862 -0.032539863 -0.08183981 -0.050060812
00000000: ed35 61bc 0f40 f9bd c4a9 77bd 6139 6a3c
00000010: 5fb5 713c c4ac cbbd 2ee4 0c3e 4354 32bd
00000020: 3739 80bd 363c 84bd 20b3 47bc 1410 4f3d
00000030: fa8c 8b3d 543a 133d 8a73 4ebe 6a72 0fbc
00000040: 7e99 ae3d f803 bfbb 61a5 2dbd 6d3e d23c
00000050: 6106 f63d 97b8 fcbd 567c 26bd 4a5d 033d
00000060: 20e2 083d 7556 0a3e c5cb a23c 4c48 0abc
00000070: 626e 803d bf41 89bd 675b 25bc d3c0 873d
00000080: f6c0 5a3c ac5e 843d a9d2 8ebd a220 86be
00000090: 2bb0 ecbc 6898 6fbd f1ec 0e3d 8fbc 08bd
000000a0: b257 dabd 03c4 2abc 1d26 ab3d a2b9 403d
000000b0: 824e b03c 905f 833d ce7c 43bc 132c 8a3b
000000c0: 860b 203d ff18 f33c db6e e6bc 82ac 4cbd
000000d0: a981 b0bd cb99 8bbb efab 0dbe bbae 0fbc
000000e0: a5f6 09bd 092b 073c 7681 7f3d a21f 13be
000000f0: 0922 97bd b5db 53bd a015 253c 1ee3 9abc
00000100: f6bb b2bd 2b2c 99bc 48a7 42bd 4ba1 193d
00000110: b858 f5bd 7c2f 02bd e060 bbbc ebec 96bd
00000120: 9cc0 8bbd 6d66 8d3d f608 5fbd 70bf d4bd
00000130: e8ac 1bbe 4121 453d f4ee 443d 9c7f 0abd
00000140: 677c cebb 2d75 a1bd fb02 91bd de99 713d
00000150: 3151 96bc d03e f03a 2306 cbbd 8502 f4bc
00000160: 0b05 ab3d e01a c9bd 81e7 1bbc 072e e6bc
00000170: 8a0f 76bd e4e9 b9bd 269b b5bd 3f65 383c
00000180: 42b9 633d 8159 6fbd 5927 38bd bff5 e5bd
00000190: 87e2 3cbd a3f5 b53d 567f c73c df97 45bd
000001a0: f695 1cbe c760 60bc 37f5 70bd 7725 5cbd
000001b0: ebf9 69bd 1b01 23bd 7ba9 19bd f511 96bd
000001c0: d218 f4bc e8e1 0bbb c482 a1bd e784 3abd
000001d0: 39d4 a9bb ca19 b03d fdbe 74be a6a4 073b
000001e0: 0236 9e3c 2846 a8bc af7b 04be c619 73bc
000001f0: 261d 1abe 4337 c1bd 6bf8 e8bd 5ba3 b1bd
00000200: b9a9 25bd d48f b7bd c7ef a93d 6aed a5bd
00000210: c57e 99bd 796f 063d 9a47 92bd 3847 1c3d
00000220: 32cd b0bb 4993 80bd def1 44bd 15b5 8e3c
00000230: 78ab 4f3d 8016 a83c f7ab a5bc fe00 db3b
00000240: c911 843d a20a 8cbd 6d5d 48bd 29d6 f5bc
00000250: d71c 613d ff5e 093d 99b1 82bd 4e53 5bbd
00000260: 6d92 39bd 3cd8 e1bc 3100 b1bd f6f2 053d
00000270: 0445 e2bc ec36 d33c 47b9 b43b 1345 57bc
00000280: 2683 cd3c fb0c 7a3d 07f9 f7bc 2ccb 8dbc
00000290: a869 9d3d 3d90 f7bb ebc6 a8bc 4ca7 0dbd
000002a0: eac8 1c3c 5783 34bd 62dd 08bd a03b fb3c
000002b0: ff0a 913c a611 b7bd aa08 28bd 204f b8bd
000002c0: a647 d8bc 2822 bbbc 2f79 533d f491 c7bd
000002d0: 2afc a03c 67b8 c3bc e91f dbbd 6dd6 d3bb
000002e0: 94b3 82bc 1153 6bbc 78e8 b3bd 8e0c ac3c
000002f0: a141 52bc a931 fbbc 748a d93c 0519 66bd
00000300: 2598 953c ef67 173b 4ffb 783d 8110 c9bd
00000310: 43de 8dbd dae3 573d d3d0 abbc 892d f43c
00000320: 7d5d edbb a166 a13d 43fe bcbc dfd5 bcbc
00000330: c6e8 003d 2c78 abbc c65a 5fbd 6f04 d83b
00000340: 0bc1 e63c c2a9 83bd 2e37 93bd 4668 663d
00000350: 0396 9ebd de05 79bd 1a08 713d 58d5 613d
00000360: 3d1a 733d 03c7 933b 808e 1a3d 6633 803d
00000370: 2c01 9b3d e368 1abd 5243 7cbd 4660 383d
00000380: 4a16 21bd 88e7 fdbc 37ac 763d 5b19 dfbc
00000390: 2ae3 bdbd e356 a93d cd59 67bd 2bd8 d3bc
000003a0: 867c a63b 709d 2dbd 47a0 9a3d bfc0 9dbd
000003b0: 046d 063c 6bfe 843c 5356 4a3d 0fcc 8dbc
000003c0: 93e0 3fbd 2a0b 8a3c f846 293d a00e 7cbd
000003d0: 16a5 4e3d 39d5 f7bc 4f35 113a a8a3 82bd
000003e0: ad73 f23c f249 983d b90f bf3c 34e0 013c
000003f0: 6208 68bd 8548 05bd a19b a7bd 910c 4dbd

bias f4 [128]
-4.61108e-05 -0.11320263 0.011667625 0.0011002524 0.024511915 -0.13074991 -0.04288941 -0.0576161
0.052953616 -0.04734284 0.012151309 -0.09406694 -0.034864232 -0.14166968 -0.09872829 -0.019449083
0.026308076 0.031179694 -0.096644565 -0.0705651 -0.059618868 -0.05179843 -0.041601546 -0.102144964
0.00010369195 -0.09265199 -0.058425512 -0.072556496 -0.04952396 0.03727472 -0.01606076 -0.015417249
-0.051758844 -0.10271108 0.055677786 -0.09801724 -0.02202378 0.00897838 0.032238197 -0.099180825
-0.008486563 -0.026951794 0.022050593 -0.020226786 0.02335766 -0.058644336 -0.1194303 -0.08313781
-0.001822486 -0.037089285 -0.05911459 -0.04920343 -0.0143023105 -0.07604345 -0.005654524 -0.012766203
-0.012434446 0.0049364925 0.029714407 -0.10141917 -0.043231905 -0.07385655 -0.12201806 -0.12756401
0.058872882 -0.0038650953 -0.0667937 -0.046376713 0.024962137 -0.122512914 -0.03476584 -0.022857154
-0.0053289053 -0.084020786 -0.05116024 -0.17017367 0.047515072 -0.06852915 -0.079900846 -0.056030545
0.04833355 -0.07370504 -0.031283364 0.0037666445 -0.0113628 -0.1549456 -0.0915845 -0.08725475
0.07157385 -0.09812822 -0.09484146 -0.07113435 -0.13412753 -0.10557876 -0.0074438406 0.008664539
-0.0004371036 -0.08646426 -0.034679677 -0.055589985 -0.19560377 -0.06312643 -0.050434537 -0.056181066
0.049784698 0.03929647 -0.0076649087 -0.0046158694 -0.047069833 -0.10674561 -0.08463731 -0.010253683
-0.04183764 0.022439362 -0.087456465 -0.03889817 -0.12718871 -0.022649301 -0.03639623 -0.110590406
-0.088721246 -0.076726966 -0.045048647 -0.024482196 -0.06772601 -0.037019957 -0.054361038 -0.06413435
00000000: 1867 41b8 c8d6 e7bd 9129 3f3c 5836 903a
00000010: 36cd c83c 4ee3 05be ceac 2fbd dcfe 6bbd
00000020: e4e5 583d 91ea 41bd 4916 473c 2ba6 c0bd
00000030: cccd 0ebd db11 11be 0f32 cabd af53 9fbc
00000040: 0984 d73c 8f6c ff3c 96ed c5bd 6f84 90bd
00000050: ea32 74bd 972a 54bd 6266 2abd 6131 d1bd
00000060: 3175 d938 54c0 bdbd 974f 6fbd 8098 94bd
00000070: a3d9 4abd 60ad 183d db91 83bc a198 7cbc
00000080: 1501 54bd 305a d2bd 640e 643d 43bd c8bd
00000090: 376b b4bc 0e1a 133c 330c 043d 511f cbbd
000000a0: 3a0b 0bbc 02ca dcbc 72a3 b43c a5b2 a5bc
000000b0: 9058 bf3c 0b35 70bd e097 f4bd 2844 aabd
000000c0: 7ce0 eeba efea 17bd 2422 72bd 8989 49bd
000000d0: 3d54 6abc abbc 9bbd 9649 b9bb 5629 51bc
000000e0: d9b9 4bbc 4dc2 a13b a16b f33c dbb4 cfbd
000000f0: f013 31bd 1a42 97bd 9be4 f9bd 24a0 02be
00000100: b124 713d 8a4d 7dbb 23cb 88bd 82f5 3dbd
00000110: 657d cc3c 0de8 fabd a066 0ebd ed3e bbbc
00000120: 199e aebb 1713 acbd 668d 51bd 0242 2ebe
00000130: 2a9f 423d 0359 8cbd 0ea3 a3bd 4980 65bd
00000140: 67f9 453d abf2 96bd fc22 00bd cfd9 763b
00000150: 0a2b 3abc 0faa 1ebe a890 bbbd 9eb2 b2bd
00000160: 5095 923d 73f7 c8bd 3d3c c2bd e3ae 91bd
00000170: ba58 09be ad39 d8bd 76eb f3bb b6f5 0d3c
00000180: 0d2b e5b9 2d14 b1bd 470c 0ebd 53b2 63bd
00000190: 5b4c 48be 6e48 81bd 7294 4ebd 1e1e 66bd
000001a0: 0aeb 4b3d 56f5 203d ea29 fbbb b840 97bb
000001b0: 4ccc 40bd 719d dabd 5356 adbd 10ff 27bc
000001c0: f25d 2bbd c1d2 b73c 601c b3bd b053 1fbd
000001d0: c23d 02be 078b b9bc 3714 15bd 397d e2bd
000001e0: 7cb3 b5bd 0723 9dbd ee84 38bd e38e c8bc
000001f0: efb3 8abd 3da2 17bd aea9 5ebd df58 83bd
