nerf_models/foxy_table.pth (torch, 647458 bytes, 22 tensors)

weight f4 [128, 63]
0	0xbc0639de	-0.008192508
1	0x3df78444	0.120857745
2	0x3e0427d0	0.12905812
3	0x3d34ec9a	0.044170953
4	0x3d90383a	0.07041974
5	0x3d2110e2	0.03932274
6	0xbdb54738	-0.088514745
7	0xbe5f6db5	-0.21819194
8	0xbb7ae9a5	-0.0038286236
9	0xbd0f310e	-0.03495889
10	0x3da75976	0.0817136
11	0xbdbe7977	-0.09300511
12	0xbb169646	-0.0022977754
13	0xbdb31a71	-0.08745278
14	0xbc63599c	-0.013876345
15	0xbccf66e9	-0.025317626
16	0xbe5a13b2	-0.21296576
17	0xbcd72863	-0.026264375
18	0x3de90fc7	0.113799624
19	0xbe00a730	-0.12563777
20	0x3d1f698d	0.03891902
21	0x3df18e30	0.11794698
22	0x3d1c4426	0.03815093
23	0xbdaa762e	-0.08323322
24	0x3ced736d	0.028985703
25	0x3e4dc025	0.20092829
26	0xbdf76014	-0.12078872
27	0xbcda39a7	-0.026638819
28	0x3da5e637	0.081005506
29	0xbe510744	-0.20412928
30	0xbd3265ba	-0.043554045
31	0xbdc9b46d	-0.098488666
32	0xbe8ccf33	-0.2750183
33	0xbe30a2ea	-0.17249647
34	0x3e84622d	0.25856152
35	0xbe14f852	-0.14547852
36	0xbe827f62	-0.2548781
37	0x3b0fc167	0.0021935345
38	0xbdb95b61	-0.09050632
39	0xbb29f601	-0.0025933983
40	0xbde0d13a	-0.10977407
41	0xbda5877c	-0.08082482
42	0x3d90ca4c	0.07069835
43	0xbeadf33d	-0.3397464
44	0x3e9e72ed	0.30947056
45	0x3e500881	0.20315744
46	0xbed8045d	-0.4219083
47	0x3e47f109	0.19525541
48	0xbe9a64e7	-0.30155107
49	0xbe51f8f3	-0.20505123
50	0xbda303bd	-0.079596974
51	0xbe14f261	-0.14545585
52	0xbd36160a	-0.04445461
53	0xbe80b438	-0.25137496
54	0xbe9c4cf9	-0.30527475
55	0xbe9bc5bd	-0.304243
56	0x3e45bef5	0.19311126
57	0x3b0e8a8f	0.0021750068
58	0xbd07379e	-0.033012025
59	0x3eee05d3	0.4648882
60	0xbe7ffcfa	-0.24998847
61	0x3dc9569a	0.09830971
62	0x3d47bb23	0.04876245
63	0xbe3d3d74	-0.18480474
64	0x3d6e5550	0.05818683
65	0xbd210a63	-0.039316546
66	0x3cfb3b61	0.030667963
67	0x3da4edaf	0.08053147
68	0x3e5ffd38	0.21873939
69	0x3dd954eb	0.106119
70	0x3de1239a	0.109931186
71	0x3e3c17d8	0.1836847
72	0x3deef9ab	0.11668714
73	0xbd518349	-0.051150594
74	0x3e284338	0.16431892
75	0x3e7520d1	0.239383
76	0xbd4d53c6	-0.05012872
77	0xbd093b35	-0.03350373
78	0x3d007ef8	0.031371087
79	0xbd9c2843	-0.07624867
80	0xbd7bff20	-0.061522603
81	0x3e7cace7	0.24675332
82	0x3dab5c91	0.08367265
83	0x3e2cfc21	0.16893055
84	0x3e3d56c2	0.18490127
85	0xbe5d8542	-0.21632865
86	0xbe470bd9	-0.19438113
87	0x3e4937a1	0.19650127
88	0xbdee71e5	-0.116428174
89	0x3e6cf497	0.23140179
90	0xbcd35426	-0.025796961
91	0x3eb19a05	0.3468782
92	0x3dd23487	0.10263925
93	0xbde08640	-0.10963106
94	0xbb0170bc	-0.0019751033
95	0xbc2494d2	-0.010045247
96	0xbd629d24	-0.055325642
97	0x3b88ba3a	0.0041725906
98	0xbcfb6222	-0.030686442
99	0x3de17d3f	0.11010217
100	0xbea20077	-0.3164098
101	0x3d04697c	0.03232716
102	0xbdb0c667	-0.08631592
103	0x3dd69c64	0.10479048
104	0x3dba60f1	0.09100521
105	0xbe998834	-0.29986727
106	0xbe717083	-0.23578076
107	0x3d23a655	0.03995355
108	0x3df532a3	0.11972549
109	0x3e8f51e4	0.27992165
110	0xbe15df20	-0.14635897
111	0x3ea08400	0.31350708
112	0x3e040b55	0.12894948
113	0xbe9af1fe	-0.3026275
114	0xbdb9c428	-0.09070617
115	0xbe195a05	-0.14975746
116	0xbe65dab7	-0.22446714
117	0x3e897391	0.26845983
118	0x3d9b972c	0.07597193
119	0xbd035784	-0.032065883
120	0x3d94501c	0.07241842
121	0x3c81e193	0.015854632
122	0xbf33fa2a	-0.70303595
123	0x3dabccd7	0.083886795
124	0x3dbb5376	0.09146778
125	0x3e09cc29	0.13456787
126	0x3da7fa0f	0.08201992
127	0x3a693e82	0.0008897559
128	0xbd652078	-0.055939168
129	0xbe3decbe	-0.18547341
130	0x3e89880b	0.26861605
131	0x3daf5e98	0.08562964
132	0x3d964931	0.07338179
133	0xbe9144dc	-0.28372848
134	0x3d4d2b71	0.050090257
135	0xbe926c64	-0.2859832
136	0x3d8200ce	0.0634781
137	0xbdb83d0b	-0.08996018
138	0xbe13e8c6	-0.14444265
139	0x3ea96f05	0.33092514
140	0xbd0d89d9	-0.03455529
141	0xbd7ef968	-0.06224957
142	0x3dd6dd28	0.10491401
143	0x3d2012d9	0.039080475
144	0x3c9efb62	0.019406978
145	0xbe744995	-0.23856194
146	0xbd23d030	-0.039993465
147	0xbdd2a1c7	-0.10284763
148	0xbe3373dd	-0.17524667
149	0x3d803190	0.06259453
150	0xbe2470e2	-0.16058686
151	0x3e873a7a	0.26411802
152	0x3cc55f59	0.024093317
153	0x3e58f8fe	0.21188733
154	0xbd4e4073	-0.050354432
155	0x3c753ed0	0.014968589
156	0x3d158e20	0.036512494
157	0x3e6bfb28	0.23045027
158	0x3e1fb3a2	0.15595868
159	0x3e4c7fda	0.19970647
160	0x3cd5e207	0.026108755
161	0xbcc383f4	-0.023866631
162	0xbe48e8e1	-0.19620086
163	0xbe835355	-0.25649515
164	0x3e0c4403	0.1369782
165	0xbed263ec	-0.4109186
166	0x3e780365	0.24220045
167	0x3ee5f19e	0.44910902
168	0xbeb84b94	-0.35995162
169	0xbe31199e	-0.17294928
170	0x3e287c95	0.16453774
171	0xbd9e58cb	-0.0773178
172	0x3e6ae16b	0.22937553
173	0xbe150518	-0.14552724
174	0xbe21efbd	-0.15814109
175	0x3de13f6d	0.10998426
176	0x3e237a0a	0.15964523
177	0xbe2bc1e3	-0.1677318
178	0x3ea608eb	0.3242868
179	0x3e26e52f	0.16298364
180	0xbdde77ef	-0.10862719
181	0x3d45f510	0.048329413
182	0xbd3882e3	-0.0450467
183	0xbb3cd88d	-0.0028815598
184	0x3e2d89b0	0.16947055
185	0x3e591122	0.21197942
186	0xbd1b24bd	-0.037876833
187	0xbd9c9232	-0.07645072
188	0xbe8c1eac	-0.2736715
189	0xbd40e607	-0.04709437
190	0x3cb8e367	0.022569371
191	0xbd6c858d	-0.05774455
192	0x3da76e42	0.08175327
193	0x3d8b5bd4	0.06804624
194	0x3e4d5177	0.20050608
195	0x3e167dd8	0.14696443
196	0xbdeafac1	-0.11473609
197	0xbd5ec6a6	-0.054388665
198	0x3d9163ae	0.070990905
199	0xbd8c275e	-0.06843446
200	0xbe482e0b	-0.19548814
201	0x3dafe03a	0.0858769
202	0x3e38a712	0.18032482
203	0x3df5f0a6	0.12008791
204	0x3b0c50e2	0.0021410515
205	0x3e410683	0.1885014
206	0xbe00c0b2	-0.12573507
207	0xbce0d4e9	-0.027445273
208	0xbc9a5907	-0.01884128
209	0xbe87e906	-0.2654497
210	0xbda37ad9	-0.07982416
211	0x3d5222c0	0.05130267
212	0xbddb8250	-0.107182145
213	0x3eaa1ed1	0.33226636
214	0x3c3653b0	0.011128351
215	0xbd393ae9	-0.045222197
216	0xbcd5ea48	-0.02611269
217	0x3e543c90	0.20726228
218	0x3e204c4d	0.15654106
219	0x3b856a49	0.004071508
220	0xbe8a7b65	-0.27047268
221	0xbd1a81ca	-0.037721433
222	0xbb20da7f	-0.0024544296
223	0xbe647723	-0.22311072
224	0x3d9c578b	0.07633885
225	0xbea20973	-0.31647834
226	0x3eb3551a	0.35025865
227	0xbdd4757c	-0.10373971
228	0xbe83f1a8	-0.25770307
229	0xbd39c46d	-0.04535334
230	0xbd8903b1	-0.06690157
231	0xbdd62093	-0.10455432
232	0x3ca36f01	0.019950392
233	0x3d8acd47	0.06777435
234	0xbe5ee15f	-0.2176566
235	0x3e89bc2a	0.2690137
236	0x3dd14cb7	0.1021971
237	0x3e7097f6	0.23495468
238	0x3e4ed4b3	0.20198326
239	0x3e0d6d71	0.1381128
240	0xbdb64670	-0.08900154
241	0xbe005fa7	-0.12536488
242	0xbe8ba258	-0.27272296
243	0x3e6c6b5a	0.23087826
244	0x3befbb67	0.0073160413
245	0xbe465303	-0.19367604
246	0xbda7be31	-0.08190573
247	0x3d2ac173	0.041688394
248	0x3d842fb6	0.06454413
249	0xbdeb34f3	-0.11484709
250	0xbd0a1057	-0.03370699
251	0xbe7caa42	-0.24674323
252	0xbcecf6c3	-0.028926259
253	0x3cae0049	0.02124037
254	0xbce8b88f	-0.028408317
255	0xbe2b7295	-0.16742928

bias f4 [128]
0	0xbe42f812	-0.19039944
1	0xbe67f153	-0.22650652
2	0xbe4c2d1b	-0.19939081
3	0xbdf0cca3	-0.11757781
4	0xbe90be3c	-0.28270137
5	0xbe018b9d	-0.12650914
6	0xbe832d62	-0.25620562
7	0xbe5a06dc	-0.21291679
8	0xbdee6337	-0.116400175
9	0xbda3cfc5	-0.07998613
10	0xbe90ab40	-0.28255653
11	0xbe8dc695	-0.2769057
12	0xbe6f05c9	-0.2334205
13	0xbdd71081	-0.10501195
14	0xbde7abf8	-0.11312097
15	0xbda3f5b7	-0.08005851
16	0xbdefeebe	-0.11715458
17	0xbe1f25f2	-0.15541819
18	0xbe2fc74c	-0.1716587
19	0xbeb2dc4c	-0.34933698
20	0xbe8e3b10	-0.27779436
21	0xbe4e99fd	-0.2017593
22	0xbe3d16da	-0.18465748
23	0xbdb6a543	-0.0891824
24	0xbe8f36f2	-0.27971607
25	0xbe6b3b3c	-0.22971815
26	0xbddde8e3	-0.10835435
27	0xbe3e70eb	-0.18597762
28	0xbdbc6200	-0.091983795
29	0xbe76a4eb	-0.24086349
30	0xbe0c075c	-0.13674682
31	0xbe094563	-0.13405375
32	0xbe4fc766	-0.20290908
33	0xbe4ce062	-0.2000747
34	0xbe9e9f9d	-0.3098115
35	0xbe44c5ba	-0.19216052
36	0xbdd606cc	-0.10450515
37	0xbd036702	-0.032080658
38	0xbe72a175	-0.23694403
39	0xbe6ae220	-0.22937822
40	0xbe82dc1e	-0.2555856
41	0xbe5f1d8c	-0.21788615
42	0xbea35e43	-0.31907853
43	0xbdc49a9c	-0.09599802
44	0xbdf06908	-0.11738783
45	0xbe8c7ea5	-0.27440372
46	0xbe8beb39	-0.27327898
47	0xbe73ec52	-0.23820618
48	0xbe2f6638	-0.17128837
49	0xbe48fa5c	-0.19626755
50	0xbe4c1080	-0.19928169
51	0xbc8bb1f8	-0.017052636
52	0xbe9d25cb	-0.30692896
53	0xbcff7198	-0.031182095
54	0xbeb2cbb1	-0.3492103
55	0xbd4185d6	-0.047246777
56	0xbe6b8b32	-0.23002318
57	0xbd6db4be	-0.058033697
58	0xbe39fb6c	-0.18162316
59	0xbd831f7f	-0.06402492
60	0xbe1a6337	-0.1507691
61	0xbe226f76	-0.15862831
62	0xbd0b14e2	-0.033955462
63	0xbe44e421	-0.1922765
64	0xbde46492	-0.11151995
65	0xbece18ac	-0.40253198
66	0xbe38695b	-0.1800894
67	0xbd74f644	-0.05980517
68	0xbde5e00a	-0.11224373
69	0xbe99ed0a	-0.3006366
70	0xbdf4e753	-0.11958184
71	0xbe6af122	-0.22943547
72	0xbe6ba4b2	-0.23012045
73	0xbe1c750b	-0.15279023
74	0xbe717ff8	-0.23583972
75	0xbe239adc	-0.15977043
76	0xbe9fcb17	-0.31209633
77	0xbe5a0c7a	-0.21293822
78	0xbeaf0a3e	-0.34187502
79	0xbe598ece	-0.21245882
80	0xbe1731e5	-0.14765127
81	0xbce33c42	-0.027738694
82	0xbc7527f1	-0.014963136
83	0xbe0b1bb4	-0.13584787
84	0xbe5f820b	-0.21826951
85	0xbe7f477b	-0.24929611
86	0xbda756cd	-0.08170853
87	0xbd86b85d	-0.06578133
88	0xbeae68e9	-0.34064415
89	0xbe53f8a6	-0.2070032
90	0xbe1f44bb	-0.15553562
91	0xbe596352	-0.21229294
92	0xbe24304c	-0.16034049
93	0xbe5af81b	-0.21383707
94	0xbe9b5a49	-0.3034232
95	0xbe87305c	-0.26404083
96	0xbeb6278d	-0.3557705
97	0xbe63a179	-0.22229566
98	0xbe009781	-0.12557794
99	0x3c30639b	0.010765935
100	0x3cac0e3a	0.021002878
101	0xbe07540b	-0.13215654
102	0xbe84b9af	-0.25922915
103	0xbdacd2e0	-0.08438659
104	0xbda38f1c	-0.0798628
105	0xbdee66a2	-0.116406694
106	0xbe0ad0e9	-0.13556255
107	0xbe69e068	-0.2283951
108	0xbe8dfd36	-0.27732247
109	0xbe9bf1ec	-0.3045801
110	0xbdd496e4	-0.103803426
111	0x3cfaa07e	0.030594107
112	0xbe27b398	-0.16377103
113	0xbe9d57b3	-0.30730972
114	0xbe38a54f	-0.1803181
115	0xbd4d841a	-0.05017481
116	0xbe8cd635	-0.27507177
117	0xbe64c8f2	-0.2234228
118	0xbe675e57	-0.22594582
119	0x3d1170e0	0.035508037
120	0xbe7109d2	-0.23538902
121	0xbe2b2851	-0.16714598
122	0xbd200f15	-0.039076883
123	0xbe62f678	-0.22164333
124	0xbe2268f7	-0.15860353
125	0xbe71f333	-0.2362793
126	0xbe3d6f33	-0.1849945
127	0xbe830623	-0.2559062

weight f4 [128, 128]
0	0x3c162880	0.009164929
1	0x3d82af1b	0.06381055
2	0x3d3693c1	0.044574503
3	0xbdf189b2	-0.117938414
4	0x3dd93e30	0.106075644
5	0x3ca1db9e	0.019758042
6	0xbc999d21	-0.018751683
7	0x3e1f4de3	0.15557055
8	0xbc5fd4a6	-0.013661539
9	0xbd2d7203	-0.04234506
10	0xbe1a81fa	-0.15088645
11	0x3dd27a6d	0.10277257
12	0xbdc50396	-0.096198246
13	0x3dabb5dc	0.08384296
14	0xbd52eeaf	-0.051497158
15	0x3c0da043	0.008644166
16	0xbd96d94d	-0.073656656
17	0x3df3592e	0.11882244
18	0x3c9828d6	0.01857416
19	0xbc98db2c	-0.018659197
20	0x3dcc383c	0.09971663
21	0xbcf7fa9a	-0.030270863
22	0xbe038f27	-0.12847577
23	0x3d9dc6a2	0.07703902
24	0xbd9886e3	-0.074476026
25	0x3a55f01e	0.00081610854
26	0xbdbd349f	-0.09238552
27	0x3db5b011	0.088714726
28	0x3e09b999	0.13449706
29	0x3d2e0843	0.042488348
30	0x3e13fbe4	0.14451557
31	0x3ca846be	0.020541545
32	0x3d8f3c08	0.06993872
33	0xbdd8289b	-0.1055462
34	0xbd8d3a9d	-0.06895945
35	0x3e168426	0.14698848
36	0xbb88e61a	-0.004177821
37	0x3e3ed000	0.18634033
38	0xbe100d1f	-0.14067505
39	0xbd4f163f	-0.050558325
40	0x3daf61d0	0.08563578
41	0x3d8cdda9	0.06878216
42	0xbad75701	-0.0016429127
43	0x3d7be0a7	0.061493542
44	0xbd50733d	-0.05089115
45	0x3cab5ba9	0.02091773
46	0x3da42134	0.080141455
47	0xbdb5e3a2	-0.08881308
48	0xbd63007c	-0.055420384
49	0x3de51250	0.111851335
50	0x3d8103d6	0.0629956
51	0xbdad6c2b	-0.08467897
52	0xbcce0134	-0.025147058
53	0xbd6a12da	-0.057146885
54	0xbd760ad7	-0.06006893
55	0xbc2c267e	-0.010507224
56	0xbdadefb6	-0.08492987
57	0xbe2ed23b	-0.17072384
58	0x3a8b876d	0.0010645218
59	0x3da978c4	0.08274987
60	0xbc3b5025	-0.011432682
61	0x3dd1db10	0.10246861
62	0xbdfb0fff	-0.122589104
63	0x3e16050b	0.14650361
64	0x3dc1749c	0.094460696
65	0x3d796064	0.06088294
66	0xbd84d206	-0.06485371
67	0xbc385015	-0.011249562
68	0x3d831460	0.064003706
69	0xbcc25382	-0.02372146
70	0xbe097164	-0.13422161
71	0xbe44ed23	-0.19231085
72	0x3d652230	0.055940807
73	0xbe3be009	-0.18347181
74	0xbca8f1cf	-0.020623116
75	0x3df22f7c	0.11825463
76	0xbca17345	-0.019708285
77	0xbe09f559	-0.13472499
78	0xbcec606d	-0.028854573
79	0xbe1788d1	-0.14798285
80	0x3dbda15f	0.09259295
81	0x3de28c64	0.11061934
82	0xbc1a84a7	-0.009431041
83	0xbd4d127d	-0.05006646
84	0xbdc54b33	-0.09633484
85	0x3c6cdceb	0.014456968
86	0xbdc409f8	-0.09572214
87	0x3e516f50	0.20452619
88	0xbe8cea44	-0.2752248
89	0x3de54da7	0.11196452
90	0xbe0545eb	-0.13014953
91	0x3c5b6dbb	0.013392861
92	0x3e4902de	0.1963
93	0xbd88032f	-0.06641232
94	0x3daaff34	0.083494574
95	0x3d34b0fd	0.0441141
96	0x3993c26b	0.00028182878
97	0xbdcb49ac	-0.09926161
98	0x3c51e2e2	0.012810441
99	0xbdaa97f1	-0.08329762
100	0xbe1edb8a	-0.15513435
101	0x3ddf1bd6	0.10893981
102	0x3ddc397c	0.10753152
103	0x3dda8a12	0.10670866
104	0xbe02aa23	-0.12760215
105	0xbe086b46	-0.13322172
106	0x3d0f3c4e	0.03496962
107	0x3be68efe	0.007036089
108	0x3d764f26	0.060134076
109	0x3e2c5e2b	0.16832797
110	0x3bb615db	0.0055568046
111	0xbd18df5f	-0.0373224
112	0x3d516530	0.05112189
113	0x3e03c737	0.12868963
114	0x3d70baaf	0.058771785
115	0xbda4503f	-0.08023118
116	0xbd82f057	-0.063934974
117	0x3e1d86ac	0.15383404
118	0xbda1499c	-0.07875368
119	0x3e3632e2	0.17792848
120	0x3e1dd2b2	0.15412405
121	0x3cc68dd9	0.02423756
122	0xbd0acae1	-0.033884887
123	0xbe852ea6	-0.26012152
124	0xbe306a4c	-0.17228049
125	0xbdc33183	-0.09530928
126	0x3d398069	0.045288477
127	0xbe0e5503	-0.13899617
128	0xbe7ba4f2	-0.2457464
129	0x3ce00d8c	0.02735021
130	0xbd48aa73	-0.048990678
131	0xbe866d31	-0.2625518
132	0xbed68c3b	-0.41903862
133	0xbd60c6d0	-0.054877102
134	0x3d1dc7f0	0.038520753
135	0xbc826137	-0.015915496
136	0x3e73f872	0.23825243
137	0xbd85a8b3	-0.065263174
138	0xbc0b2d73	-0.008494723
139	0x3e80de45	0.25169578
140	0xbccfdd6b	-0.025374135
141	0xbd8d86d8	-0.06910485
142	0xbe03cae6	-0.12870368
143	0x3d61cccc	0.05512695
144	0x3e2e9485	0.17048843
145	0xbdc66bd0	-0.09688532
146	0x3d981e99	0.07427711
147	0xbdf8b890	-0.121445775
148	0xbe074940	-0.13211536
149	0x3db7cbdc	0.0897443
150	0x3e0c9c75	0.13731559
151	0xbd8b651b	-0.06806394
152	0xbe12e711	-0.14345957
153	0xbe8e0ca1	-0.2774401
154	0xbe89c24e	-0.26906055
155	0x3de8511e	0.11343597
156	0x3deb52b2	0.11490382
157	0xbe19b38e	-0.15009901
158	0x3dc9e433	0.09857979
159	0xbc5384b1	-0.012910054
160	0x3e035c02	0.12828067
161	0xbe6ce505	-0.23134239
162	0x3d98d27d	0.074620225
163	0xbed94620	-0.42436314
164	0xbdc9b8eb	-0.098497234
165	0xbcb2c563	-0.021822637
166	0xbdde696c	-0.108599514
167	0xbe409a05	-0.18808754
168	0x3d126c98	0.035748094
169	0xbe35c65a	-0.17751446
170	0xbc04a08f	-0.008094921
171	0xbec400c4	-0.38281834
172	0xbe6f6685	-0.23378952
173	0xbb8021af	-0.0039102654
174	0xbe57a766	-0.21059951
175	0x3e526dd2	0.20549706
176	0xbc01df45	-0.007926767
177	0xbe8d50fe	-0.27600855
178	0x3e2b96a5	0.16756685
179	0x3d220cc4	0.039562955
180	0xbe0ffec2	-0.14062026
181	0x3da72d96	0.08162992
182	0x3e00721e	0.12543532
183	0x3e3fa27c	0.18714327
184	0x3e44bd2a	0.19212785
185	0x3e49b172	0.19696596
186	0xbe291621	-0.16512348
187	0xbe835484	-0.25650418
188	0xbd8506cf	-0.06495439
189	0xbed0d900	-0.40790558
190	0xbe854807	-0.26031515
191	0xbe3e58eb	-0.18588607
192	0xbdbf59f7	-0.09343331
193	0xbe5f6fc4	-0.21819979
194	0x3dfb5c2e	0.12273441
195	0xbdeaf1d5	-0.11471907
196	0x3d99f900	0.07518196
197	0x3e15113a	0.14557353
198	0xbe6710d0	-0.22565007
199	0xbe01090b	-0.12601106
200	0x3c819003	0.01581574
201	0xbeb5c436	-0.3550126
202	0xbdd026cf	-0.10163652
203	0x3d31dfe7	0.04342642
204	0x3dfaa1ab	0.12237867
205	0xbdea002e	-0.114258155
206	0xbe424c2d	-0.18974371
207	0x3e196bac	0.1498248
208	0x3d91961f	0.071087115
209	0x3e066ee1	0.13128234
210	0xbd98c28d	-0.074589826
211	0xbdb054ae	-0.08609901
212	0xbd3218bf	-0.04348063
213	0x3f00e394	0.50347257
214	0x3d9554cb	0.072915636
215	0xbd36dace	-0.044642262
216	0xbe8ba94a	-0.27277595
217	0xbd3d2296	-0.04617556
218	0x3ddaf260	0.106907606
219	0xbd98e274	-0.074650675
220	0x3c80fc5b	0.015745332
221	0x3de720c0	0.112855434
222	0x3e8afb98	0.27145076
223	0x3e07006f	0.13183759
224	0xbd3d903f	-0.046280142
225	0xbd3adcad	-0.04562061
226	0xbe21b2a7	-0.15790807
227	0xbce0cc0d	-0.027441049
228	0xbea8de1a	-0.3298195
229	0x3e325f27	0.1741911
230	0xbd7c13bd	-0.06154226
231	0x3d901c52	0.07036652
232	0xbd1c5394	-0.038165644
233	0x3cb36600	0.021899223
234	0xbd35dd3b	-0.044400435
235	0x3cfb934d	0.030709887
236	0x3dbf43cb	0.09339102
237	0xbcf64279	-0.030060994
238	0xbe5cef8d	-0.21575756
239	0x3ea696c9	0.32536915
240	0x3d44edcb	0.04807834
241	0xbdafa0c8	-0.085755885
242	0x3e593bd8	0.21214235
243	0xbbf246d2	-0.0073936963
244	0x3e2ffa0c	0.17185229
245	0xbd6b55ec	-0.05745499
246	0xbead1d17	-0.33811256
247	0xbe4347fb	-0.19070427
248	0xbd57d907	-0.052697208
249	0x3cb13372	0.021630976
250	0x3e0a373e	0.13497636
251	0x3dc73053	0.09726014
252	0xbc60e492	-0.01372637
253	0xbdd090c5	-0.101838626
254	0xbe07e2be	-0.13270089
255	0xbc597400	-0.013272285

bias f4 [128]
0	0x3d338770	0.043830335
1	0xbd183f02	-0.037169464
2	0xbdabe788	-0.083937705
3	0xbddc2181	-0.10748578
4	0xbb0e2bf5	-0.002169368
5	0xbd0b666b	-0.03403322
6	0xbcacc7f1	-0.021091433
7	0xbd8d9119	-0.06912441
8	0xbe29f302	-0.16596606
9	0xbce73aea	-0.028226335
10	0xbdcabb41	-0.09898997
11	0xbd431590	-0.047627985
12	0xbc2a31eb	-0.010387878
13	0x3d9aedc5	0.07564882
14	0xbb70a762	-0.0036720862
15	0xbce4e7d6	-0.02794258
16	0x3b75e3ee	0.003751989
17	0xbd7672f5	-0.060168225
18	0x3db989e1	0.090595014
19	0xbd02a6e7	-0.03189745
20	0xbd85ba3f	-0.06529664
21	0xbd89244c	-0.06696376
22	0xbdf571fa	-0.1198463
23	0x3d966485	0.07343391
24	0x3c9bd97a	0.0190246
25	0xbda0efd2	-0.07858242
26	0xbd5b9a22	-0.05361379
27	0xbd29266e	-0.041296415
28	0x3d4d6d0d	0.050152827
29	0x3a130c04	0.00056093954
30	0xbe2812c7	-0.16413413
31	0xbc8ca9ef	-0.017170874
32	0x3b9b8c70	0.004746966
33	0x3c4c3fad	0.012466353
34	0xbdbbcfc1	-0.09170485
35	0x3c9624ff	0.018328188
36	0x3a582ddb	0.0008246579
37	0x3d483b80	0.04888487
38	0x3da3ff4f	0.080076806
39	0xbdb3adfe	-0.08773421
40	0xbba41fdb	-0.0050086803
41	0xbd4322ea	-0.04764072
42	0xbe0b0751	-0.1357701
43	0xbc67c6de	-0.014146535
44	0xbcd94f21	-0.02652699
45	0x3c192301	0.0093467245
46	0xbd0c537b	-0.0342593
47	0xbda5cb6b	-0.080954395
48	0xbd6e4175	-0.058167893
49	0xbe0c6fdb	-0.13714544
50	0x3cebc21b	0.02877908
51	0xbd66defd	-0.056365002
52	0xbdecdad7	-0.11565178
53	0x3d4b9040	0.049698114
54	0xbcd910e9	-0.026497321
55	0xbd41bfda	-0.047302105
56	0x3b2206be	0.0024723257
57	0xbd5aea2e	-0.053445987
58	0x3c9b05c2	0.018923644
59	0xbdeb7d41	-0.114985
60	0x3d7c80ee	0.061646394
61	0x3ab7d2db	0.0014024632
62	0xbdcd50a2	-0.10025145
63	0xbda13370	-0.07871139
64	0xbdd12e2c	-0.10213885
65	0x3cce9eb7	0.025222166
66	0x3aa389ae	0.0012476945
67	0xbc227b2f	-0.009917065
68	0x3bc7f5b0	0.0061022863
69	0xbddd21a2	-0.107974306
70	0xbd9930e9	-0.07480032
71	0xbda83bf0	-0.08214557
72	0x3c1a329a	0.009411478
73	0xbd56bc70	-0.0524258
74	0xbca9802e	-0.020691004
75	0x3d1bf03d	0.038070906
76	0x3ded066b	0.1157349
77	0xbdd1fea1	-0.10253645
78	0xbdde50ac	-0.10855231
79	0x3d57a485	0.052647132
80	0xbdfac35f	-0.12244295
81	0x3d57feb8	0.052733153
82	0xbdc1bcfc	-0.09459874
83	0xbc6ae3e6	-0.014336562
84	0xbd63773b	-0.05553363
85	0x3cff42a3	0.031159705
86	0xbc5f077f	-0.013612627
87	0xbd5e708f	-0.054306563
88	0xbc21f051	-0.009883956
89	0xbc5c6b69	-0.013453343
90	0xbd4046af	-0.04694241
91	0xbd917c9d	-0.07103846
92	0xbb8ee5d5	-0.004360894
93	0xbd5c6eb1	-0.0538165
94	0x3cb9c4af	0.022676794
95	0xbc2dbb04	-0.01060367
96	0x3d9cb1fb	0.076511346
97	0xbc939985	-0.01801754
98	0xbda42193	-0.08014216
99	0xbdfccadf	-0.12343382
100	0x3d02ff72	0.031981893
101	0x3d035d67	0.032071497
102	0xbba708f7	-0.0050975042
103	0xbba20795	-0.0049447515
104	0xbdd29acb	-0.10283431
105	0x3d09b63c	0.033621058
106	0x3cad9813	0.021190679
107	0x3d2b699e	0.04184877
108	0xbd271338	-0.040789813
109	0x3cc882f2	0.024476502
110	0xbc49fc8a	-0.012328276
111	0x3c53d2bf	0.012928664
112	0xbc036ff8	-0.008022301
113	0xbe280abc	-0.16410345
114	0xbd2d03e4	-0.04224004
115	0x3c3b18cd	0.011419487
116	0x3c56f476	0.0131198075
117	0xbce8b29c	-0.02840548
118	0x3d2200a7	0.039551403
119	0x3dac6b1d	0.08418868
120	0x3d3aa681	0.045568947
121	0x3d217b5e	0.039424293
122	0x3d0066dc	0.031348094
123	0xbdd69ef7	-0.10479539
124	0xbd00c377	-0.03143641
125	0x3d133374	0.03593774
126	0xbd810b3b	-0.0630097
127	0xbcd3bec7	-0.025847806

weight f4 [128, 128]
0	0x3e30c530	0.17262721
1	0x3e10e3f9	0.14149465
2	0xbe84f2d4	-0.25966513
3	0x3dd54996	0.10414426
4	0xbe40d603	-0.18831639
5	0x3d754412	0.05987937
6	0x3dc6d3cb	0.09708365
7	0xbe3676f0	-0.17818809
8	0xbe5521da	-0.20813695
9	0xbdbc3a6b	-0.0919083
10	0xbdfd760c	-0.12376031
11	0xbd5f84c7	-0.054569986
12	0xbd8e470b	-0.06947144
13	0xbe437ea1	-0.19091274
14	0xbe85dcb2	-0.2614494
15	0x3e3500c5	0.17676075
16	0xbd8d0dec	-0.06887421
17	0x3d8d6e5d	0.06905816
18	0x3d234e6e	0.03986972
19	0x3c7e7f78	0.015533321
20	0xbe808068	-0.25097966
21	0x3e06c4f8	0.13161075
22	0xbd43669a	-0.04770527
23	0x3dc39bb3	0.09551182
24	0xbec03bea	-0.3754571
25	0x3e8e9c88	0.278538
26	0xbe3977da	-0.18112126
27	0xbbb32031	-0.005466484
28	0xbd65f94f	-0.056145962
29	0xbcf1976d	-0.02949115
30	0xbe638d58	-0.22221887
31	0xbd932e16	-0.071865246
32	0xbd7f7a75	-0.062372644
33	0xbd1ce7b0	-0.038306892
34	0x3e1e9bcb	0.15489118
35	0xbcb7e617	-0.022448583
36	0x3e0e2ee2	0.13885072
37	0xbdc60af4	-0.09670058
38	0xbd034cfc	-0.03205584
39	0xbd56ee7e	-0.052473538
40	0x3e819444	0.2530843
41	0x3c83e077	0.016098244
42	0x3dc45f4d	0.0958849
43	0x3dd390ff	0.1033039
44	0x3e045847	0.129243
45	0xbc39df76	-0.011344781
46	0xbd1bdd3b	-0.03805278
47	0xbcdf2054	-0.027237095
48	0xbe26323c	-0.162301
49	0x3e029647	0.12752639
50	0x3dda6b3b	0.10664984
51	0x3db943a1	0.09046102
52	0x3d83be13	0.06432738
53	0x3e3f984c	0.1871044
54	0xbd43ffaa	-0.047851242
55	0x3e33a3e3	0.17542987
56	0xbea5dcf0	-0.32395124
57	0xbec853f6	-0.39126557
58	0x3e17aa2c	0.14811009
59	0x3e7736a3	0.24141936
60	0xbdc19f55	-0.09454218
61	0x3dde5a71	0.10857094
62	0xbe8cd3e5	-0.27505413
63	0xbd200556	-0.03906759
64	0x3dd8c283	0.10583975
65	0xbd3597ca	-0.04433421
66	0xbe9b9ca7	-0.30392954
67	0x3d5d12bf	0.053972956
68	0x3d63760a	0.055532493
69	0xbe224a31	-0.15848614
70	0x3a98049e	0.0011598056
71	0xbd39700d	-0.045272876
72	0xbea98c3c	-0.33114803
73	0x3e3132e7	0.17304574
74	0xbe2f1222	-0.17096761
75	0x3e2db3e5	0.16963156
76	0xbc95c418	-0.018281981
77	0xbb958c3e	-0.0045638373
78	0x3de313cc	0.1108776
79	0x3de53d5c	0.11193344
80	0xbc12cc27	-0.0089598065
81	0x3e203ef5	0.15649016
82	0xbd447e04	-0.04797174
83	0x3d05db03	0.03267957
84	0xbdf33a4c	-0.118763536
85	0x3ce4d1b1	0.02793202
86	0x3dc18628	0.094494164
87	0xbe16ce94	-0.14727241
88	0xbe820b00	-0.25399017
89	0xbd402f4d	-0.04692011
90	0xbdb0087e	-0.0859537
91	0x3d7579fa	0.05993078
92	0xbe5ca3c4	-0.21546847
93	0xbe8ce3d0	-0.27517557
94	0xbdd27b5a	-0.10277434
95	0x3e898e12	0.26866204
96	0x3c6edf00	0.0145795345
97	0x3d27e723	0.040991914
98	0xbca1f836	-0.019771677
99	0xbd38a20c	-0.045076415
100	0x3a88b737	0.0010430579
101	0xbe4086da	-0.18801442
102	0x3e486a5f	0.19571827
103	0xbd5a101d	-0.053238023
104	0xbe87b4d6	-0.26505154
105	0x3df4b1ea	0.11947997
106	0xbee60435	-0.44925085
107	0xbe6fdcc7	-0.23424064
108	0xbdac920b	-0.08426293
109	0xbe1c2ec6	-0.15252218
110	0x3d596886	0.053078197
111	0xbcc44f5e	-0.023963626
112	0x3baa919d	0.0052053467
113	0xbb8ccdd4	-0.0042969976
114	0x3d005826	0.031334065
115	0x3d33b347	0.043872144
116	0x3e08a1d2	0.1334298
117	0xbe209d75	-0.15685065
118	0xbead241b	-0.3381661
119	0xbde74135	-0.11291734
120	0xbe489a5c	-0.19590133
121	0xbcf31855	-0.029674688
122	0xbce98de1	-0.028510036
123	0xbe1436fc	-0.144741
124	0xbd2e83b7	-0.04260608
125	0x3c6a57d8	0.01430317
126	0xbdcf0287	-0.10107904
127	0xbd8535da	-0.06504412
128	0xbbe6d885	-0.007044854
129	0xbe515353	-0.20441942
130	0xbdcb6cdf	-0.09932875
131	0x3e0dc840	0.1384592
132	0xbd018a44	-0.031626
133	0xbe905dcc	-0.2819656
134	0x3c891b49	0.016736643
135	0x3dbfab1a	0.09358807
136	0xbeaabf20	-0.33348942
137	0xbdad6a21	-0.08467508
138	0xbf05fc7d	-0.5233839
139	0xbebe1d1c	-0.37131584
140	0x3e77e82d	0.24209662
141	0xbe412d6c	-0.18864983
142	0x3ccf4c89	0.02530505
143	0x3d71596d	0.058923174
144	0x3e769176	0.24078926
145	0xbd4cf3d6	-0.050037228
146	0xbd96b307	-0.073583655
147	0x3d4df578	0.050282925
148	0x3ce975cc	0.028498553
149	0xbe49e327	-0.19715558
150	0xbd57603e	-0.052582018
151	0xbec0cc67	-0.37655947
152	0x3ac46149	0.0014982607
153	0x3d6ac5b6	0.057317458
154	0xbe932810	-0.28741503
155	0x3d82f3c7	0.06394153
156	0xbe3e1225	-0.18561609
157	0xbe179eb0	-0.14806628
158	0xbda7dcc2	-0.08196403
159	0xbd046fdd	-0.032333244
160	0xbe2b3174	-0.16718084
161	0x3d42187d	0.047386635
162	0xbc6a7b03	-0.014311555
163	0x3e2bc41d	0.1677403
164	0x3e3993c8	0.1812278
165	0xbe028f11	-0.12749888
166	0xbe6855b3	-0.22688942
167	0x3d6ee2c5	0.058321733
168	0xbd5007ff	-0.050788876
169	0xbe362480	-0.17787361
170	0xbdb8d8bc	-0.09025714
171	0xbe7f1e95	-0.2491401
172	0x3e2e097f	0.1699581
173	0xbded9a82	-0.11601736
174	0x3dec4f2f	0.115385406
175	0xbd71109e	-0.058853738
176	0x3eb70488	0.35745645
177	0xbd4f7979	-0.050652955
178	0x3e87e7c8	0.26544023
179	0xbc148fb9	-0.009067469
180	0xbd274af8	-0.04084298
181	0x3d4d1b5d	0.050074924
182	0x3da3ca0c	0.07997522
183	0xbe2b1c4e	-0.16710016
184	0x3db4b7ba	0.088241056
185	0xbe543331	-0.20722653
186	0xbd68c875	-0.056831796
187	0x3edb2a28	0.428056
188	0xbd2fe5c6	-0.04294374
189	0x3e23a445	0.15980633
190	0x3dcab2de	0.098973975
191	0xbda4a9e9	-0.0804022
192	0x3db3bfd4	0.08776823
193	0xbeb6e182	-0.35718924
194	0xbea18ebe	-0.31554216
195	0xbe6a6128	-0.22888625
196	0xbe580c5a	-0.21098462
197	0xbeb119bc	-0.34589946
198	0xbc6f2d95	-0.01459827
199	0xba8cc6b7	-0.0010740374
200	0x3e8799f8	0.26484656
201	0xbd72fd13	-0.05932338
202	0xbe77cdd9	-0.24199618
203	0xbc5b7722	-0.013395103
204	0xbe5cfff2	-0.2158201
205	0xbda1c1d7	-0.078983
206	0xbea4065f	-0.3203611
207	0x3e3484fd	0.17628856
208	0xbe8f8831	-0.28033593
209	0x3c385ad3	0.011252123
210	0xbe386d45	-0.18010433
211	0xbe2f6582	-0.17128566
212	0xbeacbd6f	-0.33738276
213	0xbb48870d	-0.0030598075
214	0xbd887c2f	-0.06664311
215	0x3e14dd63	0.14537577
216	0x3e600e04	0.21880347
217	0xbe021334	-0.12702638
218	0xbdb7c523	-0.08973148
219	0xbe02beaf	-0.12768053
220	0x3d0a7773	0.033805322
221	0xbed77c94	-0.42087233
222	0x3d763e0c	0.060117766
223	0xbe905553	-0.28190097
224	0xbe5c369b	-0.21505205
225	0x3bfd36b1	0.007727467
226	0xbe04b7cd	-0.1296074
227	0x3e4207a3	0.18948226
228	0x3db60499	0.08887596
229	0xbd9e2366	-0.077215955
230	0xbde7a189	-0.11310107
231	0xbd1e2eb6	-0.038618766
232	0xbe9cae44	-0.30601704
233	0x3c8176be	0.015803691
234	0x3eb81025	0.35949817
235	0xbdd98fcc	-0.1062313
236	0xbca68b57	-0.020330114
237	0x3dde3c23	0.10851314
238	0x3e52cd4e	0.2058613
239	0x3d43ff22	0.047850735
240	0x3e1da9b6	0.15396771
241	0x3e1f9df0	0.15587592
242	0xbf003457	-0.50079864
243	0x3dcc35c7	0.09971195
244	0xbe402a4b	-0.18766133
245	0x3d05f94e	0.03270846
246	0x3e24c832	0.16091993
247	0xbcc7ad20	-0.024374545
248	0xbc223cff	-0.009902238
249	0x3d1ba88d	0.03800254
250	0x3df29e36	0.118465826
251	0xbcc11186	-0.023567926
252	0xbc8c16a2	-0.017100636
253	0xbf109c3f	-0.5648841
254	0x3d76a574	0.060216382
255	0x3ca87585	0.02056385

bias f4 [128]
0	0xbd3683c3	-0.04455925
1	0xbe08ea82	-0.13370708
2	0xbc486b5e	-0.01223263
3	0xbbbaaf81	-0.005697191
4	0x3c5be933	0.013422298
5	0xbd01d9d6	-0.031701885
6	0xbc39c205	-0.011337762
7	0xbdac08ac	-0.084000915
8	0x3d3fd692	0.04683549
9	0xbd621a70	-0.055200994
10	0xbe51bc1a	-0.20481911
11	0xbdd81be7	-0.10552197
12	0x3d9f9c26	0.07793455
13	0xbd39efda	-0.045394756
14	0xbdadeac7	-0.08492046
15	0xbe58293b	-0.21109478
16	0x3dbcb424	0.092140466
17	0xbdf5be6e	-0.11999212
18	0xbd96fe19	-0.07372684
19	0x3dd59169	0.104281254
20	0xbdadf567	-0.084940724
21	0x3cd0e052	0.02549759
22	0xbe1295c8	-0.1431495
23	0xbda78cb4	-0.08181134
24	0xbde05576	-0.109538004
25	0x3d8c1b8f	0.06841194
26	0x3afd38a2	0.0019319246
27	0xbb8eb9b3	-0.004355633
28	0xbdafdf60	-0.08587527
29	0xbe2c225b	-0.1680998
30	0xbc3293ea	-0.010899523
31	0x3caed0c3	0.02133978
32	0xbe7812b1	-0.2422588
33	0xbdc22916	-0.09480493
34	0x3dcc4356	0.09973781
35	0xbe3e4717	-0.18581806
36	0xbe17605d	-0.14782853
37	0x3c956ca1	0.018240275
38	0x3c0fe7ea	0.00878332
39	0xbd747ebb	-0.059691172
40	0xba69f4a0	-0.00089246966
41	0xbcfb101f	-0.030647336
42	0x3bb0ef19	0.0053995964
43	0xbd9285b9	-0.07154412
44	0xbe11a6df	-0.14223813
45	0xbd9ab776	-0.07554524
46	0xbc35d6e0	-0.0110985935
47	0xbd2e9da0	-0.04263079
48	0xbe2631a9	-0.16229881
49	0xbce36f74	-0.027763106
50	0xbd998c38	-0.07497448
51	0xbe43e5b1	-0.19130589
52	0x3c29a85e	0.010355083
53	0xbde223df	-0.11041998
54	0xbdcd4406	-0.1002274
55	0xbdf84d7d	-0.12124155
56	0xbe4207be	-0.18948266
57	0xbe18b4fa	-0.14912787
58	0x3c939a7e	0.018018004
59	0xbd48e0a8	-0.049042374
60	0xbdbc2a6c	-0.09187779
61	0x3e1ee590	0.15517259
62	0x3d59e26a	0.05319444
63	0xbd4ccca5	-0.04999985
64	0xbd960fe0	-0.07327247
65	0xbc1e1475	-0.009648432
66	0x3d2afd2a	0.041745342
67	0xbda027cf	-0.07820093
68	0xbda9c650	-0.08289778
69	0xbcc9ed1c	-0.024649195
70	0xbcb57eaa	-0.022155125
71	0xbd603dc9	-0.054746423
72	0xbe3f426d	-0.18677683
73	0xbe28c5f9	-0.1648177
74	0xbd1c62a1	-0.038179997
75	0x3cf3820a	0.029725093
76	0x3d16e75b	0.03684173
77	0xbd8339dc	-0.0640752
78	0xbdad8974	-0.08473483
79	0x3d8e755a	0.06955977
80	0x3c8dac6f	0.017294137
81	0xbdc5fee3	-0.096677564
82	0xbe137298	-0.14399183
83	0xbde19e71	-0.110165484
84	0x3c23c098	0.009994648
85	0xbe052a07	-0.13004313
86	0xbcd05f68	-0.025436118
87	0xbe366558	-0.17812097
88	0x3e250b39	0.16117562
89	0xbce056fc	-0.027385227
90	0xbdea32e2	-0.114354864
91	0x3d056ee7	0.032576468
92	0xbdcd248c	-0.100167364
93	0xbde0c167	-0.109743886
94	0xbd8b3828	-0.0679782
95	0xbe60aeb1	-0.2194164
96	0xbe2c1864	-0.1680618
97	0xbd53f36e	-0.051745825
98	0x3dd370c6	0.10324244
99	0x3dafc60f	0.085826986
100	0xbda3c823	-0.079971574
101	0x3d0e7b4c	0.034785554
102	0x3d9cd253	0.07657304
103	0xbdedcee4	-0.11611727
104	0xbe6fcd13	-0.23418073
105	0x3e00d664	0.12581784
106	0x3d6fce58	0.058546394
107	0xbd83bcdc	-0.064325064
108	0xbcfc38a6	-0.03078873
109	0x3c8c635b	0.01713722
110	0xbd3e29eb	-0.046426695
111	0x3dc71675	0.0972108
112	0xbe053dec	-0.13011903
113	0xbc9b9a65	-0.01899452
114	0xbe02b3f6	-0.12763962
115	0xbda4615a	-0.08026381
116	0xbe4ebd09	-0.20189299
117	0xbd53216f	-0.051545557
118	0xbe32498a	-0.17410865
119	0x3d93c23d	0.072147824
120	0xbd7eb0d7	-0.062180366
121	0xbe77a6e9	-0.24184765
122	0xbdff5c6f	-0.12468802
123	0xbe40dd1d	-0.18834348
124	0xbcb9854e	-0.022646572
125	0xbdc83920	-0.09776521
126	0x3da6c7b9	0.08143563
127	0xbc454ffa	-0.012042994

weight f4 [128, 128]
0	0xbe0628f4	-0.1310156
1	0x3db89333	0.09012451
2	0xbd8de059	-0.069275565
3	0xbdf40d44	-0.11916593
4	0xbbe73cf0	-0.007056825
5	0x3c6ab04c	0.014324259
6	0xbd1f663b	-0.038915854
7	0xbe6c4ffa	-0.23077384
8	0x3c8e43f3	0.017366385
9	0xbe3c08fd	-0.18362804
10	0xbcb2b1e7	-0.021813346
11	0xbe26073a	-0.16213694
12	0xbe622826	-0.22085628
13	0x3da763e6	0.08173351
14	0xbd67a3e8	-0.056552798
15	0xbcf3ca8b	-0.029759666
16	0xbdb065a0	-0.086131334
17	0xbd043d86	-0.032285236
18	0xbdfaf97e	-0.12254618
19	0xbe48d2ff	-0.19611739
20	0x3dad4d61	0.084620245
21	0x3cfc8c33	0.030828571
22	0x3d916c43	0.071007274
23	0x3e2d1051	0.16900755
24	0xbddfac37	-0.10921519
25	0xbe215426	-0.15754756
26	0xbdcb0f38	-0.09915012
27	0x3de5f64f	0.1122862
28	0xbd7975a9	-0.060903225
29	0xbe1441eb	-0.1447827
30	0xbe04c918	-0.12967336
31	0xbdc0be53	-0.094113015
32	0xbd893a38	-0.067005575
33	0xbdf0b292	-0.117528096
34	0xbe63f32b	-0.2226073
35	0xbe878eac	-0.26476038
36	0xbdeb18a1	-0.11479307
37	0x3bc67680	0.006056607
38	0xbd4d0709	-0.050055537
39	0xbd140508	-0.03613761
40	0xbca756e8	-0.020427182
41	0xbe10dbbf	-0.14146326
42	0x3da16eb5	0.07882444
43	0xbcc8b8f0	-0.024502248
44	0xbc76bc86	-0.015059596
45	0xbe330f4a	-0.17486301
46	0xbcd3ea13	-0.025868451
47	0x3d0bce82	0.034132488
48	0x3d37d6fd	0.044882763
49	0xbe266ebe	-0.16253182
50	0xbe220b3a	-0.15824595
51	0xbe0c6e43	-0.13713937
52	0xbdd9a2df	-0.10626768
53	0xbda333db	-0.07968875
54	0xbcb0f61e	-0.021601733
55	0x3c5c1788	0.013433345
56	0xbe81cf3b	-0.25353417
57	0xbcd26800	-0.025684357
58	0xbe0bbcf5	-0.136463
59	0xbe2115f7	-0.15731035
60	0xbb2ecb0d	-0.002667132
61	0xbe299d58	-0.16563928
62	0x3cd65820	0.026165068
63	0xbd7c9d29	-0.061673317
64	0xbda5aaa6	-0.08089189
65	0xbdc9f5c1	-0.09861327
66	0x3d78d914	0.060753897
67	0x3ce7fbc2	0.02831829
68	0xbe16b95a	-0.14719144
69	0x3df9a4d7	0.12189644
70	0xbe137d80	-0.14403343
71	0x3cce7880	0.025203943
72	0xbd3a6bb5	-0.045512874
73	0x3e292201	0.16516878
74	0xbe8265d3	-0.2546831
75	0xbc7ba26b	-0.015358548
76	0xbd21b4bf	-0.039479014
77	0xbd8d18fa	-0.068895295
78	0x3cf3d005	0.029762277
79	0xbd3caa80	-0.04606104
80	0xbddabbdd	-0.10680363
81	0xbd9144e8	-0.07093221
82	0xbd0bfe69	-0.03417817
83	0x3d716d3e	0.058942072
84	0x3d94d586	0.07267289
85	0x3ddb9ca4	0.10723236
86	0xbe1c7492	-0.15278843
87	0xbe23a9ab	-0.15982692
88	0xbe3e9a7f	-0.18613623
89	0xbd459761	-0.04824007
90	0xbcfe3674	-0.031031825
91	0xbca479ae	-0.020077553
92	0x3d998f55	0.074980415
93	0xbd025510	-0.031819403
94	0x3d6a9bd1	0.057277504
95	0xbe39b8e8	-0.18136942
96	0x3e0c512e	0.13702843
97	0xbd76aa12	-0.060220785
98	0x3b9c5de3	0.0047719344
99	0xbdc971e6	-0.098361775
100	0xbe01e861	-0.12686302
101	0xbdf8c1ad	-0.12146316
102	0xbd6f9241	-0.058489088
103	0xbc969c1b	-0.018384984
104	0xbdc55f9c	-0.09637377
105	0xbdce7480	-0.10080814
106	0x3a16b9b8	0.000574972
107	0xbdb1e364	-0.086859494
108	0x3debc5ee	0.115123615
109	0x3d1e323c	0.038622126
110	0xbde3eeff	-0.11129569
111	0xbe247afa	-0.16062537
112	0x3c6c5001	0.014423371
113	0xbe70b86a	-0.23507848
114	0xbb8ab7e7	-0.0042333486
115	0xbc8f975e	-0.017528232
116	0xbe28e5e4	-0.16493946
117	0xbd863f3d	-0.065550305
118	0x3caa48a3	0.020786589
119	0xbe0e482b	-0.13894717
120	0xbd84911b	-0.06472989
121	0xbcc0b56a	-0.023524005
122	0x3e29b4e7	0.16572915
123	0xbcdaf575	-0.026728371
124	0xbe04bb8e	-0.12962171
125	0xbbedb8cc	-0.0072546955
126	0xbbb89804	-0.005633356
127	0x3d2159fb	0.039392453
128	0x3d67147c	0.05641602
129	0x3e4a39f9	0.19748677
130	0x3e1058ca	0.1409637
131	0x3c884a4d	0.016636992
132	0xbe1fc086	-0.15600786
133	0xbd0102b7	-0.03149673
134	0xbc87c5c5	-0.016573796
135	0xbd28b552	-0.041188546
136	0xbe1c90cf	-0.15289615
137	0xbd0ecf77	-0.034865823
138	0xbd869346	-0.06571059
139	0xbdab8a16	-0.08375947
140	0xbc41ac7a	-0.011820907
141	0xbe5bfd60	-0.21483374
142	0x3d4583a6	0.048221253
143	0x3c3cf0d3	0.011532026
144	0xbe82d039	-0.25549486
145	0xbeb02c5b	-0.3440884
146	0xbd875d92	-0.06609644
147	0x3d2c95eb	0.04213516
148	0xbe601774	-0.21883947
149	0xbe31d4f0	-0.17366385
150	0xbe31b523	-0.17354254
151	0xbd1ece24	-0.03877081
152	0x3da87906	0.082262084
153	0xbdc001ac	-0.09375319
154	0xbd254b2e	-0.0403549
155	0x37048335	7.898362e-06
156	0x3dd03195	0.10165707
157	0xbda1737d	-0.07883356
158	0x3ba6bdc7	0.005088541
159	0xb9acee87	-0.00032984113
160	0xbeb240df	-0.34815118
161	0xbcd6dfcb	-0.02622976
162	0x3b2dd1d9	0.0026522784
163	0x3df1437b	0.11780449
164	0x3e39fb5f	0.18162297
165	0xbec15b99	-0.37765196
166	0xbdb10624	-0.08643749
167	0x3d187356	0.037219368
168	0xbedb745c	-0.42862213
169	0xbe3fb281	-0.18720438
170	0xbe65485b	-0.22390883
171	0xbeaa69c3	-0.33283815
172	0xbd0e4119	-0.03473005
173	0xbdfb44f4	-0.12269011
174	0xbebea1c2	-0.37232786
175	0xbdfa0427	-0.12207823
176	0xbe34925f	-0.17633961
177	0xbe2a8386	-0.16651735
178	0xbd64c815	-0.055854876
179	0x3da437a6	0.080184266
180	0x3c7d4ecf	0.015460684
181	0x3e32fbc1	0.17478849
182	0xbdfdae0e	-0.12386714
183	0xbd5abcfc	-0.053402886
184	0xbe16f1e2	-0.14740708
185	0xbe2d5da7	-0.16930257
186	0x3ce31df1	0.027724238
187	0xbd8a003b	-0.06738325
188	0xbe886f44	-0.2664739
189	0xbe91db4d	-0.28487626
190	0x3e138347	0.14405547
191	0xbddec425	-0.10877255
192	0xbe200441	-0.15626623
193	0x3e666830	0.22500682
194	0xbd536a60	-0.05161512
195	0xbdf9f33b	-0.12204596
196	0x3c491d06	0.012274986
197	0xbc1a6245	-0.009422843
198	0xbe164e8c	-0.14678401
199	0xbe2f659d	-0.17128606
200	0xbdb923c7	-0.09040027
201	0x3c1c38c7	0.009535021
202	0x3dcbcd80	0.099513054
203	0xbe0a2f30	-0.13494563
204	0xbd466005	-0.048431415
205	0x3e3f5ad5	0.18686993
206	0xbe3e03e3	-0.1855617
207	0xbe10a90c	-0.14126986
208	0xbd80bfcf	-0.062865846
209	0xbdf1678e	-0.117873296
210	0xbe3ba88c	-0.18326014
211	0xbd74b7e1	-0.059745673
212	0x3ce6d185	0.028176079
213	0xbdf3fd3a	-0.119135335
214	0xbda141f8	-0.07873911
215	0xbc1f4f7a	-0.0097235385
216	0xbda43837	-0.08018535
217	0xbe28d668	-0.1648804
218	0xbdf138e7	-0.117784314
219	0x3d9a5069	0.07534868
220	0xbe35280f	-0.17691062
221	0x3e0e447a	0.13893309
222	0x3ce507b9	0.027957784
223	0xbebbe19b	-0.3669556
224	0x3eea19eb	0.457229
225	0xbe3de2a6	-0.18543491
226	0xbe4771eb	-0.1947705
227	0xbd55d284	-0.052202716
228	0x3db1fecd	0.086911775
229	0xbe87e1bb	-0.26539406
230	0xbd579ccd	-0.05263977
231	0xbe231c2e	-0.15928718
232	0xbe127b24	-0.14304787
233	0x3dcfba4e	0.10142957
234	0xbd184a92	-0.03718049
235	0xbd8893bc	-0.06668803
236	0x3d84ae9c	0.064786166
237	0x3d140162	0.03613413
238	0xbe2b4b61	-0.16727974
239	0xbbf62720	-0.0075119883
240	0xba945c1d	-0.0011318956
241	0x3c500d9b	0.012698556
242	0xbc9205ee	-0.017825093
243	0xbeaa2191	-0.33228734
244	0x3cea74c4	0.028620131
245	0xbd1c2a93	-0.03812654
246	0xbe36b6ff	-0.17843245
247	0x3d40ea8d	0.047098685
248	0x3dee2c00	0.11629486
249	0xbde000dc	-0.10937664
250	0x3e6fd17a	0.23419753
251	0xbec1d4ca	-0.37857658
252	0xbd0f2dd7	-0.034955826
253	0xbe16dedc	-0.14733452
254	0xbdfa1258	-0.1221053
255	0xbd4bfb1b	-0.04980002

bias f4 [128]
0	0xbdefa9d2	-0.117023125
1	0xbe177c85	-0.14793594
2	0xbda5cf98	-0.08096236
3	0x3c902ebb	0.017600408
4	0x3da2a25b	0.07941123
5	0xbd36cd21	-0.04462922
6	0xbe26c5d0	-0.16286397
7	0xbe230e4d	-0.15923424
8	0xbe7b5d30	-0.24547267
9	0xbd6d09b4	-0.05787058
10	0x3cf3e459	0.02977197
11	0xbdb0737d	-0.08615778
12	0x3d0e10d9	0.034684036
13	0xbd9aa709	-0.07551391
14	0xbe43a8a6	-0.19107303
15	0xbe909f0d	-0.28246346
16	0x3d868ce0	0.065698385
17	0xbe11e03c	-0.14245695
18	0xbd523fc6	-0.05133035
19	0xbde1d2e6	-0.11026554
20	0x3de7de09	0.11321647
21	0xbddb6928	-0.10713416
22	0xbe1cee61	-0.1532531
23	0x3dc87131	0.097872145
24	0x3e2f8a44	0.17142588
25	0xbe277f31	-0.16357113
26	0xbd5d77a2	-0.05406917
27	0xbe7a899b	-0.24466555
28	0xbe10b3c1	-0.1413107
29	0x3c51f99b	0.012815858
30	0xbd6ed899	-0.058312032
31	0xbe4dfab3	-0.20115165
32	0xbd523ab1	-0.051325504
33	0x3dfe8e1d	0.1242945
34	0xbdeb6c04	-0.11495212
35	0xbcbebe97	-0.02328424
36	0x3d799c6d	0.060940195
37	0xbe0faccb	-0.14030759
38	0x3e376f49	0.17913546
39	0x3c9bf246	0.019036423
40	0x3d8767c1	0.06611586
41	0x3cac1dc9	0.021010296
42	0xbda72597	-0.081614666
43	0xbe1a6797	-0.15078579
44	0xbd0be473	-0.034153413
45	0xbd1acb24	-0.037791386
46	0x3b5131a4	0.0031920457
47	0xbe464fee	-0.19366428
48	0xbe0b4717	-0.13601337
49	0xbe09b0e8	-0.1344639
50	0xbdfced81	-0.12349988
51	0xbe413e5c	-0.18871444
52	0xbe59c742	-0.21267417
53	0x3e06530d	0.13117619
54	0xbda73f94	-0.081664234
55	0xbdc07a1d	-0.09398291
56	0x3cd3be30	0.025847524
57	0xbe19b1aa	-0.1500918
58	0xbd626a4e	-0.05527716
59	0xbdde8c7a	-0.108666375
60	0xbe200987	-0.15628634
61	0xbe06097b	-0.13089554
62	0xbe16b661	-0.1471801
63	0xbce538c9	-0.027981179
64	0x3e51a040	0.20471287
65	0xbdcb4d85	-0.09926895
66	0xbdfaf9f1	-0.12254704
67	0x3e208251	0.15674712
68	0xbe4ceac7	-0.20011435
69	0xbe047b1d	-0.12937589
70	0x3dc11055	0.09426943
71	0xbe0c27c9	-0.13687052
72	0xbde7a633	-0.11310997
73	0xbd7c5263	-0.061602008
74	0x3c7c1e15	0.0153880315
75	0xbdef010e	-0.11670123
76	0x3b4102ee	0.002945121
77	0xbe2aec06	-0.16691598
78	0xbc81ac57	-0.015829248
79	0xbd7e28d7	-0.062050667
80	0xbdd0bda5	-0.10192422
81	0xbdb649bd	-0.08900783
82	0x3e28a3ca	0.1646873
83	0xbe322605	-0.17397316
84	0xbdcad7d4	-0.09904447
85	0xbe3202e6	-0.17383918
86	0xbdd07f2e	-0.101805076
87	0xbdc07d6a	-0.09398921
88	0x3d32646e	0.04355281
89	0x3e661f78	0.22472942
90	0x3d3ab8e2	0.045586474
91	0xbcdc3075	-0.026878575
92	0xbd104f48	-0.03523186
93	0xbe47cf49	-0.19512667
94	0xbe021e42	-0.12706855
95	0xbe12c01b	-0.14331095
96	0xbdf5d6f5	-0.120038904
97	0xbd44a57d	-0.048009384
98	0xbe06f372	-0.13178805
99	0xbc8b7384	-0.017022856
100	0x3c32136d	0.010868889
101	0x3d9589c0	0.07301664
102	0xbe3c0cbb	-0.18364231
103	0x3dbd6cd0	0.0924927
104	0xbdc85f70	-0.09783828
105	0xbdc3a8df	-0.09553694
106	0xbe156da6	-0.14592609
107	0xbda9ff9c	-0.08300707
108	0xbe2aa7f2	-0.16665629
109	0xbe0a4bb4	-0.13505441
110	0xbe2d910f	-0.16949867
111	0xbd88d0fd	-0.06680486
112	0xbe120412	-0.14259365
113	0xbda08a70	-0.07838905
114	0xbe26eb6d	-0.16300745
115	0xbd4e1ea8	-0.050322205
116	0x3cb6ffee	0.022338834
117	0x3e1238c1	0.14279462
118	0xbe3a81a5	-0.18213518
119	0xbdc472b4	-0.095921904
120	0xbe71ebaa	-0.23625055
121	0xbccd2191	-0.02504042
122	0x3d963425	0.073341645
123	0xbe24114d	-0.16022225
124	0xbe340df7	-0.17583452
125	0xbe0fdf84	-0.14050108
126	0xbe080b51	-0.13285567
127	0x3e1ab6fa	0.15108863

weight f4 [128, 128]
0	0xbcb037b6	-0.02151094
1	0xbdd23e2a	-0.10265763
2	0x3e3b92c7	0.1831771
3	0x3d834a7b	0.064106904
4	0xbe8b7a2b	-0.27241644
5	0xbd302e1a	-0.043012716
6	0xbd8ca66a	-0.068676785
7	0x3c37e452	0.011223869
8	0x3e6c31b5	0.23065837
9	0xbe05ffd3	-0.1308587
10	0x3c45533c	0.01204377
11	0x3d40b73a	0.04704974
12	0xbe4078a4	-0.18796021
13	0xbe516058	-0.20446908
14	0x3b783b2a	0.0037877061
15	0x3e292648	0.1651851
16	0xbcd9d289	-0.026589649
17	0xbcb4c410	-0.022066146
18	0xbc9af6f0	-0.018916577
19	0x3d721702	0.059103973
20	0xbe993620	-0.29924107
21	0xbcd78826	-0.026310038
22	0x3d602f11	0.054732386
23	0xbe19dc5e	-0.1502547
24	0x3cc38358	0.02386634
25	0xbdd7f7b0	-0.105452895
26	0xbd63f861	-0.055656794
27	0x3d927c97	0.0715267
28	0xbd40bc92	-0.047054835
29	0xbe8dbb1a	-0.2768181
30	0x3c9006c6	0.017581355
31	0xbe24feec	-0.1611287
32	0x3e442874	0.19156057
33	0xbd1bf4b7	-0.038075175
34	0xbd01760d	-0.031606723
35	0xbe674fc0	-0.22589016
36	0xbe70f719	-0.2353176
37	0xbd95045d	-0.07276223
38	0xbd59fbdf	-0.05321872
39	0x3e2460d1	0.16052558
40	0xbdb6793d	-0.08909843
41	0x3c1e853d	0.009675321
42	0x3c7ed83b	0.015554483
43	0x3d3f6551	0.046727482
44	0x3d17704f	0.03697234
45	0xbd6dbacc	-0.05803947
46	0x3e867ad1	0.26265576
47	0xbdc27443	-0.094948314
48	0x3cc7c078	0.024383768
49	0x3ceb73eb	0.028741797
50	0xbbb6b2db	-0.0055755205
51	0xbd651ab1	-0.055933658
52	0x3dfe0b58	0.124045074
53	0xbd52ed5b	-0.05149589
54	0x3bf3b2e2	0.007437096
55	0x3ca6b855	0.020351568
56	0x3d3344f0	0.043766916
57	0xbb51b858	-0.0032000747
58	0x3c16e1c7	0.009209103
59	0xbd880ed9	-0.06643457
60	0x3c18e4ce	0.009331895
61	0xbeb0e531	-0.3454986
62	0xbead0ac2	-0.3379727
63	0x3cfe19a9	0.031018095
64	0xbdcc54ce	-0.09977113
65	0x3ce16c83	0.027517563
66	0xbc3a096d	-0.011354786
67	0xbe3a35f3	-0.18184642
68	0x3d932cda	0.07186289
69	0xbd4f4769	-0.05060521
70	0xbe01b313	-0.12665968
71	0xbdbb39d1	-0.09141887
72	0xbbe46e0a	-0.0069711255
73	0x3ca34fe7	0.019935561
74	0x3e5d5e74	0.21618062
75	0xbda1af12	-0.0789472
76	0xbd741a8f	-0.05959564
77	0x3b900e8b	0.004396265
78	0x3d47b631	0.048757736
79	0xbdda2a84	-0.106526405
80	0x3b343096	0.002749478
81	0x3ea307a1	0.31841758
82	0x3c08da35	0.008352806
83	0xbd29e45f	-0.041477557
84	0xbd1eba2e	-0.038751774
85	0x3c43a876	0.01194202
86	0x3dbefd94	0.0932571
87	0xbe11c50a	-0.1423532
88	0xbebefa0e	-0.37300152
89	0xbe9bbdd9	-0.3041828
90	0xbe4a4736	-0.19753727
91	0x3d1a2038	0.037628382
92	0xbd99c442	-0.07508136
93	0xbdd29768	-0.10282785
94	0x3c7687fe	0.0150470715
95	0x3d2bce0f	0.04194456
96	0xbd94bd47	-0.07262664
97	0x3d3b117f	0.045670982
98	0xbd59f6e3	-0.053213965
99	0xbd9d9931	-0.076952346
100	0x3e114149	0.1418506
101	0x3e004d83	0.12529568
102	0xbe4f5b10	-0.20249581
103	0xbe0f26c8	-0.13979638
104	0x3cdd3e21	0.027007164
105	0xbdc49ddc	-0.09600422
106	0xbdf26caf	-0.11837136
107	0xbe655e43	-0.22399239
108	0xbc04f7f9	-0.008115762
109	0xbd131bbf	-0.035915133
110	0xbda9eae8	-0.08296758
111	0xbdaeaf1d	-0.08529494
112	0x3e0ca7f5	0.13735946
113	0xbda71d4f	-0.08159887
114	0x3d133949	0.035943303
115	0x3e2b593b	0.16733257
116	0x3f01a45a	0.50641406
117	0xbd9f4cbe	-0.07778309
118	0x3cb6566e	0.02225801
119	0xbe3b0f50	-0.1826756
120	0x3d41f4a7	0.04735246
121	0x3d6a6799	0.057227705
122	0xbe8619b6	-0.2619149
123	0xbd30ad9a	-0.04313431
124	0x3cb77ae0	0.022397459
125	0xbe1fc200	-0.15601349
126	0x3db985f0	0.0905875
127	0xbe4ed98e	-0.20200178
128	0x3dedd3f4	0.116126925
129	0xbd6cdf3c	-0.05783008
130	0xbd628cf6	-0.055310212
131	0xbe115022	-0.14190724
132	0x3e44f31c	0.19233364
133	0xbb882bf1	-0.004155629
134	0x3ebbf074	0.3670689
135	0xbd164144	-0.036683336
136	0xbd6aa935	-0.057290275
137	0xbbeb743f	-0.0071854885
138	0x3e13a6f4	0.14419156
139	0xbe1b24d0	-0.15150762
140	0xbde77419	-0.11301441
141	0x3e7385c5	0.23781498
142	0x3d96de40	0.073666096
143	0x3cc29e7b	0.02375721
144	0xbdbd4530	-0.09241712
145	0x3c93ab97	0.018026156
146	0xbe1bb57e	-0.15205953
147	0xbea84cd0	-0.32871103
148	0xbdf78c71	-0.12087334
149	0xbe08ee8a	-0.13372245
150	0xbd8de230	-0.069279075
151	0x3dfe000c	0.12402353
152	0xbe76a151	-0.24084975
153	0x3c3a9a8e	0.011389388
154	0xbde93809	-0.11387641
155	0xbe823879	-0.2543371
156	0xbde22ea4	-0.11044052
157	0xbed33c41	-0.41256908
158	0xbdebd757	-0.11515682
159	0xbe215aa7	-0.15757237
160	0xbbde1f3c	-0.006778626
161	0xbe054d68	-0.1301781
162	0xbe956f4b	-0.29186472
163	0xbd3dcece	-0.046339802
164	0x3ed37f8d	0.4130825
165	0xbc548bc7	-0.012972779
166	0x3df57add	0.11986325
167	0x3d126a7a	0.035746075
168	0x3e780714	0.2422145
169	0xbd0d48e2	-0.034493335
170	0xbe76072a	-0.2402617
171	0x3c53992d	0.012914938
172	0x3b82f12b	0.0039960346
173	0xbe27d5e2	-0.16390184
174	0xbe1e94ce	-0.15486452
175	0x3e0fb9da	0.1403574
176	0xbd33d13e	-0.04390072
177	0xbcb33c12	-0.02187923
178	0x3cabb4f4	0.020960309
179	0xbdc204d2	-0.09473576
180	0xbd9d3968	-0.07676965
181	0x3a3bbfe0	0.00071620755
182	0x3de2ff59	0.1108386
183	0x3cd65dae	0.026167717
184	0xbd75319a	-0.059861757
185	0x3c3825fa	0.011239523
186	0x3d87e139	0.06634755
187	0x3d8f083f	0.06983995
188	0xbdbb1180	-0.09134197
189	0xbd7a3a0a	-0.061090507
190	0xbea59bd4	-0.3234545
191	0x3d6a7293	0.057238173
192	0x3d60c193	0.054872107
193	0x3d7f2a40	0.062296152
194	0xbeb9cfeb	-0.3629144
195	0x3d23c04c	0.03997831
196	0xbb659e31	-0.0035036916
197	0xbe23a104	-0.15979391
198	0xbd6a1430	-0.05714816
199	0xbdb8313f	-0.08993768
200	0xbc05f87a	-0.008176917
201	0x3d8ecc26	0.06972532
202	0x3dc9ee64	0.098599225
203	0x3db1f69b	0.086896144
204	0x3d9a671e	0.07539199
205	0xbe165f78	-0.14684856
206	0x3d63fad8	0.055659145
207	0xbed59635	-0.4171616
208	0x3e2a7af1	0.16648461
209	0x3e829520	0.25504398
210	0xbdbb3060	-0.09140086
211	0xbc02ed82	-0.007991197
212	0x3d91a499	0.07111473
213	0x3d32aabb	0.043619853
214	0x3e42ce5c	0.19024032
215	0xbe5f0fdc	-0.21783394
216	0x3b4da298	0.003137743
217	0x3c805693	0.015666282
218	0x3e45d058	0.19317758
219	0xbcc2a499	-0.023760127
220	0x3d3a8d3a	0.04554484
221	0xbd90b604	-0.07065967
222	0xbd20dd3e	-0.039273493
223	0x3d059028	0.03260818
224	0xbd571ea8	-0.05251947
225	0xbe547b69	-0.20750202
226	0xbcecabdd	-0.028890545
227	0xbe192df1	-0.14958932
228	0xbe5c7b6f	-0.21531461
229	0xbd3c5245	-0.045976896
230	0x3dcca386	0.09992127
231	0xbdf2827e	-0.11841296
232	0xbd3245bf	-0.043523546
233	0xbe6a300b	-0.2286989
234	0xbe106496	-0.1410087
235	0xbd58db17	-0.052943315
236	0x3e55109b	0.20807116
237	0xbd03e094	-0.032196596
238	0x3c422d92	0.011851685
239	0xbd996ee2	-0.07491852
240	0x3d8382d9	0.064214416
241	0x3e0f61d6	0.14002165
242	0xbe68aa11	-0.22721125
243	0x3cbfd57e	0.02341723
244	0xbe935868	-0.28778386
245	0x3b4d6e2e	0.003134619
246	0x3ce73664	0.028224178
247	0xbe8f5314	-0.2799307
248	0xbd7aca84	-0.06122829
249	0x3e22fa69	0.15915836
250	0xbe5aae9d	-0.21355672
251	0xbd8e7366	-0.06955604
252	0x3d1acf03	0.037795078
253	0xbe276ac5	-0.16349323
254	0xbd109d9c	-0.035306558
255	0x3d7eea18	0.062234968
