nerf_models/monk_check3.pth (torch, 647484 bytes, 22 tensors)

weight f4 [128, 63]
000000 9c 8e 5b bd c7 86 52 bc 89 ea 39 bd 49 ae a9 3d
       -0.0536028 -0.012849516 -0.045389686 0.082851954
000010 13 0b 51 be c7 36 f6 3c 51 2e 0f 3e 21 f2 6d 3d
       -0.2041438 0.030055417 0.13982512 0.05809224
000020 d2 12 61 bd f0 de 7d 3e 0f 00 af 3d 0c 1f 85 bc
       -0.05494959 0.24792075 0.08544933 -0.016250156
000030 66 95 99 bd ba e0 5c 3d fa 5a ee 3c e9 1a 10 be
       -0.074991986 0.053925253 0.029096115 -0.14072765
000040 90 8b c3 bc 2c ab 18 bc 12 82 98 be 01 32 dd bd
       -0.02387026 -0.009318154 -0.29786736 -0.10800553
000050 a5 7a 43 3e 03 dd 74 bd 1e bf 5c 3e e2 b6 ec 3b
       0.19089754 -0.059781086 0.2155728 0.00722395
000060 5a b0 5e 3d 30 57 a3 bd 33 b2 28 3e 98 1b aa bc
       0.0543674 -0.07975614 0.16474228 -0.02076511
000070 ce 7a 70 bd 99 a9 69 3e cf d4 29 be ff f8 6a be
       -0.058710866 0.22818603 -0.16585086 -0.22946547
000080 8f 66 5f bd 1a 1a 37 be 5f 27 1a 3e 93 36 0c be
       -0.054541167 -0.1788105 0.15054081 -0.13692693
000090 4c e5 82 3b 9e 87 80 be 82 4c 6c 3d 19 9d 2e 3e
       0.0039946195 -0.25103468 0.05769015 0.17052115
0000a0 cf 0d 7f be 96 e2 82 3e f4 97 d9 bd e7 fa a2 bd
       -0.24907611 0.25563496 -0.10624686 -0.07958012
0000b0 09 fa 77 3d 28 1a 3b 3d 1e 67 a3 be 43 90 96 3a
       0.060541186 0.04567924 -0.3191461 0.0011487085
0000c0 1c 54 16 3d 12 7e 8a 3e b8 c7 18 be 90 7b 26 3e
       0.036701307 0.2704931 -0.14919937 0.16258073
0000d0 a9 95 c9 be 25 7f 0a 3e 17 34 d9 3e a1 ba 27 3e
       -0.39371994 0.13525064 0.42422554 0.16379787
0000e0 1f 29 f4 3e 98 64 12 bd 13 34 50 bd 62 d1 de 3d
       0.47687623 -0.035740465 -0.05083091 0.1087978
0000f0 4d 0a da bd 2b d4 11 3e cd a6 c4 3e 67 cf b0 3d
       -0.10646496 0.14241092 0.3840851 0.08633309
000100 53 64 4a bc 4d 70 fa 3c de 08 8c be 44 1d 11 3c
       -0.012353021 0.030571127 -0.27350515 0.008857075
000110 28 3a 8a bd d6 2a 33 3e d4 01 17 3e c8 af 5a 3d
       -0.06749374 0.1749681 0.14746791 0.053390294
000120 27 e5 25 3d f7 98 bb 3c f0 a4 96 bd 76 a4 8b 3d
       0.04050174 0.022900088 -0.07355678 0.06818478
000130 7b 81 86 bd b1 e5 4f be c3 fd 49 3d 2d 2a 01 3e
       -0.06567665 -0.20302464 0.04931427 0.12613745
000140 bf 9d 3f 3e ff 79 6d be 2b 05 9a be d8 d1 1a 3e
       0.18712519 -0.23191069 -0.30082068 0.15119112
000150 82 c4 43 3d 12 24 fa 3d 66 12 6a 3d f7 d4 fb bd
       0.047794826 0.12213911 0.057146452 -0.12296479
000160 42 73 02 3e d7 4f 7b 3c 84 c6 48 3d b1 5a 0c 3d
       0.1273928 0.0153388595 0.049017444 0.034266178
000170 77 b2 33 be 6c 2b 21 bd 48 0b e7 bc 91 6f d4 bc
       -0.17548548 -0.03934805 -0.028203622 -0.025932105
000180 5f 52 9a bd 1e a4 14 be 77 18 bf bd bc 8a a4 3d
       -0.07535242 -0.1451573 -0.09330838 0.08034274
000190 db 02 7f be ed 59 1e bd 5f 74 2e bd 50 a2 58 3e
       -0.24903433 -0.03865998 -0.04259145 0.21155667
0001a0 a1 da b3 3d cf 9f 8d 3d eb 1e 93 be 91 4d 23 be
       0.087819345 0.06915247 -0.28734526 -0.15947558
0001b0 2a c4 bb 3e fc 9a 19 be 97 00 a5 bb c0 36 a8 be
       0.366731 -0.15000528 -0.0050354707 -0.3285427
0001c0 30 d1 9e 3d 7e 47 ec bd 48 ab 3a be 03 ef 1f 3f
       0.07754743 -0.115370736 -0.18229401 0.6247408
0001d0 c9 c9 b5 3c c9 c4 02 bf ad 56 c9 bd b3 7c 9b bd
       0.022190945 -0.5108152 -0.09830985 -0.07592144
0001e0 05 0f c6 bd 12 14 66 be d8 29 80 3e 57 42 f9 be
       -0.096708335 -0.22468594 0.25031924 -0.48683426
0001f0 cc f3 ec 3d 53 dc b0 3e 87 78 07 bd 64 9f 05 3d
       0.11569938 0.34543094 -0.03307393 0.03262271
000200 50 89 29 bd 9a 10 ba 3d 3e fa 8b 3c f2 67 8d bd
       -0.041390717 0.09085198 0.017087098 -0.069045916
000210 47 bd 9c bc 16 27 9f bd 85 d8 d6 bd 70 bc 17 3e
       -0.019133223 -0.07771127 -0.104905166 0.14817977
000220 6b 0c ef 3d 7c ff 3c be 33 6e d5 bd 63 90 ba bd
       0.116722904 -0.18456835 -0.104214095 -0.09109571
000230 33 3c 42 bd d3 28 06 be 7d 52 0d be f8 60 85 bd
       -0.04742069 -0.1310151 -0.13800998 -0.06512636
000240 0f 9b a4 be 50 5e 77 bd e4 ec 11 be 98 c6 d4 3d
       -0.3214955 -0.060392678 -0.14250523 0.10389441
000250 c5 7d fe bd 25 23 17 3e fd 9d 0c bd 94 2a a2 3e
       -0.124263324 0.147595 -0.034330357 0.3167311
000260 5a 43 4c be 12 ee 9a bd 03 cd 8f bc 46 35 ca bd
       -0.19947568 -0.075649396 -0.017553812 -0.09873442
000270 04 cb 92 be 87 19 33 be bd 0c 5d 3d 15 49 8b 3d
       -0.28670514 -0.17490207 0.053967226 0.06801049
000280 02 35 dd 3d 66 f8 2a bd 25 bb 2a 3e 0f d3 2f be
       0.10801126 -0.041740797 0.16672952 -0.17170356
000290 80 a9 2d 3e a8 b9 b4 3d d5 0b 79 be 73 89 d9 3d
       0.1695919 0.088244736 -0.2432092 0.106219195
0002a0 f1 5b 35 be 08 b2 a3 3e 8e 36 fa be 0e 87 6f 3e
       -0.17710854 0.31971765 -0.48869747 0.23391363
0002b0 1e 2e a9 3c 87 12 05 3e 08 c5 c3 3d c7 2e 31 3e
       0.020651873 0.12995349 0.09559065 0.17303
0002c0 f8 d3 c0 3c b8 46 99 be 0d 46 0a bd 1c 6a 2c bf
       0.023538575 -0.29936767 -0.033758212 -0.6734941
0002d0 df a6 8b be da ec bb 3e d1 08 e4 bd 6e d0 d2 bd
       -0.2727575 0.3670414 -0.11134494 -0.10293661
0002e0 a9 10 8d 3e 23 b5 28 be 4b 68 d9 3d 26 b4 8a 3d
       0.27551773 -0.16475348 0.106155954 0.06772642
0002f0 aa ab a4 be bd bd 81 3d 00 88 ac bd c6 81 5a 3d
       -0.3216222 0.06335018 -0.084243774 0.053346418
000300 61 c9 71 bd fc ce 2c 3e 9b 26 4c 3e 9d c4 ed 3b
       -0.05902994 0.16875833 0.19936602 0.007256104
000310 24 35 d7 bc 76 7f 7c 3e a6 d6 c7 bd 54 d8 15 3e
       -0.026270457 0.24657997 -0.09757738 0.14633304
000320 1a c5 f7 3b 5a 77 0d be fb 7c 2f 3e 42 1c 07 be
       0.007561338 -0.1381506 0.1713752 -0.13194373
000330 0e 78 26 3d 5a e1 9b bd 7e 3d 28 bd 72 17 98 bd
       0.040641837 -0.07611342 -0.04107427 -0.07426347
000340 ce 02 b4 3d 04 4d cc bd bc 64 b9 3b e2 4d 33 be
       0.087895975 -0.09975627 0.0056577604 -0.17510179
000350 6a 03 1f bc cb 15 9a be e6 4e 24 bc 62 f8 1f bd
       -0.009705404 -0.30094752 -0.0100285765 -0.039055236
000360 59 9e a4 bd ee 83 8a 3d 66 e7 23 be 5e 94 be bd
       -0.08038015 0.06763445 -0.1600624 -0.093056425
000370 40 66 3f be 1b 84 f8 3d e9 d2 ae 3d 10 4a 81 3d
       -0.18691349 0.12134572 0.08536322 0.063129544
000380 54 a6 7d bd 42 7b 2c be 7c 22 80 be 09 3a 69 3d
       -0.0619262 -0.16843894 -0.2502631 0.056940112
000390 c2 e0 41 be 30 90 3e bc 61 23 f1 3a cd 01 27 bd
       -0.18933395 -0.011631057 0.0018397385 -0.0407732
0003a0 12 28 81 be 3d 13 87 3d 43 66 ce 3d 52 de 53 3c
       -0.25225884 0.06595466 0.100780986 0.012931423
0003b0 55 43 19 bd e4 5f c1 be 47 22 2b bc 7c 1b 9d 3e
       -0.03741773 -0.3776847 -0.010445184 0.3068503
0003c0 96 83 70 bd fa ec 79 be 98 f1 41 be 9b 4c 0f be
       -0.05871924 -0.24406806 -0.18939817 -0.13994066
0003d0 2c 25 81 be 00 97 97 3e 20 e7 0a be ed 5f 3f bf
       -0.25223672 0.2960739 -0.1356473 -0.74755746
0003e0 c0 c8 99 bc 91 4c 94 3d 95 67 a5 3e a2 0a 4b bd
       -0.018772483 0.072411664 0.3230559 -0.049570687
0003f0 e1 b8 76 3d c6 fa 5c 3d 08 59 85 bd f5 35 1d 3d
       0.060234908 0.053950094 -0.06511122 0.038381536

bias f4 [128]
000000 6c 62 8e be 36 c7 d1 3c 61 75 f8 3b 7f 19 25 be
       -0.27809465 0.025607686 0.007582352 -0.16123007
000010 77 be 47 be 1e 05 0c be 13 bd 87 bd c1 1a b4 be
       -0.1950625 -0.13673827 -0.0662786 -0.35176662
000020 7c f0 25 be 99 af dc bd 27 fb ea bd b5 ff 74 be
       -0.16205019 -0.1077568 -0.11473685 -0.2392567
000030 0a d2 fc bd 5a 3c 8e be c2 c5 c9 be 81 ef e2 bd
       -0.12344749 -0.2778042 -0.3940869 -0.11080838
000040 2a 01 a0 be 2a 7e 75 be a1 9e 32 bc 83 ba 7c be
       -0.31250888 -0.23973909 -0.010902078 -0.24680524
000050 77 e7 75 be 53 f3 22 be 51 27 8a be 55 78 06 bd
       -0.24014078 -0.15913133 -0.2698312 -0.0328296
000060 0b ed ae be 97 c4 95 be 49 6b 36 3d 41 06 5a be
       -0.34165224 -0.2925155 0.04453591 -0.21291448
000070 ba f0 ef bd 1e 84 52 be b6 59 a5 be 08 98 e3 bd
       -0.11715837 -0.20558211 -0.32295007 -0.11112982
000080 76 35 28 be 19 6d 35 be 9a 58 39 be 57 74 1f be
       -0.16426644 -0.17717399 -0.18100205 -0.15571724
000090 82 24 8c be fa ad 2a bd 8d 74 c8 be de a6 c8 bd
       -0.27371603 -0.041669823 -0.3915142 -0.097974524
0000a0 96 d4 a8 be e9 8b 37 be 49 72 4d be d4 3d 00 be
       -0.3297469 -0.17924465 -0.20063128 -0.12523586
0000b0 19 f0 83 be 9c c5 9c be 28 cb ed bd c4 c8 9c bd
       -0.25769117 -0.30619514 -0.116110146 -0.076554805
0000c0 33 98 9a be eb b4 37 be 61 4b 23 be a8 71 64 be
       -0.30194244 -0.17940108 -0.15946724 -0.22308981
0000d0 ff ea a9 be 7a 98 6c be 82 b3 78 be 99 1a 98 be
       -0.331871 -0.2310504 -0.24287227 -0.29707792
0000e0 e1 65 7e be c3 f8 06 bd 4c 47 82 be 4d dd 1e be
       -0.24843551 -0.03295208 -0.2544502 -0.15514107
0000f0 95 b1 7b bd bd 30 3d be 4f c3 b1 bd 82 a8 88 be
       -0.061448652 -0.18475623 -0.0867983 -0.2669106
000100 00 87 1b be 1f dd 07 be 02 79 40 be 53 a7 85 bd
       -0.15188217 -0.13267945 -0.18796161 -0.06526055
000110 86 18 1c be 97 71 2e be 0c 76 24 be ce 4b 1b be
       -0.1524373 -0.17035519 -0.16060656 -0.15165636
000120 ea 5d 63 be b4 12 8f be 10 9b 95 be 4e 56 6f be
       -0.22203794 -0.27943957 -0.29219866 -0.23372766
000130 c7 33 83 be 06 40 ff bd 4a a0 96 be bd 3c 8f be
       -0.2562544 -0.124633834 -0.29419166 -0.27976027
000140 0c d4 98 be 18 fd 3c be 2c ff 60 be 16 6b 00 be
       -0.2984928 -0.18455923 -0.2197234 -0.1254085
000150 2b 7d bc 3b 37 7f 9e be b8 f1 65 be 02 81 4d be
       0.005752226 -0.30956432 -0.2245549 -0.20068744
000160 16 c0 1e be 02 da 70 be 85 b2 91 be 4d 67 6a be
       -0.15502962 -0.23520663 -0.28456512 -0.22890969
000170 0e 3b 62 be 2d 8c 0f be 85 aa 1f bd b8 16 83 be
       -0.2209284 -0.14018317 -0.03898098 -0.2560327
000180 02 ed 17 be b3 0b 70 be dc 48 9f be 04 c2 88 be
       -0.14836505 -0.23441963 -0.31110275 -0.26710522
000190 41 4f 97 be 64 c4 be bd c7 2c b6 bd 42 a3 79 bd
       -0.29552653 -0.09314802 -0.08895259 -0.06094671
0001a0 b4 51 02 be f1 47 aa bd 89 47 33 be 12 1a 12 be
       -0.1272648 -0.08314503 -0.17507757 -0.14267758
0001b0 34 ed 3b be 3c 20 6b be 2d 72 72 be 96 69 82 be
       -0.18352205 -0.22961515 -0.23676367 -0.2547118
0001c0 97 17 b4 be fe b5 3c be cd f7 23 be 27 74 c8 be
       -0.35174248 -0.184288 -0.16012497 -0.39151117
0001d0 89 02 3a be a8 ec 84 be 10 e8 5f be a9 5c a8 be
       -0.1816503 -0.25961804 -0.21865869 -0.32883194
0001e0 13 5a 32 be 6b 49 98 be 2a 95 88 be 39 1e bf bd
       -0.17417173 -0.29743513 -0.26676303 -0.093319364
0001f0 1c 2b 5e bc e8 05 b6 be 2e ee 4c bd de 51 9d be
       -0.013560083 -0.3555138 -0.050031833 -0.30726522

weight f4 [128, 128]
000000 70 87 01 be 8c a3 1e be 2b 4a a4 be bb 7f 27 3d
       -0.12649322 -0.15492076 -0.32087836 0.040893298
000010 58 d6 d5 3b 42 60 a5 3e 61 08 cb 3d cf ac 0a be
       0.006525796 0.323 0.099137075 -0.13542484
000020 08 6b ed 3d cd 70 02 3e 3d f5 c7 bd b5 75 05 3e
       0.1159268 0.12738343 -0.09763572 0.13033183
000030 08 66 20 bd 89 06 c3 ba 43 85 98 bc 04 1d 64 bd
       -0.039159805 -0.0014879267 -0.018618232 -0.055691734
000040 70 4a 2b 3e 3a d4 02 bd fd fb ef 3d 7a da 15 3e
       0.16727614 -0.031940676 0.11717985 0.14634123
000050 dd cb 7e bc 7f de b9 bd 48 89 04 3e 81 c7 fc 3d
       -0.0155515345 -0.09075641 0.12942994 0.1234274
000060 a9 b5 23 3d 58 91 12 3d 5e 88 51 be 2b c7 d1 bd
       0.039968167 0.03578314 -0.20462176 -0.102430664
000070 5f 21 e6 be 65 98 64 bd 5c 32 04 3e 4b d4 27 be
       -0.44947335 -0.055809397 0.12909836 -0.16389577
000080 df 17 a9 3d 85 9e 38 bc 15 e0 9d 3d 9a dc 94 bc
       0.08256506 -0.011268263 0.07708756 -0.018171597
000090 70 ef 4c 3e 8d b2 39 bd 1a 9d 78 bc 79 fc 1a 3d
       0.20013213 -0.045336295 -0.015174175 0.037838433
0000a0 91 80 28 bd 82 a9 a3 bd 3f 9e 3d 3e 84 d4 f7 3d
       -0.041138235 -0.079913154 0.18517397 0.12101081
0000b0 0b 0b d4 bd 45 33 30 be eb e0 54 be b8 2f 1f be
       -0.10353669 -0.17207058 -0.20788924 -0.15545547
0000c0 51 7c 80 be 5d e8 8d be 48 27 b1 3c 91 41 75 3e
       -0.25094846 -0.27716342 0.021625176 0.23950793
0000d0 7d 9a bc bd 44 c1 99 3d 4c 6d 5d be 40 b3 84 3d
       -0.09209154 0.075075656 -0.21623725 0.06479502
0000e0 18 04 db bd 87 7f a7 bd d0 09 70 3e a5 8d d3 bc
       -0.1069414 -0.08178621 0.23441243 -0.025824377
0000f0 e8 99 c6 bd ae 06 18 3d ab 3d 8a bc 8c d4 b5 3d
       -0.09697324 0.037115745 -0.016875109 0.08878431
000100 3e e6 6e bd 34 96 e2 3d 18 a7 a6 3d d6 0c f8 bd
       -0.058325045 0.11063805 0.08137339 -0.12111823
000110 1a c9 be bd 9c e2 ca bd 61 df 1a be 0f ce 76 be
       -0.09315701 -0.099065036 -0.15124275 -0.24102043
000120 16 4e 9e 3c 55 06 93 3e b7 20 98 3b fd 8c 44 3e
       0.019324344 0.28715768 0.004642572 0.19194408
000130 d7 a7 e2 3c ec 2e 08 3d 90 6d d8 bc 3e 9e 83 3d
       0.027667923 0.033247873 -0.026419431 0.06426667
000140 23 ad 9f bd 49 e7 d0 bd 74 52 f8 bd c8 00 a9 bd
       -0.07796695 -0.10200364 -0.12125102 -0.08252102
000150 84 1e 22 3d 0a ac 8a 3c bd 5d 2a 3d 97 9c 32 be
       0.039579883 0.016927738 0.041593302 -0.17442547
000160 1b 81 d4 3d 55 12 4c be 95 12 cc bd 23 56 ca 3b
       0.103761874 -0.19928868 -0.09964482 0.006174819
000170 bc 8e 49 3e 88 b7 16 be 2c 98 df 3d 5f 67 0c bd
       0.19683355 -0.14718449 0.10917696 -0.03427827
000180 2c f2 f5 bd 7d 9e c8 bd 09 1a a4 bd 89 bf 81 bd
       -0.12009081 -0.09795854 -0.08012778 -0.063353606
000190 cb 20 56 3d 49 c9 4f bd a9 1d e3 bd 80 89 00 3b
       0.052277368 -0.05072907 -0.110896416 0.0019613206
0001a0 c6 85 80 be fd 25 f3 3d 72 5e 71 3e 4b bf 40 be
       -0.2510206 0.1187248 0.23571184 -0.18822972
0001b0 9d 62 59 bd 5f f6 72 3c dc b1 5d bd 36 8b 33 3e
       -0.05307256 0.014829247 -0.054124698 0.17533574
0001c0 a0 87 7e bc f7 c2 2f bd 1d 13 28 be 47 d3 58 3c
       -0.015535265 -0.042910542 -0.16413541 0.013233966
0001d0 71 99 83 be 9b 93 b3 3d c2 02 d5 b7 3a 2e 70 bd
       -0.25703004 0.08768388 -2.5392863e-05 -0.058637835
0001e0 63 9c e1 3d 8a 38 d0 3d 0c 20 7f be 6a ce 97 bd
       0.110161565 0.10167034 -0.24914569 -0.07412417
0001f0 10 a3 c6 ba fb 28 8c 3d 97 4a 28 be 2c 79 23 3e
       -0.0015154798 0.06843754 -0.16434704 0.15964192
000200 a3 32 41 3e 45 a6 a7 be 61 f0 50 be 5f 32 a5 bd
       0.18866973 -0.3274404 -0.20404197 -0.08066248
000210 ca b2 1c 3e 03 c0 31 3e b4 5d 47 bd 3c ba 10 be
       0.15302578 0.17358403 -0.048673347 -0.14133543
000220 a1 08 b9 be 69 f6 95 bc d3 56 6c bd b8 b5 18 be
       -0.36139396 -0.018305974 -0.05769999 -0.1491307
000230 51 8d 9d bd 0b 6b 9f bb 2e e9 b4 3d 1e 13 04 3e
       -0.076929696 -0.0048650554 0.08833538 0.12897918
000240 25 e3 30 bd 1b e4 a3 be 3b 34 12 bd ff 6b 19 bf
       -0.043185372 -0.32009968 -0.035694342 -0.59930414
000250 2c 52 86 3d f4 c1 23 3e 4a bc 67 bd 50 26 81 bd
       0.06558642 0.15991956 -0.05657605 -0.06306136
000260 e6 6e a6 3d b3 3a d4 bc 61 40 9e bd 0e 23 c3 bd
       0.08126621 -0.025906896 -0.07727123 -0.095281705
000270 3a 05 bd be 91 d4 57 be a2 d2 60 be 40 b7 da bc
       -0.3691805 -0.21077181 -0.2195535 -0.026698709
000280 7a 2d c1 3d 30 3d a5 be ed f7 6c 3d 72 8c 1b be
       0.09432502 -0.32273245 0.057853628 -0.15190294
000290 1b 6f 4b 3d 53 17 16 3d 48 eb 8d 3d ef 32 0a 3e
       0.049666505 0.036643337 0.06929642 0.13495992
0002a0 33 11 08 be ac 83 4a 3d ef e7 c7 3d 32 d9 ca 3c
       -0.13287811 0.04944198 0.09761035 0.02476177
0002b0 99 f1 0f 3d fa 3d 9a bc 98 0e 5d 3d 15 1e 09 be
       0.035142515 -0.01882838 0.053968996 -0.13390382
0002c0 ea bb 8b 3d af 7d 27 be e0 85 39 bd 84 12 13 bd
       0.06822951 -0.16356538 -0.04529369 -0.03590633
0002d0 ae 7c 76 3d ce 6f 46 bd ab 42 42 be a8 a6 d9 bc
       0.060177498 -0.04844647 -0.18970744 -0.026568726
0002e0 59 68 51 be b9 5e 57 be ee f0 0e bf 3b 21 2e be
       -0.20449962 -0.21032228 -0.5583638 -0.17004864
0002f0 fc 03 15 be 1f 38 aa 3b ee 5e 43 be b4 02 bf 3c
       -0.14552301 0.0051946784 -0.19079182 0.023316719
000300 76 5c b7 be eb c9 bf 3d 9b 91 b6 3d 4a 55 0a 3e
       -0.3581273 0.09364685 0.08914491 0.13509098
000310 fd cf b8 be 4b a3 3e be de ca 14 3d c2 70 04 3e
       -0.36096182 -0.18616979 0.03632628 0.12933639
000320 41 10 f0 3d a6 22 f1 bd 75 4b 52 3e 4a 98 81 3d
       0.1172185 -0.11774187 0.20536597 0.06327875
000330 e0 d0 ef 3d 5f 7a 1f be b3 4f dc bd 2c bf e5 3d
       0.117097616 -0.15574025 -0.10757389 0.11218104
000340 0d 50 fa 3c 5e a8 0c 3e 4a 1b c6 bd 03 34 1c 3e
       0.03055575 0.13736102 -0.09673174 0.15254216
000350 b0 05 24 3b 2d ef 63 be 29 3a 3d be a0 50 c9 3e
       0.0025027804 -0.22259207 -0.18479218 0.39319324
000360 88 c8 8f bd 1d 4f 1b bd f8 4e c7 bd fb f9 19 bc
       -0.0702067 -0.037917245 -0.09731859 -0.009397979
000370 ae 2f 62 3d 4f 75 ad bd 8c 1c 36 3d 40 9c 57 be
       0.055221252 -0.084696405 0.04446082 -0.21055698
000380 a6 b1 93 be 71 ed 1a 3c 32 89 2f 3e 34 17 57 bd
       -0.28846473 0.0094560245 0.1714218 -0.052512363
000390 49 24 e0 bc 14 33 39 bd 1d ed 94 3c 67 18 e4 bd
       -0.027361052 -0.045214728 0.01817947 -0.11137467
0003a0 b2 6b 8e bc 9c 51 ce be 48 83 af bd 48 c2 2b be
       -0.017385338 -0.40296638 -0.08569962 -0.16773331
0003b0 7d 3e 32 be 47 79 74 be e0 5c 8a 3c ad 19 c3 3d
       -0.1740665 -0.23874389 0.01688999 0.09526382
0003c0 a9 41 39 be f4 76 d4 3d b7 49 d1 bc ec cc 2a be
       -0.18091454 0.10374251 -0.025547845 -0.16679734
0003d0 5e 59 b3 3d 0b 86 1a be 2a 17 00 be 76 d1 cd 3d
       0.0875728 -0.15090196 -0.12508836 0.10049717
0003e0 10 71 5c bd 01 bf 92 3b aa d4 02 bf e1 3c 1e 3d
       -0.053818762 0.004478336 -0.5110575 0.038632277
0003f0 1b c5 a5 3d a5 f5 1e 3e c6 23 a0 be be 6f d2 bd
       0.080942355 0.15523393 -0.31277293 -0.102752194

bias f4 [128]
000000 a9 83 1b 3c a7 74 de bd 18 39 07 3d 4f 9d cc 3d
       0.009491839 -0.108620934 0.033013433 0.09990942
000010 21 09 b7 3d f5 00 8e 3d f0 8f 85 bc 59 6a d7 3d
       0.08937288 0.06933776 -0.016303986 0.10518331
000020 da 73 0d 3d 2f 4b 75 bd b2 a6 8f bd 4b 03 53 bd
       0.034534313 -0.059886154 -0.070142165 -0.051516812
000030 61 21 30 3d 8b 51 08 3d ba 3d 82 3d dc 19 dc bd
       0.043000583 0.03328089 0.0635943 -0.1074712
000040 5c 8d 1b 3c a8 aa 60 3d 3f 0d bd bd f9 8f 07 bd
       0.009494152 0.05485025 -0.09231042 -0.033096287
000050 08 51 b8 3b 26 09 9c 3d 0e ab 91 3d 88 4c 88 bd
       0.005624894 0.076189324 0.07112704 -0.06655222
000060 ce 24 e1 bd e4 dc 8c bc 96 af 10 be 71 3b a2 bd
       -0.10993348 -0.017195173 -0.1412948 -0.07921494
000070 25 33 d5 3c 31 bb dd bd 22 11 aa bd 24 46 8a bd
       0.026025364 -0.108267196 -0.08304049 -0.067516595
000080 97 eb 86 bd 79 a3 82 bd 36 db 7b 3d a5 1d 06 be
       -0.06587904 -0.06378836 0.061488353 -0.13097246
000090 e0 0e 83 bd 2c 6d f7 bc 93 30 29 3d 34 9c 8c bd
       -0.063993216 -0.030203424 0.04130609 -0.06865731
0000a0 f8 00 31 3b b1 29 e9 bd a4 22 79 3c 69 dc 31 3d
       0.0027008634 -0.11384905 0.015206013 0.04342309
0000b0 fd ed 20 bd cd 6f 59 bb 1c 0a 39 bd a8 ed fc 3b
       -0.039289463 -0.003317821 -0.045175657 0.0077187605
0000c0 7c bf 0d 3d 8c a8 00 be d1 94 5e 3d 3d 2c 05 bd
       0.03460644 -0.12564296 0.05434114 -0.032512892
0000d0 cc 78 46 3c e6 cf a5 3b 5e b7 59 3d a8 4c 87 bd
       0.012113761 0.005060184 0.05315339 -0.06606418
0000e0 ed 2d 9a bc e1 55 95 bd 64 aa a7 bd ff 7b eb 3c
       -0.018820727 -0.07291771 -0.08186796 0.02874565
0000f0 49 e3 a9 3d 16 04 5e bc ce bb b5 bd 70 c6 91 bd
       0.08295304 -0.013550779 -0.088737115 -0.07117927
000100 88 ea 58 bd 7a 14 e1 b8 7b a5 eb 3c f1 ce 18 bd
       -0.05295804 -0.0001073265 0.02876543 -0.03730673
000110 20 fd 18 3d 34 11 bf bd d6 97 1a be 13 84 16 3d
       0.037350774 -0.09329453 -0.15096983 0.03674705
000120 5d 46 6d bc 33 b5 f3 3d 3c 58 8d bc 1d 57 79 3d
       -0.014482108 0.118997954 -0.017253987 0.060874093
000130 9b f7 93 bd 35 76 36 3d 5a 00 51 3d 03 27 17 bd
       -0.07224961 0.044546325 0.051025726 -0.03690244
000140 b5 74 1c 3d eb ef 68 3d 45 b7 9e 3d c1 dd 8c bd
       0.038197238 0.05686943 0.077498 -0.06878234
000150 2c 39 3a bd 16 1c df bd d3 52 0c 3d d1 e5 bc bd
       -0.04546468 -0.10894029 0.034258675 -0.092235215
000160 bf 75 6c bc 49 d2 b8 bd e7 d2 ab 39 ed b3 90 bd
       -0.01443237 -0.09024484 0.00032772796 -0.07065568
000170 34 7c 48 bd 50 7b 35 bc c0 5e de bc c7 72 22 be
       -0.048946574 -0.011076763 -0.02714479 -0.15864097
000180 cf 7d 4c bd ae 9c be bd 8e 19 bd bc ef 42 ee bc
       -0.049924668 -0.09307228 -0.023083474 -0.02908465
000190 e1 35 19 bc 51 4a 8c bd f3 ea a7 bd 49 18 a6 bd
       -0.009351225 -0.06850112 -0.0819911 -0.08110101
0001a0 8a a3 de b9 b4 9a 73 bd 0c ea d2 3d 76 6f 10 bd
       -0.00042464986 -0.05947371 0.10298547 -0.035262547
0001b0 ad f9 fd bc 95 57 fe bc d7 ad 88 bd 9c 6f 55 3c
       -0.031002844 -0.031047622 -0.06673782 0.013027098
0001c0 49 10 50 3c 19 18 93 bd 21 a9 82 bd 05 47 10 3d
       0.012699195 -0.07182331 -0.06379915 0.03522398
0001d0 a1 18 70 3d 96 5d dc bd b6 b2 99 bd 58 a9 ac bd
       0.058617238 -0.107600376 -0.075047895 -0.08430737
0001e0 d1 03 29 3b 12 55 bb bd c0 78 61 3d c8 41 9d bd
       0.0025789628 -0.09147085 0.055046797 -0.076785624
0001f0 a5 c5 af bd e6 b8 99 bc 80 38 7a bd 01 08 b3 3d
       -0.085826196 -0.018764924 -0.06108904 0.08741761

weight f4 [128, 128]
000000 13 b1 92 bd da 1d 46 be 2a d1 7a 3d 91 b3 20 be
       -0.071626805 -0.19347325 0.06123463 -0.15693499
000010 c2 2e 56 bd 1c e6 4d bd 67 ae 56 bd f3 ed de 3d
       -0.052290685 -0.050268278 -0.052412417 0.10885229
000020 b4 91 75 3e 49 b3 1c be 29 db 09 be 23 5e aa bc
       0.23981363 -0.15302767 -0.13462509 -0.020796841
000030 6b bf 93 be ee 80 01 3e 0f 31 11 be 83 43 75 be
       -0.28856978 0.12646839 -0.1417887 -0.23951535
000040 75 2f 4b be a0 09 15 3e 84 1b 26 be 0e c0 54 3c
       -0.19842322 0.14554453 -0.16221434 0.0129852425
000050 b3 98 f4 bd 4f 4f 09 3c 85 86 31 be d0 0e 14 3e
       -0.119431876 0.008380725 -0.17336471 0.14458776
000060 31 0a a7 bd 2c 50 a2 bd 26 f9 07 3e e0 aa 81 bd
       -0.08156241 -0.07925448 0.13278636 -0.0633142
000070 17 79 4b bd be ea a7 3c 86 63 92 3d ac 4c 97 bc
       -0.049676027 0.020497676 0.07147889 -0.018469177
000080 b4 ea 75 bd 70 2a 14 be c7 86 3e be eb c3 09 3e
       -0.060038283 -0.14469314 -0.18606101 0.13453643
000090 9b e3 92 bd 06 b4 23 be d8 a5 2f 3e f9 fa a8 be
       -0.071723185 -0.15986642 0.17153108 -0.33003977
0000a0 e6 f3 88 bd 8d 41 35 3e f6 da 48 be 3b 8f 44 3e
       -0.06687145 0.17700787 -0.19614777 0.19195263
0000b0 78 46 96 be f5 ca 2d bd c2 c5 89 3d 25 06 f6 3a
       -0.29350638 -0.042429883 0.067271724 0.0018770142
0000c0 88 fa 61 3d 8a c4 cc bd 57 b1 a0 bd 6c dc 87 be
       0.055170566 -0.09998424 -0.07846325 -0.26535356
0000d0 f0 be 96 bd 37 c4 40 be 6c ce 44 bb 02 87 f1 bd
       -0.07360637 -0.1882485 -0.0030030264 -0.11793329
0000e0 a6 8b 93 bc 91 7c 0d 3e 93 89 af be d7 a7 a9 be
       -0.018010926 0.1381705 -0.34284648 -0.33135864
0000f0 47 91 7a bd 48 a9 3c bc ec c6 2a 3c d1 cf e5 3d
       -0.061173704 -0.011514969 0.010423403 0.112212785
000100 8e 5f 86 bd 87 11 f4 bd 16 8f e6 bd 55 b7 e1 3d
       -0.06561194 -0.119174056 -0.1125776 0.11021296
000110 e8 10 16 3e 35 92 3e 3d 0e 77 a5 be b5 d1 8b bc
       0.14654887 0.046526153 -0.32317394 -0.01706777
000120 ab 8f 30 3d 77 5a 87 3d f9 cc 0c 3b 0e 19 bc bd
       0.043105762 0.06609052 0.0021484478 -0.09184466
000130 dc 13 19 be 31 b5 13 be 60 46 17 bd 29 b2 0d be
       -0.14948982 -0.14424588 -0.03693235 -0.13837494
000140 63 8c 8d be cd 01 0d 3e b8 f8 49 3c 72 d1 37 3d
       -0.2764617 0.13770218 0.012327366 0.044877477
000150 0c d6 c1 bd a8 c4 80 be 58 93 8c bd 9f 0b a1 3d
       -0.09464654 -0.25150037 -0.06864041 0.07863545
000160 4e 37 16 3e 1d 5b 96 bd 91 72 8c 3d c8 f7 c1 bd
       0.14669535 -0.07341597 0.06857789 -0.09471089
000170 7b a7 ac 3c ad 96 be be b6 bf 99 be fe 3c 38 be
       0.021075955 -0.37224331 -0.30029076 -0.17992017
000180 7e 61 7a 3e 8e 63 cb 3c 0f 41 3c 3e 76 0d b8 bd
       0.24451253 0.024827745 0.18384193 -0.089869425
000190 73 8c e8 bd 60 ef 07 3d f0 05 5f 3e f9 2c f8 bc
       -0.113549136 0.03318727 0.21779609 -0.030294882
0001a0 f0 82 ce 3d 61 ec c5 3c 26 33 0c be 30 26 66 bc
       0.10083568 0.024160566 -0.13691387 -0.014047191
0001b0 44 67 24 bd 18 35 49 3c 44 5c 71 3d 62 65 fe 3a
       -0.040137544 0.012280725 0.058925882 0.0019408877
0001c0 4a 2b 97 bc eb bd 2e be 68 d4 21 be 0c 75 8d bd
       -0.018453259 -0.17064635 -0.15803683 -0.069070905
0001d0 f8 bf 97 be 0f 74 ec be 5a 53 1f be 4f 20 2b be
       -0.29638648 -0.46182296 -0.1555914 -0.16711544
0001e0 99 f6 88 bd 0b e5 97 be fc 9b 09 be c6 15 06 bd
       -0.0668766 -0.29666933 -0.1343841 -0.03273561
0001f0 65 d9 9d 3d fd a2 81 be 48 b2 73 3d c4 b6 30 bd
       0.0770748 -0.25319663 0.059496194 -0.04314305
000200 fb f9 82 3e 57 db 0f 3e d8 b8 01 bd 88 54 c3 3d
       0.25581345 0.14048515 -0.03167042 0.095376074
000210 c7 db a4 bd f7 5e 99 3e e2 f3 ae be 15 16 dc bd
       -0.08049732 0.29955265 -0.34170443 -0.10746399
000220 a4 4c 91 bc 16 d4 f2 bb 5c a4 55 be 69 13 72 be
       -0.01773674 -0.0074105365 -0.2086348 -0.23640217
000230 9d 1f 6e 3d 34 0f d1 3d 35 f3 d8 3d 87 a9 4f be
       0.058135618 0.10207978 0.10593263 -0.20279513
000240 c5 9e ea 3d 0e 91 8d be 47 18 5b be 64 56 4a 3e
       0.11456064 -0.2764973 -0.2139598 0.19759518
000250 08 2b 2a 3c 91 d9 6c 3c d8 32 48 be cd c2 5c 3d
       0.010386236 0.014456169 -0.19550645 0.053896714
000260 1d 84 a5 3d 15 2d a2 3d b9 1f 1e bd 14 ee 8f bc
       0.08081839 0.07918755 -0.03860447 -0.01756958
000270 9f de be be e5 51 67 be 79 37 fb 3d 73 4f f4 bd
       -0.3727922 -0.22589834 0.1226644 -0.11929216
000280 a7 c9 1f bd 22 12 89 bd 75 28 1e be 6c a1 88 3d
       -0.03901067 -0.06692912 -0.1544512 0.06671414
000290 0a 4a 8a be e3 4b 06 3d 45 0d 34 be d9 ae 0f be
       -0.27009612 0.032787215 -0.17583187 -0.14031543
0002a0 2f d8 94 bd 0a 11 36 3d 8a f6 80 bd c7 cb 06 3e
       -0.07267796 0.044449843 -0.062970236 0.13163672
0002b0 18 ff bc bd 01 0d 61 be e0 9a b7 3c ab ae 76 3e
       -0.09228343 -0.21977617 0.022412717 0.24090068
0002c0 1b 45 9b bb c1 dc 5b 3e cf 7b 09 be 04 b6 8b be
       -0.0047384626 0.2147093 -0.13426135 -0.27287304
0002d0 04 c3 cd 3d a0 f1 19 3e 10 73 08 bd 6b 0b 72 bd
       0.10046962 0.15033579 -0.033312857 -0.05909292
0002e0 00 27 95 be 02 b6 f4 3d 33 cc b1 3e bd 18 17 3d
       -0.29131317 0.11948778 0.34726104 0.036888827
0002f0 eb 8e 47 be 97 5a 8e 3d eb 6e 9d 3c bc ec 07 3e
       -0.19488113 0.069508724 0.019217929 0.13273901
000300 8e 9f 83 be 95 f1 9d 3d 94 17 4d 3d 34 db 9b be
       -0.25707668 0.07712094 0.050071314 -0.30440676
000310 19 ec 76 3e 04 0b 6b 3e ff ef a8 bd bb 23 31 be
       0.24113502 0.22953421 -0.082489006 -0.17298786
000320 54 1b 05 3e 02 1a 98 bc c4 c3 89 3d 98 b8 9d be
       0.12998706 -0.018567089 0.067267925 -0.30804896
000330 c7 ed ba bd 63 31 ba 3c 5a e2 52 be 13 d4 40 bc
       -0.09127384 0.022728628 -0.20594159 -0.011769312
000340 b4 9c a7 3d 40 bb 9b bd fb 55 31 be c2 5e ae bd
       0.081841856 -0.076040745 -0.17317955 -0.08514167
000350 2e 31 23 be 37 3f 36 3e a9 db a5 be 77 94 9d bd
       -0.1593673 0.17797552 -0.3239415 -0.07694333
000360 5a 80 3e 3b 09 dc 60 3c a6 9a f9 3d 46 f4 94 3d
       0.0029068203 0.0137243355 0.121877 0.07273154
000370 62 b3 cd bd e0 6c 1c bd 18 4a 50 bc 6b 02 56 be
       -0.1004398 -0.03818977 -0.012712978 -0.2089936
000380 60 a7 28 be 21 b9 84 3d 3e 1c 60 3d 1a bf 0c be
       -0.16470098 0.06480623 0.054714434 -0.13744774
000390 9b 8f 9b bd 15 2a 97 3e ae a9 72 3c dc 1d c6 3b
       -0.0759575 0.29524294 0.014810963 0.00604604
0003a0 b3 0a b4 bd e5 85 ca bd a4 26 a7 bd 70 01 20 3e
       -0.08791103 -0.098888196 -0.08161667 0.15625548
0003b0 d1 7b 01 be 13 a4 1d bd d7 ee 0d be 9f 29 eb bd
       -0.12644888 -0.03848655 -0.13860641 -0.11482548
0003c0 ad fa 83 3c 27 b2 c6 bc fa 97 97 3c 76 b6 6c bd
       0.016110742 -0.024254872 0.018505085 -0.057791196
0003d0 c9 6b 66 bd 52 a1 b1 bd 2c 7f c7 bd ff 3b e4 bd
       -0.056255136 -0.086733475 -0.09741053 -0.11144256
0003e0 c3 b1 47 be d0 72 ff 3c fd 6b a5 bd c0 b4 c0 3d
       -0.19501404 0.031182677 -0.08077238 0.09409475
0003f0 91 eb 16 3e fc 71 06 be 2c 67 28 3e fb b9 b5 3d
       0.14738299 -0.13129419 0.16445607 0.088733636

bias f4 [128]
000000 a8 46 08 3e 47 6d 68 be 97 d5 07 3d 91 27 0d be
       0.13308203 -0.22697936 0.03316268 -0.13784625
000010 3c 5c ba bd 50 25 22 bd 68 8a de bc d0 31 c9 bb
       -0.090996236 -0.039586365 -0.027165607 -0.0061399713
000020 d8 8e a0 bd e6 d4 3d be 51 b1 00 be 1b 0f 1f bd
       -0.07839745 -0.18538246 -0.12567641 -0.038832765
000030 af 45 05 be 48 ec 60 bd 38 38 90 3d 96 23 67 bd
       -0.13014863 -0.054912835 0.07041973 -0.05643042
000040 fd d5 7d bd 9d 62 1c be 81 98 31 be cf 07 0c be
       -0.061971653 -0.15271993 -0.17343332 -0.13674854
000050 c6 8d 27 bd 61 f6 a8 39 5f 98 eb bc ab 16 47 bd
       -0.04090669 0.00032227024 -0.02875918 -0.048605602
000060 24 94 d9 bd 50 39 68 39 29 9a 70 bc 9f 00 b1 bd
       -0.10623959 0.00022146595 -0.014685192 -0.086426966
000070 b9 09 84 bd d3 6b 0c be 82 ab 2d be c6 57 80 bd
       -0.06447167 -0.13713007 -0.16959956 -0.062667415
000080 58 0f b0 bd 14 b4 ef 3c 88 40 f5 3b 37 fc 7f bd
       -0.085966766 0.029260673 0.0074844994 -0.06249639
000090 16 40 39 be 73 2d c5 bd 94 40 0f 3d 85 d3 f6 3c
       -0.18090853 -0.096278094 0.034973696 0.030130157
0000a0 5b 40 e1 bd b1 88 9c 3d f4 60 2a 3d e9 b9 94 bc
       -0.10998603 0.07643259 0.041596368 -0.018155055
0000b0 9a 27 52 be aa d2 d7 3c 83 b0 67 be 3d 7d a3 3d
       -0.2052292 0.02634557 -0.22625928 0.07982872
0000c0 ea b1 1a be 9b 7b 29 be eb 26 08 bd c8 58 23 be
       -0.15106931 -0.16551058 -0.03324024 -0.15951836
0000d0 5d a2 0f be dc dd 9c bd 97 0b 9b bc a0 f2 b5 bc
       -0.1402678 -0.07659504 -0.018926425 -0.02221042
0000e0 b1 6d 3d bc 7b b4 6f bd 68 5a 24 be 7b ef f5 bd
       -0.011561797 -0.05852173 -0.16050112 -0.12008568
0000f0 aa a1 65 bb 0f c6 7c 3d d1 3d ce 3c f7 bb 39 be
       -0.0035038986 0.06171232 0.02517596 -0.18138109
000100 7d 44 2f bd 01 23 70 bd f9 03 00 3d 7e 83 52 3d
       -0.042789925 -0.058627132 0.03125379 0.051394932
000110 e5 f6 da 3d e5 50 92 3d db 50 2b bd 68 48 2d 3c
       0.10691623 0.07144336 -0.041825157 0.010576345
000120 e6 c2 86 3d 15 b8 0e bb 29 c7 ef bc d1 5b 7f 3d
       0.06580143 -0.0021777202 -0.029269772 0.062343422
000130 6d da 4c 3c cc de 05 3e fd 2b 89 bd 81 29 12 3e
       0.012503249 0.13073272 -0.06697843 0.14273645
000140 82 be 97 bc ee 48 7f bc 8d 7c 23 bc fd 7e b0 3d
       -0.018523458 -0.015581353 -0.009978426 0.08617971
000150 d9 ad fc 3c c9 18 ee bc d4 5b 71 bd f4 09 06 3d
       0.030844616 -0.029064553 -0.058925465 0.032724336
000160 fa 20 8a bb 44 a9 8d 3d fd 51 ee 3d cc 29 56 be
       -0.004215357 0.069170505 0.11636732 -0.20914382
000170 b2 9f 57 bd 1c 1f 8c bd 6d 9b dd bc 03 24 69 3c
       -0.05264253 -0.06841871 -0.027051652 0.014229777
000180 1b 5f c9 3c 1a 4b 34 bd cd d2 11 bc 6e 22 bc bd
       0.024581483 -0.044016935 -0.0089003565 -0.091862544
000190 e5 0a f8 bc 31 e0 03 bd 3e db d1 bc 0b 8a da bd
       -0.030278632 -0.032196227 -0.025617238 -0.10670861
0001a0 c6 63 1a be 50 53 33 bc 87 e8 d4 3d c9 26 48 be
       -0.15077123 -0.010945156 0.103959136 -0.19546045
0001b0 32 9c 1d bd 1c 8d 7b bb 97 05 40 bd c9 bf c0 bd
       -0.038479038 -0.0038383668 -0.04688033 -0.0941158
0001c0 80 53 50 3d c2 07 a2 bc 5b 30 02 be 58 c5 7e 3d
       0.05086088 -0.01977909 -0.12713759 0.06219992
0001d0 4a 84 99 bb fa 91 fe 3c f4 8c 06 3b be cd 1c 3d
       -0.0046849595 0.031075466 0.0020530792 0.03828215
0001e0 2a 78 a2 bd 65 79 8b 3d 8a 65 dc bd ca f0 91 bd
       -0.07933076 0.068102635 -0.107615545 -0.07126005
0001f0 ad b2 b3 bc 63 74 28 3d 11 5b 1e be 3b 46 20 3c
       -0.021935785 0.04112662 -0.15464427 0.009782369

weight f4 [128, 128]
000000 44 ec 3f bc 2d ea 3c bc c2 64 a4 bd 9a 84 13 bd
       -0.011714045 -0.011530441 -0.080270305 -0.03601513
000010 ce 05 34 3d e2 1d 54 bd 78 33 56 bd ff de 04 3d
       0.04395085 -0.05178631 -0.05229518 0.03243923
000020 86 37 fe 3c b2 48 9a 3d 35 99 6a bd cf a5 45 3d
       0.031032335 0.07533397 -0.057275016 0.04825383
000030 07 75 a9 bd 7a d8 8a bd c5 e4 61 bd b4 4e ea bc
       -0.08274274 -0.06779571 -0.055149812 -0.028601982
000040 08 6b 59 3d a8 ed f8 3c 39 e6 94 bb f3 23 06 3d
       0.05308059 0.03038676 -0.0045440462 0.032749128
000050 ed dc 86 bd 83 ee 1e bb 31 6e b1 3c b3 39 e3 bc
       -0.06585107 -0.002425105 0.021658989 -0.027737474
000060 73 3c 09 3d 70 0d fa 3c c6 6a e1 bd 2f 43 9d 3b
       0.033504914 0.030523986 -0.110066935 0.0047992687
000070 00 9d ab bd 10 0c a6 bc da 6a 70 bd d8 61 e1 3c
       -0.08379555 -0.020269424 -0.05869565 0.027512476
000080 dc ff f9 3c f6 f6 8c bc 77 16 2a 3d c7 c1 3f 3d
       0.030517511 -0.017207604 0.04152533 0.04681566
000090 c5 ac 29 bc 68 76 89 3c 27 b3 39 3d 77 f2 42 3d
       -0.010356133 0.016780093 0.04533687 0.047594514
0000a0 6c c0 89 bb d1 88 ab bc 0a 36 e5 bd 2d 3c bc bd
       -0.0042038467 -0.020939263 -0.11191948 -0.09191165
0000b0 c2 0e f1 bc cd a7 8a bd c1 1a 69 bd 29 72 09 3c
       -0.029425982 -0.06770287 -0.05691028 0.008389034
0000c0 2e df b2 3d dc 7a f8 3c dc 34 ed 3c 54 a9 c6 bc
       0.087339744 0.030332021 0.02895587 -0.024250664
0000d0 0f 77 94 bd 3f 04 9c bd f5 f0 1d bd 82 05 d1 bd
       -0.07249271 -0.076179974 -0.038559873 -0.10206129
0000e0 8a db 36 bd df 65 71 bc 63 ee 95 3d 23 4e 4e bd
       -0.044642963 -0.014733761 0.07320859 -0.050367486
0000f0 25 41 65 bd aa 1c 9b bd b8 58 fc 3c 7e 50 bd bd
       -0.05597033 -0.075738266 0.030804023 -0.09243868
000100 cd f6 b3 3d 55 41 ab bd 2b 51 fe bc d7 26 b3 bd
       0.08787308 -0.083620705 -0.031044563 -0.087476425
000110 14 87 8e bd 6c bd 13 bd 20 f8 ab bd 2c f7 2b 3d
       -0.06959358 -0.03606932 -0.083969355 0.04198377
000120 8c 7c 37 bd d3 d6 10 3d 3b 21 e6 3c 69 bc 29 bd
       -0.04479651 0.035361122 0.028092017 -0.041439448
000130 85 6e e5 bd f5 98 8b bd 28 9f 8d bd e1 61 74 bd
       -0.112027206 -0.068162836 -0.06915122 -0.059663657
000140 26 53 8c 3c 76 53 90 bd 75 2c a7 3c ed 87 91 3d
       0.017129492 -0.07047169 0.020406941 0.07106004
000150 3f 73 fd 3c af d3 fd 3c 4c ad 19 3d 97 d2 df bd
       0.030938743 0.030984728 0.037518784 -0.10928839
000160 56 37 f6 bc b5 01 a7 bd 4b 14 08 bd 9c d6 82 bd
       -0.030055683 -0.081546225 -0.033222478 -0.0638859
000170 70 5f 04 be 15 a4 4f 3d 00 b1 92 bd 13 4c 90 bd
       -0.12927032 0.05069359 -0.07162666 -0.0704576
000180 c3 a9 9c bc 72 6f 66 bd c7 00 82 bd a8 00 60 3d
       -0.019123917 -0.056258626 -0.063478045 0.054688126
000190 94 71 5d 3d 24 66 f7 bc de b4 a9 bd 58 5a f2 bb
       0.054063395 -0.030200072 -0.08286451 -0.0073960237
0001a0 bd f9 bd bc 88 33 27 3c 70 f9 a0 bd 34 fb d6 3c
       -0.023190374 0.010205157 -0.078600764 0.02624283
0001b0 45 2f 97 bd 5b 15 73 bc 63 11 3b bd de 86 04 3b
       -0.07382063 -0.0148366345 -0.04567088 0.0020221989
0001c0 73 78 37 3d f1 36 91 bd 03 fd e2 3b 0c 67 18 3c
       0.044792604 -0.07090557 0.006927134 0.009301912
0001d0 ee 58 6c 3c e8 50 2b 3d 9f 49 b5 bd 63 c1 c8 bc
       0.014425499 0.041825205 -0.08851933 -0.024506276
0001e0 fa a5 97 bd 51 83 ed 3c 53 f4 37 3d 15 9b 44 bc
       -0.074047044 0.02899328 0.04491074 -0.011999865
0001f0 63 b0 60 3c 15 66 e9 bc d9 e8 88 bd a8 10 9e bc
       0.013713929 -0.02849106 -0.06685037 -0.019295052
000200 2e 30 68 bd a1 32 09 be 6d ad 15 3e be 7a 08 3d
       -0.056686573 -0.1339822 0.14616938 0.03332018
000210 81 2d 4c 3d 1b ae 3f bb 97 53 de 3c 82 66 98 3a
       0.049848083 -0.0029248062 0.027139468 0.0011627229
000220 f7 a3 ea bd 85 04 af 3e 5b 50 71 3e a0 e4 ca 3d
       -0.11457055 0.34183136 0.2356581 0.09906888
000230 64 5f 2f 3e 6f b3 9d bd 7e ed 1a bd 69 19 2e 3c
       0.17126232 -0.0770024 -0.037824146 0.010626175
000240 f3 2f 80 be c7 e8 80 3d 22 31 2b be 54 2e 41 3e
       -0.25036582 0.06294399 -0.16717961 0.18865329
000250 41 b3 cc bd ac bd 3c 3d c9 44 bb 3d 6a 63 ac bc
       -0.099951275 0.046079323 0.09143979 -0.021043498
000260 a1 5c e7 bc de 3e eb 3b 0e af 23 bd 53 4a 39 be
       -0.028242411 0.007179125 -0.039961867 -0.18094759
000270 1d 6c 07 3e e3 ff 3e be 90 3c 02 3d c6 41 29 be
       0.13224836 -0.186523 0.03179604 -0.16528997
000280 47 4f 37 be 6f dd bc bc d9 03 5e 3d 8c c8 0f be
       -0.17901336 -0.023054807 0.05420289 -0.14041346
000290 1c 74 34 3e c6 6c 2e be 8a a8 82 bc a2 e0 4a 3d
       0.17622417 -0.17033681 -0.015949506 0.049530633
0002a0 01 05 df 3c 90 97 36 3d 2b e9 26 3d 12 cd ef 3d
       0.027224066 0.044578135 0.04074971 0.11709036
0002b0 8d 92 5d be f0 23 68 3d 69 b9 55 3c 37 bf dc bd
       -0.21637936 0.056674898 0.0130446935 -0.10778659
0002c0 fa 27 2e 3e 95 d4 8d bc e1 da 84 bd 82 00 77 be
       0.17007437 -0.017313281 -0.0648706 -0.24121287
0002d0 90 2b a4 3d 4b 00 36 bd a6 92 55 3c 24 1f 3c 3d
       0.080161214 -0.044433873 0.013035452 0.045928136
0002e0 ab 47 96 bc 8b 15 34 bd 21 11 46 3d ca 82 9e be
       -0.01834472 -0.043965857 0.04835618 -0.3095916
0002f0 4f 02 50 3a 7b 47 62 be 8b 84 f6 bc f2 91 14 3e
       0.00079349143 -0.2209758 -0.030092498 0.14508799
000300 84 83 88 be 2f 7c 01 bd ed e0 0f be f5 9a 40 3b
       -0.26662838 -0.03161257 -0.14050646 0.0029389237
000310 94 b3 70 bd cf d9 5d 3e 1b e1 45 3c d2 73 52 3d
       -0.05876501 0.21665119 0.012077595 0.051379986
000320 b9 38 20 bd 2b 72 b9 be 81 09 6b be aa f6 d3 3c
       -0.039116595 -0.36219916 -0.22952844 0.025874455
000330 a0 0f 27 3d 43 47 d9 3d f2 20 32 bc 1e 9c 0a 3d
       0.040786386 0.10609295 -0.010872113 0.03384029
000340 81 73 02 bd 47 c8 82 3c 5a b0 d3 bd 57 9d 9f be
       -0.031848434 0.01596464 -0.10336371 -0.31174728
000350 ad 41 bc bc 6f 10 46 be 16 a2 67 3d 31 99 16 be
       -0.022980535 -0.19342206 0.05655106 -0.14706875
000360 f7 c4 e0 3d 37 d8 e0 bd 5f d4 81 ba eb 96 ee bb
       0.10975068 -0.1097874 -0.000990521 -0.0072811744
000370 31 84 d3 3d 3c 0a 62 bd b9 92 99 bd 3e a4 44 bd
       0.10327948 -0.05518554 -0.07498688 -0.048008196
000380 50 74 9b bc b3 db 82 be 14 4e d7 bd 0c ea 91 3e
       -0.01897636 -0.25558242 -0.10512939 0.28498876
000390 8b cc 54 be 12 8b 88 bd 79 27 cc bb df ba 77 bd
       -0.20781152 -0.066671506 -0.0062302914 -0.06048095
0003a0 08 af da bd 41 ff bf bc 8c 12 a8 3c b7 46 f2 3c
       -0.10677916 -0.023437144 0.020516656 0.029574735
0003b0 f3 0a 87 3d d2 9b aa 3b 10 90 98 be ee e6 1e bc
       0.06593885 0.0052065635 -0.2979741 -0.009698613
0003c0 de fa 10 3e 88 4e 4b 3d b8 53 ad 3b 26 c1 5a 3d
       0.14158198 0.04963544 0.005289521 0.053406857
0003d0 db a8 16 3e b3 e5 3a 3d 7f de f9 bd 71 0a 42 bd
       0.14712851 0.045629214 -0.12200641 -0.04737324
0003e0 6b b6 8e bd 7f 7f 39 bd d3 bd 82 bd 4b f1 4c be
       -0.06968387 -0.045287605 -0.06383862 -0.20013921
0003f0 c2 ff a5 bd d7 71 fa 3b b8 af b0 3b 61 79 2c bd
       -0.081054226 0.0076429653 0.005392041 -0.042107943

bias f4 [128]
000000 f3 aa 1d be b8 64 8f 3d 8e 92 93 3c 3b 85 0d be
       -0.15397243 0.070016325 0.018014219 -0.13820355
000010 6e b3 da 3d 62 b6 85 3c 50 1f 58 be 5e 66 09 3e
       0.10678755 0.016322318 -0.21105695 0.13417956
000020 0d dc 31 bc 29 12 8e 3d 59 81 dc bc 52 2e ff bd
       -0.010855687 0.069370575 -0.026917147 -0.12460007
000030 b2 c1 cb 3d 18 c4 10 be 37 67 e9 b9 6a 5a e0 3b
       0.09949054 -0.14137304 -0.00044518124 0.0068467157
000040 bf 3a b7 bd 71 c8 6f 3d 54 6a 96 bd 54 3c 87 bd
       -0.08946752 0.058540765 -0.07344499 -0.066033036
000050 2e 41 2d bd 0f db 0e be 8e bc 0a 3d bd 0a aa bd
       -0.04229849 -0.13950752 0.033871226 -0.083028294
000060 68 a5 da bc 8d 73 d5 3d 31 53 8d bd 8a d4 37 3d
       -0.0266902 0.1042243 -0.06900633 0.044880427
000070 80 02 8b 3d ff 35 16 be d4 13 62 bd 15 c8 d6 3b
       0.06787586 -0.14669035 -0.05519469 0.0065546134
000080 73 cb 9e 3c 3b c1 5f be e9 ee 60 be d9 57 54 3c
       0.019384122 -0.21851055 -0.21966137 0.012960398
000090 98 5d 8a bd fd d9 1a 3e 7a c4 f4 3d 68 86 b6 bc
       -0.06756133 0.15122218 0.119515374 -0.022280887
0000a0 78 b6 69 3d ac d4 ae 3d 82 57 a5 bc 89 a3 d7 3c
       0.05705878 0.08536658 -0.020183329 0.026323097
0000b0 f5 f8 c5 3b 55 61 a1 bd 0b ff 86 be d1 36 33 bd
       0.006041641 -0.07879893 -0.26366457 -0.04375345
0000c0 51 1c 07 be 79 07 6a bd 8a af 89 bd ac fb 06 3d
       -0.13194396 -0.057136033 -0.067229345 0.032954857
0000d0 99 b6 65 be 9b 8d 78 bb 92 61 ee bc fc 7d 8d 3d
       -0.22432937 -0.00379262 -0.02909926 0.06908795
0000e0 28 6b ad bd 7d 82 0e 3e e4 4a fa bd 28 d8 5d bd
       -0.08467704 0.13916965 -0.122213155 -0.05416122
0000f0 7e f4 67 bc 9f 92 2a 3d f6 21 32 bc 3d 44 43 3d
       -0.014157413 0.041643735 -0.010872355 0.0476725
000100 19 cd 8f bd c7 72 32 be a2 1a 55 bd f2 2a b8 bd
       -0.07021541 -0.17426597 -0.052027352 -0.08992566
000110 cd 94 a0 bb 73 33 c9 3d ee fa 8c bc e4 44 57 3d
       -0.004900551 0.09824266 -0.017209496 0.052555934
000120 c1 66 d1 3d 5e 83 f0 bd 8e cb 46 3d f4 28 a8 bd
       0.10224677 -0.11743806 0.04853397 -0.08210936
000130 9d bb f7 bd 43 eb 9b bd 34 b3 29 be 39 2f 67 3c
       -0.12096331 -0.07613232 -0.16572267 0.01411038
000140 25 13 0d 3d 2f 41 5b be 54 c8 e4 bd 0c 98 11 3d
       0.034442086 -0.21411584 -0.11171022 0.035545394
000150 39 e4 e8 3b a0 1d 13 be 26 64 36 be 03 da 1f bd
       0.0071072844 -0.1436677 -0.17811641 -0.03902627
000160 db a7 06 3d 7d de 4e 3d 0f 73 03 3e e6 7e 4e be
       0.032874923 0.05050515 0.1283686 -0.20165595
000170 38 28 15 be 64 a4 97 ba dd fa 93 bd 24 14 39 be
       -0.14566123 -0.0011569378 -0.07225583 -0.1807409
000180 dc 03 ed bd 99 f1 7a be 94 4d 44 3d 9a 04 65 be
       -0.11573002 -0.24506225 0.047925547 -0.22365037
000190 da c9 ab bd 4e 3c 48 be 92 0a 66 be 79 29 c6 bd
       -0.083881095 -0.19554254 -0.2246497 -0.09675879
0001a0 3d 9b 9f 3d 03 f1 b1 bd c1 77 01 bd 99 c5 17 3e
       0.07793281 -0.086885475 -0.031608347 0.14821471
0001b0 c8 d7 c5 3d b7 a7 a6 3b c7 ce 43 3b 73 b3 68 3d
       0.09660298 0.005085911 0.0029877888 0.05681176
0001c0 25 75 4d be 5e 7c 27 be 5b d1 a5 3c c7 b8 22 bd
       -0.20064218 -0.16356036 0.02024143 -0.039727
0001d0 80 45 c5 bd 9d 2c 3d be 88 03 1a 3e 28 d2 5d bd
       -0.09632397 -0.1847405 0.1504041 -0.0541555
0001e0 bc 76 a9 bd d8 59 c8 3d 7b 28 fe bd 33 ad 0d bd
       -0.082746 0.09782761 -0.12410065 -0.034589004
0001f0 ae f4 0b 3b d0 80 0b bd 3e cb 72 3d 0d 93 15 be
       0.0021355557 -0.034058392 0.059275858 -0.14606877

weight f4 [128, 128]
000000 30 d3 de 3c 79 38 c5 bb 34 e6 76 bb e1 4e 8c bc
       0.027200311 -0.006018695 -0.0037673833 -0.017127456
000010 c1 05 83 3d e8 c1 34 bc 22 bb 5f bd b3 8c 57 3d
       0.06397582 -0.011032559 -0.054621823 0.052624416
000020 94 cd bd bc ae d5 a7 bd 6c 6d e9 bc dc e1 2e 3d
       -0.023169316 -0.08195053 -0.02849456 0.042695865
000030 54 34 82 bd 1a e5 da 3b 91 63 a4 bb 59 1e 8a 3c
       -0.06357637 0.006680143 -0.005016752 0.016860174
000040 37 4a ef 3b 72 c2 1f 3c 02 b0 13 3d 36 0e 1d 3d
       0.0073025483 0.009750949 0.036056526 0.03834363
000050 ef 08 08 3d 57 bc b4 bc 53 84 a8 3d 8d 96 ac bc
       0.033211645 -0.022062464 0.08228364 -0.021067882
000060 ae 68 66 3d 1f ce 3c bd 7e 00 0a 3d e4 1e c4 bd
       0.056252174 -0.04609501 0.033691876 -0.095762044
000070 e4 98 87 3c 87 e8 aa bb 07 fb 3c bd 6d 32 25 bd
       0.016552396 -0.0052157077 -0.046137836 -0.040331293
000080 82 bc 73 bd c4 61 b1 bd 47 01 ec ba 51 f1 87 3d
       -0.059505947 -0.086612254 -0.0018005752 0.06637824
000090 1c 53 fb bc b7 63 53 bd 48 1e 98 bc c0 f5 b2 3b
       -0.030679278 -0.051608767 -0.018569127 0.0054614246
0000a0 b2 a5 48 bd d5 7a 11 3c 10 48 22 3d 79 71 4b bd
       -0.048986144 0.008879383 0.039619505 -0.049668763
0000b0 81 bc 52 bd 92 b8 06 bb 8d 3c b2 bd d1 d9 81 bd
       -0.051449303 -0.002055679 -0.087029554 -0.06340373
0000c0 32 eb d0 bd 61 da 7c bc 40 ff 4f bd c8 7e 85 ba
       -0.1020111 -0.015432925 -0.050780535 -0.0010184878
0000d0 b7 2e b4 3a 5a 6e 7f 3d 26 59 88 bd 02 c1 7a 3c
       0.0013746832 0.0623611 -0.06657629 0.015304806
0000e0 bc f1 6e 3c 3b fc b0 3d 5d e0 9a bd 65 26 48 3c
       0.014584001 0.08641859 -0.07562325 0.012216185
0000f0 c1 30 38 bc 9e 24 cd 3c 8b 9e e0 bb ac 31 22 bd
       -0.011242093 0.025041874 -0.0068548373 -0.039598152
000100 09 31 0f bd b2 d5 a5 bd 59 eb 50 bd 9b 7c 86 3c
       -0.034958873 -0.080974 -0.051005695 0.016416838
000110 4d eb 7f bb ff c5 41 bd 58 6e 0e bd f8 e5 05 bd
       -0.0039050162 -0.047307964 -0.0347732 -0.03269002
000120 f5 88 43 3d 3f ae 41 3b 5d da d2 ba 57 87 2c 3d
       0.047738034 0.0029553322 -0.0016086806 0.042121258
000130 20 4b 36 bd a7 20 63 3b 68 62 9a bc 30 f0 3a bc
       -0.04450524 0.0034656913 -0.018845752 -0.011409804
000140 d5 c8 ed bb 73 31 a6 3d ca 73 82 bd 6f fc b2 bd
       -0.007256607 0.081149004 -0.06369741 -0.08739554
000150 99 52 35 3d c2 d4 72 39 4a 58 07 bd b7 41 81 bd
       0.044268224 0.00023158177 -0.033043183 -0.06311362
000160 2e 45 a6 3c 75 06 82 bd 6e 02 4b 3d 8d f2 02 bc
       0.02029666 -0.06348888 0.049562864 -0.007992399
000170 96 ef 37 3d c0 e7 98 3d ad b5 ab bd 9e 6b 60 3d
       0.04490622 0.07466078 -0.08384261 0.05479013
000180 e1 de a8 3d 3f 15 50 3d 39 1c 79 bd 3d 33 d3 3c
       0.08245636 0.05080151 -0.06081793 0.025781268
000190 5d e7 18 bd 93 bb 06 3d 15 60 e6 3c ae ed 87 3d
       -0.03733002 0.03289373 0.028121987 0.06637131
0001a0 c4 20 a6 3c 00 17 90 bd 12 34 de bc 32 80 99 bc
       0.020279296 -0.07035637 -0.027124438 -0.018737886
0001b0 9f fa 92 bd f2 ea 86 bd af 52 e8 bc 6c 1d 9a bc
       -0.071767084 -0.06587781 -0.02835974 -0.018812858
0001c0 63 0a b9 3c 24 8b 1f bd d5 ba 82 bc 2d 1b a5 bd
       0.02258796 -0.038951054 -0.01595823 -0.08061824
0001d0 e4 09 ac 3d 10 79 83 bd 24 77 21 bd cc a7 af bd
       0.08400324 -0.06419575 -0.039420262 -0.085769266
0001e0 08 54 fd bb bd 41 8b bc cb b6 3a bd 11 88 30 bd
       -0.0077309646 -0.01699912 -0.04558448 -0.043098513
0001f0 35 0b 8c bd 90 f2 33 bd 0b 26 b0 3c 2c 19 88 bd
       -0.06838075 -0.043932498 0.021502515 -0.06645426
000200 5b ae a1 bd 53 e5 f6 3d 05 17 5f be ef 13 8b bd
       -0.07894584 0.12055459 -0.21786125 -0.067909114
000210 0d 48 6c 3e f4 4a 09 3e c2 15 ef 3c 13 da 09 3e
       0.2307436 0.13407499 0.02918518 0.13462095
000220 27 ca 37 be 62 24 1a be eb d0 2e be 8a c4 9b 3d
       -0.17948209 -0.15052941 -0.17071883 0.07605846
000230 31 19 8a bd 5e 08 59 bc 2e ff d9 3c b0 83 40 3d
       -0.06743086 -0.013246624 0.026610937 0.047000587
000240 17 50 16 3d d5 c1 91 bd 82 9c 99 be e0 70 93 bd
       0.036697473 -0.07117049 -0.30002218 -0.071992636
000250 01 d2 b2 bd 6c 82 3c bb 04 61 2d be 03 58 82 3e
       -0.08731461 -0.002876426 -0.1693154 0.25457773
000260 35 29 5a be 1a a8 2b 3d c6 2b d0 bd 85 15 55 be
       -0.21304782 0.04190836 -0.10164599 -0.2080899
000270 f3 9d 6d bd 52 87 9f bd 34 3d 9a 3d 20 43 a8 3d
       -0.05801196 -0.07789482 0.07531205 0.08215928
000280 86 48 49 be 3f e0 26 be c1 ef 59 be 9f 8f fe 3d
       -0.19656572 -0.1629648 -0.21282865 0.12429737
000290 e6 b5 40 3e b3 87 43 be 43 16 c7 bd b4 97 75 bd
       0.18819389 -0.19094734 -0.09721043 -0.05995913
0002a0 ea 81 8f bc 19 5d 55 3e ee dd 00 bd 02 f2 b0 3c
       -0.017518003 0.20836295 -0.03146165 0.021599773
0002b0 36 ad a9 3d 0b 60 aa bd f6 d5 36 bd f3 64 aa 3e
       0.082849905 -0.083191 -0.044637643 0.33280143
0002c0 f8 2d ea bd 9d 10 4e be 85 72 23 bc 2d e2 7f bd
       -0.11434549 -0.20123525 -0.009976034 -0.062471557
0002d0 e4 2d dc 3c 52 a3 85 3d db 41 e7 bb bc 54 6f bc
       0.026877351 0.065252915 -0.007057411 -0.014607605
0002e0 03 7f fe 3d ec 82 ca bd bc 11 02 bc 81 64 e5 3d
       0.12426569 -0.098882526 -0.0079387985 0.1120081
0002f0 e3 07 fb bc 2e 14 0b be fd 8b 01 3d 95 d3 35 be
       -0.03064341 -0.13581917 0.031627644 -0.17756493
000300 65 55 8d bd c1 3c 3e bd 87 c1 8b bc 55 81 1b 3e
       -0.06901053 -0.04644466 -0.017060054 0.15186055
000310 7b bf c6 be 10 db 10 3e 8e 42 f4 bd 3e 1b 1e 3e
       -0.38817963 0.14146066 -0.11926757 0.1544008
000320 90 2a 08 be a7 c9 90 3b ec 0e c3 3c a0 63 2d 3e
       -0.13297486 0.00441857 0.023810826 0.16932535
000330 6c 9b de 3b 54 1e 1e be 8f aa c1 3d 18 47 ad bb
       0.00679343 -0.15441257 0.094563596 -0.005288016
000340 59 2c ee 3c 01 92 37 be 42 d1 e0 bd af 1d 4e be
       0.029073881 -0.1792679 -0.10977413 -0.20128511
000350 5d 3b 48 be c5 1f 38 be 65 e1 60 bd de ef 20 bc
       -0.19553895 -0.17980869 -0.054902453 -0.009822814
000360 04 be 1b bd 64 8b 26 bd c2 30 a3 bd 89 da 9b bc
       -0.03802301 -0.040660277 -0.07968284 -0.019025104
000370 d1 61 92 3e 4c 72 c0 bd 95 19 b0 3b 9c 5e 52 bd
       0.28590253 -0.093968004 0.0053741434 -0.051359758
000380 7e bb 75 3d a9 42 9f 3d 06 03 f2 bc 89 83 8f be
       0.05999326 0.07776386 -0.029542457 -0.2803004
000390 a5 0b 96 3e 3a 14 e2 3d 42 93 d0 bd e8 c0 45 bd
       0.2930576 0.11039014 -0.10184337 -0.048279673
0003a0 5b eb 07 be 42 2c a0 bd 09 2d 84 bd 80 a8 cd bd
       -0.13273375 -0.078209415 -0.06453902 -0.100419044
0003b0 6a d5 ec bd e1 20 b2 ba 6f 9d b1 3c c4 35 7a be
       -0.11564143 -0.0013590121 0.021681515 -0.24434572
0003c0 69 c8 20 be 36 7f 66 bd 25 df ee 3b 80 13 2b be
       -0.1570145 -0.05627366 0.0072897845 -0.16706657
0003d0 57 c3 36 be 1f 4b 24 be e2 e1 44 3d 36 db a7 be
       -0.17847954 -0.16044281 0.04806698 -0.32784432
0003e0 96 ea 06 be b3 02 73 3c 02 7b c5 bc 8a 52 aa be
       -0.13175425 0.0148321865 -0.024106506 -0.33266097
0003f0 14 6e d7 3c da fd c8 3c 21 0d 96 3c 51 1f 92 bd
       0.026297607 0.024535108 0.018316807 -0.071348794
