nerf_models/monkey_biz.pth (torch, 647458 bytes, 22 tensors)

weight f4 [128, 63]
000000 36 c3 8e be 1b df 5f bd e6 05 88 3e 30 a4 95 bc
       -0.2788331 -0.05465613 0.26567 -0.018266767
000010 d0 be 6e 3e f2 ae 48 3e 95 bf fd bd ed 2a a6 3c
       0.23314977 0.19597986 -0.12390057 0.02028414
000020 50 1e a9 bc 27 e1 51 bd 19 fc 63 3e 7b 9c 1a bd
       -0.020644337 -0.051240113 0.22264136 -0.037746888
000030 f1 a5 93 be 91 d2 5d be f6 48 76 be 3d 14 63 be
       -0.2883754 -0.21662356 -0.2405127 -0.22175689
000040 09 c1 75 3e 80 4d 0b bf 91 00 f6 3d 7f b0 1e be
       0.23999418 -0.5441513 0.12011827 -0.15497015
000050 ca 77 42 3d 6b 2b 8b 3e a3 ca 5e 3e 9f 12 77 be
       0.04747752 0.27181563 0.21756987 -0.24128197
000060 35 16 40 be e9 73 2a 3e 5b da aa bd 63 fd 1f bc
       -0.18758471 0.16645779 -0.08342429 -0.009765002
000070 5b 16 a6 bd 97 92 b2 be d1 8b e1 bd 50 2d 7a 3e
       -0.08109733 -0.34877464 -0.11012996 0.24431348
000080 4f 9e c4 3d ea 5f d2 3d 75 08 70 3c 38 d1 4c 3e
       0.096005075 0.102722004 0.014650454 0.20001686
000090 4a 96 da 3c 00 c8 0e 3d 9d 81 5f 3e a5 14 1b bd
       0.026682992 0.034858704 0.21826787 -0.037861485
0000a0 08 c2 96 bc c5 82 77 bc a0 d1 6f bc 86 37 3f bb
       -0.018403068 -0.0151068615 -0.014637381 -0.0029177382
0000b0 ca 5c dd 3d d3 c3 36 bc 29 ec 01 3d 2d 19 00 bc
       0.10808714 -0.011155087 0.03171936 -0.007818502
0000c0 b2 90 0d 3c 1c 04 62 3d 5f 71 bf 3c 6f 03 b6 bc
       0.008640455 0.0551797 0.02336949 -0.022218434
0000d0 9b 66 a4 bc 6d 67 f3 3a be 87 24 bd 2d 39 d4 3c
       -0.020068457 0.0018570252 -0.040168516 0.02590617
0000e0 94 c9 77 3c 14 04 17 bc c2 da 0c 3c 0d 27 99 3a
       0.015123744 -0.009217281 0.008597078 0.0011684612
0000f0 b5 2a 5c 3b 59 51 c9 bb bf 45 94 3c 5f d1 22 bd
       0.0033594791 -0.0061437306 0.018099664 -0.039750453
000100 08 cf 01 bd cc 34 05 bd b3 ab 1e 3d 7d a8 07 bd
       -0.03169158 -0.032521054 0.038737964 -0.033119667
000110 a8 c1 67 3d ef 0d 21 3d 9a 79 f4 bd 5e ef 1b be
       0.05658117 0.03931993 -0.11937256 -0.1522803
000120 45 7b 8e bc 6e 3c c6 bd 4c 37 d4 bd 6e 94 46 be
       -0.017392764 -0.09679495 -0.103621095 -0.19392559
000130 3f f2 b6 be dd cd 33 be 1d f2 6a bd c3 ef 56 3e
       -0.35731694 -0.17559 -0.057359803 0.209899
000140 da 66 f5 bd 6c 03 af be 05 30 6c be c4 8f a1 be
       -0.11982508 -0.34182298 -0.23065193 -0.31554997
000150 b4 c8 b3 3c 3d 49 e0 3d 93 ec 22 be 08 10 1a 3e
       0.021946289 0.10951469 -0.15910558 0.15045178
000160 29 21 3a be d2 b7 86 bd 57 13 e2 bc 6c 11 a0 be
       -0.18176712 -0.0657803 -0.027597113 -0.31263292
000170 fa 9e 2c 3d d9 0d 98 3d a8 6f 35 3e e0 f5 22 3e
       0.0421438 0.07424516 0.17718375 0.15914106
000180 77 d7 bd bd 48 88 89 be e2 80 be bd ed 5b 08 3d
       -0.09269612 -0.26861787 -0.09301926 0.033290792
000190 d0 a1 e9 bc fa ad 5c bd ec 4a 84 bc 62 2a 14 be
       -0.028519541 -0.053876854 -0.016149007 -0.14469293
0001a0 bd 7d 20 3e e5 3a 29 bc 4a 16 53 bd d9 c5 b7 bd
       0.15672965 -0.010328983 -0.05153493 -0.08973283
0001b0 cf 29 80 3a d7 6d 04 bd b1 83 32 3d 55 d0 a2 3c
       0.0009778085 -0.032331314 0.043582622 0.019874731
0001c0 e0 55 fc 3d e5 ea f9 bc 1c 87 d6 ba c2 7e fc 3c
       0.12321067 -0.030507514 -0.001636717 0.030822162
0001d0 2f 80 f7 3c 97 35 9f 3b eb 92 88 bc c3 82 2a 3c
       0.03021249 0.0048586833 -0.016671618 0.010407153
0001e0 2b 5c ae 3c f9 a0 80 3c 5a 02 0f bd 26 52 22 3d
       0.021284183 0.015701758 -0.034914352 0.039629124
0001f0 ce 34 6c bc 19 2d e8 ba 44 1a 55 be a4 a0 c5 3c
       -0.0144168865 -0.0017713635 -0.20810801 0.024124451
000200 06 3c 91 bc 2b 98 a9 3d 6c 44 90 3d 88 56 09 bd
       -0.017728817 0.08280977 0.070443004 -0.03352979
000210 f7 65 ae be 9b ed 26 be 02 fa a9 bd 5b 99 01 3f
       -0.34062168 -0.16301577 -0.08299638 0.50624627
000220 ab e8 16 3d ff 82 78 3d 03 62 8c be 9f 8e d5 bd
       0.036842983 0.060671803 -0.27418527 -0.104275934
000230 da 63 0b 3d a7 66 55 be be 03 f5 3d 67 a3 59 3e
       0.034030773 -0.2083994 0.119636044 0.2125374
000240 c3 f1 8d be 4b fa ed bd fb ce 26 bd 52 fe d8 3e
       -0.27723512 -0.11620005 -0.040724736 0.4238153
000250 87 99 07 be 31 bb 20 3e c6 87 29 bc ec 1e 2e 3e
       -0.1324216 0.15696408 -0.010347312 0.17003983
000260 97 63 e8 3d a4 08 6b 3d 94 83 b2 3e 92 ac 07 3d
       0.1134712 0.057381287 0.3486601 0.03312356
000270 c2 1c 32 3e af 95 d2 3d e8 57 79 bd e8 94 2a 3c
       0.17393783 0.10282456 -0.06087485 0.010411479
000280 01 61 13 3d 84 e2 06 bd a8 9a 56 be 20 1e 31 bd
       0.035981182 -0.032930866 -0.20957434 -0.04324162
000290 a2 f7 83 3d b9 81 37 3d 1a dc 47 3d 74 cb c3 bd
       0.064437166 0.044801448 0.04879389 -0.0956029
0002a0 7b 4b a3 3c 10 1b e1 bd ac ef 30 3d 83 1b e7 bc
       0.019933453 -0.1099149 0.04319732 -0.02821136
0002b0 80 2a 35 bc cd b1 53 bb 3e 04 5d 3d 5a 09 03 3d
       -0.011057496 -0.0032302022 0.053959124 0.03199134
0002c0 e8 6c 38 bc 7a fa f5 bc 75 c4 c2 bb c8 1b 27 3c
       -0.011256434 -0.030026663 -0.0059438297 0.010199495
0002d0 8e d8 6e 3c 58 fe 2f 3b 67 17 a5 bc 02 63 a4 3c
       0.014577998 0.0026854482 -0.02015276 0.020066742
0002e0 90 72 1b 3d 1e 4a a7 3b 1e fb 8c 3a e0 fc b9 39
       0.037951052 0.005105271 0.0010755991 0.00035474356
0002f0 7a 3b 13 3b a7 69 ca 3b 8a 00 99 3c c0 d6 1f be
       0.002246587 0.0061771455 0.018677015 -0.15609264
000300 e6 2a ef bd b9 82 fe 3d 9e 08 a3 3c 8d 3f d1 bd
       -0.11678104 0.12427277 0.01990157 -0.102171995
000310 d5 0b b8 bd 04 8f eb bb 3c fb b2 bd 3f 1e 92 bc
       -0.08986632 -0.0071886797 -0.087393254 -0.017836688
000320 d9 11 20 be 9a 33 28 3e 5d 63 52 be 5a de 7c 3e
       -0.15631808 0.16425934 -0.20545717 0.24694195
000330 c2 8f 80 3d 9b b2 17 bc 82 12 6b be 6c 7e 6f 3c
       0.062774196 -0.009258891 -0.22956279 0.014617544
000340 76 60 7b be d4 7d 98 3e ce ce 14 3d ec d5 c5 3e
       -0.24548516 0.297835 0.036330037 0.38639772
000350 94 8d 89 be 29 34 1e bf ef bf 9b 3e fd 6f 3e be
       -0.26865828 -0.6179834 0.3041987 -0.18597408
000360 62 a9 d5 3d 0c 88 70 3e 3c b9 ca 3d 1d c9 cb be
       0.10432698 0.23489398 0.09898612 -0.39801875
000370 04 b4 9b 3d 04 36 28 bd 73 31 fa bc 5d 9d 1c bd
       0.07602695 -0.04106714 -0.030541157 -0.03823601
000380 32 ca 25 3e 2e e1 c1 bc 84 ed fa 3d 8d 78 9d 3d
       0.16190413 -0.023666944 0.12252334 0.07689009
000390 1c cd 79 bd da ae 0c be 72 ec 6a 3c 8e db da 3d
       -0.060986623 -0.13738576 0.0143385995 0.10686408
0003a0 80 18 e6 bd 9b f4 17 b9 f5 b1 9b 3c c0 3b 30 bd
       -0.11235142 -0.00014491605 0.019005755 -0.043025732
0003b0 37 53 a5 bc 2c b1 90 bc e6 ed 03 3e 1f e7 11 3d
       -0.020181281 -0.017662607 0.1288372 0.035620805
0003c0 fd f2 c7 3c 4b 42 1f bb e9 d8 a7 3c 10 0a 54 bc
       0.024407858 -0.0024300988 0.020489173 -0.012941852
0003d0 91 a2 16 bc 82 d8 54 ba c8 18 22 bc 3b ce a8 3c
       -0.009194032 -0.00081194204 -0.009893604 0.02060615
0003e0 3a ca 1f 3c 77 af 1d bc a2 3c 1b bc 1c ae 88 3c
       0.009752804 -0.009624354 -0.009474905 0.016684584
0003f0 0f 88 e3 bd 24 5e 19 be 60 4c 6e 3d 37 35 c5 be
       -0.111099355 -0.14977318 0.058178306 -0.38517162

bias f4 [128]
000000 80 35 3e 3d 6f 70 6d 3d 7e 13 d3 bd 25 0e 26 bc
       0.04643774 0.057968553 -0.10306452 -0.010135208
000010 8f a0 7d bd 92 79 6e bd e6 52 c4 bc aa ff 23 3c
       -0.0619207 -0.058221407 -0.02396531 0.0100096855
000020 81 92 4f bc 29 55 d3 bd 21 c1 50 3d 73 61 dc bd
       -0.012669207 -0.103189774 0.050965432 -0.107607745
000030 c5 e0 e5 bc b8 3f 1d be d3 4e 77 bc 30 a7 10 be
       -0.02806128 -0.15356338 -0.015094477 -0.14126277
000040 04 c7 11 3b d8 dd b5 3d 9e 10 f9 3d 35 9f c9 bc
       0.0022243867 0.08880204 0.121613726 -0.024612049
000050 b2 c8 25 3d 49 5d 00 3d d9 a3 24 3c 42 94 10 bd
       0.0404746 0.031338964 0.01004883 -0.03529764
000060 3d a3 e6 3d e4 0b 2f be 6c ea 86 bd 97 96 c5 3c
       0.11261604 -0.1709438 -0.06587681 0.024119658
000070 03 4a 45 be dc c1 ba bd b9 b4 7b 3b 6b df e8 bc
       -0.19266514 -0.09119007 0.003840728 -0.028426846
000080 c2 d5 23 be 53 0b ba bd 36 c0 c5 3c e0 03 8d be
       -0.15999511 -0.09084191 0.024139505 -0.2754202
000090 92 c2 81 3d 03 be 84 be ab e2 cf 3c 81 08 06 be
       0.063359395 -0.25926217 0.025376638 -0.13089181
0000a0 7c f4 26 be b8 31 ff bd 09 c0 0c 3c 88 d0 68 bd
       -0.16304201 -0.12460655 0.008590707 -0.056839496
0000b0 d9 05 dd bd e3 8b e5 bc 94 87 20 bd b2 e0 10 3c
       -0.10792131 -0.028020805 -0.039191797 0.008842634
0000c0 c9 99 a7 bd f8 7b 6a bd 98 69 db bd 6b 1f 05 be
       -0.08183629 -0.057247132 -0.107135 -0.13000266
0000d0 83 c0 31 be 86 06 57 bd 04 99 5d be 5d 09 83 bd
       -0.17358594 -0.052496456 -0.21640402 -0.0639827
0000e0 f9 e0 d6 3d 82 10 81 bd eb 19 f4 bd d7 32 b8 3c
       0.10492129 -0.06301977 -0.11919006 0.02248518
0000f0 ff 42 98 bd 39 6a 75 bd 80 12 7c bc 52 11 fd bd
       -0.074346535 -0.059915755 -0.01538527 -0.12356819
000100 ed cc cd bc dc 7c e5 bd f8 a4 9f bd 98 5d be 3c
       -0.02512213 -0.11205456 -0.07795137 0.023237988
000110 32 5c 55 bd 67 02 87 bc f3 ea 26 be 72 68 8b bd
       -0.052089877 -0.016480638 -0.16300564 -0.06807031
000120 f5 64 d2 3d 7c 3a 61 3d 42 c2 7c bc 18 52 b5 bd
       0.10273162 0.054987416 -0.015427174 -0.08853549
000130 e6 ab 6c 3d 36 90 c1 bd 0b 18 12 bd e8 33 ea bd
       0.057781123 -0.09451334 -0.03566746 -0.114356816
000140 0c dd b3 3d 4c f1 c5 3c 75 c3 0b be 93 01 3f bd
       0.08782396 0.02416291 -0.1364878 -0.04663236
000150 4b eb 74 3b b2 24 91 bd f1 14 a8 bd 7b 4e 33 3e
       0.003737169 -0.07087077 -0.08207119 0.17510407
000160 b6 fe 9d bd 3a 26 d0 bc 6b f0 26 be a9 f7 93 bb
       -0.07714598 -0.025408853 -0.1630265 -0.0045156074
000170 a8 8c ad 3c 8d d4 17 be 30 7f 1a be d9 3a 2c 3d
       0.021185234 -0.14827175 -0.1508758 0.04204831
000180 e5 62 4c bc 92 54 b9 bd 0a 15 f7 3d 96 df 61 3d
       -0.01247475 -0.09049334 0.1206456 0.05514487
000190 73 98 d8 bd 2b 5b 38 be 49 1b de bb 25 fd d0 bd
       -0.105759524 -0.18003528 -0.006778155 -0.102045335
0001a0 64 df 04 be 2e 51 19 3e 9d e1 6f bd de 9a 61 3c
       -0.12975842 0.14972374 -0.05856477 0.013769833
0001b0 b9 73 fa bd 71 d9 ed bd 2d c6 8e 3d 20 d2 68 3d
       -0.122291036 -0.11613739 0.06971393 0.056841016
0001c0 61 6b 0a be 74 29 24 bd d0 c7 ad 3d 57 b6 12 bd
       -0.13517524 -0.040078595 0.08485377 -0.035818424
0001d0 c9 d8 8b bd 57 c8 f3 bc 01 dc 2c bc 32 87 6c bd
       -0.06828458 -0.029758615 -0.0105505 -0.05774612
0001e0 02 ca 37 bb 90 b1 e1 bd 74 4d 28 be 44 cc dc 3d
       -0.002804399 -0.110201955 -0.16435796 0.10781148
0001f0 c2 7e aa bc 95 04 f6 bd 22 9a 1b be fd 60 cd bd
       -0.020812396 -0.12012593 -0.15195516 -0.10028265

weight f4 [128, 128]
000000 ad 6f 33 3e 5b 73 b5 bb b6 24 98 be fe 20 47 3e
       0.1752307 -0.005537433 -0.29715508 0.1944618
000010 6f f8 f2 bd 7e 66 a5 be 31 5e 2c be 6b e9 9b 3e
       -0.11863791 -0.32304758 -0.16832806 0.3045152
000020 5b 44 f1 3a d4 92 37 be 43 2f 78 3d 10 ed 2c bc
       0.0018407212 -0.17927104 0.060591947 -0.010554567
000030 8f c1 6d 3e 73 be 41 3e 55 d3 4a bd 42 e1 22 3e
       0.23218368 0.18920307 -0.04951795 0.15906242
000040 aa d9 2b bd a7 93 cf bd 54 55 4b bd f1 8e 4e be
       -0.041955628 -0.10135584 -0.049641922 -0.20171715
000050 4f 6b b1 be 24 cf 22 be f9 cb 78 3e 6e ab 32 bc
       -0.34652182 -0.1589933 0.2429656 -0.01090513
000060 e2 ef 49 be fd 78 91 be 35 6d 0c be 24 63 e1 bd
       -0.19720414 -0.2841262 -0.13713534 -0.11005238
000070 88 a3 3a be da 0a 08 3e 41 91 80 bd fa af 29 3e
       -0.18226445 0.1328539 -0.06277705 0.16571036
000080 2c 65 b2 bd bf 4f 54 3e 99 f6 f1 3d a6 aa 26 be
       -0.08710703 0.20733546 0.11814613 -0.16276035
000090 39 74 9d be c9 e5 29 3d 16 fa 65 3b 7e d8 ab 3d
       -0.30752733 0.041478906 0.003509169 0.08390902
0000a0 a1 e9 e5 bd 26 38 28 be a2 5f 13 bf e4 ae 4e 3e
       -0.11226202 -0.16427669 -0.575678 0.20183903
0000b0 e7 2f bb 3d 02 a6 26 be bf a7 28 be 21 4f 9f 3e
       0.09139996 -0.16274264 -0.1647024 0.31115058
0000c0 92 98 e3 3d 05 07 fa 3d 07 a5 9a 3d ed 20 79 be
       0.11113085 0.1220837 0.07551008 -0.24328966
0000d0 27 32 64 be 95 3d 7a be a4 e8 22 3d 60 13 de bd
       -0.22284757 -0.24437554 0.039772645 -0.10843539
0000e0 0d 65 8c 3d 20 f4 f8 3c 1e 71 01 be e5 95 5d bd
       0.068552114 0.030389845 -0.12640807 -0.05409803
0000f0 6d 5d 8f be 31 71 31 be 42 8a 77 be 0f f1 3f bc
       -0.28000966 -0.17328335 -0.24173835 -0.011715188
000100 03 04 17 3e 46 ee b1 bd 48 d2 0d bc 11 42 0e 3d
       0.14747624 -0.08688025 -0.008656092 0.034730975
000110 71 9f e3 3d 55 2d 7a 3c 0b 41 84 be 88 04 7d be
       0.111143954 0.015269597 -0.25830874 -0.2470876
000120 0b 99 88 bd 79 16 76 be 89 c9 39 be cc 80 a2 be
       -0.06669816 -0.2403201 -0.18143286 -0.3173889
000130 65 c9 cb bd 62 88 b0 bd 8b 78 38 3e 53 21 7e 3e
       -0.09950522 -0.08619763 0.18014733 0.248174
000140 47 52 38 3e e2 4a 05 3b bd 63 20 be ce 25 1c be
       0.18000136 0.0020338823 -0.15663047 -0.15248796
000150 05 da 55 be 27 b9 3d bd 7c 7e 02 be 0d cb c1 3e
       -0.20883949 -0.046319153 -0.12743562 0.37850228
000160 da 1e a6 bd cb 29 f2 bc 89 b7 26 bd 4d 8e 36 3e
       -0.08111353 -0.029560944 -0.040702377 0.17827721
000170 20 7d 38 be 0a c8 15 bf 19 1d 22 3c dc 90 89 be
       -0.18016481 -0.5850836 0.009894633 -0.2686833
000180 92 94 84 be e4 93 ca bd 15 86 b9 bc 96 36 d3 bd
       -0.258946 -0.09891489 -0.022646943 -0.10313146
000190 58 2f 02 3e e0 db 00 be 79 60 d2 3d 94 92 b8 be
       0.12713373 -0.12583876 0.10272307 -0.3604933
0001a0 4b 54 a5 3d 08 78 0b bf 61 b5 3a 3d ff 04 22 be
       0.08072718 -0.5448003 0.045583133 -0.15822218
0001b0 f0 55 fb be 00 20 95 bd a2 58 84 be ee d2 a5 bd
       -0.49089003 -0.07281494 -0.2584887 -0.08096872
0001c0 2f 33 01 be 38 5f bf be ec f8 5b 3e ab 8f 62 bd
       -0.12617181 -0.37377334 0.21481675 -0.055312794
0001d0 4e 8b c8 3d 7f 06 95 bd b4 c9 9c 3d 03 88 fd be
       0.09792195 -0.0727663 0.07655659 -0.4951783
0001e0 3a 39 20 3e d6 ad c6 be 73 3e d0 3d 12 46 05 3e
       0.1564683 -0.388045 0.10168161 0.13015011
0001f0 84 a0 cf bd 08 d2 29 bd 8d 83 13 3e 65 12 1b be
       -0.10138038 -0.041460067 0.14405651 -0.15143736
000200 86 e6 cf bd 00 cd 80 bd ad b8 b5 be d5 44 3d 3c
       -0.10151391 -0.06289101 -0.3549246 0.011552055
000210 60 3d 03 bf 2e 75 db bd ab 83 54 3d 7e 7c 30 3c
       -0.51265526 -0.107157096 0.05188338 0.010771869
000220 b8 15 a5 bd d1 dc b2 bc a9 0c 9a 3e a9 37 26 3e
       -0.08060783 -0.02183381 0.30087784 0.1623217
000230 6f d7 13 bd 8c 9e e6 3d e6 4b 1e 3e 31 0c aa bd
       -0.036094125 0.11260709 0.1545864 -0.083031066
000240 ef e2 ae bd 87 77 14 bd 0b f5 a7 bd 7d 8d 4b bd
       -0.08539378 -0.036246803 -0.08201035 -0.04969548
000250 9c 81 e0 3d 97 ad 6b 3a 78 be 89 3d 4e 83 4d be
       0.10962221 0.00089904055 0.06725782 -0.2006962
000260 4e 31 dd bc 4e 4d b5 3d 44 47 cf bd cb 98 60 3d
       -0.02700105 0.08852635 -0.10121015 0.054833215
000270 1c 15 a0 3d cb 9a bf bd 93 c1 00 3d 40 a2 84 be
       0.07816526 -0.09355696 0.031434607 -0.25905037
000280 92 0b f5 bd 35 fa 2d be cb 05 a6 be 8d dc 79 3d
       -0.119650975 -0.16989978 -0.32426295 0.06100135
000290 14 84 24 bd 42 dd b1 3d e6 1c 25 be 8d cb b2 bd
       -0.040165022 0.0868478 -0.16124305 -0.087302305
0002a0 ae 3a 96 3d 65 26 33 be f8 de f3 3d 62 c5 6e bc
       0.07335411 -0.17495115 0.11907762 -0.014573427
0002b0 40 5f 19 3d b4 1b 38 be 26 0c 44 bd b8 1d 11 3e
       0.037444353 -0.17979318 -0.04786315 0.14171493
0002c0 17 01 bc bd e2 ab d3 bd 9e 33 b7 bc 49 93 36 be
       -0.09179895 -0.103355184 -0.02236348 -0.17829622
0002d0 54 93 07 bd 5d da b4 bd f7 1c d1 3d 2c 36 cf 3d
       -0.033099487 -0.08830712 0.10210603 0.10117754
0002e0 70 a3 9d bd df 59 61 be 1e 1e 25 3d 10 27 b0 3d
       -0.07697189 -0.2200694 0.040311925 0.086012006
0002f0 f2 4d 91 3d 42 6e 68 3d 84 0b d7 3d 5a 64 15 3e
       0.07094945 0.056745775 0.10500243 0.14589062
000300 3f c5 cd bd f2 99 6a bc 97 d5 f7 bd e3 c7 a0 3d
       -0.10047387 -0.01431893 -0.12101286 0.07850625
000310 16 bb 37 3e 32 fe 51 3e b5 79 11 bd c5 fb 91 bd
       0.17942461 0.20507124 -0.03551646 -0.07128099
000320 9f 13 ed 3c 45 71 e5 bd 8d 75 a4 3d ec 94 4e bd
       0.02894002 -0.11203245 0.080302335 -0.05043499
000330 fe 3a 1c 3e 89 4d 8c 3d 73 42 db bc e8 96 08 bd
       0.15256879 0.06850726 -0.026765084 -0.03334704
000340 6b 97 b0 3d 2e 87 d3 3c 6e 0b 4e be 84 87 db 3d
       0.08622631 0.025821295 -0.20121548 0.10719207
000350 5c 11 e7 bd 67 52 10 3d 13 fe 9c be d5 51 9b 3d
       -0.11282608 0.035234835 -0.30662593 0.075839676
000360 82 bb 9b 3d 73 14 9d 3b aa 12 1a be 2b 56 29 be
       0.07604124 0.0047936975 -0.15046182 -0.16536777
000370 b2 fc aa bd 6b fe ee 3c af 59 7e 3d 67 e7 95 3c
       -0.08348979 0.02917405 0.062097248 0.018298818
000380 e6 03 0a be 50 89 5b 3d c2 aa b2 bd 45 99 8b 3e
       -0.1347805 0.05359775 -0.08723976 0.27265373
000390 3c 94 93 3d 8f 8c e2 3d 06 f4 0d bc 0c 20 95 bd
       0.07206008 0.11061966 -0.008664137 -0.07281503
0003a0 0e a6 87 3d 11 a6 a5 bd 6c 56 a9 bc ee 2c 45 3e
       0.06623469 -0.08088315 -0.020671092 0.1925542
0003b0 56 9e 64 be 39 f9 91 3d 22 b7 5d be 2e 98 09 3d
       -0.22326025 0.071276136 -0.21651891 0.033592395
0003c0 aa 52 3d 3e 8f 51 28 3d f7 29 5d be d7 41 d1 3d
       0.18488565 0.041093405 -0.2159804 0.10217636
0003d0 81 25 50 3d 61 ad 4a 3d 74 f3 a8 be e3 bf 72 3c
       0.050817017 0.049481753 -0.3299824 0.014816257
0003e0 15 d5 4c bc a7 40 8a 3d d8 80 32 3e ea f1 27 bd
       -0.012501975 0.06750613 0.17431962 -0.04100219
0003f0 df 19 19 be d9 e2 3a 3d c2 03 ff bc 06 0c 77 3d
       -0.14951275 0.045626495 -0.031129722 0.0603142

bias f4 [128]
000000 f1 de 55 bd 43 e6 9d bc 3a 80 62 bd de 3d 80 3c
       -0.052214567 -0.019274836 -0.055298068 0.0156545
000010 15 6c 3c 3c dd 04 a3 3d ea 98 62 bc 6d 34 dc bd
       0.011500378 0.07959912 -0.013830403 -0.10752187
000020 6d e7 cd bd 19 e9 5e 3d 3c a7 61 3a f4 14 c5 bd
       -0.100539066 0.054421518 0.0008607989 -0.09623137
000030 ef 2e 08 3d 77 6c 83 bd d7 03 f5 b9 a3 bc 2c 3d
       0.033247884 -0.064171724 -0.00046732902 0.042172085
000040 85 b2 b8 bd 66 59 08 be 2d 8c 54 bc 0e 90 81 3c
       -0.09018425 -0.13315353 -0.012972874 0.015815761
000050 04 5d c1 bd b8 d2 e9 bc c1 7a 9c bc 10 c0 90 bc
       -0.094415694 -0.028542861 -0.019101502 -0.017669708
000060 75 f4 f2 bd c5 ad 0b bb 1a a6 8e bd 2a c8 ab 3c
       -0.11863033 -0.0021313292 -0.06965275 0.02096947
000070 ac 96 17 bb c1 cb 66 bb 75 e6 12 bd 52 3b b4 bc
       -0.002313058 -0.0035216662 -0.035864312 -0.022000942
000080 fa 33 86 bd 10 eb 35 bd af bb 97 3d 83 6e e9 3c
       -0.065528825 -0.044413626 0.07408845 0.028495079
000090 45 5e 51 3d 84 c8 6d bc 34 14 bc b8 ef 8f 9d 3d
       0.051115293 -0.014513139 -8.968302e-05 0.07693469
0000a0 fc 28 8c bb d3 ba 9b bc da db 51 3d 29 34 5c bc
       -0.0042773467 -0.019009983 0.051235057 -0.01344017
0000b0 dd 5d 58 bd b1 81 34 bd 29 70 ca 3c 6a 20 0b bd
       -0.05282389 -0.044068996 0.024711685 -0.03396646
0000c0 82 a8 b6 bd b4 51 83 bd 29 77 76 bd 4d be b0 bd
       -0.08918859 -0.06412068 -0.060172234 -0.08630047
0000d0 4e da e7 bd 81 de 8d 3a 32 0d 16 be 27 53 40 bd
       -0.11320935 0.0010823758 -0.14653471 -0.0469543
0000e0 80 75 95 bd f0 7e 0c bc e8 2a c4 bd 85 d1 9e 3d
       -0.07297802 -0.008575186 -0.09578496 0.077548064
0000f0 ef 37 a4 bd 55 a7 03 be 4d e2 14 be ff 81 cf 3b
       -0.08018481 -0.12856801 -0.14539452 0.0063326354
000100 53 a7 e0 bc 43 e2 a7 3d 54 59 36 bd 7d 0a d3 bd
       -0.027423536 0.08197453 -0.044518784 -0.10304735
000110 c7 e1 8e 3d f1 e5 69 3d b1 c0 ea bd 6f 88 80 bc
       0.06976657 0.057104055 -0.11462534 -0.015690057
000120 fb 5c a1 bd 84 50 dc bd a1 47 f7 3c 08 69 85 bd
       -0.07879063 -0.10757545 0.030185523 -0.06514174
000130 85 f7 80 3c 20 c7 55 3d 4b 34 59 3d 33 b7 9f bc
       0.015743027 0.052191854 0.053028386 -0.019496536
000140 b9 6e 0b be a7 eb 82 bd 23 1d 31 bd 7e 0b 54 3d
       -0.13616456 -0.06392603 -0.043240678 0.051768772
000150 fd cc ae bd ff 53 c1 bd c9 4d 24 bd cf ed b7 3d
       -0.08535192 -0.09439849 -0.040113244 0.08980905
000160 9d 08 18 3d 2c aa 32 bc 1a 63 b9 ba 5a bf 5c bd
       0.03711759 -0.01090483 -0.0014143914 -0.053893425
000170 17 05 51 3d 4e b2 b9 3c 73 62 e0 3b 93 10 d5 bd
       0.051030245 0.02266803 0.0068476736 -0.10403552
000180 ef 1a 70 bd ee 0e 54 bd 3f 3a cc bd 8c e5 e5 bd
       -0.058619436 -0.05177205 -0.09972047 -0.11225423
000190 6a 49 b1 bd d5 06 b4 bd ab f3 86 bd bc 61 43 be
       -0.08656581 -0.087903656 -0.06589445 -0.19080251
0001a0 32 46 ed bd 57 ee 5a 3d ae 83 0d 3e f7 a5 81 bd
       -0.11585654 0.053449955 0.13819763 -0.063304834
0001b0 75 e7 ee 3c 37 ab 23 3d c0 ee 14 3d fe 4a 80 bd
       0.029163102 0.039958205 0.036360502 -0.062643036
0001c0 ea c4 96 3c 61 93 a5 bd 49 48 f0 3c 96 cf 31 3d
       0.018404443 -0.08084751 0.029331343 0.04341086
0001d0 51 44 fc bd 90 ac 63 3c d4 58 19 be 4e 8c b4 3d
       -0.12317718 0.013896123 -0.14975291 0.088158235
0001e0 de d8 b2 bd 43 2b 8b bd 33 8f ed bc ac 86 52 bc
       -0.087327704 -0.06795361 -0.028998947 -0.012849491
0001f0 a5 39 a9 3d 0b 09 ec 3c 2b db 9e bc f8 2e 60 3c
       0.08262948 0.028812906 -0.019391617 0.013683073

weight f4 [128, 128]
000000 6d 34 0c bd 6c 99 01 be 3e 78 11 3e c3 cb f6 bd
       -0.034229685 -0.12656182 0.14206025 -0.12050583
000010 da e8 0e be 32 cd 97 bd 27 d0 0c be 13 9e 4e be
       -0.13956013 -0.07412185 -0.13751279 -0.20177488
000020 05 4f aa bc 7e 79 04 be 7c b1 27 be 65 3b 88 bd
       -0.020789633 -0.1293697 -0.16376299 -0.066519536
000030 a3 56 63 bc f3 2b c7 bd 54 69 20 3e 23 f9 fd bd
       -0.013875636 -0.097251795 0.1566518 -0.12401035
000040 de 10 91 3d 08 f5 ee 3d d2 6f 83 bd ff f2 b1 bc
       0.07083295 0.1166783 -0.064178124 -0.021722315
000050 64 b0 00 3d bc 34 f9 3c 05 bc ab 3c a9 72 cb bd
       0.03141822 0.030420654 0.020963678 -0.09933979
000060 e5 a1 8c 3d 9e e0 23 3e 7d 4a 4a 3c 18 8a 7a 3d
       0.068668164 0.16003653 0.012346861 0.061166853
000070 0a 44 32 be c2 9b b7 bc b6 97 4f be 65 58 59 be
       -0.17408767 -0.022413138 -0.20272717 -0.21225126
000080 53 9b c2 3d bb a9 3e be 50 09 09 be 92 3d 88 bd
       0.09502282 -0.18619435 -0.13382459 -0.066523686
000090 9a e1 14 bd 53 f0 8f be 69 14 ec bd 70 f3 d3 3d
       -0.036347963 -0.2811304 -0.115273304 0.103491664
0000a0 a0 c4 2b 3e 6a 6a 37 3e 7b 22 db bc ef fc e6 bd
       0.16774225 0.17911687 -0.02674984 -0.11278712
0000b0 6a 2d 6c 3d 96 a2 67 bd 24 c7 71 3c 16 a3 2c 3d
       0.057660498 -0.05655154 0.0147569515 0.04214772
0000c0 1d 7a 8a bd 41 81 1b 3d b7 b5 c1 bb eb b5 ac 3d
       -0.067615725 0.037965063 -0.0059115547 0.084331356
0000d0 e2 d1 22 bd 14 b3 d1 bd ab 71 06 bb 36 8f 2a 3d
       -0.03975094 -0.102392346 -0.0020514529 0.041640483
0000e0 ef bf 7a 3d 5d a8 39 3c fe 82 d2 3c 38 c3 b1 3d
       0.0612182 0.011331645 0.025697228 0.08679813
0000f0 01 b1 41 be e9 8e 52 3d 17 00 a3 bd 7b 5c 50 be
       -0.18915178 0.05140582 -0.079590015 -0.20347778
000100 12 2c 4c be 6e 24 17 be ca 5f 25 be ad 49 23 3c
       -0.19938686 -0.1475999 -0.16149822 0.009966296
000110 e2 8a eb bd fe 9d 3c 3e 0b 38 57 3c 42 e8 01 3e
       -0.11501099 0.18419644 0.01313592 0.12686256
000120 ee 91 1a 3d 5d 30 c0 bd 4b 40 e9 bd 1b 12 8d 3d
       0.037736826 -0.093842246 -0.11389216 0.06888219
000130 70 c5 06 be 2c e9 b9 bd bd 2f f1 bd c4 83 c2 bd
       -0.13161254 -0.09077677 -0.117766835 -0.094977885
000140 68 f0 a6 bd 0b df 21 bd dc 03 46 be ab ab 31 3e
       -0.081513226 -0.03951935 -0.1933741 0.17350642
000150 62 22 c3 3d 5d 62 e4 bc 96 0a 41 bd 19 bb d9 3d
       0.095280424 -0.027878935 -0.047129236 0.10631389
000160 3d 7c 51 3d 78 a2 ec bd e7 12 39 be 96 e5 5b 3d
       0.051143873 -0.11554426 -0.18073617 0.053685747
000170 a1 b7 6d 3b 36 8c c3 bd 28 35 5e 3d d7 e3 3e be
       0.0036272781 -0.095482275 0.054249913 -0.18641602
000180 ff 58 ed 3c 91 17 3e 3e b7 44 29 bd 96 57 47 3e
       0.0289731 0.18563677 -0.041325297 0.19467005
000190 47 3b 5f bd 31 a0 ee bc 0d 91 af bd 1b f5 8c bb
       -0.05449989 -0.02912912 -0.08572588 -0.00430168
0001a0 68 1e dc 3d 4d 2d 5c bc 0c 57 69 be ca 3b cc 3c
       0.10747987 -0.013438535 -0.22787112 0.024930853
0001b0 49 5d e5 bb e1 3f 42 3d 05 ff c6 bc 33 1a 5e be
       -0.006999646 0.0474242 -0.024291525 -0.21689682
0001c0 65 81 7d 3d 96 4d 30 bd 5e 07 8d bd 1a 45 36 3c
       0.06189098 -0.04304274 -0.06886171 0.0111248735
0001d0 6a 6f b3 bc 74 f9 27 be 1a bc 2f be b2 3f 36 be
       -0.021903712 -0.16403753 -0.17161599 -0.17797735
0001e0 6c c7 b3 3d d3 1a 9e 3d 61 05 de bc 8d 2e 7d bd
       0.08778271 0.0771996 -0.027102174 -0.061811972
0001f0 77 7b cf 3c f4 f0 4e 3d cd 4f f2 3d 02 28 a7 bd
       0.025327427 0.05052276 0.11831627 -0.08161928
000200 8e 64 63 3e c9 11 e2 3d f7 e6 8c be 6a f4 04 be
       0.22206327 0.110385485 -0.27519962 -0.12983862
000210 8b e2 36 bd 10 17 37 3e 46 b6 84 be 79 25 06 3c
       -0.044649642 0.17879891 -0.25920314 0.008187645
000220 af da 81 bd 5a ef b4 3e c7 91 14 be 84 05 d7 be
       -0.06340539 0.3533886 -0.14508735 -0.41996396
000230 13 87 17 3e 42 9c 28 be 00 a2 2b 3e b7 15 a0 be
       0.1479762 -0.16465858 0.16761017 -0.31266567
000240 c4 e9 b4 bd 92 8e 67 be 77 e5 0b bd 8b ba 8e be
       -0.0883365 -0.2261298 -0.03415438 -0.27876696
000250 e4 31 3b be 73 1c 30 3d ec a0 b8 bd 6e c9 ec bb
       -0.1828075 0.04299588 -0.090150684 -0.0072261607
000260 8c 70 9f 3d f0 f0 89 bd 66 73 13 be a4 51 54 bd
       0.077851385 -0.06735408 -0.1439949 -0.05183567
000270 7b 65 10 be c7 21 fd bd 93 21 4d bb 23 89 1b be
       -0.14101212 -0.12359958 -0.003130053 -0.15189032
000280 78 0a 80 be aa 8a 75 bd ee b4 23 3d 84 38 c9 3d
       -0.25007987 -0.059946693 0.03996747 0.098252326
000290 8d 05 e5 bd 3d 31 6b 3e 69 cf 3d 3d 4e ad 78 3d
       -0.11182699 0.22968002 0.04634038 0.06071215
0002a0 d0 40 1a be c4 13 70 bd 04 55 cb bc 5d be ec 3d
       -0.15063787 -0.0586126 -0.024820812 0.115597464
0002b0 12 63 9b bd 8a d2 6c bd 71 66 60 3d 33 9c 8f 3c
       -0.075872555 -0.057817973 0.054785196 0.017530536
0002c0 d2 d4 ee bd c4 48 9b bd b1 26 2e bd 65 28 22 be
       -0.11661686 -0.07582238 -0.042517368 -0.15835722
0002d0 1b aa c1 3c 1e 3a d1 bc ef 2b e3 bc 8a 32 48 be
       0.023640683 -0.025540408 -0.02773091 -0.19550529
0002e0 48 64 3a 3b a4 45 07 be a4 58 2d bd d0 f1 96 3b
       0.002844112 -0.1321016 -0.042320862 0.004606463
0002f0 01 f0 ce 3d 6a 27 de bd 1f 18 16 be ba ca cc 3c
       0.10104371 -0.108473614 -0.14657639 0.024999011
000300 9e c2 24 be b0 39 34 be 7b 8e 57 3d 6a 01 10 be
       -0.16089866 -0.17600131 0.052626114 -0.1406304
000310 44 98 7c be e3 c3 d4 3d d5 ef 89 bd 24 5e 87 3d
       -0.2466746 0.10388925 -0.067351975 0.06609753
000320 4f ec 66 be 9e a0 9b bc dc 03 7a bd 67 3f bc bd
       -0.22551082 -0.018997487 -0.061038837 -0.091917805
000330 d1 9b 8d bc a0 61 1f be 53 36 49 3b d9 2d c6 3b
       -0.017286213 -0.15564585 0.0030702546 0.006047946
000340 50 c0 7e 3d cc cd 63 bd e6 ea 91 3e 06 ad 26 be
       0.062195122 -0.055616185 0.28499526 -0.1627694
000350 7e a2 64 be c1 8c 81 be 26 f6 23 3c 35 44 f8 3d
       -0.22327611 -0.253027 0.010007417 0.121223845
000360 4d 43 49 3d c7 49 10 bd 7b 2b d1 3d 3d 67 57 3d
       0.04913645 -0.03522661 0.10213371 0.05258869
000370 fd 51 24 be 74 96 e5 bd f2 19 fc 3c 7c 2a 00 be
       -0.16046901 -0.11210337 0.03077409 -0.12516207
000380 25 75 37 be cd ce b9 bd ef 34 7e bd 80 14 ea bd
       -0.17915781 -0.09072647 -0.0620622 -0.11429691
000390 eb a1 9b bd a3 f6 13 3e 71 46 8d bc b1 68 7c bd
       -0.07599243 0.14449553 -0.017245503 -0.06162328
0003a0 c6 21 f8 3d 07 ae b2 be b2 8c 50 3d 82 10 71 3c
       0.12115817 -0.34898397 0.050915428 0.014713408
0003b0 4a 48 4b bd 34 62 00 3d 4f ac 79 bd 17 28 ff 3c
       -0.049629487 0.031343654 -0.060955342 0.031147046
0003c0 d9 28 25 be 00 ed 1d be 9a b4 aa 3d 60 d7 2a be
       -0.16128863 -0.1542244 0.08335228 -0.16683722
0003d0 79 8d 0a be da 40 61 bd 26 01 18 3d 2f f5 b2 bd
       -0.1353053 -0.054993488 0.03711047 -0.08738171
0003e0 90 bc 2a be 0d be 36 3d 0a c8 12 bc 00 be b3 3d
       -0.16673493 0.04461484 -0.008958826 0.08776474
0003f0 d9 0b 10 be 4d 47 05 bd e8 5d 37 3d a0 37 2a 3d
       -0.1406702 -0.0325387 0.04476729 0.041556954

bias f4 [128]
000000 6e bc 15 be 4b e3 10 3e 62 9f c3 bd 0a ca f6 bd
       -0.14622661 0.14149205 -0.09551884 -0.12050255
000010 67 73 fe bd 7f 93 09 3d 07 ab b6 bd 04 d6 7a 3d
       -0.12424355 0.03358793 -0.089193396 0.061239257
000020 52 84 d8 bd 12 ad ea bd 87 e3 6e bc 4b 75 60 be
       -0.10572113 -0.11458792 -0.014580614 -0.21919744
000030 1f 84 39 3d 5a d4 8f bd 72 1d f6 3c 77 f3 c7 bd
       0.045292016 -0.07022925 0.030043337 -0.09763234
000040 8f 33 91 3d b1 e8 d2 bd 32 ca 1d 3d ae 4c 55 bd
       0.07089912 -0.102982886 0.038522907 -0.05207508
000050 98 ca 2b 3a 8b 67 1a bd 57 d8 58 bd 0e 1c 07 be
       0.0006553321 -0.037696403 -0.052940693 -0.13194296
000060 f2 86 c3 bd 30 0b 74 3c be 5c 9d bc 04 ce 28 be
       -0.09547223 0.014895245 -0.019209262 -0.16484839
000070 0e bf 2c be df 9f 04 bd 75 51 1d be 74 e0 a4 bd
       -0.16869757 -0.032379027 -0.15363105 -0.080506235
000080 40 94 36 be 63 13 00 be 41 67 14 bd b5 ef 8c bd
       -0.1782999 -0.12507395 -0.036231283 -0.06881658
000090 8b 5d a0 bc c6 02 86 bd 53 0d cf bc f4 5b 01 be
       -0.019575855 -0.06543498 -0.025274908 -0.12632734
0000a0 b2 15 4f 3d a9 93 bd bd 8e ef f4 bc d9 f6 a1 bd
       0.0505578 -0.092566796 -0.029899385 -0.079084106
0000b0 ba d9 68 3c 13 11 d8 bd 4d 53 6c bd eb 03 76 bc
       0.014212066 -0.10550132 -0.05769663 -0.015015583
0000c0 64 f3 1b be 21 aa 32 be 13 31 13 3d b3 02 f6 bd
       -0.15229565 -0.17447712 0.035935473 -0.120122336
0000d0 2a 3b 0c be 38 ec 87 ba c1 8f 81 bd e2 fc 76 3d
       -0.13694444 -0.0010370081 -0.06326247 0.06029976
0000e0 91 ad 8e be f3 0e 98 bc 19 54 e5 bd 49 6b ad 3c
       -0.27866796 -0.018561816 -0.11197681 0.021169322
0000f0 d9 60 09 be 4f 20 1b bd ab 60 2c 3d f1 cd 52 3d
       -0.1341585 -0.03787261 0.042084377 0.051465932
000100 b0 c3 b3 bc 86 d2 ad 3d 55 23 d8 3b c9 e7 1e 3c
       -0.021943897 0.0848742 0.006596009 0.009698817
000110 5e 8e 9d bd 29 96 c0 bc 11 0f 0b 3d 0f 64 0a bc
       -0.0769317 -0.023509102 0.033949915 -0.008446707
000120 9c 32 b2 bd ff 6b a6 bd 11 92 27 3d 5c 6d ee bb
       -0.08701059 -0.08126067 0.040910784 -0.0072762202
000130 b1 6e 92 bd 10 ec 9e bc 24 5a bf bd 62 0b a5 bd
       -0.07150019 -0.019399673 -0.09343365 -0.08058812
000140 7a e0 c2 bd f6 6f 30 be 9d e7 d3 3b 10 d4 12 3d
       -0.09515472 -0.1723021 0.0064668194 0.03584677
000150 57 ef b9 3d 47 54 2e bc de eb 22 bc d0 f8 b7 bd
       0.090788536 -0.0106402105 -0.00994393 -0.08983004
000160 d8 b6 25 3c b6 d1 a6 3d 47 68 b1 bd fb 60 c7 bd
       0.010114394 0.08145468 -0.086624674 -0.097352944
000170 eb ba f5 bb 63 3a 18 be 00 bf 1c be 5d b8 d7 3c
       -0.007499089 -0.14866023 -0.15307236 0.026333028
000180 c8 23 98 bd 61 d4 c8 bd eb 6d f8 3c b3 6b 19 bd
       -0.074287 -0.09806133 0.03032585 -0.037456226
000190 0d de f3 bd 81 36 2c 3d 7d fd b8 3c d7 8c a5 bd
       -0.11907587 0.042044166 0.02258181 -0.08083504
0001a0 04 8b 6e 3d 89 c6 ba bd e7 09 00 be ec 78 ea bb
       0.058238044 -0.09119899 -0.12503777 -0.0071555283
0001b0 cb 55 71 b9 bb 61 a2 3d 61 a9 31 3d 38 e8 f1 bc
       -0.00023015511 0.07928797 0.043374423 -0.029529676
0001c0 da f7 89 bd bf 74 58 bd c6 17 12 3d 6a 24 34 3c
       -0.06736727 -0.052845713 0.035667203 0.01099501
0001d0 2d 84 95 bd 7d 8a 6c 3c 67 01 cf 3b 15 1c d5 3d
       -0.07300601 0.014437315 0.006317306 0.10405747
0001e0 98 7e cf bc 1f 1f 99 bd fd 84 95 3d f2 6b cc bd
       -0.02532892 -0.07476639 0.07300756 -0.099815264
0001f0 17 cf 01 bd 0c 7a ff 3c 73 e9 04 be 19 0d 1c be
       -0.031691637 0.031186126 -0.12979679 -0.15239371

weight f4 [128, 128]
000000 c9 e5 ee bc 5e a3 a3 3d 23 e8 a1 3d 47 c8 93 3a
       -0.029162304 0.07990144 0.07905605 0.0011274897
000010 95 18 9f 3d 7c 49 a7 3d a1 dc 6c 3e b8 6b 62 3d
       0.077683605 0.08168313 0.23131038 0.05527851
000020 a6 3c 7e be 8f 6e 2c 3d 6a e2 09 bc 9e 32 27 bd
       -0.24827823 0.042097624 -0.008415798 -0.040819757
000030 5e 37 46 be 01 df b7 bd 14 ea 4f bd 72 d5 28 bd
       -0.19357058 -0.089780815 -0.050760344 -0.041219182
000040 b9 99 9e 3b 84 40 82 be 1e 76 1b be 6b db ab bd
       0.0048401025 -0.25439847 -0.15181777 -0.0839146
000050 9c 8d e9 bd b6 5f ce 3d c7 28 26 bc 44 56 0a bd
       -0.11403963 0.10076849 -0.010141558 -0.033773676
000060 a7 2d be bd f1 83 b4 bd c4 43 e5 bc 26 99 04 bc
       -0.09286051 -0.08814228 -0.027986415 -0.008093154
000070 86 45 1a 3d bf d7 e4 bc 37 31 1f bd 95 80 77 3d
       0.03766396 -0.027934907 -0.038865294 0.06042536
000080 61 94 a8 bc 70 e7 ab bc 34 c9 e7 bd 46 cf 87 3d
       -0.020578565 -0.020984381 -0.11317673 0.06631331
000090 dd 1d 78 bd 16 3c 1b bc 67 b7 11 3e 1c 85 a4 bd
       -0.060575355 -0.009474775 0.14230119 -0.08033201
0000a0 3c a3 1a be bb 46 34 3d 64 a9 4b be 7c 64 2a 3c
       -0.15101331 0.044012766 -0.19888836 0.010399934
0000b0 d6 c0 ae bd c4 ba e1 bc be ca 94 bd a7 ca 36 bc
       -0.08532874 -0.027554877 -0.072652325 -0.0111567145
0000c0 0b 43 ec 3c cc af 45 3e 73 7c 40 3d 9c 1c ca bd
       0.028840562 0.19305342 0.046993684 -0.09868738
0000d0 71 bd 85 3c 09 8c 6f 3d f5 9d ed 3d 56 fc 8c bd
       0.016325684 0.058483157 0.116023935 -0.06884067
0000e0 c7 2b 2e 3c 70 cc b3 3d ff 77 08 be e8 a9 0d bd
       0.0106305545 0.08779228 -0.13327025 -0.034585863
0000f0 4d 8c 50 3e 70 e5 4e 3d 50 be f9 bb 17 8a 11 3d
       0.2036602 0.050511777 -0.007621564 0.035532083
000100 79 a8 f6 bc 48 5d 21 3d f4 40 ea bd 60 d7 8d be
       -0.03010963 0.0393956 -0.1143817 -0.2770338
000110 a9 0c 2d bd bd 8f 26 bd 1c 3d a4 3d 3f c0 a8 bd
       -0.0422484 -0.040664423 0.08019468 -0.08239793
000120 b1 7b 4d bd c1 6b 05 3e 05 0b 91 bd c6 9e 25 bd
       -0.05016679 0.13029386 -0.0708218 -0.04043462
000130 2c f7 51 be e6 ff 8c 3d 84 4c 19 be 1a 10 7f 3b
       -0.20504445 0.06884746 -0.14970595 0.003891951
000140 38 6e f9 3c d5 c2 40 be 8c 24 c6 be 44 27 5e be
       0.030448064 -0.18824323 -0.38699758 -0.21694666
000150 77 b2 b3 3d 47 5e b4 bd 28 98 3e bc 7a 0e 13 3d
       0.08774274 -0.088070445 -0.011632957 0.035902478
000160 ee f0 9a bc fc 0a 36 3d c6 a8 11 bd 69 b4 1f 3e
       -0.018913712 0.04444407 -0.035561346 0.15596165
000170 a8 06 2f be 4b 05 94 3c 85 ad 9e 3c a4 3e da 3c
       -0.17092383 0.01806893 0.01936985 0.026641198
000180 da da 27 bd 77 c9 29 bd 5b 35 9a bd 66 87 0f 3c
       -0.040980197 -0.041451897 -0.07529708 0.008760309
000190 7b f5 19 3e a7 78 a7 3c c3 88 98 bd 8a 37 b8 bd
       0.1503505 0.020443274 -0.0744796 -0.08994968
0001a0 40 6b 2c be 1a c3 9e 3d 7d e3 85 bd 1e fb 0b be
       -0.16837788 0.077520564 -0.065375306 -0.13670012
0001b0 fa f1 13 be db 00 4e be 5e e5 2a be 0f 27 31 bd
       -0.14447775 -0.20117514 -0.16689059 -0.04325014
0001c0 44 59 ad bd 9d 68 a9 bd 3c 70 46 be 2d a9 0f 3d
       -0.08464292 -0.082719065 -0.19378752 0.035073448
0001d0 65 c4 66 3d f7 15 94 be 07 b5 6e bc f4 5a bf bd
       0.05633964 -0.28923008 -0.0145695275 -0.0934352
0001e0 83 0b d0 3c 21 e7 89 3d d8 a5 57 3e d3 77 a4 bd
       0.025396114 0.067335375 0.21059358 -0.08030667
0001f0 66 a4 03 be c7 a3 a0 3d 66 64 2e 3c f5 11 06 be
       -0.12855682 0.07843738 0.010644054 -0.13092788
000200 35 17 52 bd e7 81 65 bd e4 ce d6 3c 3e 75 9d bc
       -0.051291663 -0.056032088 0.0262217 -0.019220944
000210 d8 88 6c 3d 83 c8 8a 3d 61 7e 8b 3d 86 5a 1c bd
       0.057747692 0.06776526 0.06811214 -0.038172267
000220 1f d1 80 3c 37 30 76 bc c5 fa fb 3c 98 0f f5 3c
       0.015724717 -0.015026144 0.030759225 0.029914662
000230 ca 74 74 3d ce 9b a1 bd 09 5e 03 3d f3 88 62 3d
       0.05968169 -0.078910455 0.0320721 0.055306386
000240 24 05 c7 3c a4 0d ec 3c ed 3a 75 bd 18 7f 8e bd
       0.024294443 0.028815098 -0.05987065 -0.06957835
000250 46 ab 66 bd 0b ed 00 bd 78 a7 86 bd 11 27 0a bd
       -0.056315683 -0.03147606 -0.06574911 -0.033728663
000260 42 5c c9 3b b4 1f f8 bc 3f e6 75 bd c6 f4 d8 bc
       0.006145031 -0.030288555 -0.060034033 -0.026483905
000270 61 2f 15 bd 25 b1 80 ba 0c 36 98 bd 05 fc 60 3c
       -0.036422137 -0.0009818418 -0.074321836 0.013731961
000280 6f 28 19 bd be e5 aa bd a0 0b 7c 3d f2 b4 8e bc
       -0.037392076 -0.08344601 0.061534524 -0.017420266
000290 b9 a9 98 bd 03 18 af 3d 16 8b 97 3c 2e 07 80 3d
       -0.07454247 0.08549502 0.018498939 0.062513694
0002a0 f6 bb 80 3d f8 04 32 bd 03 a4 90 bd 23 32 b0 bd
       0.06285851 -0.04346177 -0.07062533 -0.08603313
0002b0 86 85 56 3d 3f 16 40 bd 75 3f 76 bc 97 ac c7 3c
       0.05237343 -0.046896216 -0.015029778 0.02437429
0002c0 ea 17 e9 3c 08 40 28 bd de 7a 85 bd 72 ac a3 bd
       0.028453786 -0.04107669 -0.06517576 -0.07991876
0002d0 1c 76 90 bd f5 5a 8c bd c7 d3 f9 3b 6b a8 b7 bd
       -0.070537776 -0.06853286 0.007624123 -0.0896767
0002e0 38 95 a7 bd a6 2a 44 3d dc 6b b4 3c f6 8a f4 bc
       -0.08182758 0.047892235 0.022024088 -0.029851418
0002f0 93 22 01 bc 9a c4 f8 3b f4 8b 89 3d 53 8c c7 bd
       -0.007881778 0.007591796 0.06716147 -0.097435616
000300 77 9f 8d bc 67 77 8a bd 2d a2 dc 3b 8c 79 33 3d
       -0.017287953 -0.067610554 0.0067332 0.043817088
000310 7c 51 6b 3d ee bb 80 bd d4 b2 ac bd 18 cf af bd
       0.057450756 -0.06285845 -0.08432546 -0.08584422
000320 87 5d 00 3d b9 e7 86 3d 8f 94 9e 3d 44 fb 6f 3d
       0.031339195 0.06587166 0.07743179 0.058589235
000330 88 2f 37 3c d4 c4 c1 3b f1 6b 83 3d 59 27 69 3d
       0.011180766 0.0059133563 0.064170726 0.05692229
000340 9a 4d d7 bc 19 73 52 3d b5 34 45 bc 2a d3 a5 bd
       -0.02628212 0.051379297 -0.012036492 -0.08096917
000350 c5 0d 87 bc 80 80 92 bd a3 c0 1d bc 1b 94 2a 3c
       -0.016486058 -0.07153416 -0.009628448 0.010411288
000360 46 85 13 3d 0b af d0 bd d7 3e b3 bd 47 e9 3d 3d
       0.03601577 -0.10189637 -0.0875222 0.04636505
000370 77 a0 39 bd 92 d2 07 3d 67 3f b3 3d 8e ea 80 bc
       -0.045319047 0.0331598 0.087523274 -0.015736844
000380 e4 5b 9c 3d c7 44 22 bd 03 a0 8a 3d fd 26 82 bc
       0.07634714 -0.039616372 0.06768801 -0.015887732
000390 34 8d 37 bd 47 a6 ac bc 67 28 47 bd 8f 99 81 3b
       -0.044812396 -0.021075381 -0.048622515 0.003955073
0003a0 8f 55 b3 bd 79 3f 9d 3b b5 65 5e 3d c8 1e 6f bb
       -0.087565534 0.0047988263 0.054296214 -0.0036486853
0003b0 59 fb 74 3c 0f 72 03 bd ac a0 90 bd 66 31 53 bd
       0.014952504 -0.032091197 -0.07061896 -0.051560782
0003c0 33 0a ae 3c 1e 3f 88 3c 87 a1 27 3d fc 86 62 bd
       0.021245098 0.01663166 0.04092553 -0.055304512
0003d0 00 84 36 3c d6 7f 08 bd be da a5 bd 12 8b 02 bd
       0.01113987 -0.03332504 -0.080983624 -0.03187091
0003e0 42 3c 24 bd db 94 0c bd f3 70 24 bd 7b 5a ea 3c
       -0.04009653 -0.034321647 -0.04014678 0.028607598
0003f0 91 a0 8c bd ea 76 a9 bc 63 34 d2 bc 6e e9 92 bd
       -0.06866563 -0.020686585 -0.025659746 -0.071734294

bias f4 [128]
000000 14 07 55 3d 6a 92 c7 bd 80 17 20 be 5c a7 da bd
       0.052008703 -0.09744723 -0.15633965 -0.106764525
000010 96 d1 36 be 5f fd bd 3d 70 98 c9 3c 8d 09 16 bd
       -0.17853388 0.09276842 0.02460882 -0.036630202
000020 35 c9 fe bc b1 77 e4 bc f6 a2 97 bd 17 ca 3c be
       -0.031101802 -0.027889105 -0.07404129 -0.18436466
000030 74 35 e9 3d 8c 38 f9 bc cf d5 c4 bc 56 ce 2f bc
       0.113871485 -0.030422471 -0.024027733 -0.010730347
000040 18 d3 c5 bd 1d e3 9a 3c f3 74 09 be 8a 3b 01 bd
       -0.096594036 0.018907124 -0.13423519 -0.03155092
000050 84 70 6b bb 58 e2 6d bb ef 04 10 3d 4d e4 19 be
       -0.0035925219 -0.0036298241 0.035160955 -0.15028496
000060 a5 53 8f bd a3 eb a3 3b de 7b 12 bd c8 04 cb bd
       -0.06998376 0.0050024553 -0.03576266 -0.09913021
000070 55 5e 81 3d 17 3c c2 bd cd 5b 0f bd 8d 03 d8 bd
       0.063168205 -0.094841175 -0.034999657 -0.10547552
000080 f4 ba 4f bd 7a 47 24 bd 78 8f a6 bd 52 2d f2 bc
       -0.0507154 -0.040107228 -0.08132833 -0.029562626
000090 20 e8 12 bd 58 f4 60 3d 2c 1f 2e bd b5 91 85 bd
       -0.035865903 0.054920524 -0.042510197 -0.06521932
0000a0 51 94 63 bb d6 34 2d bd de 46 46 bd 8e 14 c1 bd
       -0.0034725855 -0.042286716 -0.048407428 -0.094277486
0000b0 21 71 68 bd b3 2f 9e bd 33 87 a9 bd da c7 2f 3d
       -0.056748513 -0.07723942 -0.0827774 0.042915203
0000c0 f6 cd a2 bd 91 c4 b8 bd 63 ea 1f 3d 49 c7 6d bd
       -0.0794944 -0.09021867 0.039041888 -0.05805138
0000d0 33 dd a9 bd 14 e0 75 bd 1f 9d 72 bb 79 a8 ea bd
       -0.082941435 -0.06002815 -0.003701992 -0.11457915
0000e0 ac 70 ad bd 3a 32 84 bd c8 05 9b 3b 82 36 eb bd
       -0.08468756 -0.064548925 0.004730914 -0.11485006
0000f0 51 49 1c bd 97 3b 10 be cc fc 3f 3d f1 4c e8 bc
       -0.038155857 -0.14085232 0.046871945 -0.028357001
000100 6e 09 3d be 90 08 4d bd 96 d2 9d bd 6a cc 50 be
       -0.18460628 -0.050056994 -0.07706182 -0.20390478
000110 12 72 78 bd c8 83 c6 bc ad c0 df 3c 27 a5 c7 3b
       -0.06065566 -0.02423276 0.027313555 0.0060926857
000120 23 e2 36 bd 8f 0c 7a 3d c4 dd 91 3c c8 3c c7 bc
       -0.044649255 0.061047133 0.017805941 -0.024320975
000130 05 2c 15 be fd be ad bd 04 94 bb 3c 1b c2 a6 3c
       -0.14567573 -0.08483694 0.022897728 0.020356229
000140 ab 77 0e be 05 0e 4e bd c9 b4 89 bc bc 50 2a be
       -0.13912837 -0.05030634 -0.016809838 -0.1663236
000150 bd 6b 04 3d f2 07 60 be 16 2f bb 3c 7e ab ea 3b
       0.03232931 -0.21878031 0.0228496 0.0071615567
000160 78 97 24 bd ea 08 ad bd 89 68 58 bb 7e 51 2e bc
       -0.040183514 -0.08448966 -0.0033021292 -0.010639546
000170 c2 ee 25 3d e9 3e e1 3c d7 5c 82 be e3 6d 93 bd
       0.0405109 0.027495818 -0.25461456 -0.071986936
000180 19 13 0c be d0 a4 54 3d 59 f6 ca bc 2f 72 0e be
       -0.1367916 0.05191499 -0.02477567 -0.13910745
000190 30 ee e9 bd 5e 0e aa bd a2 89 c4 bd 48 de 98 bc
       -0.11422384 -0.083035216 -0.09596564 -0.01866068
0001a0 16 6e 72 bb 47 4d a5 bd a0 da 83 bd 37 ab 86 bc
       -0.0036991886 -0.0807138 -0.06438184 -0.016439063
0001b0 d5 68 2e 3d e8 0b 02 be fb 20 33 3d f0 00 d1 bc
       0.042580444 -0.12699854 0.043732625 -0.025513142
0001c0 7c df 0d 3e 21 fb d7 ba 05 b6 3c bd 6e d3 0b be
       0.13854784 -0.001647804 -0.046072025 -0.13654873
0001d0 52 b9 b5 bd 45 bf 04 be 61 4a e7 bd ed 3b 04 be
       -0.08873238 -0.12963589 -0.112934835 -0.12913485
0001e0 2c 4a 2f bd 13 ef ee bd b4 59 44 bd 62 ed fd bd
       -0.042795345 -0.116666935 -0.04793711 -0.12398793
0001f0 2e e6 95 bc e7 31 29 bd 96 c1 2e bd 4c 26 d6 bd
       -0.018298235 -0.041307356 -0.042665087 -0.10456523

weight f4 [128, 128]
000000 67 29 7a bd 43 8d 22 3d 12 3f 82 3d 11 97 bb bd
       -0.06107464 0.0396855 0.06359686 -0.09159673
000010 70 c1 cb bc 8f 0a 07 be a9 00 9a bd 82 b7 20 3d
       -0.024872512 -0.13187622 -0.07519657 0.039237507
000020 cd e0 2c 3c b9 e9 a6 bd c4 4c 89 bd 10 e6 80 bd
       0.010551644 -0.08150048 -0.06704095 -0.06293881
000030 f6 31 40 be dd 79 97 bb 8f 03 e2 3c 0b 9f 0d bd
       -0.18769059 -0.0046226815 0.027589587 -0.034575503
000040 c2 73 c6 bc f9 20 cd bd 97 81 bf bd 26 7a 40 bd
       -0.02422512 -0.10016055 -0.09350889 -0.04699149
000050 1d ca d4 bc f8 f9 d8 ba 9a 08 93 bd d7 46 d6 bd
       -0.025975281 -0.0016553989 -0.07179375 -0.104627304
000060 9f 1e 9c bb ed 1d 3c be 12 53 01 3d 0f ab 9e bd
       -0.0047643925 -0.18370791 0.031573363 -0.077474706
000070 86 b8 f9 bc 21 c1 51 3c 14 f9 81 bb b4 2f 2b be
       -0.030483495 0.012802393 -0.00396646 -0.16717416
000080 72 7a 8e bd a7 fa df bd 4b 87 75 bd 1d 9c 03 3d
       -0.06956948 -0.1093648 -0.05994348 0.032131303
000090 84 a1 7c bd 67 b4 32 bd e2 74 60 3c cc 5d b1 3c
       -0.06167747 -0.043629076 0.013699742 0.021651171
0000a0 f7 1e 9c bc 91 f2 97 bd 37 18 92 bd 3a 40 6d bb
       -0.019057734 -0.07419313 -0.07133525 -0.0036201612
0000b0 70 6a ae 3d 98 bd 38 bd 02 53 7a 3c ec 2e 95 bd
       0.08516395 -0.045102686 0.01527858 -0.0728434
0000c0 23 c3 9f bd 14 8a cc bd 7d c9 01 3d f8 cb 9f bd
       -0.07800891 -0.09987274 0.031686295 -0.07802576
0000d0 13 ac 9c 3d 32 54 0d 3d cb 18 4e bd 79 2a 22 bc
       0.07650008 0.034504123 -0.050316613 -0.009897822
0000e0 cc ce af bd a7 8c 62 3d 36 0d 8a bc 4b 74 ea 3b
       -0.08584365 0.055309918 -0.016852003 0.0071549765
0000f0 27 42 2a be 69 4a 31 bc a6 86 df 3d 4d bf 73 bd
       -0.16626798 -0.010820963 0.10914354 -0.05950861
000100 8e 57 ef 3d c7 cc 44 bd 22 d1 6d 3a 5b 42 6a bd
       0.116866216 -0.048046853 0.0009071996 -0.057192188
000110 a0 25 cf 3b dc 1a 36 be 48 c9 e6 3d 13 e1 5f 3d
       0.006321624 -0.17783684 0.1126886 0.054658007
000120 1a 2f aa bc a8 7f 2c be a1 73 16 bd f0 b9 86 bd
       -0.020774413 -0.16845572 -0.036731366 -0.065784335
000130 0c f7 a7 bd 39 e6 ea 3c 3c 5c 54 bd b7 cf 88 bc
       -0.08201417 0.028674232 -0.051845774 -0.016700609
000140 99 91 3d bd a0 28 fd 3c cf 05 8f bc ff 94 06 3d
       -0.04628143 0.03090316 -0.017458824 0.032856937
000150 2e ac 98 3c 3a fe 04 bb 34 83 f8 bd 39 c5 41 bc
       0.01863679 -0.0020293132 -0.121344 -0.011826807
000160 22 4f 0d 3d ee 39 ce bd 10 f1 c8 bc 89 8b 7f bd
       0.034499295 -0.10069643 -0.02452901 -0.06238893
000170 a3 2b cf bc 90 0d 91 3c c7 9d 46 3d f4 2c aa 3d
       -0.025289362 0.017706662 0.048490312 0.083093554
000180 06 32 60 3e b2 34 99 bd a7 32 e1 bc 99 ce ca bd
       0.21894082 -0.07480754 -0.027489973 -0.099026866
000190 72 15 93 3b ee bc 0e 3b 6a 7d 1e be 47 10 5f bc
       0.0044886405 0.0021780091 -0.15477529 -0.013614721
0001a0 25 a2 18 be fa c7 47 bd 16 4b 92 bd 87 33 14 3d
       -0.14905603 -0.048774697 -0.07143228 0.036181953
0001b0 28 9f 5e 3d 9c 24 1a 3d 58 30 8a bc b6 d9 ce bd
       0.054351002 0.03763257 -0.016868755 -0.10100119
0001c0 98 17 81 be 9a eb de bd 02 41 8c bd 52 f0 fa bc
       -0.25213313 -0.10884781 -0.06848337 -0.030632172
0001d0 37 41 3c 3d 10 a3 cc bd 82 cb 30 bb 5e bf 75 3d
       0.04596063 -0.09992039 -0.002697677 0.059996955
0001e0 28 03 03 be 97 db cb 3c c2 ae c3 bd c9 b7 7c 3e
       -0.12794173 0.024884982 -0.09554817 0.24679483
0001f0 c5 8e 9c bd eb ea fe 3c 4c ab 28 3c 68 8d 3b bd
       -0.076444186 0.031117877 0.010294747 -0.045789152
000200 b2 af 43 3d ba 4c 1d bd 13 e5 2e bc a1 9f db 3c
       0.047774978 -0.03840325 -0.010674733 0.026809515
000210 2e dd 87 bd b6 a2 c9 bc 2d 5d 59 3d c8 bb cc ba
       -0.066339836 -0.02461372 0.053067375 -0.0015619928
000220 07 4e c5 bd 50 51 80 bc 3e 8f 21 bd 1c 88 95 3c
       -0.09634023 -0.015663773 -0.039443247 0.018253379
000230 fe 52 e7 bb 20 cc 18 bd c4 f2 3b bd e5 24 bb bd
       -0.007059454 -0.037304044 -0.045885816 -0.091378964
000240 a1 02 4e 3c b0 d4 b5 bd 0a 28 8a bd 12 d2 9a bd
       0.012573869 -0.088784575 -0.06745918 -0.07559599
000250 95 67 0b bd 78 ef 2c bc ef 00 af bd 79 e4 81 bd
       -0.03403433 -0.010555141 -0.085451 -0.06342406
000260 86 32 74 3d 16 23 ca bc 47 d4 97 3c d3 34 b7 bc
       0.059618495 -0.024674933 0.018533839 -0.022364056
000270 32 71 ac 3d 3f 32 80 bd 28 3f 87 3d 2b d6 2e bd
       0.08420028 -0.06259584 0.06603843 -0.042684715
000280 a6 6e da bd 5e 4e 34 3b bc 7f 81 bd 69 11 ee ba
       -0.10665636 0.002751253 -0.063231915 -0.0018163148
000290 d8 41 4c 3d e4 33 e5 3b 63 05 ad bd af e9 75 3d
       0.04986748 0.0069947112 -0.08448293 0.06003731
0002a0 cf 4e 8c 3d ab 4c 57 3c 0b 06 86 bd fe 72 47 3a
       0.06850969 0.013140838 -0.06544121 0.0007608383
0002b0 b8 9e b2 bd 73 2b 62 bd 04 d4 cc 3a 08 3e b4 bd
       -0.087216794 -0.055217218 0.001562715 -0.08800894
0002c0 54 7f 26 3d 3e 3b db bd 44 c9 5c bc 3f a0 82 bd
       0.040648773 -0.10704659 -0.01347572 -0.06378221
0002d0 47 14 80 bc cf cd 27 3d ea 6b 4e bd eb 06 bd bc
       -0.015634669 0.04096776 -0.050395884 -0.023074588
0002e0 1a 51 1d 3d 2a d4 73 3d e1 20 e8 bc aa a7 ab 3d
       0.038407423 0.059528507 -0.02833599 0.08381589
0002f0 66 f0 74 bd 88 c9 01 ba 2e a7 65 bd c1 19 a2 3c
       -0.059799574 -0.000495099 -0.056067638 0.019787671
000300 b2 e1 8f bd da 69 ea bb ec 72 cc bd 23 98 0b bd
       -0.0702547 -0.007153732 -0.09982857 -0.034080636
000310 db e8 b7 3c 82 61 c6 3c 19 b7 2e bd 56 36 81 bd
       0.022449901 0.024216417 -0.042655084 -0.06309192
000320 a0 db 2c bd 04 c5 be bc b9 83 7b bc 54 5b ab bd
       -0.04220164 -0.023287304 -0.015351229 -0.08367029
000330 1f a6 1a bd ef 42 02 bc 49 98 c5 bc a0 2a 4f bd
       -0.03775608 -0.0079505285 -0.024120467 -0.05057776
000340 f5 f3 87 bd 1a a5 3e 3c ac 0d 3f 3d 41 f6 1d 3c
       -0.06638328 0.011636043 0.046643898 0.009641231
000350 f2 9e a7 3a 7a 36 29 bc f1 41 f3 bc 6a 9f 1c bd
       0.0012788458 -0.01032793 -0.02969453 -0.038237967
000360 a8 cb 5f bd 52 7a 3a 3d bd c3 5c bd 22 8a 8c bd
       -0.05463758 0.04552681 -0.053897608 -0.06862284
000370 45 00 bd 3c 2a ea 86 3d f0 35 98 3d 3e 3a 1d bd
       0.023071418 0.06587632 0.07432163 -0.038385622
000380 4f 33 36 3b 39 69 97 bc 3c 45 ac bd 4d a6 7f bd
       0.0027801578 -0.018482791 -0.08411643 -0.062414456
000390 fd 93 09 3d f9 29 33 3d 8f 0a 5b bd 6a c7 cf bd
       0.0335884 0.0437412 -0.053476866 -0.10145457
0003a0 4a 99 ea bc 68 aa 9f 3d 72 df a8 bc 68 f8 a9 bd
       -0.028637547 0.07796174 -0.02061436 -0.08299333
0003b0 14 c9 ab bd a4 f1 3c bd b5 01 72 3d 1e 4e db bd
       -0.08387962 -0.046128884 0.05908366 -0.10708259
0003c0 66 0f 3e 3c 29 5b a6 3d 23 a0 5f bd ca 55 f7 3b
       0.011600351 0.08122856 -0.054596078 0.0075480687
0003d0 14 a6 ad bd 71 7d 60 3d 2e 00 84 3d b9 b7 81 bd
       -0.084789425 0.05480713 0.06445347 -0.063338704
0003e0 e5 02 9c bb 2f 30 0b bd e2 e2 d0 bc 5c 6a e2 3c
       -0.0047610872 -0.0339815 -0.025498811 0.027638607
0003f0 14 cc ee bd a6 97 75 3d 17 46 d7 bd ea 60 86 3d
       -0.116600186 0.059959076 -0.105114155 0.06561454
