nerf_models/monkey_biz.pth (torch, 647458 bytes, 22 tensors)

weight f4 [128, 63]
00000000: 9adc 223e 8c43 6a3e 8d3e e7bd c855 283e
00000010: 4ccc a73e d9c9 9cbd 8912 e2bd 26b1 4ebe
00000020: 7c55 883d 9aee eebb 199d 8f3d 75e0 1c3e
00000030: ad98 4dbe c5ce c6be 88ce 6bbe 4696 4a3d
00000040: cb2f 3dbe ac3d 1bbe 2181 7cbe ab98 8abd
00000050: c704 28be 8fcd c7bb ecc6 2cbe cc8c 2e3e
00000060: 8318 113e ed2d b73c 2ca9 323e 81bd 61be
00000070: 49bd 13bd 1236 373e e5ed 49bd 5e80 ccb9
00000080: 8ab6 1d3d 4ea6 21be 0524 b03c 60b1 f03d
00000090: bcaf 713e 042e c23b 6748 49be f7fc 833d
000000a0: 2607 68be b236 103e 75f1 96bc a86b 9abd
000000b0: 46b8 3f3d 8a1b b43c a73a 0f3d 1917 47bd
000000c0: 9951 763d d091 213d 67b2 43bc 2564 853c
000000d0: 5084 9b3c 8276 89bc 11a8 813d 9eec a9bb
000000e0: b63f 9abb 924f 243c 98f6 a93b 7f6f 89bb
000000f0: 35dd 7cbd 4a83 943c e762 f8bc 5c86 e53d
00000100: e9d4 abbe 3175 4c3d 5d67 eebc bd1a 26be
00000110: 33ee df3b dfca 09be d5b6 1fbc b310 f7bd
00000120: 4d09 3fbd d48b 3ebd 382f be3d 152f b7be
00000130: dcf7 e9be 0782 fd3c 50a9 7b3d 6430 ff3e
00000140: e36a b73d 53f9 a33c c077 943d 0b0c 02be
00000150: 478e 173d 0135 4cbe 98cf 463e 75e9 6a3e
00000160: 2117 90bd 741a 003c 1717 993d 42fc 2e3e
00000170: 64ac 523d c2bb f53e f233 e6bb c9e9 1bbe
00000180: 64a6 3e3c f950 093e 4559 853e 25d4 67bd
00000190: 0e49 1e3d 7c27 95bd bc75 a7bc 9d65 623e
000001a0: 02a7 e23a 3446 68bc 17bd 2dbe 12a3 ce3d
000001b0: 6bd2 c33c e06b 89bc a295 c33c 1e90 edbc
000001c0: e3db 233d e941 d5bc 9a85 d83c ce20 a8bb
000001d0: 03a4 3d3c d539 a03a 0198 213c 6843 4dbc
000001e0: e123 de3a e771 a5bc 04ad 903c 21a5 e83c
000001f0: 7a51 aebb b7f6 cebc 69ea 13bb 71b8 cc3e
00000200: c29a 02be efce 993d 90df d33e b538 10be
00000210: 069c 283d 93cb 09be cbc8 4cbe 8786 61bd
00000220: e591 8dbb eeea 0bbe 61f0 593d 5f1b b0be
00000230: 7d99 4dbe 98b0 b83d 652f 24be 3c99 183e
00000240: c846 1d3e b52e 973e 2ba8 203d b0f0 46be
00000250: a96e 843e 6570 cebd 82bd 173d 2ef1 3bbd
00000260: d6e0 a6be 2636 c43d c1d3 7b3e 69c4 f2bc
00000270: b449 14be 3a32 adbd 429a 02be 9d89 353d
00000280: bdbe da3d a9be 713e 46b0 29be ecdd 82bd
00000290: 6918 ccbd b3d9 1a3e d4c7 163d c2ee 03be
000002a0: 6b66 bf3d 5cea 423e 88f1 173e d2cb 303d
000002b0: 8fbe 17bc e1ee a33c 37e1 e9ba 47f4 8abc
000002c0: 56f3 1d3d 9bdd 84bc d53b d63a aeec c3bb
000002d0: 3dc4 953c 0c6f 2bbd 8a5f 7a3d 70f9 0b3b
000002e0: f629 23bc b75e 093c dec1 643b a37e 4a3b
000002f0: 96f8 11bd 91e3 8a3e 846e a9be 4416 e2be
00000300: fc50 d93c 409b fcbd cf30 36be ded0 febd
00000310: e868 ef3b 1113 2ebe c7ef 9abe 3798 603e
00000320: b9ff 6a3c 3c94 993e a4f0 5cbe d24d 80be
00000330: cd36 a73c b111 193f 212e 96be bdc0 3a3d
00000340: 4a94 6a3e 7849 d1bd 8425 713d 2c56 f33d
00000350: 7262 683e 4805 d43d b39a 6e3d 6725 95be
00000360: f8d6 343d 3e00 7cbc f534 b7be b201 7abd
00000370: 35b4 1f3e d45c e83d 1e43 a13c e21f 3c3e
00000380: ab32 113c b4ab adbe 8527 7e3d f733 90bd
00000390: 2fc3 a03c 94e5 f53d 7783 b03c 81c2 54bc
000003a0: fd5b aabd 3037 333c ce9c 64bc f3f5 9a3c
000003b0: 94a8 b93c 3820 9c3c 53b9 193c f0db 19bc
000003c0: 9e73 bc3b b64d 073d c577 a53c 4720 f8bc
000003d0: f3f3 9c3c f163 a4bc 3b09 6b3c 88e0 d73c
000003e0: 1cea 81bc bdb8 64bc 4f9e 04bd dc38 8dbb
000003f0: 1160 a1bb aca0 c73d b66c bebe 0553 86bd
0.15904465 0.2287733 -0.112912275 0.16438973 0.32773054 -0.07655687 -0.110386916 -0.20184764
0.0665693 -0.007291627 0.07012386 0.15319999 -0.20077772 -0.38829628 -0.23028004 0.04945972
-0.18475263 -0.15160245 -0.24658634 -0.067674 -0.16408072 -0.0060975025 -0.16872758 0.17045897
0.14169507 0.022360766 0.17447346 -0.22044946 -0.03606919 0.1789172 -0.04929914 -0.00039005553
0.03850416 -0.15786096 0.02150155 0.117525816 0.23602194 0.0059258956 -0.19656526 0.064447336
-0.22658977 0.14083365 -0.018425683 -0.07540065 0.046806596 0.021985788 0.034968045 -0.048606012
0.06013641 0.0394457 -0.01194439 0.016283104 0.01898399 -0.016780142 0.06330884 -0.0051856777
-0.004707302 0.010028737 0.005186867 -0.0041941996 -0.061734397 0.01812901 -0.030320598 0.11207268
-0.33560875 0.04991645 -0.029102022 -0.16221137 0.0068338155 -0.13456295 -0.00974818 -0.12063732
-0.04663973 -0.04652007 0.0928635 -0.35778108 -0.45696914 0.030945791 0.061440766 0.49841607
0.08955934 0.020016348 0.07249403 -0.12699907 0.03700092 -0.19942094 0.19415128 0.2294062
-0.070356615 0.007818807 0.07475107 0.17088416 0.051433936 0.4799481 -0.0070252353 -0.152259
0.01163635 0.13409795 0.2604467 -0.0565988 0.03864389 -0.07282922 -0.020441882 0.22109075
0.0017292204 -0.014176894 -0.16966663 0.10089697 0.023904046 -0.016775072 0.023875061 -0.028999384
0.040004622 -0.026032405 0.026430894 -0.0051308637 0.011574748 0.0012224267 0.009862901 -0.012528278
0.0016947949 -0.020195914 0.017660625 0.028399052 -0.0053197714 -0.025264127 -0.002257014 0.39984468
-0.12754348 0.075101726 0.41381502 -0.14084132 0.04116442 -0.13456564 -0.19998471 -0.055059936
-0.0043203705 -0.13663837 0.05320776 -0.34395882 -0.20078082 0.090180576 -0.16033705 0.14902204
0.15359032 0.29527822 0.039222877 -0.19427752 0.25865677 -0.10080031 0.037045963 -0.045884304
-0.3259341 0.095806405 0.24592496 -0.029634671 -0.1448124 -0.084568456 -0.12754157 0.04432069
0.10680912 0.23607887 -0.16571149 -0.063899845 -0.09965593 0.15122108 0.036811665 -0.12884048
0.093457066 0.19034714 0.1483823 0.04316313 -0.009261741 0.020011367 -0.0017843609 -0.016962184
0.03856214 -0.016218951 0.0016344736 -0.005979142 0.01828205 -0.04185395 0.06112627 0.0021358393
-0.009958735 0.008384398 0.0034905593 0.0030898235 -0.03563746 0.27126744 -0.3309213 -0.44157612
0.026527874 -0.12334299 -0.17792057 -0.12442182 0.007306207 -0.16999461 -0.3026106 0.21933065
0.014343196 0.29995906 -0.21576172 -0.25059372 0.020411873 0.5979262 -0.2933207 0.045593966
0.2290813 -0.10219091 0.05887367 0.1188167 0.22693804 0.1035257 0.058253 -0.29130098
0.044150323 -0.015380917 -0.3578259 -0.061036773 0.15596087 0.113458306 0.019685324 0.18371537
0.008862178 -0.33920062 0.062049408 -0.070411615 0.01962432 0.12006679 0.021547062 -0.0129858265
-0.083183266 0.010938451 -0.013953401 0.018916106 0.022663392 0.019058332 0.009382564 -0.009390816
0.0057510873 0.033033095 0.020198712 -0.030288829 0.019159293 -0.020067187 0.014345462 0.026352182
-0.015858702 -0.013960061 -0.032377537 -0.0043097567 -0.004924782 0.097474426 -0.37192315 -0.065588035

bias f4 [128]
00000000: a722 c03d 6710 83bd 7be4 c83d a3ad 1ebc
00000010: 0294 d9bc 74f8 36be b87c 573d 538f 423d
00000020: d577 12be 373c bdbc 95e7 d23c 1180 aabd
00000030: 6451 ae3d e1a9 2ebe c510 7abd fd56 ffbd
00000040: ec8e 25bc 1d0e b5bd 1c16 71bc f473 2bbd
00000050: d375 4ebd af84 3dbe c228 a1bd 609b c6bd
00000060: d9b5 05be 64db 33bd ade6 0ebe 2e54 85bd
00000070: fd17 d6bb d735 abbd 80e5 4bbc dc37 67bd
00000080: 30fd 78be 9599 403d 5edf 91bd 3b66 c1bd
00000090: 58bd 45bd b26f 703d 7436 4abd 3080 cebd
000000a0: 695f 563d 64da 21be 8fea d9bc 8338 f9bc
000000b0: 7f9c 29be 51a6 cebd eb34 4fbe f5d7 643c
000000c0: d3b0 aabd d572 ef3d 5400 b13c 81d4 363d
000000d0: c4a7 023e 3115 12bd 5f0c cb3d ffd3 7cbb
000000e0: 81e2 f7bc 6cbd a4bd bab1 1f3d 552f 593c
000000f0: 3ef4 01bd 070d de3d cf03 fdbd 6641 71bd
00000100: 3d06 933d 447a c1bd c9d2 04be 82cc 7abd
00000110: 7880 413e d94a ad3d 2b47 b6bb 559a 243e
00000120: a280 1bbe 3fc2 5a3d 9e05 9e3d b50c d2bd
00000130: 0250 9d3d 26b8 2fbe 1082 eabd 5f10 93bd
00000140: b11e a3bd 58bf 15be 5edb 6ebd 6f76 093e
00000150: 0284 c2bc 1a26 babc d54c a13c a6d4 893d
00000160: 28c7 9d3c 7ed7 0dbe 060c 1fbe fde2 12bd
00000170: a4a3 b9bd 69e4 463d 0346 44be c7df 12be
00000180: 0afb dc3c 568f e73c b67d 12be f94e 38be
00000190: 83c7 7a3d 61c0 943d bfeb 26be a78a 58be
000001a0: cd8b 27be 9ea0 a03d 1aa4 cbbd 7218 fbbd
000001b0: cd0f a0bd e3ff 793b f0b3 743d 8b24 9cbc
000001c0: ae8d e9bd b993 d3bd 5ee4 723b 4aaf 16be
000001d0: 1cd6 31be 0e8b c1bd 1ade 0bbe 7bc2 d8bc
000001e0: 5d6a 12bd af36 f1bd 46f6 29be f02b 283d
000001f0: 17a4 90be 3cf6 073d fb01 bf3c 6462 2dbe
0.093816094 -0.06399613 0.09809204 -0.009684953 -0.026559833 -0.17868215 0.052609175 0.047499966
-0.14303525 -0.023100002 0.025745193 -0.08325208 0.08511618 -0.17056991 -0.06105115 -0.124677636
-0.010104876 -0.088405825 -0.014714744 -0.04185863 -0.050405335 -0.18507646 -0.07869102 -0.09697604
-0.1305765 -0.0439104 -0.13955183 -0.065101966 -0.0065336213 -0.083598785 -0.012444854 -0.056449756
-0.24315333 0.047021467 -0.07122682 -0.09443327 -0.048276275 0.05870027 -0.049368337 -0.100830436
0.052337084 -0.15805966 -0.026601104 -0.030422455 -0.16563605 -0.10090316 -0.2023503 0.013967504
-0.08334508 0.11691824 0.021606602 0.044636253 0.1275931 -0.03566474 0.09914469 -0.0038578508
-0.030259373 -0.08043942 0.038987853 0.013255914 -0.031727068 0.108423285 -0.12354242 -0.05890026
0.07178924 -0.094471484 -0.12971033 -0.06123019 0.18896663 0.08461542 -0.005562683 0.16074498
-0.15185788 0.053407904 0.07715915 -0.1025633 0.07681276 -0.17160091 -0.11450589 -0.07180857
-0.07964838 -0.14623773 -0.058314674 0.13424085 -0.023744587 -0.022723246 0.019689957 0.067300126
0.019260004 -0.13851735 -0.1553193 -0.035861004 -0.09064415 0.048557673 -0.19167332 -0.14343177
0.026975174 0.02826659 -0.14305767 -0.17998876 0.061225425 0.07263256 -0.16300867 -0.21146642
-0.16361924 0.07843135 -0.09943409 -0.12260522 -0.07815514 0.0038146905 0.059741914 -0.019060394
-0.114039764 -0.1033091 0.0037062387 -0.14715305 -0.17366832 -0.09450351 -0.13658944 -0.026459923
-0.035745967 -0.11778008 -0.16597852 0.041057527 -0.2825019 0.03319381 0.023316374 -0.16932064

weight f4 [128, 128]
00000000: 252a b73c d4f3 45be f5e7 4dbd b2c2 eb3d
00000010: ce35 2cbe 503e 3dbe 4a68 59be f12d ea3b
00000020: 4548 08be 2eea 543d f44f 9a3d f6f1 e9bb
00000030: a874 b539 36ff 3ebe e223 96bd fd90 fd3c
00000040: 69ab af3d cc71 52be d843 a3bc fa27 073e
00000050: 6ae2 123d bc0a f2bc 24e1 bb3d 4071 ce3d
00000060: 4509 caba bb50 d33d 2aea f93d 8e8c 05be
00000070: 4c29 913b 39d1 ac3d 2a8a 18be c6be 10bd
00000080: c3a9 8d3d efc1 0a3d 4f71 7ebd 5fc3 9a3c
00000090: 1a86 86be 3251 a4bd 4f8b 35be 30eb 983a
000000a0: 1891 bbbb 0f1d 03be acdf 8e3d 3932 46bd
000000b0: 4d7a 0abe 6fd9 3a3d faa4 e73c 32b9 ae3c
000000c0: e1ed b73c cccf 223e cc19 3dbd 889d bd3d
000000d0: 951c 92bb 51f2 02bb a2d9 a8bc 9446 8bbd
000000e0: cd7a e93d 69d8 77bd 042e e63d a33a fbbc
000000f0: 5fb4 a33a b6e7 813c c3a3 0bbe 94a0 e33c
00000100: 0338 0fbe a18c 04be 4c21 a93d f72c bb3d
00000110: 4a81 8cbd e206 073e 1295 813d 39ad 323c
00000120: e3f3 11bd 3169 0a3e 8787 e6bd 8b05 953d
00000130: 16c7 233e f76b 45be bdff 8a3d 136e 40be
00000140: 5804 f4bc cb46 e2bd c238 463e 0a23 cb3d
00000150: 3a94 46bd 7af0 22be bd77 08bc 4194 8bbd
00000160: 37db 603e 57e0 a4be aaf3 9fbd 1f29 b7bc
00000170: a1fc 4b3d a2e0 1fbe 554f 063e 7da0 4abe
00000180: 01e8 c0bd 39f6 85bc c7a2 683d bc3f 213e
00000190: 4656 fbbd 757e 8a3d 0f3c df3c a56e 9ebd
000001a0: 2ecb 943c b55b 31be 19cd 5c3d f04b 323e
000001b0: 082b aebd bac8 273e 0220 3b3d 09a2 92bd
000001c0: aacc 96be 35a3 54bd f387 36bd 2420 873d
000001d0: 56e4 9c3d f449 a1bd 23ec 93bc 33ac 4dbd
000001e0: db1a d73c 94e9 f8bd 8de0 ae3b 28e6 71bb
000001f0: 917f 0c3e ad04 faba 96dc 04be e581 683e
00000200: 2a55 a0bb 8c28 b5bd 7fa1 c63d bc62 c5bd
00000210: e005 bbbd a132 08bd 15df 3cbc 9354 1cbe
00000220: 8e50 2abd 14da 993d b0e3 2b3d f7f1 5c3c
00000230: 92a6 87bd 4666 3d3e 2701 17be eba9 243d
00000240: e22f b63c 206d 54bd 5966 f1bd cc22 49be
00000250: aba0 95be 4cd7 11be acbc 84bd 342d a03d
00000260: 22cc 833d 8b86 43be bafa 8cbe 47a1 7c3e
00000270: 78cd d9bd 747e 24bc e9cc 85be 9bce e9bd
00000280: 3969 1ebe b5e5 103c 5dd3 333b 2594 c7bd
00000290: 5029 a4bd 0081 843c a76b 8b3c b92e ae3d
000002a0: 6a2d 52bc 3978 883d dafd 2d3e e482 c33d
000002b0: 437b 77bd c7a9 50bd 8f20 9d3d ad36 173b
000002c0: c5b1 f9bd 8a2a 76bd 12aa 6b3d 0fae 623e
000002d0: e9a9 5e3d c8cf 403d a7ab 09be 6d93 66be
000002e0: 6b26 673d e781 1abe 9597 0e3e fde5 b73e
000002f0: a34e a23d ab80 a93d 1c41 a83d f13b f9bd
00000300: 1087 173e 8b2f 34be d5b1 fbbd 2d0e 823e
00000310: 3f33 49be dbee fb3d ed57 533d 5142 823c
00000320: 1410 17bd b29f 4cbd f863 133e 5143 fdbd
00000330: 4c4d 263e bad3 3b3d 6e22 bf3c b0b9 edbc
00000340: 92bc a5bc 10dc 1c3e 1632 8fbd 44e6 e03c
00000350: 82f9 3bbe 52df a4be 4b87 c3bd a9f0 953c
00000360: d792 6f3e 87a8 0d3d 79f9 54bd da03 5abd
00000370: 4274 223d 0cc5 6abd 0e44 febd bd05 9bbd
00000380: e242 ffbd b670 6bbc 4409 87bd 1464 e83d
00000390: 6d00 1abd 5ef8 2cbe be81 e23d eadf 9b3d
000003a0: bf21 d53c 5cd1 d1bd 36c7 a2bd 6f2a b0bc
000003b0: acbb bbbb 5ba4 0d3c af18 a6bd f59e 04be
000003c0: ce48 9ebe 22cf 623e baae 9d3d 69a7 2e3d
000003d0: dee4 dc3d db22 19bd 6763 5e3c 2272 973d
000003e0: 32ab 8f3d 8edf c03d 0a3b 823e 3b68 873d
000003f0: 6331 1bbe de0a 36be 3aad 503e c3a7 573d
0.022358963 -0.19331294 -0.05027004 0.115117446 -0.168174 -0.18480802 -0.2123119 0.00714659
-0.13308819 0.051981144 0.07534781 -0.0071394397 0.00034609926 -0.18652043 -0.07331063 0.030952925
0.08577616 -0.20551223 -0.019929811 0.13198844 0.035860457 -0.029546134 0.091738015 0.100801945
-0.001541414 0.103181325 0.122028664 -0.13041899 0.004429972 0.084383436 -0.14896455 -0.035338186
0.06917145 0.033876356 -0.06211978 0.018891988 -0.26274186 -0.08023299 -0.17728923 0.0011666771
-0.0057240836 -0.12804054 0.06976256 -0.04838774 -0.13523217 0.045617517 0.02827691 0.021328542
0.022452297 0.1589958 -0.04616718 0.09258562 -0.0044589736 -0.0019980858 -0.020611588 -0.06800571
0.114003755 -0.06050912 0.112392455 -0.030667609 0.0012489668 0.015857559 -0.13636689 0.02778653
-0.1398621 -0.1294427 0.08258304 0.09139436 -0.068605974 0.1318622 0.06327261 0.010905557
-0.03563298 0.1351669 -0.112563185 0.07276448 0.15993914 -0.19279467 0.067870595 -0.1879199
-0.029787228 -0.11048659 0.19357589 0.099187925 -0.048481204 -0.15912047 -0.008329329 -0.068153866
0.21958624 -0.32202408 -0.07810147 -0.022358475 0.049801473 -0.15613034 0.131162 -0.19787784
-0.09419251 -0.01635276 0.05679586 0.15746969 -0.12272315 0.06762401 0.027250318 -0.077359475
0.01816329 -0.1732014 0.053906534 0.1741178 -0.08504301 0.16385165 0.045684822 -0.07159812
-0.2945302 -0.05191346 -0.044563245 0.06597927 0.07660739 -0.078754336 -0.018056935 -0.05021305
0.026257923 -0.121539265 0.005336827 -0.0036910865 0.13720538 -0.001907488 -0.12974772 0.22705801
-0.004892965 -0.08845624 0.09698772 -0.09637973 -0.0913198 -0.03325141 -0.011527796 -0.15266638
-0.04158073 0.07512298 0.041965187 0.013485423 -0.06623568 0.18496045 -0.14746533 0.04020111
0.02223963 -0.051861882 -0.117870994 -0.1964218 -0.29224142 -0.14242285 -0.06481299 0.07821122
0.064354196 -0.19094293 -0.2753504 0.24670897 -0.10634893 -0.010039914 -0.26132897 -0.1141636
-0.15469827 0.008843829 0.0027439215 -0.09745053 -0.08015692 0.016174793 0.017019106 0.085050054
-0.01282821 0.06663556 0.16991368 0.0954645 -0.060420286 -0.050943162 0.07672226 0.002307336
-0.1219211 -0.060099162 0.05753524 0.2213671 0.054361258 0.047073156 -0.13444386 -0.22517176
0.056433123 -0.15088616 0.13925011 0.35917655 0.07925155 0.082764946 0.08215544 -0.12169636
0.14797616 -0.17596261 -0.12289778 0.2540144 -0.19648455 0.123014174 0.051597524 0.015900763
-0.036880568 -0.049956985 0.14393604 -0.12366355 0.16240424 0.045856215 0.023331847 -0.029019207
-0.020231519 0.15318322 -0.06991975 0.02745355 -0.18356898 -0.3220163 -0.095472895 0.018303232
0.23395859 0.03458455 -0.05199573 -0.05322633 0.039661653 -0.057316825 -0.12415324 -0.07569454
-0.12463929 -0.014370134 -0.06593564 0.113472134 -0.037598062 -0.1689162 0.110599026 0.076110676
0.026017068 -0.1024501 -0.07948153 -0.021504609 -0.0057291593 0.008645142 -0.08110177 -0.12951262
-0.3091492 0.22149327 0.07699342 0.042640124 0.107858405 -0.037386756 0.013573504 0.07394816
0.07015075 0.0941764 0.25435668 0.06611677 -0.15155558 -0.17777583 0.2037858 0.052650224

bias f4 [128]
00000000: 7997 bcbb 21e7 613b 97db 3abc a245 3b3d
00000010: 16bf 96bd 5440 223d cd7b 5f3d e8b9 38bd
00000020: ab6c 053c ef4d bebd e0ca ddbd e1b7 653c
00000030: 48cc 813d b015 a6bb 104b 9b3c 0d8d 8bbd
00000040: 2229 283d b7c7 53bc c503 e9bd 3119 10be
00000050: 494c 4d3d 35f8 e8bd 3af1 d6bc 3786 123c
00000060: 51db d7bc 98f7 dcbd 900b 48bc f184 473d
00000070: 2e80 b1bd 9d85 fabc db8e 61bd 9e1c ffbd
00000080: 6849 5dbd 47b9 893d 1ef2 203b eef2 e9bd
00000090: 1c59 073d 1c00 b1bd b8df 0abd 68c1 053d
000000a0: 378c f63d 1c19 57bd aebf 86bc 86e5 413d
000000b0: db30 51bc e591 043d 504a 5dbc b6e1 cb3d
000000c0: 1558 c73d c486 0e3c db04 943d 0abb ed3b
000000d0: a6cd fdbb 5fb4 84bc d9f3 83bd bce5 5e3c
000000e0: 9121 b83c a01b 68bd af06 75bd d857 973b
000000f0: 7ce1 cfbc d8dd e63d 59c4 3abd 6783 64bd
00000100: f877 86bd 3241 ebbd f8bb c73c 9c46 f9bd
00000110: a28b 02be 4fc7 913c ed9d 2abc bbf9 1abd
00000120: 2e99 e4bd f24e 08be a17e 023e 83cf 91bd
00000130: 8088 5c3b 0e28 0cbe def6 71bd 0132 5ebd
00000140: c3aa 59bd 3a84 2cbd 1eb0 623b e73c aebd
00000150: 2f76 013d e82d bebc 4db6 b9bc 42f2 e0bc
00000160: 4403 0b3b 3995 16bd 4f65 3bbd 64a8 59bd
00000170: 06db c9bd c9b9 aebd 4a44 603c a02f acbd
00000180: 79f2 a8bd f5bf 013c 7a86 6fbc 12f8 5ebd
00000190: ccf8 87bd 607d 08be cb31 2dbd 2bca 23bd
000001a0: 7355 0ebe ef13 c4bc 4f86 9bbd eb2d 18bd
000001b0: 2ab9 b53c 078f 1b3c 99cd 17be 2462 8b3c
000001c0: f37b debd 0153 423d 8f58 d6bd d28a acbb
000001d0: 6426 d2bd 3969 223c 53c9 9dbd 5ec3 83bd
000001e0: 5860 d83c 3a01 19bd d920 463d 6e76 76bd
000001f0: 2417 7ebd 032e 8a3a b868 b2bd c411 66bd
-0.0057553616 0.003447004 -0.011404893 0.045720704 -0.073606655 0.03961213 0.054561425 -0.04509917
0.008143584 -0.092922084 -0.10829711 0.014020891 0.06337792 -0.0050685033 0.018956691 -0.06814013
0.041054852 -0.012926034 -0.11377672 -0.1407211 0.05012158 -0.11375467 -0.026238073 0.008943132
-0.026349695 -0.10789412 -0.012209788 0.048710767 -0.086670265 -0.03058129 -0.05506788 -0.1245663
-0.054025084 0.06724792 0.0024558376 -0.11423288 0.033043966 -0.08642599 -0.03390476 0.03265515
0.120384626 -0.05251418 -0.016448822 0.04733803 -0.012767996 0.0323657 -0.013506487 0.0995516
0.09733597 0.008699123 0.072274886 0.007254963 -0.0077454625 -0.016199289 -0.064429946 0.013604578
0.022476943 -0.05666697 -0.059820827 0.004618626 -0.025376074 0.11272782 -0.045597408 -0.055789378
-0.06565851 -0.114870444 0.024381623 -0.12171671 -0.12748578 0.017795233 -0.010413629 -0.037835818
-0.11162029 -0.13311365 0.12743618 -0.07119658 0.0033650696 -0.13687155 -0.05907332 -0.054246906
-0.053141367 -0.04211829 0.0034589837 -0.0850771 0.03160685 -0.02321525 -0.022669936 -0.027459268
0.0021211663 -0.036763404 -0.045750912 -0.053139105 -0.098562285 -0.085315295 0.013688156 -0.08407521
-0.08249373 0.007919301 -0.014619464 -0.054435797 -0.06639251 -0.13329077 -0.042283814 -0.039987724
-0.13899784 -0.023935286 -0.07593977 -0.037153166 0.02218302 0.00949455 -0.14824523 0.01701457
-0.10863485 0.04744244 -0.1046611 -0.005265572 -0.10261229 0.009912782 -0.07704415 -0.06433748
0.026413128 -0.037354685 0.04837117 -0.060171537 -0.062033787 0.0010542277 -0.0871138 -0.056169286

weight f4 [128, 128]
00000000: 74be 8fbd b1fe c1bc 36e4 413d 710a aebd
00000010: afe6 67bd 76a4 77bd 570d 963b 20ea d53d
00000020: c3a5 1a3d f274 13be fd70 d0bd b309 bd3b
00000030: 8f8e a0bd 4909 aebd 3db5 c3bd 91fb 703d
00000040: fd8d c1bd 88be 3abe 7568 c3bc a35d 133d
00000050: 8ef5 0bbc 283b 6b3c a402 51be eb27 29bd
00000060: 4349 4abe 290b 5f3e 2c90 6dbd 668c adbc
00000070: 6489 4c3e d928 413d 3aae ba3c 04e9 cdbc
00000080: 2592 16be 89ac 6bbd 2a13 85bd 670b 173d
00000090: b69d f7bd 1762 fabc fecb d63b cde5 a43d
000000a0: 24fa 943d c12e 0ebe a9e3 f33d 8cc5 48be
000000b0: aa3e 4dbe e410 e3bc 892f c6bd 77f5 1abe
000000c0: 110f 34be 4476 a7be 6819 593d e251 dcbd
000000d0: a14e fdbc 4052 8bbd f157 8a3c f53d aebd
000000e0: 3435 f7bd 547b 903e 2ab0 7dbd ff44 debd
000000f0: e053 2abe 2959 90bd 6785 b3bc 802e bbba
00000100: b0e5 1fbe a62d 8c37 d38f 523c 0732 90bd
00000110: 3d25 bebd 1735 c83c 38b7 3cbe 9404 b33c
00000120: 312a 3cbd 9c01 8f3e 7a15 703d 243d 50be
00000130: 7c2c 02be 319e 17bd d96b 72bd 37fa aa3c
00000140: 5db9 85be abaa fbbd 19e0 0bbe 9ef4 ba3c
00000150: 9b65 90bd b1f2 abbd a434 d1bd 391c 06be
00000160: d97b 1a3e b398 e83c a67a 2dbe ff67 3bbe
00000170: 16d5 3ebe cb83 abbd 030c 03bd a372 283d
00000180: 1fe6 8abd 84bf 78be 0730 e0bb b070 1e3e
00000190: 0425 8abd 37e4 67bc a7a4 0ebe 3522 c8bd
000001a0: 846e d4bd d1ca 903d 03ca db3d 0ed1 8dbd
000001b0: 07f3 43be d289 5cbd b8c1 81bd a8f5 08be
000001c0: ea81 55bd a3c7 0f3e 312a 66bd 6459 04be
000001d0: 0288 563d 0d93 c3bb 0acb 21bc 9870 93bc
000001e0: e4d5 9fbc 1da8 dfbc 9053 5cbe 34ef 0bbc
000001f0: f5bc 7b3e 3695 26be 4c0c 41bd 8de6 23be
00000200: 19a0 edbd e541 0d3d 8596 2dbd 3862 64be
00000210: 4f6c 123e d052 67be ca9d 063e dea1 1e3e
00000220: e760 98bd 9166 12be 85fd f23c e00f b03d
00000230: 3102 80bd 9399 933d 9f5b b2be 4bbd c2bc
00000240: 91ed 323e 9d7d eebd 5360 40bd 0fc8 c3be
00000250: e93f 503c fc0d 0b3d d4a5 32be e040 13bd
00000260: c26b 523e 1efc a83d 6dfa 7cbd 012d d2bd
00000270: e132 8cbe 8b45 db3d 2b44 fbbc aad1 053e
00000280: fa66 21bd 6baf 683b d1b1 0abe 2c76 433e
00000290: 2db4 f03d fed4 413d 64e8 f13d 3b21 1b3e
000002a0: a8ac 563e 7245 16be 97e4 3a3e 6a96 723e
000002b0: 916a a2be 9592 e6bc 6b92 5d3e 87f1 b1bd
000002c0: 1234 6abb df43 383a d212 85bd da75 e63d
000002d0: 9104 a73e 7f00 3a3d 8e9b 60bb 5206 573d
000002e0: c0a3 753c a24d 6f3d 2994 c63e ad79 90bc
000002f0: 8425 cbbd be0b 3a3e fea9 193e cea3 24be
00000300: 79c8 1abc b445 fa3d 3714 0dbd 6a37 253e
00000310: a5ec 173d a296 af3d 4c19 453e ba26 ba3d
00000320: 29a6 643d 8980 fcbd 441e 39bd 21dc 203c
00000330: 8622 09bd 5484 64be d36b 1c3d 8c05 033e
00000340: f07c 0cbe 4890 b33d e517 313e 9e64 2dbc
00000350: 41eb 89bd 3bcb 863d 82af 51be 810b df3d
00000360: bcee d0bc 5d94 14be 06fa 1c3e 44b7 7fbd
00000370: 6f17 81bd 9e77 193e 7c33 193d c0a0 60be
00000380: d2e8 d9bc f37a 9ebd ae8c 3e3e f27c af3e
00000390: a330 093e 64cf edbc 8a19 40be 880c 34be
000003a0: 4938 6c3e f311 5b3d 8075 bcbd 0c70 473e
000003b0: a161 883e 2a84 793c 337f 913d db36 07be
000003c0: aaf2 6bbb 4ffb 51bc a974 513e ef54 233c
000003d0: 6e97 0e3e 3a0a bebe d8b1 833d edd9 b93c
000003e0: 9089 823e d8d5 153d 04b8 49be 1cb4 2e3c
000003f0: 772f 28be f451 5abe 1ee2 e93c 052b 24bd
-0.07018748 -0.023681017 0.04733678 -0.08498085 -0.05661648 -0.060459577 0.004579227 0.104450464
0.03775574 -0.1440008 -0.10177801 0.0057689785 -0.07839691 -0.08497865 -0.09556053 0.058833662
-0.0945091 -0.18236744 -0.02385352 0.03597797 -0.0085424315 0.014357366 -0.20411164 -0.041297834
-0.1975451 0.21781601 -0.05799882 -0.021185111 0.19974285 0.047158096 0.022788156 -0.025135525
-0.14704187 -0.05753759 -0.06497796 0.03687611 -0.12090628 -0.030564351 0.0065550795 0.080516435
0.07274273 -0.13885023 0.11908657 -0.19606608 -0.20043436 -0.027718015 -0.09677035 -0.151327
-0.17583872 -0.32707417 0.053002745 -0.107578054 -0.030921282 -0.06802797 0.016887637 -0.08507911
-0.120706946 0.28219092 -0.06193558 -0.10853004 -0.16633558 -0.07048256 -0.021914197 -0.0014280826
-0.15614963 1.6710557e-05 0.012851673 -0.07040792 -0.092844464 0.024439378 -0.18429267 0.021852769
-0.045938674 0.27930915 0.05861423 -0.20335823 -0.12712282 -0.037016097 -0.059184883 0.020871265
-0.26117983 -0.12288412 -0.13659705 0.02282172 -0.0705063 -0.08395899 -0.102151185 -0.13096704
0.15086307 0.028393125 -0.16941318 -0.1830139 -0.18635973 -0.08374747 -0.031993877 0.04112495
-0.06782173 -0.24291807 -0.006841663 0.15472674 -0.067453414 -0.014153532 -0.13929997 -0.097721495
-0.10372642 0.07069934 0.1073189 -0.0692464 -0.19135676 -0.053842373 -0.06335777 -0.1337496
-0.05212585 0.14040999 -0.05619258 -0.12924725 0.0523758 -0.0059684576 -0.009875068 -0.017998025
-0.01951117 -0.027301842 -0.21516252 -0.008540917 0.245838 -0.16267857 -0.047130868 -0.16005917
-0.11602802 0.03448667 -0.042379875 -0.22303092 0.14299129 -0.22590184 0.13146129 0.15491435
-0.07440358 -0.14296938 0.029661903 0.08596778 -0.06250418 0.07207026 -0.34835526 -0.023771903
0.17473437 -0.116450526 -0.046966862 -0.3823857 0.01271055 0.033948883 -0.17446071 -0.03595054
0.20548919 0.082512125 -0.061762262 -0.1026249 -0.27382568 0.10706624 -0.030672153 0.13068262
-0.039404847 0.0035504948 -0.13544394 0.19088048 0.11753116 0.047322266 0.11811903 0.15149395
0.209643 -0.14674929 0.18251263 0.23690191 -0.3172193 -0.028146068 0.21637885 -0.08688646
-0.0035736603 0.00070291565 -0.0649773 0.11252947 0.3262067 0.04541063 -0.0034272405 0.052496262
0.014992654 0.058423646 0.38784912 -0.017636145 -0.09919265 0.18168542 0.15006253 -0.16078112
-0.0094472105 0.12220326 -0.034443107 0.1613442 0.037090916 0.08573653 0.19247931 0.09089418
0.055822525 -0.12329204 -0.04519488 0.009818108 -0.03348019 -0.22316104 0.038188767 0.12795085
-0.13719535 0.08767754 0.17294271 -0.010583071 -0.06734324 0.06581732 -0.20477107 0.10890866
-0.025504462 -0.14509721 0.15329751 -0.062430635 -0.06303298 0.14987037 0.037402615 -0.21936321
-0.026600275 -0.077382945 0.18608353 0.34275013 0.1339746 -0.029029556 -0.18759742 -0.17582905
0.23068346 0.053483915 -0.09202099 0.19476336 0.26636985 0.015229264 0.071043395 -0.1320452
-0.0036002793 -0.012816264 0.20454659 0.00996898 0.13924953 -0.37117177 0.064304054 0.022686923
0.25495577 0.03658089 -0.19699103 0.010663059 -0.16424356 -0.21320325 0.028550204 -0.04008009

bias f4 [128]
00000000: 8154 d2bb 132a babd aeda eabd 6cf2 8f3c
00000010: 5ff4 86bc c100 c8bc 62c7 d4bd 7285 d6bd
00000020: 8d0b 97bd b79e f23d 51c7 0bbe 162c 90bd
00000030: 6c8c 4bbe 0c50 573d 5955 5dbd d4ea aabd
00000040: 88fa 293e 1968 09be 4f1b 06be 90d2 913d
00000050: ec50 e53d 959c b2bd 37b0 92bc 120d 0abd
00000060: 456f d3bc 8f5a a6bc 9622 03be 8663 7a3c
00000070: 3983 c8bd d534 a33c 983e 89bc a0e8 cd3d
00000080: 70d6 9abd 65d9 4dbd 24a5 5fbc 6eb2 32bd
00000090: 52dd 893d 988b 873b c313 25bd 1573 dfbd
000000a0: 32ee b8bc 8298 4dbd 8d34 0ebd 5bc6 87bd
000000b0: 3bf9 8cbc 8b48 2fbd 5d1a b4bd 2e48 8cbd
000000c0: 4147 a4bd 9b82 babc 9637 a73d aa00 40bd
000000d0: 8dc6 993d a58b fdbc 1066 cdbd d111 1cbb
000000e0: 8806 15be da77 723d c711 5d3d ee68 613a
000000f0: 39ff ea3d c4bf 543d 307a d83d 97d7 bb3d
00000100: 2db1 a13d 7cb3 0bbc a70f f1bc f01e bdbd
00000110: f9d9 f8bb 05ca c4bd 5612 333d acb4 87bd
00000120: b00f 1dbd ee96 9fbd c0b7 1bbe e009 073d
00000130: 7d12 cd3d 1a41 83bc ce46 90bd 039c 0abc
00000140: 19f3 273d 31e7 83bd b6e1 f6bb 38f9 00bd
00000150: 2ec6 d6bd 92b2 1ebd 08ee a43c 6ba3 e5bd
00000160: 3ab5 04be 2d43 f6bd 1788 3f3d 55db 4d3e
00000170: 7631 1cbe cd0c ccbb 6361 c93d 435c f33b
00000180: 4714 d9bd 4def 92bd f32c 24be e2a9 0f3e
00000190: 7065 283d 1bb6 2abd 96ee 93be 7eda d13d
000001a0: 9364 41bc ace1 143d 6198 dabb ce0e 3b3a
000001b0: 130b 473d 9944 b13c 3f45 463d 8acc 10be
000001c0: 2782 623e 61f5 853d 1ccb cbbd 6525 983d
000001d0: 525b de3d 0640 513d 912d 94bd 7ae8 8cbd
000001e0: 5814 0cbe e987 2cbe c270 0b3d 4af8 4bbe
000001f0: 8928 18be ac0c c5bd 4dce 8dbd efd2 08be
-0.006418765 -0.09090056 -0.11467491 0.01757165 -0.016473947 -0.024414422 -0.10389592 -0.104746714
-0.0737525 0.11846679 -0.13650252 -0.07039659 -0.19877785 0.052566573 -0.054036472 -0.08345571
0.16599476 -0.13418616 -0.13096355 0.0712024 0.11197075 -0.08721272 -0.017906291 -0.03370387
-0.025809893 -0.020306854 -0.12806162 0.015282517 -0.09790654 0.019922653 -0.01675348 0.10054135
-0.07560432 -0.05025615 -0.013650212 -0.043627195 0.067316666 0.004136514 -0.04030205 -0.10910622
-0.022574518 -0.05019427 -0.034718085 -0.0662963 -0.017208686 -0.04279379 -0.08794091 -0.06849705
-0.08021403 -0.022767356 0.08164899 -0.046875633 0.07508574 -0.030950377 -0.100292325 -0.002381433
-0.14553273 0.05919633 0.053972032 0.00085987046 0.11474461 0.051940694 0.105701804 0.0917198
0.07895122 -0.008526679 -0.029426409 -0.092344165 -0.0075943437 -0.09608845 0.04371866 -0.06626257
-0.03834504 -0.077924594 -0.15206814 0.032968402 0.10013292 -0.016022254 -0.07044755 -0.008460048
0.04100332 -0.06440581 -0.007534231 -0.031487674 -0.104870185 -0.038744517 0.020133033 -0.1121281
-0.12959757 -0.120245315 0.046760645 0.201032 -0.15253243 -0.006227112 0.09833028 0.00742677
-0.10599571 -0.07174549 -0.16032772 0.14029649 0.041112363 -0.041677576 -0.28892964 0.10246752
-0.011803764 0.03634803 -0.006670997 0.000713569 0.048594546 0.021639155 0.048405882 -0.14140525
0.22119962 0.06540943 -0.099508494 0.074290074 0.10857262 0.051086448 -0.072352536 -0.06880279
-0.13679636 -0.1684872 0.03404308 -0.19918934 -0.14859213 -0.096215576 -0.069241144 -0.13361715

weight f4 [128, 128]
00000000: 3258 9f3d a224 debd c818 133d ef5a 913d
00000010: 82c2 ea3d 00bb 03be ad49 66be 01a2 84be
00000020: 408f 7dbd 0167 203e a07a d2bd 5346 953e
00000030: 9ab4 84bd 5f81 013e 20a9 fbbd 141c 5b3d
00000040: 5f6f e6bd 4104 b43c 5ce1 3dbd 5d5c e93d
00000050: 9bb8 9e3d c44e 333e 03fc 58bc 2907 f93d
00000060: be2f 3e3e 58d3 8bbc e8b8 54bc 9ddc 953d
00000070: 2cbc c5bd 7a4c 973d e2e0 d6bd cb34 1e3e
00000080: e521 16be 9e98 9ebd b168 9e3d 830a 123e
00000090: daf0 c7bc be23 203e 26ad ce3d 7804 88bd
000000a0: 4372 4e3d 5cff d73c 5c12 1e3e f9c3 90bd
000000b0: 8a59 11be 25cb 4abb 2294 833d 1f19 d73c
000000c0: 2c00 11be b0a0 42be 0e9c 5dbc b974 44bc
000000d0: f159 34bd 5573 42bd 1c9b bf3d 960a c53d
000000e0: 7890 343d 6a22 9f3c e455 4b3d 2fd1 56bd
000000f0: b9a2 3b3d 65bb 84bd b73b 50be af22 0f3b
00000100: 85a9 0dbc f7c6 703c 355b bfbd f4d2 35be
00000110: f6e0 91be 4b80 81be 35cb 1fbe dbdd d3be
00000120: 1ef8 70bd 1ac5 8dbb 6923 09bc 6f15 8b3c
00000130: 5000 993d 50c0 f13d 7552 90bd fda9 32bd
00000140: 487e 4d3b 3870 c3bd 3757 cd3d bf5e 85be
00000150: aa85 f73c 7225 99bd d72a 9f3e f3d3 a1bd
00000160: d9d5 563e 5447 dbbc 0433 a3bc cec6 94be
00000170: 8785 673d cda4 f6bb a06c 8d3d a910 523c
00000180: 580b 9cbd 1d0b 423d 9e6d 213d 9a6c b6be
00000190: a346 90bd 981c a33d c535 6cbe ac3a 63bd
000001a0: 03f0 913d 1f89 b1bd 783e 863d 9275 ca3b
000001b0: 0334 adbd d835 8a3e 19f8 d33d a1f3 b93d
000001c0: b403 a3be cebd 103e 7dbd 243e eb7f 8c3d
000001d0: a762 ed3c d737 003e 305a ebbc 8fc5 2c3e
000001e0: 8464 1dbe 686b 13bb 2792 fbbd 4b0e 07be
000001f0: 9c6d 1cbe 5f70 aa3c 5021 04bd d8a7 aabd
00000200: 4bfa 37be 01eb f7bd 495c b23d 1c88 32be
00000210: 2a10 06bd 2e24 a6bd d749 a33d eda8 a43d
00000220: 196a 8cbd 7e4a 60bd 31da 0ebd bc9f 05be
00000230: 1969 79be e095 013d 742d c33c 7a3e 533d
00000240: ace2 e23d 6e31 fa3a f3ab 093d c6c4 9dbd
00000250: 5c5a 2fbe 6d5d a63d 3745 03bc b20f d43b
00000260: 838f 343e 7a6a 88bd ed4d 3b3d d516 acbd
00000270: ec1a c63c 6618 a9be 3ce6 e2bd 9f6a 083c
00000280: 4c31 853c a084 8abe 63cf dabb f785 19be
00000290: 6c58 69be 22f0 63be 7293 6d3d daa4 d13b
000002a0: db91 123e bbd1 7dbe 317c 81be 502b 703b
000002b0: 9575 6d3d 2179 223c 8854 27be f6d7 de3d
000002c0: 402d b9bb b6ab 02bf 66c5 343e 4db8 8dbd
000002d0: 63ed 043d 9327 0ebe f818 033e 927a 183d
000002e0: 410d 75bd bef3 bb3d 1008 133e 8fca 993d
000002f0: ad4a c73c ad37 7b3d 856f 053e 3dc8 813d
00000300: 4fcb da3c a274 c2bd 957f 2d3e 10cc c5bc
00000310: 40af dabc af4c 373e 2de5 40be 12d2 353d
00000320: db2b e3bb 6197 653d 671e 1e3d 1c16 253e
00000330: bd67 22be 30fa 43bd 8c24 1e3d 039b 4cbc
00000340: 29f0 00be cddc babc 59d2 7f3c 6487 6d3e
00000350: ba1e 70bc 6905 27bd f4de 2ebe 8327 debd
00000360: d90e c1b9 c3b3 04bb e1be 2abe e889 b73c
00000370: 0860 103e a034 43bd 3417 87be e2a0 e1bb
00000380: e865 633c feb0 a9be da5c 1c3d 1079 ef3d
00000390: 923d 6dbd 878d ccbd da33 bebd 6329 bbbd
000003a0: a1cf a2bd 2e34 443e b811 0dbc 3ba5 933d
000003b0: 8f48 4b3d 47d8 c7bb fe71 90be f747 2e3e
000003c0: 2557 0c3e 5675 1ebe 1392 9f3e 0cc4 55be
000003d0: 6068 aebd eaec a3bd f363 453e aba5 713d
000003e0: 9ee1 563d ec86 743d f90a 29be fb22 e3bd
000003f0: ea45 283e d7da e83c d008 fc3d 4112 c13e
0.07780494 -0.10846831 0.035912305 0.07097422 0.11462881 -0.12864304 -0.22489043 -0.2590485
-0.061904192 0.15664293 -0.10277295 0.29155216 -0.064797595 0.12647007 -0.122881174 0.053493574
-0.11251711 0.021974685 -0.046357498 0.1139457 0.077500544 0.17510515 -0.013243678 0.12159569
0.185729 -0.01706855 -0.012983538 0.07317469 -0.096550316 0.073876336 -0.10492112 0.15449826
-0.14661367 -0.07743953 0.07734812 0.14261822 -0.02440684 0.15638635 0.10091619 -0.06641477
0.050401937 0.026366882 0.15436691 -0.07068629 -0.14194313 -0.0030943837 0.064247385 0.026257096
-0.14160222 -0.1900661 -0.013525976 -0.0119907195 -0.044031087 -0.04747327 0.09355757 0.0962116
0.04408309 0.01942559 0.04964246 -0.052445587 0.04580948 -0.06481055 -0.2033528 0.0021840741
-0.008646374 0.014695874 -0.09343568 -0.17756253 -0.28491944 -0.25293192 -0.15604861 -0.413802
-0.058830373 -0.004326475 -0.008370259 0.016977994 0.07470763 0.11804259 -0.070469774 -0.043619145
0.0031355787 -0.095428884 0.100264005 -0.26048848 0.030215103 -0.07477845 0.31087372 -0.07901754
0.20980014 -0.02676741 -0.019921787 -0.29057926 0.056523826 -0.00752697 0.06905484 0.012821355
-0.07619351 0.04737388 0.03941118 -0.3562973 -0.07044723 0.07964438 -0.23067386 -0.055475876
0.07125857 -0.08668732 0.06554884 0.0061785663 -0.08457186 0.26994205 0.10350055 0.09079672
-0.31838763 0.14134905 0.16087909 0.06860336 0.028977705 0.12521301 -0.028729528 0.16872238
-0.15370375 -0.002249444 -0.12283736 -0.13189046 -0.15276188 0.020805536 -0.03225833 -0.08332795
-0.17966573 -0.1210537 0.08709008 -0.17434734 -0.03273026 -0.081123695 0.07973068 0.080400325
-0.06856174 -0.05475854 -0.034876052 -0.13049215 -0.24356498 0.031637073 0.023825385 0.051573254
0.110783905 0.0019088218 0.03361125 -0.07703547 -0.17124313 0.08123288 -0.008012108 0.0064715976
0.1763287 -0.06660934 0.045728613 -0.08402792 0.02418276 -0.33026427 -0.1107907 0.008326202
0.016258858 -0.2705431 -0.0066775545 -0.1499251 -0.22787637 -0.22259572 0.058001943 0.0063978257
0.14313452 -0.24787037 -0.25290063 0.003664691 0.057973463 0.009916575 -0.1634084 0.10881035
-0.005651146 -0.5104326 0.17653427 -0.06919918 0.032452952 -0.13882284 0.12802494 0.037226267
-0.059827093 0.091773495 0.14358544 0.07509338 0.0243276 0.061332393 0.13030823 0.063370205
0.026708273 -0.09494902 0.169432 -0.024145156 -0.026694894 0.17900346 -0.18837424 0.04438979
-0.006932718 0.05605257 0.038603213 0.16121715 -0.15859886 -0.04784602 0.038609073 -0.01248813
-0.12591614 -0.022810364 0.015614116 0.23196179 -0.014655763 -0.040776644 -0.17077237 -0.1084738
-0.0003682289 -0.0020248748 -0.16674377 0.022404626 0.14099133 -0.04765761 -0.2638489 -0.006885634
0.013879277 -0.33142847 0.038174488 0.11693013 -0.057920046 -0.09987932 -0.09287234 -0.09138753
-0.07949758 0.1916053 -0.0086101815 0.072092496 0.049629744 -0.0060987803 -0.2821197 0.1701964
0.13705118 -0.15474448 0.31166133 -0.20875567 -0.08516002 -0.08004172 0.19276409 0.058995884
0.05246126 0.059698984 -0.16508092 -0.11090656 0.1643292 0.028424663 0.12306368 0.3770924

bias f4 [128]
00000000: 0eef 443d 7ab7 24be 23fc 393d 506e 9bbe
00000010: 7d7e ccbd 737e 03be 16e6 96bd 7e22 49bd
00000020: 9a7b 99bc b716 3aba 6466 c7bd 45ed 073e
00000030: 0dbc 24bd 8abe 233c 1210 3ebd 8287 35be
00000040: 051b 343d 9ec1 0f3d 98c1 28be fb56 f6bd
00000050: ac90 8d3c 1e3b b53c d00a b23d 1f07 053d
00000060: ffa6 b63d 4c47 33be 6e0b 81bd b285 09bd
00000070: 57d5 223c dcc6 f6bd 0da8 94bd f2d1 4ebc
00000080: 4e0d 19bd 2679 7d3d cff2 8f3d 227b 953c
00000090: 3a6c 00be 085c 06bd 56e2 b1bd 4476 623d
000000a0: 8524 893d bc93 e43d 4863 ffbc a176 e93c
000000b0: 79cc 963d 66db 033e 7f8a 143c 4f11 d2bd
000000c0: c3e1 f63d df4a 65bc 5dce 36be cc63 3f3d
000000d0: 9385 0abe 3b28 c6bd 4eaf b3bd f6cc e1bd
000000e0: ac79 23be f3f1 c23b 3572 e23c 2877 efbd
000000f0: ec96 b43d 58c9 063d 1230 dbbd 7a30 f1bd
00000100: 1fdf 50bd c6a6 88bd 5b19 d23d b7bb 76bc
00000110: 0d67 89bd 6cd9 1b3d 3c5b 44bd 0282 14be
00000120: 5a3d bfbd cb54 63be 1c26 90bd 0a68 50be
00000130: a6db 7abd 1b47 fd3c 9614 f93c 8ba6 45bd
00000140: 4a67 47bc 5ddb 73bd 956a 523d 4504 8e3d
00000150: 6483 793d 0438 f4bb eee1 e0bd 3a19 243d
00000160: 64f9 cebd 5a82 12be ea3a dfbd 5297 3f3d
00000170: 67d1 e7bd 6313 1abd a6c1 5a3d edd3 07be
00000180: 4695 26bd 518a df3d b837 223c 90ad 5fbd
00000190: c950 b53d fd3d 8abd 8ca5 6c3d 24f3 02bd
000001a0: 2945 d7bc a0bf 913d b457 b93d 9840 973d
000001b0: 7050 a03c d2e1 863d 7caf d93d edde b53c
000001c0: 5991 d93d 5b4c 883d 0d49 563d a702 83bd
000001d0: 4881 dabd 36c1 36bd c547 0e3e dcae df3d
000001e0: 9f58 1f3d 6411 6a3d ccad 99bc 49f8 b0bc
000001f0: 8d67 e1bd 2a7e e63d 0244 033d 7387 c4bd
0.048079543 -0.16085616 0.045406472 -0.303576 -0.09985063 -0.12841205 -0.07368104 -0.04910516
-0.018735696 -0.00070987217 -0.09736326 0.13274105 -0.0402184 0.0099941585 -0.046402045 -0.17727473
0.04397108 0.035096757 -0.164801 -0.12028309 0.017280899 0.022122916 0.086934686 0.032477494
0.08918571 -0.17507666 -0.06301008 -0.033574767 0.0099385595 -0.12049648 -0.07258616 -0.012623297
-0.037366204 0.061883114 0.07028734 0.01824719 -0.12541285 -0.03280261 -0.08685748 0.05528857
0.06696419 0.111609906 -0.03117527 0.02849895 0.07363219 0.12876663 0.009066223 -0.102572076
0.120547794 -0.013994901 -0.17852159 0.046726033 -0.13527517 -0.09675642 -0.08773671 -0.11025421
-0.15964383 0.0059492528 0.027642349 -0.11692649 0.088178486 0.03290686 -0.10702528 -0.11776824
-0.050994035 -0.066724345 0.102587424 -0.015059403 -0.067091085 0.038049147 -0.04793857 -0.14502719
-0.09337874 -0.22200315 -0.07038519 -0.20352188 -0.06124463 0.030917695 0.030405324 -0.04825453
-0.012170622 -0.059535373 0.051371176 0.06934408 0.06091632 -0.0074529666 -0.10980593 0.04006312
-0.10106161 -0.14307538 -0.10899909 0.04677517 -0.11319237 -0.037616145 0.053407334 -0.13264437
-0.040669702 0.10915054 0.00990098 -0.05460888 0.08853299 -0.067501046 0.057775065 -0.03197016
-0.026278095 0.07116628 0.09049931 0.07385367 0.019569606 0.065860406 0.10629174 0.022201026
0.10623426 0.06655189 0.05231576 -0.0639699 -0.1066919 -0.044617854 0.13894565 0.10922024
0.038902875 0.05714549 -0.01875963 -0.021602767 -0.11006079 0.11254533 0.03204728 -0.095961474

weight f4 [128, 128]
00000000: 1679 473d 28ce 803b 42ef afbd aec1 1fbd
00000010: 0ab4 f13c 2d85 80bd 3066 68bd 069f 833a
00000020: b0dd 213d b0bb 80bd 0676 9fbd 1f2e 3abd
00000030: 629d bdbd 1632 d0bb cbc2 d9bc 0e69 a4bc
00000040: 5b7f 1d3d 933c 523c 10f6 6cbd fea5 53bd
00000050: 3b0a 80bd 9774 80bb 341b e8bd 3481 8abd
00000060: b58f 98bc 9205 133d c02d 9fbd 10e7 6a3d
00000070: a8de c73c d042 a43d 702a b3bd e484 df3c
00000080: f916 c23c add0 0fbc e362 8d3c b782 b73c
00000090: 7502 aebd 5edf 89bd af22 6c3d ef19 0d3d
000000a0: 2977 0b3d 54ec 79bd 2368 b73c a417 9d3d
000000b0: 231d e6bb e196 17bd 2201 3abd ab4a f83c
000000c0: 52e7 b9bd 3d03 93bd edd5 55bd 2305 d7bc
000000d0: 07e2 4ebc 25ce b93c f8ca 7abd 2000 b6bd
000000e0: 291a 543d 2448 01bd bcc0 8dbd a18b cdbc
000000f0: 218c b8bd 861a d7bb 8939 a9bd 7088 b8bc
00000100: b42b 2bbd 9259 cabc 0df3 aebd f7b7 8f3d
00000110: 58cc a4bd 0825 4b3d 2108 00be 89f0 2ebb
00000120: 6375 323d 58cb 3ebc 27e4 54bd 8ae4 90bd
00000130: b183 a13d 2b63 70bc c9e4 e5bd 0d09 543c
00000140: d197 dd3c 7e26 aa3c 41aa 15bd 43d3 433b
00000150: b8b6 abbd 1469 b53b faf5 763d 0eff 26bd
00000160: 83ea 973d d8cc 533d 3a85 a9bd aa2d 933c
00000170: 69c6 00be e8b5 aebd c44b ed3c 296b 79bd
00000180: b5da bebd 6954 debc 4c86 5ebc a47e 86bc
00000190: f17f d4bc f999 4fbd 78cd 1cbd 9d3e 80bb
000001a0: 8279 91bd 2289 c8bd a26c 783c 709b 81bd
000001b0: aacd 5a3c a744 ebbc 12c0 183c 4fb9 443d
000001c0: 2a8d 303c 9f72 c93b 2c09 d7bd 3fd4 153b
000001d0: c252 7dbd 5b8a 7c3d e6a9 aabd 3943 df3b
000001e0: b911 4fbd 356f c3bd 8937 d5bd 0627 77bd
000001f0: 6116 663b dee0 4fbc 27b9 eebd 3de7 193d
00000200: 9d20 853d 70a3 02be c63f 45bb b594 2d3d
00000210: 2296 ea3b 1a7b d53d 83bb 1cbd 9d0d bcbc
00000220: 08a1 a2bd 577c c2bc 7308 8fbd 2699 99bd
00000230: 2865 d73d def1 d83d 3f38 97bd 9ae0 8d3a
00000240: 458a 08be c969 7f3d e938 b0bd 0e5c cbbc
00000250: 4447 0ebd c29f 89bd d8c4 6a3d 9a98 b73d
00000260: 61b4 123e 996a f7bc e1ac 953d 1fde 8cbd
00000270: 0cd1 bd3a dc9f 8abd d4f5 fcbd 5c0b 17be
00000280: 28f6 cebb f6b1 2c3d c3d4 e6bd e054 453d
00000290: 2245 4ebd b487 26be 3cc3 bcbc ef4c 2bbc
000002a0: 08fd 8e3d 2321 93bd 0026 2ebd 7fcc bcbd
000002b0: d264 afbd e753 9e3d c388 033e b759 1fbd
000002c0: 117e 603d 305e 9bbd 234d 6fbd ae2d 4cbd
000002d0: f2a5 493d 1ed6 0abd c65b 78bc d247 bd3d
000002e0: 3b34 63bd edfd 88bd 5c37 ddbe bc4b 2f3b
000002f0: 0b20 c83d 9cc6 563d ced4 ad3d 705d 56bd
00000300: 6020 37bd 7b45 23bd 71b4 b73d 14e3 223c
00000310: 6ff8 ba3b 1a2b ba3d 6053 233d 2a5f 74bd
00000320: ed9e 4dbe 4dcf 89bc ba89 243c 48df f3bc
00000330: c9dd 143c 7190 683b 1925 57bd dc80 973d
00000340: 599d 08bd 64af 63bd 252c d13d cfeb 463d
00000350: 858f 50bd 0a98 ab3c 71b0 983d a841 643c
00000360: 12d5 e7bd 9d37 29bb 1317 363d 3c45 b03c
00000370: a12b f7bd 9412 383d c399 153c d220 7ebe
00000380: e639 9ebb a539 10bd 2b0c 4cbc 0996 be3c
00000390: 902d ab3d 940b 603d 035e 1cbd 0df3 f9bd
000003a0: 9526 3f3c 14ac 96bc 2781 2dbe 7ff1 93bc
000003b0: 6030 efbd 4b7e 4abd 72ff 96bd 5e64 76bd
000003c0: f9e8 dc3c a7e0 803e 332c ad3d 8e7d ecbd
000003d0: 99b3 54bd 6bfe d1bd 59ba 763d cef7 b23d
000003e0: 4bc5 3b3e 7004 e23d d8e5 cbbd 5104 9b3d
000003f0: 13da e53d f226 dbbb c54d b23c b68d 9b3d
0.04869946 0.0039308257 -0.08590557 -0.039003067 0.029504795 -0.06275401 -0.05673808 0.00100419
0.03951806 -0.062857985 -0.07786183 -0.04545414 -0.09258534 -0.006353627 -0.026582142 -0.020069625
0.038451534 0.012831825 -0.05785185 -0.051671974 -0.06251951 -0.0039201486 -0.113333136 -0.06762925
-0.018623212 0.035893984 -0.07772398 0.057349265 0.024398163 0.08020556 -0.08748329 0.027285047
0.023692595 -0.0087777795 0.017259067 0.022401197 -0.084965624 -0.06732057 0.057650264 0.03444856
0.034049187 -0.061016396 0.022388523 0.07670525 -0.0070225163 -0.037009124 -0.045411237 0.030309042
-0.09077324 -0.07178352 -0.05220597 -0.026247567 -0.012627131 0.022681305 -0.061228722 -0.088867426
0.05178276 -0.03156294 -0.06921527 -0.025090994 -0.090111025 -0.006564441 -0.08262927 -0.022525996
-0.041789725 -0.024700914 -0.08542452 0.070175104 -0.08046788 0.049595863 -0.12503101 -0.0026693663
0.04356898 -0.011645161 -0.051975396 -0.0707484 0.07886446 -0.014672081 -0.11225278 0.012941611
0.02704993 0.020770308 -0.03653932 0.002988056 -0.0838446 0.005536208 0.060293175 -0.040770583
0.074177764 0.051709026 -0.08277364 0.01796611 -0.12575687 -0.085307896 0.028966792 -0.06089321
-0.09319059 -0.02713986 -0.013581824 -0.016417809 -0.025939913 -0.05068395 -0.038281888 -0.003913714
-0.07103254 -0.09791781 0.015162619 -0.063284755 0.013354698 -0.02871926 0.009323137 0.048028287
0.010775844 0.006147697 -0.10499796 0.0022862104 -0.061846502 0.061655384 -0.08333187 0.0068134335
-0.05055401 -0.095426954 -0.10410983 -0.06033995 0.0035108554 -0.01268789 -0.11656409 0.03757404
0.06500361 -0.12757659 -0.0030097826 0.042378146 0.0071590105 0.104238704 -0.038264763 -0.02295571
-0.079408705 -0.02374093 -0.069840334 -0.07499914 0.10517341 0.105930075 -0.07383775 0.0010824383
-0.13333996 0.062356744 -0.08604605 -0.024824169 -0.034735933 -0.067199245 0.05731663 0.08964653
0.14326622 -0.030202197 0.07308365 -0.06878304 0.0014481856 -0.06768772 -0.123515755 -0.14750427
-0.006315965 0.042161904 -0.1127105 0.048176646 -0.0503589 -0.16262704 -0.023042314 -0.010455354
0.06981856 -0.07184055 -0.04251671 -0.09218692 -0.08564152 0.07730847 0.12845139 -0.038903918
0.054807726 -0.07586324 -0.058423173 -0.04984825 0.049230523 -0.033895604 -0.015158599 0.09242214
-0.055469733 -0.066890575 -0.43206298 0.0026748022 0.09771737 0.052435502 0.08487855 -0.052335203
-0.04470861 -0.039861184 0.08969963 0.009941835 0.005705885 0.09090252 0.039874434 -0.059661068
-0.20080157 -0.016822482 0.010042602 -0.029769555 0.009086081 0.0035486484 -0.052525613 0.07397625
-0.033353183 -0.055587187 0.10213498 0.04856473 -0.05091812 0.020946521 0.074555285 0.013931669
-0.11319937 -0.0025820502 0.0444556 0.021517389 -0.120688684 0.044939592 0.009130898 -0.24817207
-0.0048286794 -0.035211224 -0.012454073 0.023264902 0.083583 0.05469854 -0.038175594 -0.122045614
0.0116669135 -0.0183926 -0.16943799 -0.01805949 -0.11679149 -0.04943685 -0.07372941 -0.06015431
0.026966559 0.25171396 0.08455696 -0.11547385 -0.05192909 -0.102536045 0.06023631 0.08738671
0.1833698 0.11036003 -0.099559486 0.07569183 0.11223235 -0.0066879923 0.021765599 0.075953886

bias f4 [128]
00000000: cde0 e0bd d8d0 c03d c5e1 733d f257 803d
00000010: 391e d7bd 0b42 f8bb 3b82 4dbd 8478 f1bd
00000020: cc58 f0bc 7128 463d c2a6 87bd 52da 3b3d
00000030: 1aa5 aebd 5c32 a9bc e386 363d 6d04 d83d
00000040: 6b7a 5dbb 7b8a 02be a3bd bcbd 96b0 ca3d
00000050: 8a46 993c d4dd aabd 5588 6abd 7437 a8bd
00000060: 5bc2 a23d 2d2b b83d 2d22 9f3d 0a43 b8bc
00000070: 4533 673d 8053 98bc 8777 cd3c e7d8 0c3e
00000080: 3237 563d 03cf 0abe 139d 55bd 2155 963d
00000090: f059 7ebd 0e0c 8bbd da35 843d 6451 59bd
000000a0: 7a13 c3bd 0783 c93d 302c de3c ef77 73bd
000000b0: 06e5 5abb 495a 31ba 5f00 0bbd 2030 d3bd
000000c0: 0525 033d 2f28 493d dc4b c8bd 2e4c ddbd
000000d0: ace6 f4bd d267 2c3d 8684 d83b 55cc dabd
000000e0: 0e60 75bd db84 eb3d e347 4bbd d409 fabd
000000f0: 738e 073d 2d9e a6bc 45f8 1cbd 3b8d 9abb
00000100: 3256 d8bd 547f 10bc fd12 ccbd c117 b3bd
00000110: 6126 c7bd 1bfd 483c c500 0dbd 3f1e aebd
00000120: 3021 2e3c 85a3 0e3e e0d3 b23c 3f76 6bbc
00000130: 6e66 e33d cc20 eabd c5eb c03c 7d8a 8dbd
00000140: 2915 f5bc fa38 30bd 7639 92bd 016d e2bd
00000150: a3fc 18be 616b 2c3d 935c fb3d 33a5 073e
00000160: f615 2f3d ab8a 77bd f6a9 8fbd 97f8 d5ba
00000170: b60a e2bb ed5a cb3d 0530 24bd 73ee f53c
00000180: a28e 86bd 25e3 2a3e 825f 3dbd 297f 063d
00000190: e4e8 4b3d 0176 963c 7a55 c63d 191b c3bd
000001a0: 0c44 14be ec74 81bd ea5d 8bbc 472d 0bbd
000001b0: d794 c93c 140d b63c a89e bbbc 8d08 0ebd
000001c0: 96c6 91be 7699 3b3d 75f9 833d 181a 05bc
000001d0: f0e2 44bd e6a5 433c f9d0 e83d eedd babc
000001e0: 9384 2bbd 8de0 703d da41 0dbd 04aa 94bd
000001f0: 496a 9f3d 3e9a b13c e2bc cf3d b01b b2bd
-0.10980377 0.09414834 0.059541482 0.06266774 -0.105038114 -0.0075762323 -0.050173026 -0.11790565
-0.029339217 0.04837841 -0.066236034 0.045862503 -0.085275844 -0.020653896 0.04456223 0.10547719
-0.003379489 -0.12748139 -0.09215858 0.09896962 0.018710393 -0.083430916 -0.057258923 -0.08213702
0.079472266 0.0899261 0.077701904 -0.022492904 0.05644538 -0.018594503 0.02508141 0.13754617
0.052298732 -0.13555531 -0.05215175 0.07340456 -0.06209749 -0.067894086 0.06455584 -0.053056136
-0.09525199 0.098394446 0.02712068 -0.05944055 -0.0033400669 -0.00067654677 -0.0339359 -0.103119135
0.032017726 0.049110588 -0.09780094 -0.10805546 -0.1195806 0.0420912 0.006607595 -0.106835045
-0.059906058 0.114999495 -0.049629103 -0.12208906 0.033094835 -0.020339096 -0.038322706 -0.004716543
-0.105633155 -0.00881942 -0.09964559 -0.08744765 -0.09724117 0.012267376 -0.034424562 -0.08501863
0.01062803 0.13929565 0.021829545 -0.014371454 0.11103521 -0.11432037 0.023549924 -0.0691118
-0.029917317 -0.043023087 -0.07139866 -0.11055947 -0.14940123 0.042094592 0.122735165 0.13246612
0.042745553 -0.06043498 -0.07014839 -0.0016324696 -0.0068982495 0.09929452 -0.040084857 0.030020928
-0.06570174 0.16688211 -0.04623366 0.032836113 0.04978265 0.018366816 0.09684272 -0.09526653
-0.14479083 -0.06321129 -0.017012555 -0.033978727 0.024607105 0.022223033 -0.022902802 -0.034676123
-0.28471822 0.04580065 0.064440645 -0.008123897 -0.048067987 0.011941409 0.11367983 -0.022810902
-0.04187448 0.0588079 -0.03448663 -0.072589904 0.07783944 0.021679994 0.101434484 -0.08696687
