nerf_models/monk_check2.pth (torch, 647484 bytes, 22 tensors)

weight f4 [128, 63]
-0.029864296 0.11733064 0.017016811 0.111672565 0.26301405 -0.0071322173 -0.13501413 -0.3087892
0.14082783 0.06787523 0.20991343 -0.07173776 -0.07620472 0.22232112 -0.2632167 -0.026416492
-0.08476837 -0.22115594 0.07162287 -0.18442835 -0.11668633 -0.15279838 0.10292906 0.090071216
0.27662128 -0.123115264 0.011108765 -0.009426198 -0.14176366 -0.102697976 -0.06857435 0.0954719
-0.24359576 0.001058009 -0.27511528 -0.22137706 -0.17038628 0.19003065 -0.32219964 0.32156825
0.14302064 -0.02216157 0.044811293 -0.090600476 -0.18076704 -0.15391646 -0.094725065 -0.13890341
-0.08963642 0.28293484 0.039610393 -0.2182508 -0.08510714 0.1260158 0.2828079 0.4290658
0.13088687 -0.08810557 0.058430932 -0.0032386966 -0.21657234 0.054947697 -0.12305799 0.09136266
-0.080667056 0.065786734 0.05066956 0.13260305 0.15278257 0.17070754 -0.23422231 0.3223726
-0.0038098702 -0.1270648 -0.04862486 0.004491554 -0.013813413 -0.03801706 0.030037992 0.16155887
0.06673016 0.05080339 -0.010790203 -0.1683442 -0.02358143 0.24558482 -0.018191244 -0.11947948
-0.09856259 -0.043051336 -0.27373594 0.0666946 0.31624594 -0.055416983 -0.0013266088 0.023651803
-0.33697757 0.1553865 0.11214389 -0.057984497 0.11346114 -0.08449586 -0.09221339 0.4412574
-0.007190089 -0.18884687 0.09859181 0.16014752 0.050108362 0.21407786 0.37223858 0.13425939
-0.17795654 -0.19547665 0.12276576 0.044559784 0.37734237 0.0067672343 0.13887528 -0.10022851
-0.3219708 -0.06908342 -0.45223948 0.0033973544 -0.18590215 -0.20707108 0.0852835 -0.04648877
-0.02479502 0.10503424 0.040490065 0.17821869 -0.057907417 -0.017661119 0.14048007 -0.13322192
0.21175645 0.14390637 -0.08246958 -0.075939305 -0.017790314 -0.3448767 -0.15802264 -0.121989734
0.034673896 0.11681715 0.03700387 -0.015636962 -0.06141219 0.04060759 0.28511095 0.07255984
0.28599843 0.10087724 0.13882819 -0.154288 0.12327098 0.12557751 -0.026086256 0.11473848
-0.31909788 -0.14311475 0.12892292 0.12514874 0.14367919 0.0084828595 0.050264493 0.29094556
-0.17708082 -0.3735044 -0.16404536 0.263742 -0.017845668 0.057045788 0.31442624 0.11531141
0.15028709 -0.115423456 -0.18834187 -0.047387514 0.42739728 -0.3988306 0.13864768 -0.35678315
0.008112164 -0.39672896 0.029311515 0.47571498 0.020815048 -0.068047956 -0.03373217 0.029239267
-0.020695183 0.24170095 0.13929705 0.015327518 -0.13100496 0.1507664 -0.06427702 -0.21761726
-0.2159951 -0.12971595 -0.06345338 -0.109128796 0.1029847 0.10340359 -0.010970367 -0.056629874
0.0132455025 -0.22560354 -0.13031946 -0.10829642 0.04294881 -0.25284633 -0.16366912 0.08463227
0.2201677 -0.26550674 0.18728296 -0.11482574 -0.16271311 -0.12170004 -0.16267078 -0.0185432
-0.15340701 0.122124106 0.027870994 -0.11917241 0.34541225 0.19551764 0.2403269 0.21161006
-0.16507459 0.1834314 0.19370948 0.21283992 -0.039813146 -0.004502353 -0.43014255 0.2575225
-0.20930214 0.33885607 -0.40794882 0.086001046 -0.24797852 0.111818105 0.1393497 -0.22102639
0.1406143 0.05222193 0.055222053 -0.02571911 0.033487245 0.0075273025 0.08106623 0.08518322
00000000: f8a5 f4bc 0c4b f03d d766 8b3c 96b4 e43d
00000010: c7a9 863e 60b5 e9bb 2541 0abe 9e19 9ebe
00000020: 2c35 103e 2b02 8b3d 8cf3 563e 3feb 92bd
00000030: 3811 9cbd 26a8 633e 57c4 86be 6667 d8bc
00000040: 0a9b adbd b476 62be 03af 923d c9da 3cbe
00000050: 3ef9 eebd 2e77 1cbe 79cc d23d 4277 b83d
00000060: 4ea1 8d3e db23 fcbd 8a01 363c 5770 1abc
00000070: 7e2a 11be 5153 d2bd b570 8cbd c686 c33d
00000080: 2b71 79be e4ac 8a3a e9db 8cbe abb0 62be
00000090: be79 2ebe 6597 423e 5af7 a4be 98a4 a43e
000000a0: 0174 123e 2e8c b5bc 0c8c 373d be8c b9bd
000000b0: ff1a 39be 479c 1dbe 37ff c1bd b23c 0ebe
000000c0: 4d93 b7bd d6dc 903e 823e 223d 237d 5fbe
000000d0: a74c aebd 490a 013e 32cc 903e 83ae db3e
000000e0: 3507 063e b170 b4bd 4655 6f3d 5040 54bb
000000f0: 24c5 5dbe d610 613d d405 fcbd 591c bb3d
00000100: c534 a5bd 32bb 863d e28a 4f3d 18c9 073e
00000110: 0973 1c3e f5cd 2e3e f9d7 6fbe 050e a53e
00000120: 04af 79bb 461d 02be dc2a 47bd e32d 933b
00000130: a751 62bc c7b7 1bbd 3c12 f63c b06f 253e
00000140: d2a9 883d 3717 503d 64c9 30bc 6c62 2cbe
00000150: d82d c1bc 967a 7b3e ce05 95bc a8b1 f4bd
00000160: 2fdb c9bd 9956 30bd 1e27 8cbe 2e97 883d
00000170: fdea a13e ebfc 62bd 9be1 adba 6dc1 c13c
00000180: 5388 acbe a31d 1f3e b2ab e53d 2781 6dbd
00000190: 505e e83d 2a0c adbd 60da bcbd 7dec e13e
000001a0: d79a ebbb 1361 41be 81ea c93d b6fd 233e
000001b0: 6d3e 4d3d 3a37 5b3e 0e96 be3e 4b7b 093e
000001c0: 3d3a 36be 082b 48be 9d6c fb3d 5284 363d
000001d0: 0533 c13e adbf dd3b 5235 0e3e 9b44 cdbd
000001e0: 5bd9 a4be 9c7b 8dbd ef8b e7be 26a6 5e3b
000001f0: 225d 3ebe 710a 54be 1ea9 ae3d 026b 3ebd
00000200: ed1e cbbc 311c d73d e9d8 253d f67e 363e
00000210: 5430 6dbd 0dae 90bc 02da 0f3e 546b 08be
00000220: afd6 583e 315c 133e d0e5 a8bd 1186 9bbd
00000230: febc 91bc ae93 b0be b0d0 21be c1d5 f9bd
00000240: 3706 0e3d d43d ef3d 5f91 173d 1619 80bc
00000250: 598b 7bbd 2554 263d 10fa 913e 419a 943d
00000260: 636e 923e ba98 ce3d fa28 0e3e acfd 1dbe
00000270: 7f75 fc3d 6497 003e d8b2 d5bc 02fc ea3d
00000280: cc60 a3be ac8c 12be 5f04 043e fe26 003e
00000290: a320 133e b1fb 0a3c 24e2 4d3d d1f6 943e
000002a0: ad54 35be f83b bfbe 82fb 27be 3109 873e
000002b0: 1431 92bc d8a8 693d 7afc a03e 6328 ec3d
000002c0: dce4 193e 2263 ecbd b1dc 40be 6919 42bd
000002d0: d1d3 da3e 8633 ccbe a8f9 0d3e 48ac b6be
000002e0: e2e8 043c 0f20 cbbe b41e f03c ea90 f33e
000002f0: 5284 aa3c ba5c 8bbd be2a 0abd 3087 ef3c
00000300: f288 a9bc 7480 773e e3a3 0e3e 4520 7b3c
00000310: 2a26 06be 8262 1a3e aca3 83bd 0fd7 5ebe
00000320: d22d 5dbe 42d4 04be d8f3 81bd eb7e dfbd
00000330: a4e9 d23d 43c5 d33d 0ebd 33bc baf4 67bd
00000340: aa03 593c 9d04 67be 7772 05be 83ca ddbd
00000350: 17eb 2f3d 1375 81be e198 27be af53 ad3d
00000360: a473 613e 80f0 87be 1bc7 3f3e c229 ebbd
00000370: 449e 26be df3d f9bd 2b93 26be e9e7 97bc
00000380: ba16 1dbe 341c fa3d b651 e43c aa10 f4bd
00000390: e0d9 b03e c735 483e 4118 763e 4fb0 583e
000003a0: 5009 29be 71d5 3b3e c75b 463e b5f2 593e
000003b0: 1c13 23bd 7988 93bb a53b dcbe fdd9 833e
000003c0: 4d53 56be 8b7e ad3e abde d0be 5121 b03d
000003d0: 15ee 7dbe e400 e53d b0b1 0e3e be54 62be
000003e0: 32fd 0f3e aae6 553d 8530 623d e2b0 d2bc
000003f0: ec29 093d 97a7 f63b 0d06 a63d 8a74 ae3d

bias f4 [128]
-0.20244257 0.0069385506 -0.10240159 -0.22055939 -0.098114714 -0.19430317 -0.07516361 -0.20208302
-0.0064050243 -0.19965078 -0.32482934 -0.16803053 -0.23329361 -0.23029782 -0.36479172 -0.10963494
-0.07972168 -0.124534 -0.17616186 -0.40348053 -0.31983864 -0.25323308 -0.24916339 -0.108696856
-0.24773121 -0.076863475 -0.26282457 -0.2285065 -0.33481112 -0.2659485 -0.15598784 -0.25113687
-0.3082353 -0.21423051 -0.20255475 -0.17468539 -0.33528927 -0.16092215 -0.15232188 -0.295411
-0.11424105 -0.18810916 0.004534913 -0.07609099 -0.16345443 -0.29838037 -0.076470904 -0.16016658
-0.2710473 -0.10838524 -0.075813115 -0.2519467 -0.3444085 -0.043402795 -0.10193682 -0.26443204
-0.18913002 -0.029979836 -0.2408239 -0.050625276 -0.34168026 -0.19026424 -0.06023288 -0.117042236
-0.12663996 -0.11194599 -0.20038451 -0.25334328 -0.14234447 -0.13261965 0.031628877 -0.23268321
-0.27972582 -0.20769878 -0.058250707 -0.1973749 -0.21104473 -0.16765754 -0.1367955 -0.15246826
-0.27494004 -0.13255389 -0.22465667 -0.22779974 -0.105774455 -0.31853932 -0.12227152 -0.11989591
-0.24169748 -0.114464186 -0.24196143 -0.30389887 -0.20813188 -0.34866044 -0.3401416 -0.2007426
-0.15303306 -0.15373407 -0.3242587 -0.287943 -0.104471214 -0.11302658 -0.19978762 -0.20161569
-0.16084608 -0.221856 -0.08241339 -0.08863216 -0.12871818 -0.16912945 -0.09898895 -0.3049376
-0.1361306 -0.29068655 -0.28108132 -0.14990728 -0.16151191 -0.09972355 -0.2098751 -0.24346554
-0.033589467 -0.29866445 -0.22890353 -0.235431 -0.121288866 -0.13791619 -0.19968128 -0.105429195
00000000: 1b4d 4fbe c85c e33b edb7 d1bd 52da 61be
00000010: 5ef0 c8bd 69f7 46be 61ef 99bd daee 4ebe
00000020: 3de1 d1bb 4171 4cbe 0850 a6be 3210 2cbe
00000030: 85e4 6ebe 31d3 6bbe fbc5 babe 4988 e0bd
00000040: 1f45 a3bd af0b ffbd c663 34be 0095 cebe
00000050: e4c1 a3be c4a7 81be b024 7fbe 759c debd
00000060: 40ad 7dbe 996a 9dbd f190 86be 9cfd 69be
00000070: 5d6c abbe 672a 88be 47bb 1fbe 0395 80be
00000080: 04d1 9dbe 3e5f 5bbe 836a 4fbe bae0 32be
00000090: 09ab abbe c7c8 24be 44fa 1bbe 1c40 97be
000000a0: 36f7 e9bd b09f 40be 9c99 943b 98d5 9bbd
000000b0: 9960 27be 50c5 98be c79c 9cbd b502 24be
000000c0: b6c6 8abe 15f9 ddbd e843 9bbd 28ff 80be
000000d0: 5056 b0be 21c7 31bd 40c4 d0bd a363 87be
000000e0: 4dab 41be 4698 f5bc 8a9a 76be 735c 4fbd
000000f0: b7f0 aebe a1d4 42be c1b6 76bd d7b3 efbd
00000100: e8ad 01be f043 e5bd 9931 4dbe 36b6 81be
00000110: c0c2 11be 72cd 07be 488d 013d 8244 6ebe
00000120: 3938 8fbe fdae 54be 4b98 6ebd a51c 4abe
00000130: 1c1c 58be 6bae 2bbe 1f14 0cbe a420 1cbe
00000140: f1c4 8cbe 35bc 07be 660c 66be 5644 69be
00000150: 47a0 d8bd 9617 a3be 7e69 fabd fd8b f5bd
00000160: 8b7f 77be 336c eabd bdc4 77be a298 9bbe
00000170: 8620 55be 9f83 b2be 0a27 aebe 788f 4dbe
00000180: b3b4 1cbe 776c 1dbe 3c05 a6be 446d 93be
00000190: 01f5 d5bd 7b7a e7bd 2095 4cbe 5874 4ebe
000001a0: d6b4 24be 382e 63be 5ac8 a8bd c784 b5bd
000001b0: b3ce 03be 4530 2dbe b8ba cabd c820 9cbe
000001c0: d265 0bbe ded4 94be e4e9 8fbe 4b81 19be
000001d0: 6163 25be dc3b ccbd 80e9 56be 084f 79be
000001e0: 1c95 09bd 8cea 98be b065 6abe d314 71be
000001f0: 4c66 f8bd e739 0dbe 4079 4cbe 43eb d7bd

weight f4 [128, 128]
-0.05332127 0.16100205 -0.15690751 -0.037077043 0.25101343 -0.19975623 -0.0021661753 0.09465893
0.15347253 0.0052605416 0.031689983 -0.10045516 0.014299104 0.15265039 -0.063891284 -0.092118345
-0.0751086 0.07293554 0.010884551 -0.0927031 0.030261373 -0.29794526 0.009854663 -0.056743782
-0.21089739 -0.24265906 -0.23280819 -0.051293533 -0.036997393 0.18202087 0.1575691 0.11534509
0.26890936 -0.20008099 0.09710902 0.047352258 -0.25772768 -0.29218417 0.1838185 -0.3027128
-0.12510926 -0.17575367 -0.023564652 0.16842687 -0.054647177 -0.0102313105 -0.17463121 -0.2884234
-0.11117882 0.025346724 0.099367365 -0.012285511 0.104058325 -0.050454427 -0.022715554 -0.17158572
0.037709076 -0.058566254 0.08706406 -0.014889852 -0.043463163 0.047846727 0.1975645 -0.0011514587
0.009567646 0.15543377 0.05871022 -0.27839938 0.028766366 -0.019865213 0.038271517 -0.09523824
0.19973479 -0.13074608 0.19879757 -0.026099293 0.03062747 -0.014672699 0.107013784 -0.23107657
-0.109833226 -0.03649555 0.051400583 0.0033555955 0.10201411 0.018360179 0.07230398 -0.028039774
-0.069283776 0.03867788 0.13192695 -0.01023718 -0.018655015 0.12569623 -0.19111922 -0.098412625
-0.014794446 -0.11608408 0.2843968 0.071129635 0.04231755 0.07261446 0.19380805 -0.2029311
0.089781016 0.12598896 -0.11882505 0.10142204 -0.11740126 0.0901247 -0.043796472 0.06506392
0.100833766 0.1347507 -0.0065876874 -0.033870906 -0.032502573 -0.035654403 0.22300257 -0.044893183
0.115766555 -0.039998643 -0.10989783 0.16212425 -0.082666904 0.19092688 -0.34726208 0.079612926
-0.10583962 -0.35219768 0.06059723 0.039280556 -0.27153656 -0.12769853 -0.14399631 -0.14241233
0.1310938 0.08972778 -0.03579819 0.16215764 0.118214 0.14755133 0.34533626 0.09193039
0.091143005 0.053222302 -0.09368194 0.17477773 -0.1917114 -0.11968093 -0.057785504 0.07477176
-0.06077152 -0.10685392 0.0033214695 -0.006680519 -0.20506507 -0.03437664 0.078553274 0.11674688
0.0069230483 -0.25048828 -0.29349574 0.2965833 0.18511777 0.034465257 -0.013591807 -0.1961783
0.09034004 0.0150294695 0.04662279 0.10399499 -0.092617095 0.031956393 -0.1241302 -0.17410113
-0.12646608 0.14069276 -0.090584695 0.06341705 0.13100943 0.07334406 0.046682153 -0.016282529
0.019885024 -0.15942349 0.114401475 -0.07569102 0.09481194 -0.11242277 -0.043559086 -0.096309625
0.11934336 0.092725836 -0.2371254 0.10409375 -0.11269962 0.13194498 -0.00616768 0.0835204
-0.10656076 0.104817145 0.13350177 -0.19163907 0.1553585 0.0727663 -0.08360347 -0.33888605
0.062507935 0.28261706 0.12902813 -0.13651702 0.024939902 -0.049058896 -0.04820337 0.22362146
-0.041099694 0.043937635 -0.118652016 -0.20089014 -0.23412137 0.16363843 -0.16424914 -0.08755929
-0.085531615 -0.1640825 0.030404571 -0.11510825 -0.30930123 -0.028081918 -0.392743 -0.18578075
0.082546175 -0.20387512 -0.029435484 0.14106649 -0.04834598 0.04608402 -0.23804413 0.005419386
0.08277927 0.009023355 0.09932566 -0.03743451 0.090151966 -0.155473 -0.15274504 0.013396456
0.058357853 0.05330274 0.081823826 0.21346639 0.03187328 0.14427367 -0.35828632 -0.10919154
00000000: 6767 5abd b9dd 243e 5dac 20be 19de 17bd
00000010: d584 803e e68c 4cbe 64f6 0dbb 8bdc c13d
00000020: e727 1d3e 9f60 ac3b 5bcd 013d 6fbb cdbd
00000030: ca46 6a3c 6250 1c3e 6fd9 82bd 8ba8 bcbd
00000040: 8ad2 99bd 3a5f 953d 1e55 323c 1fdb bdbd
00000050: b3e6 f73c 488c 98be 7475 213c 2b6c 68bd
00000060: 7cf5 57be 9e7b 78be 4565 6ebe 2b19 52bd
00000070: 948a 17bd ae63 3a3e cb59 213e 0c3a ec3d
00000080: 7dae 893e 08e2 4cbe 18e1 c63d 71f4 413d
00000090: e2f4 83be 2a99 95be eb3a 3c3e 2cfd 9abe
000000a0: a41c 00be c5f8 33be a80a c1bc 1878 2c3e
000000b0: b8d5 5fbd 3aa1 27bc 86d2 32be 3bac 93be
000000c0: b9b1 e3bd efa3 cf3c 1e81 cb3d 2b49 49bc
000000d0: 881c d53d 4da9 4ebd f815 babc 2bb4 2fbe
000000e0: d574 1a3d 2be3 6fbd a44e b23d 91f4 73bc
000000f0: 6e06 32bd eefa 433d 594e 4a3e 8bec 96ba
00000100: 9ec1 1c3c 082a 1f3e 217a 703d 5d8a 8ebe
00000110: 71a7 eb3c 5fbc a2bc 98c2 1c3d 440c c3bd
00000120: 4787 4c3e 4de2 05be 9791 4b3e 2fce d5bc
00000130: 76e6 fa3c c365 70bc 0b2a db3d 569f 6cbe
00000140: 3ef0 e0bd 5c7c 15bd 6b89 523d 8de9 5b3b
00000150: c6ec d03d 1668 963c 1c14 943d abb3 e5bc
00000160: a7e4 8dbd b26c 1e3d dc17 073e d8b9 27bc
00000170: 67d2 98bc 83b6 003e c2b4 43be 8f8c c9bd
00000180: 6764 72bc 7dbd edbd 759c 913e 6aac 913d
00000190: 2b55 2d3d e4b6 943d 9e75 463e 2ccd 4fbe
000001a0: 1cdf b73d 4003 013e 8c5a f3bd 5cb6 cf3d
000001b0: 1270 f0bd 4c93 b83d ee63 33bd 3c40 853d
000001c0: ef81 ce3d 16fc 093e 87dd d7bb 38bc 0abd
000001d0: 6b21 05bd 5a0a 12bd c95a 643e eae1 37bd
000001e0: 0417 ed3d 9ed5 23bd 1d12 e1bd e603 263e
000001f0: 444d a9bd 5682 433e 56cc b1be 1a0c a33d
00000200: 71c2 d8bd 4153 b4be cd34 783d a6e4 203d
00000210: d706 8bbe 67c3 02be c573 13be 8ad4 11be
00000220: 743d 063e 33c3 b73d 1fa1 12bd a70c 263e
00000230: 2e1a f23d b217 173e eacf b03e 0046 bc3d
00000240: 2fa9 ba3d a1ff 593d 51dc bfbd eff8 323e
00000250: fe4f 44be 471b f5bd 7eb0 6cbd f021 993d
00000260: 8feb 78bd 3ad6 dabd 03ad 593b 41e8 dabb
00000270: 94fc 51be 85ce 0cbd 8ae0 a03d fd18 ef3d
00000280: bdda e23b 0040 80be 1345 96be c4d9 973e
00000290: 838f 3d3e 712b 0d3d 2cb0 5ebc f7e2 48be
000002a0: 3304 b93d 2a3e 763c 8af7 3e3d 53fb d43d
000002b0: 08ae bdbd b5e4 023d f937 febd 9147 32be
000002c0: 5380 01be c311 103e 7884 b9bd cce0 813d
000002d0: 5627 063e 6935 963d c935 3f3d f062 85bc
000002e0: ebe5 a23c e93f 23be 524b ea3d e503 9bbd
000002f0: c32c c23d e93d e6bd 036b 32bd fb3d c5bd
00000300: 4b6a f43d 0be7 bd3d 00d1 72be 1b2f d53d
00000310: 0fcf e6bd 961c 073e 401a cabb be0c ab3d
00000320: 873c dabd 5faa d63d b0b4 083e 083d 44be
00000330: 4c16 1f3e 7f06 953d 4c38 abbd 7982 adbe
00000340: 2904 803d 2fb3 903e f31f 043e 1ecb 0bbe
00000350: c44e cc3c fbf1 48bd e670 45bd 06fd 643e
00000360: 2758 28bd f3f7 333d d4ff f2bd 25b6 4dbe
00000370: 83bd 6fbe d590 273e ed30 28be 4952 b3bd
00000380: 332b afbd 3e05 28be 0213 f93c e0bd ebbd
00000390: bb5c 9ebe 0d0c e6bc 9c15 c9be 4f3d 3ebe
000003a0: f80d a93d a4c4 50be af22 f1bc bc73 103e
000003b0: 6f06 46bd 99c2 3c3d d7c1 73be 1b95 b13b
000003c0: 2e88 a93d b2d6 133c 406b cb3d ee54 19bd
000003d0: 98a1 b83d 5034 1fbe 3269 1cbe cf7c 5b3c
000003e0: a508 6f3d f953 5a3d 4093 a73d ef96 5a3e
000003f0: 8e8d 023d 7abc 133e 4e71 b7be d09f dfbd

bias f4 [128]
0.03543668 0.035407506 -0.05284123 -0.08243474 -0.09678257 -0.0029731137 -0.044268973 -0.06225443
0.0094764875 -0.018450439 0.020134594 0.063742585 -0.11802176 -0.022750227 0.023155296 0.013085435
-0.0736355 -0.03811877 -0.020420577 -0.016250396 -0.15225714 -0.07736871 -0.047789987 0.05959247
0.033678412 -0.07794588 0.012036827 -0.012531467 0.0683875 0.05996435 -0.011277262 -0.054676816
0.045616902 -0.11587957 -0.012130433 -0.06650173 0.067580774 0.048962455 0.015886609 0.026093433
-0.06353489 -0.038678862 0.038373902 -0.14158106 0.02991811 -0.023915576 -0.04156279 -0.07868305
-0.043645736 -0.0058109704 0.024265254 0.049753994 -0.047204524 -0.022491105 -0.111821435 -0.043551568
-0.031947024 0.06600409 -0.064607225 0.078555636 0.017489064 0.06712508 -0.09145224 -0.08913687
0.08273155 -0.017097864 -0.029300509 -0.034665182 0.050522573 -0.009982784 0.020047339 0.039954606
-0.056964207 0.053889256 -0.05812665 0.11935304 -0.028581234 0.015511948 0.005737832 -0.054408975
-0.014579992 0.051202357 0.07653005 -0.117689736 -0.029391667 -0.055286475 0.020742554 -0.027383888
-0.050377186 -0.10108794 -0.010510693 -0.04718816 0.027986236 -0.035784338 0.057765655 0.020936364
0.071282215 0.05860456 -0.03368548 -0.08994512 -0.05104146 0.015512605 -0.022644548 0.054888148
0.0077365795 -0.085578725 -0.12083242 0.02128419 -0.018154845 -0.046367325 0.00088690186 -0.06199223
-0.06747362 -0.035912506 -0.0638104 0.08100368 -0.031675015 0.021514399 0.044731375 -0.15172213
-0.07972568 -0.064520024 -0.08662271 -0.019807938 -0.035695802 0.087555744 -0.1424669 -0.029882899
00000000: 0d26 113d 7607 113d 0c70 58bd 8cd3 a8bd
00000010: f135 c6bd 92d8 42bb 6253 35bd 80fe 7ebd
00000020: 4543 1b3c 6025 97bc 4ef1 a43c 798b 823d
00000030: 64b5 f1bd af5e babc 2db0 bd3c 4b64 563c
00000040: 36ce 96bd 6d22 1cbd 0e49 a7bc 8d1f 85bc
00000050: 4ce9 1bbe 7c73 9ebd 6fbf 43bd 3c17 743d
00000060: 60f2 093d 17a2 9fbd 1d36 453c c850 4dbc
00000070: bf0e 8c3d 2e9d 753d 44c4 38bc ccf4 5fbd
00000080: cad8 3a3d 4552 edbd b9be 46bc 0f32 88bd
00000090: ca67 8a3d db8c 483d a224 823c e5c1 d53c
000000a0: 951e 82bd ba6d 1ebd f42d 1d3d a0fa 10be
000000b0: d316 f53c 99ea c3bc be3d 2abd 9424 a1bd
000000c0: dfc5 32bd f469 bebb edc7 c63c d8ca 4b3d
000000d0: 8859 41bd 443f b8bc a302 e5bd 2163 32bd
000000e0: e2da 02bd 272d 873d cb50 84bd c7e1 a03d
000000f0: 3a45 8f3c e078 893d 504b bbbd 648d b6bd
00000100: 296f a93d d210 8cbc 9f07 f0bc 14fd 0dbd
00000110: c2f0 4e3d d58e 23bc 513a a43c 71a7 233d
00000120: 4d53 69bd fbba 5c3d 3616 6ebd 5e6f f43d
00000130: 3123 eabc d325 7e3c 6c04 bc3b f2db 5ebd
00000140: ebe0 6ebc 90b9 513d c9bb 9c3d 5107 f1bd
00000150: cbc6 f0bc 1274 62bd 4aec a93c 2d54 e0bc
00000160: 4f58 4ebd 3207 cfbd 0b35 2cbc 5f48 41bd
00000170: 6443 e53c 9992 12bd ae9b 6c3d bd82 ab3c
00000180: 69fc 913d 560b 703d c9f9 09bd 2635 b8bd
00000190: da10 51bd 9528 7e3c 0f81 b9bc 65d2 603d
000001a0: 2283 fd3b e643 afbd fd76 f7bd 2e5c ae3c
000001b0: 78b9 94bc aaeb 3dbd fa7e 683a 91eb 7dbd
000001c0: 9c2f 8abd fe18 13bd 07af 82bd 42e5 a53d
000001d0: a9bd 01bd f73e b03c 3f38 373d 0c5d 1bbe
000001e0: 3847 a3bd 1323 84bd 3f67 b1bd 4244 a2bc
000001f0: c335 12bd 6d50 b33d d8e2 11be fbcc f4bc

weight f4 [128, 128]
0.1233178 0.27679408 0.0809589 0.22864386 0.05771982 0.12890528 -0.35404631 0.25196046
-0.13340396 -0.059702147 0.03780165 -0.27762792 -0.074329585 0.17822468 -0.0673471 0.16453975
0.036055844 -0.0129731065 0.17984143 0.011002478 0.117191106 -0.07099424 -0.01968339 0.084380515
-0.1253146 -0.13448183 0.06720699 0.08094243 -0.030184114 0.05163711 -0.14672211 -0.07536998
-0.14900056 0.022129279 -0.42132384 -0.04474148 0.09887677 0.09810613 -0.11230324 -0.10164753
0.0032191176 0.054324668 0.03089501 -0.11851281 0.016422458 0.03619864 0.12744084 0.045483395
-0.078717895 0.004282417 -0.15738724 -0.32053086 -0.08518554 0.1286496 -0.0324071 -0.12783758
-0.124493815 0.1265063 -0.15457422 -0.21107651 0.14214543 0.11377574 0.047710553 0.044008534
0.23438498 0.094698094 0.06853246 0.18415187 -0.02192314 0.079695776 0.044530902 0.12761816
-0.09900615 0.09443574 -0.014917308 0.1337255 0.07389336 0.15363018 0.055365592 0.017323855
-0.01675776 0.029758181 -0.19081709 0.04748973 0.14143056 -0.110149376 -0.039205138 -0.03065097
-0.06921126 -0.051175408 0.12330552 -0.065178744 -0.08360907 -0.013568805 -0.20244059 0.011903734
0.32907367 -0.114628874 0.039308853 0.19010806 0.10286765 0.0953281 0.033953056 -0.10949252
-0.092907466 -0.12950575 0.26316255 -0.1490237 0.17687942 -0.0070670634 0.13216549 0.05240443
-0.22130905 0.030095126 0.05118861 -0.05745789 -0.06264182 0.21136059 0.022596365 -0.060620733
-0.04880341 -0.0048015136 -0.09388286 -0.0040700356 -0.40903455 -0.102493286 -0.18998566 -0.26972458
-0.042021934 0.28345203 -0.20788383 0.12076118 0.06278366 -0.021366943 -0.13104159 0.082300276
-0.2917713 -0.21804485 -0.03785068 -0.07246028 0.070882715 -0.23390745 0.042312574 -0.37728807
-0.17029038 -0.022712627 -0.08553388 -0.0901738 -0.068485215 0.07889775 -0.04705652 0.073439926
-0.22910967 -0.15447736 0.08302838 -0.15397501 -0.09782287 0.133831 -0.028491847 -0.014486332
0.115248196 0.0015420216 -0.04326077 -0.088495776 -0.017743105 0.031420264 -0.11522122 0.12688509
-0.14550325 -0.12552422 0.0896644 0.07862456 0.0976236 0.16639118 0.00866215 0.15233223
0.16060323 0.07742067 -0.024542259 -0.39521387 -0.025729418 0.30678126 0.0077022137 0.0054265475
-0.07378572 0.1973494 0.032378968 -0.047923177 0.0966182 0.1717186 0.1736227 -0.028423116
0.11453577 0.038578823 0.07496758 -0.0636336 -0.14488201 0.027646737 0.087740056 -0.060788825
0.092690416 -0.0554669 -0.173993 0.14420617 0.05390661 -0.044758182 -0.010757912 -0.07818202
-0.080883004 0.1642017 -0.016651522 0.120993614 -0.030387223 0.036020692 -0.008889612 0.21098666
-0.32576087 -0.040762115 0.18151571 -0.15688814 0.06362964 0.07762508 -0.028379114 0.022649528
0.38652956 -0.22212066 0.006931252 -0.19554286 -0.014429671 -0.23570842 0.17555799 0.14574912
-0.048087653 -0.23250544 0.22182302 0.08456307 0.06407447 0.06709647 -0.068762265 -0.015940329
0.036985807 -0.046441074 0.06401283 0.13676299 0.09128076 0.030418364 -0.023292989 -0.032721225
0.023959 -0.21661669 0.11196762 0.14144197 -0.16162175 0.13100637 -0.49401212 -0.17532648
00000000: 0b8e fc3d f4b7 8d3e c8cd a53d 9e21 6a3e
00000010: 9e6b 6c3d bfff 033e 8f45 b5be f600 813e
00000020: 0c9b 08be 3d8a 74bd e7d5 1a3d 3f25 8ebe
00000030: 1c3a 98bd 8880 363e 47ed 89bd 1c7d 283e
00000040: 4baf 133d 278d 54bc 5a28 383e bd43 343c
00000050: e401 f03d 6e65 91bd 103f a1bc b1cf ac3d
00000060: 7852 00be 9bb5 09be d2a3 893d 25c5 a53d
00000070: ad44 f7bc 6f81 533d 523e 16be 935b 9abd
00000080: 9a93 18be 7648 b53c c2b7 d7be d842 37bd
00000090: e77f ca3d deeb c83d 3eff e5bd 952c d0bd
000000a0: d5f7 523b 8b83 5e3d 8817 fd3c d8b6 f2bd
000000b0: 6488 863c 0645 143d da7f 023e cc4c 3a3d
000000c0: d936 a1bd 8453 8c3b 1f2a 21be 9f1c a4be
000000d0: c275 aebd b9bc 033e 4fbd 04bd dbe7 02be
000000e0: 9df6 febd de8a 013e b448 1ebe 7124 58be
000000f0: 928e 113e 4103 e93d 246c 433d 4b42 343d
00000100: 9e02 703e 13f1 c13d bf5a 8c3d 4f92 3c3e
00000110: 2898 b3bc 8a37 a33d 0966 363d 56ae 023e
00000120: bdc3 cabd 8667 c13d ba67 74bc 56ef 083e
00000130: 6755 973d 3b51 1d3e 08c7 623d c2ea 8d3c
00000140: 9247 89bc 6ec7 f33c 8e65 43be 9784 423d
00000150: 2cd3 103e ff95 e1bd 9195 20bd be17 fbbc
00000160: a2be 8dbd 4e9d 51bd 9b87 fc3d 6f7c 85bd
00000170: 3b3b abbd b14f 5ebc 964c 4fbe e107 433c
00000180: 587c a83e 8bc2 eabd 5202 213d b0ab 423e
00000190: 46ac d23d 613b c33d 5c12 0b3d 9d3d e0bd
000001a0: 4546 bebd 289d 04be 3ebd 863e ab99 18be
000001b0: e11f 353e d392 e7bb 6456 073e 07a6 563d
000001c0: d79e 62be 0e8a f63c 26ab 513d f758 6bbd
000001d0: 5b4a 80bd e96e 583e 031c b93c 724d 78bd
000001e0: 16e6 47bd 0456 9dbb a845 c0bd ef5d 85bb
000001f0: fa6c d1be 00e8 d1bd 9a8b 42be 5719 8abe
00000200: 311f 2cbd a020 913e 80df 54be a351 f73d
00000210: b894 803d ba09 afbc c42f 06be 0c8d a83d
00000220: 0c63 95be 2647 5fbe 5109 1bbd 0e66 94bd
00000230: f52a 913d 6f85 6fbe f34f 2d3d e72b c1be
00000240: 9a60 2ebe d50f babc 632c afbd 0bad b8bd
00000250: fa41 8cbd 2595 a13d 56be 40bd ac67 963d
00000260: ba9b 6abe 502f 1ebe c90a aa3d a0ab 1dbe
00000270: 5b57 c8bd fe0a 093e bc67 e9bc 1558 6dbc
00000280: 3f07 ec3d a91d ca3a 3532 31bd 463d b5bd
00000290: fd59 91bc 89b2 003d 1af9 ebbd 2aee 013e
000002a0: cefe 14be 6c89 00be f8a1 b73d ea05 a13d
000002b0: e2ee c73d 7362 2a3e b1eb 0d3c fbfc 1b3e
000002c0: 2c75 243e ba8e 9e3d d90c c9bc 7959 cabe
000002d0: 80c6 d2bc 6f12 9d3e da62 fc3b 2ed1 b13b
000002e0: f81c 97bd f615 4a3e cf9f 043d 184b 44bd
000002f0: c3df c53d 00d7 2f3e 26ca 313e 98d7 e8bc
00000300: bb91 ea3d d404 1e3d 9a88 993d 5552 82bd
00000310: f35b 14be 697b e23c 0fb1 b33d b4fd 78bd
00000320: 79d4 bd3d 4331 63bd 392b 32be c8aa 133e
00000330: 2dcd 5c3d 5b54 37bd f441 30bc e51d a0bd
00000340: fda5 a5bd 7e24 283e c668 88bc 80cb f73d
00000350: a0ee f8bc 6f8a 133d bca5 11bc e30c 583e
00000360: 21ca a6be 2df6 26bd 41df 393e 49a7 20be
00000370: 4250 823d e6f9 9e3d 517b e8bc 818b b93c
00000380: 34e7 c53e 9973 63be 8e1f e33b 633c 48be
00000390: 6d6a 6cbc 8c5d 71be 79c5 333e 423f 153e
000003a0: 8ff7 44bd e815 6ebe 9325 633e 672f ad3d
000003b0: 7a39 833d e069 893d 3bd3 8cbd 4b95 82bc
000003c0: 6e7e 173d ff38 3ebd 2919 833d 990b 0c3e
000003d0: 68f1 ba3d ef2f f93c f0d0 bebc b106 06bd
000003e0: aa45 c43c c4d0 5dbe 484f e53d 2ad6 103e
000003f0: 2c80 25be 8926 063e 28ef fcbe c988 33be

bias f4 [128]
-0.22279401 -0.06767003 -0.10890303 -0.041914478 -0.14543691 0.032115787 0.07098002 -0.08010969
-0.068570524 0.0070993076 -0.10336752 -0.13511479 -0.1638933 -0.076299325 -0.028557332 0.035045937
0.011398193 0.06291233 -0.121944085 -0.17498024 -0.027801225 -0.07471771 -0.14869995 -0.044240795
-0.018395856 -0.17074943 -0.16385481 -0.08901422 -0.066705056 -0.02614463 -0.0041671577 -0.06779788
-0.19391392 0.111770734 -0.14867572 -0.111318454 0.011387623 0.009508964 -0.07455391 -0.08294293
-0.075009696 -0.04944324 -0.031909224 -0.025214897 0.037199832 -0.009491441 -0.18802823 -0.040739708
0.012745914 0.12279882 -0.089384645 -0.123749055 -0.25234073 -0.0018128257 -0.13794194 -0.19644819
0.009131975 -0.01416291 -0.030130979 0.015241228 0.07189211 -0.16647813 -0.077537216 -0.022794807
0.10571848 -0.0689793 -0.06512148 -0.08209284 -0.032685515 -0.15280785 -0.08557555 -0.06127896
-0.03832424 -0.069893315 -0.053525515 -0.086981975 -0.19832519 -0.04260345 0.0014417982 -0.18081847
-0.043858677 0.02373155 0.03488104 -0.008848004 -0.0071825385 0.00680335 -0.16370192 -0.066405766
-0.022034995 -0.0374489 -0.063313745 -0.016864885 -0.12112308 -0.14537066 -0.15456893 0.0007098246
0.046515428 -0.034109604 -0.05679999 -0.18219198 0.10048076 -0.059158478 -0.10315619 -0.1280573
-0.114500105 0.0064100293 -0.061066713 -0.1296553 -0.055119615 0.0311421 -0.12680937 -0.22747529
-0.016085498 0.09305455 -0.0016782691 -0.16078368 -0.1056626 0.014275065 0.004612247 -0.041063905
-0.06970669 -0.04223252 -0.12158487 0.08122352 -0.1702571 0.00851465 0.09543638 -0.043159243
00000000: 1d24 64be 9696 8abd 8d08 dfbd 84ae 2bbd
00000010: 6aed 14be d88b 033d f95d 913d 8d10 a4bd
00000020: b46e 8cbd 4fa1 e83b 5ab2 d3bd 885b 0abe
00000030: a5d3 27be d242 9cbd 11f1 e9bc 548c 0f3d
00000040: 7dbf 3a3c 2ed8 803d d2bd f9bd 052e 33be
00000050: 65bf e3bc 9905 99bd cd44 18be d635 35bd
00000060: e8b2 96bc f0d8 2ebe 8ec9 27be 164d b6bd
00000070: a99c 88bd 432d d6bc a78c 88bb 9dd9 8abd
00000080: 5f91 46be 0ee8 e43d 733e 18be eefa e3bd
00000090: 2793 3a3c 7ccb 1b3c b8af 98bd fcdd a9bd
000000a0: af9e 99bd ff84 4abd 3fb3 02bd 798f cebc
000000b0: da5e 183d fd81 1bbc 798a 40be aede 26bd
000000c0: 3dd4 503c f37d fb3d 4c0f b7bd 2570 fdbd
000000d0: ce32 81be 569c edba a740 0dbe b729 49be
000000e0: 479e 153c 8d0b 68bc 3ed5 f6bc 58b6 793c
000000f0: 2c3c 933d 3e79 2abe d5cb 9ebd 2dbc babc
00000100: ee82 d83d 0545 8dbd 695e 85bd 4a20 a8bd
00000110: 3fe1 05bd a979 1cbe 3c42 afbd a6ff 7abd
00000120: e1f9 1cbd 3a24 8fbd 923d 5bbd 9b23 b2bd
00000130: c215 4bbe f580 2ebd b8fa bc3a 7a28 39be
00000140: 28a5 33bd ab68 c23c 6cdf 0e3d 38f7 10bc
00000150: 805b ebbb a3ee de3b 7aa1 27be bfff 87bd
00000160: bc82 b4bc 0564 19bd a3aa 81bd 3a28 8abc
00000170: 610f f8bd 0cdc 14be 5147 1ebe 8613 3a3a
00000180: f686 3e3d 83b6 0bbd 1ba7 68bd 8990 3abe
00000190: dbc8 cd3d 2950 72bd 8d43 d3bd 7421 03be
000001a0: 087f eabd 390b d23b 1721 7abd 5cc4 04be
000001b0: 1bc5 61bd b81d ff3c 51da 01be 48ef 68be
000001c0: bcc5 83bc 6293 be3d 5ef9 dbba 7aa4 24be
000001d0: a265 d8bd f6e1 693c 5522 973b a032 28bd
000001e0: 62c2 8ebd 02fc 2cbd 7d01 f9bd 8458 a63d
000001f0: e157 2ebe 0881 0b3c 2674 c33d bfc7 30bd

weight f4 [128, 128]
-0.056082707 -0.020291317 -0.08065808 -0.013392003 -0.07249096 -0.029475698 -0.0007655951 -0.054923702
0.022344023 0.018328384 -0.013405291 -0.10918108 -0.088902466 0.03393858 -0.07321178 -0.023659252
-0.0497671 -0.0059708473 0.064186715 -0.060864702 0.0013552346 0.011765067 -0.10497981 0.0019914617
0.052753255 -0.1066135 0.08362807 -0.0080536045 -0.060493417 -0.0039103306 -0.0930593 -0.08380308
0.0641745 -0.12138061 0.05074284 -0.02268563 -0.051257614 -0.055501077 -0.004176011 -0.018450534
-0.08026865 0.042998515 -0.003008861 0.0060249986 -0.07328174 -0.090568714 0.0083760675 -0.052855253
-0.013276244 -0.042205036 -0.10059868 -0.070886776 -0.014234125 -0.09637409 0.071660504 -0.06593239
-0.08214825 -0.09109889 -0.04971006 0.017428707 -0.046273865 0.04730729 -0.03448507 0.033475894
-0.024715861 0.05265845 0.016383672 -0.051769003 -0.14022996 -0.043022346 0.008183219 0.044678673
-0.097922355 -0.06375711 0.01932933 0.003329158 0.074687436 0.024888802 0.031438332 -0.01731136
-0.009285454 -0.057040416 -0.01553958 0.008539902 0.047988527 0.04327742 0.05214527 0.025416661
-0.053725123 0.03014253 0.0011865654 -0.0716561 -0.061933234 0.006156563 0.06403673 -0.11771401
-0.002851697 -0.068910204 -0.043717608 -0.011987651 -0.016688386 -0.033655364 -0.018602137 -0.109945446
-0.0632836 0.027917173 -0.04691052 0.020293424 -0.014796293 -0.019904383 0.039835054 -0.021157976
-0.10158187 -0.0684243 0.041399445 0.014488953 -0.06353853 0.024394726 -0.11392591 -0.012963349
-0.029590856 0.0038708663 0.008478434 -0.056485113 -0.07008654 -0.07443312 -0.032016646 0.08633034
-0.045381065 -0.3488026 -0.008991654 -0.048960876 -0.08600278 0.004215887 0.05735721 0.123453975
-0.043313213 0.021071093 0.14683229 -0.19916041 -0.19402255 0.18476735 0.06221351 0.3143465
0.20418216 0.12085972 0.20247681 -0.072062135 -0.21185513 0.06810034 0.07878936 0.07461176
0.08656096 -0.149212 0.0718032 -0.07776696 0.05426193 0.08579958 0.09891463 0.0020571535
-0.15806787 -0.031871587 0.080776766 0.08196933 -0.040106848 -0.028805377 -0.21714513 0.3408357
0.0711642 -0.17153288 -0.2506862 -0.20832552 -0.008269524 0.025648113 -0.17266694 -0.23989445
-0.38861242 -0.21495044 -0.04959297 -0.46082872 -0.08263299 -0.022727221 -0.2597808 -0.15844554
0.083662696 -0.0002156111 -0.05439124 -0.048071522 0.026288697 0.25217348 0.11103315 -0.25297055
0.07539335 0.045761 0.003166607 0.13724343 0.04407035 -0.17372458 0.07711053 -0.1181043
-0.011527253 -0.033960007 -0.1802904 0.028470647 0.18884346 -0.10584891 -0.06126612 0.13764893
-0.061143804 0.1128064 -0.042496905 -0.007499088 -0.09088665 0.16101912 -0.13821296 0.05006627
0.03954358 0.18767045 -0.16109334 -0.16316754 -0.13126396 0.051855475 -0.29132074 0.073296174
0.0025091486 -0.06615053 0.26032436 0.0331768 0.07605267 -0.09986466 -0.026580462 -0.06759546
0.07770691 -0.20588192 0.09036338 -0.2179777 -0.19242024 -0.02941577 0.29663676 0.1038873
0.0749631 -0.009039538 0.06545804 -0.16407138 -0.044014167 0.036975496 -0.07872387 0.022391772
0.10545239 0.14929168 -0.056072496 0.10236151 -0.29769468 0.2746627 0.10202222 0.10522956
00000000: fbb6 65bd fa39 a6bc 1030 a5bd 226a 5bbc
00000010: 2476 94bd 0577 f1bc 38b2 48ba adf7 60bd
00000020: d00a b73c 6825 963c dea1 5bbc 549a dfbd
00000030: 7f12 b6bd 2e03 0b3d 0ff0 95bd 0cd1 c1bc
00000040: 96d8 4bbd 19a7 c3bb 5374 833d 444d 79bd
00000050: 21a2 b13a 45c2 403c a8ff d6bd 2f83 023b
00000060: cc13 583d 2e58 dabd 3245 ab3d 44f3 03bc
00000070: f2c7 77bd 3b22 80bb e095 bebd f3a0 abbd
00000080: ec6d 833d 6696 f8bd b9d7 4f3d 37d7 b9bc
00000090: 81f3 51bd 1955 63bd ebd6 88bb 9325 97bc
000000a0: e463 a4bd 361f 303d 5030 45bb 5a6d c53b
000000b0: bd14 96bd 177c b9bd c63b 093c c07e 58bd
000000c0: 9a84 59bc 30df 2cbd ae06 cebd 162d 91bd
000000d0: 3f36 69bc c75f c5bd bec2 923d 9007 87bd
000000e0: 573d a8bd 0e92 babd c79c 4bbd a6c6 8e3c
000000f0: aa89 3dbd 4ac5 413d 3740 0dbd 051e 093d
00000100: eb78 cabc 63b0 573d 0d37 863c bc0b 54bd
00000110: 7198 0fbe 3338 30bd e812 063c fc00 373d
00000120: 848b c8bd 1693 82bd 8b58 9e3c 012e 5a3b
00000130: baf5 983d 9ae3 cb3c 7bc5 003d 8ed0 8dbc
00000140: 0422 18bc 36a3 69bd b999 7ebc f2ea 0b3c
00000150: 9e8f 443d aa43 313d 4796 553d 9a36 d03c
00000160: e00e 5cbd 78ed f63c 8786 9b3a 6fc0 92bd
00000170: b4ad 7dbd febc c93b b025 833d 0b14 f1bd
00000180: 89e3 3abb cb20 8dbd 3c11 33bd da67 44bc
00000190: 15b6 88bc 35da 09bd 8263 98bc 142b e1bd
000001a0: d59a 81bd 8eb2 e43c 3f25 40bd 653e a63c
000001b0: 276c 72bc 840e a3bc 152a 233d 7e53 adbc
000001c0: 280a d0bd 0a22 8cbd 7792 293d 1363 6d3c
000001d0: 7d20 82bd 73d7 c73c fd51 e9bd 3a64 54bc
000001e0: 8668 f2bc 5cae 7d3b 21e9 0a3c ef5c 67bd
000001f0: 8889 8fbd 6470 98bd e323 03bd f6cd b03d
00000200: 7fe1 39bd 4196 b2be bb51 13bc 338b 48bd
00000210: 3a22 b0bd 6c25 8a3b 65ef 6a3d 70d5 fc3d
00000220: 3269 31bd 499d ac3c 345b 163e b5f0 4bbe
00000230: d9ad 46be a733 3d3e 98d3 7e3d 06f2 a03e
00000240: 2115 513e 4d85 f73d 1556 4f3e 5095 93bd
00000250: 8df0 58be 3178 8b3d 515c a13d 0dce 983d
00000260: df46 b13d 08cb 18be 8e0d 933d 4944 9fbd
00000270: c241 5e3d b1b7 af3d c193 ca3d 4fd1 063b
00000280: 8bdc 21be c88b 02bd 4a6e a53d 89df a73d
00000290: 1447 24bd 41f9 ebbc 4b5b 5ebe 0482 ae3e
000002a0: 89be 913d 51a6 2fbe f159 80be 4953 55be
000002b0: e67c 07bc fe1b d23c 9acf 30be e4a6 75be
000002c0: 35f8 c6be f81b 5cbe 0022 4bbd bef1 ebbe
000002d0: 7c3b a9bd 702e babc fd01 85be 8c3f 22be
000002e0: 5957 ab3d aa15 62b9 59c9 5ebd a5e6 44bd
000002f0: 655b d73c e21c 813e 5965 e33d 5b85 81be
00000300: d467 9a3d e36f 3b3d da86 4f3b 8b89 0c3e
00000310: 1c83 343d dbe4 31be 20ec 9d3d abe0 f1bd
00000320: cedc 3cbc a619 0bbd 0c9e 38be 463b e93c
00000330: 2e60 413e 50c7 d8bd 2ff2 7abd d7f3 0c3e
00000340: ed71 7abd 0b07 e73d 3c11 2ebd e9ba f5bb
00000350: c822 babd 32e2 243e b387 0dbe 4a12 4d3d
00000360: 73f8 213d af2c 403e a7f5 24be 6415 27be
00000370: 0f6a 06be 6866 543d fe27 95be 4e1c 963d
00000380: 8770 243b ee79 87bd 3c49 853e 65e4 073d
00000390: 81c1 9b3d d885 ccbd 45bf d9bc 7d6f 8abd
000003a0: cd24 9f3d b6d2 52be 7010 b93d 8c35 5fbe
000003b0: d009 45be 57f9 f0bc c6e0 973e ddc2 d43d
000003c0: 4186 993d 921a 14bc dd0e 863d 5402 28be
000003d0: 3348 34bd 9e73 173d fb39 a1bd f36e b73c
000003e0: 6cf7 d73d ebdf 183e 46ac 65bd e9a2 d13d
000003f0: 706b 98be 97a0 8c3e 07f1 d03d 9882 d73d

bias f4 [128]
-0.1712665 -0.013523865 0.05086573 -0.07646509 -0.12683779 0.058314607 -0.17923003 -0.15009739
-0.130549 -0.19579133 -0.09429192 -0.14080876 -0.19706406 -0.11809599 0.013070593 0.0364728
-0.00955365 -0.051825263 0.0056330482 -0.2102027 -0.088592574 -0.18151678 0.07915524 0.118816145
-0.1648744 -0.15987696 0.038532075 -0.07684709 -0.014951078 -0.06645547 -0.15320225 0.05773352
-0.1717846 -0.061516922 -0.1604348 -0.012851186 0.0021602777 -0.2155155 -0.14231098 0.03744349
0.09197822 0.055062458 -0.24333198 0.05259833 0.094928354 -0.013289842 -0.0867284 -0.15026577
0.054752234 -0.046525583 -0.08429318 0.0013996378 -0.08017761 0.03129437 -0.18964005 -0.13807254
-0.16475235 -0.10228058 0.04900068 0.063011594 0.049860902 -0.18276039 0.09806219 -0.21195914
-0.034590974 -0.0016810667 -0.17792484 0.02368215 0.0050855917 -0.07432125 -0.13243146 -0.1333003
-0.11734266 0.06958999 0.03542397 -0.103009135 -0.01036236 0.049650002 0.15198645 0.077442184
-0.11650738 -0.1093274 0.019014437 -0.1665933 -0.07549231 0.055132132 0.06953748 -0.07472724
-0.070741385 -0.085675485 -0.1257022 -0.124598034 0.12373308 0.098382615 -0.064192034 -0.014191264
-0.04493313 -0.12423342 -0.010929128 0.0889494 -0.13846083 0.0049053575 0.07593158 0.11790692
-0.075712875 -0.18113956 0.065919265 -0.07141181 -0.041157983 -0.1708434 0.15609144 0.04138478
-0.18738815 -0.021136886 -0.05914236 -0.17145555 -0.07867869 -0.1682871 -0.08911421 -0.1890517
-0.04907428 -0.18438834 -0.18838714 -0.15331317 0.09500165 -0.10496768 -0.03247672 -0.020595929
00000000: 7c60 2fbe 3393 5dbc 9558 503d bb99 9cbd
00000010: c4e1 01be 4cdb 6e3d 1488 37be 21b3 19be
00000020: a3ae 05be 867d 48be 1f1c c1bd 2c30 10be
00000030: 29cb 49be 4fdc f1bd 0a26 563c 8164 153d
00000040: ea86 1cbc ba46 54bd 6f95 b83b 603f 57be
00000050: 0670 b5bd 89df 39be 241c a23d e155 f33d
00000060: d6d4 28be c9b6 23be cfd3 1d3d 0262 9dbd
00000070: 5ef5 74bc ce19 88bd 0de1 1cbe fc79 6c3d
00000080: 4de8 2fbe 2bf9 7bbd 0549 24be c88d 52bc
00000090: 7293 0d3b 18b0 5cbe f8b9 11be 585e 193d
000000a0: 145f bc3d 2c89 613d 052c 79be 5971 573d
000000b0: cc69 c23d a3bd 59bc a99e b1bd 45df 19be
000000c0: e143 603d 9c91 3ebd e7a1 acbd 0d74 b73a
000000d0: 2934 a4bd 862e 003d 0031 42be e362 0dbe
000000e0: d7b4 28be 7b78 d1bd f0b4 483d 390c 813d
000000f0: f23a 4c3d 8a25 3bbe d4d4 c83d d10b 59be
00000100: 44af 0dbd 3d57 dcba ee31 36be 1101 c23c
00000110: 09a5 a63b bd35 98bd 1d9c 07be e07f 08be
00000120: 5951 f0bd 3285 8e3d ba18 113d 74f6 d2bd
00000130: e3c6 29bc cd5d 4b3d 56a2 1b3e 029a 9e3d
00000140: 6c9b eebd 0be7 dfbd 2ac4 9b3c 6f97 2abe
00000150: b69b 9abd 3bd2 613d ab69 8e3d 980a 99bd
00000160: dce0 90bd a176 afbd 14b8 00be 412d ffbd
00000170: c567 fd3d d37c c93d 1d77 83bd 7a82 68bc
00000180: cd0b 38bd 176e febd 1610 33bc 1a2b b63d
00000190: adc8 0dbe 1fbd a03b 0482 9b3d 2f79 f13d
000001a0: 5a0f 9bbd a67c 39be ae00 873d 5b40 92bd
000001b0: 4695 28bd 92f1 2ebe 6fd6 1f3e 1683 293d
000001c0: aee2 3fbe 4327 adbc 423f 72bd 0b92 2fbe
000001d0: 4b22 a1bd 7453 2cbe 8381 b6bd c596 41be
000001e0: 1d02 49bd 4cd0 3cbe 8fe8 40be 21fe 1cbe
000001f0: 3a90 c23d 4cf9 d6bd 4f06 05bd cbb8 a8bc

weight f4 [128, 128]
0.016712872 -0.06556404 0.049314044 -0.053996343 0.021876855 0.014468313 0.09958375 0.027082812
-0.058396462 -0.07376547 -0.052532155 0.0131058525 -0.21733187 0.0328758 0.24159409 0.1063634
0.017592095 -0.1467319 -0.051778033 -0.20024294 0.1753934 -0.2518522 -0.03201709 -0.089158684
-0.035802126 -0.09001036 0.020496853 -0.011417355 -0.26516044 0.046071153 0.06819685 -0.06562927
-0.050799724 -0.05037387 -0.060564887 0.026067965 -0.08707068 -0.29249328 0.26761284 -0.019012157
-0.016250726 -0.030044328 -0.21621 -0.06689659 -0.096564464 -0.12391261 -0.07163925 -0.029027482
0.07432417 0.3466591 0.35248128 -0.06696719 -0.074457295 0.031157307 0.003916926 0.052362636
0.033350434 0.16919707 0.026647858 0.016384121 -0.06533832 0.06867973 0.05603347 -0.062812656
-0.120226026 -0.13593653 0.11167962 0.041522853 -0.05114724 0.06572772 0.038331322 0.1198388
-0.10892426 -0.140558 -0.08137934 0.024098901 0.012089506 0.08307482 0.038495112 -0.0334995
0.18268922 -0.037549466 0.11322179 -0.15574546 -0.017959401 -0.1219387 0.020982571 0.119609706
-0.0028308465 0.024087247 -0.010503878 0.19763643 -0.019376798 0.027943043 -0.07791452 0.069924824
0.044683617 0.20075649 0.053413123 -0.20059223 -0.050439138 0.11348578 -0.1613743 -0.14329568
0.016244387 -0.08189632 -0.08160328 -0.044475235 0.02037446 0.13181026 -0.13990135 -0.06011399
-0.007846352 -0.028550332 -0.33742428 0.13033022 0.06831027 -0.23412159 0.13993584 0.1854648
-0.13439205 -0.4057071 0.13641955 0.033156596 0.11801435 0.05477411 -0.016710388 0.07016807
0.029065128 -0.03725637 -0.2856217 -0.031441912 0.15698743 -0.41450724 0.07086171 0.06554662
0.03964729 0.2683004 -0.04637747 0.11298288 -0.0070558744 -0.24434291 -0.19621289 0.2360029
-0.08883732 0.17622556 -0.1946854 0.0441848 0.20982504 0.008927651 -0.07208397 -0.09852269
0.005125388 0.22919732 0.2588122 -0.3983039 -0.3160853 -0.19078901 -0.05660757 -0.079422936
-0.01254945 0.12942445 0.01935547 0.17889173 -0.06515072 -0.28015685 -0.14066796 -0.13773052
-0.1258939 0.10751997 0.05020545 0.07992415 -0.008977821 -0.07670033 0.044142503 0.056769516
-0.17033757 -2.6782956e-05 0.38224792 -0.09007864 -0.11927932 -0.00011501339 0.07436633 -0.06619922
0.0680094 -0.018553121 -0.15827869 -0.10367414 0.00705724 -0.19256876 0.09569592 0.057133388
0.019350076 0.0547022 -0.14596085 -0.04642236 0.37119183 0.18874429 0.074911006 0.06040559
0.46528828 -0.09169854 0.01545387 -0.22483608 -0.15034454 -0.16565219 -0.029793965 -0.12576386
-0.014945828 -0.0874754 0.1758609 -0.2938571 0.1479574 -0.1594297 -0.007322318 -0.08915026
-0.19584367 -0.19756907 -0.21848537 -0.37675038 -0.24312732 -0.21927437 0.017694898 -0.080399804
-0.43290845 -0.2570718 0.06653551 0.07358169 -0.031069553 -0.08117616 0.122318365 -0.110812984
-0.18312037 0.020301064 -0.29606923 -0.0548855 0.11476429 -0.40494055 -0.24702768 0.22868289
0.064626366 -0.1512278 0.012676557 -0.050961073 0.053251937 -0.095606335 0.093196005 -0.3005623
-0.10036817 0.034956254 0.0024694435 0.01738694 0.14957239 -0.054719895 -0.024703866 -0.09253288
00000000: 6fe9 883c 7046 86bd 86fd 493d 452b 5dbd
00000010: 1737 b33c 810c 6d3c 91f2 cb3d c6dc dd3c
00000020: 2131 6fbd 5a12 97bd f52b 57bd eeb9 563c
00000030: 3f8c 5ebe c6a8 063d 7164 773e 0ed5 d93d
00000040: 4c1d 903c e340 16be 3415 54bd 7c0c 4dbe
00000050: 549a 333e c6f2 80be 5a24 03bd d498 b6bd
00000060: 40a5 12bd 5a57 b8bd 04e9 a73c dc0f 3bbc
00000070: 1cc3 87be 1bb5 3c3d caaa 8b3d a468 86bd
00000080: 5f13 50bd d554 4ebd e312 78bd 7c8c d53c
00000090: 1d52 b2bd aec1 95be 8d04 893e 62bf 9bbc
000000a0: 3e20 85bc 861f f6bc 2766 5dbe 1401 89bd
000000b0: 97c3 c5bd e5c5 fdbd 99b7 92bd 0bcb edbc
000000c0: 4537 983d 4d7d b13e 6d78 b43e 1826 89bd
000000d0: 117d 98bd 9c3d ff3c 8f59 803b 347a 563d
000000e0: 779a 083d ff41 2d3e 9c4c da3c fe37 863c
000000f0: 19d0 85bd f5a7 8c3d 5a83 653d eca3 80bd
00000100: 1039 f6bd f232 0bbe 49b8 e43d de13 2a3d
00000110: c57f 51bd 419c 863d 4e01 1d3d 0b6e f53d
00000120: af13 dfbd 70ee 0fbe 36aa a6bd 0f6b c53c
00000130: 1013 463c 2223 aa3d 0dad 1d3d c636 09bd
00000140: e212 3b3e 78cd 19bd d3e0 e73d bd7b 1fbe
00000150: 981f 93bc ffba f9bd a4e3 ab3c eff5 f43d
00000160: b985 39bb 9e52 c53c 7518 2cbc 3461 4a3e
00000170: 17bc 9ebc cfe8 e43c a691 9fbd bf34 8f3d
00000180: 2b06 373d 1c93 4d3e b8c7 5a3d 0d68 4dbe
00000190: 4599 4ebd 3c6b e83d 4e3f 25be 1abc 12be
000001a0: f312 853c 42b9 a7bd 9f1f a7bd aa2b 36bd
000001b0: 57e8 a63c 45f9 063e 4d42 0fbe 163a 76bd
000001c0: fc8d 00bc 63e2 e9bc e0c2 acbe 4975 053e
000001d0: 41e6 8b3d 92bd 6fbe 574b 0f3e 7cea 3d3e
000001e0: 129e 09be d7b8 cfbe 91b1 0b3e 36cf 073d
000001f0: 82b1 f13d d15a 603d 39e4 88bc 47b4 8f3d
00000200: fe19 ee3c 239a 18bd 023d 92be 3cc9 00bd
00000210: 50c1 203e 4b3a d4be f21f 913d 4e3d 863d
00000220: 3265 223d ac5e 893e 4df6 3dbd 9163 e73d
00000230: f734 e7bb 0735 7abe 08ec 48be bfaa 713e
00000240: 57f0 b5bd 7974 343e 9c5b 47be 1ffb 343d
00000250: 60dc 563e 4845 123c c3a0 93bd 44c6 c9bd
00000260: dff2 a73b b4b2 6a3e 0883 843e 7dee cbbe
00000270: efd5 a1be 325e 43be 57dd 67bd 7ea8 a2bd
00000280: 359c 4dbc d887 043e 5d8f 9e3c 652f 373e
00000290: be6d 85bd b870 8fbe 430b 10be 3b09 0dbe
000002a0: 55ea 00be 6e33 dc3d 3ba4 4d3d 46af a33d
000002b0: b617 13bc 1015 9dbd c5ce 343d 2787 683d
000002c0: f96c 2ebe f6ab e0b7 00b6 c33e 267b b8bd
000002d0: b748 f4bd 5833 f1b8 604d 983d 7593 87bd
000002e0: 8348 8b3d b7fc 97bc cf13 22be 1c53 d4bd
000002f0: 6c40 e73b bf30 45be 39fc c33d b304 6a3d
00000300: 0d84 9e3c 6a0f 603d c376 15be 5f25 3ebd
00000310: db0c be3e 2f46 413e f16a 993d da6b 773d
00000320: 443a ee3e 72cc bbbd 3b32 7d3c 6e3b 66be
00000330: ebf3 19be baa0 29be 7912 f4bc 3ec8 00be
00000340: 59df 74bc 4d26 b3bd e114 343e 7074 96be
00000350: 2582 173e 8a41 23be 0ef0 efbb 6994 b6bd
00000360: 3e8b 48be 8c4f 4abe a1ba 5fbe 6de5 c0be
00000370: 5ef6 78be 7689 60be e4f4 903c a7a8 a4bd
00000380: 2da6 ddbe ea9e 83be c543 883d ffb1 963d
00000390: 9385 febc b03f a6bd 0d82 fa3d ebf1 e2bd
000003a0: e883 3bbe 6b4e a63c 6396 97be 9ecf 60bd
000003b0: 8a09 eb3d 5e54 cfbe d3f4 7cbe d92b 6a3e
000003c0: d45a 843d 76db 1abe 55b1 4f3c 8fbc 50bd
000003d0: b41e 5a3d 41cd c3bd 8cdd be3d 4de3 99be
000003e0: d48d cdbd 4a2e 0f3d 63d6 213b 0e6f 8e3c
000003f0: 8129 193e f821 60bd c35f cabc e181 bdbd

bias f4 [128]
0.069052875 -0.0451701 0.06340383 0.094677255 -0.17149465 0.10737947 -0.13251182 -0.011277277
-0.05314402 -0.07941357 0.04923343 0.13212076 -0.09042427 -0.061571296 -0.18298598 -0.09834053
0.043770093 0.0677976 -0.10929712 -0.03671469 0.102500595 -0.115920246 -0.1531118 0.049257454
-0.14945118 -0.19168141 -0.113499574 -0.038827937 0.05453263 -0.12582736 -0.0008097977 0.17459583
0.08204911 -0.13339296 0.017253863 0.04456148 0.08103654 -0.14691015 0.016537938 -0.122831084
-0.102705956 0.07709525 -0.10078471 -0.1209122 0.093672805 -0.14020099 0.104205765 0.19183221
0.069358505 -0.08959765 0.08023008 0.08572625 -0.11340204 0.08204334 0.107717864 -0.21344727
-0.12884827 -0.13127132 -0.127542 -0.090126894 -0.09189617 0.070371635 -0.13844721 -0.09332477
-0.036585055 -0.0976321 0.023547279 0.040445928 0.05617379 -0.10931373 0.050711356 0.050516192
0.051053997 -0.12198059 -0.0864036 0.09028971 0.10135869 -0.0063897157 0.018565165 -0.13003029
-0.11344569 -0.09550732 0.14453225 -0.10979688 -0.17982161 -0.0065200725 0.09493407 0.20703812
-0.004546519 -0.21315412 -0.12475769 0.033337068 -0.04551653 -0.18219715 0.16291657 -0.031138016
-0.047051433 0.13942958 0.11684234 -0.14833894 0.17634729 -0.0023232196 -0.112607904 0.032222573
0.029844837 0.0050740666 0.11068443 -0.18940026 -0.08663649 -0.05214681 -0.12639561 0.09192445
0.043781593 0.115887105 -0.022414936 -0.127559 0.00040906804 -0.091463745 -0.15156682 -0.11006608
-0.1385038 -0.088821605 -0.03292257 0.10805122 0.13553633 -0.17366329 -0.15376359 0.027549906
00000000: 986b 8d3d 4804 39bd ded9 813d 26e6 c13d
00000010: 4b9c 2fbe c4e9 db3d 2eb1 07be 54c4 38bc
00000020: 8bad 59bd 95a3 a2bd fea8 493d aa4a 073e
00000030: 5c30 b9bd 2f32 7cbd ad60 3bbe c366 c9bd
00000040: 4548 333d 78d9 8a3d 2bd7 dfbd 2562 16bd
00000050: d5eb d13d 9867 edbd 57c9 1cbe 2fc2 493d
00000060: bb09 19be 2248 44be 7772 e8bd 0b0a 1fbd
00000070: 9b5d 5f3d e3d8 00be 9b48 54ba 40c9 323e
00000080: 5d09 a83d 2a98 08be f957 8d3c 1986 363d
00000090: 7cf6 a53d 9d6f 16be 927a 873c dd8e fbbd
000000a0: 8057 d2bd 1de4 9d3d 3768 cebd d1a0 f7bd
000000b0: 87d7 bf3d d990 0fbe d569 d53d aa6f 443e
000000c0: d50b 8e3d f97e b7bd ab4f a43d 3f91 af3d
000000d0: 543f e8bd 5706 a83d 2f9b dc3d ec91 5abe
000000e0: cdf0 03be fd6b 06be 5f9a 02be 7394 b8bd
000000f0: 0f34 bcbd 011f 903d 1bc5 0dbe 0f21 bfbd
00000100: 36da 15bd 57f3 c7bd 39e6 c03c a1aa 253d
00000110: 7d16 663d e0df dfbd b6b6 4f3d 11ea 4e3d
00000120: ff1d 513d f6d0 f9bd 5ff4 b0bd d0e9 b83d
00000130: 2595 cf3d d260 d1bb f915 983c a926 05be
00000140: 3756 e8bd 5799 c3bd 4300 143e 30dd e0bd
00000150: 2823 38be 55a6 d5bb cb6c c23d cd01 543e
00000160: f7fa 94bb 1345 5abe f680 ffbd 738c 083d
00000170: 8a6f 3abd e491 3abe 9ad3 263e 2715 ffbc
00000180: 01b9 40bd a1c6 0e3e 094b ef3d 2ae6 17be
00000190: 6294 343e 2841 18bb f99e e6bd d1fb 033d
000001a0: 297d f43c 5b44 a63b 85ae e23d 24f2 41be
000001b0: 796e b1bd e597 55bd da6d 01be e342 bc3d
000001c0: 5454 333d 3856 ed3d 879f b7bc d49e 02be
000001d0: 2f78 d639 5851 bbbd 5534 1bbe 536a e1bd
000001e0: f1d3 0dbe 1ae8 b5bd d1d9 06bd f549 dd3d
000001f0: 09ca 0a3e cad4 31be 3474 1dbe 57b0 e13c
