nerf_models/normal_table.pth (torch, 647510 bytes, 22 tensors)

weight f4 [128, 63]
0.06769388 -0.09333082 0.1338311 -0.014346257 0.20491505 -0.08338341 -0.08602842 -0.08489294
-0.09645774 -0.33643302 -0.12893075 -0.18538429 -0.19770582 0.19849561 0.39060128 -0.1680315
-0.27799073 0.17966254 -0.069918826 0.054419458 0.058220837 -0.1543792 0.03113061 0.08594436
0.2198313 0.31717518 -0.23036717 0.07192135 0.11933531 -0.09613981 -0.09771414 0.32541588
-0.022702469 0.017985817 0.25491482 0.36966965 -0.104259685 0.025050223 -0.020456241 0.38059682
-0.09906182 0.14106555 -0.12436722 0.2048514 -0.1935627 0.3183431 -0.102637984 -0.049732752
-0.06347517 0.07462339 -0.39067927 -0.035993505 -0.046811845 -0.07000333 -0.01703393 -0.013372859
0.024822028 0.0011390465 0.01381212 -0.013000208 -0.0028111616 0.040345203 0.005323952 -0.06825969
0.16663836 0.07099407 0.1385383 0.057630524 -0.0117520625 -0.14134926 0.017896213 -0.04686312
0.070978984 -0.010882548 -0.10757182 0.084046215 -0.028998522 0.06511163 0.25388083 0.24876241
0.113721214 0.10734308 0.24115388 -0.2738489 -0.14567068 -0.34446266 0.20957826 -0.35512447
-0.37858632 -0.040981866 -0.5005866 0.056999035 -0.19551669 -0.19349687 0.09656839 0.2893969
-0.15252087 -0.32409105 0.055094276 -0.04968479 -0.0012486962 0.04585454 0.010266559 -0.022645801
0.070713766 0.052481394 0.23114283 -0.27742797 0.1604618 -0.0076089115 -0.26959172 0.14143348
0.002223101 0.13189998 -0.13753682 -0.11198123 -0.07978725 -0.07265322 0.058045577 0.073268004
0.010993343 -0.039634567 -0.016110031 0.02038819 0.010568715 0.086504355 -0.1062911 0.08858579
-0.05466122 0.08509855 -0.23026597 -0.2149555 0.056439 -0.0003955064 0.31173384 0.22757375
-0.2789732 -0.15738247 0.17895675 -0.1553813 0.2080188 0.2633281 0.1413452 0.098708205
0.22563818 0.2129523 -0.06800464 0.2324272 -0.30228 -0.10028523 0.21678741 0.056742955
-0.11477757 0.28404224 -0.23548147 0.020053064 0.035522338 -0.21488436 -0.18333052 0.1561466
0.17002712 0.19782846 -0.0070201 0.051110845 0.05228588 -0.35016915 -0.0062149935 0.3642884
0.043779463 -0.073753014 0.12101876 -0.2084977 0.22915868 0.21860279 0.049792502 0.12640005
-0.14484088 0.0268773 -0.08387478 0.13552852 -0.103828244 -0.008154795 0.036761485 -0.031057574
0.009936291 -0.05093888 0.011362238 0.03325224 0.013005995 -0.058541007 -0.13606495 -0.031542048
-0.13258724 -0.00563025 -0.049980335 -0.009790534 0.020029113 0.295212 0.30505797 -0.10882541
-0.19476318 0.046637822 -0.08237915 -0.09120092 0.051384903 0.0636248 -0.073350474 -0.12479345
0.068932764 -0.030519051 -0.1530641 0.24909346 -0.24052793 0.14642282 0.060730062 0.057334427
0.0017958899 0.29386762 0.29811993 -0.0054872446 -0.34540427 -0.21163996 -0.0014665496 -0.38331082
-0.16216028 -0.25121742 0.098034315 0.3908097 0.054786004 0.16909969 -0.18266752 0.068434246
0.14913918 0.08191959 -0.02064135 -0.043597937 -0.14046948 -0.193936 -0.18319502 -0.029806556
-0.115493245 0.13484827 -0.13323233 -0.09425405 -0.0067789555 -0.03754939 0.03027639 0.013884552
-0.04592392 -0.03943869 -0.008415713 -0.06313267 -0.10648472 -0.068311654 -0.05928719 -0.094735816
00000000: 17a3 8a3d 3b24 bfbd 050b 093e 900c 6bbc
00000010: 40d5 513e ecc4 aabd ab2f b0bd 5adc adbd
00000020: a38b c5bd f340 acbe 6c06 04be 61d5 3dbe
00000030: 6573 4abe 6f42 4b3e e4fc c73e 7310 2cbe
00000040: cd54 8ebe 75f9 373e 9a31 8fbd f0e6 5e3d
00000050: f978 6e3d 9515 1ebe 9f05 ff3c 9903 b03d
00000060: 751b 613e c964 a23e 5fe5 6bbe 804b 933d
00000070: 1266 f43d f3e4 c4bd 5a1e c8bd e99c a63e
00000080: 87fa b9bc fe56 933c 3284 823e 5745 bd3e
00000090: 1a86 d5bd 2036 cd3c d993 a7bc 96dd c23e
000000a0: ece0 cabd 7d73 103e 3eb4 febd 91c4 513e
000000b0: 4d35 46be defd a23e dd33 d2bd 92b4 4bbd
000000c0: 45ff 81bd 26d4 983d 1d07 c8be ed6d 13bd
000000d0: c7bd 3fbd e85d 8fbd be8a 8bbc d619 5bbc
000000e0: 9157 cb3c 0f4c 953a 3b4c 623c d3fe 54bc
000000f0: 773b 38bb 0341 253d 8c74 ae3b bdcb 8bbd
00000100: 3fa3 2a3e 5765 913d fcdc 0d3e fc0d 6c3d
00000110: b98b 40bc dcbd 10be 149b 923c 8bf3 3fbd
00000120: 6e5d 913d b74c 32bc 9d4e dcbd 6c20 ac3d
00000130: 4f8e edbc 3f59 853d abfc 813e 93bb 7e3e
00000140: abe6 e83d b0d6 db3d 0bf1 763e ec35 8cbe
00000150: b22a 15be 695d b0be af9b 563e e0d2 b5be
00000160: 11d6 c1be 9adc 27bd 7226 00bf d277 693d
00000170: 8735 48be 0b24 46be a6c5 c53d d52b 943e
00000180: 6e2e 1cbe 43ef a5be 89aa 613d 4782 4bbd
00000190: 4bab a3ba f8d1 3b3d 1235 283c b083 b9bc
000001a0: 61d2 903d bbf6 563d b5b0 6c3e 0a0b 8ebe
000001b0: 1950 243e 2d54 f9bb ed07 8abe f0d3 103e
000001c0: 72b1 113b ca10 073e 74d6 0cbe 6a56 e5bd
000001d0: 7f67 a3bd 36cb 94bd 33c1 6d3d 890d 963d
000001e0: 6c1d 343c db57 22bd 2ff9 83bc 2205 a73c
000001f0: 6728 2d3c 3229 b13d 26af d9bd 776c b53d
00000200: 72e4 5fbd 2648 ae3d d8ca 6bbe 4b1d 5cbe
00000210: 952c 673d f85b cfb9 949b 9f3e 1809 693e
00000220: 93d5 8ebe df28 21be 7040 373e 471c 1fbe
00000230: e102 553e f1d2 863e ccbc 103e 8727 ca3d
00000240: b20d 673e 2b10 5a3e 0446 8bbd 6501 6e3e
00000250: 72c4 9abe 5862 cdbd 85fd 5d3e 4d6b 683d
00000260: 8110 ebbd fc6d 913e 0e22 71be 5346 a43c
00000270: df7f 113d a50a 5cbe ffba 3bbe e5e4 1f3e
00000280: 971b 2e3e 8b93 4a3e de08 e6bb 9b59 513d
00000290: b829 563d 5f49 b3be 25a7 cbbb 0284 ba3e
000002a0: 1852 333d d20b 97bd afd8 f73d 6c80 55be
000002b0: 93a8 6a3e 69d9 5f3e 39f3 4b3d 046f 013e
000002c0: 2b51 14be c92d dc3c 8ac6 abbd fdc7 0a3e
000002d0: e7a3 d4bd b09b 05bc 3693 163d 746c febc
000002e0: d3cb 223c 49a5 50bd ae28 3a3c 8033 083d
000002f0: 1917 553c b2c8 6fbd 9c54 0bbe 3c32 01bd
00000300: f3c4 07be f67d b8bb 2eb8 4cbd 7a68 20bc
00000310: 1814 a43c 0726 973e 8f30 9c3e dbdf debd
00000320: 0070 47be 4d07 3f3d 66b6 a8bd 8cc7 babd
00000330: fa78 523d b84d 823d c638 96bd b593 ffbd
00000340: 9f2c 8d3d 1703 fabc d6bc 1cbe 5b12 7f3e
00000350: f44c 76be ddef 153e 16c0 783d 81d7 6a3d
00000360: 1164 eb3a d175 963e 2da3 983e 58ce b3bb
00000370: d4d8 b0be 25b8 58be 3d39 c0ba 5141 c4be
00000380: 580d 26be 929f 80be 37c6 c83d 3618 c83e
00000390: 4a67 603d 7828 2d3e 320d 3bbe 4127 8c3d
000003a0: f1b7 183e 75c5 a73d 0c18 a9bc c093 32bd
000003b0: 3bd7 0fbe 2997 46be 7a97 3bbe e12c f4bc
000003c0: b987 ecbd aa15 0a3e 0e6e 08be 4408 c1bd
000003d0: 0022 debb 64cd 19bd 3106 f83c 087c 633c
000003e0: b81a 3cbd 778a 21bd 0fe2 09bc b44b 81bd
000003f0: a914 dabd fbe6 8bbd 20d7 72bd da04 c2bd

bias f4 [128]
-0.1879954 -0.03246213 -0.06526902 -0.18944953 -0.17071198 -0.1256081 -0.17614554 -0.37575015
-0.1923007 -0.20684299 -0.21758325 -0.15398979 -0.013314766 -0.26820904 -0.19124423 -0.2324882
-0.22617799 0.0047343285 -0.097856954 -0.061798938 -0.12366864 -0.084202185 -0.24602644 -0.11105092
-0.11746056 -0.07725045 -0.127212 -0.078006946 -0.22611801 -0.10312934 -0.29086637 -0.21423493
-0.29282272 -0.18769076 -0.18763769 -0.28949553 -0.117422886 -0.053330727 -0.042623192 -0.23801059
-0.06969654 -0.23668864 -0.21028215 0.07278211 -0.27490923 -0.29575616 -0.042524043 -0.28033444
-0.31697482 -0.35956505 -0.1702411 -0.3408462 -0.22586994 -0.2698552 -0.22855254 -0.13654101
-0.007626942 -0.24651977 -0.20390224 -0.18232913 -0.1985298 -0.2689537 -0.14274274 -0.11481582
-0.058404926 -0.2618828 -0.3537715 -0.16546294 -0.204577 -0.26901647 -0.0984483 -0.32066584
-0.16123551 -0.26852256 -0.17019717 -0.34560922 -0.18327151 -0.320531 -0.14237453 0.004702751
-0.1770981 -0.18308875 -0.4238294 -0.13870563 -0.11533721 -0.0886073 -0.14138289 -0.16038145
-0.24754928 -0.22158581 -0.36992905 -0.14171635 -0.16656134 -0.08284604 -0.14613862 -0.2031077
-0.118455656 -0.21545501 -0.23860388 -0.14150229 -0.1940038 -0.2339062 -0.2347981 -0.26209822
-0.3379082 -0.06977333 -0.30081362 -0.19697146 -0.22835757 -0.24892943 -0.03383008 -0.28106385
-0.21238299 -0.2393049 0.016956802 -0.31537825 -0.15934764 -0.090999246 -0.20018038 -0.36566946
-0.039647546 -0.086964376 -0.26005182 -0.059405427 -0.30740988 -0.21272981 -0.17070565 -0.16157377
00000000: de81 40be 03f7 04bd c4ab 85bd 0fff 41be
00000010: 1fcf 2ebe 699f 00be 7f5f 34be 5362 c0be
00000020: 7aea 44be a6ce 53be 25ce 5ebe 80af 1dbe
00000030: 2d26 5abc b252 89be 87d5 43be 6311 6ebe
00000040: 349b 67be 6d22 9b3b 3a69 c8bd e220 7dbd
00000050: fc45 fdbd 3272 acbd 5bee 7bbe aa6e e3bd
00000060: 298f f0bd 7c35 9ebd dd43 02be 1bc2 9fbd
00000070: 7b8b 67be 7a35 d3bd 70ec 94be 6760 5bbe
00000080: dcec 95be 0232 40be 1824 40be c238 94be
00000090: 697b f0bd 5271 5abd a895 2ebd 0cb9 73be
000000a0: 0fbd 8ebd 825e 72be 3454 57be c90e 953d
000000b0: e7c0 8cbe 5a6d 97be b12d 2ebd ff87 8fbe
000000c0: 864a a2be e918 b8be af53 2ebe 6583 aebe
000000d0: 734a 67be 762a 8abe ad09 6abe 68d1 0bbe
000000e0: 6deb f9bb ae6f 7cbe c0cb 50be 7db4 3abe
000000f0: 654b 4bbe 4db4 89be 272b 12be 8e24 ebbd
00000100: 013a 6fbd 8115 86be 8a21 b5be 1e6f 29be
00000110: a27c 51be 87bc 89be 439f c9bd 502e a4be
00000120: ec1a 25be ca7b 89be 2b48 2ebe b1f3 b0be
00000130: 87ab 3bbe a41c a4be a1ca 11be 8919 9a3b
00000140: 3459 35be 9e7b 3bbe 2b00 d9be d908 0ebe
00000150: ea35 ecbd be77 b5bd adc6 10be 093b 24be
00000160: 8f7d 7dbe 64e7 62be 5767 bdbe 171e 11be
00000170: 0e8f 2abe 2fab a9bd 5da5 15be 77fb 4fbe
00000180: e198 f2bd 3da0 5cbe 9354 74be fae5 10be
00000190: efa8 46be 1b85 6fbe ea6e 70be bd31 86be
000001a0: 4e02 adbe 52e5 8ebd 3e04 9abe e3b2 49be
000001b0: 91d6 69be 5be7 7ebe 6991 0abd 9ae7 8fbe
000001c0: ed7a 59be 580c 75be fee8 8a3c 4279 a1be
000001d0: 072c 23be d05d babd 16fc 4cbe 0739 bbbe
000001e0: 7765 22bd 611a b2bd 8325 85be 1b53 73bd
000001f0: d464 9dbe d8d5 59be 76cd 2ebe 9873 25be

weight f4 [128, 128]
0.04296647 -0.2464196 0.08047684 0.18616335 -0.27092394 0.14022096 -0.0054879095 -0.27370432
-0.37909967 0.06762576 0.15274069 0.046240143 -0.070272006 0.033541728 -0.025147006 0.2275406
0.087360375 -0.25808695 -0.2454172 0.00794476 0.06847695 0.10465604 -0.034198083 0.103687376
0.0070523224 -0.410356 0.13617016 -0.093869224 -0.20842744 0.10535182 -0.06540432 -0.038343314
0.1387322 -0.18662585 -0.21021475 -0.024563575 0.048767395 0.03488823 0.1727827 0.16374125
0.046141967 -0.14726922 -0.020562582 -0.16135229 -0.18128203 0.0046595824 -0.04104754 0.12795812
0.1040667 0.04453058 0.10970363 0.1924884 -0.19600932 0.038565874 -0.046301488 -0.35908094
-0.14780074 0.23770545 0.14155343 -0.0075698337 0.047927924 0.12966685 -0.091912925 0.028829921
-0.2816075 0.020338262 0.055959713 0.009645154 0.15197763 -0.08604325 -0.052356817 0.0025222814
-0.03259219 -0.2396892 -0.27162316 -0.104727596 -0.15285678 -0.04591104 -0.26888287 0.11724592
0.062367685 -0.046578716 -0.03424795 -0.15279587 -0.07083581 -0.17118014 0.14841215 -0.016857013
-0.4916086 0.17083633 0.069494806 -0.13342416 -0.27848688 0.1725428 -0.078248225 -0.04683328
-0.23538215 0.32160503 0.14692159 -0.13511243 0.019698294 0.09309218 -0.031847972 -0.07025218
-0.21209542 -0.18811549 -0.00648145 0.24010447 -0.43393403 -0.0049012247 0.0636032 -0.22771709
-0.085617416 -0.14954416 -0.17404148 0.25680834 -0.093729146 -0.32140264 0.02820794 -0.27646446
-0.009180394 -0.09888174 0.031039843 0.16682653 -0.07598356 -0.13121341 0.19539656 -0.017131777
-0.30017996 0.24131325 0.06890091 -0.14245987 -0.36012378 0.10260604 0.0002765004 0.19104712
0.13573346 -0.22989972 0.19602582 -0.3212605 -0.0847487 -0.18322054 -0.049801845 0.062023707
-0.10579807 -0.05370989 -0.06824918 -0.048434302 -0.40866536 -0.14344242 -0.040217016 -0.16531302
-0.30798727 0.11762045 0.05917949 -0.1453954 0.031395692 -0.28448492 0.07521194 -0.11331134
-0.2440956 -0.03927548 0.10939211 0.11038788 -0.02942175 0.005754917 0.03602835 -0.19572179
0.024863895 -0.06796578 -0.14482653 0.06716402 0.08620411 -0.2441645 -0.051846232 0.3008284
0.11023328 0.0038665563 -0.12836722 0.20676568 -0.06280986 -0.072020315 -0.17432085 -0.17990327
-0.13163365 0.05961019 0.15645376 -0.054821216 -0.016283853 -0.05895118 -0.102731824 -0.4081223
0.120391786 0.21176738 0.13364488 0.06133355 -0.013688892 -0.09822234 0.23653886 0.19940408
-0.3860006 -0.0052973167 -0.054547086 -0.040287275 -0.21449248 -0.05176518 -0.16832633 -0.15997837
0.25820634 0.09242939 0.08931475 -0.04973603 0.050416816 -0.1734591 0.07376621 -0.26295242
-0.09062603 0.02737332 0.015849654 -0.01846498 0.070732236 -0.2194661 -0.083274014 0.025114305
-0.16274364 -0.012316695 0.13456067 0.10982425 -0.037150074 -0.17136389 0.08669531 0.004599139
-0.23641716 0.0060262275 -0.19302347 -0.14693664 -0.21444497 0.012140814 0.040935945 -0.04806831
0.07872912 0.10030545 -0.124940045 0.079702385 -0.12935264 0.025527894 0.09211707 0.008314242
-0.2060455 -0.0099327145 -0.15194891 -0.19706641 0.12544315 0.026386894 -0.05971807 -0.11596101
00000000: 9cfd 2f3d 6b55 7cbe 0bd1 a43d 9ba1 3e3e
00000010: 8bb6 8abe 1596 0f3e ecd3 b3bb f922 8cbe
00000020: 5a19 c2be 607f 8a3d 0e68 1c3e 4e66 3d3d
00000030: c5ea 8fbd 0d63 093d 1801 cebc 6700 693e
00000040: ffe9 b23d f923 84be a54e 7bbe bd2a 023c
00000050: a53d 8c3d e855 d63d 4a13 0cbd 0c5a d43d
00000060: 2b17 e73b 2e1a d2be 3170 0b3e 823e c0bd
00000070: 016e 55be b2c2 d73d b3f2 85bd e10d 1dbd
00000080: d00f 0e3e d91a 3fbe 8942 57be 8d39 c9bc
00000090: 52c0 473d f6e6 0e3d f3ed 303e c9ab 273e
000000a0: 5cff 3c3d becd 16be dc72 a8bc 8939 25be
000000b0: ffa1 39be 69af 983b 7721 28bd 7407 033e
000000c0: ec20 d53d b365 363d 4cac e03d ae1b 453e
000000d0: abb6 48be 40f7 1d3d a1a6 3dbd 75d9 b7be
000000e0: 1459 17be 0f69 733e 62f3 103e 5e0c f8bb
000000f0: 1250 443d 63c7 043e d83c bcbd ba2c ec3c
00000100: dc2e 90be 6d9c a63c 0336 653d b506 1e3c
00000110: 06a0 1b3e 7237 b0bd 1a74 56bd dc4c 253b
00000120: 637f 05bd 1671 75be 3112 8bbe 6c7b d6bd
00000130: 7d86 1cbe 370d 3cbd 04ab 89be a11e f03d
00000140: 4275 7f3d 53c9 3ebd 9447 0cbd 8576 1cbe
00000150: 5d12 91bd d949 2fbe 5bf9 173e b817 8abc
00000160: 1fb4 fbbe b8ef 2e3e 4b53 8e3d 58a0 08be
00000170: d595 8ebe 0faf 303e 9b40 a0bd 41d4 3fbd
00000180: 0508 71be 6aa9 a43e 9d72 163e ea5a 0abe
00000190: 515e a13c 1da7 be3d 0573 02bd 60e0 8fbd
000001a0: 8b2f 59be 59a1 40be 5862 d4bb f2dd 753e
000001b0: 9a2c debe 749a a0bb 6542 823d ab2e 69be
000001c0: 2f58 afbd 1b22 19be ee37 32be 627c 833e
000001d0: 11f5 bfbd e38e a4be 5614 e73c c08c 8dbe
000001e0: 5d69 16bc 8282 cabd 4547 fe3c 93d4 2a3e
000001f0: 459d 9bbd cf5c 06be 0916 483e f157 8cbc
00000200: 30b1 99be d21a 773e ec1b 8d3d 00e1 11be
00000210: 2562 b8be 1e23 d23d 41f7 9039 dba1 433e
00000220: b6fd 0a3e d56a 6bbe feba 483e 427c a4be
00000230: ba90 adbd 2a9e 3bbe 05fd 4bbd 920c 7e3d
00000240: a9ac d8bd e7fe 5bbd 3ac6 8bbd 0c63 46bd
00000250: 963c d1be 92e2 12be 99ba 24bd d147 29be
00000260: 82b0 9dbe fee2 f03d 3166 723d 88e2 14be
00000270: c598 003d 02a8 91be b808 9a3d c70f e8bd
00000280: 32f4 79be 53df 20bd f808 e03d 0a13 e23d
00000290: e205 f1bc be93 bc3b 7792 133d 4b6b 48be
000002a0: 5eaf cb3c a531 8bbd 684d 14be 4a8d 893d
000002b0: c88b b03d 4206 7abe b75c 54bd 2e06 9a3e
000002c0: fcc1 e13d 0d66 7d3b b272 03be 62ba 533e
000002d0: 75a2 80bd 637f 93bd 2a81 32be 9038 38be
000002e0: f9ca 06be d129 743d 6a35 203e 368c 60bd
000002f0: b765 85bc cb76 71bd 1065 d2bd 68f5 d0be
00000300: f88f f63d 8cd9 583e 34da 083e e338 7b3d
00000310: 6047 60bc cb28 c9bd 3e37 723e 9530 4c3e
00000320: dfa1 c5be 1d95 adbb c46c 5fbd 4504 25bd
00000330: eba3 5bbe ba07 54bd bd5d 2cbe 5fd1 23be
00000340: 9f33 843e 9f4b bd3d a7ea b63d 02b8 4bbd
00000350: dd81 4e3d 439f 31be bd12 973d b3a1 86be
00000360: 249a b9bd 033e e03c 22d7 813c df43 97bc
00000370: 10dc 903d b9bb 60be 918b aabd 84bc cd3c
00000380: 45a6 26be f7cb 49bc 46ca 093e 89eb e03d
00000390: ad2a 18bd 047a 2fbe 508d b13d 60b4 963b
000003a0: 5717 72be a977 c53b f2a7 45be 8f76 16be
000003b0: 7697 5bbe 44ea 463c 73ac 273d 47e3 44bd
000003c0: bc3c a13d f26c cd3d 91e0 ffbd 013b a33d
000003d0: 0575 04be e01f d13c e0a7 bc3d 7538 083c
000003e0: 97fd 52be d3bc 22bc 7f98 1bbe c7cb 49be
000003f0: 2b74 003e 5429 d83c ef9a 74bd f77c edbd

bias f4 [128]
0.06623131 0.02087043 -0.059665255 -0.08611345 -0.07325734 -0.03929627 -0.039267838 -0.06930018
-0.0933091 0.037507366 -0.07450092 -0.06321434 -0.054946464 -0.14388046 -0.0927892 0.024029983
-0.004579389 -0.06124679 0.031608675 0.052559745 -0.001555778 0.0923245 -0.07196773 -0.089938276
-0.031960286 -0.06546328 -0.07986272 -0.11326048 0.012132853 0.0085281655 -0.07861963 -0.008981216
-0.059386384 -0.11439566 0.060225878 -0.008927611 -0.02567519 -0.03568421 -0.03316083 0.040454466
-0.062039062 -0.08637623 0.00040932946 0.047535084 0.015765646 -0.033281136 -0.076666355 -0.031104961
-0.07578903 -0.14885224 -0.0017546357 0.010647873 -0.113852784 0.007186564 -0.08015279 -0.039411906
-0.0767486 0.00739595 -0.08160371 -0.017950492 -0.11720088 0.0637742 0.025380947 0.0051236087
-0.030232653 -0.027689796 -0.13649742 -0.027650615 0.07020155 0.003341106 0.026690003 0.07002946
-0.041678242 -0.02487529 -0.013848594 0.046678834 0.023376456 -0.04535027 -0.026920581 -0.072316274
-0.059500296 -0.034228686 -0.017501222 0.029570768 -0.10500906 -0.047446396 0.020611135 0.020002954
0.013665207 -0.06864872 -0.05065012 0.0042485176 -0.12447191 -0.029313933 -0.01128986 -0.032483213
-0.029669806 -0.088079005 -0.10711436 0.01224737 -0.05427284 -0.11676089 -0.12853095 0.053110424
0.005153958 -0.061251897 0.049594656 0.03818401 0.07713106 0.05605604 -0.004014503 0.049504973
-0.007784317 -0.066455506 -0.07725628 -0.05566529 -0.080833875 -0.0057251398 -0.07405396 0.026537891
0.08582879 -0.0681682 -0.02926128 0.003160338 0.057870787 -0.028008156 -0.099913396 -0.01685296
00000000: 48a4 873d 77f8 aa3c 8e63 74bd 405c b0bd
00000010: f207 96bd 20f5 20bd 50d7 20bd 41ed 8dbd
00000020: d718 bfbd 53a1 193d f093 98bd 8576 81bd
00000030: 8b0f 61bd 6655 13be 4408 bebd 87da c43c
00000040: b30e 96bb eadd 7abd 1978 013d e348 573d
00000050: 3feb cbba a114 bd3d d163 93bd 8f31 b8bd
00000060: cae8 02bd 9d11 86bd 118f a3bd 1cf5 e7bd
00000070: e0c8 463c b8b9 0b3c 5403 a1bd f325 13bc
00000080: 233f 73bd 4648 eabd 69af 763d 1d45 12bc
00000090: c754 d2bc 9b29 12bd a7d3 07bd 95b3 253d
000000a0: ac1c 7ebd 05e6 b0bd 459b d639 26b4 423d
000000b0: f526 813c cd51 08bd 4003 9dbd d5cf febc
000000c0: 4737 9bbd b96c 18be cefb e5ba 6b74 2e3c
000000d0: a62b e9bd 457d eb3b 2527 a4bd 616e 21bd
000000e0: 5f2e 9dbd ba59 f23b d91f a7bd e90c 93bc
000000f0: 0407 f0bd 0c9c 823d b4eb cf3c f2e3 a73b
00000100: 78aa f7bc b6d5 e2bc fbc5 0bbe 8b83 e2bc
00000110: d5c5 8f3d 75f6 5a3b fea4 da3c 9b6b 8f3d
00000120: ceb6 2abd 44c7 cbbc 37e5 62bc 4e32 3f3d
00000130: fb7f bf3c 34c1 39bd 8d88 dcbc 8e1a 94bd
00000140: 95b6 73bd 6133 0cbd b95e 8fbc 653e f23c
00000150: fd0e d7bd 2757 42bd afd8 a83c 3cdd a33c
00000160: 08e4 5f3c b397 8cbd 8076 4fbd 2637 8b3b
00000170: 21eb febd c623 f0bc 1bf9 38bc 1e0d 05bd
00000180: 180e f3bc c462 b4bd c65e dbbd 31a9 483c
00000190: 334d 5ebd 5520 efbd 9e9d 03be 518a 593d
000001a0: 89e2 a83b 45e3 7abd c423 4b3d d666 1c3d
000001b0: e4f6 9d3d 059b 653d 188c 83bb bac5 4a3d
000001c0: 9513 ffbb d319 88bd 8a38 9ebd 4a01 64bd
000001d0: 3b8c a5bd f499 bbbb 9aa9 97bd fe65 d93c
000001e0: 01c7 af3d c59b 8bbd 5ab5 efbc ac1d 4f3b
000001f0: eb09 6d3d 5c71 e5bc 659f ccbd 380f 8abc

weight f4 [128, 128]
0.04589169 -0.16797325 -0.20221697 -0.04754322 -0.07799094 -0.0015804291 -0.057008296 0.05981782
0.22402796 0.0025573815 -0.111661404 -0.025719339 -0.05954423 -0.22281408 -0.0017017009 -0.27197692
-0.35329235 0.40097353 -0.008370302 -0.005129954 0.076150574 0.025984617 -0.2515958 0.051171504
-0.07531214 0.048770744 -0.10782074 -0.08674527 -0.2377468 -0.06907682 0.13528986 0.12784795
0.090289295 0.06783281 -0.24763164 -0.13027476 0.25369066 -0.14552811 -0.17125835 -0.13556696
0.09114461 0.12364566 0.09673524 -0.075887725 -0.1831291 -0.24012633 -0.053671494 -0.16470987
0.08979767 -0.2725819 -0.13084316 -0.15721723 0.09635241 0.009835548 0.17435348 -0.06430884
-0.025084473 0.038502038 0.050587643 0.0030004566 -0.12654267 -0.024718149 -0.21481255 0.029144524
0.04682949 0.08072361 -0.042141348 -0.10673828 0.15925714 0.10806798 0.051929794 -0.19065477
-0.2300119 -0.2715259 0.35693634 -0.07218723 0.017393507 -0.22289602 0.10679162 -0.03231147
-0.06377827 0.08233299 -0.15820463 -0.030050218 -0.04596194 -0.15521485 0.12942185 0.061996102
0.053118143 -0.05597856 0.0033166113 0.098110445 -0.04073325 -0.13856468 -0.06964032 -0.3290404
0.08661926 0.06625376 -0.47183844 -0.1273495 -0.055227514 0.014132668 -0.021134261 -0.11194431
-0.033477228 -0.175048 0.10201395 -0.25374568 -0.08947127 0.05310059 -0.041752253 0.16972831
-0.092331216 0.20429432 0.020647263 0.06614138 0.12510012 -0.052925546 -0.08609433 0.03994847
0.26856506 0.043594673 0.12257611 0.15509824 0.26649854 0.067767195 -0.06688617 0.037513178
0.10204325 -0.056268126 -0.31552747 0.030266667 -0.18765683 -0.028343624 0.15168019 0.14032975
-0.33867452 0.026330674 -0.07804632 -0.06085036 0.037619907 -0.027348733 0.15898077 -0.16857593
-0.08351427 -0.06272614 -0.028155077 -0.12817387 -0.22988993 -0.048003767 0.0384977 -0.18070008
0.028814359 -0.053217523 0.12867707 0.039026584 -0.14925294 0.07291589 0.042137153 0.07737899
-0.13887551 -0.23180798 -0.18733008 -0.17464519 -0.17954884 -0.04284757 -0.250215 0.2100642
0.035622943 0.019557688 -0.018351179 -0.15449184 -0.15541361 -0.061330672 -0.12034129 -0.12748434
0.0131054055 -0.2291503 -0.4533041 0.017574882 -0.041658625 -0.10203205 0.054707836 -0.3412405
-0.041132275 0.12603107 0.024400407 0.11484447 0.11049213 -0.07930474 -0.0752708 0.004528037
0.0185742 0.058647186 -0.040235963 -0.22092877 0.08410557 -0.07134922 -0.053379964 -0.0632031
0.20085065 -0.108893886 -0.3629408 -0.036454424 -0.10089923 -0.074254766 0.09121274 0.16202864
-0.05026077 -0.23400326 0.24424735 0.07536508 0.027929893 0.17579682 -0.4542374 0.10172013
-0.0072133895 0.06127479 0.12409726 -0.47193837 -0.07757335 -0.07721897 -0.3450194 0.15890017
-0.05436549 -0.30602974 -0.16826385 -0.07053283 0.21698906 0.11492104 0.1107773 0.037550386
0.04773762 0.021251198 -0.23416094 -0.03654382 0.05177404 -0.07050147 0.15864266 -0.29796845
-0.3613766 -0.08539674 0.3358199 -0.02776321 0.06256033 -0.22777164 0.23988505 -0.10802923
-0.17236723 -0.23431663 0.12826104 -0.053827338 0.17557782 -0.027663382 -0.20465091 0.14943232
00000000: edf8 3b3d 2e01 2cbe f711 4fbe aebc 42bd
00000010: b7b9 9fbd 6726 cfba 8881 69bd 8803 753d
00000020: 9667 653e be99 273b bcae e4bd 5db1 d2bc
00000030: a7e4 73bd 6029 64be 9b0b dfba 8f40 8bbe
00000040: bce2 b4be 674c cd3e 9723 09bc 2c19 a8bb
00000050: d5f4 9b3d b1dd d43c 2ad1 80be 3699 513d
00000060: 403d 9abd d5c3 473d 1fd1 dcbd 81a7 b1bd
00000070: e673 73be 2678 8dbd 6d89 0a3e 93ea 023e
00000080: 98e9 b83d eeeb 8a3d 2693 7dbe bf66 05be
00000090: bee3 813e 5205 15be 595e 2fbe 11d2 0abe
000000a0: 06aa ba3d f039 fd3d 201d c63d 066b 9bbd
000000b0: 3286 3bbe ade3 75be a4d6 5bbd b4a9 28be
000000c0: d7e7 b73d db8f 8bbe c0fb 05be 8efd 20be
000000d0: 6a54 c53d 4725 213c b889 323e 5ab4 83bd
000000e0: f47d cdbc 50b4 1d3d fd34 4f3d 4fa3 443b
000000f0: 6794 01be b77d cabc d2f7 5bbe 7fc0 ee3c
00000100: 48d0 3f3d 6c52 a53d 689c 2cbd 9999 dabd
00000110: 4e14 233e bf52 dd3d 56b4 543d 013b 43be
00000120: 3d88 6bbe 7105 8bbe 5cc0 b63e e6d6 93bd
00000130: d47c 8e3c db3e 64be 91b5 da3d 0859 04bd
00000140: 2e9e 82bd 339e a83d 6500 22be e02b f6bc
00000150: 9642 3cbd a4f0 1ebe 2987 043e a0ef 7d3d
00000160: 6992 593d c649 65bd 815b 593b 21ee c83d
00000170: e9d7 26bd e6e3 0dbe 969f 8ebd fc77 a8be
00000180: 7065 b13d 0db0 873d cf94 f1be e867 02be
00000190: 3f36 62bd b58c 673c c221 adbc 0f43 e5bd
000001a0: 6b1f 09bd c83f 33be b1ec d03d f4ea 81be
000001b0: b73c b7bd 0180 593d 6904 2bbd 42cd 2d3e
000001c0: 2618 bdbd 8832 513e 7324 a93c 2275 873d
000001d0: 3f1a 003e 75c8 58bd 3952 b0bd 02a1 233d
000001e0: 5c81 893e 5490 323d 2f09 fb3d 13d2 1e3e
000001f0: 7f72 883e 87c9 8a3d 9efb 88bd 6ba7 193d
00000200: 0dfc d03d 6879 66bd d18c a1be cdf1 f73c
00000210: 1d29 40be e330 e8bc 0d52 1b3e 9ab2 0f3e
00000220: bf66 adbe 6db3 d73c c0d6 9fbd 3a3e 79bd
00000230: 5517 1a3d 730a e0bc dbcb 223e 2b9f 2cbe
00000240: 8809 abbd 9076 80bd 7aa5 e6bc 0340 03be
00000250: 4468 6bbe 999f 44bd c4af 1d3d 7109 39be
00000260: 170c ec3c 9efa 59bd ecc3 033e 57da 1f3d
00000270: c3d5 18be ed54 953d 0298 2c3d e078 9e3d
00000280: 6235 0ebe 125f 6dbe 75d3 3fbe 30d6 32be
00000290: a7db 37be ef80 2fbd 2e1c 80be 121b 573e
000002a0: 5de9 113d 7237 a03c 3655 96bc 1c33 1ebe
000002b0: bf24 1fbe df35 7bbd 7f75 f6bd 418b 02be
000002c0: 0eb8 563c 60a6 6abe 7a17 e8be 33f9 8f3c
000002d0: 3ca2 2abd 2ef6 d0bd 5315 603d 13b7 aebe
000002e0: 517a 28bd 4a0e 013e 5de3 c73c 9433 eb3d
000002f0: b349 e23d 866a a2bd 9427 9abd ed5f 943b
00000300: ec28 983c 0838 703d 77ce 24bd 273b 62be
00000310: 8b3f ac3d 8a1f 92bd f3a4 5abd a070 81bd
00000320: cbab 4d3e c203 dfbd 60d3 b9be 3c51 15bd
00000330: 41a4 cebd e212 98bd bfcd ba3d d6ea 253e
00000340: 3dde 4dbd 8d9e 6fbe fa1b 7a3e 0259 9a3d
00000350: 3bcd e43c 1504 343e ce91 e8be a552 d03d
00000360: 4c5e ecbb 46fb 7a3d b426 fe3d e8a1 f1be
00000370: c7de 9ebd fb24 9ebd 62a6 b0be bab6 223e
00000380: 59ae 5ebd eeaf 9cbe 5c4d 2cbe 8473 90bd
00000390: 6132 5e3e b95b eb3d 36df e23d 6fce 193d
000003a0: 8688 433d fe16 ae3c e3c7 6fbe f9ae 15bd
000003b0: 0411 543d 1363 90bd 3973 223e 528f 98be
000003c0: 5b06 b9be 7ce4 aebd 96f0 ab3e ac6f e3bc
000003d0: a11f 803d f83c 69be 6da4 753e 6e3e ddbd
000003e0: 0981 30be b3f0 6fbe dd56 033e 0e7a 5cbd
000003f0: acca 333e 519e e2bc 0290 51be c904 193e

bias f4 [128]
-0.06716428 -0.16651483 -0.0063021835 -0.010791282 -0.11988876 0.015114186 -0.120281816 0.053923916
0.073471725 0.030517986 -0.03666152 -0.02413913 -0.06664024 -0.12792358 0.104153246 -0.060409047
-0.060640518 -0.021985238 -0.20166808 0.011682214 -0.24021274 -0.17507279 0.007816701 0.033694092
-0.042510357 -0.17003462 0.043726176 -0.029318223 0.023891939 -0.20406485 0.0032477232 -0.22626108
-0.13458242 -0.12649758 -0.027797973 -0.047951236 -0.096251674 -0.13585608 -0.09682648 -0.06173895
0.12660377 -0.015421326 -0.0210796 -0.1940502 -0.09817546 -0.115574114 0.08334875 -0.14341062
0.021725072 -0.14400366 -0.06748018 -0.18261959 -0.003994593 -0.17835052 0.06910029 -0.11993634
-0.08775784 0.094216734 -0.038494878 -0.21734308 -0.012802763 -0.124309376 0.03594167 -0.23441288
-0.17572756 -0.25863433 -0.06709471 0.041360028 -0.11042371 0.040057223 -0.13468148 0.012090222
0.063895315 0.011403828 -0.072701804 -0.20409955 -0.06452059 0.03909793 0.012085512 -0.11824185
-0.19823264 -0.020826668 0.14335828 -0.19530961 -0.22856975 0.048081625 -0.18588325 -0.25974435
-0.07916482 -0.012087147 0.017299276 0.0029056938 0.0967865 -0.2147362 -0.04729636 -0.01894161
-0.18961924 0.054340523 -0.050806504 -0.07643943 -0.07140797 -0.09513103 -0.06569679 0.06906698
-0.20259923 -0.17804234 -0.103098854 -0.21545337 -0.07671717 -0.16888711 0.13356307 -0.116816714
-0.1263555 -0.23248425 -0.13634713 -0.065786086 -0.106180444 -0.088223875 -0.11839775 -0.15903974
-0.12122454 -0.30767098 -0.054768994 0.046801638 -0.116891764 -0.029232072 -0.13836831 -0.03828706
00000000: 6d8d 89bd dd82 2abe 8c82 cebb ebcd 30bc
00000010: 3d88 f5bd 7ea1 773c 5056 f6bd 53df 5c3d
00000020: 5878 963d db00 fa3c 642a 16bd 6dbf c5bc
00000030: ae7a 88bd 66fe 02be 4c4e d53d 7a6f 77bd
00000040: 3162 78bd 631a b4bc 1482 4ebe c266 3f3c
00000050: 54fa 75be 4846 33be 9f11 003c d102 0a3d
00000060: 571f 2ebd 8e1d 2ebe 381a 333d c52c f0bc
00000070: 07b9 c33c 60f6 50be c1d7 543b fcb0 67be
00000080: f9cf 09be 9588 01be 93b8 e3bc 8468 44bd
00000090: 991f c5bd db1d 0bbe f64c c6bd fbe1 7cbd
000000a0: 6ba4 013e bba9 7cbc 20af acbc 18b5 46be
000000b0: 3710 c9bd 1fb2 ecbd c0b2 aa3d 3cda 12be
000000c0: c7f8 b13c b275 13be 0c33 8abd a100 3bbe
000000d0: 13e5 82bb 85a1 36be 7484 8d3d 2fa1 f5bd
000000e0: 62ba b3bd b4f4 c03d ceac 1dbd 2f8f 5ebe
000000f0: aec2 51bc ea95 febd 9337 133d ee09 70be
00000100: edf1 33be b86b 84be f468 89bd 2269 293d
00000110: d325 e2bd 0b13 243d f1e9 09be 1116 463c
00000120: 8cdb 823d 1fd7 3a3c afe4 94bd 79ff 50be
00000130: 5f23 84bd 2725 203d 5002 463c c828 f2bd
00000140: 7ffd 4abe b09c aabc 83cc 123e 3eff 47be
00000150: 300e 6abe 3df1 443d 2e58 3ebe 36fd 84be
00000160: 2a21 a2bd 2b09 46bc 36b7 8d3c 746d 3e3b
00000170: 0038 c63d cee3 5bbe d4b9 41bd 6f2b 9bbc
00000180: 8c2b 42be 2b94 5e3d 7b1a 50bd 478c 9cbd
00000190: 573e 92bd 0fd4 c2bd 0a8c 86bd fd72 8d3d
000001a0: 2c76 4fbe bb50 36be 7e25 d3bd cf9f 5cbe
000001b0: e41d 9dbd bef0 2cbe c2c4 083e 9a3d efbd
000001c0: 5663 01be 5a10 6ebe 959e 0bbe dbba 86bd
000001d0: 2275 d9bd b8ae b4bd 857a f2bd 50db 22be
000001e0: 9244 f8bd 0d87 9dbe 7455 60bd 13b3 3f3d
000001f0: f364 efbd 1978 efbc 6cb0 0dbe e4d2 1cbd

weight f4 [128, 128]
-0.12567082 -0.09769698 -0.02592698 -0.22987421 0.022045715 0.005249432 -0.14622971 0.052949604
0.22380506 0.11745495 0.11719503 -0.08416956 -0.27821803 -0.15075666 0.11064885 -0.112949885
-0.15213484 0.06143983 -0.17099003 0.10817937 -0.33636189 -0.042470112 -0.025001692 0.13899653
0.34091046 -0.1399875 0.047937028 0.21903965 -0.22597112 0.118749134 -0.20224008 -0.037058413
0.2514863 -0.1580164 -0.09545241 0.34844518 -0.0714181 -0.22568911 -0.20086126 0.24646121
0.15463126 -0.03787437 0.05093428 0.069876894 0.15183595 0.02645418 0.18180683 0.084038846
0.14838223 0.11986314 -0.05859134 -0.1824567 0.08187638 0.2161697 0.11019372 -0.14242874
-0.05723443 -0.18094526 -0.13081884 -0.07363247 -0.068082765 -0.12811074 0.045011684 0.24433568
0.06905198 -0.01667984 0.06492595 -0.1360793 0.2814238 -0.20574254 -0.05534283 0.08265037
0.08805277 -0.0073428783 -0.0016289258 -0.045454454 -0.29936147 -0.16839553 0.034155563 -0.11382478
-0.27102226 -0.085993804 -0.028952384 -0.004676881 -0.14096141 -0.06651536 -0.21484436 -0.039176177
-0.1479966 -0.038427513 0.16691619 0.084990494 -0.056016367 -0.0913015 -0.0005371214 -0.05294115
-0.17262033 -0.23597406 -0.12763916 -0.06634317 -0.18143575 -0.0026976757 -0.16751307 0.05432836
0.0949148 0.08653186 -0.28309268 -0.24111436 0.17793733 -0.21453811 -0.114332065 -0.0059174914
0.08227519 0.1674997 -0.046587653 -0.09416851 -0.033194136 -0.12687397 -0.0069812345 0.16535984
-0.1156147 0.17086715 0.0122269215 0.23322743 0.09653879 -0.055314995 -0.36424905 0.04465896
0.22543783 0.079440214 0.18436916 0.23476857 -0.13596448 0.031102639 0.13443407 0.03993753
-0.18924959 -0.21928266 -0.07805999 0.07110426 0.21469165 0.19406179 0.027855337 0.19011211
0.0015337302 0.022984624 0.115299314 -0.2674524 0.3438219 0.24992973 0.040309604 -0.1662038
-0.2627629 0.037882164 0.15532409 -0.30375567 0.19115035 -0.3310933 0.16890019 0.015278509
-0.20801258 -0.12504786 0.19314136 -0.07952892 -0.010764262 0.26742104 -0.10667322 -0.21090965
-0.1311252 0.038327284 -0.025165515 -0.056792732 0.042586807 -0.12848772 0.07813278 -0.054049388
0.04800822 0.09023782 -0.037716184 0.1478424 0.0051172934 -0.107533894 -0.103098154 0.1709225
-0.12950625 0.07775229 -0.021552019 0.073903866 0.11564012 0.15971625 0.016758358 -0.18251145
-0.18688053 -0.38287836 -0.037462693 0.12446135 -0.26720172 0.09940149 0.3144976 -0.30831024
-0.07363824 0.17595895 -0.07677521 -0.07984038 -1.1740441e-05 0.044352803 -0.040614128 -0.2438526
0.04808574 0.15817933 -0.093246065 0.0014733791 -0.13106905 -0.021675674 0.116242 0.08087369
0.10100092 -0.025419666 -0.095678315 0.05596617 0.22422759 -0.03995745 0.063640326 -0.10658933
0.06265815 0.12990701 0.17199917 0.08726401 0.13692327 0.02544537 0.12627313 -0.16679658
-0.28099626 -0.35986578 0.20386273 0.3027782 -0.19298081 0.20790486 0.01796784 0.32256225
0.008605316 -0.019769136 0.18663613 0.0104311425 -0.08413114 0.080942705 -0.13247831 -0.17531487
0.14463305 -0.038634516 -0.027342437 -0.14519547 -0.08396981 0.033012174 -0.07341773 0.14519635
00000000: daaf 00be 5b15 c8bd d164 d4bc 2564 6bbe
00000010: 3799 b43c 6d03 ac3b 3ebd 15be afe1 583d
00000020: 272d 653e 398c f03d f303 f03d 1761 acbd
00000030: 9872 8ebe f45f 1abe dd9b e23d 4552 e7bd
00000040: 3cc9 1bbe 55a8 7b3d 0318 2fbe 258d dd3d
00000050: a037 acbe 24f5 2dbd 59d0 ccbc 1b55 0e3e
00000060: d18b ae3e e258 0fbe 9e59 443d ee4b 603e
00000070: f964 67be bf32 f33d 0618 4fbe 90ca 17bd
00000080: d0c2 803e 0dcf 21be 8e7c c3bd 6867 b23e
00000090: a743 92bd 0c1b 67be 93ae 4dbe 5460 7c3e
000000a0: a857 1e3e 2822 1bbd 77a0 503d 9e1b 8f3d
000000b0: e27a 1b3e 70b6 d83c 922b 3a3e 8f1c ac3d
000000c0: 83f1 173e ce7a f53d 79fd 6fbd eed5 3abe
000000d0: ceae a73d 975b 5d3e 3fad e13d d7d8 11be
000000e0: a66e 6abd b749 39be 60f5 05be 9fcc 96bd
000000f0: fa6e 8bbd 762f 03be 2c5e 383d 2233 7a3e
00000100: 206b 8d3d 29a4 88bc e5f7 843d 5f58 0bbe
00000110: c816 903e 2cae 52be 2aaf 62bd 9944 a93d
00000120: 0355 b43d 879c f0bb ae81 d5ba 732e 3abd
00000130: e845 99be e16f 2cbe b4e6 0b3d f71c e9bd
00000140: 6ec3 8abe 851d b0bd 8d2d edbc 8540 99bb
00000150: 3058 10be 3439 88bd 2900 5cbe 3377 20bd
00000160: 6c8c 17be 2b66 1dbd 14ec 2a3e 7f0f ae3d
00000170: 6b71 65bd 48fc babd 9bcd 0cba d2d8 58bd
00000180: 62c3 30be 2fa3 71be d7b3 02be eede 87bd
00000190: 4bca 39be 7dcb 30bb 8c88 2bbe 6a87 5e3d
000001a0: b162 c23d 9e37 b13d 86f1 90be afe6 76be
000001b0: 3435 363e e1af 5bbe ee26 eabd 84e7 c1bb
000001c0: e57f a83d 0b85 2b3e b2d2 3ebd 6bdb c0bd
000001d0: 93f6 07bd 40eb 01be d7c2 e4bb 1754 293e
000001e0: 66c7 ecbd ccf7 2e3e 6d53 483c 2cd3 6e3e
000001f0: 21b6 c53d fa91 62bd da7e babe 50ec 363d
00000200: 2dd9 663e 8db1 a23d 45cb 3c3e 2c67 703e
00000210: 463a 0bbe f6ca fe3c 16a9 093e 8995 233d
00000220: a5ca 41be a28b 60be ebdd 9fbd 1c9f 913d
00000230: 21d8 5b3e 22b8 463e e030 e43c c0ac 423e
00000240: 7207 c93a 404a bc3c 0c22 ec3d 85ef 88be
00000250: 6d09 b03e 94ed 7f3e af1b 253d 5431 2abe
00000260: dc88 86be 542a 1b3d 470d 1f3e dd85 9bbe
00000270: ebbc 433e 1085 a9be 2cf4 2c3e b652 7a3c
00000280: 4001 55be 8c0c 00be d9c6 453e 0fe0 a2bd
00000290: 965c 30bc 69eb 883e 7d77 dabd b3f8 57be
000002a0: af45 06be 12fd 1c3d e927 cebc 7f9f 68bd
000002b0: 816f 2e3d 4992 03be 1404 a03d e462 5dbd
000002c0: 44a4 443d 9bce b83d 497c 1abd 0064 173e
000002d0: f8ae a73b bb3a dcbd 2025 d3bd 4f06 2f3e
000002e0: 499d 04be 983c 9f3d dc8d b0bc e95a 973d
000002f0: bad4 ec3d a88c 233e d348 893c 48e4 3abe
00000300: 9c5d 3fbe a208 c4be 7b72 19bd 98e5 fe3d
00000310: aace 88be 0293 cb3d d405 a13e d7da 9dbe
00000320: a5cf 96bd 952e 343e 523c 9dbd 5a83 a3bd
00000330: cff8 44b7 49ab 353d 005b 26bd 7fb4 79be
00000340: 8ef5 443d c3f9 213e cbf7 bebd 661e c13a
00000350: f736 06be 2f91 b1bc 4910 ee3d 1ba1 a53d
00000360: 92d9 ce3d e73c d0bc fef2 c3bd c83c 653d
00000370: eb9b 653e 6caa 23bd dc55 823d 824b dabd
00000380: eb52 803d 5806 053e 8d20 303e 79b7 b23d
00000390: 9d35 0c3e cf72 d03c be4d 013e b9cc 2abe
000003a0: bede 8fbe 5440 b8be 64c1 503e bf05 9b3e
000003b0: c39c 45be 03e5 543e 4b31 933c e126 a53e
000003c0: 50fd 0c3c e2f2 a1bc 8b1d 3f3e 62e7 2a3c
000003d0: f24c acbd 4ac5 a53d 65a8 07be be85 33be
000003e0: b01a 143e 3a3f 1ebd 3ffd dfbc 1fae 14be
000003f0: 5df8 abbd c637 073d 095c 96bd 5aae 143e

bias f4 [128]
0.09233573 -0.051428117 -0.03937688 -0.08657442 -0.03610625 -0.16921292 -0.032551605 0.063716784
-0.00046277736 0.06756911 -0.15007395 0.10582712 0.0667932 -0.0052646804 0.0722767 -0.05064018
0.10214663 -0.20558245 -0.098294996 0.047844883 0.0036309168 0.09732091 -0.021810174 -0.014450515
-0.07338303 -0.11106355 0.060108654 -0.12870102 0.029447323 -0.07164932 0.17269535 0.05469174
0.097773015 -0.13539696 -0.18853338 0.1130698 -0.0050585098 -0.1369415 0.09148851 -0.0762019
-0.021727283 0.023474185 -0.1525496 -0.0010742593 0.11953463 0.100072786 -0.20286132 -0.001932392
-0.047082774 -0.17472136 -0.044865202 -0.046785105 -0.13686004 0.12649831 0.07562899 0.05696476
0.021914814 -0.013243395 -0.0641891 0.13433634 -0.02962465 0.07582697 -0.13198793 -0.051926333
-0.011168939 -0.016942896 0.022818156 -0.15446283 -0.006280652 -0.18777582 0.093137994 -0.094463855
0.092702165 -0.0013910814 -0.15947954 -0.14238046 -0.11078604 -0.16785458 0.03394294 -0.08938312
-0.055372585 -0.035838917 -0.09075892 -0.03843795 0.031124726 0.032351404 0.14825572 0.07940869
-0.0646705 0.06392427 -0.26105782 -0.17649773 -0.18439853 -0.18600775 -0.25751972 0.049036965
0.1089994 -0.08557052 0.1847507 0.019056408 -0.04631718 -0.11921831 -0.022947742 -0.19226886
0.025312845 0.0104326755 -0.14762783 -0.14614032 -0.08695361 0.012323589 -0.0031066698 -0.14157112
-0.06753333 -0.12068819 -0.14360155 0.004512975 0.10872167 -0.057391103 -0.05688719 -0.018275479
-0.040868685 -0.21076389 -0.15953025 -0.07228333 0.00029208942 -0.22180006 -0.19188054 -0.07704243
00000000: 841a bd3d 4aa6 52bd a749 21bd ee4d b1bd
00000010: 26e4 13bd 2746 2dbe d554 05bd f27d 823d
00000020: eda0 f2b9 ac61 8a3d fcac 19be e4bb d83d
00000030: e0ca 883d 5783 acbb ce05 943d 146c 4fbd
00000040: 4132 d13d 3584 52be e34e c9bd fff8 433d
00000050: adf4 6d3b 2f50 c73d 40ab b2bc dac1 6cbc
00000060: d849 96bd 4975 e3bd 7e34 763d 33ca 03be
00000070: 833b f13c e1bc 92bd 0dd7 303e 7204 603d
00000080: 383d c83d 80a5 0abe e50e 41be 2491 e73d
00000090: dbc1 a5bb 643a 0cbe 545e bb3d be0f 9cbd
000000a0: 6afd b1bc ef4c c03c f635 1cbe 29ce 8cba
000000b0: 92ce f43d f6f2 cc3d e1ba 4fbe 5148 fdba
000000c0: ded9 40bd 28ea 32be 93c4 37bd bda1 3fbd
000000d0: 0a25 0cbe c688 013e 5fe3 9a3d e153 693d
000000e0: b286 b33c d3fa 58bc 9375 83bd 778f 093e
000000f0: 65af f2bc 2c4b 9b3d d827 07be b5b0 54bd
00000100: edfd 36bc d4cb 8abc 24ed ba3c 812b 1ebe
00000110: edcd cdbb 4e48 40be 22bf be3d 4476 c1bd
00000120: a2da bd3d f254 b6ba 9b4e 23be 2fcc 11be
00000130: cbe3 e2bd 12e2 2bbe c107 0b3d 7f0e b7bd
00000140: 5dce 62bd d4cb 12bd d0df b9bd 1d71 1dbd
00000150: 48f9 fe3c e882 043d 59d0 173e 06a1 a23d
00000160: f871 84bd baea 823d 5fa9 85be d2bb 34be
00000170: f8d2 3cbe d178 3ebe a0d9 83be fcda 483d
00000180: 143b df3d 993f afbd 4a2f 3d3e 2f1c 9c3c
00000190: 15b7 3dbd bb28 f4bd e7fc bbbc 21e2 44be
000001a0: e25c cf3c d0ed 2a3c c02b 17be cfa5 15be
000001b0: bc14 b2bd e1e8 493c 4599 4bbb 05f8 10be
000001c0: ea4e 8abd 5f2b f7bd 490c 13be 94e1 933b
000001d0: 78a9 de3d ef12 6bbd 8b02 69bd 75b6 95bc
000001e0: ec65 27bd 7dd2 57be e65b 23be 4809 94bd
000001f0: 9423 9939 8e1f 63be 557c 44be 6cc8 9dbd

weight f4 [128, 128]
-0.08727173 -0.16201326 -0.008791278 -0.09574015 -0.21537624 -0.09349423 -0.13475282 0.09025068
-0.35762733 -0.028709615 0.148426 -0.19193624 0.14456691 -0.0973676 -0.0017341757 -0.18855432
-0.21788637 -0.033550415 -0.1044899 -0.22994027 -0.3389304 -0.15562287 0.010431808 -0.16106568
-0.17859212 -0.11736092 -0.011264949 -0.083956495 0.027904276 0.06368373 0.020483615 -0.020034935
-0.3017418 0.08780645 0.1472777 -0.37226442 0.11346335 0.08575803 -0.14233188 -0.250374
-0.20924695 0.10904081 -0.22706619 -0.11676917 -0.119172975 -0.19270855 -0.000716475 0.07956115
-0.295097 -0.1515001 -0.053813666 -0.10243081 0.20788401 -0.22357889 -0.12239713 -0.22020262
-0.0611063 -0.036820352 0.09519394 0.00925171 0.034042146 -0.18835302 -0.107675426 -0.24889836
0.06460877 -0.31178054 0.00012070415 0.2624249 0.18729465 -0.08176985 0.10616332 0.024337055
-0.17420997 -0.19676147 0.12694147 -0.1478762 -0.15800017 0.061755165 0.008058396 -0.0521984
0.25363332 0.17396826 0.16533698 -0.06344447 0.0037546773 -0.12547028 -0.088543035 -0.29206404
0.13884898 0.077355556 -0.18262321 0.072772786 0.09957695 0.23487799 0.068854675 -0.07847807
-0.1965906 -0.18208557 -0.22871304 -0.16542853 -0.27218357 -0.16490696 -0.06410214 -0.08672483
0.25791636 -0.09671431 0.20084618 0.46125904 -0.017922759 0.11789101 -0.22205423 -0.17905436
-0.1623156 0.11432454 0.0048692697 -0.18330866 -0.29882738 -0.2263942 0.26625854 -0.31819892
-0.0911814 -0.027297793 -0.2729875 0.04593217 -0.033437744 0.4010773 0.14402302 0.013065647
-0.09967135 -0.011207009 -0.07137774 0.05503718 -0.13762362 -0.06599242 0.002296468 0.020899292
0.033643752 0.028394995 0.03167838 -0.024443025 -0.16840068 0.037069805 -0.09209246 -0.06197447
0.019810177 0.07796839 0.122854546 -0.13791578 -0.0024784077 -0.039251342 0.0050633275 -0.09658838
0.0058603003 0.060018707 -0.024805995 0.040882636 -0.09590832 -0.058960967 -0.1259145 -0.032993097
-0.0057820515 -0.009001464 0.13145286 0.009767335 -0.049304724 -0.08536574 0.029196538 -0.15209007
-0.120332606 0.0108618215 0.06769845 -0.13812743 -0.019354455 -0.10047584 -0.030494796 -0.06273088
-0.07811749 -0.06757005 0.023652883 0.05605313 -0.051053893 0.08621992 0.030077653 -0.05362131
-0.09395414 -0.09023363 -0.088517286 -0.06865197 -0.073122144 -0.11681946 0.07805644 0.039432578
-0.006522475 -0.0077150264 -0.042178612 0.06399305 -0.041514684 0.047289595 -0.048064407 -0.07594771
-0.093391806 0.006087957 -0.02087854 -0.0729499 0.08440285 0.0881288 0.019378407 0.0019261139
-0.0044537117 0.016069802 -0.052909113 -0.006902594 -0.005847658 0.05830516 0.0639685 -0.043911897
-0.03882991 -0.12262312 -0.06257197 -0.0034449561 0.2694319 -0.14428817 0.004831267 -0.08899743
-0.052956887 -0.13088134 -0.11631489 -0.009824179 -0.01584686 0.010136524 -0.08715787 -0.06942918
-0.030541398 -0.08421541 -0.03632806 -0.03212581 -0.013218127 -0.118409075 -0.13375045 -0.06993758
-0.007158807 0.036417115 -0.14385022 -0.1103783 -0.02173415 -0.17087327 -0.045525324 -0.18167682
0.01664296 0.046689723 0.036018923 -0.013172402 0.013404343 0.058158267 -0.00409771 -0.12689252
00000000: 85bb b2bd cee6 25be 4b09 10bc 6913 c4bd
00000010: 978b 5cbe e779 bfbd a5fc 09be 59d5 b83d
00000020: ee1a b7be 6d30 ebbc fcfc 173e ef8a 44be
00000030: 5909 143e aa68 c7bd 484d e3ba 6214 41be
00000040: 9b1d 5fbe 296c 09bd cdfe d5bd 7675 6bbe
00000050: 4988 adbe 9a5b 1fbe 2dea 2a3c 67ee 24be
00000060: dae0 36be ec5a f0bd 9f90 38bc 62f1 abbd
00000070: 8297 e43c 9e6c 823d 41cd a73c 4e20 a4bc
00000080: e77d 9abe ded3 b33d f7cf 163e 7199 bebe
00000090: 795f e83d e8a1 af3d 73bf 11be 0531 80be
000000a0: d544 56be ca50 df3d 0a84 68be ad24 efbd
000000b0: f610 f4bd 6455 45be d3d1 3bba f5f0 a23d
000000c0: f416 97be d822 1bbe b86b 5cbd 3fc7 d1bd
000000d0: 8cdf 543e ddf1 64be 59ab fabd cc7c 61be
000000e0: 9a4a 7abd f0d0 16bd 0af5 c23d 7c94 173c
000000f0: c76f 0b3d 9ddf 40be ef84 dcbd 36df 7ebe
00000100: 9a51 843d b3a1 9fbe 8c22 fd38 8e5c 863e
00000110: 2bca 3f3e f376 a7bd 286c d93d 815e c73c
00000120: 1964 32be d77b 49be f2fc 013e dc6c 17be
00000130: ccca 21be fcf2 7c3d 5d07 043c fdcd 55bd
00000140: 3adc 813e bc24 323e 194e 293e 2def 81bd
00000150: 0811 763b 487b 00be 0d56 b5bd 6b89 95be
00000160: 6d2e 0e3e 976c 9e3d 9401 3bbe e609 953d
00000170: 00ef cb3d db83 703e ae03 8d3d 1cb9 a0bd
00000180: 0c4f 49be a474 3abe c033 6abe 1966 29be
00000190: a55b 8bbe 5fdd 28be fc47 83bd ca9c b1bd
000001a0: 9d0d 843e 2712 c6bd 9faa 4d3e 252a ec3e
000001b0: c0d2 92bc d870 f13d 2f62 63be 075a 37be
000001c0: 1036 26be fc22 ea3d 658e 9f3b 44b5 3bbe
000001d0: e7ff 98be e2d3 67be 0a53 883e f8ea a2be
000001e0: 50bd babd 9f9f dfbc 05c5 8bbe 5f23 3c3d
000001f0: 04f6 08bd 015a cd3e c57a 133e 4c11 563c
00000200: 7e20 ccbd 9a9d 37bc 7e2e 92bd ab6e 613d
00000210: 35ed 0cbe 0927 87bd 5780 163b fe34 ab3c
00000220: 08ce 093d 9f9c e83c 30c1 013d bd3c c8bc
00000230: 3a71 2cbe 82d6 173d f99a bcbd f1d8 7dbd
00000240: f448 a23c e4ad 9f3d 2a9b fb3d cb39 0dbe
00000250: c86c 22bb 04c6 20bd 45ea a53b 21d0 c5bd
00000260: c307 c03b 2dd6 753d f135 cbbc 8d74 273d
00000270: 956b c4bd 0e81 71bd bbef 00be c523 07bd
00000280: 5d77 bdbb e07a 13bc 949b 063e 2c07 203c
00000290: c0f3 49bd 3cd4 aebd 942d ef3c 80bd 1bbe
000002a0: f170 f6bd c8f5 313c 7ca5 8a3d 4771 0dbe
000002b0: 3c8d 9ebc 47c6 cdbd 39d0 f9bc 0c79 80bd
000002c0: 10fc 9fbd 2b62 8abd b1c3 c13c f897 653d
000002d0: e31d 51bd 1294 b03d 6965 f63c 05a2 5bbd
000002e0: 076b c0bd 69cc b8bd 8d48 b5bd 6799 8cbd
000002f0: 10c1 95bd 0b3f efbd 0edc 9f3d 0e84 213d
00000300: 7cba d5bb 55ce fcbb 7bc3 2cbd ca0e 833d
00000310: 4d0b 2abd bcb2 413d 2fdf 44bd 798a 9bbd
00000320: 3444 bfbd 7c7d c73b 7909 abbc c266 95bd
00000330: 67db ac3d df7c b43d 77bf 9e3c a875 fc3a
00000340: 71f0 91bb d1a4 833c 3ab7 58bd 282f e2bb
00000350: b69d bfbb 64d1 6e3d eb01 833d f6dc 33bd
00000360: 1d0c 1fbd d521 fbbd bc25 80bd c6c4 61bb
00000370: faf2 893e 47c0 13be 9b4f 9e3b 4944 b6bd
00000380: 52e9 58bd c205 06be 8036 eebd 98f5 20bc
00000390: 46d1 81bc aa13 263c d37f b2bd e330 8ebd
000003a0: f431 fabc 2179 acbd bbcc 14bd 5a96 03bd
000003b0: d890 58bc 7580 f2bd e1f5 08be 6f3b 8fbd
000003c0: 6d94 eabb 1d2a 153d 794d 13be 050e e2bd
000003d0: d10b b2bc 67f9 2ebe c378 3abd 7d09 3abe
000003e0: d156 883c b93d 3f3d 9488 133d 0fd1 57bc
000003f0: e49d 5b3c 5d37 6e3d 1546 86bb 1df0 01be

bias f4 [128]
-0.03820984 -0.07534722 0.052065015 -0.15371582 0.011214987 -0.092871994 -0.003747935 -0.09191221
0.11451522 -0.018259652 -0.006397441 -0.10230265 -0.018497553 -0.14170851 -0.12742926 0.0025959003
0.08388312 0.022166759 0.13922198 -0.1324296 -0.10569457 0.1348624 -0.05444977 -0.11954979
0.19980772 0.04951847 0.09609366 -0.16744228 -0.02753868 -0.08937343 -0.008574103 0.07997269
0.1362291 -0.10863383 0.10018013 -0.02759089 -0.0659738 -0.36941588 0.08159959 -0.12305966
0.060727183 -0.025068983 0.08486983 0.1274958 0.006376089 0.18527524 -0.14324258 -0.146103
-0.12584439 0.06698451 -0.047902793 -0.0071435366 -0.16384071 0.10671512 -0.11095252 -0.011176411
-0.024758438 0.026369652 -0.042758655 0.05590719 -0.056786954 -0.034794737 -0.11669529 0.08164414
0.1872698 -0.1479375 0.06544524 0.0015776566 0.15566008 -0.092247166 -0.09009139 -0.14881691
0.05389371 -0.15229504 -0.3940644 -0.093299896 -0.063417934 -0.129128 -0.005562295 0.00038797667
-0.15569313 0.13550313 -0.022010194 -0.09786592 0.1681566 -0.07452749 0.0029015418 -0.068399064
-0.119981684 0.05821403 0.0857413 0.109551005 -0.0840582 -0.0814416 0.040424336 0.16329058
-0.15962055 -0.07713801 0.10922138 -0.01199619 0.03575167 0.069063336 -0.09758919 -0.11635096
-0.09230974 0.079528384 0.10492683 -0.038271464 0.061702147 -0.1268694 -0.13075244 0.02943662
0.13176878 0.060796574 0.14073113 0.075930245 0.12523314 0.104803815 -0.11967633 0.04497258
-0.13658285 -0.10614179 0.03871359 0.048698973 0.025311353 0.044069413 -0.02205386 -0.1425364
00000000: ec81 1cbd a54f 9abd 2042 553d ae67 1dbe
00000010: 11bf 373c ac33 bebd ea9f 75bb 783c bcbd
00000020: f586 ea3d 4495 95bc a0a1 d1bb 0d84 d1bd
00000030: 2e88 97bc 091c 11be d17c 02be fb1f 2a3b
00000040: eaca ab3d 1097 b53c 3590 0e3e a09b 07be
00000050: 6576 d8bd 5e19 0a3e b906 5fbd 85d6 f4bd
00000060: 659a 4c3e e1d3 4a3d c1cc c43d fd75 2bbe
00000070: cc98 e1bc 6b09 b7bd 657a 0cbc b9c8 a33d
00000080: a47f 0b3e 6a7b debd 3d2b cd3d 4a06 e2bc
00000090: 461d 87bd 1424 bdbe b01d a73d b406 fcbd
000000a0: 11bd 783d 785d cdbc 3cd0 ad3d 428e 023e
000000b0: 83ee d03b cbb8 3d3e 2fae 12be 069c 15be
000000c0: 5add 00be 2d2f 893d b835 44bd 5414 eabb
000000d0: dcc5 27be 758d da3d 133b e3bd 441d 37bc
000000e0: 35d2 cabc 2b05 d83c b323 2fbd f0fe 643d
000000f0: 7099 68bd ed84 0ebd f1fd eebd 0b35 a73d
00000100: a8c3 3f3e ee7c 17be 2708 863d 5fc9 ce3a
00000110: 5b65 1f3e 15ec bcbd d681 b8bd 7663 18be
00000120: a7bf 5c3d 3bf3 1bbe cfc2 c9be 0414 bfbd
00000130: 43e1 81bd 213a 04be ea43 b6bb 5969 cb39
00000140: 056e 1fbe 55c1 0a3e b94e b4bc ed6d c8bd
00000150: 3e31 2c3e dea1 98bd cb27 3e3b cf14 8cbd
00000160: f5b8 f5bd d671 6e3d 2299 af3d 475c e03d
00000170: b526 acbd dbca a6bd fd93 253d a535 273e
00000180: 9273 23be 88fa 9dbd 75af df3d ab8b 44bc
00000190: 5870 123d 1471 8d3d d7dc c7bd 6a49 eebd
000001a0: e40c bdbd c7df a23d e1e3 d63d 8ac2 1cbd
000001b0: 64bb 7c3d 0dea 01be f8e3 05be 1125 f13c
000001c0: 65ee 063e d405 793d d21b 103e 5181 9b3d
000001d0: 1e3d 003e 62a3 d63d dd18 f5bd 2b35 383d
000001e0: 60dc 0bbe de60 d9bd 2492 1e3d 9378 473d
000001f0: c159 cf3c 2182 343d 4caa b4bc 10f5 11be
