nerf_models/table.pth (torch, 646048 bytes, 22 tensors)

weight f4 [128, 63]
0.2657611 0.07054461 -0.0029956398 0.17008696 0.20634697 0.10464734 -0.10186763 -0.11863518
-0.24426757 -0.13494682 0.117088124 -0.2040127 -0.04779493 -0.40474793 0.27052864 -0.17107308
-0.010624568 0.049283862 -0.07484656 -0.12362586 -0.13625014 0.31466252 -0.082823634 0.1660933
-0.02729727 -0.27265427 -0.1755242 -0.31708285 0.15395157 -0.46160227 0.03337558 0.2058803
0.111342676 0.26108727 -0.09152706 0.046912834 -0.09890814 -0.3650145 0.002806307 -0.04525004
-0.15649809 0.105283245 0.011807565 0.19455664 0.06857847 0.010819703 0.005838527 -0.0015149579
0.028887065 -0.011993059 0.005605962 0.028690524 -0.0020006974 0.027766284 -0.04169911 0.0045601837
-0.049280815 -0.0045920904 -0.023905583 -0.016367897 -0.06837027 0.014693321 0.0040421803 -0.0464102
-0.08528671 0.043017834 -0.18275937 -0.17027774 -0.08102455 -0.14148289 -0.18170407 -0.30848604
-0.22043543 -0.02710487 -0.063046075 0.18322413 0.025776336 0.023642782 -0.19012885 -0.33282775
0.09273958 0.23138562 0.076928385 -0.32166424 -0.055354513 -0.21886805 -0.37144703 -0.12152606
-0.42416105 -0.067421585 -0.03378223 -0.17646457 0.11484499 0.09124557 0.11069053 -0.2075289
0.043489296 -0.043068115 -0.28544113 0.17510682 0.018823905 0.32152307 0.019902883 -0.09943118
-0.21202172 -0.02042463 -0.1529455 0.43439507 0.03580479 -0.01034231 0.20849523 -0.042495366
0.039335918 0.08575038 -0.045785066 -0.028309265 0.055437442 0.023146987 -0.039456267 -0.036985714
-0.029140728 -0.0035962018 -0.026425213 0.016618386 -0.046539344 -0.058721427 0.14510621 -0.10819889
-0.17711416 -0.05175045 -0.23748507 -0.05563839 -0.21451895 -0.2322529 -0.018037532 -0.011722471
-0.054688074 0.28876895 0.07009168 -0.090534 0.22718424 -0.17682734 -0.1334991 0.45614785
-0.41558194 0.25778815 -0.036936656 -0.08791202 -0.0713516 -0.02818094 -0.052678242 0.10276409
0.007933401 0.1943645 -0.048399895 0.17731787 0.060265563 -0.17553069 0.14993376 0.17174865
0.27479634 -0.10252863 -0.41300675 0.090414815 -0.0071111945 -0.010663493 -0.034784883 -0.2899072
-0.02853254 -0.09848447 -0.1473105 0.010185736 0.027444653 0.04416023 -0.04961697 -0.008620852
-0.025441427 -0.007655794 -0.019726144 -0.0055051516 -0.00069749216 0.00020542805 0.014312099 -0.0067148544
-0.0032769952 -0.036741927 -0.00080644566 -0.014963621 -0.030920979 0.2180734 0.23941517 -0.034224834
0.15232213 -0.016163122 -0.065584436 -0.060153574 0.06109611 -0.02625803 0.28953105 -0.11845101
0.081006266 -0.09085445 0.157375 0.06359324 -0.35603985 -0.19603826 0.326614 -0.16681506
0.25649753 -0.18407398 0.053961102 -0.094958164 -0.1982756 -0.07999587 0.026284391 0.39636928
-0.13636105 -0.08237106 0.18847592 -0.29871634 -0.013296948 0.27647325 0.39148727 -0.028361423
0.065797366 -0.19903319 0.23296927 -0.09339684 0.2382043 -0.14512397 0.26286864 0.03554536
0.002968814 -0.18126303 0.03626257 -0.015900908 -0.12398223 0.0038040285 0.07264064 0.13006283
0.037499085 -0.024802664 -0.019672964 -0.013159306 -0.025427502 -0.038777795 0.007746656 0.024284692
0.022991316 0.0037477736 0.0056008683 0.012365171 -0.119356655 0.18533681 0.16544203 -0.2227543
00000000: d711 883e b179 903d 7f52 44bb 472b 2e3e
00000010: 9f4c 533e 5851 d63d fa9f d0bd 00f7 f2bd
00000020: 4721 7abe 802f 0abe e6cb ef3d b5e8 50be
00000030: 9ec4 43bd 1f3b cfbe bb82 8a3e c82d 2fbe
00000040: ab12 2ebc e0dd 493d 2749 99bd 8e2f fdbd
00000050: 2885 0bbe 721b a13e 709f a9bd 5d14 2a3e
00000060: 869e dfbc 5799 8bbe 9ebc 33be af58 a2be
00000070: 7ba5 1d3e 2257 ecbe d5b4 083d 49d2 523e
00000080: a107 e43d 3bad 853e 8a72 bbbd ac27 403d
00000090: 5a90 cabd 2ee3 babe 05ea 373b 1b58 39bd
000000a0: 0941 20be be9e d73d 8474 413c db39 473e
000000b0: de72 8c3d 2045 313c 1d51 bf3b 8d91 c6ba
000000c0: 91a4 ec3c 897e 44bc 38b2 b73b 6408 eb3c
000000d0: 221e 03bb 1e76 e33c b0cc 2abd 986d 953b
000000e0: aeda 49bd 3f79 96bb a4d5 c3bc f815 86bc
000000f0: b605 8cbd 41bc 703c 4474 843b 9f18 3ebd
00000100: ccaa aebd 7833 303d 4625 3bbe 4a5d 2ebe
00000110: 33f0 a5bd e4e0 10be a210 3abe e2f1 9dbe
00000120: d3b9 61be 080b debc 4d1e 81bd 1b9f 3b3e
00000130: e528 d33c 82ae c13c 23b1 42be 6668 aabe
00000140: 40ee bd3d 5af0 6c3e a18c 9d3d 2db1 a4be
00000150: 6abb 62bd f21e 60be 4e2e bebe a8e2 f8bd
00000160: a32b d9be 5414 8abd 3c5f 0abd 21b3 34be
00000170: da33 eb3d f5de ba3d b7b1 e23d 7582 54be
00000180: d521 323d 3168 30bd 5725 92be 344f 333e
00000190: 9734 9a3c ac9e a43e 5f0b a33c 93a2 cbbd
000001a0: 391c 59be 8e51 a7bc bf9d 1cbe 0869 de3e
000001b0: 0ba8 123d cb72 29bc c67f 553e 9f0f 2ebd
000001c0: b31e 213d e59d af3d 1f89 3bbd d5e8 e7bc
000001d0: 5f12 633d c09e bd3c e59c 21bd 557e 17bd
000001e0: 89b8 eebc 41ae 6bbb b079 d8bc 4823 883c
000001f0: 0aa0 3ebd e185 70bd b996 143e 6197 ddbd
00000200: 6a5d 35be 48f8 53bd 492f 73be 15e5 63bd
00000210: dbaa 5bbe b4d3 6dbe 72c3 93bc 9b0f 40bc
00000220: 9a00 60bd 86d9 933e 3a8c 8f3d e469 b9bd
00000230: fca2 683e 3a12 35be fdb3 08be 368c e93e
00000240: 28c7 d4be cffc 833e e44a 17bd 380b b4bd
00000250: ca20 92bd b7db e6bc 24c5 57bd fb75 d23d
00000260: 18fb 013c 7d07 473e f83e 46bd d192 353e
00000270: 06d9 763d 51be 33be 3c88 193e e1de 2f3e
00000280: 1bb2 8c3e 88fa d1bd 9f75 d3be 672b b93d
00000290: 0605 e9bb eeb5 2ebc 987a 0ebd b76e 94be
000002a0: 13bd e9bc 3ab2 c9bd 90d8 16be 13e2 263c
000002b0: 9cd3 e03c 5be1 343d 2a3b 4bbd 793e 0dbc
000002c0: 8a6a d0bc 74dd fabb b998 a1bc 8f64 b4bb
000002d0: e8d7 36ba 2c68 5739 4b7d 6a3c 4808 dcbb
000002e0: dbc2 56bb b47e 16bd a767 53ba fa29 75bc
000002f0: fe4d fdbc a24e 5f3e 4029 753e 572f 0cbd
00000300: 55fa 1b3e 8668 84bc 2251 86bd 9863 76bd
00000310: ea3f 7a3d 151b d7bc 6a3d 943e 7196 f2bd
00000320: 9de6 a53d e611 babd e926 213e 2c3d 823d
00000330: db4a b6be 41be 48be f339 a73e 91d1 2abe
00000340: a553 833e e47d 3cbe 5106 5d3d 6d79 c2bd
00000350: c208 4bbe e0d4 a3bd 5d52 d73c eaf0 ca3e
00000360: 3ba2 0bbe 29b2 a8bd d5ff 403e 59f1 98be
00000370: 71db 59bc e78d 8d3e 0571 c83e 3756 e8bc
00000380: c5c0 863d 5bcf 4bbe 7f8f 6e3e d846 bfbd
00000390: d4eb 733e 619b 14be b896 863e 0398 113d
000003a0: 6f90 423b 049d 39be 1088 143d 9f42 82bc
000003b0: 65ea fdbd 024d 793b 9ec4 943d 312f 053e
000003c0: a498 193d f52e cbbc 3229 a1bc 219a 57bc
000003d0: 564d d0bc 77d5 1ebd a9d7 fd3b b1f0 c63c
000003e0: 4958 bc3c 359d 753b 7d87 b73b 4997 4a3c
000003f0: 4371 f4bd efc8 3d3e a369 293e b419 64be

bias f4 [128]
-0.085336864 -0.07243813 -0.032808304 -0.1858324 -0.031043883 -0.2693547 -0.15833767 -0.021786593
0.0047003794 -0.21631677 -0.06176454 -0.0414602 -0.23896182 -0.23004359 -0.10832292 -0.10468223
-0.034047138 -0.028776066 -0.2075555 -0.1309931 -0.14239208 -0.15447424 -0.05190343 -0.2197384
-0.24789834 -0.06334247 -0.09633156 -0.22130428 -0.039757125 -0.040501103 -0.25946662 -0.05255766
-0.031718418 -0.27902734 0.029608782 -0.12127835 -0.21507822 -0.22193363 0.009426668 -0.292428
-0.07474087 0.057368144 -0.12984367 -0.19619437 -0.18054669 -0.23759475 0.020323614 -0.08454028
-0.19854003 -0.18822673 -0.072122894 -0.1198259 -0.02810614 -0.034851484 -0.019879831 -0.12422339
-0.08239076 -0.20927683 -0.0894745 -0.1454223 -0.19076768 -0.1824692 0.0050782915 -0.21531288
-8.8667584e-05 -0.033204965 -0.110718414 -0.072215736 -0.3062998 -0.18989721 -0.24878366 -0.19358373
-0.14857088 -0.106202 -0.0778844 -0.20642938 0.03917342 -0.18861485 -0.08014407 -0.05956538
-0.12597962 0.0294278 -0.092512585 0.021178557 -0.20384656 -0.0038550005 -0.15139443 -0.07821899
-0.24795377 -0.1583421 -0.09407098 -0.08893729 -0.0013231975 -0.080574065 -0.17769653 0.024571024
-0.21939196 -0.068898425 -0.039790068 -0.25044736 0.03790332 -0.124040626 -0.16883448 -0.027576536
-0.22552599 -0.08716557 -0.1666767 -0.20990145 -0.2917275 -0.2478698 -0.115066096 -0.1718172
-0.23042955 0.058833916 -0.14710939 -0.070669234 -0.23571874 -0.18142162 -0.24232356 -0.076441586
-0.22610304 -0.13147016 -0.091339976 0.033509143 -0.089122124 -0.06731242 -0.12924728 -0.04515559
00000000: 18c5 aebd 715a 94bd 0062 06bd d94a 3ebe
00000010: be4f febc dce8 89be 4523 22be cc79 b2bc
00000020: a405 9a3b 2582 5dbe d0fc 7cbd 2cd2 29bd
00000030: 68b2 74be 8c90 6bbe 68d8 ddbd a363 d6bd
00000040: 0375 0bbd c9bb ebbc 6e89 54be 0e23 06be
00000050: 3bcf 11be 7f2e 1ebe b198 54bd 1a03 61be
00000060: 10d9 7dbe b2b9 81bd 7b49 c5bd 979d 62be
00000070: 5ed8 22bd 7ce4 25bd cfd8 84be b346 57bd
00000080: 2ceb 01bd acdc 8ebe 1e8e f23c c960 f8bd
00000090: 773d 5cbe 9242 63be 5072 1a3c 1fb9 95be
000000a0: be11 99bd dcfa 6a3d bdf5 04be 2de7 48be
000000b0: 3be1 38be 0a4c 73be b57d a63c 7423 adbd
000000c0: 144e 4bbe 82be 40be 2bb5 93bd 4867 f5bd
000000d0: d93e e6bc 6ec0 0ebd 07db a2bc d568 febd
000000e0: 7dbc a8bd aa4c 56be 683e b7bd 95e9 14be
000000f0: 9a58 43be 35d9 3abe cc67 a63b fb7a 5cbe
00000100: 0cf3 b9b8 ee01 08bd 56c0 e2bd d8e5 93bd
00000110: 54d3 9cbe 6a74 42be 25c1 7ebe d03a 46be
00000120: f722 18be 6f80 d9bd db81 9fbd 3962 53be
00000130: 4f74 203d 4024 41be 9322 a4bd d4fa 73bd
00000140: cd00 01be 9212 f13c 3d77 bdbd a77e ad3c
00000150: 27bd 50be 2da4 7cbb 2407 1bbe 4731 a0bd
00000160: 98e7 7dbe 6e24 22be 49a8 c0bd c124 b6bd
00000170: 246f adba 0404 a5bd 14f6 35be 2c49 c93c
00000180: 49a8 60be 9e1a 8dbd e9fa 22bd a33a 80be
00000190: 8340 1b3d 0309 febd f2e2 2cbe 30e8 e1bc
000001a0: 49f0 66be dd83 b2bd 4cad 2abe 68f0 56be
000001b0: 4f5d 95be 95d1 7dbe c6a7 ebbd d9f0 2fbe
000001c0: b9f5 6bbe d5fb 703d d8a3 16be 08bb 90bd
000001d0: 4160 71be 97c6 39be ab23 78be 688d 9cbd
000001e0: 8e87 67be 1da0 06be 7410 bbbd e240 093d
000001f0: a985 b6bd 18db 89bd 6659 04be 11f5 38bd

weight f4 [128, 128]
-0.102007054 -0.069642656 0.18654111 -0.008055216 -0.09391597 0.112725206 0.07935833 0.15485722
0.09740582 -0.1746306 -0.051584247 0.019743584 0.25843802 0.0786138 0.06201616 0.12748556
-0.1615632 0.0151041215 0.021541072 0.069327295 -0.10508443 0.12545468 -0.07559576 -0.13663648
-0.17896256 -0.2382101 0.13968205 0.018939933 0.12564088 0.11533479 0.11461967 -0.34396896
-0.3616171 0.06943958 0.06827787 0.19498685 -0.05876608 -0.14338198 -0.038724132 -0.14439113
-0.27673978 0.0073908176 -0.32265165 0.21852343 -0.5817354 -0.013216582 -0.26150402 -0.22393434
0.06456284 0.06271573 -0.24490735 0.045191932 0.12968005 -0.04782963 0.10885643 -0.35752505
-0.018410278 0.0951297 0.16766927 -0.055260748 -0.06490209 -0.4547007 0.016023096 0.008430587
-0.013915072 -0.0631919 0.0100036245 -0.254945 -0.100164324 -0.16275758 -0.1010295 0.19241495
-0.096338764 -0.056477576 -0.19202287 -0.17959069 0.035897054 -0.16746102 -0.07962085 -0.1005815
-0.0037267718 -0.19178942 0.14767383 0.0925026 0.31939352 0.23663871 -0.07799371 0.110979386
-0.03143932 0.036130637 0.12609446 -0.08758114 0.19144644 -0.24684857 0.12996942 -0.1576736
-0.09517231 0.12137049 -0.19154243 0.13528337 -0.055752542 0.054224476 -0.20770766 0.31442916
-0.057859194 -0.083061926 0.21842305 0.011461939 -0.13843095 0.12286904 -0.17513138 -0.099254206
0.0041110446 -0.0020297656 -0.119540595 0.06015367 -0.07749872 -0.080384694 0.17923725 -0.21333943
0.13503566 0.046916153 -0.12100861 0.42557132 -0.16746874 0.07043108 0.12541923 -0.057957523
0.10117654 -0.05235784 0.055242255 -0.011491678 0.15588166 0.10476791 -0.010311823 -0.09742105
-0.17021215 -0.17188683 0.16311775 0.052827604 -0.09262045 -0.19750306 -0.15070833 -0.17115879
-0.14477947 -0.28145158 0.027215572 -0.04569306 -0.4241015 0.17012922 0.13284391 -0.061178047
0.20926501 0.0035123639 -0.102323264 -0.30016133 -0.18764973 0.10927375 0.18279456 0.18056463
-0.041216955 -0.13152184 -0.10258109 -0.12709108 0.115266435 -0.1307377 0.005170467 -0.02759144
-0.105062075 0.027705796 -0.14586124 -0.42294204 -0.030858062 0.13631551 -0.30852297 0.065923885
-0.33236447 0.06744116 -0.06931491 -0.0055179796 0.02978582 0.015520528 0.2064532 -0.056273624
-0.22741424 0.038420927 -0.25690052 -0.40450668 0.27343157 0.02590761 -0.08428007 0.13880627
-0.27583042 -0.07783329 0.09739889 0.058901213 0.038412586 -0.05490772 0.19594167 -0.0013462018
0.044862244 -0.019598095 0.023742868 -0.04793454 -0.070760086 0.16512492 -0.1979817 -0.06710728
0.0628145 0.016886296 -0.16498554 0.023530846 0.12183747 0.007402896 0.018336184 -0.01766314
-0.1283459 -0.13331632 0.16398345 0.026023054 -0.07108846 0.23744957 0.09819488 0.13506891
-0.0645858 -0.19055705 0.23151119 0.077926695 -0.11899249 0.06780046 0.027600957 0.16876896
0.079798244 0.25560167 -0.09255066 0.10359731 0.14388467 0.031271826 -0.1776076 -0.35700825
-0.27082238 -0.05027512 -0.19831863 -0.000125059 0.025819313 0.058603037 0.07163177 0.2264197
-0.07942501 -0.16366552 0.13536546 -0.27604625 -0.10574644 -0.095091164 0.16750215 -0.003846881
00000000: 13e9 d0bd cfa0 8ebd a204 3f3e 06fa 03bc
00000010: 0457 c0bd 79dc e63d 9f86 a23d e492 1e3e
00000020: b47c c73d 5dd2 32be 014a 53bd 4cbd a13c
00000030: fd51 843e 4600 a13d a804 7e3d 938b 023e
00000040: d370 25be 4777 773c e776 b03c 78fb 8d3d
00000050: 8136 d7bd 3177 003e f3d1 9abd 6fea 0bbe
00000060: f641 37be 59ed 73be d008 0f3e eb27 9b3c
00000070: 01a8 003e a534 ec3d b8bd ea3d b31c b0be
00000080: e025 b9be 5736 8e3d 45d5 8b3d a2aa 473e
00000090: b3b4 70bd bad2 12be 329d 1ebd 45db 13be
000000a0: d6b0 8dbe ac2e f23b 9932 a5be 9bc4 5f3e
000000b0: 9cec 14bf 5d8a 58bc dbe3 85be 0b4f 65be
000000c0: 8639 843d 1b71 803d fec8 7abe 2d1b 393d
000000d0: d9ca 043e 01e9 43bd 1ff0 de3d 860d b7be
000000e0: 27d1 96bc 5cd3 c23d 7eb1 2b3e 1859 62bd
000000f0: 63eb 84bd 88ce e8be de42 833c 7220 0a3c
00000100: 0bfc 63bc c16a 81bd 3ee6 233c 2788 82be
00000110: f422 cdbd eca9 26be 8ee8 cebd 6d08 453e
00000120: 424d c5bd 0855 67bd a5a1 44be 9fe6 37be
00000130: ca08 133d e77a 2bbe 4210 a3bd acfd cdbd
00000140: db3c 74bb 7264 44be cf37 173e 0172 bd3d
00000150: 8c87 a33e 6b51 723e 2bbb 9fbd 2949 e33d
00000160: 84c6 00bd b8fd 133d e81e 013e be5d b3bd
00000170: 890a 443e dfc5 7cbe b416 053e 3075 21be
00000180: b3e9 c2bd 1791 f83d b323 44be b987 0a3e
00000190: c75c 64bd 7c1a 5e3d 51b1 54be dcfc a03e
000001a0: c3fd 6cbd 5f1c aabd 4baa 5f3e dbca 3b3c
000001b0: d8c0 0dbe c3a2 fb3d a455 33be ca45 cbbd
000001c0: f1b5 863b d105 05bb b3d1 f4bd b263 763d
000001d0: a6b7 9ebd bba0 a4bd f889 373e a775 5abe
000001e0: ca46 0a3e 272b 403d 5dd3 f7bd 7ce4 d93e
000001f0: ed7c 2bbe 2c3e 903d e66d 003e de64 6dbd
00000200: a535 cf3d 2d75 56bd b445 623d 9747 3cbc
00000210: 719f 1f3e 8f90 d63d ecf2 28bc b084 c7bd
00000220: 184c 2ebe 1a03 30be 5708 273e c261 583d
00000230: caaf bdbd 3e3e 4abe 4953 1abe 4044 2fbe
00000240: 1241 14be 6c1a 90be 31f3 de3c a528 3bbd
00000250: d523 d9be 5b36 2e3e 3c08 083e d595 7abd
00000260: 9149 563e b02f 663b dc8e d1bd bfae 99be
00000270: 4027 40be eaca df3d 7f2e 3b3e efe5 383e
00000280: 1cd3 28bd a9ad 06be 0916 d2bd 2a24 02be
00000290: cf10 ec3d 1be0 05be 056d a93b 7207 e2bc
000002a0: c92a d7bd 44f7 e23c a65c 15be dc8b d8be
000002b0: 0cca fcbc 4b96 0b3e b9f6 9dbe 1a03 873d
000002c0: ad2b aabe 971e 8a3d faf4 8dbd 2bd0 b4bb
000002d0: 6401 f43c d049 7e3c 7868 533e 2c7f 66bd
000002e0: 47df 68be 435f 1d3d 7788 83be 801b cfbe
000002f0: 39ff 8b3e 323c d43c 089b acbd 3b23 0e3e
00000300: a539 8dbe 0f67 9fbd 1279 c73d 6642 713d
00000310: 8456 1d3d ebe6 60bd efa4 483e 0973 b0ba
00000320: 79c1 373d 2f8c a0bc 6780 c23c 0257 44bd
00000330: aaea 90bd 8216 293e b7bb 4abe 8b6f 89bd
00000340: e3a4 803d 2155 8a3c f8f1 28be c3c3 c03c
00000350: ec85 f93d fe93 f23b c435 963c 4ab2 90bc
00000360: 1c6d 03be 1384 08be 47eb 273e 4d2e d53c
00000370: d496 91bd fb25 733e 661a c93d 814f 0a3e
00000380: 8f45 84bd 6321 43be 4511 6d3e 0898 9f3d
00000390: 56b2 f3bd f8da 8a3d 671b e23c c5d1 2c3e
000003a0: 436d a33d 39de 823e 338b bdbd d42a d43d
000003b0: 8156 133e e316 003d c4de 35be c9c9 b6be
000003c0: 3ba9 8abe 49ed 4dbd 0a14 4bbe 4522 03b9
000003d0: 0683 d33c bd09 703d adb3 923d 91da 673e
000003e0: 94a9 a2bd ef97 27be 3e9d 0a3e ef55 8dbe
000003f0: 9791 d8bd 28bf c2bd af85 2b3e f41b 7cbb

bias f4 [128]
-0.054225832 -0.1365583 -0.05281023 0.008857089 0.06448273 -0.12113777 -0.03030751 -0.03464141
-0.120486274 0.062194813 -0.07827555 -0.10193831 -0.07733057 -0.08238138 -0.010580185 -0.057152532
-0.08974072 -0.14140698 -0.12192553 -0.11889431 -0.038406547 -0.13851002 -0.027199224 -0.075212345
0.025015937 -0.13346644 -0.15941231 -0.040926058 -0.11366973 0.009010465 0.029808182 -0.04598742
-0.051395565 -0.02411339 -0.045432206 -0.027582295 -0.054905664 0.06637089 -0.010309499 0.072579615
-0.0702662 -0.15964977 -0.015621212 -0.0801217 -0.027773857 -0.006121799 -0.05445129 0.08219856
0.020231018 -0.07527076 0.018028334 -0.01112474 -0.010334543 -0.10330423 -0.05152265 -0.004849981
0.03144463 -0.119482465 -0.07746646 -0.07310527 -0.1626216 0.0073123616 -0.004714286 -0.03043133
0.009003995 -0.0050729155 -0.09564644 -0.06717334 -0.09156101 -0.07196831 -0.007877363 0.041496266
-0.07041633 0.021341637 -0.093865156 -0.07627513 0.048685353 -0.077290826 -0.15169685 -0.08500274
-0.024798995 -0.11688383 -0.034103464 -0.045944832 -0.04363322 -0.15334193 0.061277274 -0.053573612
-0.029153977 -0.00067184394 -0.02208327 0.008964066 -0.04216979 -0.12540257 -0.0410825 -0.07792299
-0.0969158 -0.08846197 0.040657967 -0.06768879 -0.093345456 0.1175275 -0.02910193 -0.052250933
-0.11543549 -0.05025681 0.055874977 0.002673792 -0.07416866 -0.089493476 -0.13786624 0.054073796
0.0050499765 0.046720352 -0.013284801 -0.09990535 -0.18297976 0.04631432 0.0113999685 0.0328486
-0.15427265 0.01532394 0.04600826 0.0058122636 0.0462274 -0.016240967 -0.0052375724 -0.015315223
00000000: e81b 5ebd f0d5 0bbe 8a4f 58bd 531d 113c
00000010: 860f 843d 1417 f8bd 7547 f8bc 27e4 0dbd
00000020: 82c1 f6bd fdbf 7e3d ee4e a0bd 08c5 d0bd
00000030: 7d5f 9ebd 92b7 a8bd 8358 2dbc c618 6abd
00000040: fcc9 b7bd fecc 10be 18b4 f9bd dc7e f3bd
00000050: 2f50 1dbd 92d5 0dbe e8d0 debc ee08 9abd
00000060: 39ee cc3c 6dab 08be fb3c 23be 15a2 27bd
00000070: adcb e8bd a1a0 133c 4a30 f43c 4e5d 3cbd
00000080: 2884 52bd 7289 c5bc 1f17 3abd 44f4 e1bc
00000090: c3e4 60bd 76ed 873d 2ce9 28bc 9fa4 943d
000000a0: bae7 8fbd 3b7b 23be 1df0 7fbc d916 a4bd
000000b0: 0086 e3bc 5f99 c8bb 5108 5fbd b857 a83d
000000c0: 85bb a53c 8e27 9abd 28b0 933c 8b44 36bc
000000d0: 3752 29bc 2b91 d3bd 6a09 53bd 97ec 9ebb
000000e0: 16cc 003d 39b3 f4bd bca6 9ebd 37b8 95bd
000000f0: 4786 26be 899c ef3b 4c7a 9abb 204b f9bc
00000100: 7e85 133c b33a a6bb 48e2 c3bd 2d92 89bd
00000110: 5784 bbbd 1f64 93bd 0e10 01bc fdf7 293d
00000120: 7036 90bd a8d4 ae3c 603c c0bd 2336 9cbd
00000130: 4b6a 473d a74a 9ebd 6b56 1bbe eb15 aebd
00000140: 4327 cbbc ca60 efbd 13b0 0bbd a630 3cbd
00000150: bfb8 32bd ab05 1dbe e1fd 7a3d 0170 5bbd
00000160: 52d4 eebc af1e 30ba f9e7 b4bc 05de 123c
00000170: 3bba 2cbd 8869 00be 2046 28bd 1796 9fbd
00000180: ca7b c6bd 8d2b b5bd f888 263d 6ca0 8abd
00000190: e72b bfbd 42b2 f03d 2c67 eebc 1305 56bd
000001a0: 7169 ecbd 16da 4dbd 29dd 643d c93a 2f3b
000001b0: bde5 97bd 5b48 b7bd cf2c 0dbe 7c7c 5d3d
000001c0: 467a a53b d75d 3f3d 7ea8 59bc 2d9b ccbd
000001d0: 0c5f 3bbe 16b4 3d3d efc6 3a3c 418c 063d
000001e0: a6f9 1dbe 4311 7b3c 2873 3c3d cd74 be3b
000001f0: f158 3d3d c70b 85bc f19f abbb b3ec 7abc

weight f4 [128, 128]
0.24548104 -0.020111902 0.1554202 0.11384091 -0.055107966 -0.10049798 0.07062875 0.09205334
-0.30293322 0.16260192 -0.3574952 0.2755446 -0.0066085355 0.028117834 0.008830209 -0.06574244
0.24291311 0.09600367 0.074567035 0.032263722 -0.0032413893 0.040197253 0.012694562 -0.38883185
-0.24149121 0.12249433 0.023762906 -0.5927574 -0.019393653 0.14091082 0.08863013 -0.023297865
-0.056390923 -0.23037836 -0.33931133 0.15657341 -0.056360006 -0.069052204 0.27796203 -0.08979615
0.095181555 0.15374582 0.17722636 -0.034204207 -0.1046164 -0.5508538 -0.006261106 -0.023276966
-0.17351925 -0.26584792 -0.29291442 0.18448266 0.34844416 -0.1436176 -0.12984495 -0.031218255
-0.061652422 -0.053963345 0.15656371 -0.283092 0.07848138 -0.32250297 0.113539636 0.03387007
-0.081018485 -0.016981978 0.051999576 -0.105839685 0.15867333 0.23885718 0.071838535 -0.0158451
-0.2105053 -0.023408737 0.015128612 0.06611161 0.058419023 0.16835062 0.034810953 0.030124787
0.2467307 0.12436421 -0.052706122 0.029571438 -0.05267472 0.18335237 -0.09115434 0.030364964
-0.11029534 0.1591828 0.08303838 -0.10388532 -0.27755633 -0.18381181 -0.0322186 0.08595383
0.010511759 0.16123866 -0.12815621 0.11149943 0.025172032 -0.21374208 -0.23048225 0.021780519
0.1690736 0.00939286 0.006756948 -0.06808442 -0.35793835 -0.045339532 0.14615136 -0.15377963
0.037530314 -0.13040519 -0.039538994 0.05111902 -0.07802449 0.20971166 -0.007792482 0.066384934
-0.113125525 -0.07513518 0.10083071 -0.09606285 -0.11159814 0.0558869 0.06144475 -0.19608489
0.04776728 -0.31651968 0.2058366 -0.078978 -0.40471283 -0.13903092 0.055893034 0.21618596
0.07982209 -0.07424982 -0.04308815 0.08052683 -0.21512169 0.1269246 -0.04309863 0.2485904
-0.074349515 -0.12237523 -0.06840794 -0.18397237 0.14528914 0.005158287 -0.3098122 -0.4390347
0.25685024 -0.083564945 0.006675905 0.22675255 0.10020432 -0.2832446 0.051904686 -0.3100324
-0.0146524925 -0.26657948 -0.381288 0.10984874 0.068283536 -3.8275048e-05 -0.042696256 0.26473323
0.44133216 -0.27695876 0.06817294 -0.05739139 -0.2658174 -0.020099076 0.20973046 0.23108205
-0.0686373 -0.16895927 0.20136678 0.16062714 0.0045419703 0.024976198 -0.2599368 0.03782389
-0.076924644 0.121806465 -0.17658514 -0.10451032 0.049241688 0.026376208 0.05750547 -0.27285147
-0.1087323 0.008293788 0.013089652 -0.094686486 -0.03686033 0.15377648 -0.12352635 0.05231452
0.016886016 0.088009186 -0.15938091 -0.2177727 0.27740553 -0.10124245 -0.14892815 -0.21744163
0.10612726 0.09562221 0.16138399 -0.05759287 0.16334364 -0.039882816 0.09155042 0.000942273
0.07936022 0.12792876 0.011599718 -0.044766642 -0.22176807 0.0040981025 -0.07756809 -0.18563741
-0.02219277 0.022979675 -0.11698906 0.024453504 -0.014373256 0.18622847 -0.013860143 0.030198865
-0.03282821 0.339009 -0.088060014 0.0045856526 -0.015435479 -0.14444381 0.16788013 -0.034216955
-0.27180597 0.01180463 0.05933801 0.02273146 0.09349438 -0.022348907 0.03883676 -0.16581076
-0.33202958 0.07343306 -0.03239173 0.13854083 -0.061863862 -0.07426241 -0.5611359 0.13830835
00000000: 625f 7b3e b7c1 a4bc 7926 1f3e 6c25 e93d
00000010: e4b8 61bd e3d1 cdbd cea5 903d 7686 bc3d
00000020: 101a 9bbe 1e81 263e 9c09 b7be 2f14 8d3e
00000030: 6a8c d8bb 5f57 e63c 95ac 103c f9a3 86bd
00000040: 37be 783e 929d c43d 9ab6 983d f726 043d
00000050: 7d6d 54bb e0a5 243d dafc 4f3c f814 c7be
00000060: 7949 77be 4fde fa3d 6daa c23c f3be 17bf
00000070: 70df 9ebc ed4a 103e b783 b53d 2adb bebc
00000080: 2bfa 66bd 4ee8 6bbe 37ba adbe c854 203e
00000090: c0d9 66bd 3e6b 8dbd 0a51 8e3e 0be7 b7bd
000000a0: 8cee c23d 8b6f 1d3e d47a 353e b619 0cbd
000000b0: 2041 d6bd c104 0dbf f729 cdbb 56af bebc
000000c0: 08af 31be 381d 88be e1f8 95be 06e9 3c3e
000000d0: 4667 b23e 7e10 13be 13f6 04be 6dbd ffbc
000000e0: 4087 7cbd ab08 5dbd 3d52 203e 6ff1 90be
000000f0: d9ba a03d 1c1f a5be 7887 e83d 58bb 0a3d
00000100: 05ed a5bd ca1d 8bbc 82fd 543d 7ac2 d8bd
00000110: 437b 223e fa96 743e 1520 933d 95cd 81bc
00000120: b48e 57be aec3 bfbc ffdd 773c 8665 873d
00000130: c948 6f3d 1b64 2c3e ee95 0e3d 42c8 f63c
00000140: f9a6 7c3e aab2 fe3d 60e2 57bd cd3f f23c
00000150: 72c1 57bd b9c0 3b3e 20af babd f2bf f83c
00000160: 86e2 e1bd d100 233e 0710 aa3d d4c1 d4bd
00000170: dd1b 8ebe 2a39 3cbe a7f7 03bd 9008 b03d
00000180: 8339 2c3c bf1b 253e 623b 03be d059 e43d
00000190: 9435 ce3c 34df 5abe 8a03 6cbe 0f6d b23c
000001a0: a121 2d3e 83e4 193c 6369 dd3b d86f 8bbd
000001b0: b243 b7be f2b5 39bd b4a8 153e 6878 1dbe
000001c0: 63b9 193d f088 05be a4f3 21bd 2d62 513d
000001d0: 4ecb 9fbd a7be 563e 1458 ffbb d3f4 873d
000001e0: 5bae e7bd 79e0 99bd 5580 ce3d 99bc c4bd
000001f0: 918d e4bd a9e9 643d 7dad 7b3d 7aca 48be
00000200: a0a7 433d de0e a2be d4c6 523e 38bf a1bd
00000210: 8536 cfbe 1f5e 0ebe 18f0 643d da5f 5d3e
00000220: c479 a33d 4a10 98bd 337d 30bd 40eb a43d
00000230: dc48 5cbe 86f8 013e 3088 30bd 7b8e 7e3e
00000240: 8f44 98bd dd9f fabd 7619 8cbd 4163 3cbe
00000250: adc6 143e d906 a93b b49f 9ebe 28c9 e0be
00000260: e081 833e 1924 abbd 8dc1 da3b d231 683e
00000270: ec37 cd3d 7005 91be 029a 543d 91bc 9ebe
00000280: 0211 70bc 1b7d 88be 2e38 c3be 60f8 e03d
00000290: 3dd8 8b3d 8589 20b8 45e2 2ebd 1d8b 873e
000002a0: 4af6 e13e 8acd 8dbe 419e 8b3d 3c13 6bbd
000002b0: 3819 88be d1a6 a4bc 95c3 563e c6a0 6c3e
000002c0: b691 8cbd a903 2dbe 1833 4e3e 717b 243e
000002d0: cfd4 943b e29a cc3c 7016 85be 39ed 1a3d
000002e0: ab8a 9dbd ab75 f93d bcd2 34be 8209 d6bd
000002f0: a7b1 493d eb12 d83c db8a 6b3d 30b3 8bbe
00000300: 0aaf debd abe2 073c fb75 563c fdea c1bd
00000310: dbfa 16bd 9577 1d3e 62fb fcbd c047 563d
00000320: 8b54 8a3c 293e b43d c034 23be cfff 5ebe
00000330: 1908 8e3e 3458 cfbd 9f80 18be 05a9 5ebe
00000340: 4059 d93d 94d5 c33d d841 253e 80e6 6bbd
00000350: 8e43 273e 2a5c 23bd c97e bb3d df02 773a
00000360: 9c87 a23d c2ff 023e be0c 3e3c 3a5d 37bd
00000370: 2b17 63be 6049 863b 05dc 9ebd bc17 3ebe
00000380: 9dcd b5bc df3f bc3c f697 efbd b752 c83c
00000390: ce7d 6bbc adb2 3e3e a715 63bc 9c63 f73c
000003a0: e076 06bd 9692 ad3e cf58 b4bd 3e43 963b
000003b0: 17e5 7cbc 14e9 13be c5e8 2b3e 1427 0cbd
000003c0: 272a 8bbe 3568 413c 6a0c 733d 5437 ba3c
000003d0: fb79 bf3d 0e15 b7bc 4b13 1f3d 4cca 29be
000003e0: c8ff a9be 1264 963d 31ad 04bd a6dd 0d3e
000003f0: f664 7dbd e416 98bd 9aa6 0fbf b4a0 0d3e

bias f4 [128]
-0.13544244 -0.031852055 0.056196187 -0.1856928 -0.06256894 0.000536785 -0.18771084 -0.07229914
-0.076769374 -0.017146315 -0.12733255 -0.20243166 0.027355332 -0.02080141 0.07759185 -0.18379414
-0.1122472 -0.08956055 -0.08756234 0.11879123 -0.22327329 -0.11272208 -0.07633337 -0.12797494
-0.0070471116 -0.067914784 0.01552619 0.042726614 0.05203034 -0.07152786 -0.07967795 0.031828996
0.11924263 -0.08473571 -0.14436539 -0.03712742 0.038318623 -0.12360409 0.04789403 -0.019436477
-0.0051203505 -0.17039847 0.042802393 -0.051181227 0.13994624 -0.06839384 -0.032066118 0.007362436
-0.08352556 -0.08510592 -0.16764423 0.06224897 0.01938363 -0.22066788 0.021166023 -0.043479674
-0.09008108 -0.14466757 -0.03063651 -0.0049516116 0.00971511 0.0019202852 0.060174894 -0.057096746
-0.058942106 -0.08747676 -0.07447587 -0.08495356 0.06807887 -0.22667801 -0.09687064 -0.066999055
-0.20438324 -0.1655838 -0.16545993 0.121957175 0.085014746 0.04340418 -0.13858013 0.024742097
0.120005764 -0.041445624 -0.18556105 -0.039023478 -0.0050093345 -0.017092627 -0.07783502 0.02845842
0.11861676 -0.01766393 0.06938684 -0.037607703 -0.13456595 -0.21482843 -0.074066125 -0.072074816
-0.2769931 0.047311474 -0.12140238 0.06069586 -0.019069789 -0.1343905 -0.108280435 0.031323213
-0.039921653 -0.14463586 0.013108947 0.09756952 -0.0034446423 -0.115954876 -0.07899872 -0.08082679
-0.13123833 -0.04056688 -0.10341034 -0.13334839 -0.16408004 -0.1603622 -0.06607779 0.033494506
-0.06824787 -0.063361794 -0.11449672 -0.004131292 0.010427981 -0.052133363 -0.07297906 -0.09399239
00000000: 6cb1 0abe 4d77 02bd f92d 663d 4126 3ebe
00000010: 2524 80bd 08b7 0c3a 4537 40be 9211 94bd
00000020: 4339 9dbd 6e76 8cbc 7763 02be 3f4a 4fbe
00000030: 4a18 e03c b867 aabc 7ae8 9e3d 8834 3cbe
00000040: dce1 e5bd 866b b7bd e253 b3bd d148 f33d
00000050: c1a1 64be d5da e6bd ab54 9cbd dd0b 03be
00000060: 75eb e6bb e816 8bbd 9061 7e3c 1a02 2f3d
00000070: c41d 553d 337d 92bd 312e a3bd 1f5f 023d
00000080: 7b35 f43d ea89 adbd 85d4 13be ec12 18bd
00000090: fdf3 1c3d 2424 fdbd 882c 443d 3f39 9fbc
000000a0: 9dc8 a7bb f07c 2ebe 9051 2f3d 68a3 51bd
000000b0: 114e 0f3e 1212 8cbd c357 03bd 9740 f13b
000000c0: 730f abbd 034c aebd eeaa 2bbe c7f8 7e3d
000000d0: 6bca 9e3c c3f6 61be 5e64 ad3c be17 32bd
000000e0: 6e7c b8bd bc23 14be 6bf9 fabc 2141 a2bb
000000f0: 202c 1f3c 14b2 fb3a f379 763d 47de 69bd
00000100: 476d 71bd 0427 b3bd ce86 98bd 22fc adbd
00000110: ef6c 8b3d 481e 68be 1d64 c6bd cd36 89bd
00000120: d749 51be cd8e 29be 546e 29be afc4 f93d
00000130: 361c ae3d 95c8 313d f3e7 0dbe f0af ca3c
00000140: 95c5 f53d e3c2 29bd b703 3ebe 15d7 1fbd
00000150: 5825 a4bb d605 8cbc f867 9fbd a221 e93c
00000160: 58ed f23d f2b3 90bc b01a 8e3d 890a 1abd
00000170: a8cb 09be fcfb 5bbe fbaf 97bd f69b 93bd
00000180: 0ad2 8dbe adc9 413d d0a1 f8bd 399c 783d
00000190: 3f38 9cbc aa9d 09be 22c2 ddbd c54c 003d
000001a0: e384 23bd 6c1b 14be e9c6 563c 87d2 c73d
000001b0: 82bf 61bb c079 edbd 15ca a1bd 8488 a5bd
000001c0: 5763 06be 7529 26bd cdc8 d3bd 7b8c 08be
000001d0: 9904 28be fd35 24be cb53 87bd 8931 093d
000001e0: 8ac5 8bbd d4c3 81bd 427d eabd ca5f 87bb
000001f0: 1fda 2a3c cb89 55bd 0c76 95bd 157f c0bd

weight f4 [128, 128]
0.031806838 -0.0022278056 -0.15155476 -0.03051408 -0.023140244 0.14410761 -0.09296889 -0.056850653
0.06805709 -0.19639002 -0.0069134072 -0.16796362 0.06927431 -0.22414848 -0.32503504 0.16049597
-0.07757311 0.038913134 0.07286232 0.12025279 0.07535417 -0.15166882 -0.10910836 -0.083828114
0.10535612 0.15483771 0.08704781 0.024397435 -0.07827744 -0.027755646 0.11780338 0.07218103
0.109964065 -0.10968357 -0.079336844 0.19822362 -0.015236549 -0.043072175 0.2956183 -0.04972437
-0.21869102 0.3145312 -0.16171266 -0.08700651 0.19549909 -0.2573985 -0.23489009 -0.0685347
0.10636272 0.31344283 -0.10848134 -0.059139773 -0.003544772 -0.12797078 -0.10326864 -0.056983624
0.081174836 0.35221943 -0.14731273 -0.13340399 0.019371679 -0.33648363 0.12188646 0.35504776
0.055298433 0.00528802 0.10268408 -0.0079872245 0.03882275 -0.2783387 0.04317557 0.16882293
-0.032182943 -0.17363203 0.21812117 -0.05319465 -0.20098057 -0.15185715 0.0059116343 -0.13771567
-0.014224663 0.16341996 -0.06799455 0.13844736 -0.07150658 -0.29518062 0.09325416 0.15006486
0.12118411 0.06792509 -0.001287582 0.045452792 -0.04935395 -0.3473743 -0.24228244 -0.07099477
-0.22224128 -0.145692 -0.055243123 0.048818767 0.038854353 -0.18554443 0.03411988 -0.013794472
0.0077859797 0.15195303 0.18238537 -0.34040874 0.044894774 -0.15605135 -0.10601821 -0.14884166
-0.047877677 -0.112086505 0.090913616 -0.018281942 -0.015753726 -0.13881816 0.10861248 0.06586222
-0.03668368 0.13354026 -0.1795198 0.1255012 0.23511389 0.2038442 -0.0952004 0.036716122
-0.14618818 -0.06024969 -0.059379306 0.013208253 -0.05092987 0.18563625 0.05939172 -0.17179249
-0.050975505 -0.1938391 0.06945745 0.01685178 -0.26271594 -0.20881137 -0.26665464 0.3870016
0.1912907 0.23020287 -0.2167264 0.20230915 -0.014324416 -0.13658033 -0.114022635 0.03526099
0.056047264 -0.15726748 -0.08938537 -0.22653723 -0.22199006 0.04984695 -0.03025966 -0.04624585
-0.05795937 -0.057410117 0.03778858 -0.22470835 0.18969572 -0.13717766 -0.08297258 0.016626675
-0.123363264 -0.123120345 -0.06638059 0.006658223 0.21012114 -0.14758378 -0.09153762 -0.032573
-0.2278753 0.24529366 -0.14326724 0.06564273 0.0077633443 -0.2682858 0.05169702 -0.015011523
0.31444713 -0.04878333 0.11231322 0.17423232 -0.07094795 -0.2648051 -0.054617606 -0.012188802
-0.08927317 -0.1323322 -0.07319269 -0.05192648 -0.070544526 -0.15762264 -0.13277549 -0.14012861
-0.023132924 -0.051623672 0.012546268 -0.14059842 -0.040237762 0.026963102 0.1679166 -0.35990846
-0.2029815 -0.22812161 -0.32949144 -0.120417625 -0.19979675 -0.015930753 -0.015172797 0.22647414
-0.0481086 0.3064899 -0.13129902 -0.10428118 0.09999791 0.14973038 -0.12741335 -0.16781767
0.12472217 -0.101982355 -0.18911822 -0.31420702 0.0025118 -0.052727208 -0.08628459 -0.008196977
0.008375667 -0.17586464 -0.18532959 -0.05039479 -0.047249142 -0.094190605 -0.14317723 -0.019277364
0.017880704 0.096257396 -0.07453245 -0.27046818 0.035377737 0.16050726 -0.23059443 -0.02089912
-0.0076141125 -0.032648023 -0.038089212 -0.17617612 0.02172491 0.13301438 -0.15419431 0.21574503
00000000: e347 023d 6000 12bb 2c31 1bbe aaf8 f9bc
00000010: 9c90 bdbc f290 133e 7966 bebd 3bdc 68bd
00000020: 8461 8b3d 771a 49be dd89 e2bb a8fe 2bbe
00000030: b0df 8d3d 2e87 65be fe6a a6be 0e59 243e
00000040: a7de 9ebd 6163 1f3d d738 953d 1847 f63d
00000050: 4953 9a3d 124f 1bbe 3474 dfbd 13ae abbd
00000060: f3c4 d73d c78d 1e3e 1f46 b23d 21dd c73c
00000070: ec4f a0bd cf5f e3bc e642 f13d a6d3 933d
00000080: d734 e13d c8a1 e0bd 5b7b a2bd 22fb 4a3e
00000090: b8a2 79bc 736c 30bd 485b 973e c8ab 4bbd
000000a0: 8af0 5fbe 3c0a a13e 0198 25be 7830 b2bd
000000b0: ea30 483e bcc9 83be 0787 70be ec5b 8cbd
000000c0: b3d4 d93d 947b a03e 772b debd 8c3c 72bd
000000d0: 684f 68bb c60a 03be 827e d3bd a967 69bd
000000e0: fe3e a63d 1b56 b43e 26d9 16be 0e9b 08be
000000f0: 5bb1 9e3c 9547 acbe 9c9f f93d d2c8 b53e
00000100: 9c80 623d 2047 ad3b 084c d23d d9dc 02bc
00000110: 9b04 1f3d 6982 8ebe ded8 303d ebdf 2c3e
00000120: 43d2 03bd 98cc 31be 285b 5f3e a2e2 59bd
00000130: dacd 4dbe 7180 1bbe 62b6 c13b 5605 0dbe
00000140: 900e 69bc 9057 273e ba40 8bbd 25c5 0d3e
00000150: 0b72 92bd ea21 97be 09fc be3d 9aaa 193e
00000160: 602f f83d 4f1c 8b3d 15c4 a8ba b52c 3a3d
00000170: 5e27 4abd 0bdb b1be e318 78be b565 91bd
00000180: 3893 63be 4930 15be 9d46 62bd 30f6 473d
00000190: be25 1f3d 5cff 3dbe 4ac1 0b3d 3602 62bc
000001a0: 8821 ff3b 9399 1b3e 3bc3 3a3e 0e4a aebe
000001b0: 95e3 373d edcb 1fbe 1320 d9bd f369 18be
000001c0: 621b 44bd 9c8d e5bd eb30 ba3d 03c4 95bc
000001d0: f50d 81bc 5926 0ebe 3870 de3d c6e2 863d
000001e0: a041 16bd c7be 083e 0ad4 37be 6383 003e
000001f0: b2c1 703e 89bc 503e 6df8 c2bd a563 163d
00000200: 5bb2 15be 61c8 76bd b737 73bd 6e67 583c
00000210: d79b 50bd 6e17 3e3e bb44 733d 5fea 2fbe
00000220: b1cb 50bd c27d 46be b53f 8e3d be0c 8a3c
00000230: b482 86be a6d2 55be f586 88be 1325 c63e
00000240: b6e1 433e 4dba 6b3e 87ed 5dbe 212a 4f3e
00000250: f5b0 6abc b7db 0bbe b384 e9bd d46d 103d
00000260: d191 653d ba0a 21be ad0f b7bd 60f9 67be
00000270: 5d51 63be 512c 4c3d 1be3 f7bc 4a6c 3dbd
00000280: ce66 6dbd df26 6bbd 33c8 1a3d f219 66be
00000290: 983f 423e 4d78 0cbe 87ed a9bd aa34 883c
000002a0: e1a5 fcbd 8526 fcbd 8cf2 87bd 392d da3b
000002b0: ff29 573e 3420 17be 1378 bbbd 446b 05bd
000002c0: 2558 69be 432e 7b3e a6b4 12be b26f 863d
000002d0: a763 fe3b c25c 89be 41c0 533d e4f2 75bc
000002e0: 37ff a03e 07d1 47bd 7904 e63d f569 323e
000002f0: 294d 91bd 8994 87be b6b6 5fbd 8ab3 47bc
00000300: dad4 b6bd 1882 07be 0de6 95bd dcb0 54bd
00000310: a679 90bd d467 21be 4cf6 07be e07d 0fbe
00000320: 4281 bdbc 5873 53bd dd8e 4d3c 08f9 0fbe
00000330: 5ad0 24bd b9e1 dc3c 54f2 2b3e ec45 b8be
00000340: 62da 4fbe b698 69be 1ab3 a8be 849d f6bd
00000350: 8597 4cbe 3681 82bc 5397 78bc d6e8 673e
00000360: 860d 45bd 3fec 9c3e 4073 06be 5f91 d5bd
00000370: b4cb cc3d ec52 193e a578 02be 65d8 2bbe
00000380: 566e ff3d 20dc d0bd 35a8 41be bedf a0be
00000390: 039d 243b 7cf8 57bd fab5 b0bd 9d4c 06bc
000003a0: 183a 093c dc15 34be 0ac7 3dbe c46a 4ebd
000003b0: 5188 41bd 01e7 c0bd 0d9d 12be 90eb 9dbc
000003c0: 8e7a 923c 9922 c53d 78a4 98bd ce7a 8abe
000003d0: 3fe8 103d 045c 243e f220 6cbe a234 abbc
000003e0: ce7f f9bb efb9 05bd 6f03 1cbd 8367 34be
000003f0: 70f8 b13c ec34 083e 1de5 1dbe 44ec 5c3e

bias f4 [128]
0.011058363 -0.09145089 -0.11331311 0.051647592 0.07768039 -0.026753824 0.03949084 0.008134343
0.06630515 -0.09006145 0.009238013 -0.058559667 -0.0132744815 -0.027501572 0.07998373 -0.09808155
0.09115513 0.013773418 0.12439761 -0.074434005 -0.07277262 -0.015195165 -0.036459606 -0.115898676
-0.12883992 0.05879322 -0.1837572 -0.12523356 -0.15174112 -0.016987406 0.027293406 -0.09399564
0.07807976 -0.036409505 -0.0069069928 -0.02506862 0.0010854912 -0.11617222 -0.054238174 0.020774161
-0.14547567 -0.11228666 -0.04502957 0.05607277 0.015931617 -0.14916751 0.008579227 -0.15912765
0.083845705 -0.011800521 0.0094784135 0.16590062 -0.026949266 -0.1542821 0.050771892 0.0022648054
-0.097944416 0.07644752 0.08754761 0.1370098 -0.09791325 -0.12173995 0.05785157 -0.04907092
-0.03635643 -0.07243002 -0.073506325 -0.096917205 -0.0077043604 -0.0014963048 0.00011913384 0.08355682
0.04597242 -0.084522836 -0.058226045 -0.009893385 0.025260432 0.0062944135 0.061551843 -0.050720256
-0.25113714 0.13853382 -0.10699093 -0.20482162 0.16921993 -0.16546004 -0.115294054 -0.060318958
-0.070636205 -0.1232445 0.010847408 0.11264223 0.0035080956 -0.072742626 0.12885256 -0.14615113
-0.14307122 -0.1651368 -0.27446035 -0.078517385 0.119222485 0.09887159 -0.12813367 0.05998711
-0.1485119 0.122185364 -0.12974429 0.13910636 -0.12148977 0.0751819 0.011934363 -0.17687058
0.041699894 -0.09920781 -0.11979137 0.010734975 0.20097394 0.017126372 0.082870446 -0.008951297
0.05992204 -0.17200689 -0.07342452 -0.04897014 -0.0017130829 -0.020337766 0.023287589 0.04871224
00000000: 232e 353c 9b4a bbbd b410 e8bd 6d8c 533d
00000010: e516 9f3d d62a dbbc 26c1 213d e845 053c
00000020: ffca 873d 2372 b8bd 095b 173c 43dc 6fbd
00000030: 367d 59bc fa4a e1bc 83ce a33d fbde c8bd
00000040: 8aaf ba3d e7a9 613c 2dc4 fe3d db70 98bd
00000050: d009 95bd 24f5 78bc ab56 15bd 495c edbd
00000060: 9dee 03be 29d1 703d d92a 3cbe 3a3d 00be
00000070: 0662 1bbe 2c29 8bbc 6c96 df3c c980 c0bd
00000080: 48e8 9f3d 2222 15bd 0e54 e2bb b55c cdbc
00000090: 0a47 8e3a b3eb edbd d928 5ebd 932e aa3c
000000a0: 93f7 14be 8cf6 e5bd ed70 38bd 90ac 653d
000000b0: 0683 823c 5ebf 18be e38f 0c3c 5cf2 22be
000000c0: 4cb7 ab3d f956 41bc 594b 1b3c dae1 293e
000000d0: b5c4 dcbc 20fc 1dbe 30f6 4f3d 216d 143b
000000e0: 1597 c8bd 8490 9c3d 294c b33d 4c4c 0c3e
000000f0: be86 c8bd cb52 f9bd c5f5 6c3d 97fe 48bd
00000100: 7bea 14bd 3156 94bd 7c8a 96bd 877c c6bd
00000110: dc74 fcbb a81f c4ba 7ed7 f938 d71f ab3d
00000120: 944d 3c3d 4f1a adbd 6f7e 6ebd dd17 22bc
00000130: f7ee ce3c 5e41 ce3b c91d 7c3d 0bc0 4fbd
00000140: 0c95 80be cfdb 0d3e 101e dbbd c2bc 51be
00000150: fd47 2d3e 5b6e 29be 4a1f ecbd 0311 77bd
00000160: b7a9 90bd 9d67 fcbd 54b9 313c f8b0 e63d
00000170: 14e8 653b 16fa 94bd edf1 033e a4a8 15be
00000180: 4381 12be 9f19 29be 1186 8cbe b9cd a0bd
00000190: eb2a f43d 307d ca3d 7935 03be 0bb5 753d
000001a0: 8113 18be 523c fa3d b0db 04be e671 0e3e
000001b0: a1cf f8bd f8f8 993d 5988 433c 901d 35be
000001c0: 82cd 2a3d 772d cbbd 2e55 f5bd c0e1 2f3c
000001d0: 1dcc 4d3e 9b4c 8c3c fbb7 a93d 76a8 12bc
000001e0: d070 753d 9322 30be 985f 96bd ea94 48bd
000001f0: 8689 e0ba 639b a6bc 9dc5 be3c 7c86 473d

weight f4 [128, 128]
0.03489601 -0.22567636 0.09660435 -0.048991516 0.1899511 0.036615968 -0.052067503 -0.1083822
-0.21988685 0.064628094 0.09046352 -0.27357137 -0.23621225 0.012823459 -0.116725184 -0.1128021
-0.12087778 -0.0782919 -0.07503352 -0.14772737 0.1854674 -0.01697039 0.08647 0.00071525195
0.077547505 0.068076 -0.1248313 0.013894824 -0.013995778 0.15011224 -0.10463947 0.12602538
0.02153707 -0.10494536 -0.06050205 -0.044929594 0.05053335 -0.1302176 0.0744522 0.029611783
-0.040060606 0.08627828 -0.08119016 -0.008632749 -0.3089685 -0.023012115 -0.017923791 -0.10035913
-0.2849573 -0.08834251 -0.016832547 -0.07496014 -0.12920727 -0.07204591 -0.03110051 0.29957384
0.027935598 -0.117776945 0.010014463 0.09142019 0.28697628 0.017170576 -0.38453105 -0.0897942
0.039310675 0.027097275 -0.12966031 0.13864999 -0.075210854 0.259431 0.21927127 -0.020728435
-0.15207896 0.017144354 -0.108882606 -0.26065415 -0.013818307 -0.048558265 -0.3056314 0.003970472
-0.049601167 0.040767338 0.08731253 -0.16464053 0.10608297 0.19005632 0.09559426 -0.00031931134
-0.04334788 -0.2171059 -0.11073019 0.16698779 0.121142685 -0.101756535 0.0509684 -0.020602215
-0.20454043 -0.070681825 -0.30536973 0.069583684 -0.029205728 -0.18456426 0.07064895 -0.23191942
-0.030491708 0.099080406 0.28045344 -0.116725564 0.048590727 0.031913783 -0.20667933 0.03629627
0.21011075 -0.13928908 -0.06330993 -0.17558014 -0.2216652 -0.11041984 -0.00841443 -0.36425465
-0.010443042 0.17664146 0.0432946 -0.08231026 0.09159676 0.16275136 -0.0693962 0.1367152
-0.078897655 -0.115450956 0.040811915 -0.40468067 -0.073572494 -0.05124304 -0.23596056 -0.0945084
0.16821077 -0.013456904 0.26947 0.09031565 0.16381773 -0.0316471 0.15907967 0.29455274
-0.25039905 -0.14094944 -0.18163496 0.0087258555 0.2792856 0.08263658 -0.015025565 -0.01278926
0.07754986 -0.052912004 0.02959012 0.07169133 0.11111318 -0.050841413 0.1796426 0.16399151
0.008119906 -0.2271407 -0.031648677 -0.03708438 0.062984176 0.31232306 0.09547194 -0.1265395
-0.037521377 0.2045241 0.10241043 -0.38393784 -0.0031376136 0.06130695 -0.24199295 -0.13924678
-0.06116256 0.21505344 -0.022213249 -0.095958486 0.04281222 -0.13790146 -0.24416529 0.16405652
-0.0015835003 0.055759683 -0.20724918 0.0027293188 0.11828651 -0.20580426 0.052932084 -0.2278552
0.008958922 0.08156143 0.10269757 0.16131085 0.0379219 -0.13791765 -0.09573363 -0.067044884
-0.11706582 -0.060868535 0.0879957 0.1887039 0.0071455324 0.2883494 0.024310924 0.08287205
-0.10683506 -0.11572807 0.030673536 0.047312334 -0.062563725 -0.08759065 0.17216198 0.061705276
0.020458313 0.17571701 0.038430072 -0.11825953 -0.008857522 0.20768923 0.028045202 -0.20672837
-0.096049756 -0.066686206 -0.07389591 0.01122388 -0.08098163 0.101252005 0.024467167 0.050180446
-0.06286709 -0.10019301 -0.43153444 -0.006658383 -0.02539362 -0.122218944 -0.31863967 -0.17721449
-0.023474107 0.040430974 0.109611966 0.0033980315 -0.23470052 -0.10386572 -0.18676428 0.009065843
-0.08938677 0.033551533 0.12141767 0.0059313616 0.074758835 0.11296684 -0.07955477 0.011804457
00000000: 1eef 0e3d b417 67be 80d8 c53d 54ab 48bd
00000010: 8b82 423e a0fa 153d bc44 55bd 7df7 ddbd
00000020: 052a 61be bc5b 843d f044 b93d 8c11 8cbe
00000030: a0e1 71be 7c19 523c 9d0d efbd ca04 e7bd
00000040: c58e f7bd 8157 a0bd 2dab 99bd d845 17be
00000050: 2beb 3d3e 7d05 8bbc 2f17 b13d bf7f 3b3a
00000060: 3ad1 9e3d 6e6b 8b3d 8da7 ffbd 1ea7 633c
00000070: 8c4e 65bc 06b7 193e 384d d6bd cc0c 013e
00000080: 826e b03c 98ed d6bd ffd0 77bd 1808 38bd
00000090: 0ffc 4e3d c357 05be 657a 983d 6994 f23c
000000a0: 9716 24bd abb2 b03d 0747 a6bd 6070 0dbc
000000b0: 1f31 9ebe e783 bcbc ead4 92bc 1689 cdbd
000000c0: ece5 91be ebec b4bd 69e4 89bc b484 99bd
000000d0: e94e 04be ce8c 93bd 7fc6 febc be61 993e
000000e0: 32d9 e43c 0a35 f1bd b413 243c 823a bb3d
000000f0: 8eee 923e 4fa9 8c3c 41e1 c4be 06e6 b7bd
00000100: 3b04 213d 1bfb dd3c acc5 04be 43fa 0d3e
00000110: 2608 9abd 24d4 843e a688 603e aece a9bc
00000120: 96ba 1bbe 5172 8c3c d8fd debd 7674 85be
00000130: 2e66 62bc 08e5 46bd b87b 9cbe bc1a 823b
00000140: 982a 4bbd a7fb 263d e9d0 b23d 8797 28be
00000150: 0742 d93d 209e 423e ecc6 c33d 3e69 a7b9
00000160: 8c8d 31bd 0251 5ebe 83c6 e2bd d9fe 2a3e
00000170: a819 f83d bb65 d0bd 3ec4 503d fac5 a8bc
00000180: 0c73 51be a2c1 90bd 6c59 9cbe e481 8e3d
00000190: da40 efbc 6afe 3cbe 66b0 903d 497c 6dbe
000001a0: bfc9 f9bc abea ca3d 9897 8f3e d00d efbd
000001b0: 1207 473d 07b8 023d bfa3 53be 66ab 143d
000001c0: 4627 573e cca1 0ebe a3a8 81bd 48cb 33be
000001d0: 34fc 62be cc23 e2bd addc 09bc 967f babe
000001e0: 4b19 2bbc 80e1 343e ae55 313d 4892 a8bd
000001f0: 1597 bb3d 4ba8 263e 981f 8ebd 12ff 0b3e
00000200: 1895 a1bd 8d71 ecbd 652a 273d 4e32 cfbe
00000210: 2dad 96bd 39e4 51bd a59f 71be 9f8d c1bd
00000220: 723f 2c3e 597a 5cbc f9f7 893e 69f7 b83d
00000230: d6bf 273e 64a0 01bd c8e5 223e 9ecf 963e
00000240: 4e34 80be 0d55 10be 84fe 39be e4f6 0e3c
00000250: 86fe 8e3e 5e3d a93d ca2d 76bc 0b8a 51bc
00000260: 76d2 9e3d 42ba 58bd fb66 f23c e7d2 923d
00000270: 4f8f e33d 163f 50bd 3bf4 373e 64ed 273e
00000280: 5b09 053c 9297 68be 0ba2 01bd cae5 17bd
00000290: d9fd 803d cfe8 9f3e cb86 c33d 9293 01be
000002a0: 04b0 19bd c46e 513e 8fbc d13d 8093 c4be
000002b0: 6ca0 4dbb ff1c 7b3d 00cd 77be b596 0ebe
000002c0: 9885 7abd f836 5c3e 8ff8 b5bc e285 c4bd
000002d0: de5b 2f3d 0a36 0dbe 7706 7abe 6ffe 273e
000002e0: 748d cfba 4464 643d 2139 54be 5fde 323b
000002f0: 3340 f23d 5abe 52be 50cf 583d e052 69be
00000300: 71c8 123c ae09 a73d 1b53 d23d ac2e 253e
00000310: ff53 1b3d 493a 0dbe fe0f c4bd d44e 89bd
00000320: 34c0 efbd 4951 79bd 1737 b43d 983b 413e
00000330: 1225 ea3b 88a2 933e b427 c73c d2b8 a93d
00000340: 57cc dabd d702 edbd 1147 fb3c 94ca 413d
00000350: 6921 80bd ba62 b3bd 3b4b 303e acbe 7c3d
00000360: 3198 a73c 29ef 333e da68 1d3d 0d32 f2bd
00000370: 241f 11bc 7cac 543e 0dbf e53c 9ab0 53be
00000380: bcb5 c4bd c792 88bd bd56 97bd 5de4 373c
00000390: b2d9 a5bd 365d cf3d 5e6f c83c 038a 4d3d
000003a0: 76c0 80bd fe31 cdbd 15f2 dcbe 912e dabb
000003b0: 4806 d0bc ed4d fabd bd24 a3be b777 35be
000003c0: c54c c0bc f39a 253d 3d7c e03d 82b1 5e3b
000003d0: 5555 70be 8db7 d4bd 233f 3fbe e788 143c
000003e0: 6910 b7bd 556d 093d d4a9 f83d de5b c23b
000003f0: 291b 993d 295b e73d 9ced a2bd 7b67 413c

bias f4 [128]
0.0532604 0.006271751 0.058422454 -0.17725246 -0.09307905 -0.11493414 0.08007529 -0.13384427
-0.029324275 0.0017661328 0.109001584 -0.062122837 -0.039817534 -0.12965387 -0.10478308 -0.019378046
-0.011059915 -0.06983426 0.12630025 0.048885234 0.0014903368 -0.11137261 -0.06570843 -0.06714376
0.16707829 -0.020478584 0.11112865 0.12401646 -0.016092606 0.099133395 0.004121922 -0.075880185
-0.13629436 0.11276657 -0.123362795 -0.15048444 -0.039581023 0.031975716 0.041540056 -0.054353673
-0.17778364 0.07665031 0.01802285 -0.13524002 0.16350403 -0.14662641 0.04761384 -0.11079105
0.16528457 -0.02032539 -0.11213173 -0.18835424 -0.10783717 -0.12921038 -0.15457645 0.027540894
-0.15151985 0.20659909 -0.10663098 0.030419119 0.06708878 0.09922336 0.011210871 0.11433914
-0.06915315 0.11279531 0.21177351 -0.07954804 0.069899015 0.053169012 -0.085393585 -0.12641914
-0.0058650123 0.02000399 -0.04214552 -0.1481796 0.01152338 -0.11645657 -0.14622681 -0.078651756
-0.095000125 -0.15459661 -0.015612013 0.017553609 -0.056481346 0.03382612 0.063451536 -0.012557485
0.03088831 -0.02771674 0.038627252 -0.15437269 -0.1973695 0.026294861 -0.12253214 0.0912002
0.10338034 0.060934752 0.092048466 0.12808734 -0.15729396 -0.0072428863 -0.04960467 -0.11739843
0.039628983 -0.09093414 0.10219212 0.078397766 -0.019891625 0.07222239 0.075523436 -0.013850013
0.0332441 -0.015792895 -0.1268884 -0.06462246 -0.079829164 -0.0017775237 -0.14022483 -0.005589775
-0.058650013 -0.05648004 -0.050478403 -0.11862163 -0.11330779 0.034839228 -0.047086596 -0.12905598
00000000: 9427 5a3d 4383 cd3b 624c 6f3d ab81 35be
00000010: 3ba0 bebd 9762 ebbd 83fe a33d 790e 09be
00000020: 7639 f0bc 957d e73a 393c df3d 8474 7ebd
00000030: b617 23bd fcc3 04be 8398 d6bd b5be 9ebc
00000040: a534 35bc 4405 8fbd da54 013e e23b 483d
00000050: 6857 c33a 5317 e4bd 2492 86bd ab82 89bd
00000060: 9216 2b3e b4c2 a7bc 6b97 e33d 57fc fd3d
00000070: a4d4 83bc 7306 cb3d 3011 873b 1267 9bbd
00000080: c090 0bbe 29f2 e63d a2a5 fcbd 9818 1abe
00000090: b61f 22bd f8f8 023d e825 2a3d f5a1 5ebd
000000a0: ea0c 36be d6fa 9c3d a8a4 933c 5c7c 0abe
000000b0: 9a6d 273e 3c25 16be bb06 433d 6be6 e2bd
000000c0: 5c40 293e 6f81 a6bc 52a5 e5bd efdf 40be
000000d0: bcd9 dcbd ba4f 04be 4a49 1ebe 719d e13c
000000e0: 0528 1bbe b68e 533e 5861 dabd 8431 f93c
000000f0: d865 893d 9e35 cb3d cdad 373c a42a ea3d
00000100: 2ba0 8dbd 3a01 e73d 28db 583e 15ea a2bd
00000110: 3727 8f3d c0c7 593d d5e2 aebd 0574 01be
00000120: 4a2f c0bb 68df a33c c8a0 2cbd 65bc 17be
00000130: 8fcc 3c3c c880 eebd 7bbc 15be 2c14 a1bd
00000140: 6d8f c2bd 934e 1ebe 87c9 7fbc 96cc 8f3c
00000150: fc58 67bd 428d 0a3d e1f2 813d e9bd 4dbc
00000160: 7b09 fd3c 370e e3bc 9c37 1e3d e013 1ebe
00000170: 3b1b 4abe 5268 d73c 21f2 fabd 2cc7 ba3d
00000180: 12b9 d33d b896 793d e883 bc3d 5429 033e
00000190: ab11 21be bc55 edbb 442e 4bbd 976e f0bd
000001a0: 0052 223d ae3b babd 1a4a d13d 028f a03d
000001b0: c3f3 a2bc 55e9 933d 08ac 9a3d 2aeb 62bc
000001c0: f72a 083d 1a60 81bc 08ef 01be c858 84bd
000001d0: 797d a3bd ccfb e8ba 1997 0fbe 6e2a b7bb
000001e0: ff3a 70bd 9d57 67bd 71c2 4ebd e6ef f2bd
000001f0: ea0d e8bd 94b3 0e3d e0dd 40bd 4027 04be
