nerf_models/toruser.pth (torch, 646868 bytes, 22 tensors)

weight f4 [128, 63]
-0.040392198 -0.0068346052 0.12643705 -0.11675064 0.59651315 -0.63695115 -0.15281327 -0.49146524
0.6998486 0.6380701 -0.36398837 0.17973928 0.023986585 0.42012024 0.2798158 -0.37520862
0.23321894 0.34261835 -0.19629881 0.08986389 -0.18079259 0.11120057 0.06578717 -0.1468789
0.08859008 0.01710706 0.19841942 -0.020269025 -0.030399794 -0.032382768 -0.026649278 0.039905325
0.060985424 -0.044528812 -0.00423717 -0.02512467 0.007348017 0.046303 0.0138788605 -0.010889485
0.0011157836 0.019399017 -0.08484127 -0.014550539 -0.08170362 0.089914724 0.021895377 -0.08669298
-0.1329885 -0.042544894 -0.06897594 0.054213855 -0.08526055 0.07051614 -0.02781916 0.056051087
-0.09818628 0.057737976 -0.02375593 0.05435813 0.0067446684 -0.019780518 0.10075278 -0.020240022
0.056929354 -0.14014599 0.18016095 -0.5178808 -0.08036153 -0.053940725 -0.14185405 0.3867895
0.043717492 0.21172674 0.909149 0.86879015 0.16983536 0.685027 0.14031209 -0.22407894
0.35185647 0.3609236 0.002893277 0.56440955 0.22232078 0.039748523 -0.08102029 -0.10208006
0.01305859 0.12272739 0.025768558 -0.023176856 -0.09822765 0.107022546 0.03877036 -0.004475607
-0.04057954 0.0014690465 0.03376761 -0.019840686 -0.027980484 0.04544227 0.02744545 -0.004904245
-0.06397338 0.0011996482 -0.018760648 0.010639443 0.02298974 0.008078891 0.006972594 0.06818854
-0.04693071 -0.04292241 -0.006708434 0.09333253 0.059908554 0.0062370333 -0.06436411 -0.006767324
0.01724631 -0.053654153 0.048168655 -0.03190562 -0.058525763 -0.022390017 -0.1275122 0.17060035
-0.31022617 0.8535996 1.108375 -0.4479647 0.0029342906 -0.018632183 0.314537 -0.05308712
-0.13413927 0.32085937 0.38133395 0.31183326 0.3276619 0.32976308 0.2185647 0.29766217
-0.45134234 0.010924353 0.1476584 -0.1661289 -0.030821273 0.11349775 -0.20253497 0.033469785
-0.008066995 0.017973114 0.01527343 0.027961494 -0.01299894 -0.009367754 -0.09454717 0.0154944705
0.007021135 0.039730802 0.0047589587 0.029993895 0.020285107 -0.0065541724 0.02162627 0.02948545
-0.01127782 -0.021505231 0.01866248 0.030812994 -0.036636062 -0.03977745 -0.0054872674 0.059665684
-0.048877303 0.0009302654 -0.018637802 0.04713416 0.012371684 -0.025689846 0.02111979 0.07513216
-0.04248676 0.053625036 -8.662904e-05 -0.03531225 0.0013188423 -0.048475675 0.2634818 -0.015702445
0.2739717 0.10427358 0.5207289 -0.23485997 0.20788515 0.26758093 -0.10977224 -0.5442488
0.13136394 -0.2795345 0.14241798 0.52782774 -0.103975095 0.0155743 0.44216433 -0.1143645
0.31691942 0.36551672 0.029475918 0.0141323265 0.18202929 0.041001793 0.07763225 -0.1658913
0.012432677 0.05033659 0.03661462 -0.036093928 -0.04758341 -0.043616403 -0.01233537 0.009795507
0.04460067 -0.0043188673 0.017520057 0.038059704 -0.05816079 -0.05203387 -0.021988187 0.04528401
0.01076882 -0.022728316 -0.11315362 -0.12265855 -0.098279364 -0.0526919 -0.10414961 0.16631342
-0.110232785 0.07968429 0.025500953 0.030760631 0.019797683 -0.002311026 -0.02598491 -0.009116621
-0.07034643 -0.0035966714 0.03170259 -0.1070837 0.15168218 -0.12672381 -0.08913349 0.33920473
00000000: 4a72 25bd d3f4 dfbb b778 013e f61a efbd
00000010: 16b5 183f 3b0f 23bf 157b 1cbe 55a1 fbbe
00000020: 4729 333f 9058 233f af5c babe 930d 383e
00000030: 847f c43c 001a d73e 0444 8f3e 581b c0be
00000040: f2d0 6e3e ac6b af3e 8e02 49be 8f0a b83d
00000050: b121 39be 20bd e33d 6cbb 863d 6c67 16be
00000060: b76e b53d 1b24 8c3c 762e 4b3e 3a0b a6bc
00000070: fd08 f9bc cba3 04bd 964f dabc c473 233d
00000080: dacb 793d d863 36bd f5d7 8abb 40d2 cdbc
00000090: a2c7 f03b 37a8 3d3d 2964 633c cf69 32bc
000000a0: 7c3f 923a b0ea 9e3c 43c1 adbd 6265 6ebc
000000b0: 3a54 a7bd 3625 b83d ef5d b33c 178c b1bd
000000c0: 232e 08be 8e43 2ebd 4243 8dbd 590f 5e3d
000000d0: 159d aebd c46a 903d 02e5 e3bc d395 653d
000000e0: e315 c9bd a87e 6c3d cc9b c2bc a1a6 5e3d
000000f0: 6102 dd3b c10a a2bc 7957 ce3d 67ce a5bc
00000100: c12e 693d 6e82 0fbe 1d7c 383e d693 04bf
00000110: 9694 a4bd f3f0 5cbd 3042 11be 4609 c63e
00000120: 1d11 333d e5ce 583e fdbd 683f 0869 5e3f
00000130: 52e9 2d3e ee5d 2f3f f9ad 0f3e f374 65be
00000140: 8826 b43e faca b83e 229d 3d3b 257d 103f
00000150: 0fa8 633e 59cf 223d f7ed a5bd 5a0f d1bd
00000160: b2f3 553c 7f58 fb3d 9518 d33c 64dd bdbc
00000170: 942b c9bd a32e db3d abcd 1e3d 1da8 92bb
00000180: bb36 26bd 058d c03a e84f 0a3d ef88 a2bc
00000190: 5437 e5bc ac21 3a3d 48d5 e03c cab3 a0bb
000001a0: 7a04 83bd 843d 9d3a eeaf 99bc 0f51 2e3c
000001b0: fb54 bc3c 535d 043c 5c7a e43b 6fa6 8b3d
000001c0: 6b3a 40bd 69cf 2fbd 6cd2 dbbb 2025 bf3d
000001d0: ac62 753d 0760 cc3b 55d1 83bd 6ec0 ddbb
000001e0: 2248 8d3c 75c4 5bbd 7f4c 453d 78af 02bd
000001f0: b6b8 6fbd 456b b7bc 8f92 02be dcb1 2e3e
00000200: f7d5 9ebe 8185 5a3f 3bdf 8d3f a15b e5be
00000210: 3a4d 403b 85a2 98bc fe0a a13e e171 59bd
00000220: ce5b 09be ae47 a43e 343e c33e 9ca8 9f3e
00000230: 4dc3 a73e b5d6 a83e 6dcf 5f3e 2d67 983e
00000240: 5816 e7be 0ffc 323c c333 173e b21d 2abe
00000250: e57c fcbc 8271 e83d 5465 4fbe 9d17 093d
00000260: 6e2b 04bc 5a3c 933c 693d 7a3c 810f e53c
00000270: 82f9 54bc 357b 19bc f2a1 c1bd 85dc 7d3c
00000280: 8d11 e63b c4bc 223d 0af1 9b3b c2b5 f53c
00000290: f42c a63c 62c4 d6bb 9329 b13c 788b f13c
000002a0: 9bc6 38bc bd2b b0bc 0fe2 983c 886b fc3c
000002b0: b20f 16bd aeed 22bd 89ce b3bb 0164 743d
000002c0: 9133 48bd 0edd 733a 4eae 98bc c00f 413d
000002d0: 9bb2 4a3c 8373 d2bc 6903 ad3c e4de 993d
000002e0: 9906 2ebd eda5 5b3d 9dac b5b8 94a3 10bd
000002f0: 01dd ac3a 6e8e 46bd 16e7 863e 6aa2 80bc
00000300: 0546 8c3e 638d d53d 7d4e 053f 227f 70be
00000310: d8df 543e 5e00 893e 45d0 e0bd e453 0bbf
00000320: 4584 063e 251f 8fbe 05d6 113e b81f 073f
00000330: e5f0 d4bd 592b 7f3c 5d63 e23e ef37 eabd
00000340: 4343 a23e 0225 bb3e 7b77 f13c 468b 673c
00000350: e365 3a3e 7ff1 273d a8fd 9e3d 69df 29be
00000360: 6db2 4b3c bd2d 4e3d 36f9 153d 3ad7 13bd
00000370: d2e6 42bd 1da7 32bd 4b1a 4abc 567d 203c
00000380: 31af 363d 4985 8dbb 3986 8f3c 7ee4 1b3d
00000390: 023a 6ebd 7821 55bd 9220 b4bc ba7b 393d
000003a0: b46f 303c bc30 babc 16bd e7bd 6834 fbbd
000003b0: b146 c9bd 76d3 57bd 644c d5bd 114e 2a3e
000003c0: bac1 e1bd 8431 a33d 60e7 d03c b8fd fb3c
000003d0: c02e a23c 9574 17bb 4ede d4bc e15d 15bc
000003e0: ca11 90bd 22b6 6bbb 93da 013d b34e dbbd
000003f0: 9352 1b3e e3c3 01be 9f8b b6bd 3eac ad3e

bias f4 [128]
-0.776502 -0.17264415 -0.6068603 -0.70577735 -0.68764603 -0.9676907 -0.5266184 -0.9941223
-0.8073069 0.38517 -0.899697 -0.6871602 -0.8733369 -0.591835 -0.70002085 -0.5031628
0.3430392 -0.20899788 -0.21035117 -0.4449329 -0.06544186 -0.45062888 -0.6061738 -0.00727841
-0.9447443 -0.5573941 -0.42749098 -0.5494583 -0.7523201 -0.4238156 -1.0392781 -1.0143315
-0.68796957 -0.40597096 -1.1395191 -0.5693021 -0.8013785 -0.4591536 -0.65924585 -0.80599445
-0.6342176 -0.8448302 -0.9677301 -0.45323232 -0.8116024 -0.7870769 -0.9449281 -0.6763726
-0.87888837 -0.90103185 -0.9525369 -0.6490545 -0.8337936 -0.6504973 0.0077403844 -0.53907245
-0.0993445 -0.34179837 -0.16451322 -0.1765539 -0.5011497 -0.69662356 -0.44971904 -0.29527238
-0.85518354 -0.5950673 -1.0430087 -0.53511006 -0.5176189 -0.94254106 -0.83863264 -0.17799057
-0.7393296 -0.7210261 -0.2601216 -0.47097468 -0.79126966 -1.0541339 -0.018357685 -0.8941999
-0.872141 -0.971246 -0.15669875 -0.6110613 -0.87804645 -1.0289203 -0.31826052 -0.65240145
-0.62662756 -0.43516436 -0.3510518 -0.8094018 -0.5780038 0.018581264 -1.0557545 -1.056316
-0.7992664 -0.82539135 -0.93508846 -0.5903461 -0.7169473 -0.886494 -0.4887074 -0.41820267
-0.8709552 -0.6787467 -0.7631348 -0.8211068 -0.5240334 0.12303253 -0.73146975 -0.50165725
-0.8944272 -0.8154046 -0.014097502 -0.8170761 -0.8734876 -0.8566906 -0.45940018 -0.2617981
-0.49074244 -0.18728301 -0.894868 -0.8689181 -0.72708094 -0.31865162 -1.0010188 -0.5127262
00000000: d6c8 46bf a1c9 30be 325b 1bbf d3ad 34bf
00000010: 9209 30bf 94ba 77bf 77d0 06bf cd7e 7ebf
00000020: aaab 4ebf 0135 c53e 8b52 66bf bbe9 2fbf
00000030: 0293 5fbf 8082 17bf 9134 33bf 47cf 00bf
00000040: d6a2 af3e 8a03 56be 4c66 57be 3fce e3be
00000050: 6206 86bd d4b8 e6be 352e 1bbf ba7f eebb
00000060: c3da 71bf 61b1 0ebf 19e0 dabe 4da9 0cbf
00000070: 0d98 40bf 5cfe d8be 1107 85bf 9dd5 81bf
00000080: c61e 30bf 6ddb cfbe c3db 91bf c8bd 11bf
00000090: 2427 4dbf 2e16 ebbe 56c4 28bf a755 4ebf
000000a0: 165c 22bf cb46 58bf 29bd 77bf 110e e8be
000000b0: 2dc5 4fbf df7d 49bf cfe6 71bf c126 2dbf
000000c0: d4fe 60bf 06aa 66bf 75d9 73bf 7028 26bf
000000d0: 7f73 55bf fe86 26bf 0da3 fd3b a700 0abf
000000e0: 2175 cbbd 3200 afbe 2776 28be 8cca 34be
000000f0: 594b 00bf ec55 32bf 9341 e6be f12d 97be
00000100: 4fed 5abf 5556 18bf 4f81 85bf f9fc 08bf
00000110: ac82 04bf 5f4a 71bf a1b0 56bf 2943 36be
00000120: b444 3dbf 2b95 38bf a92e 85be 9823 f1be
00000130: a690 4abf dced 86bf db62 96bc 49ea 64bf
00000140: a244 5fbf 94a3 78bf a375 20be 836e 1cbf
00000150: a7c7 60bf a9b3 83bf 0bf3 a2be c803 27bf
00000160: aa6a 20bf ddcd debe 10bd b3be f534 4fbf
00000170: 0ff8 13bf bc37 983c f722 87bf 5d35 87bf
00000180: b99c 4cbf d94c 53bf f561 6fbf ec20 17bf
00000190: dc89 37bf 45f1 62bf db37 fabe a91e d6be
000001a0: ecf6 5ebf 58c2 2dbf cd5c 43bf 0e34 52bf
000001b0: 0e27 06bf 7bf8 fb3d 9a41 3bbf 9c6c 00bf
000001c0: 2ef9 64bf 5bbe 50bf 36f9 66bc e62b 51bf
000001d0: e29c 5fbf 1350 5bbf 8036 ebbe 670a 86be
000001e0: 9842 fbbe 1ec7 3fbe 1216 65bf 6b71 5ebf
000001f0: fa21 3abf 4e26 a3be 6221 80bf 0642 03bf

weight f4 [128, 128]
0.1409237 -0.26154098 0.015757436 -0.552473 0.38761905 0.5387628 0.2834952 0.2672485
-0.20862421 -0.38748366 -0.10646801 -0.3106646 0.016931212 -0.2615717 -0.56778437 -0.1846436
-0.15908629 -0.08506233 0.04954065 -0.55956674 0.097430736 -0.5046599 -0.49790245 0.049328145
-0.18615198 -0.22348563 0.2196587 0.018745659 -0.35926098 -0.16344804 0.085981734 -0.357542
-0.11568699 0.26252377 -0.006138136 -0.44049945 0.19013052 0.10259746 -0.033266902 -0.3503823
-0.034431413 -0.2074344 0.08774777 -0.050625395 0.3270401 -0.018122539 0.13768929 0.2717964
-0.052134715 -0.3086891 -0.059208225 0.10511188 0.19154464 -0.20409593 0.046864532 -0.44906706
-0.38026875 -0.36698902 -0.26490378 0.2538247 -0.37685418 0.19053234 -0.644756 0.34673017
-0.53073394 -0.23308869 -0.07175543 0.17996287 -0.47004455 0.19741406 -0.20379037 -0.76409566
-0.17277531 -0.11868128 0.3244273 -0.074233145 -0.29805946 -0.30883706 -0.60979456 -0.007780717
0.07856616 -0.012112783 0.106588185 -0.009067866 0.1571205 0.086838566 -0.24734415 -0.37002778
0.07424467 -0.61886984 0.05752201 -0.030693945 -0.29761976 -0.13626122 -0.3864646 0.12006719
-0.17975685 0.03468067 0.048004784 -0.3795791 0.15252335 -0.67014265 0.23195268 -0.057644986
-0.051111132 -0.17499426 -0.23563406 -0.61266106 0.11278836 0.14089139 0.18360011 -0.33882
0.04614829 -0.06574333 0.2668025 -0.21711995 -0.0057631973 0.22578654 -0.0598212 0.03256588
-0.02930575 -0.039081823 0.24933054 -0.34498987 0.14115107 0.49608096 0.03419779 0.0045354716
-0.06849631 0.064068824 0.24349725 -0.23792854 -0.21973458 0.026887601 0.11341052 0.2976299
0.13597882 0.29494655 0.15686132 -0.08902102 -0.09423179 0.19675638 -0.16594744 -0.32075936
-1.0455849 -0.10165504 0.118106745 -0.06343819 -0.10424312 -0.5504201 -0.5779175 -0.39756277
0.26683423 -0.34526014 -0.3441974 -0.6775438 -0.5114832 0.1292113 -0.071617454 0.47384605
-0.3017417 -0.09606565 0.07261351 -0.4880844 0.06739718 -0.16060108 -0.5526325 -0.29174432
0.049717307 -0.09053604 0.4957607 0.2537171 0.04513204 -0.122199126 0.08145446 -0.3801474
0.10481305 -0.04423392 -0.2881699 -0.32869554 -0.18901016 -0.25894773 0.13971257 -0.10488557
-0.006031326 -0.33884296 -0.13112463 -0.01010449 -0.40119419 -0.25573865 -0.37385347 -0.28705359
0.09700829 -0.12953627 -0.28732085 -0.008029223 -0.43840867 -0.18278682 0.27074075 -0.4014831
0.09563547 -0.37110448 0.17179298 -0.07300098 -0.01381366 -0.07247767 0.122586876 -0.4506166
-0.17768373 0.20689741 0.0052315868 0.06481169 0.055257525 -0.179192 -0.21046284 -0.10241457
0.22790308 -0.40066582 0.29111168 0.17186373 -0.35034335 -0.73137873 -0.19084457 0.09790908
-0.124634884 -0.10029146 -0.38118482 0.21732861 -0.11577946 0.09679499 0.13156964 -0.74316394
-0.1396696 0.17547424 -0.10257418 -0.6193836 0.31343153 -0.40710607 -0.027005885 -0.02385812
-0.097394116 0.28707045 -0.56443495 -0.35652605 -0.26168826 0.32403657 0.29082054 -0.25280514
0.18584177 0.3683414 0.15929554 0.03116913 -0.64620733 -0.067361094 -0.06259266 -0.58004063
00000000: 4d4e 103e b3e8 85be bd15 813c df6e 0dbf
00000010: 0176 c63e 5cec 093f 4826 913e ccd4 883e
00000020: 96a1 55be 4264 c6be e60b dabd 6e0f 9fbe
00000030: 53b3 8a3c baec 85be 515a 11bf 3613 3dbe
00000040: 84e7 22be 2935 aebd 23eb 4a3d c43f 0fbf
00000050: c489 c73d 6431 01bf 12ed febe 4f0c 4a3d
00000060: a09e 3ebe 6bd9 64be 36ee 603e 7f90 993c
00000070: 0ef1 b7be ec5e 27be 3117 b03d bf0f b7be
00000080: 4ded ecbd 8469 863e 6b22 c9bb 2589 e1be
00000090: 93b1 423e 9e1e d23d e042 08bd 4f65 b3be
000000a0: f407 0dbd af69 54be 1ab5 b33d 935c 4fbd
000000b0: cd71 a73e b875 94bc 6cfe 0c3e e628 8b3e
000000c0: 368b 55bd 7f0c 9ebe 5384 72bd e644 d73d
000000d0: 4724 443e 86fe 50be 06f5 3f3d 1eec e5be
000000e0: 96b2 c2be fce5 bbbe 78a1 87be 50f5 813e
000000f0: 08f3 c0be e91a 433e bb0e 25bf 9e86 b13e
00000100: 2ede 07bf cdae 6ebe 83f4 92bd 3048 383e
00000110: aea9 f0be e926 4a3e 6cae 50be c69b 43bf
00000120: 03ec 30be 2c0f f3bd 561b a63e 8c07 98bd
00000130: 409b 98be e41f 9ebe 7f1b 1cbf 63f5 febb
00000140: 4be7 a03d b274 46bc e84a da3d 6391 14bc
00000150: 32e4 203e 6bd8 b13d c947 7dbe 4874 bdbe
00000160: 970d 983d 416e 1ebf 339c 6b3d de71 fbbc
00000170: 9e61 98be 1088 0bbe b0de c5be c9e5 f53d
00000180: 2e12 38be 510d 0e3d aaa0 443d 3158 c2be
00000190: 152f 1c3e 788e 2bbf 0185 6d3e 261d 6cbd
000001a0: e859 51bd b231 33be 0e4a 71be 5bd7 1cbf
000001b0: 95fd e63d d545 103e ab01 3c3e d179 adbe
000001c0: fd05 3d3d 70a4 86bd 569a 883e b154 5ebe
000001d0: 34d9 bcbb 9634 673e 1307 75bd cd63 053d
000001e0: 9d12 f0bc 4314 20bd 8150 7f3e 83a2 b0be
000001f0: e889 103e 53fe fd3e fb12 0c3d 4b9e 943b
00000200: cb47 8cbd 8436 833d 5857 793e 8aa3 73be
00000210: 1a02 61be 6343 dc3c c643 e83d f262 983e
00000220: 083e 0b3e 3c03 973e 41a0 203e a750 b6bd
00000230: 99fc c0bd 817a 493e 20ee 29be 923a a4be
00000240: bad5 85bf 8530 d0bd f3e1 f13d e2eb 81bd
00000250: 6b7d d5bd 55e8 0cbf 67f2 13bf 598d cbbe
00000260: 7f9e 883e f0c5 b0be a43a b0be 8373 2dbf
00000270: 90f0 02bf f84f 043e 2cac 92bd f39b f23e
00000280: e37d 9abe 11be c4bd 64b6 943d 33e6 f9be
00000290: 8807 8a3d 9c74 24be 5379 0dbf 835f 95be
000002a0: 60a4 4b3d f66a b9bd 59d4 fd3e 35e7 813e
000002b0: 60dc 383d 8943 fabd 99d1 a63d aea2 c2be
000002c0: 39a8 d63d a02e 35bd 018b 93be c84a a8be
000002d0: e18b 41be cc94 84be d010 0f3e 3fce d6bd
000002e0: 6ea2 c5bb d37c adbe 8945 06be 4e8d 25bc
000002f0: 5369 cdbe 2df0 82be b969 bfbe b0f8 92be
00000300: 48ac c63d 28a5 04be b81b 93be 018d 03bc
00000310: 1a77 e0be 782c 3bbe 889e 8a3e 318f cdbe
00000320: 87dc c33d 6801 bebe 80ea 2f3e 8a81 95bd
00000330: b052 62bc 2c6f 94bd d40e fb3d 38b7 e6be
00000340: b9f2 35be eadc 533e bb6d ab3b febb 843d
00000350: b755 623d 1c7e 37be 9283 57be bbbe d1bd
00000360: 6d5f 693e 1224 cdbe 970c 953e 0cfd 2f3e
00000370: 3460 b3be a33b 3bbf c26c 43be 8e84 c83d
00000380: 9340 ffbd 9c65 cdbd a82a c3be 648b 5e3e
00000390: c81d edbd 743c c63d 31ba 063e fe3f 3ebf
000003a0: 8c05 0fbe 85af 333e 6912 d2bd ec8f 1ebf
000003b0: 197a a03e 3570 d0be 723b ddbc 1b72 c3bc
000003c0: 9176 c7bd e6fa 923e cf7e 10bf 958a b6be
000003d0: 01fc 85be 1fe8 a53e 6ee6 943e ad6f 81be
000003e0: 4e4d 3e3e 3e97 bc3e 5f1e 233e 6756 ff3c
000003f0: d86d 25bf 9df4 89bd 9530 80bd 8b7d 14bf

bias f4 [128]
0.04235257 -0.041299477 0.3430346 -0.0673193 -0.5243189 -0.045425214 -0.14582671 -0.406272
-0.012967561 -0.32555622 0.027128728 -0.19581084 -0.15491971 -0.002891027 -0.07064423 -0.30260187
-0.2355843 0.3090327 -0.042265467 -0.11833711 -0.054066468 -0.08063118 0.00543642 -0.50656635
-0.26223886 -0.5017855 0.19279994 -0.0039654505 -0.07217558 -0.49880955 -0.017395502 -0.057736274
-0.30875385 -0.13529347 -0.40337998 -0.49581185 -0.3609024 -0.16068919 -0.04744817 -0.8974274
-0.0314694 0.11185182 -0.4026601 -0.055112146 0.03709023 -0.026711937 -0.39587703 -0.40311244
0.053545788 -0.100384586 -0.4554529 -0.14506708 -0.14942338 -0.5204842 -0.5219933 -0.44425628
-0.004712278 0.24962696 -0.27437252 -0.029178001 -0.08631329 -0.16244613 -0.3094206 -0.0386395
-0.51125467 -0.0039202436 0.12738244 -0.040346403 -0.1005963 -0.13944861 -0.10037085 -0.09392095
-0.15397337 -0.0951944 0.040154554 -0.01485878 -0.29552925 -0.3272293 -0.6281771 0.25079715
-0.1320179 -0.13328585 -0.2692814 -0.33467907 -0.056640293 -0.26426154 -0.1939076 -0.07673449
-0.8478116 -0.25228205 -0.043174423 -0.3007174 -0.08081571 -0.040438548 -0.569945 -0.15603384
-0.097805224 0.0148228025 -0.0810511 -0.11621729 -0.5107965 -0.17256561 -0.11259412 -0.4380074
-0.05406426 0.07369226 -0.29364038 -0.051671915 0.22406632 0.14222594 0.18585223 -0.5697838
-0.5550269 -0.79477817 -0.67589426 -0.032282826 -0.043980103 -0.41292733 0.069797106 -0.14289372
-0.7563568 0.021679297 -0.30964658 0.26456526 -0.18692009 -0.09196218 -0.102937214 -0.4369621
00000000: e379 2d3d a429 29bd 3ba2 af3e b3de 89bd
00000010: c339 06bf ca0f 3abd 9953 15be e202 d0be
00000020: e575 54bc 4eaf a6be 113d de3c a382 48be
00000030: 46a3 1ebe 6277 3dbb ecad 90bd a2ee 9abe
00000040: 033d 71be 8939 9e3e 8e1e 2dbd ba5a f2bd
00000050: cd74 5dbd f621 a5bd ff23 b23b 55ae 01bf
00000060: 2c44 86be 0475 00bf 596d 453e 9cf0 81bb
00000070: cad0 93bd f763 ffbe 0381 8ebc df7c 6cbd
00000080: fc14 9ebe 5f8a 0abe d287 cebe 0ddb fdbe
00000090: 33c8 b8be b58b 24be 0359 42bd cdbd 65bf
000000a0: 0fe6 00bd 9112 e53d 7729 cebe 46bd 61bd
000000b0: edeb 173d fed2 dabc 65b0 cabe c164 cebe
000000c0: d452 5b3d 6f96 cdbd 1f31 e9be 778c 14be
000000d0: 7102 19be 743e 05bf 5aa1 05bf 8f75 e3be
000000e0: 7469 9abb 369e 7f3e 8e7a 8cbe b406 efbc
000000f0: 06c5 b0bd 4758 26be 606c 9ebe 7444 1ebd
00000100: 96e1 02bf 6375 80bb 8b70 023e 4542 25bd
00000110: 6f05 cebd 9ecb 0ebe 3b8f cdbd a159 c0bd
00000120: 32ab 1dbe 48f5 c2bd 1a79 243d 3e72 73bc
00000130: 9c4f 97be 998a a7be 37d0 20bf 7c68 803e
00000140: b32f 07be 167c 08be 40df 89be 0e5b abbe
00000150: a7ff 67bd 4a4d 87be b78f 46be f926 9dbd
00000160: 2e0a 59bf 1d2b 81be aad7 30bd a2f7 99be
00000170: b582 a5bd e4a2 25bd eae7 11bf 56c7 1fbe
00000180: 1b4e c8bd 57db 723c 1efe a5bd 5503 eebd
00000190: 8fc3 02bf 0ab5 30be bf97 e6bd 8242 e0be
000001a0: 7c72 5dbd f8eb 963d 0858 96be eea5 53bd
000001b0: a471 653e ada3 113e 0c50 3e3e 5add 11bf
000001c0: 3e16 0ebf 9576 4bbf 6807 2dbf ff3a 04bd
000001d0: 7b24 34bd 366b d3be c9f1 8e3d bb52 12be
000001e0: 99a0 41bf c898 b13c ff89 9ebe 1975 873e
000001f0: fb67 3fbe ab56 bcbd bfd0 d2bd 7fb9 dfbe

weight f4 [128, 128]
-0.20074372 -0.25875074 0.18457565 -0.16674465 -0.36121464 -0.010581609 0.01854343 -0.047740053
-0.022566546 -0.081190184 -0.016107466 0.10014236 0.032871082 -0.2453719 -0.016595267 0.36806
0.006745381 -0.023869347 0.02909313 0.22395703 -0.057920504 -0.5795802 0.06210242 -0.19019303
-0.18751135 -0.19864294 -0.2815046 0.104989484 -0.28062302 0.29299444 0.019528603 -0.3034037
0.16579084 0.009533924 -0.0672996 0.02990569 0.19710982 -0.10449429 -0.088219106 -0.10372967
-0.04861058 -0.29312482 0.07074103 0.01839912 0.03965751 0.02226846 0.14525281 -0.16748627
-0.2718166 0.010969008 -0.041630924 0.2957304 -0.061364647 -0.07689523 0.121974714 -0.071528345
-0.055521075 0.2669623 -0.11653993 -0.14661181 0.076582 -0.2745785 -0.18702684 -0.008153422
-0.17114674 -0.4473823 -0.14884256 -0.06898646 -0.00022658259 0.04391581 -0.3972022 -0.08152205
0.6086882 -0.015557975 0.17834386 -0.23580003 -0.10652836 0.009571112 0.03270697 0.13032518
-0.028106758 0.09049965 -0.25691953 -0.2725567 -0.3619148 -0.11456111 -0.2089975 0.15579216
0.084820054 0.23701991 0.25387254 0.2019771 -0.10950479 -0.14283335 0.05121242 -0.086848624
-0.018175788 -0.0547509 0.034514833 0.40620548 0.10308747 -0.03433803 -0.078913584 -0.24866103
0.014961194 0.109079696 -0.09196239 -0.06770415 -0.28222722 -0.10832568 0.033215567 -0.2433953
-0.23016833 -0.24918209 0.15671887 -0.41916847 0.095177665 0.17419483 0.37380198 -0.2926603
-0.21708378 0.31814298 -0.027087398 0.28278735 -0.043602705 -0.015757157 0.07246079 -0.46569002
-0.35693985 0.21359575 -0.5388606 -0.01680359 -0.08036289 -0.07600007 0.039719146 0.2683689
0.03734987 0.013633228 -0.15872301 0.15913638 0.1848716 0.4426632 0.05965502 -0.081507705
-0.014491134 0.084043935 -0.021237206 0.13112752 -0.010788438 0.53702307 -0.052258994 -0.16754448
0.27704725 -0.36187407 0.07686768 0.07819717 -0.15203416 -0.1841009 -0.42597434 0.18654323
-0.1608085 -0.00064971944 0.15134405 -0.28065172 -0.05245855 -0.04182989 -0.25113675 0.17678146
0.081375964 0.065083876 0.04027751 -0.067202285 -0.7338858 -0.04524122 -0.5951617 0.24460402
-0.4199229 -0.06324541 -0.83732903 0.44946373 0.06499009 0.07716762 0.13556536 -0.013108952
0.38254747 -0.25156364 0.36760348 -0.3096961 -0.010309507 -0.3733827 -0.13040964 0.00885829
-0.35680908 0.054341286 0.21347953 -0.09315251 0.057759896 0.022577196 0.17132854 0.080430865
-0.37817731 -0.047533263 0.15822116 0.18662456 0.18822093 0.076953724 -0.44261134 -0.1414176
0.008628375 -0.08241372 -0.35402554 -0.19991219 0.10024624 -0.30546695 0.057664793 -0.2667638
0.13595483 0.5627437 -0.2115544 -0.00782649 -0.00921684 0.03845151 -0.51748776 0.020357694
-0.042521104 -0.005314338 -0.021917937 0.2733026 0.014964192 0.0021164773 0.064062275 -0.466757
0.03754273 -0.89174175 0.0045261476 0.054492403 -0.37722296 -0.80461824 -0.24422763 -0.07959369
0.23568279 0.025747145 -0.92128253 0.058888037 0.054532994 -0.019652763 -0.35647196 0.12752871
-0.18732394 -0.4455521 -0.163112 -0.030813409 0.01318125 -0.044464886 0.039114498 -0.068535574
00000000: c38f 4dbe fa7a 84be 6601 3d3e 1cbf 2abe
00000010: 20f1 b8be 7c5e 2dbc 64e8 973c 138b 43bd
00000020: 7add b8bc 0a47 a6bd cef3 83bc 7017 cd3d
00000030: d4a3 063d c542 7bbe ccf2 87bc 5c72 bc3e
00000040: 5b08 dd3b a689 c3bc b754 ee3c fe54 653e
00000050: 0d3e 6dbd 5e5f 14bf 1b5f 7e3d f6c1 42be
00000060: fa02 40be 0e69 4bbe 5f21 90be ba04 d73d
00000070: d2ad 8fbe 5e03 963e 73fa 9f3c bb57 9bbe
00000080: 13c5 293e 2d34 1c3c 5fd4 89bd c7fc f43c
00000090: 28d7 493e 1a01 d6bd 38ac b4bd 3970 d4bd
000000a0: e31b 47bd 7514 96be ace0 903d c0b9 963c
000000b0: ea6f 223d 586c b63c 27bd 143e 8581 2bbe
000000c0: 8c2b 8bbe 5bb7 333c 3085 2abd fa69 973e
000000d0: 7f59 7bbd 3f7b 9dbd e1cd f93d 747d 92bd
000000e0: 116a 63bd 48af 883e 7dac eebd 6821 16be
000000f0: 06d7 9c3d 8e95 8cbe f783 3fbe ee95 05bc
00000100: 1741 2fbe 4b0f e5be 2f6a 18be c648 8dbd
00000110: cd96 6db9 10e1 333d 165e cbbe 08f5 a6bd
00000120: fdd2 1b3f e0e6 7ebc c69f 363e 9075 71be
00000130: 8a2b dabd 27d0 1c3c bef7 053d f773 053e
00000140: 2540 e6bc e157 b93d f58a 83be 8d8c 8bbe
00000150: e64c b9be 049f eabd 7103 56be fb87 1f3e
00000160: 23b6 ad3d 59b5 723e 95fb 813e 16d3 4e3e
00000170: 0c44 e0bd e842 12be 1dc4 513d b1dd b1bd
00000180: 64e5 94bc 7b42 60bd 6d5f 0d3d 2afa cf3e
00000190: 861f d33d 09a6 0cbd 729d a1bd ffa0 7ebe
000001a0: cc1f 753c 2d65 df3d c756 bcbd 79a8 8abd
000001b0: 1680 90be dbd9 ddbd 0c0d 083d 9e3c 79be
000001c0: 3fb1 6bbe 9729 7fbe e97a 203e 409d d6be
000001d0: 82ec c23d 2160 323e f962 bf3e 92d7 95be
000001e0: 364b 5ebe a3e3 a23e 64e6 ddbc 81c9 903e
000001f0: c098 32bd 2715 81bc 5366 943d ec6e eebe
00000200: d2c0 b6be d8b8 5a3e c5f2 09bf afa7 89bc
00000210: 4d95 a4bd eda5 9bbd 8bb0 223d a667 893e
00000220: 2dfc 183d e75d 5f3c 4988 22be a6f4 223e
00000230: fb4e 3d3e c0a4 e23e d258 743d 83ed a6bd
00000240: 396c 6dbc 3a1f ac3d a6f9 adbc 4b46 063e
00000250: fdc1 30bc 587a 093f 870d 56bd c890 2bbe
00000260: 23d9 8d3e 8f47 b9be cd6c 9d3d d625 a03d
00000270: d8ae 1bbe f284 3cbe 4f19 dabe 3005 3f3e
00000280: fcaa 24be ef51 2aba eff9 1a3e 95b1 8fbe
00000290: c7de 56bd d255 2bbd ff94 80be 3306 353e
000002a0: 71a8 a63d b24a 853d 08fa 243d 5aa1 89bd
000002b0: f1df 3bbf dc4e 39bd 845c 18bf 7a79 7a3e
000002c0: 2200 d7be cf86 81bd 325b 56bf 1c20 e63e
000002d0: 8619 853d 0f0a 9e3d a5d1 0a3e eec6 56bc
000002e0: 43dd c33e f3cc 80be 8636 bc3e 7d90 9ebe
000002f0: 35e9 28bc 042c bfbe 1b8a 05be 5c22 113c
00000300: aeaf b6be f894 5e3d 619a 5a3e bec6 bebd
00000310: a495 6c3d d0f3 b83c c070 2f3e f0b8 a43d
00000320: 75a0 c1be 3db2 42bd ba04 223e 821a 3f3e
00000330: fdbc 403e ea99 9d3d f49d e2be c6cf 10be
00000340: 075e 0d3c 86c8 a8bd d642 b5be c8b5 4cbe
00000350: e74d cd3d 2a66 9cbe eb31 6c3d 4495 88be
00000360: be37 0b3e f90f 103f b7a1 58be ae3a 00bc
00000370: 3b02 17bc 557f 1d3d 147a 04bf 2ec5 a63c
00000380: 9c2a 2ebd e623 aebb 3f8d b3bc 52ee 8b3e
00000390: 5f2c 753c 99b4 0a3b 1533 833d c6fa eebe
000003a0: 68c6 193d 3049 64bf 1450 943b 6d33 5f3d
000003b0: 5e23 c1be 76fb 4dbf cf16 7abe 0402 a3bd
000003c0: d456 713e adeb d23c 2cd9 6bbf 9534 713d
000003d0: fd5d 5f3d d5fe a0bc 7e83 b6be e396 023e
000003e0: d9d1 3fbe 681f e4be d506 27be 676c fcbc
000003f0: 2bf6 573c d020 36bd 8636 203d 615c 8cbd

bias f4 [128]
-0.35273606 -0.66278523 -0.72686136 -0.21712552 0.42864364 -0.5754155 -0.5802264 -0.18824926
-0.42644748 -0.13060595 -0.31670383 -0.2702764 0.10280429 -0.70864594 -0.055596367 -0.71343434
-0.9946513 -0.5985065 -0.38006207 0.031031642 0.35493165 -0.47703123 -0.57363427 0.3388932
-0.27816123 0.31989408 -0.46982327 -0.46529832 -0.10919598 -0.21732584 -0.03766635 -0.32621345
-0.15345272 -0.29732883 -0.33002815 -0.66799575 -0.45806286 -0.43712634 -0.33352557 -0.46420956
-0.112706356 -0.5615815 0.29562235 -0.27192348 -0.3918925 -0.7516659 -0.45327652 -0.86688685
-0.58359087 -0.33851084 -0.060743798 0.29205814 -0.4966442 0.014417135 -0.08757237 0.42413998
-0.17230918 -0.20123121 -0.43560368 -0.26942274 -0.116300516 0.031411912 -0.49299374 0.3060037
-0.54815155 0.5916787 0.2744538 -0.19066843 0.3416656 -0.9098956 -0.38931376 -0.50021565
-0.08990916 0.013053526 -0.45154178 -0.59687513 -0.21795017 -0.23740765 0.33663762 0.34996697
-0.7162886 -0.10153592 -0.55030674 -0.38190395 -0.79663455 -0.48389325 0.07153914 -0.54853445
-0.6890389 -0.7247725 -0.89157623 -0.7206883 -0.30882078 0.2430715 -0.83686024 -0.44851074
-0.42803168 -0.25746667 -0.22603315 -0.66005224 -0.81248724 -0.34889954 -0.1238263 -0.10884204
-0.012462399 -0.25985232 -0.31704873 -0.44189462 -0.067528374 -0.116069704 -0.63640124 0.36867985
-0.5164416 -0.4918631 0.22981858 -0.3315871 -0.723495 -0.17070134 0.28934705 0.044034567
-0.1586993 0.46003652 -0.6910805 0.1825034 0.31624705 0.0030362385 -0.3680547 -0.5112765
00000000: d299 b4be 4bac 29bf 9613 3abf 2756 5ebe
00000010: 2e77 db3e 6e4e 13bf b889 14bf 6ac4 40be
00000020: 5357 dabe 91bd 05be 0127 a2be ab61 8abe
00000030: 0e8b d23d d269 35bf 04b9 63bd a2a3 36bf
00000040: 78a1 7ebf b937 19bf 7f97 c2be 1236 fe3c
00000050: 9ab9 b53e 703d f4be b2d9 12bf 6983 ad3e
00000060: 266b 8ebe 28c9 a33e ad8c f0be 953b eebe
00000070: 24a2 dfbd aa8a 5ebe 0848 1abd 7305 a7be
00000080: b622 1dbe 7c3b 98be 73f9 a8be c501 2bbf
00000090: 3787 eabe 06cf dfbe ddc3 aabe e0ac edbe
000000a0: 97d2 e6bd cec3 0fbf d05b 973e 8e39 8bbe
000000b0: 22a6 c8be 2d6d 40bf dc13 e8be 4cec 5dbf
000000c0: 3666 15bf 4b51 adbe 7dce 78bd a588 953e
000000d0: 2648 febe d935 6c3c 2559 b3bd e028 d93e
000000e0: d171 30be 8e0f 4ebe 7207 dfbe c7f1 89be
000000f0: f72e eebd c7a9 003d ad69 fcbe 84ac 9c3e
00000100: a953 0cbf 4178 173f 3585 8c3e 963e 43be
00000110: cbee ae3e ebee 68bf 2254 c7be 220e 00bf
00000120: 4b22 b8bd 75de 553c 7c30 e7be cfcc 18bf
00000130: 542e 5fbe fe1a 73be c45b ac3e df2e b33e
00000140: b15e 37bf 10f2 cfbd e7e0 0cbf ea88 c3be
00000150: 3ef0 4bbf dbc0 f7be 1d83 923d c16c 0cbf
00000160: da64 30bf b18a 39bf 573e 64bf 077f 38bf
00000170: c21d 9ebe bce7 783e 793c 56bf 33a3 e5be
00000180: f826 dbbe acd2 83be 3c75 67be 2ff9 28bf
00000190: 2aff 4fbf f6a2 b2be a598 fdbd 93e8 debd
000001a0: 172f 4cbc 5d0b 85be 3654 a2be 0340 e2be
000001b0: 514c 8abd f4b5 edbd 31eb 22bf 9bc3 bc3e
000001c0: 8435 04bf 7bd5 fbbe 9055 6b3e c9c5 a9be
000001d0: f836 39bf 55cc 2ebe 4c25 943e 975d 343d
000001e0: 1282 22be e889 eb3e a7ea 30bf 2ce2 3a3e
000001f0: 22eb a13e a1fb 463b aa71 bcbe 04e3 02bf

weight f4 [128, 128]
-0.15465651 0.093441285 0.18410334 -0.013417877 0.24259897 -0.3532128 -0.0032194802 0.014619454
0.20515643 0.0230403 0.045257106 -0.5264804 0.07516404 -0.010248193 0.04262807 0.1655738
0.03009128 -0.072311744 -0.1288725 0.027570523 0.21072264 -0.27062753 -0.18075106 0.03341766
0.017080475 0.26317734 0.115764804 -0.26078033 -0.2747056 0.11873813 0.19512936 -0.26446578
0.1354248 0.2800229 -0.06356685 -0.4133406 -0.18124953 -0.12441934 -0.07476211 -0.064762786
-0.621665 0.30776218 0.20666079 0.05844921 0.18915008 -0.40876547 0.014746522 -0.20027752
-0.5766271 0.09500129 0.023790894 0.08968519 -0.24102497 0.08280773 0.18088749 0.27473444
-0.007279889 -0.051984396 0.01109499 0.013475816 -0.18014593 -0.06349727 0.10108904 0.16677901
-0.091703065 0.1423245 0.24313854 -0.18306358 0.091316976 -0.04391476 0.033910733 -0.3172649
0.06052498 0.17025551 -0.059345428 -0.015903678 -0.07425638 0.0030404686 0.03676196 0.22040433
-0.16326882 0.009416722 0.005500593 -0.15205237 -0.0801278 0.094579324 0.27099138 -0.13365544
-0.24396265 -0.388952 -0.09417258 0.07553908 -0.0740073 0.20986944 -0.0071194377 0.16861483
0.086406745 -0.014715754 0.019855129 0.027544787 -0.33416247 -0.45394698 0.15140146 -0.021676682
-0.041937187 -0.050916992 -0.10735192 -0.13155885 0.07788178 -0.00014422102 -0.4700347 -0.08879453
-0.20260093 -0.29907158 -0.016386645 -0.059625335 -0.20481963 0.12162906 0.1008019 0.072372235
-0.025810694 0.0620137 -0.14657463 0.11388931 0.04509879 0.05000993 -0.0960618 -0.02760338
0.3112291 0.25265262 -0.26706475 -0.12650774 0.14510006 -0.048381943 -0.6187739 0.2651654
0.012769418 -0.52818346 0.028146053 -0.12107129 -0.122491196 0.070539735 -0.23155713 -0.35211432
0.26814103 0.2034409 0.060628295 0.055592664 -0.0121401725 -0.09640845 -0.22582053 -0.035915047
-0.051481057 0.01117753 -0.33806565 -0.015234525 0.0091452515 -0.33271635 0.08587747 0.080844
-0.2548227 -0.01183198 0.073237985 0.020026024 0.11258513 0.105464935 0.1561139 -0.086263545
-0.09301608 0.20358744 0.16484652 0.20292397 0.41153914 0.115205385 -0.007839342 -0.21847208
0.027526682 -0.030778946 -0.03925619 -0.013072275 -0.3658295 -0.28452545 -0.1889699 -0.5381365
-0.38648194 0.06738061 0.1642704 0.124922 0.023386696 0.059047423 0.28874025 -0.13079098
0.03528578 -0.17348062 -0.21407644 -0.39205632 -0.18330917 -0.10851233 0.016252117 -0.1864401
0.12240358 0.30206725 0.00096506986 0.032325346 -0.28394568 -0.28809184 -0.20827721 0.116291665
0.21157022 -0.0043506064 -0.06724655 0.2732494 -0.14777426 -0.25161943 -0.09764994 0.25154486
0.082028665 -0.054007743 -0.06900972 -0.11516403 -0.18054718 0.083149634 -0.20984533 0.37729895
0.19018398 -0.03969117 0.02740892 -0.11221374 -0.0050108256 0.28208098 -0.12864357 -0.003204284
-0.11095967 -0.32026225 0.06834781 -0.080312766 0.0029502711 -0.23994927 0.14270903 0.17015809
0.018138334 0.22118475 -0.33337402 -0.06498447 0.079449244 -0.046845887 -0.2669034 0.08972402
-0.012777498 -0.25633255 0.040598672 -0.0094951475 0.12297784 -0.07287297 0.1047116 -0.028188393
00000000: 475e 1ebe 255e bf3d 9685 3c3e a8d6 5bbc
00000010: dd6b 783e 4fd8 b4be eafd 52bb 6f86 6f3c
00000020: 8714 523e 03bf bc3c 845f 393d 6bc7 06bf
00000030: 9bef 993d 09e8 27bc c59a 2e3d 2e8c 293e
00000040: fd81 f63c 2e18 94bd 27f7 03be 94db e13c
00000050: adc7 573e b18f 8abe ce16 39be f5e0 083d
00000060: 5aec 8b3c 2ebf 863e 1916 ed3d 0085 85be
00000070: 36a6 8cbe fa2c f33d fecf 473e 0f68 87be
00000080: ccac 0a3e 295f 8f3e 562f 82bd 61a1 d3be
00000090: 7a99 39be 91cf febd e11c 99bd 5aa2 84bd
000000a0: 7025 1fbf 0193 9d3e e39e 533e 7068 6f3d
000000b0: 8fb0 413e b549 d1be 659b 713c 8d15 4dbe
000000c0: d59d 13bf 0990 c23d 1fe5 c23c deac b73d
000000d0: 40cf 76be 1997 a93d 923a 393e fea9 8c3e
000000e0: 238c eebb 97ed 54bd c3c7 353c abc9 5c3c
000000f0: 2d78 38be db0a 82bd c507 cf3d 1ec8 2a3e
00000100: d1ce bbbd 84bd 113e 4ff9 783e 0575 3bbe
00000110: 6504 bb3d f7df 33bd fbe5 0a3d 8c70 a2be
00000120: 0be9 773d 7657 2e3e 3114 73bd 6e48 82bc
00000130: bb13 98bd 9942 473b b593 163d acb1 613e
00000140: f12f 27be 9848 1a3c 523e b43b 9eb3 1bbe
00000150: 0b1a a4bd ceb2 c13d 62bf 8a3e f9dc 08be
00000160: 58d1 79be b724 c7be 8edd c0bd 3cb4 9a3d
00000170: 2491 97bd 04e8 563e 2c4a e9bb 5ea9 2c3e
00000180: 05f6 b03d 591a 71bc 39a7 a23c 9ba5 e13c
00000190: 5817 abbe bd6b e8be fc08 1b3e 4c93 b1bc
000001a0: 54c6 2bbd 568e 50bd 53db dbbd 5db7 06be
000001b0: 7c80 9f3d 093a 17b9 63a8 f0be e8d9 b5bd
000001c0: 9e76 4fbe e91f 99be 493d 86bc b239 74bd
000001d0: 3dbc 51be a818 f93d 3a71 ce3d e537 943d
000001e0: f370 d3bc 1402 7e3d a917 16be cc3e e93d
000001f0: 82b9 383d 36d7 4c3d 0dbc c4bd 7c20 e2bc
00000200: 6c59 9f3e af5b 813e b6bc 88be 3f8b 01be
00000210: 1c95 143e 252c 46bd f767 1ebf c2c3 873e
00000220: d236 513c 0837 07bf 8d92 e63c 39f4 f7bd
00000230: aadc fabd 2377 903d 501d 6dbe 5448 b4be
00000240: c849 893e d052 503e 6055 783d 22b5 633d
00000250: 93e7 46bc cb71 c5bd 7f3d 67be a81b 13bd
00000260: cddd 52bd f521 373c f116 adbe 3b9a 79bc
00000270: f7d5 153c cc59 aabe 87e0 af3d 8a91 a53d
00000280: 1f78 82be ecda 41bc ccfd 953d 9e0d a43c
00000290: 0893 e63d 00fe d73d 52dc 1f3e f1aa b0bd
000002a0: 377f bebd 3a79 503e 87cd 283e 4dcb 4f3e
000002b0: 42b5 d23e cdf0 eb3d 9570 00bc 25b7 5fbe
000002c0: a37f e13c 2124 fcbc 19cb 20bd 182d 56bc
000002d0: 014e bbbe 52ad 91be 5381 41be 50c3 09bf
000002e0: f6e0 c5be d8fe 893d 8036 283e 1bd7 ff3d
000002f0: 7595 bf3c b6db 713d c3d5 933e 12ee 05be
00000300: d287 103d e7a4 31be db36 5bbe 9bbb c8be
00000310: 66b5 3bbe b63b debd 2923 853c 27ea 3ebe
00000320: baae fa3d 8fa8 9a3e befc 7c3a 9567 043d
00000330: 5461 91be c680 93be 9f46 55be 532a ee3d
00000340: dda5 583e 888f 8ebb 8fb8 89bd 58e7 8b3e
00000350: 2352 17be 43d4 80be b1fc c7bd 7dca 803e
00000360: a5fe a73d 3937 5dbd f854 8dbd 1edb ebbd
00000370: 5ce1 38be 5b4a aa3d b2e1 56be 542d c13e
00000380: 97bf 423e 3593 22bd ac88 e03c 51d0 e5bd
00000390: da31 a4bb eb6c 903e 24bb 03be f7fe 51bb
000003a0: d33e e3bd 6af9 a3be f0f9 8b3d 057b a4bd
000003b0: 5659 413b 43b5 75be 5122 123e ec3d 2e3e
000003c0: d896 943c 417e 623e 00b0 aabe 9416 85bd
000003d0: 49b6 a23d 79e1 3fbd 90a7 88be 3ac1 b73d
000003e0: b658 51bc 053e 83be cb4a 263d 8991 1bbc
000003f0: cedb fb3d 6c3e 95bd 0973 d63d 58eb e6bc

bias f4 [128]
0.5841847 -0.28913563 -0.11431932 -0.07382497 -0.21193197 0.096463576 -0.27371284 -0.46489972
0.4076641 -0.4747307 -0.6881997 -0.17431727 -0.2107347 -0.10693388 0.020116534 0.0060769976
-0.64529496 -0.17942104 0.22459632 0.37678683 0.039710063 -0.33472115 0.08222201 -0.0029882453
0.16560015 -0.09953305 0.04381167 -0.22551456 -0.18806246 0.097293824 -0.17170207 -0.3781037
-0.35134822 -0.07823019 -0.4807802 -0.4673231 -0.09811161 -0.263457 -0.8294826 -0.27566963
-1.2432761 -0.0856367 -0.4884566 -0.1747148 -0.26177394 -0.17195816 -0.33080548 -0.45895126
-0.29937607 -0.22600612 -0.19506185 0.007208925 -0.06471319 -0.36238045 -0.21587683 0.17752898
-0.5457693 -0.03959065 -0.21161062 -0.16766159 -0.14156538 -0.20880143 0.6431258 -0.20506823
0.06282939 0.18596442 -0.4334136 -0.08710942 -0.2915303 -0.2144773 -0.51650155 -0.18657744
-0.06086384 -0.20392695 0.081719585 0.046585787 -0.21603732 -0.17894608 -0.10550145 -0.7412066
0.14846088 -0.18217258 0.18519072 -0.38647717 0.22975293 -0.42236534 -0.35969922 -0.1535362
-0.1590488 -0.25881648 0.19493885 -0.09285559 -0.31547755 -0.24984905 0.028143974 -0.0047914386
-0.16487527 -0.5382693 0.2206561 -0.52505195 -0.08126168 0.060452938 -0.35819715 0.03304976
0.45971474 0.20756613 -0.09890629 -0.5383027 -0.19281314 -0.2144123 -0.22010987 -0.32591018
0.044441573 0.12224542 -0.10473716 -0.23084861 -0.12658367 0.11241746 -0.26519573 -1.0208967
0.1250327 -0.2195472 -0.423096 -0.47697872 -0.30693576 -0.123395436 0.056449067 -0.17785583
00000000: 218d 153f 9609 94be 3f20 eabd 8c31 97bd
00000010: b204 59be b28e c53d 1724 8cbe 5607 eebe
00000020: 59b9 d03e e70f f3be db2d 30bf 3a80 32be
00000030: d6ca 57be 2600 dbbd 6ecb a43c 8d21 c73b
00000040: 0d32 25bf 26ba 37be 94fc 653e 34ea c03e
00000050: 05a7 223d 9260 abbe 0364 a83d 70d6 43bb
00000060: 1693 293e fcd7 cbbd de73 333d 4aed 66be
00000070: 7293 40be fc41 c73d abd2 2fbe cf96 c1be
00000080: eae3 b3be 2637 a0bd d328 f6be f944 efbe
00000090: bdee c8bd d6e3 86be f958 54bf 9224 8dbe
000000a0: ac23 9fbf 4b62 afbd fc16 fabe 70e8 32be
000000b0: 3c07 86be cd15 30be 565f a9be a9fb eabe
000000c0: d247 99be 266e 67be 4bbe 47be d938 ec3b
000000d0: 5988 84bd ee89 b9be d10e 5dbe 28ca 353e
000000e0: 89b7 0bbf ce29 22bd 74b0 58be 7baf 2bbe
000000f0: 84f6 10be 0bd0 55be e4a3 243f 68fd 51be
00000100: b2ac 803d 756d 3e3e 63e8 ddbe 6c66 b2bd
00000110: 7643 95be f09f 5bbe 7239 04bf 280e 3fbe
00000120: 5d4c 79bd 3ad2 50be 995c a73d bdd0 3e3d
00000130: e338 5dbe a43d 37be 2511 d8bd b7bf 3dbf
00000140: 2106 183e 738b 3abe a3a2 3d3e 56e0 c5be
00000150: 5a44 6b3e 4540 d8be 7f2a b8be 9838 1dbe
00000160: b0dd 22be 9883 84be 0d9e 473e 122b bebd
00000170: 4686 a1be 6ed8 7fbe 318e e63c 8001 9dbb
00000180: 10d5 28be 04cc 09bf acf3 613e ce69 06bf
00000190: 866c a6bd 809d 773d 9e65 b7be 2f5f 073d
000001a0: bb5f eb3e 378c 543e 628f cabd 35ce 09bf
000001b0: cf70 45be e68e 5bbe 7b64 61be b3dd a6be
000001c0: 5e08 363d cf5b fa3d 7080 d6bd 9463 6cbe
000001d0: 269f 01be 203b e63d bcc7 87be beac 82bf
000001e0: 9208 003e fbd0 60be 0aa0 d8be 8e36 f4be
000001f0: af26 9dbe bfb6 fcbd 2337 673d d71f 36be

weight f4 [128, 128]
-0.21830961 -0.10547974 -0.068805486 0.06275726 0.03141705 -0.08343297 0.2617108 -0.15274338
-0.4875762 0.04195851 -0.31920695 -0.039223544 -0.05178872 -0.2358279 -0.08337263 0.13149397
-0.35966617 0.14943115 -0.04047471 0.23990856 -0.09981196 0.05286436 -0.08384454 0.022114806
-0.25185895 -0.06334275 -0.06405135 -0.19856557 -0.0894775 -0.1396809 -0.05754939 0.13369666
0.031254184 0.077522404 -0.12328892 0.072795585 -0.010809233 -0.13161054 -0.0815209 0.27734062
0.0021501416 -0.021548428 0.07323039 -0.23986359 -0.0039651534 0.0506734 -0.10437715 0.06728492
0.031440925 0.14029805 -0.056842115 -0.21504155 -0.05261789 0.059070628 0.02309981 0.062447373
-0.22118156 0.036642246 -0.0679005 0.038858324 -0.3028731 -0.029024057 -0.45507738 -0.29125628
-0.22145604 -0.0511123 -0.011759519 0.108762115 -0.09433802 0.058632918 0.04274938 -0.16004628
-0.20699714 0.05724374 -0.14512555 -0.1848187 -0.049052484 0.036224645 0.098536626 -0.42816386
0.044986773 0.11231972 0.3829252 0.15225899 -0.19404724 -0.2127669 -0.121411055 -0.05295988
0.023466617 -0.20317389 0.11270459 -0.21318105 0.019356582 0.12669988 -0.06928157 -0.10438114
0.03933402 -0.43005255 -0.10506166 -0.1299584 0.001853072 -0.6655998 0.11429021 0.12351653
-0.23738068 -0.21733569 0.06294745 -0.10844368 -0.008563628 -0.051155064 -0.06877901 0.015341218
0.056675445 -0.025062295 -0.25764972 0.04808953 -0.09649643 0.027183698 -0.26325178 -0.23197336
0.10650466 -0.09673119 -0.16364947 -0.20706785 0.02493907 -0.13053094 -0.2617268 0.025383476
-0.08125591 -0.058713812 -0.06595193 0.011462952 -0.07036277 0.0142373545 -0.042142123 0.047318038
-0.08316717 0.019614564 -0.058101695 0.018852467 0.009470313 0.035341922 0.058150314 -0.0981844
-0.1276233 -0.04504238 0.01992086 0.014464099 0.01267817 -0.048122242 -0.09432035 -0.048828963
-0.08032471 -0.10099265 -0.09279406 0.010825297 0.032397278 -0.032396413 0.0037474982 -0.0026897013
0.03092166 0.050625324 0.0010960677 -0.017920107 -0.023692397 -0.07020707 0.0012044498 -0.037409592
-0.056119766 -0.06253295 -0.07956381 0.06704363 -0.023650888 0.016893955 -0.04188337 -0.051768493
0.060993407 -0.017008344 -0.06118555 -0.010391728 0.057895213 9.867113e-06 0.0005922557 -0.01714265
-0.04401816 0.042104043 -0.036863994 -0.064145274 -0.09108771 0.07765299 -0.13546158 0.002126076
-0.04671466 -0.029098399 0.071546614 0.02465408 0.0786433 0.044682484 0.0023826077 0.018870682
-0.04550915 -0.056537196 0.13942268 -0.0033565748 -0.050832774 0.016472254 -0.11003994 0.16910495
-0.10136491 0.04961338 -0.08351189 -0.04022316 -0.02804045 0.041090567 0.020600079 -0.056819186
0.052976314 0.07300085 -0.057916533 -0.0024710346 0.036139283 -0.10862326 -0.010451943 -0.010645909
-0.028779285 -0.06011629 -0.05407611 -0.02569663 -0.020748332 -0.06224575 0.015715202 0.053611413
-0.08156633 -0.004160357 -0.009538311 -0.02601022 -0.013690359 -0.062556684 -0.024068875 -0.07947885
-0.08015813 0.031352956 0.04030715 -0.08582836 -0.066158235 0.03298541 -0.08395148 0.04378472
-0.043996286 -0.0026841587 -0.09963659 0.014306023 -0.02467552 0.00040720432 0.027304929 -0.0011520137
00000000: 8e8c 5fbe c305 d8bd e4e9 8cbd e186 803d
00000010: 2aaf 003d e8de aabd f5fe 853e c368 1cbe
00000020: 96a3 f9be b0dc 2b3d 186f a3be dea8 20bd
00000030: 6920 54bd de7c 71be 45bf aabd 5ba6 063e
00000040: 2a26 b8be 7b04 193e cfc8 25bd 97aa 753e
00000050: 366a ccbd 4d88 583d b0b6 abbd 1c2a b53c
00000060: a8f3 80be d8b9 81bd 5b2d 83bd c654 4bbe
00000070: fb3f b7bd 8308 0fbe e9b8 6bbd c7e7 083e
00000080: 6304 003d 11c4 9e3d e77e fcbd da15 953d
00000090: 3619 31bc eac4 06be 6ef4 a6bd 97ff 8d3e
000000a0: 64e9 0c3b 5486 b0bc d1f9 953d cd9e 75be
000000b0: 1eee 81bb e98e 4f3d b0c3 d5bd adcc 893d
000000c0: 33c8 003d 4baa 0f3e 47d3 68bd da33 5cbe
000000d0: db85 57bd 0bf4 713d d03b bd3c d1c8 7f3d
000000e0: 6b7d 62be 2e16 163d 6b0f 8bbd e829 1f3d
000000f0: 2f12 9bbe dcc3 edbc e7ff e8be 8b1f 95be
00000100: 5fc5 62be 225b 51bd ffaa 40bc acbe de3d
00000110: 4b34 c1bd 1229 703d f919 2f3d 2ce3 23be
00000120: 0ff7 53be 6978 6a3d cb9b 14be 1d41 3dbe
00000130: 42eb 48bd 4b60 143d 92cd c93d 4b38 dbbe
00000140: 0d44 383d e207 e63d c60e c43e c8e9 1b3e
00000150: 52b4 46be 91df 59be 5ca6 f8bd 76ec 58bd
00000160: 103d c03c d10c 50be aad1 e63d 224c 5abe
00000170: b291 9e3c 9dbd 013e 7fe3 8dbd c7c5 d5bd
00000180: b61c 213d d92f dcbe 912a d7bd d113 05be
00000190: c7e2 f23a c064 2abf fc10 ea3d 3cf6 fc3d
000001a0: ec13 73be 3f8d 5ebe 98ea 803d b817 debd
000001b0: 764e 0cbc f987 51bd 02dc 8cbd bb59 7b3c
000001c0: 8324 683d 714f cdbc aaea 83be 87f9 443d
000001d0: ec9f c5bd 59b0 de3c f0c8 86be 6d8a 6dbe
000001e0: 1d1f da3d 011b c6bd ba93 27be 9809 54be
000001f0: 054d cc3c e7a9 05be 0e01 86be 02f1 cf3c
00000200: 8069 a6bd e57d 70bd ce11 87bd 1bcf 3b3c
00000210: 5b1a 90bd cb43 693c 389d 2cbd 8fd0 413d
00000220: 8d53 aabd b9ae a03c 0bfc 6dbd 7d70 9a3c
00000230: 5f29 1b3c b1c2 103d 062f 6e3d e714 c9bd
00000240: afaf 02be 5c7e 38bd 1231 a33c d4fa 6c3c
00000250: 19b8 4f3c d41b 45bd 072b c1bd e100 48bd
00000260: 4881 a4bd 3cd5 cebd d00a bebd 965c 313c
00000270: 02b3 043d 1ab2 04bd 9698 753b b345 30bb
00000280: 6c4f fd3c 805c 4f3d eea9 8f3a 30cd 92bc
00000290: 8f16 c2bc b9c8 8fbd a1de 9d3a cd3a 19bd
000002a0: d7dd 65bd 4611 80bd 5af2 a2bd 2c4e 893d
000002b0: 82bf c1bc 3165 8a3c e68d 2bbd 330b 54bd
000002c0: 39d4 793d 1555 8bbc b39d 7abd 1142 2abc
000002d0: 8823 6d3d ed8a 2537 9b41 1b3a be6e 8cbc
000002e0: 634c 34bd 4a75 2c3d b3fe 16bd 995e 83bd
000002f0: 318c babd 8808 9f3d 71b6 0abe a355 0b3b
00000300: df57 3fbd c45f eebc 0887 923d 5af7 c93c
00000310: bd0f a13d fb04 373d 8625 1c3b b096 9a3c
00000320: cd67 3abd 8c93 67bd d2c4 0e3e fbf9 5bbb
00000330: 0736 50bd d2f0 863c 9f5c e1bd d929 2d3e
00000340: 6898 cfbd 6637 4b3d 4808 abbd 0ac1 24bd
00000350: 16b5 e5bc 954e 283d 7fc1 a83c 3cbb 68bd
00000360: b1fd 583d 7881 953d e339 6dbd 15f1 21bb
00000370: c906 143d df75 debd a03e 2bbc 2e6c 2ebc
00000380: 89c2 ebbc 803c 76bd e97e 5dbd bd81 d2bc
00000390: 68f8 a9bc 66f5 7ebd 2bbd 803c a497 5b3d
000003a0: 3f0c a7bd 9b53 88bb 9346 1cbc 6313 d5bc
000003b0: 874d 60bc b81d 80bd 172c c5bc cfc5 a2bd
000003c0: f229 a4bd f56b 003d 1c19 253d c7c6 afbd
000003d0: f87d 87bd b61b 073d c1ee abbd 9b57 333d
000003e0: 7335 34bd b6e8 2fbb 450e ccbd cf63 6a3c
000003f0: 5124 cabc 0a7e d539 96ae df3c 2aff 96ba

bias f4 [128]
-0.16562554 -0.050767094 0.29357228 -0.19611195 0.05146928 -0.11043141 0.0040347907 0.48721844
0.084862 0.42116964 0.06561943 -0.0002387573 0.14383951 -0.27766857 -0.349784 -0.34936
0.007994531 -0.05645411 -0.090485595 -0.030059578 -0.34895888 -0.5395558 -0.20214076 -0.24920158
-0.118426695 -0.257846 -0.44862658 -0.1415943 0.42044744 -0.19437286 -0.16286573 0.01880219
-0.4842298 -0.17251208 -0.028599082 -0.56119287 -0.2814938 -0.50263214 -0.053190604 -0.1019903
-0.3364325 -0.53125507 -0.5593931 -0.5225356 -0.104601 -0.022938622 -0.14363874 0.21578604
-0.56848055 -0.037784405 -0.35399857 0.10576898 -0.20360392 0.3340449 -0.0059899725 -0.0096541345
0.029047031 0.08700316 -0.20422949 -0.5119991 -0.29208618 -0.035604052 0.29482937 0.30418012
-0.13481236 -0.007154575 -0.30450982 -0.16366088 -0.39061952 0.21284287 0.020624004 -0.26868638
-0.46405885 0.06693079 -0.5178115 -0.19954315 -0.12031487 0.62540895 -0.4450156 0.32660457
-0.31167778 -0.10899587 0.3808029 0.11425301 -0.0075802566 -0.40468204 -0.41121873 -0.121171415
-0.08848706 -0.6098868 -0.11199395 -0.58113724 -0.24201143 -0.15856583 0.052138094 -0.25533894
0.39629295 -0.09248893 0.2280657 -0.16511962 -0.16832669 -0.76833475 0.40135738 -0.22466366
-0.7947123 0.2020949 -0.2025507 -0.0060826736 -0.18616782 -0.28232577 -0.06366007 0.2621502
-0.35512832 -0.41942906 -0.17825241 0.19361709 0.29112107 0.5006618 0.19543473 0.035234183
-0.12845962 -0.09639065 0.07495444 -0.004254473 0.38736668 -0.08418943 -0.18391746 0.24559456
00000000: be99 29be 28f1 4fbd 1b4f 963e 92d1 48be
00000010: 74d1 523d dd29 e2bd 4736 843b b274 f93e
00000020: 21cc ad3d 8ca3 d73e 7b63 863d ed5a 7ab9
00000030: aa4a 133e 932a 8ebe e316 b3be 50df b2be
00000040: 7efb 023c 6d3c 67bd 8350 b9bd 813f f6bc
00000050: bdaa b2be 5420 0abf fdfd 4ebe b32e 7fbe
00000060: b289 f2bd 6404 84be 62b2 e5be 19fe 10be
00000070: e344 d73e ae09 47be 46c6 26be 0d07 9a3c
00000080: f8ec f7be 02a7 30be 9f48 eabc 56aa 0fbf
00000090: f51f 90be 80ac 00bf 64de 59bd 4ae0 d0bd
000000a0: e140 acbe 5500 08bf 6334 0fbf e5c4 05bf
000000b0: 0d39 d6bd c7e9 bbbc 0916 13be 04f7 5c3e
000000c0: f187 11bf d2c3 1abd 4d3f b5be 689d d83d
000000d0: 8c7d 50be ef07 ab3e 8847 c4bb 602c 1ebc
000000e0: 0af4 ed3c b62e b23d 8921 51be 5f12 03bf
000000f0: 528c 95be 8ed5 11bd e0f3 963e 7fbd 9b3e
00000100: 400c 0abe ed70 eabb b6e8 9bbe b896 27be
00000110: 48ff c7be 7bf3 593e acf3 a83c 4391 89be
00000120: 1f99 edbe 0313 893d 4b8f 04bf 0a55 4cbe
00000130: a467 f6bd cd1a 203f 16d9 e3be b738 a73e
00000140: 3b94 9fbe 3a39 dfbd 99f8 c23e 7bfd e93d
00000150: cd63 f8bb 7c32 cfbe 438b d2be b828 f8bd
00000160: b438 b5bd 8b21 1cbf 165d e5bd 69c5 14bf
00000170: d8d1 77be 155f 22be c18e 553d c9bb 82be
00000180: e9e6 ca3e d66a bdbd 0e8a 693e 1e15 29be
00000190: d55d 2cbe 96b1 44bf b77e cd3e 3b0e 66be
000001a0: 4472 4bbf f7f1 4e3e 7369 4fbe 2a51 c7bb
000001b0: c7a2 3ebe 018d 90be 3660 82bd 8d38 863e
000001c0: 61d3 b5be 68bf d6be cd87 36be 8f43 463e
000001d0: d20d 953e 5f2b 003f 0b20 483e b851 103d
000001e0: eb8a 03be 7668 c5bd b781 993d 1b69 8bbb
000001f0: ed54 c63e 826b acbd dc54 3cbe 247d 7b3e
