nerf_models/torus_2.pth (torch, 646868 bytes, 22 tensors)

weight f4 [128, 63]
00000000: fe4b 413c 44e1 933c ffef 0b3e a982 023d
00000010: d6a2 243e 6492 2dbe afc4 ddbd 8aa6 4dbc
00000020: 9416 5abe dac0 4e3d 2332 7c3d a77b 563c
00000030: 4e61 3abd 6974 40be 416c 373d 874d f53b
00000040: d56b 07bd f0a3 e23d e826 263c e50a 5f3c
00000050: e8fc aabd cc68 a6bd 1dad 7e3e 4de6 923e
00000060: d818 5b3d 8778 9b3c 5f22 1a3e 4bad cc3e
00000070: f4ec 83bd f718 29be 5368 31be 79d0 7cbe
00000080: 0a41 8cbc 40b8 39be 15aa a1bc 1893 07be
00000090: 5f0a 69be 8dba 463e 7397 07be c83d 813e
000000a0: 6767 71be 2508 74be 29fb 05be 5da4 08be
000000b0: 599d 27be 7bc5 7d3e eded 0f3d a8f6 3bbc
000000c0: ebd1 09be e354 413e 34e2 ad3e afa6 8ebe
000000d0: 1cd2 b8bc 8bcf d6bc d452 9abe c9d2 2e3e
000000e0: 7494 8abd 3846 39bc 6ecf e4ba 4253 893e
000000f0: 39d9 2ebe 5db7 06bd 1880 813e f70e 8abd
00000100: 3182 e9bc 9030 9a3d 7b1f 0d3b cdb4 a53d
00000110: 6a9c bdbd 42b0 b03d 6273 f53d dd36 3dbd
00000120: 7be8 c2bd 11da 843d 9514 19be 0ce0 943d
00000130: 1e27 87bd 9a38 4abd 44f5 cf3d 4274 b2bc
00000140: fb09 a03d 4a58 b6bd 5d7f 71be 457e 283e
00000150: 7dce 6d3d 9eb4 503e 013f 9ebe b81a 18be
00000160: c5d8 7e3d 2450 8dbe b11f 15be b4ec f1bd
00000170: 88aa 543e 3400 5abe 8dfd 343d 105b dc3c
00000180: a5f0 bebd b125 ebbb 7172 563e ae3e 173e
00000190: 37e7 4e3e 6343 893c 299d 953e 1e7c 6dbe
000001a0: 8a89 edbb 1276 86be 04d9 98bd bd12 083d
000001b0: dabe aa3e 1027 ab3e 4ebc 8a3d 6a6d 8c3d
000001c0: eba2 a83d b937 103e 9e41 33be b1b1 e63e
000001d0: 8bcd e73c be7c 263e 4098 e4bd 15f2 6c3e
000001e0: 1e0c 1b3d aa69 9dbc 89a0 233d 07cd 5ebe
000001f0: a275 523d 1976 f13d eab1 c0bd dfd7 54ba
00000200: 6e77 a03d 11ce 0f3e e26a b13d e60c fdbc
00000210: 44c5 39bd c094 2cbe 6d18 993c 2577 963d
00000220: 0f10 a63d f011 893e 3bf1 38be 8774 5d3d
00000230: aafb 72be 0d4f 0dbe 2078 a83d 0a8c 163d
00000240: b5d5 343e a958 d3bd 6f60 fe3d f108 443d
00000250: fa76 3ebd b25d 9dbc cd17 8b3e b6d0 5bbc
00000260: 17fb 4c3c d1cf b4bd 1eab e3bd 40a1 9a3d
00000270: 29b5 e63d ec91 06be 75e5 fc3d 6b68 ad3d
00000280: a72d 493e 3a37 fabb 74ec 42be 9566 39be
00000290: 2dc3 5b3d 2d49 fcbe 9d25 1fbd b537 443e
000002a0: 606b 4ebe 54f7 683e 7a30 f0bd 909f 57bd
000002b0: 2eec 0cbf 26b4 b8bd d17b 533e 9f02 733e
000002c0: 5537 003e c35f a23c 3595 13be 3136 c73d
000002d0: 2351 9f3d e9c2 903c 19d2 a43e ae31 bdbc
000002e0: 41d7 b03d 07bd 53be a7aa 7ebd 96f7 d53d
000002f0: f4e1 a03b d767 703d 6234 d6bd bc86 03bd
00000300: cb39 783e 3b8e c4bc 9f95 8ebe 734f 5bbe
00000310: 376e bb3d 3f4d 303d df66 4cbe 4b5b 993e
00000320: 122c 8d3d 3c71 37bd 9a3e 00be 1e22 933e
00000330: 421e 25be c857 1ebd 4757 dc3d 56f7 c93d
00000340: f970 973e ac1f 723e a065 1cbe a784 2cbe
00000350: 3adb 763b a6e9 eb3d 0e64 92bd aaf1 99be
00000360: a105 81bd f9ce e4bd 86c3 05be fad9 cbbd
00000370: 41ea 7f3e c55c a5bd 3227 ea3d 6ad2 043e
00000380: 7718 883e 5d89 04be b661 4d3e a518 72be
00000390: 853a f23d d654 6ebe 564a adbd 73f7 8a3e
000003a0: d411 4cbe 8b7c 50be 5c7b 00be 00fa aa3c
000003b0: 9860 8abe 02db f8bd 1d3d 14be 475a c8bd
000003c0: 173f 3ebd 61a4 febd c44a 88be 20d4 29be
000003d0: d8e6 41be 3d34 b5bd 1e99 aabd 8d24 05be
000003e0: 96e8 83be 4973 1e3d e544 e1bd 74f4 04bf
000003f0: 112e ae3d 2459 3b3d 8132 e03d ec75 8cbe
0.011797903 0.018051751 0.1366577 0.03186289 0.16077742 -0.16950375 -0.1082853 -0.012551913
-0.21297675 0.050476886 0.06157125 0.013091004 -0.045502953 -0.18794407 0.044780973 0.0074860486
-0.03306182 0.11066425 0.010141112 0.013613437 -0.08349019 -0.08125457 0.24870725 0.2869133
0.05349049 0.01897837 0.15052174 0.39975962 -0.064416796 -0.1651343 -0.17324953 -0.24688901
-0.017120857 -0.18136692 -0.019734422 -0.13239706 -0.22757863 0.19407101 -0.13241367 0.25242448
-0.23574601 -0.23831232 -0.13084091 -0.1334395 -0.16368617 0.24782364 0.035139013 -0.011472382
-0.13458984 0.18880038 0.33961642 -0.27861544 -0.022561125 -0.026222011 -0.30141318 0.17072596
-0.067665964 -0.011308245 -0.0017456838 0.26821333 -0.17075051 -0.032889713 0.2529304 -0.067411356
-0.028504463 0.07528794 0.0021533656 0.08091126 -0.09258349 0.086273685 0.11984898 -0.0461949
-0.095169984 0.06486905 -0.14949258 0.07269296 -0.06599258 -0.049370386 0.101542026 -0.021783952
0.078144036 -0.089035586 -0.23583741 0.16454418 0.05805825 0.203814 -0.30907443 -0.14853942
0.062218446 -0.27600205 -0.1456287 -0.11812726 0.20768178 -0.2128914 0.044187117 0.02689889
-0.09323243 -0.007176124 0.20942093 0.14770004 0.20205389 0.016755765 0.29221466 -0.23191878
-0.007249062 -0.26261955 -0.074632674 0.033220995 0.33348733 0.3342824 0.067741975 0.068568066
0.08234199 0.14083757 -0.175055 0.45057443 0.028296253 0.16258523 -0.11161852 0.23139222
0.037853353 -0.019215424 0.03994802 -0.21757899 0.051381715 0.117901035 -0.094089344 -0.00081193255
0.078352794 0.14043452 0.086629644 -0.03088994 -0.045354143 -0.16853619 0.018688405 0.07346944
0.08108532 0.26771498 -0.18060772 0.054066207 -0.23728815 -0.13799687 0.08226037 0.036754645
0.17659648 -0.10319645 0.12420737 0.04786009 -0.046500184 -0.019209716 0.27166596 -0.01341646
0.012511036 -0.088287 -0.111166224 0.07550287 0.11265022 -0.13141602 0.12348453 0.08467182
0.19646321 -0.007635978 -0.19035512 -0.18105538 0.05365293 -0.4927458 -0.03885423 0.19161876
-0.20158148 0.22750598 -0.11727996 -0.052642405 -0.5504788 -0.090187356 0.20652701 0.23731469
0.12521107 0.019821053 -0.14412387 0.09727133 0.077791475 0.017671065 0.32191542 -0.023094978
0.086348064 -0.20677577 -0.062174466 0.10447614 0.004909748 0.05869278 -0.1045921 -0.032110915
0.24240796 -0.023993602 -0.27848527 -0.21417026 0.09151881 0.043042418 -0.19961117 0.29952464
0.06893171 -0.044785723 -0.1252388 0.28736967 -0.16124824 -0.038657933 0.10758834 0.09861629
0.2957838 0.23644894 -0.15273142 -0.16847478 0.003766729 0.11519174 -0.0714799 -0.30067188
-0.06299902 -0.111722894 -0.13062868 -0.09953685 0.24991705 -0.08074335 0.11433257 0.12970892
0.26581165 -0.12943025 0.20056805 -0.23642214 0.11827568 -0.2327455 -0.08461444 0.27141914
-0.19928676 -0.2036001 -0.12547058 0.020871162 -0.2702682 -0.121511474 -0.14476438 -0.09782844
-0.046446886 -0.124336965 -0.26619542 -0.16584826 -0.18935716 -0.08847854 -0.08329986 -0.13002224
-0.25763386 0.038684163 -0.10999469 -0.51935506 0.0850488 0.045739308 0.10947133 -0.27433717

bias f4 [128]
00000000: 5c06 bdbd f7cd 02be 86be b0bd 64bd b5bd
00000010: 54ae d7bd ffe3 19be 75c7 c7bd 7a5a 6cbe
00000020: 9649 39be e31e d0bd e2bd 5bbe 22d3 7dbe
00000030: 3e3a 49be dec9 60be 43a4 34be c97d 75be
00000040: 9f50 92bd d087 08be d3d0 8dbd e5bb 36be
00000050: 21b8 f63b dd04 63be 459f b8bd 0c71 28be
00000060: 4efe 1bbe 6a84 63be bebf 27be 935e 91be
00000070: d06d a0bd 0597 a2bd 7a97 23be fc0f 12be
00000080: 90fe 64be af0b 02be ab8f 39be 8a35 1dbe
00000090: d2e1 b6be 0a0d 3cbe 4d35 0dbe 1576 2dbe
000000a0: 6fdf 95be 5840 16be 07e8 8fbe d454 abbe
000000b0: b29c 86be b068 01be 443c 92be 0764 e6bd
000000c0: 2d41 edbd 0a23 01be 5e2b a0be 64f9 48be
000000d0: 6f65 19be f97d 11be 5d1b 4dbe 7799 ffbd
000000e0: f48d 3ebe a0aa 6cbd 0be9 28be 5a60 c3bc
000000f0: b826 1cbe 89cf 85be d650 72be 026e 15be
00000100: 2752 1cbd f367 1bbe e51b 8bbe 5fc4 3cbe
00000110: fc47 97be 1296 96bd c5bd e3bd 4df8 b7be
00000120: efa4 19bd 474d 40be 85e3 21bd 72ab 9bbe
00000130: d075 83be 1d96 babd 9c25 1ebe b3c1 26be
00000140: bd8c 5ebe 5bd8 88be bfe7 dcbd e6c1 90be
00000150: 67c6 5dbe 912d e1bd 4c93 65bc fe68 c9bd
00000160: 90f9 04be fd02 b5bd ae86 39bd 0f33 eebb
00000170: 1373 23be 02cc 46be ccbb 8abd 8a4b 48be
00000180: dcd8 9abd 3441 f1bd 3b5f debd 53f5 1abe
00000190: 832d 5bbe 6b6f 40be 4100 79be 2bda a5bd
000001a0: 3a4a 2abe 7dce edbd 1527 16bd 6dc0 b43b
000001b0: f653 59bd 5402 08be 5264 a3be bbc8 54be
000001c0: b0ec 68be c08a c0be 4864 6ebe 9cb2 e3bd
000001d0: 0b9f 59bd 9411 42be 4d6e 06bd 2c4e 84be
000001e0: 12eb fdbd c629 afbe 3ea5 a6be e835 aebe
000001f0: 8921 d5bb 6bd6 babc 38ab 91be 2855 48be
-0.092297286 -0.12773882 -0.086300895 -0.08874014 -0.10531297 -0.1502838 -0.0975484 -0.23081389
-0.18094477 -0.10162141 -0.21459153 -0.24787572 -0.19651124 -0.21952006 -0.17640786 -0.23973764
-0.071442835 -0.13333058 -0.06924596 -0.17845114 0.007529274 -0.22169824 -0.09014753 -0.16449374
-0.15233728 -0.2221848 -0.16381738 -0.28392467 -0.07833445 -0.07938961 -0.15975752 -0.1426391
-0.22362733 -0.1269977 -0.18121211 -0.15352455 -0.35719162 -0.18364349 -0.13789864 -0.16939576
-0.2927203 -0.14672983 -0.2810671 -0.33463156 -0.26291424 -0.12637591 -0.28561604 -0.112495475
-0.11584697 -0.12611023 -0.31283087 -0.19626385 -0.149801 -0.14208211 -0.2002997 -0.12480443
-0.18608838 -0.05777991 -0.16495149 -0.023849655 -0.15249145 -0.261349 -0.23663649 -0.14592746
-0.038164284 -0.15176372 -0.2716972 -0.18434285 -0.29547107 -0.073528424 -0.1112018 -0.35931626
-0.03751081 -0.18779479 -0.03952362 -0.3040424 -0.2567582 -0.09110663 -0.15444034 -0.16284828
-0.21733375 -0.26727566 -0.107863896 -0.28272933 -0.21657716 -0.10995019 -0.014012169 -0.09834479
-0.12985826 -0.088384606 -0.045294456 -0.0072692703 -0.15961866 -0.1941376 -0.06774101 -0.19560066
-0.07560894 -0.11780015 -0.108580075 -0.15132646 -0.2140408 -0.18792503 -0.24316503 -0.08098253
-0.16629878 -0.1161165 -0.036658365 0.005516103 -0.053058587 -0.13282138 -0.31912476 -0.20779698
-0.22746539 -0.37605858 -0.23280442 -0.111180514 -0.05313019 -0.18952018 -0.032820035 -0.2584089
-0.12398352 -0.34211558 -0.32547945 -0.34025502 -0.006504242 -0.02280732 -0.28450942 -0.19563735

weight f4 [128, 128]
00000000: 6a5c f1bd b08b 03be 05d0 abbd 6c97 1a3e
00000010: b0b6 e23d 4272 c03d 08c5 09bd 55a6 173e
00000020: fb14 a4bd 8e36 e03b 6bf7 173d aed0 f0bc
00000030: 3554 623e 2b39 c73d 0c2a 683e e943 003d
00000040: 3b67 c6bc b1ae 92be 24cf c93d 935c 1b3d
00000050: cdaf 223d 34f8 4c3d 2ca0 b0bd c86a 453d
00000060: da46 9cbe 748a 98bd da92 24be 610e 023e
00000070: e718 5d3d 4633 4cbd 3a9a 62be 6bf6 3d3e
00000080: 4750 fc3c ff4c 333e 2a97 e9bd 787f 69be
00000090: d685 2abd d024 8dbd 5983 05be 907d 48be
000000a0: 6272 c3be d07a aabd 4517 a3bd d90d c0bd
000000b0: 6370 4ebe f274 7e3a d617 143e 958e 3d3d
000000c0: 3a13 f13d d34d 803d 42b4 a23c 3046 b2bd
000000d0: 8c00 20be ce23 e8bc 1d33 cfbb 684d 63bc
000000e0: 679d 4c3d 8ca8 8fbd 774e 15be f5e0 21be
000000f0: db1b 613e fcfa 083e 46e9 173d 40f9 f9be
00000100: a29a a1be f86b 2dbe 9538 19be 231e 473e
00000110: c6f5 10bd 7219 74be 7b36 ffbc 3570 d13d
00000120: 512e 4ebb 020d aebd fb11 023e 447e 913d
00000130: caa3 e5bd d38f cb3d cfc3 8cbe 78b9 8cbe
00000140: a0fa ea3c 4602 4dbe 8f51 9fbd 2d35 11bd
00000150: 1750 1a3e 6706 07be 7bc4 43bd 519f 223e
00000160: 47ec 32be 427f 8bbe 1155 f7bd bbe5 db3d
00000170: 4f54 eebd 03c2 70bd 51cf c53d 53d5 703e
00000180: ee63 9ebe 77b5 f4bc 8355 053d c0d4 c53c
00000190: 3e6f c0bd 69e8 b43c 55dd 90be da0a 0f3e
000001a0: 89b1 053e 74d5 f63c b3ba 813d 7c4c b8bc
000001b0: 6fdf 043e 83e5 57be 6db3 1a3e 44b8 2bbd
000001c0: e2df 92bd 62ef aebe 7038 0e3e 059e 6e3c
000001d0: 1b72 163e 671e 6cbe 7efa e5be 96ea 233e
000001e0: dba8 2c3d e20d cc3d 0b95 ccbd 7216 b13d
000001f0: 4f12 0c3e 161e b03d 9e43 dcbc 846e 91bc
00000200: 6c4d 84bd a021 20bd cadd 08be 86a6 b7bd
00000210: 48e3 99bc cebc 9cbd 28dd 03bb 80be 34be
00000220: ba59 58bc 29a3 49bd a80e b6bd 972d bdbc
00000230: ebd4 1bbe aaf8 d7bd adf3 92bd c327 18bd
00000240: cde5 eebc fcfd 81bd b322 c73c 1573 d9bd
00000250: 7f7b bebc 584d 003d 46ac 1dbc fd36 30be
00000260: fee8 88bd de54 6abd 28a8 863c 2e40 55bb
00000270: 3359 11bd 06cd d1bd ef90 15bd 2184 033d
00000280: a1ff b43c 6d6e b0bd 0d81 9b3d 05b6 753d
00000290: 1b76 bfbd 07a5 c8bd a3b8 2fbd 0c64 7bbd
000002a0: 8b6a 8c3d 06d2 a6ba 6798 a8bd 6480 41bd
000002b0: 58b2 b5bc ee1c b9bd e9f9 e8bd d1e6 0ebd
000002c0: a0f2 93bd 5306 71bc cdf3 03be 7275 963c
000002d0: 82ec 143d 61ee 5dbd 9ef7 88bd dbb6 28be
000002e0: 1d22 23be 0252 05be 0eb5 76bc fafe 23bd
000002f0: dcaa d7bd b454 043d 2b4f 79bd 9b7c 413d
00000300: d179 04be 5993 c1bc 4c81 c9bd ed2c 033d
00000310: 2eda aabd 6bec 89bd e909 a7bd 279f 893d
00000320: ac6e 79bd 52cb 09bd 4ed9 67bc 47cb d8bc
00000330: 22e0 853c 68b5 d2bd d910 a5bc 5a7c cebd
00000340: 82d5 b3bb 338c f5bd ee41 04be 0fb8 f1bd
00000350: 9fc7 3cbd 6a7b 873d 009b 26bd 299b 913d
00000360: 4c8a fa3b c21b 9cbd af28 6cbd 628c 803d
00000370: 0c66 0cbe 7f9a febd e0dc 46be 7838 42be
00000380: 6af6 91bd d445 c7bd 723b 1fbb 9f15 ccbd
00000390: c8c5 1abe 4a44 a4bd d5a4 86bb 1581 c9bd
000003a0: 9255 13be 9252 3dbd 412c 4d3d aaaf 4bbd
000003b0: 3989 03be fff0 cf3d 1d1c ddbd 3fa5 dcbc
000003c0: 1ad4 303b 69f7 9f3d c9a2 6dbd dfa3 48be
000003d0: 54e6 04be f296 033d 8715 2bbd eeab 26bd
000003e0: 2f5f dcbd e2d8 123d b101 37bd da76 abbc
000003f0: 074e 5cbc b615 19bd fe40 aebd 3d05 b0bd
-0.11785205 -0.12846255 -0.08389286 0.15096825 0.11070001 0.09396793 -0.03363517 0.14809544
-0.08011814 0.006842441 0.03710119 -0.029396381 0.22102435 0.09727701 0.2267229 0.031314764
-0.024219146 -0.28648904 0.09853962 0.037930083 0.039718438 0.050041392 -0.086243 0.048197538
-0.30522805 -0.07448283 -0.16071644 0.12700798 0.053978827 -0.049853586 -0.22129145 0.18551032
0.030799998 0.1750984 -0.114057854 -0.22802532 -0.041631542 -0.06891787 -0.13038386 -0.19579148
-0.38173205 -0.08324206 -0.07963423 -0.09377641 -0.2016006 0.0009706757 0.14462218 0.046278555
0.11771245 0.06264844 0.019861344 -0.087047935 -0.15625209 -0.028337386 -0.006323232 -0.013873436
0.049954798 -0.0701457 -0.14580713 -0.1580847 0.21983282 0.13376993 0.0370877 -0.48822975
-0.31563288 -0.16935718 -0.1496299 0.1944509 -0.035390638 -0.23837832 -0.031153908 0.1022648
-0.0031460712 -0.08498575 0.12702172 0.071041614 -0.11212881 0.09939542 -0.2749314 -0.2748525
0.02868396 -0.20020398 -0.07779228 -0.035451103 0.15069614 -0.13186036 -0.0477948 0.15881087
-0.17472945 -0.27245528 -0.12076772 0.10737177 -0.11637174 -0.058778774 0.09658683 0.23518877
-0.30935615 -0.029871685 0.032552253 0.024149299 -0.09396218 0.022083478 -0.28293863 0.13968983
0.13056006 0.03013108 0.06334438 -0.022497408 0.12975858 -0.21083646 0.15107508 -0.041923776
-0.071716085 -0.3416701 0.13888717 0.014564042 0.14691965 -0.23058473 -0.44917673 0.16007456
0.04215322 0.099635854 -0.09989365 0.08646859 0.13678859 0.085994884 -0.026887711 -0.017752893
-0.064600796 -0.039094567 -0.13365856 -0.08967309 -0.018785134 -0.07653199 -0.0020120833 -0.17650795
-0.013204986 -0.049227867 -0.08889514 -0.023093028 -0.1521794 -0.10545476 -0.07175384 -0.037147295
-0.029162312 -0.06347272 0.024308538 -0.10617653 -0.023252247 0.03132376 -0.009623593 -0.17208476
-0.06685065 -0.057209842 0.016437605 -0.0032539475 -0.035485458 -0.10244183 -0.036515173 0.03210843
0.02209455 -0.08614812 0.07592974 0.05998804 -0.09348699 -0.097971015 -0.042900693 -0.06137471
0.06856259 -0.0012727387 -0.082321934 -0.047241583 -0.022179767 -0.09038721 -0.113757916 -0.034888092
-0.072240114 -0.0147109805 -0.12885971 0.01836655 0.036358364 -0.054182414 -0.06687854 -0.16476004
-0.15930982 -0.13019565 -0.015057815 -0.040038086 -0.10530636 0.03230734 -0.060866516 0.047237974
-0.12937094 -0.023629831 -0.098391145 0.032025266 -0.08342396 -0.06734546 -0.08156187 0.06719809
-0.06089656 -0.033641167 -0.014150931 -0.026464118 0.016342226 -0.10288507 -0.020149635 -0.10082312
-0.0054880986 -0.119896315 -0.12915775 -0.118026845 -0.04608881 0.06615336 -0.040675163 0.071096726
0.007645881 -0.07622482 -0.057655986 0.06276776 -0.13710803 -0.124318115 -0.19420195 -0.18966854
-0.07127078 -0.097301155 -0.0024296907 -0.099650614 -0.1511451 -0.080208376 -0.004109005 -0.098390736
-0.14388111 -0.046221323 0.050091032 -0.049728073 -0.12845315 0.10153388 -0.10796378 -0.026934264
0.002698189 0.078108616 -0.058016572 -0.19593762 -0.12978488 0.032126375 -0.041768577 -0.04069131
-0.10760342 0.035851367 -0.044679347 -0.020930696 -0.013446338 -0.03737422 -0.0850849 -0.08594749

bias f4 [128]
00000000: f0c9 44bd 62d2 efbd c398 13be 2c22 62bd
00000010: b730 96bd ccef dcbc 6243 cb3c cddd 15bc
00000020: 490c 87bd 382f f9bb c0f2 0dbd 0a87 013d
00000030: 42f3 a1bd f9b6 94bd 6c56 e6bc d945 ad3c
00000040: 9250 bdbd 50a9 2c3d 8660 adbc 38a9 2c3c
00000050: a2d6 af3c 8f1f dfbd 0bbb eb3c 5119 febd
00000060: d44b 68bd cc6e c6bc ed2d 713d 7ccd 21bb
00000070: 7f66 2d3d c5bf 28bd f39b 8f3d ae7b 773c
00000080: f487 a1bd fb37 183d 7dd0 8d3d 47b3 8b3d
00000090: 0daa a53d 7bfc 01be 66e8 81bd 72cb 6cbd
000000a0: f42b cbbd 27b9 3dbd 78ed abbd b4cd 54bd
000000b0: 1443 eb3b 6bf5 7ebd f692 153d b5eb 87bd
000000c0: f7d7 d43d b377 793d c049 56bd eff5 f5bd
000000d0: 83e3 62bd 59cb 783c bb69 a8bd 3cab 02bd
000000e0: c0ec 173d fe4e e3bd cd5e eb3d 11da 24be
000000f0: f2f7 bcbd d5dc 393c 17ba 743d 18b2 893c
00000100: 465b 943d 4a37 b73c a81d 08be 9a2d 4abd
00000110: 2ae7 c6bd ad84 7e3d b68b 12be 38dd dbbc
00000120: a663 17bd d00e 0dbe ada8 ff3c c45a a1bd
00000130: 7f34 0d3d d284 a13d 819a 42bc f587 98bd
00000140: 321e f43b 71bc f6bb f2f7 aabc f8a7 f6bb
00000150: 5696 15bd eba0 4d3b ecaf fd3d 9da3 023c
00000160: 9561 7b3d 30d8 c3bd 92d0 19bd 33e7 80bd
00000170: 47d5 b0bd 11d2 fbbd ad35 b73d 1a77 5b3c
00000180: 56d2 98bd 54c2 e6bd 1399 213d fe5a 393b
00000190: 322b b13c 561e 6b3d 9572 8fbd cedd bcbd
000001a0: ef5b 163d c1d1 af3d 94f6 103d e62b b63b
000001b0: 55b9 e7bc 5da5 483d 21c5 a4bc 7abf d9bc
000001c0: 1864 a93d a336 50bd 3e44 a13d 717a ee3b
000001d0: 3058 aabd 89f1 c43b 4492 bfbc 7d48 063d
000001e0: d977 7bbc 6eba 22bd 32c3 253d 9eae 31bd
000001f0: 44f1 053d 7ffa a63b 30ac a63d c6a1 14be
-0.048044145 -0.11710049 -0.14413743 -0.05520837 -0.0733351 -0.026969813 0.024812404 -0.00914712
-0.0659414 -0.007604506 -0.034655333 0.031622924 -0.07907726 -0.07261462 -0.028117381 0.02115147
-0.09243883 0.042153656 -0.02116419 0.010538392 0.02146465 -0.10894691 0.028775712 -0.124071725
-0.05671294 -0.024222754 0.05888169 -0.0024689129 0.042334076 -0.04119851 0.07012167 0.015105171
-0.07887259 0.037162762 0.069245316 0.06821304 0.08089075 -0.1269397 -0.063431546 -0.057811208
-0.09920493 -0.046319153 -0.08394903 -0.051953986 0.007179627 -0.062245768 0.036517106 -0.066367544
0.103927545 0.06090517 -0.052316427 -0.12009799 -0.055392753 0.015185201 -0.082232915 -0.031901583
0.037091017 -0.11099051 0.11492691 -0.1609881 -0.09226979 0.011344154 0.05974778 0.016808555
0.072439715 0.022365231 -0.13292563 -0.049359895 -0.0971206 0.06213825 -0.14311108 -0.026838884
-0.036960267 -0.13775182 0.03120836 -0.0787864 0.034473892 0.078866616 -0.011877657 -0.07447807
0.0074498886 -0.007529788 -0.020870183 -0.0075273477 -0.036520325 0.0031376432 0.1238707 0.007973579
0.06137236 -0.09562719 -0.037552424 -0.06294098 -0.086344294 -0.12295926 0.08945785 0.013395095
-0.074619934 -0.11267534 0.039452624 0.0028282995 0.021627042 0.057401977 -0.07004277 -0.092219934
0.03670877 0.08584929 0.035391405 0.0055594323 -0.028286615 0.048985828 -0.02011353 -0.026580561
0.082710445 -0.050833356 0.07874344 0.0072777797 -0.08317602 0.0060102385 -0.023385175 0.032783974
-0.015348398 -0.039728574 0.040469356 -0.04337942 0.032700792 0.0050957794 0.08138311 -0.14514837

weight f4 [128, 128]
00000000: ac77 453e 3a2e 153d dde3 86bd e4a7 a73b
00000010: c37b 8cbe 41ac 153d e28e 0dbe 5d0d d6be
00000020: 8208 1fbe 2c7d ea3c 8ee6 e13d ede4 a9be
00000030: e14f 673e 6039 54be 68a8 d8bc f562 2f3e
00000040: 29c1 243d 7348 5cbe 7232 a2bc 537a 4dbc
00000050: bb71 cabd 0c25 303e f359 df3d f3d7 94be
00000060: 168d 183d bfb3 03be 4308 a6bd 69d4 0f3e
00000070: 1db0 51be 30ef dabc 2b6c af3b 3c4d 72bd
00000080: 0565 2ebe 3e8e dabd 12b1 f6bb 5f83 d6bd
00000090: ff05 cebb 2998 c8bd 5598 263d 9648 6d3d
000000a0: 88b2 e63c 8e60 3cbe 272c 67be c8b9 ad3c
000000b0: 78cf 923e 8c85 5cbc cc09 2fbd 28de 55be
000000c0: 439c e53c 838c 83bd 9c14 213e 5d00 db3c
000000d0: 5a9a ee3c e1dd 1bbe 2855 afbd de6f e43d
000000e0: fca4 cf3c 4c0e 89bc 5608 123e 7c27 853d
000000f0: 000b 0fbb 5ff4 b8bd 7cee 81be 58aa 9cbe
00000100: 7c3b efbd 0342 c9bd c09d 0abe b598 aebd
00000110: 238e 493e f861 b53d ee99 8bbd 5b23 e63d
00000120: 80c5 b2bd 72fb d23d abf0 8cbe 05f3 a13c
00000130: 890e c1bb 1ac7 583d a892 e33c 1f9f 283e
00000140: b913 353c 4ba1 ebbd bf46 9bbe 8782 093d
00000150: 79bc d8bd 9393 03bd d2fc 6bbe 8c12 c5bd
00000160: 94ad 61bd 33c2 633d c831 92be 980e 803d
00000170: 6842 de3d 90a4 a53e 63f0 08be 748f 9fbe
00000180: 2303 a1be d3dd 56bd 6f1c 793e 4f22 33be
00000190: 191f 813e 2b6c c0bd b720 863d 45fe a33c
000001a0: 6900 90be f16e eabd 836f 4c3e 0ded 56be
000001b0: b13c 073d e90a f8be e469 9ebb 12d9 5cbe
000001c0: e800 0b3e 4996 373e dc99 79be b3b4 b4be
000001d0: 1379 45be c9e6 1ebd 59eb 59bd 6589 683e
000001e0: 60a3 94bc 9b04 3a3e 7f6e f73c 25ce ab3c
000001f0: 8fe2 083e 471e acbd b9b5 0bbe 4a5f 233e
00000200: af91 363d e1be 763d 9200 08bd 8a38 bbbe
00000210: 3ede a2be c897 4fbc e658 71be 1a60 52be
00000220: e1a1 8c3d 8350 5a3e 4ea6 3fbd ad00 49bc
00000230: ec33 bcbd a72f 0bbe 462e 383e c40d 34bc
00000240: a19d 263e aabd aa3d 5cb0 2d3e a1bd e4bd
00000250: e1e3 46bd 9334 41bc 6c1c 183e 9b45 60be
00000260: d9cf 7eba 8794 a4bd e141 4bbd 4ea1 003e
00000270: c05c dc3b 5115 4cbe 4fa4 acb9 2174 a1bd
00000280: 898e e0bd d831 353e 5000 3dbe 7d12 f83c
00000290: 2547 06be c71d 323e b56b b73d 545d 1ebe
000002a0: e64d a83d 7238 fb3b fcf9 7d3c 4ed4 103d
000002b0: 994f 98bc 505d 8fbe 0072 38be f3cf b6bd
000002c0: 572c 36be 82cb 943d 16bb 2e3e 041e 77bd
000002d0: 7cd3 1ebe b52f 5fbe d78b 5c3d c0b9 8c3d
000002e0: cfa3 17be a9b1 73be 1155 603c 158c ffbd
000002f0: d4f2 6a3e b0d7 1f3e 7aad 28be ca47 5b3d
00000300: 9742 863d 35e7 2dbe 7790 bbbd 26d8 893d
00000310: 1297 d5bd 68e4 21be 2c1a e03b bd9e ee3d
00000320: fba7 473b 5c93 75be 2371 1d3e ba57 f43d
00000330: d3a4 1ebe 6b56 81be 3aea b93d ddaf 59bd
00000340: d509 423e 113e 8bbd 7780 dd3c 5504 113e
00000350: cb77 213d d282 af3c b93c 2d3c 5a3e aabd
00000360: 8883 89be 1456 b0be 643f 9dbc 1233 613d
00000370: 2f0a 053e b4a8 63be 374c da3d 6834 953d
00000380: c7d8 47be 79ef 683c 97e2 63be e282 2ebd
00000390: 70b4 b9ba 47a7 183e 3e51 503e b126 afbd
000003a0: 5cc5 b6bd 38a2 0ebe 9654 8cbd 7e22 8cba
000003b0: 24f3 25bd 2812 e53d 88c9 023e 8d6b f1bd
000003c0: 5eaf 5a3c 3fd7 bbbc deb5 d0be 0a9f 3bbe
000003d0: 7f22 483e a5c6 983e cf77 233e 71fc 36bc
000003e0: f9ff 1d3c ed8e 1cbe d931 81be 850e 833e
000003f0: a4dc 02bf b7a5 f63c c90c ccbd 0839 0d3e
0.19283932 0.03642104 -0.0658643 0.0051164497 -0.27438173 0.036541227 -0.13824037 -0.4180707
-0.15530589 0.02862414 0.11030303 -0.3318247 0.22589065 -0.20725012 -0.02644749 0.17127593
0.040223274 -0.21512012 -0.019799445 -0.012541371 -0.098849736 0.17201632 0.10905828 -0.29071006
0.037243925 -0.12861536 -0.081070445 0.14045872 -0.20477338 -0.026725382 0.005353471 -0.059155688
-0.17030723 -0.10671662 -0.0075284326 -0.10474276 -0.006287336 -0.09794647 0.04067262 0.05793055
0.028161302 -0.18396208 -0.22575437 0.021206751 0.2867391 -0.013459574 -0.042733952 -0.20885527
0.028028613 -0.06423285 0.15730518 0.026733572 0.029126335 -0.15221359 -0.08561164 0.111541495
0.025347225 -0.01673045 0.14260992 0.06501672 -0.0021826625 -0.09030985 -0.25377262 -0.30598712
-0.116812676 -0.09827044 -0.1353674 -0.0852522 0.19683127 0.08856577 -0.06816469 0.11237212
-0.087290764 0.10301866 -0.27527365 0.019769201 -0.0058916253 0.052924253 0.027779892 0.1646695
0.0110520655 -0.115053736 -0.30327412 0.033571746 -0.10582823 -0.03212316 -0.23045662 -0.09622678
-0.055097178 0.055605125 -0.28553605 0.062527835 0.1085251 0.32352114 -0.1337295 -0.31164134
-0.31447706 -0.05245764 0.24327253 -0.17493556 0.25219038 -0.093956314 0.065492086 0.020018706
-0.28125313 -0.11446942 0.19964413 -0.20988865 0.033016864 -0.48445824 -0.0048344005 -0.21567181
0.13574564 0.17928423 -0.24375099 -0.35294113 -0.19284467 -0.038794313 -0.05320296 0.22708662
-0.01814431 0.1816582 0.030204056 0.02097232 0.13367675 -0.084042124 -0.1364354 0.15954319
0.04457253 0.06024063 -0.03320367 -0.36566573 -0.31810182 -0.012670465 -0.23569068 -0.20544472
0.068668135 0.21319775 -0.04678946 -0.0122682275 -0.09189591 -0.13592397 0.17986402 -0.01098961
0.16271068 0.08336957 0.16961807 -0.11168981 -0.048557166 -0.01179232 0.14854592 -0.21901552
-0.0009720303 -0.08036142 -0.049623374 0.12561533 0.006724924 -0.19930007 -0.00032928816 -0.07883478
-0.109646864 0.17694795 -0.1845715 0.030282253 -0.13113077 0.17394172 0.0895609 -0.1546529
0.08217983 0.007666641 0.015501495 0.03535872 -0.018592643 -0.2800088 -0.18012238 -0.08926382
-0.17790352 0.072653785 0.17063555 -0.06033136 -0.15510362 -0.21795543 0.0538443 0.068713665
-0.14808582 -0.2379824 0.013692156 -0.124778904 0.22944194 0.15609622 -0.16472426 0.05353526
0.0655567 -0.1698273 -0.09158414 0.0673068 -0.10429205 -0.15809786 0.0068390574 0.11651371
0.0030465114 -0.23981994 0.1537519 0.11930795 -0.15492563 -0.25261244 0.09077878 -0.053146232
0.18949063 -0.067989476 0.027038796 0.14161809 0.039420884 0.021424685 0.010573559 -0.08312674
-0.26858163 -0.34440672 -0.019195266 0.054980345 0.12992166 -0.22232324 0.10659068 0.07285386
-0.19516288 0.014217251 -0.22254406 -0.04260529 -0.0014168154 0.14907561 0.20343491 -0.08552302
-0.08924362 -0.13929069 -0.06852071 -0.0010691432 -0.04051508 0.11185104 0.1277219 -0.11788092
0.013347475 -0.022929786 -0.40763754 -0.18322387 0.19544409 0.29839054 0.15963672 -0.011168585
0.009643548 -0.15288897 -0.25233343 0.25597015 -0.5111792 0.030108316 -0.09963376 0.13791287

bias f4 [128]
00000000: 0c1c f9bd bddb fd3c 3ec9 b33d 299b d3bd
00000010: 26f7 69bd 61e3 40be 4f40 d9bd 00d1 afbd
00000020: cd5f 3fbd e137 803d ae94 973a 668b ccbc
00000030: 78bb 1dbe 46fa e03c b00f b9bd 16ca 05bd
00000040: e5c6 b83d 6704 74bd 40fc 923c a02d a2bd
00000050: e236 35bd e348 f03b 004e 993c 8208 c9bd
00000060: 0b52 2c3c 7e45 b4bd 8c49 8ebd ab2c 5fbd
00000070: 964b 35be 5f0f 1dbd 9448 ff3d ea30 d13c
00000080: 813d 25be 81cc aabd 7c84 44be a076 1cbe
00000090: f09f 083c 0403 16be 00c5 4fbd 589f 7fbd
000000a0: 8b60 d3bd 3dd1 a0bd 5a22 9ebd d7cd a3bd
000000b0: 0c08 603b 126d babd 46b4 a23d fbbf 94bd
000000c0: 2671 173d 9840 eaba 7c4f 303c c307 cebd
000000d0: 9446 eabd d247 a03d 6528 20bc 4dce 4abe
000000e0: 4b42 b1bc f845 46be 6de6 42be efbe 98bd
000000f0: 201e 02bd 5bc5 bbbd 25bb 8f3d 34e3 463d
00000100: baab d6bd 6b4b 2fbd 76f7 f5bd 73e3 3a3d
00000110: c9d2 16be ce42 e1bd f083 5bbd 11bc a3bd
00000120: 0ba3 00bd a410 14bc 196d 03be df24 43be
00000130: 34ec 2fbe 1a7a c5bd a7ea ac3c cbde c3bd
00000140: 0c78 80bd 04a0 11bd e44d 38bc 3978 b9bd
00000150: c769 253c b318 433c e9ed 543c 8d3a cabd
00000160: 4dba 28be 6734 edbd 4338 78bd 1310 f63d
00000170: ba43 8cbd 7369 3dbd 44d9 d8bb 8e32 7cbd
00000180: 98cc 9f3c 4552 53bd d246 f1bd a1f2 953d
00000190: 0f70 5fbd 7a8c b5bc 9996 f73d 4961 3fbd
000001a0: 06a5 42be 4a27 a5bd e1f4 44bd 5fbb f4bd
000001b0: 94dc 31be bdb7 52bd 841b 9b3a 8fbc 56be
000001c0: f459 633d 90cc e0bc e50b 25be 739c 4fbd
000001d0: 4179 e83d ea0c 753c cb1a 07bd 81ed 2fbc
000001e0: c0e0 593d c9be b73c 0005 ebbb 7476 28bc
000001f0: 40f7 053e 1b23 b0bd 60ce 59bd 29a5 9aba
-0.12163553 0.030988568 0.08778618 -0.10332329 -0.057120465 -0.18836738 -0.10607969 -0.085847855
-0.046722222 0.06260658 0.0011564696 -0.024968814 -0.15403545 0.02746309 -0.09036195 -0.032663427
0.09022311 -0.05957451 0.017942548 -0.079188585 -0.044241793 0.0073329075 0.018713951 -0.09816076
0.010517607 -0.08802317 -0.06947622 -0.054485958 -0.17704615 -0.038344737 0.12465015 0.02553602
-0.16136743 -0.08339787 -0.19191164 -0.15279627 0.008338913 -0.14649588 -0.050724983 -0.06240782
-0.103211485 -0.07852409 -0.07721396 -0.07998245 0.0034184484 -0.09102835 0.07944541 -0.0726318
0.03697314 -0.0017872034 0.010761138 -0.10060074 -0.11439243 0.07826199 -0.009775256 -0.1980526
-0.021638056 -0.19362628 -0.19033213 -0.07458293 -0.03176701 -0.09168502 0.07018117 0.04855652
-0.10481973 -0.042796534 -0.1201009 0.04562707 -0.14728846 -0.1099907 -0.053592622 -0.07994855
-0.03140549 -0.009037171 -0.12834586 -0.19057034 -0.17179948 -0.0964243 0.021107985 -0.09563979
-0.06272897 -0.035552993 -0.011249039 -0.09056134 0.01009602 0.011907744 0.012996175 -0.09874449
-0.16477318 -0.115822606 -0.06060053 0.12014785 -0.06848855 -0.046243142 -0.006617697 -0.06157165
0.019506738 -0.05159213 -0.11781086 0.073216684 -0.054550227 -0.022161711 0.12089271 -0.046723638
-0.19008264 -0.080641344 -0.048085097 -0.11949801 -0.173693 -0.051444758 0.0011833762 -0.20970367
0.055505708 -0.027441293 -0.16117819 -0.05068631 0.11351252 0.014956692 -0.032984536 -0.010737778
0.053192854 0.02242984 -0.007172227 -0.010282148 0.130826 -0.08600446 -0.05317533 -0.0011798489

weight f4 [128, 128]
00000000: 9988 5fbe d8d2 b23c 783e 77be 066c 93bb
00000010: 9b35 68be 95bf 5ebe 08c9 993e 807f 3bbe
00000020: c97d 663d 36df 73bd b3dd 5abe f7c6 0dbe
00000030: ae0d afba 4dca 783d af66 1abe 3c09 8a3e
00000040: 342a ad3d dd76 483d ff9c e9bd cdb2 cb3d
00000050: e581 cb3d 3659 db3d 434e 0cbc fb0c 3abd
00000060: 2297 2bbe d925 aebe 778d 2abe 8437 1dbe
00000070: 64ba 1ebe 87e7 983e 8d29 2c3e d1c7 de3c
00000080: 53c4 2d3d c191 a7bd 3255 c83d 7105 743d
00000090: 66cf f7bc 68a2 11be 33e5 803c 4bc2 19be
000000a0: 1219 0e3e 1a0a d7bc 66cf 793d 31a6 2fbe
000000b0: 26ec 1e3e 24b8 aebd 5b90 e2bc 3627 47be
000000c0: 271c 50bd 3392 69bc f6ad 5ebe 04af 01be
000000d0: 2e05 5c3d 5a11 80bc 6efa 943d f040 debd
000000e0: 8ad7 00be 2c60 013d eae0 133e 2bf1 a3bd
000000f0: 46fd a7bd f03c da3d dd00 a33d 2517 12be
00000100: 5fba a0bb 096d 9dbd 759f 2abd 864f a8bc
00000110: 6b4f 3dbe 2af8 8cbe 118c b23c 19da 4fbe
00000120: 47e1 183e 3a97 183e 0905 1b3e 2d4d 35be
00000130: f305 cc3d 518c 403e 35d1 3dbb aa66 c5be
00000140: a961 ddbc 369a 7fbd 6e29 df3d 239f bcbe
00000150: 7fd3 dcbd 9141 87be 0e4d cebd 629f 973d
00000160: 07a5 6fbe 373d a4be 38d8 cdbd a31a e43c
00000170: 27e6 863d 5a2a f5bd ee8a dd3d b998 83be
00000180: f914 62be ee5a c9bd ea2d 343e 2f36 18be
00000190: 4994 a8be 4d5a 03be eea9 8d3d 3816 0ebc
000001a0: a190 59be 16a7 ce3d bd7d 71bc 3336 443e
000001b0: 9a6e 123e 1c33 3fbe 011c 07bd 44af 23be
000001c0: b1fa 973d 3d96 0a3e 72a0 dc3c 6983 f7bc
000001d0: 79e5 b33d 5714 ca3d 9d91 de3a fd65 8b3e
000001e0: c13f 1f3e 903b 33be 5ffb 0dbc 7d17 38bd
000001f0: 57d4 fcbc 2d95 abbd f042 dc3c ec76 0dbe
00000200: 339f 38bd 7ea7 cabd bf04 a4bd 3aa7 aebd
00000210: 1147 61be b653 e9bd 4129 21be f343 4b3c
00000220: 1b7d 1abe 2fb6 0fbd 9df3 2ebe 3db4 683d
00000230: 5885 823d 9226 64bd 627c ebbd f8eb cdbd
00000240: 404c ea3d eeea c8bd f2c1 7c3d 66f6 a3bc
00000250: 7ccd bb3d 5b37 acbd 1271 413d af39 21bd
00000260: d1f8 a7bd 8605 8dbe eec0 e13c 97fe 0a3e
00000270: d859 b9ba e730 ba3a cf6c b83d 3060 633d
00000280: 1fe8 c3bd 3311 23be 21fc 79bd bdc3 7ebc
00000290: 559a 1dbe b2a6 13be d199 f0bd dc74 ba3d
000002a0: fb52 b7bd ad5d 643e 54e5 27be 6601 e3bd
000002b0: 0e9b ffbd c00e c8bd 1beb c53d 169a b03c
000002c0: ade0 833d f988 5e3d 31c1 7f3c bff6 edbd
000002d0: bc8c 5f3e 2bda 0bbe c334 88ba a575 1cbe
000002e0: ced7 653d 42f8 963d 0217 813e c9ff 343d
000002f0: 4ce0 bebc 8f07 b53d f1b1 64be b533 7bbd
00000300: c4f8 6bbc abef f9bd 26f1 e0bb 960b a8be
00000310: e2c7 07bd 41a7 d1bd a2a8 d83d a622 03be
00000320: ddd9 80bd cefc 6abd fe74 5dbd 63e4 eebc
00000330: 08c2 c3bc cc50 533e e041 b2be bc49 3bbe
00000340: e956 c8bc 6a7c d23d fefa 573d d780 9cbd
00000350: 8147 e0bd a7ba 9cbd 45f6 0bbe 93f6 20bd
00000360: d8de f53b a02f b53a 4817 fd3c 9911 dc3d
00000370: 629d 853b baec cd3d 3d4e 17be 63c3 4ebe
00000380: c10d 25bd 4bfe 6abc 71b9 27bd 0d11 023c
00000390: c20a 11be 5b76 0cbe b009 96bd 265e 433e
000003a0: a246 d6bc 1620 4a3e f547 4abe 73bb 133d
000003b0: 4a89 27be 3fd6 15be 2e9d 2cbe 3917 cfbd
000003c0: 2722 08be f31b 83bb 2344 dcbc fab5 2dbe
000003d0: e956 0c3b caa8 ccbd c418 75bd 3b19 07be
000003e0: c676 403d 3baf 833d 2608 823e 9270 dcbd
000003f0: 7c0e 54bd 9a5c 08bd 043c bbbc 3269 e2bd
-0.21829452 0.021829054 -0.24144924 -0.0044989614 -0.22676699 -0.2175277 0.30036187 -0.18310356
0.0562723 -0.059539042 -0.21373634 -0.1384543 -0.0013355517 0.060739804 -0.15078233 0.2696017
0.08455315 0.04894148 -0.11406898 0.09946213 0.09936885 0.10710375 -0.008563581 -0.045422535
-0.16756871 -0.3401325 -0.16655527 -0.15353209 -0.1550079 0.2986414 0.16812725 0.02719489
0.042423557 -0.08182097 0.09781875 0.0595755 -0.030250262 -0.1422211 0.01573429 -0.15015523
0.13876751 -0.026249934 0.060988806 -0.1715324 0.15519771 -0.08531216 -0.027656725 -0.19448552
-0.0508081 -0.014256048 -0.21746048 -0.1266442 0.053715877 -0.015633274 0.07274328 -0.108522296
-0.12582222 0.031585857 0.14441267 -0.080049835 -0.08202605 0.10656154 0.07959149 -0.14266641
-0.0049050297 -0.076868124 -0.041655976 -0.020545732 -0.18487327 -0.27533084 0.021795304 -0.20298041
0.14929686 0.14901438 0.1513864 -0.17705221 0.09962072 0.18803526 -0.0028963808 -0.3855489
-0.027024107 -0.062402926 0.10896574 -0.36840162 -0.10782527 -0.2641721 -0.10073291 0.07403447
-0.23402797 -0.32077953 -0.10051006 0.027844733 0.06586867 -0.119709685 0.10817514 -0.25702456
-0.22078313 -0.098317966 0.1759564 -0.1486442 -0.32925633 -0.12827416 0.06917177 -0.00867229
-0.21246578 0.10090463 -0.014739451 0.191613 0.14300004 -0.1867184 -0.03298569 -0.15984827
0.074208625 0.13533874 0.026931975 -0.030214028 0.08784003 0.09867161 0.0016980652 0.27226248
0.15551664 -0.1750319 -0.008665889 -0.044944275 -0.03086297 -0.083780624 0.026887387 -0.13814896
-0.0450737 -0.09895228 -0.08008718 -0.0852799 -0.21999766 -0.1139292 -0.15738393 0.012406337
-0.15086786 -0.035085853 -0.17085119 0.056812514 0.063730896 -0.055700846 -0.114983335 -0.10054773
0.11440325 -0.09810434 0.0617084 -0.020014953 0.091700524 -0.08408996 0.047226973 -0.039361652
-0.08201755 -0.27543277 0.027557816 0.13573681 -0.0014141155 0.0014205248 0.090051286 0.055511653
-0.09565758 -0.1592453 -0.061031464 -0.015549597 -0.15390904 -0.14419058 -0.11748088 0.091043204
-0.08951374 0.2230136 -0.16396075 -0.11084251 -0.12480746 -0.09768438 0.096639834 0.021557849
0.06439338 0.054329846 0.015610025 -0.11619329 0.2183103 -0.13657443 -0.0010391701 -0.15279253
0.05611401 0.0737157 0.25212866 0.04418925 -0.023300312 0.08839332 -0.22333504 -0.06132861
-0.014402572 -0.12203916 -0.0068646846 -0.3282134 -0.033149607 -0.10236979 0.10579039 -0.12806186
-0.06291554 -0.05737 -0.05406665 -0.029161638 -0.023896232 0.2063629 -0.34815884 -0.18289846
-0.024455504 0.10277636 0.0527296 -0.07641762 -0.10951138 -0.076527886 -0.13668163 -0.03929765
0.0075033717 0.0013823397 0.03089489 0.10745544 0.0040775994 0.10054918 -0.1477594 -0.20191722
-0.04029632 -0.014342855 -0.040948335 0.007938636 -0.1416426 -0.13717024 -0.073260665 0.19078884
-0.026156727 0.19738802 -0.19754012 0.036067437 -0.16360965 -0.1463251 -0.16856834 -0.10111851
-0.13294278 -0.0040011345 -0.026887959 -0.1696395 0.0021414107 -0.099931315 -0.05983807 -0.13193218
0.04698827 0.06429907 0.25396842 -0.107636586 -0.051771626 -0.033291437 -0.022855766 -0.11055221

bias f4 [128]
00000000: 30ec ad3d c153 36be 2c1f 85bd 459c e8bc
00000010: d3cc 22be 55a0 953d b953 22bc ec0f 16be
00000020: e212 3bbe b996 abbd e089 66bd f85f 003d
00000030: fe64 20bd 9b51 20be ae74 10bd 9e25 d2bd
00000040: 577d a33d 5c7c 86bd 40db 22bd b946 e6bc
00000050: 5194 14be d57a 67be 0898 edbd a716 2c3e
00000060: 1810 983d 20af 33bd c404 cebb 26d1 d13d
00000070: 632d a0bd 94cf c3bd 2cd4 e8bd 5339 883a
00000080: 2105 3cbe 4da5 8cbc c0bc e03d 7502 1fbe
00000090: 8c1f c2bc 90b8 47be a136 053e 9d47 2fbd
000000a0: 1539 45be 21ef 983d 7e64 b6bd df40 2ebd
000000b0: eb54 a9bd 22b9 b2bd 6438 a73d 336a f8bd
000000c0: 45a5 03bd fc20 a3bd cd2c 44bb 22a5 cf3d
000000d0: 1ff2 0d3d 3940 e13a 264e ecbd 0d2b acbd
000000e0: e948 2dbd 5d37 ebbd 6909 9cbd 6842 c1bd
000000f0: 04ed ffbd 6451 3abd 6e86 b0bb 4b48 2fbe
00000100: 4ab2 b9bd 8fe4 f6bd ef31 193e 98f0 51bd
00000110: a976 5fbd e1fb 4abe 0029 1cbd 8eeb 1fbe
00000120: f89e ad3c aba2 29be 1ec3 fdbd d9bb 38be
00000130: 9810 07bc 6969 26be 3d57 21be c847 093e
00000140: 9f02 543d 7809 2e3d 2b2c 8dbd 4e6d e53c
00000150: 2b71 c2bb 6983 5fbe fe6f 1ebe 5893 953c
00000160: 7385 2dbe b3f7 a0bd 7d43 1e3d 3128 cb3d
00000170: 6129 87bd cd11 24be 643f 08be b6cf 8dbd
00000180: e007 fdbc e32e 8cbd a21a 063d daf7 4abb
00000190: bf61 74bd f13d 8abd 2f88 2abd 0e80 c6bd
000001a0: f48c 693d 9f15 38be 5fae fbbb 235f 63be
000001b0: ea23 c7bc 122c 49be bce7 ea3c 2d37 07be
000001c0: 5460 f93c 6b55 3cbd 2a8a ccbd 3ed7 3fbe
000001d0: adbf fabd a9d2 3cbd 76c6 913d 1146 cabd
000001e0: 37fc 04be 3daa e9bd ab6b 32bd 2f62 afbd
000001f0: 3314 ec3d f205 7fbd 292e 843d 3f57 8abd
0.08492315 -0.17805387 -0.06500086 -0.028394828 -0.15898447 0.073059715 -0.009907656 -0.14654511
-0.18268922 -0.083783574 -0.05628383 0.031341523 -0.039158814 -0.1565613 -0.035267524 -0.10261081
0.07982891 -0.065666884 -0.039759874 -0.028109895 -0.14509703 -0.2260545 -0.11601263 0.16805516
0.07424945 -0.043868184 -0.006287189 0.1024497 -0.07821157 -0.09561077 -0.113685936 0.001039306
-0.18361332 -0.017168665 0.10973501 -0.15528281 -0.023696683 -0.19503999 0.1300912 -0.042792905
-0.19260056 0.07467485 -0.08905886 -0.042542335 -0.0826815 -0.087267175 0.081650525 -0.12129631
-0.032140035 -0.07965276 -0.002993393 0.101389185 0.034654733 0.0017185278 -0.11538343 -0.08406649
-0.04230586 -0.11485169 -0.07618982 -0.09436494 -0.12496379 -0.045487776 -0.005387119 -0.17117421
-0.09067209 -0.12055313 0.14960454 -0.05125484 -0.054556523 -0.19822647 -0.03812504 -0.156172
0.021193966 -0.16565959 -0.12390731 -0.18040408 -0.008243702 -0.16251148 -0.15755935 0.13406289
0.051760312 0.0424895 -0.0689319 0.028006222 -0.005933901 -0.21827473 -0.15472409 0.018258736
-0.16945438 -0.07859745 0.03863858 0.09919775 -0.06599689 -0.16022415 -0.13305432 -0.06924383
-0.030887544 -0.068448804 0.032740243 -0.0030970485 -0.05966353 -0.06750096 -0.04163378 -0.09692393
0.05701919 -0.17976998 -0.0076806988 -0.2220426 -0.024309117 -0.19645718 0.028674953 -0.13204642
0.03044144 -0.0459799 -0.0998729 -0.18734452 -0.122435905 -0.04609934 0.071179315 -0.09876645
-0.12986837 -0.114094235 -0.04355971 -0.08563649 0.1152729 -0.06226153 0.06454117 -0.06754922

weight f4 [128, 128]
00000000: 39a7 453a 2cff 163c 66ba 39bc 0f51 063d
00000010: 62b7 88bd efc0 c9bd 1963 a43b d05b b93b
00000020: 9d10 a2bd 2b90 96bd 09b1 043d 0f61 783c
00000030: ea27 2d3d d71c b43b beec 5a3d 2e1e 683d
00000040: c98f 963b afc2 f7bb cab2 e1bd 49c9 813d
00000050: 2a32 f1bd f18a 983c 3e76 e13b 87f3 a43c
00000060: ccd8 7dbc f057 313d de45 163c f00b adbc
00000070: 0406 24bc 0766 94bd 3fb8 a43d 6f42 823d
00000080: 8076 01bd f2e8 c3bd f6b9 adbd b735 5ebd
00000090: a53c 1ebe ba0f eabc 3ad0 08bc 62ef a5bd
000000a0: 6862 183d 43b2 80bd 08ca 80bd 183d 2fbd
000000b0: 291e 10bd 4031 c63c 8cd6 51bd 536a 60bd
000000c0: 6977 b7bd 2510 c2bd 96f5 77bd 155f 8ebb
000000d0: 011e 573d e6e9 f2bd b486 8c3d 51ac d5bd
000000e0: 763e 96bd 7526 0d3d bcae b9bd 8b95 7d3c
000000f0: 1c4e 9b3d 9832 b8bc 8456 843b b391 033c
00000100: 5852 1dbd 1f6f 8ebd 4df4 a039 e1d9 a03d
00000110: c010 5cbd ff67 66bd 4549 08bd 81da 533d
00000120: f4da 353d 670c 34bd dd6e 0f3d 8421 b8bc
00000130: 423c 303d 1fb3 863a bad4 dfbb cd3e c9bd
00000140: 269b 123d 61a3 393d c78c 88bc a9ec ac3c
00000150: c011 3fbd 976a 53bd e8a9 31bd 5c8e ac3d
00000160: 1259 a0bd 5e70 a1bd 38ad df3c c001 87bd
00000170: 797f f7bd 5877 f5bc dbeb 3c3d b550 ae3d
00000180: dd7f 4b3c da88 ca3c 48c2 a0bc 418f 8dbd
00000190: 305d 6cbc d7cb 24bd af88 263d 32ad 23bc
000001a0: fdae 6e3d 3d8c 85bd e279 513d 4337 5cbd
000001b0: ae0d 77bd 5b71 b9bc 6e10 a3bd f8b2 8abc
000001c0: b144 c6bd 3a76 73bd e3ff 483b 7db3 773d
000001d0: 4d03 d7bd 8e22 31bc 313f bdbc 36a2 8c3d
000001e0: 85d9 a4bc 9845 ea39 aa57 01be 05ae 333d
000001f0: 3309 85bd cf15 e83b 38b9 64bd e10d 3f3d
00000200: 75a1 aebe ac9b e7bd c3ca 06bd 45ed 6dbe
00000210: 3bb2 79bd 7247 af3b 1a9d 89be d77b aa3d
00000220: 7843 50bd 3444 91be cfaa c1be a417 533e
00000230: 8a5b e0bd 2bf6 93bd c19e c4bd 24c0 913c
00000240: 9398 a7be caf1 33bd 9323 743d c987 20be
00000250: d663 a63d 8635 71be a984 873d 63ec 19be
00000260: c13e e5bd b869 613c 76bb 49be fc85 023e
00000270: ebb5 283e bd7f 833d 5e19 13bd c755 9abd
00000280: 17e4 22be 5dc8 643e dd3d 4abe fc7b 56bd
00000290: df02 10be 7bc4 973e 8661 a43d b7d1 b8be
000002a0: 5806 d2bd 3017 bebd 6dee 61be cab3 c43c
000002b0: 21d2 c33d 5c00 393e 85c8 87be 1b44 4c3d
000002c0: d08f f8bd b103 a23e c3e7 223c cc9e efbd
000002d0: 739f 4dbd 80b1 00be 0e2a 3cbe 5995 3bbe
000002e0: 33b7 a1bd 0894 04be ecfb c13e 0e1b ebbd
000002f0: 166f 163d 41c0 1bbe 7674 60be 3be7 03bd
00000300: 6b6f 353e df86 b0bd 0fd6 b8bd af96 eebd
00000310: 65ec 0b3e b410 acbd 2c9c b73d 6bf8 cf3d
00000320: ec32 66be a27a 93bd b689 f03a 863f b5bd
00000330: 00cb 28be 9467 86bd 602c d6bc 42da afbd
00000340: 4544 febd 9df6 24bd 1bf3 4ebe 5bba 9bbd
00000350: 19ed d33c afde c63a 42ef bf3d af14 96bc
00000360: 65ce e8bd 6087 50bd edd8 793d 5f90 3cbe
00000370: e117 b3bd 5b97 4ebd 7cd8 d8bd 3f74 13be
00000380: f2b9 70bc fc2f 60bd d30c 9abd 0ec7 1abd
00000390: b5ac b73e 19c5 04be 1b74 82bd a1eb 1cbe
000003a0: fd0d 2e3d e5bb a8bd aaae 9ebb da70 75be
000003b0: b7d0 013d f6af 84bd 905e 113e 0f22 8e3c
000003c0: f072 4b3e 7723 d138 f08f 5f3e 14d7 26be
000003d0: 1d1d 0a3e 8a44 1a3e e360 aebd 8bbf 67bd
000003e0: 69de 6a3c 145c 8c3e e47d b1bd e0b9 5a3d
000003f0: 40d9 6abe 0f3b 00be 01f5 06bc 9c56 8dbd
0.0007539872 0.009216111 -0.011335945 0.032792147 -0.066756025 -0.09851252 0.005016696 0.005656697
-0.07913325 -0.073517166 0.032395396 0.015159859 0.042274393 0.005496602 0.05344843 0.056669407
0.0045947772 -0.00756105 -0.110204294 0.0633722 -0.11777146 0.01862094 0.0068805506 0.020135654
-0.015493583 0.043296754 0.009171931 -0.021123856 -0.0100112 -0.07246023 0.08042955 0.063603275
-0.03160715 -0.09565915 -0.08482735 -0.054250445 -0.15452822 -0.028571952 -0.008350426 -0.08102299
0.037203223 -0.06284001 -0.062885344 -0.042782873 -0.035185013 0.024193406 -0.05123 -0.0547889
-0.089583226 -0.094757356 -0.060536943 -0.0043448308 0.05251885 -0.11861019 0.0686163 -0.10433257
-0.07336132 0.034460504 -0.09066531 0.015477548 0.075832576 -0.022485062 0.004038634 0.008030343
-0.038408607 -0.069547884 0.00030699596 0.07854057 -0.05372691 -0.056251522 -0.033273 0.051722053
0.044398263 -0.04395714 0.035017837 -0.022476919 0.043026216 0.0010276771 -0.006830779 -0.098264314
0.035792492 0.045321826 -0.01666869 0.021108942 -0.046647787 -0.051615324 -0.043374926 0.084255904
-0.07829489 -0.078827605 0.027304277 -0.06592131 -0.1208486 -0.029964134 0.046123367 0.085114874
0.012420622 0.024723459 -0.01962389 -0.06912089 -0.0144265145 -0.04023346 0.040657695 -0.009990023
0.05827235 -0.06520889 0.051141627 -0.05376364 -0.06031578 -0.02263706 -0.07962118 -0.016931042
-0.096810706 -0.05943892 0.0030670098 0.060473908 -0.104986764 -0.010811461 -0.023101421 0.06866877
-0.020123253 0.0004468381 -0.12631097 0.04386713 -0.06495895 0.007082678 -0.0558407 0.046644095
-0.34107557 -0.11308989 -0.032908212 -0.23235042 -0.06096099 0.005349093 -0.2687767 0.08324402
-0.050845593 -0.28372347 -0.3782563 0.20614487 -0.1095496 -0.07224687 -0.096005924 0.017791815
-0.32733592 -0.04393176 0.05960424 -0.15676798 0.08124511 -0.23555574 0.066171 -0.1503158
-0.1119361 0.0137581155 -0.19700417 0.12746423 0.16475646 0.064208485 -0.035912864 -0.07535892
-0.15907322 0.22342058 -0.19750161 -0.052364334 -0.14063595 0.2964209 0.080264136 -0.360975
-0.10255116 -0.092817664 -0.22063608 0.024011511 0.09561563 0.18066543 -0.26520172 0.049869638
-0.12136805 0.3164344 0.009942952 -0.1170021 -0.05020089 -0.12567711 -0.18375418 -0.1831869
-0.078962706 -0.12947094 0.37887514 -0.1147977 0.036727034 -0.15210058 -0.21919426 -0.03220294
0.17718284 -0.086194746 -0.090252034 -0.11649834 0.13664396 -0.08401623 0.08965334 0.10154804
-0.22480363 -0.07201125 0.0018351588 -0.08850007 -0.16483688 -0.06562725 -0.026144207 -0.08586551
-0.12415365 -0.04027425 -0.20209925 -0.07603904 0.025869893 0.0015172566 0.09371807 -0.01832041
-0.11367492 -0.050910354 0.060997892 -0.18414448 -0.08744789 -0.050437313 -0.10588166 -0.14399813
-0.01469277 -0.05473326 -0.07521977 -0.03778749 0.35873953 -0.12965812 -0.063698016 -0.1532426
0.04249381 -0.08238963 -0.004842599 -0.2396883 0.031693187 -0.064788744 0.14196229 0.017350225
0.19868064 9.9725024e-05 0.21832252 -0.16292983 0.13487668 0.15065208 -0.085145734 -0.056579154
0.014335253 0.27414 -0.0866659 0.05339992 -0.22934437 -0.12522529 -0.008237124 -0.06901285

bias f4 [128]
00000000: b546 dabd f694 adbd 14c8 90bd cedc 813d
00000010: 8613 bcbd 3317 3bbd 9211 3ebd 6e82 d3bd
00000020: e451 c73c ae57 413d 042f d7bd c177 c83c
00000030: ae47 f3bd 268d cdbd ef5f 10be 0d32 f43d
00000040: 97e8 b63d a1e1 433e 53c1 933c b7c2 fe3d
00000050: 0c4d 033d be0c c3bd 22a8 5bbd 57aa 0d3e
00000060: 444e 273d 73e0 6a3b 4b2f 04be e9d5 a93d
00000070: a5fd 84bc 6c22 633c 5052 ad3d ed66 c6bd
00000080: f834 973d ce8e 473c db4e 0b3e 97f9 dfbd
00000090: 1033 cabd 0b26 c33d 8d6d 2dbe 4d4d e63d
000000a0: b288 21bb a6b9 a3bd e03e aa3c 659e 16be
000000b0: 7c3a 18be 2b14 4e3d f0b7 01be b8c3 d03d
000000c0: 3659 133e 05b8 f7bd 8f3b 173e ee47 20be
000000d0: 34d4 a5bc 398c 4c3e 4d7a 07be 1b2c a0bd
000000e0: c636 8f3d 5b98 b1bd 96a1 b63d 49ba d33d
000000f0: 42a7 a0bc b82f 2dbe 6a8e ee3d 09da 0dbe
00000100: d7a6 e3bd 4514 c2bb 961e 3f3e 0d60 b1bc
00000110: d91b 2b3c 5e3c dcbd 45e2 313d 254d 033e
00000120: dd87 fcbd e9d8 09be a5e2 7e3d 446c d1bd
00000130: 6ec0 21be 0a95 e4bc e6a0 76bd 4910 ebbd
00000140: ac61 153e 03a0 17be b1dc 25bc 708a 0a3c
00000150: b33e 523c 5231 da3c 7b4a 9b3d f676 c83d
00000160: 0cea 083d b477 333e 6d81 f9bd f5ee c8bd
00000170: 8e69 b3bd bdc3 13be e22c 52be a0ca c7bd
00000180: 8464 33be ec20 c3bd e4d6 2dbc 8f15 e7bd
00000190: d80b 03be 25a3 a13c ec7e 09bb cb5d 3a3e
000001a0: 6b5e 583d f380 cfbd 66d3 553e 574d 8b3d
000001b0: 37bd 213e b4f1 273c cd85 61be 9891 2c3e
000001c0: 0cbc bcbd c7b8 663d 27d0 ec3d c510 bcbd
000001d0: 1480 89bc 74e5 703d 3ee0 11be f3af 71be
000001e0: 6d8f a9bd eb47 81bd 9730 75ba e997 8bbc
000001f0: 4690 2a3e d1df dcbd 602a 0f3e e955 18be
-0.106580175 -0.08475678 -0.07069412 0.06340943 -0.09183411 -0.04567642 -0.046403475 -0.10327612
0.02433104 0.04720276 -0.105070144 0.024471166 -0.11878906 -0.100366876 -0.14099096 0.11923609
0.08931082 0.1912904 0.01803652 0.12439483 0.0320559 -0.09523915 -0.05362714 0.1383451
0.040846124 0.0035839349 -0.12908666 0.08292753 -0.016234228 0.013863187 0.084629655 -0.096876
0.0738315 0.012180043 0.136043 -0.10936277 -0.09873021 0.095287405 -0.16936322 0.11245213
-0.0024648127 -0.07994394 0.020781934 -0.1470886 -0.1486606 0.050312202 -0.12667823 0.101935804
0.143895 -0.12095646 0.14768814 -0.15652439 -0.020242788 0.19975366 -0.13230248 -0.078209125
0.06992869 -0.086716376 0.08917539 0.103382654 -0.019611005 -0.16912735 0.11648257 -0.13852705
-0.111158065 -0.0059228265 0.18664011 -0.021652246 0.010443651 -0.107537016 0.043428678 0.12822397
-0.12330601 -0.13461651 0.062227864 -0.10225728 -0.15796062 -0.027903099 -0.06021204 -0.114777155
0.1458804 -0.14807133 -0.010123418 0.008455858 0.0128323315 0.026634846 0.075825654 0.09788315
0.03342633 0.17526132 -0.12182889 -0.098112024 -0.08760367 -0.14430137 -0.20524934 -0.097554445
-0.17518812 -0.09527764 -0.010610316 -0.11283409 -0.12797487 0.019731114 -0.0020980192 0.18199842
0.05282442 -0.10132017 0.20881423 0.06801861 0.15794836 0.010250498 -0.22023697 0.16852415
-0.092155546 0.05632856 0.115631394 -0.09182886 -0.016784705 0.058812574 -0.14245698 -0.23602276
-0.082793094 -0.063125454 -0.0009353249 -0.01704021 0.16656598 -0.10784877 0.13981009 -0.14876522
