nerf_models/torus_1.pth (torch, 646868 bytes, 22 tensors)

weight f4 [128, 63]
00000000: 171e 84bd d779 abbd 2c52 44bd d1f6 e03d
00000010: f26f 483d 8619 143e 491d c9bd 7bf3 583e
00000020: add6 45bd d663 f5bd 3fd1 83bc 21ca 873e
00000030: da4d cebd 28bf 363e b413 50be c8bb 0d3d
00000040: 24bd 91bd 7933 9dbd cb41 1fbe 1290 1ebe
00000050: 2d26 aebd 27c7 57be 3fa3 493e 1650 99bd
00000060: b068 033d 93e2 3dbd b598 10be 01e3 1abc
00000070: 1cc8 853d f8b1 19be 576c c93d 4177 ba3b
00000080: f9c9 ed3d b29e f63d 353d 2abe ef03 ebbd
00000090: 6bf5 f3bd a587 953e 076f fcbd 4447 c03d
000000a0: 4c62 c73d 148b 993e 9243 d8bd c68b 43bd
000000b0: ffca 48bc c32b 243b 43c2 983d 60af c2bd
000000c0: 52fd 163d dd2b 40bd dfc6 b43d fa6e 17bd
000000d0: ab89 b33c 1a3e c7bd 72f7 20bc 0543 6a3d
000000e0: fe60 54be c621 d93c 81f0 5cbc dc85 503d
000000f0: fd40 20bb 9ec3 6abd 6700 b5bd 2730 fb3c
00000100: 67f8 e0bd 8561 46bd b495 05bf 71e7 43be
00000110: 4e99 3ebe f0e1 863e 32b7 b3be b3a0 6e3e
00000120: ba70 2bbe 972a 673e 0a24 0cbe f68b 6abd
00000130: 1929 313d 8fee b43d f023 35be d80a cfbe
00000140: e664 0e3c d3e4 6c3e edb3 093d b498 49be
00000150: 86a6 b9bd 0f68 b2bd 62cb cfbd a2e3 e63e
00000160: 6e66 63be 296a c43e 5e0c 71bd a459 243d
00000170: 8ef6 b4bc 68a4 7d3c 0cef 5d3e 3f01 2d3e
00000180: 645b 4f3e 964c 68bd 0cec 8d3d 928a 51be
00000190: 2e7d fdbd cee5 073e c1d0 61bd 37b6 293e
000001a0: d22e a93c 91fb b23d b5f4 d93d 3156 5cbd
000001b0: cc55 a93b 1009 623c d290 8f3d 84f0 cdbd
000001c0: 7a55 fabd d4e3 e93c 9595 b23d 72e6 6e3d
000001d0: 0966 703c 72e2 ab3d 576f e93c a203 c43b
000001e0: 7825 f9bb 12e7 263d 5344 33bd 2f79 4bbb
000001f0: 519d ffba 9b93 02bc 16cb 6fbd bfd9 22be
00000200: a004 5b3b 6c6d 95be 738c 2ebe 3cd8 6abe
00000210: 90a8 133c 00c1 67be 105d 173d b63e 83bd
00000220: 0358 50bd 6a62 24be 793e ac3e 7e73 aabe
00000230: ac1e d0bd 5112 d0bd 4e0e 943d 449e 103e
00000240: b3b9 bdbc de07 2b3e 19a4 87be 6a2b babd
00000250: 5ea0 34be 49a6 5ebd addf bebd 3802 8d3e
00000260: a69b e0be 3a20 1fbe 85d6 83be fb81 823d
00000270: 86ca 3bbe 4fb2 713e 593c 8fbe a41b 673e
00000280: 7315 57bc d506 313e 7df9 ef3d e10d 2bbe
00000290: 6d42 33be a154 9d3d f989 bebd f8a0 be3c
000002a0: 03d7 e8bd 00b3 5b3c 5446 a3be 69e5 e2bb
000002b0: 6ba1 5d3c e8fc 733e be43 9bbd 5551 f43c
000002c0: dcc5 febd c85c 9a3d bd68 013d 2799 023d
000002d0: 4b62 53bc 1dde 633d e435 2b3d 1187 bdbc
000002e0: 15c6 9f3c 8bae b6bb e986 e23c 48b5 cdbc
000002f0: 41bb 36ba dd45 293e aee6 2abd 8d5d 3a3d
00000300: d241 c5be 4625 eabc 9a1b 1a3e 66cc dbbe
00000310: 7a04 d2bc 75b5 7ebe 7747 d6bd 3faa 40be
00000320: 9a24 c1bd 86bf a43d d07c 043d 316c 11be
00000330: 9eae cc3d 38f2 e93e e24a bd3d d6ef 2e3e
00000340: 6c54 783e 695f 5b3d 5a94 a7bd 8ec7 833e
00000350: 11d8 a73e 21bb 3c3e 227b 81bd 8697 88be
00000360: 636c 26be 4578 0f3f 295a 40ba 812b a63a
00000370: d1f0 05bd 9494 143d 1d9e 69be 834a cfbd
00000380: c76b 12be 2fa4 04be ee11 acbd 7f5e 073e
00000390: 17bc c43d 2e6f 813d 29ca 82be 036d c63d
000003a0: 9a7d 40be 04a1 1fbe 0a06 173d d89b b5bc
000003b0: cb9d 103e 7487 09bd 8b29 303c 5cae c3bd
000003c0: 7b33 123d 75ea 033c 14c2 e23d 8e1b 15bc
000003d0: a788 dcbc 1bd8 5e3a c55d a3bc 046d 0f3b
000003e0: 2225 c93b af79 d93b 5ce3 cdbc 5a65 293c
000003f0: 5c5e 373e de64 993d a243 4a3d 149a c4bd
-0.06451052 -0.083728485 -0.047929928 0.109845765 0.048934884 0.14462861 -0.09820039 0.2118663
-0.048300434 -0.11981933 -0.016090987 0.265214 -0.10073443 0.17846358 -0.20320016 0.03460291
-0.07116154 -0.07675833 -0.15552442 -0.15484646 -0.08503375 -0.21072064 0.1969118 -0.07485978
0.03208226 -0.046358656 -0.14120753 -0.009453536 0.065323085 -0.15009296 0.09835117 0.0056904857
0.11610789 0.120419875 -0.16624911 -0.1147536 -0.11912044 0.2920505 -0.12325864 0.09388593
0.097355455 0.2998892 -0.10559763 -0.04774072 -0.012255429 0.0025050498 0.074589275 -0.095061064
0.03686268 -0.04691683 0.08826994 -0.03697107 0.021916231 -0.09728642 -0.009824621 0.05719282
-0.20740125 0.026505362 -0.013485075 0.05090891 -0.0024452799 -0.05731546 -0.08837967 0.03066261
-0.10984879 -0.048432846 -0.52181554 -0.19131257 -0.18613169 0.26344252 -0.35100704 0.2330349
-0.1674222 0.2257484 -0.13685623 -0.057262383 0.043252084 0.08834564 -0.1768949 -0.4043796
0.008691048 0.23134165 0.033618856 -0.19687158 -0.09064965 -0.08711254 -0.10146214 0.45095545
-0.22207043 0.38362244 -0.058849685 0.04012455 -0.022090223 0.015481092 0.2167322 0.16895007
0.20249707 -0.056713663 0.06929788 -0.20463017 -0.12377392 0.13271257 -0.055130724 0.16573416
0.020652208 0.08739389 0.10642377 -0.053793136 0.0051676985 0.013796106 0.07010044 -0.1005564
-0.122233346 0.02855102 0.08719937 0.05832524 0.014672765 0.083928004 0.028495474 0.0059818784
-0.0076033436 0.04074771 -0.04376633 -0.0031047573 -0.001950184 -0.007969762 -0.058543287 -0.15903376
0.0033419505 -0.29185045 -0.17045765 -0.2293405 0.009012356 -0.22632217 0.036953986 -0.064084455
-0.050865185 -0.16053167 0.33641413 -0.3329124 -0.101621 -0.101597436 0.07229291 0.14122874
-0.023159837 0.1670222 -0.26492384 -0.09090312 -0.176393 -0.0543578 -0.093200065 0.27540755
-0.4386875 -0.15539637 -0.25749603 0.06372448 -0.18338975 0.23603176 -0.2797573 0.22569138
-0.0131276725 0.17287762 0.11717508 -0.16704513 -0.17505808 0.07682157 -0.0930366 0.023270115
-0.11369135 0.013409376 -0.31889594 -0.0069243205 0.013527255 0.23826945 -0.0758128 0.029823938
-0.124400824 0.07537228 0.031594027 0.03188434 -0.012901853 0.055631746 0.04179944 -0.023135694
0.019503633 -0.0055750064 0.02765222 -0.025110856 -0.0006970652 0.16530557 -0.0417239 0.045499373
-0.3852678 -0.028582226 0.15049592 -0.4292938 -0.0256369 -0.24873908 -0.104628496 -0.18814944
-0.09430809 0.08044343 0.032345593 -0.14201428 0.09994243 0.4569261 0.092427984 0.17083678
0.24250954 0.053557787 -0.08182593 0.25738186 0.32782033 0.18430759 -0.06322314 -0.26678103
-0.16252284 0.5604289 -0.00073376537 0.001267776 -0.032700364 0.036274508 -0.22814222 -0.10121634
-0.14298926 -0.12953256 -0.08401857 0.13219641 0.09606188 0.06320034 -0.2554486 0.09688761
-0.18797913 -0.15588766 0.036870994 -0.022169039 0.14122693 -0.033576444 0.010752092 -0.09554741
0.035693627 0.008051504 0.11072174 -0.009100808 -0.02692063 0.000850083 -0.019942174 0.0021885047
0.00613846 0.0066368203 -0.025132827 0.0103391055 0.17907089 0.07489942 0.049380906 -0.095997006

bias f4 [128]
00000000: b03a 2dbe b631 7abe bdf5 a6be bdd6 79be
00000010: 922e 43be 90db 4dbe 9366 16be ab9f abbe
00000020: 73a2 10be 826d 533d 250b a1bd 6e9c 9bbe
00000030: a545 45be 7ccf 533b a20c 90be fd6a 51be
00000040: 8488 82be 0245 ddbd 7e45 86be b71e 05be
00000050: 9de7 11be b256 90bd 7761 2abe 831a 12ba
00000060: f02f 63be 0bdf 97be 7ac3 a1bd ba4e 87bd
00000070: 6c5a a6be 5dae 12be fb99 b5bc 7784 59be
00000080: 7278 61be 4f74 8bbd 723b 2abe 8e96 a3bd
00000090: 47ee 3fbe f5f7 13be 47af 62be 5808 7abe
000000a0: bac7 96be ae31 74be a12e 38be 791a e0bd
000000b0: c866 26be 2b4c 9cbe 22e5 58be 0214 77be
000000c0: 5a82 5fbd 3c25 e2bd 9531 59be eabd 6dbd
000000d0: 1e88 f9bd 4b59 16be 33f3 903d e20b dabd
000000e0: a3a6 83be c663 06be f76a c2be 77b8 59be
000000f0: 303b 5fbe d727 3ebe 612d 86be 18e2 1139
00000100: 0d61 7fbe 3c71 2bbe c3b9 4fbe 42c2 2dbe
00000110: b828 23bd 3f23 1cbd a571 94bd 2c22 9ebe
00000120: 76db 00bd 14bc 5bbe d2da 9abe 2b8d 0b3d
00000130: c032 8abe 8ba4 35be 0f4f 0bbe ee4f b9bd
00000140: 2c36 3fbe ccf0 7bbe e89b f83c 2b02 eebd
00000150: 2c6f 99be 380a 57be b71e 39bd 416f 34be
00000160: 352f 29be 2e44 a8bd 7e11 76bd 48f3 07bc
00000170: f5c0 2ebe e3e5 b8bd 50f0 47be c329 aabd
00000180: edce 64bd 9699 5bbe 22f7 0abe 407c 0ebe
00000190: f467 67be 12c9 7dbe 6a64 6cbe 8f83 fcbd
000001a0: c577 0dbe aeae 94be e4b0 73be 5b0d 4cbe
000001b0: 0e86 86be cb11 bbbe 6fbe 6bbe 352e 9ebe
000001c0: ef9f 6fbe 2c40 8cbe f7bb 5fbb 85d5 45bd
000001d0: 30bd bcbd 4e9c 88be 3bef a2be c0ee 20be
000001e0: 8cd5 29be 3e7b 73bd 2334 873c c470 22be
000001f0: a595 68be 0a43 2a3d f54a 0ebe 579f a9bd
-0.16916919 -0.24433026 -0.32609358 -0.24398322 -0.19060734 -0.20103288 -0.14687566 -0.33520254
-0.1412447 0.051618107 -0.07863454 -0.30392784 -0.19264849 0.0032319715 -0.28134638 -0.20450969
-0.25494778 -0.10804178 -0.26224893 -0.12999998 -0.1424851 -0.07047786 -0.16638742 -0.00055734086
-0.22186255 -0.29662356 -0.07898612 -0.06606813 -0.3249086 -0.14324327 -0.02216815 -0.21241938
-0.22018602 -0.068092935 -0.16624239 -0.079877004 -0.1874324 -0.14450057 -0.22137176 -0.24417245
-0.29449254 -0.23847076 -0.17986538 -0.10942549 -0.16250145 -0.30526862 -0.21181157 -0.24128726
-0.054567672 -0.11042258 -0.2121032 -0.058042444 -0.121841654 -0.146825 0.070776366 -0.10646798
-0.2571307 -0.13123998 -0.37972233 -0.21261774 -0.21799922 -0.18569885 -0.26206496 0.00013912504
-0.24939366 -0.16742414 -0.20285706 -0.16968635 -0.039833754 -0.03811955 -0.072482385 -0.30885446
-0.031459294 -0.21458465 -0.30245072 0.034070175 -0.26991844 -0.1773855 -0.13604377 -0.090484485
-0.18673009 -0.24603575 0.03034778 -0.11621507 -0.2996763 -0.20999992 -0.045195308 -0.17620565
-0.16521914 -0.08216129 -0.060075276 -0.008297749 -0.17065795 -0.090282224 -0.19525266 -0.08308747
-0.055861402 -0.21445307 -0.13570836 -0.13914585 -0.22598249 -0.24783733 -0.2308518 -0.1232978
-0.1381522 -0.2903952 -0.23797947 -0.1992697 -0.2627415 -0.36537012 -0.23021863 -0.30894628
-0.23400854 -0.2739271 -0.0034139135 -0.04829933 -0.09215772 -0.2668175 -0.31823143 -0.15716076
-0.16585368 -0.059443705 0.016504353 -0.15863329 -0.22713335 0.04156784 -0.13895781 -0.08282345

weight f4 [128, 128]
00000000: 7640 913c 8ebd 843c fa97 af3d 5ae9 243d
00000010: be2e bf3d 0a93 f73d fe5e 683d 8b63 0d3d
00000020: d46a 59be 93c8 4d3d a41f 703d e6ee 6dbb
00000030: 7b4a 4fbd c665 f0bd 8815 00be dd8b e7bd
00000040: 4af7 e13c 219d d73c 1481 33be c402 d4bd
00000050: 6cf4 10be 9cf9 35be 3a59 a0bd 782d 663e
00000060: 4fb4 99bc 959a 66be 2415 e53c c2a9 14bd
00000070: a608 ac3c 70eb eb3d 08de 9dbe 30b2 073e
00000080: 89e6 4b3e ac9b 28bd 293e 37bd fb63 8cbc
00000090: 817c 84bb fd33 183b 66e8 ea3d 912d 303e
000000a0: da82 d0ba a057 cf3d d6b7 0f3e e447 dcbd
000000b0: ee2f 25be 5558 d93d 072d f4bd 78fe 64be
000000c0: 6feb 80be 5dd6 61bd 7752 69be 73ef 64be
000000d0: 94f5 363e 5385 18be 2503 3e3e a9aa 9fbd
000000e0: 0990 f4bd 02f6 743d d532 54be d4ec d6bc
000000f0: 106a cc3d 0a48 1dbe d2d2 133e 8a00 ab3c
00000100: 3c78 573d 0ee2 8dbe 0d76 663d 4fbe f73c
00000110: 8143 9e3d 0ff1 78bc 8a68 403d 5c1d 893d
00000120: a530 633e dcb3 f5bd 202c 0a3e a4cc cf3d
00000130: d3e7 3ebe 3957 413e e537 333e 6efe 153d
00000140: 569d 36be 5db1 acbd c582 64bd 5bd3 c8bd
00000150: 1216 5abe a2e2 83bd 5b87 acbd 00b9 75be
00000160: 70db 9b3d 0b92 983b d51e a33d 17e8 95bd
00000170: 064b e0bd eb00 0abd 2094 e0be fac1 04be
00000180: 4639 24be c21d 8d3e 2fe3 b1be 67fa ad3d
00000190: 4fc7 353d fd9d fbbe b139 7ebd ee24 903c
000001a0: 5bb3 0e3e 2dce a0bd 04e6 aabe 319c 9eba
000001b0: 7bda 4a3e 642e b83d c0d0 a1bd 1091 7a3d
000001c0: 9be2 d33d 7e4a d8bd 70fb 18be f4cb f1bd
000001d0: ea85 68be 64a0 6ebe 85b5 85be 95e0 95bb
000001e0: 8bd6 153e ca65 743c ab37 9c3c 954c c9be
000001f0: 36bc b0be 5cd1 983d e65b 6c3d 5090 4a3e
00000200: 7cf6 e9bc 56be c2bd 288b 28bd 4535 8cbd
00000210: 7df4 ecbd 494c d4bd 1d17 6a3c 3c9a 04bd
00000220: f710 e2bd 8c44 febd 787f 90bc bfe9 94bc
00000230: 1747 5dbd 794a f63c 17c4 e6bd abc4 63bd
00000240: 204f 3cbd 5cab 353c d24f 1bbd 7431 adbd
00000250: f059 b7bd 2c8b d5bd 37d0 94bd b894 9dbd
00000260: fe0e 5cbd 5aba bcbd 2704 d1bc 6702 efbd
00000270: 2748 94bd b36d 5dbd f5c9 cebc bb28 e5bb
00000280: cbf2 873a 9d62 9a3c a12f 26bc 5980 de3c
00000290: 8218 dabd 4220 993c ea96 9bbc 1596 06bd
000002a0: a024 c0bd 61f1 36bd 1865 62bd 75b7 a03c
000002b0: 0eb0 8cbd 31b0 593d 5e04 c8bc 0f04 58bd
000002c0: 0911 c8bd 55f5 2cbd 4c60 b5bc 1e66 f6bc
000002d0: 147a 73bd da32 5ebd 2222 39bd ca88 81bc
000002e0: 083f 473c 8ccf 2bbd e9ce 45bd eb64 1bbb
000002f0: 0b38 f2bd a6d4 403d 0822 31bc 3976 f23c
00000300: 0922 803d e7cd 293d 0534 29bd 7e4b 9a3d
00000310: db0c 77bd 1610 85bd 120e b3bd 8b9e 9e3d
00000320: bdcc d2bd e138 163d dfb2 7abd 88fa e9bb
00000330: 5100 82bd a00b d73c d07f 223c 5003 12be
00000340: 8ca0 3dbd f2c3 a63d 342c bf3c 3ab4 d1bd
00000350: 14f8 86bd b7cd 66bc a2ae 83bd 8766 723d
00000360: 1e77 66bd 6ed6 ddbc fac5 01be 7b04 e4bd
00000370: 6951 cfbc 1f78 a6bd 01fe b0bb b365 63bd
00000380: 0b2b d9bd f437 423d 8fa8 863d dc5c 73bd
00000390: 4332 8cbd 952d d2bd abc2 a0bd 3065 dd3a
000003a0: 5772 adbd 40f9 a6bd ffcc d8bc aba9 89bd
000003b0: b640 79bd 37e1 f83c 6a8f f43c 2c7b d3bd
000003c0: b243 42bd 725f 8f3c 5974 81bd 2d6f dc3c
000003d0: 8821 03bd cc8e e8bc 66bc 2e3d 44ec 98bd
000003e0: c794 8bba 7a91 bbbd d70e a53d c45c 1cbd
000003f0: 63cf 633c b3d5 263c 84c3 253d 8681 38bd
0.017730933 0.016203668 0.08573909 0.040261604 0.09335087 0.12088592 0.056731217 0.03451876
-0.21232158 0.05024011 0.058623925 -0.0036305725 -0.05060814 -0.11738162 -0.12508214 -0.11305974
0.027583737 0.026320042 -0.17529708 -0.1035209 -0.1415574 -0.17771 -0.078295186 0.22478282
-0.018762736 -0.22519906 0.027964182 -0.036294706 0.021000218 0.115195155 -0.3083346 0.13251567
0.19912161 -0.041164085 -0.044737015 -0.017137518 -0.0040431623 0.0023224347 0.11470108 0.17204882
-0.0015908137 0.10124135 0.14034972 -0.107558995 -0.16131565 0.10612551 -0.11922651 -0.22362697
-0.25179622 -0.055136073 -0.22785364 -0.22356968 0.17867118 -0.14894609 0.18555887 -0.07796223
-0.11941535 0.059804924 -0.20722516 -0.026235975 0.09981167 -0.15359512 0.1443589 0.02087428
0.0526049 -0.2771153 0.056264926 0.030242113 0.07727719 -0.015194192 0.046974696 0.06695053
0.22186525 -0.11997196 0.13493395 0.10146454 -0.18643121 0.18880929 0.17501791 0.036619596
-0.17833456 -0.08432267 -0.055788774 -0.09805938 -0.21297482 -0.06439711 -0.084242545 -0.23996353
0.07610214 0.0046560816 0.07964865 -0.07319658 -0.109518096 -0.03369228 -0.4386301 -0.12964621
-0.16037473 0.27561766 -0.3474364 0.08495026 0.04437953 -0.49143973 -0.062066738 0.017595734
0.13935606 -0.07851825 -0.33378613 -0.0012100992 0.19809906 0.08993223 -0.07901144 0.0611735
0.10345956 -0.10561083 -0.14939666 -0.11806479 -0.22707334 -0.23303372 -0.2611505 -0.0045738914
0.14632623 0.0149168465 0.019069513 -0.3931624 -0.34518594 0.07461807 0.05770483 0.19781613
-0.028559916 -0.0950896 -0.041148335 -0.06846098 -0.1157007 -0.10366113 0.014287737 -0.03237365
-0.11038392 -0.12415418 -0.017638907 -0.018177865 -0.054022875 0.030064808 -0.1126787 -0.05560748
-0.045973897 0.011088219 -0.03791792 -0.08456698 -0.08952701 -0.104269356 -0.07266276 -0.076943815
-0.053725235 -0.09215231 -0.025514675 -0.1167038 -0.072403245 -0.054059695 -0.025242785 -0.006993381
0.001037204 0.01884585 -0.010143192 0.02716081 -0.10649206 0.01869214 -0.01899286 -0.032857973
-0.09381986 -0.04466379 -0.05527219 0.01961873 -0.06869517 0.053146545 -0.024416145 -0.052738246
-0.09768874 -0.042226154 -0.022140644 -0.03007799 -0.059442595 -0.054247715 -0.045198567 -0.015812296
0.012161024 -0.04194598 -0.048293028 -0.0023711275 -0.118270956 0.047077797 -0.010811336 0.029597389
0.06256492 0.04145613 -0.041309375 0.0753393 -0.060314994 -0.06497209 -0.08742918 0.077450834
-0.10292957 0.036675338 -0.06120574 -0.0071404614 -0.063477166 0.02625066 0.009918168 -0.14259076
-0.046295688 0.08142842 0.023336507 -0.102394536 -0.06590286 -0.014087132 -0.06429793 0.05917981
-0.056265943 -0.027079787 -0.12673178 -0.11133667 -0.025307374 -0.0812838 -0.0054013734 -0.05551691
-0.10603913 0.047416642 0.06575119 -0.05941473 -0.06845524 -0.102626 -0.0784963 0.0016891118
-0.08469074 -0.081530094 -0.026464937 -0.06721815 -0.06085273 0.030380828 0.029853541 -0.103262275
-0.04742784 0.017501567 -0.0632102 0.026908481 -0.0320144 -0.028388403 0.04266014 -0.07466939
-0.0010649198 -0.09158607 0.08059471 -0.038174406 0.013904425 0.010182786 0.04046966 -0.0450454

bias f4 [128]
00000000: 9bee 393c 56b0 b0bd 777a c0bd 971d ddbc
00000010: d115 453d 70ca 0cbe dfd2 cdbc 7836 92bc
00000020: 277e 19bd 86fa 43bd f933 90bd bdba b03b
00000030: cd61 42bd 6984 abbd 8a21 19bd fd11 f4bb
00000040: e95e ccbd 4062 3bbc 6f55 b5bd 9bed 11bc
00000050: 8374 5fbd c23a 7fba 13c3 b1bd bd82 c13d
00000060: 6976 3cbd 8b13 e4bd 5071 cdbd 12e2 56bd
00000070: f296 85bc 4448 50bd 76ce e2bd 6d26 bebd
00000080: 2169 7cbd a497 413d 6cff 413d 6da6 90bd
00000090: 63a4 efbc f580 8cbd ca0d 81bd 8776 c63d
000000a0: 90f2 773a d552 823b a731 8f3c e742 06bd
000000b0: 0e9c dfba 47d8 31be 4358 b2bc ef2a 59bd
000000c0: 8dbc 5cbd 1190 1abd 7215 47bd 6d25 c7bc
000000d0: bffc 5cbd 5921 4c3d 4b04 003d 9378 0dbd
000000e0: 51a3 85bd 82dc 15bd 2b6e 90bd 371f 8dbd
000000f0: a3a7 99bd e89f b03c 682a debc d7dd 52bc
00000100: 2295 ddbc c7bf 973c fbb8 7d3d 1f49 273d
00000110: f3ee c2bd ac2d 94bd 624e f43d 3745 88bd
00000120: 1a7a 0ebc c7e4 3f3c c88b 58bd 3343 41bd
00000130: 7cb3 95bd 9abe a8bd 4986 f6bd a37c c1bd
00000140: 83b1 783d 79c2 95bd dd3a 89bd f78a f6bb
00000150: f419 6ebd 3bd2 12be 5427 9d3c 0672 afbd
00000160: c490 993b e60f 32bd 1d60 8b3c bb03 d0bc
00000170: b2c1 b03c 7711 1fbd 896a a13c ffbc 823c
00000180: 4998 49bc e26b 14bd 800a d93c 2f0d 01bd
00000190: 5ab4 843d 12f1 b23d 3dab 5b3d b848 893a
000001a0: 9030 f8bd 5f08 c0bd 837a 19ba ba6c 40bc
000001b0: 8c37 e7bd 0274 3dbb 700b 1f3c 36b3 ccbb
000001c0: 07fb 853c 3182 9abb ee5d 89bd 719f e2bd
000001d0: 8434 8d3d 9df6 643d 658d 4f3c 9bf0 dcbc
000001e0: f604 48bd 9367 b83d b59c 1f3d 00a4 26bd
000001f0: 7eac c3bd e806 7dbd b513 de3c f812 fb3b
0.011348392 -0.086273834 -0.09398358 -0.026991649 0.04811651 -0.13749099 -0.025124965 -0.017848238
-0.037473824 -0.04784634 -0.07041163 0.0053933547 -0.04745655 -0.083748646 -0.0373855 -0.0074484334
-0.0997904 -0.011436999 -0.08854186 -0.008906747 -0.054554474 -0.00097362336 -0.086797856 0.094487645
-0.046011362 -0.1113654 -0.10031378 -0.05246169 -0.016307328 -0.050850168 -0.110745355 -0.09284673
-0.061623696 0.047263756 0.04736273 -0.07062993 -0.02925319 -0.06860534 -0.06301458 0.09690576
0.0009458447 0.0039771595 0.01747973 -0.032778647 -0.0017060058 -0.1736766 -0.021770602 -0.05301946
-0.053890754 -0.03773505 -0.048604436 -0.024309838 -0.053951975 0.04983649 0.031254094 -0.034538817
-0.06525291 -0.036587246 -0.07052263 -0.068907194 -0.07502677 0.021560624 -0.02711983 -0.012870274
-0.027048651 0.018524064 0.06194399 0.040841218 -0.09518232 -0.07235274 0.11929013 -0.06653827
-0.0086961035 0.01171226 -0.05286768 -0.047183227 -0.073096246 -0.08239479 -0.120373316 -0.09447601
0.060716163 -0.07312483 -0.067006804 -0.00752389 -0.05813022 -0.14338009 0.019183792 -0.0856667
0.004686447 -0.043472193 0.017013604 -0.025392404 0.021576736 -0.038835015 0.01970412 0.015959261
-0.012304374 -0.036235698 0.026494265 -0.031506713 0.06479712 0.08737387 0.053630102 0.0010473942
-0.121186376 -0.09376597 -0.00058547425 -0.011744672 -0.112898916 -0.0028908257 0.009707317 -0.0062469495
0.01635505 -0.004715227 -0.06707369 -0.11065567 0.06894782 0.05589925 0.012667988 -0.026970198
-0.048832856 0.0900413 0.038967807 -0.040683746 -0.09554385 -0.061774164 0.027109006 0.0076621734

weight f4 [128, 128]
00000000: 3e80 b2be 5dd3 7abd 7ca4 2b3d 54f8 21be
00000010: 8a91 2abd 53f9 f6be ba21 fe3d 1157 37be
00000020: fc38 493d 556e 0dbd 103c 8e3d 3ae6 6cbe
00000030: 9b0e 5a3d 35e3 693d 896d 9ebd bede a43d
00000040: 5d0c a03c 877b a4be 526b 21bd 272e 82ba
00000050: 66ec 18be 4f7c 1dbe 022f b93d 9b97 cf3c
00000060: f80f f4bc c2a1 d0be 957b 9ebd 7a8e 683e
00000070: b9c4 8cbe 80c6 3c3d 53a2 1fbe fbef 8b3e
00000080: d78d 8fbe d92f 923e 67c7 dc3d 15f1 cc3d
00000090: 11ed 0b3d 6c9d 91bd 38c3 64bd bbc3 863d
000000a0: 32d0 84be 4f74 203e a234 803e 3f76 2cbe
000000b0: 5811 a63d 742f 3bbd 92a6 7cbe e311 e33d
000000c0: 45d8 79be df1b ea3c f4d9 833e 95fb e43d
000000d0: b753 383e 8009 69be 5fa9 383e dfad aebd
000000e0: 15c8 0b3e f099 9cbe 70e3 d03d b9ef 523d
000000f0: 56a6 c6bd 38c0 33be 4067 c1bc b300 94bd
00000100: c586 61bd 60d1 cb3c 0fd2 86bb 5927 a93d
00000110: 16c7 d3bd 2611 a13e 3080 943c a5fc 6cbe
00000120: 26e3 273d 0cb2 633e e05a 403e 6021 7fbd
00000130: 6b7b 0c3e cf2b 143d 1883 a83d a212 d6bc
00000140: d8c1 68be b293 2fbc 5298 d6bd 109c 1a3e
00000150: 3389 97bd a7d5 05be 9b05 b93d b7cf 683e
00000160: a296 2fbd 2c66 ec3c 4670 d23d 5ec5 3d3d
00000170: e182 d1bd 44a7 04bd 9f96 b9be ccf1 5abe
00000180: fd91 01be 231a de3e 6044 d5bd d005 0c3e
00000190: 2162 34bc 2a76 8c3d 7e13 793e 513e a73d
000001a0: 4fef 1e3e 0495 2fbd d8ff 82bb 60a3 923d
000001b0: 3f67 c3bc f604 49be 4f7f c3bd 8458 b8be
000001c0: ab90 4c3e 68f0 833e 1d4c 3a3d 3413 103e
000001d0: 3216 6a3d 1e82 12bd 13c4 b5bd 7ccd b9be
000001e0: 0f92 093d 5418 ffbd eb33 b93d b0ef f2bc
000001f0: 12ab 7e3d e3a6 1dbd 93a3 02bd 9070 1cbe
00000200: bd7e b33d bcfe 613c 8423 de3d ca8f 8cbd
00000210: a268 b53b e888 d03d b277 a1be 1abe f63d
00000220: 1bee 8a3d d90f 0a3d 6303 783e 528c c9bd
00000230: 2c40 163d d50c 8a3d 615b 863d da51 303d
00000240: 4d0f b9bb e57e 63be 1543 3f3e fc97 d2be
00000250: 9639 a73b 6305 cdbd 775a d03d fd57 db3d
00000260: f5e5 14bd 60ec f03c 7bf0 83be 592b f33d
00000270: ef3b 8a3e a11b 143d b6b0 97bb 937a 62be
00000280: 11c3 fcbb 31e8 17be 8958 de3d 5c49 5d3d
00000290: 8727 103d 94e3 a6be d091 bdbc 9435 773e
000002a0: 43f4 373e eb29 6bbd bff4 d93b 2cca 7e3d
000002b0: e95d 86be 9d00 983d 54a4 9a3d 6e65 9a3d
000002c0: afc7 3d3d a686 95bc 6c65 63bd 6dbc 573e
000002d0: 6293 f8bb a8ae 013d 61b8 a23d f92b a23d
000002e0: 1708 7cbe 78e0 92bc 96db e8bd 0ef2 bf3c
000002f0: 6eb4 983d a506 653e 5710 c13d 0ab0 b9bd
00000300: dc02 21bd 2c9b aa3d 3f20 81bc 7dc4 803d
00000310: 9575 b5be 5c6b cb3c c3d7 f4bb bff6 77be
00000320: a8ce a5bb 669e 2cbe cb56 1abe 89a6 813c
00000330: d166 e5bc 816e ab3e 73b6 fbbd b1d0 10bd
00000340: 2cfa 243e fd2e 103e a677 21bd 4fc0 cebc
00000350: 02ca 06be 5f64 e23a 99e7 d1bd 8e3d 1e3c
00000360: da8f 2fbe 0766 53bc 9787 26be 2ac9 0a3d
00000370: f45d abbd 144d e3bd 5735 3fbb d53b 663b
00000380: 51f0 58bb 057f 423e 87d4 b9be 0abf 813d
00000390: e7a8 013e 9269 a9be 44fb cfbd 9b7c 4b3c
000003a0: 81ac fbbd 542e 4abd 5898 093e 328e b4bd
000003b0: a09e a0be b42c 413e 4823 af3d b512 93bd
000003c0: a574 bbbd fcda 573e 81b6 803c ad82 183e
000003d0: 0b76 8dbb 2bc1 55be fd4f 2a3e 9d27 38be
000003e0: 13df 2d3d 9afa 01be 5e4a 173e b2d8 a8bb
000003f0: 690c 00bd e806 a3be e1dd 6e3e c666 da3d
-0.34863466 -0.061236728 0.04190491 -0.15817386 -0.041642703 -0.48237094 0.124087766 -0.17904307
0.04912661 -0.03452905 0.0694505 -0.231347 0.053236585 0.057101447 -0.07735736 0.08050297
0.019537145 -0.32125494 -0.03940899 -0.0009931967 -0.14933929 -0.15379451 0.09042169 0.025340846
-0.02979277 -0.4074841 -0.07738415 0.227106 -0.27493837 0.04608774 -0.15589266 0.27331528
-0.28037903 0.2855213 0.107802205 0.1000692 0.03416163 -0.07110104 -0.055850238 0.065803014
-0.2594009 0.15669368 0.25040156 -0.16841982 0.08108777 -0.04569955 -0.24672917 0.11087396
-0.24398907 0.028577743 0.25752223 0.11180798 0.18000685 -0.2275753 0.1803336 -0.08529257
0.13650544 -0.30586195 0.1019963 0.05149815 -0.09699695 -0.17553794 -0.023608804 -0.07226696
-0.055060167 0.024880111 -0.0041143964 0.08259458 -0.10340707 0.31458396 0.01812753 -0.23143251
0.04098811 0.22235888 0.18784666 -0.06228769 0.13718955 0.03617459 0.08228129 -0.026131932
-0.22730196 -0.010716366 -0.104782715 0.15098596 -0.073992155 -0.13069783 0.09034272 0.22735487
-0.042868264 0.028857313 0.10275321 0.046330802 -0.10230041 -0.03238608 -0.36247727 -0.213813
-0.12653346 0.43379316 -0.10413432 0.13674092 -0.011009724 0.068584755 0.24323842 0.08166183
0.15520976 -0.04286672 -0.003997784 0.071600676 -0.023852943 -0.19630799 -0.095457666 -0.36005032
0.19977061 0.25769353 0.045482744 0.14069825 0.057150073 -0.03576862 -0.08875289 -0.36289585
0.033586558 -0.12455812 0.09043106 -0.029655308 0.062174864 -0.038489234 -0.031894278 -0.15277314
0.08764408 0.013793644 0.10846618 -0.06863363 0.005536155 0.10182363 -0.31536633 0.12047978
0.06783696 0.03370652 0.24220042 -0.09841217 0.036682293 0.06740729 0.06560398 0.04304681
-0.005647576 -0.22216375 0.18677934 -0.4113158 0.0051033003 -0.10010793 0.10173505 0.10710142
-0.036352117 0.029409587 -0.2576941 0.11873502 0.2699885 0.03615916 -0.00462922 -0.22117071
-0.0077136834 -0.14834668 0.108567305 0.05402504 0.035193946 -0.32595503 -0.023140818 0.24141532
0.17964272 -0.057413023 0.0066514905 0.062204525 -0.26243523 0.07421992 0.07550874 0.075388774
0.04633301 -0.018252682 -0.055516645 0.21067972 -0.007585929 0.031660706 0.07945324 0.07918543
-0.24612461 -0.0179293 -0.11370008 0.02343085 0.07456289 0.22365816 0.09426945 -0.0906678
-0.039309368 0.08330378 -0.015762446 0.06287477 -0.3544127 0.024831466 -0.00747201 -0.2421522
-0.0050600357 -0.16857299 -0.15072171 0.01582648 -0.028003128 0.33482745 -0.12290659 -0.035355274
0.16111058 0.14080425 -0.039420746 -0.025238184 -0.13162997 0.0017272345 -0.10249252 0.0096582305
-0.17144719 -0.012902743 -0.16262661 0.03388325 -0.083675295 -0.11098686 -0.002917608 0.0035130878
-0.0033102224 0.18993767 -0.36294958 0.06335266 0.12662087 -0.33088356 -0.10155347 0.012419845
-0.12288762 -0.04936059 0.13437021 -0.08816184 -0.3137102 0.18864709 0.08551651 -0.071813025
-0.091531076 0.2107963 0.015712025 0.14893599 -0.0043170503 -0.20874469 0.16632076 -0.17983861
0.04244907 -0.12693253 0.14774463 -0.005152785 -0.031261835 -0.31841207 0.23326828 0.10664134

bias f4 [128]
00000000: 1274 943d 476a efbd e4a9 293d 5625 0cbb
00000010: 202f 32bd 1808 f2bd 576b 12bd 9bc3 403e
00000020: d216 13be 201f 0b3d 155f 07be 7369 03be
00000030: a626 c8bd 3a88 d83c 43bb d73c a696 9f3d
00000040: 1376 8a3d f660 993a d9f7 aebd 3c69 afbd
00000050: a4d9 92bd e2e4 f4bd fc38 ad3d d512 1cbe
00000060: aa10 713c c66f cc3d 8dda ecbc 29bb 14bc
00000070: 0cc2 d1bd 1ccd 1cbd e583 153d 4270 37bd
00000080: b23d e3bd 77eb 9cbc 8191 17bd d224 2ebe
00000090: 7f17 a7bd 3287 0fbe 0d15 84bd 6bfb fe3c
000000a0: 8894 73bd d174 0ebe 600c f83c b086 d7bd
000000b0: b576 0abc 4bc0 3c3d 9eae 32bd ad7d 12be
000000c0: 9526 9b3d 9abf 173c 239f d0bd 8336 1fba
000000d0: 5e87 8ebc 82f8 4cbd 8864 473d b12f e73c
000000e0: 82f0 be3d 467a 3ebc 5b97 31bc 0f7b a43a
000000f0: 13e1 eabc 977d 96bd 4584 a4bd 5e73 113e
00000100: de5b fdbd 802a 373c d774 f6bd 681f 29be
00000110: 2a48 1ebe 7581 c1bd 500e 12be 8c22 2bbe
00000120: c7cf c8bc 3901 e6bc 87cf 30bd 8e2c 4bbd
00000130: 56d3 e6bd 2d39 3ebd 56fd 0ebe 1a19 9d3d
00000140: 170c 213d c292 13bd 35cb 383d 656b 44be
00000150: 34a9 f03d b82b 9dbd b3ce b6bc 1e0c e5bd
00000160: da76 e0bd 8c74 b5bd 95c2 9c3d 88e7 943c
00000170: 99fb 08be c7a7 31be b9eb 743c b646 45bd
00000180: 25e0 2ebe bbf8 f33d 7cca 08be fe9e 05bb
00000190: a8dd 183b 4ef2 a7bd 3973 d8bd d814 eabc
000001a0: 7d8d 9b3d 428b 003e f669 b3bd 9872 5e3d
000001b0: 6244 8abd 06b0 c0bd 2399 ffbd c825 46bd
000001c0: a441 443c 3c47 d93d 4b7f 51bd 9d14 bcbd
000001d0: c6fb 413d 109f 46bd c914 81bd 9bc3 f63a
000001e0: 4a3d a4bd 0a8c 17bd 5948 73bc 3efc 43bc
000001f0: 7b28 5dbe d4a9 32be cb03 8e3d fa00 fbbc
0.07248701 -0.11690193 0.041421786 -0.0021384559 -0.043501973 -0.1181795 -0.0357469 0.18824618
-0.14364174 0.03396523 -0.13219865 -0.12833194 -0.097729966 0.026432145 0.02633441 0.07792406
0.06760802 0.001170187 -0.08543367 -0.08564994 -0.07170418 -0.119577184 0.084581345 -0.15241559
0.014713446 0.099822566 -0.028912807 -0.009077826 -0.1024209 -0.038281545 0.036502738 -0.04478479
-0.11095752 -0.019155247 -0.037003998 -0.17006233 -0.081587784 -0.14016417 -0.064493276 0.031125745
-0.059467822 -0.1391175 0.030279338 -0.105237365 -0.0084511535 0.046081822 -0.04362356 -0.14305754
0.07575718 0.00926199 -0.10186603 -0.00060734915 -0.017398532 -0.050041683 0.04867986 0.028220983
0.09323217 -0.011625832 -0.010839309 0.0012548881 -0.028671777 -0.07348173 -0.08033041 0.14204165
-0.12371038 0.011179566 -0.12034004 -0.16515887 -0.15457216 -0.0944852 -0.14263272 -0.16712397
-0.024513138 -0.028076755 -0.043166663 -0.049603038 -0.11270778 -0.046441246 -0.13963827 0.07670803
0.03931817 -0.03602863 0.04511567 -0.19181593 0.11751023 -0.07674354 -0.022315359 -0.11183952
-0.10960169 -0.0886012 0.07654301 0.018176809 -0.13377227 -0.17349158 0.014948779 -0.04816314
-0.17077692 0.11912676 -0.13358492 -0.0020388956 0.0023325477 -0.08200513 -0.10568852 -0.028574392
0.07595346 0.12553123 -0.08760445 0.054308504 -0.06751324 -0.09408574 -0.124803804 -0.048375875
0.011978541 0.1060929 -0.051146787 -0.09183619 0.04735925 -0.048491538 -0.063027926 0.0018826606
-0.080195025 -0.036998786 -0.014848792 -0.011961995 -0.21597473 -0.17447597 0.06934317 -0.030640114

weight f4 [128, 128]
00000000: 9d4f ed3d 560c 79be 6b34 123e 91f0 42be
00000010: 1c7e 57bd 2575 023e 9b28 383e f2fe 473e
00000020: 035c 543e bab2 b9be 4382 4bbd 5b62 163e
00000030: c673 383d a2e6 34bd 3646 013e df90 45be
00000040: 80d6 cfbe a0be 0cbe 4503 073e c870 d6bc
00000050: 668f 563c d85e 0cbe e9f0 ae3b ffc7 3abd
00000060: c2a1 70be 7015 22be d5af 0838 5b99 d83d
00000070: 77ba 63be e306 ff3c 2430 9a3c 61be 9a3e
00000080: abf9 4c3e 3d26 8ebd fd8d 303d ec00 07be
00000090: 8379 85be 3995 1ebe 5ab4 8d3d 6712 04bd
000000a0: 1357 04bd d96c bcbe 907e a0be 67b5 0b3d
000000b0: 2cf5 b53c aea9 52be 767c c23d 9cff f63d
000000c0: 913b ea3d 1ee5 f4bb a418 703e 091f 4b3d
000000d0: b93b 963e 488a c0be 573d 0b3e cf08 21be
000000e0: 50dc aebd 647a 65bb c7d6 113e c986 c73d
000000f0: b975 84bd 7f7f d83d 702f 4c3e e5a3 763d
00000100: a30f 32be 2945 3a3e b427 00bc 8d41 903d
00000110: d4e4 dfbd 74f1 a0bd b0de ce3d cfd5 a53e
00000120: d314 afbe dfda 81be 4399 9e3c e1a5 7d3d
00000130: 6332 55be 13db 7bbc 8b2c bdbd 297d 0fbe
00000140: 4c00 273e 6b06 42be c031 5abc cfca 3b3d
00000150: 1db9 de3d fbbe 5dbd 04cc 4ebd eb28 dcbe
00000160: 8c04 3fbe e6f5 f6bd 6ed5 04be 870c de3d
00000170: 7958 f6bd e259 f43d a50e 5c3e 8832 43be
00000180: 85b8 a03d d8cf 52bd 63be 983e 0f01 6abd
00000190: 8a2b 983d 8461 32bd 2dea 25be 3c37 8a3d
000001a0: ee05 23bc 4e77 eabd f0b0 2ebe 0406 ef3d
000001b0: 08dd 95be 1408 3a3e b19b 72be 8b0c fc3c
000001c0: 659b 22bd 55aa e23d 9724 7e3d 44c5 4e3e
000001d0: a249 203e b53c bd3d f902 36be 8fba 813c
000001e0: 4944 543e 3e45 45bc a547 c93c 406f 663d
000001f0: 3cfd 3a3c 58f1 e5bc 838e 643d 7601 1e3e
00000200: 0f96 8ebe 1b05 1b3e 8a77 51be 0406 02be
00000210: 6aeb 293e 60cd 66bd c36c ae3c 478f 01be
00000220: 4193 9f3d 4f6c d93d 3b95 fcbd 3f18 843d
00000230: a4e9 863d 1ec1 91be e665 a53c e374 053e
00000240: 8c3b 4b3c 6cba af3d 689f 533d a565 fc3e
00000250: 972a 19be 6357 c33c 6a65 4e3e 9cfe 5a3d
00000260: 22ae c0bc 6434 4a3c cf5d cebd 729d c73d
00000270: 1a93 4a3e 945d d63c ea46 983e 44a2 86be
00000280: 17c7 2a3d b1f3 a5bd aee9 88bc 4503 9f3e
00000290: bbb7 753e 9a46 b63d fabf 923d c76a 9c3d
000002a0: eb7c a8be 6f9e c7bd 698d 8dbd f4c0 933d
000002b0: 8692 16be 425f 683e 7b5c d63d fc5d e1be
000002c0: 83cc f73c 51b6 193e 702b b5bc 110d 413e
000002d0: de04 24be 8dbf 16be d5b6 2a3e e048 253e
000002e0: 1482 233d 9193 de3d 1d87 f8bd eec2 d33d
000002f0: 38ab 5a3e 4458 193e e868 bd3d 166d a6bd
00000300: 5836 d43c 6d97 e63d 6f33 1fbd 6688 0ebe
00000310: 0ee5 9cbd 503c 4bbc 4b70 c4bd a7d3 003e
00000320: 029f 3e3e 2c8d 99be 0c74 823e bc9c b9be
00000330: 7b3f eb3d 5a9f 973d 0a15 b53d c4e9 1b3e
00000340: b9e2 273e 5732 4d3d 3ff3 afbd bc2f 9b3d
00000350: 5d85 86bd df87 0e3e 5131 c6bc 52f7 033d
00000360: 4295 8d3d 90d6 1e3e 7d44 f13d 11d3 803d
00000370: d70c 5d3d 6619 d63d 752f 7dbe 2f8c 433e
00000380: c4c0 0cbe 21a6 2abe d9e7 373d 7a51 32be
00000390: 5e9f 213e f195 893d 7fa4 cfbb 3cf9 dd3b
000003a0: d19c 7cbb 5651 2a3e dd54 b73d 884d 1a3e
000003b0: 1b12 59be be9d f9bd 8b56 4bbd 9dd6 e6bc
000003c0: 1fae 513e 8714 9abe 9d08 3e3e c85d d23d
000003d0: ec45 fc3c 20a9 77bd d4cd 6dbe a1b7 9a3d
000003e0: 03b5 d03d de37 11bd 627e aabe aecc c23d
000003f0: 0e4f e8bb a77f 24be ff79 c5be cf0b 1cbd
0.11587451 -0.24321112 0.14277808 -0.19037081 -0.0526105 0.1274 0.1798424 0.19530848
0.20738225 -0.3626917 -0.049684774 0.14685957 0.045032285 -0.04416526 0.1262444 -0.19293545
-0.40593338 -0.13744593 0.13184841 -0.026176825 0.013095712 -0.13708055 0.0053387773 -0.045600887
-0.23499206 -0.1582849 3.2588683e-05 0.10576125 -0.222391 0.031131214 0.018821783 0.30223373
0.20017116 -0.06940887 0.04310416 -0.13183945 -0.2606927 -0.15486611 0.06919165 -0.032244112
-0.032309603 -0.36801794 -0.3134656 0.034108546 0.022211634 -0.2057254 0.09496395 0.12060472
0.11437143 -0.007473602 0.234469 0.049590144 0.2934244 -0.376055 0.13597618 -0.15726016
-0.08538115 -0.0035015577 0.14242087 0.09742505 -0.06467766 0.10571193 0.19939971 0.060214896
-0.17388777 0.18190445 -0.007821966 0.07043753 -0.109323174 -0.078585535 0.10101068 0.32389686
-0.34195575 -0.25362298 0.01936019 0.061925773 -0.20820002 -0.015372056 -0.092370115 -0.14012589
0.16308707 -0.18947761 -0.013317525 0.04584771 0.10875151 -0.05413721 -0.050487533 -0.42999968
-0.18654078 -0.1205862 -0.12972042 0.10842233 -0.120285936 0.11931206 0.21489961 -0.19062245
0.07847694 -0.051467746 0.29832754 -0.057129916 0.074301794 -0.04355003 -0.16202612 0.06748816
-0.009950144 -0.11448537 -0.17059684 0.11671069 -0.29270196 0.18167144 -0.23692204 0.0307677
-0.039698977 0.110676445 0.062046614 0.20192438 0.15653089 0.092400946 -0.17774571 0.015836028
0.20729174 -0.012040434 0.024570296 0.05625844 0.011412915 -0.028069183 0.055799972 0.15430245
-0.2784886 0.15138666 -0.20455757 -0.12697607 0.1659371 -0.056348205 0.021292096 -0.12652312
0.07791758 0.10616361 -0.12333151 0.06449937 0.06587532 -0.2846765 0.02019019 0.1303287
0.012404334 0.08580479 0.051665694 0.492963 -0.14957653 0.02384538 0.20155874 0.05346547
-0.023520533 0.012341592 -0.10076486 0.09746827 0.19782677 0.026167668 0.29741603 -0.26295674
0.041693773 -0.08103121 -0.01671299 0.31057182 0.23995869 0.08900185 0.07165523 0.07637554
-0.32907805 -0.09747016 -0.069117375 0.07214537 -0.14704332 0.22692588 0.10466858 -0.44017017
0.030248886 0.15010954 -0.02211544 0.1885264 -0.16017482 -0.14721508 0.16671307 0.16141081
0.039918974 0.1086799 -0.12135146 0.10339914 0.21354377 0.14975077 0.09248525 -0.08126275
0.02590482 0.11259351 -0.03886741 -0.1391922 -0.07660876 -0.012404516 -0.09591731 0.12580739
0.18615344 -0.29990518 0.25479162 -0.3625239 0.11486717 0.07403441 0.088419035 0.15225893
0.16395082 0.050096836 -0.085913174 0.07577464 -0.06568406 0.13919018 -0.024193438 0.032218285
0.06913234 0.15511537 0.11780641 0.06290258 0.053967323 0.10454063 -0.24725135 0.19096445
-0.13745409 -0.16664936 0.04489884 -0.17413893 0.1578345 0.06718052 -0.006336748 0.006774096
-0.0038545618 0.1663259 0.08951733 0.15068638 -0.21198313 -0.1218829 -0.04964308 -0.028178507
0.20476578 -0.30093786 0.18557973 0.102717936 0.03079506 -0.060464025 -0.23223048 0.07554556
0.10190775 -0.03545367 -0.33299547 0.09511696 -0.007089502 -0.1606432 -0.38569638 -0.0380972

bias f4 [128]
00000000: fef1 32be acec a83d b800 c33d 25b8 c7bd
00000010: 2287 803d 7d70 63bd 3e10 42be 7f0c c7bd
00000020: 8ab8 08bc 5edb b33a 7967 b3bd 6662 18be
00000030: ea39 1abe cadc b0bc cd96 863c 1ac3 543d
00000040: dfa4 163e b6e4 e13d 9d80 013e cebc a2ba
00000050: cd83 2e3c 4da0 b5bc 95b2 19be 3c6c e8bd
00000060: 83cb f6bd 0132 8cbd f7fc cabc a916 65be
00000070: 85d3 e93d f9a5 02bd 4d37 60bd 72c6 4a3c
00000080: 18d0 0cbd 2645 d83d fb93 483e a1fc bbbc
00000090: ba65 7abd 3a19 903d c0e0 15bd 36f8 d13d
000000a0: fd23 0a3b 782c 23bd f806 883c ab23 2bbd
000000b0: 8baa 9b3c 52db 1dbe 5b35 093d e3b0 adbd
000000c0: 0411 b4bd e353 1cbe 69b9 53bb 94cb ab3d
000000d0: f24d 5ebd b3f9 1ebe 65bd 623e e2ab 123e
000000e0: fa35 0bbd f1bf 78bd 666f 473e 3059 3c3e
000000f0: 90da 2fbd 43e6 3cbe 63af 8a3c 1ed8 b23d
00000100: bffa df3d 060f ddbd dce0 f13d 7ce9 7abc
00000110: 0a58 28be f4b4 1c3e 37f5 93bd 2dd9 8bbd
00000120: 3aaf 8e3d d6cd 013e d589 87bd b409 6dbd
00000130: 486c 1abe 7e23 f73d 4478 823d 0526 b9bd
00000140: 72c6 993d 66db cbbc b72a f8bd bf6d 283e
00000150: 1266 b93d 775c b53d d3f5 a83d fc1a 43be
00000160: 481e f4bb 21ab c8bc 9fcd cc3d a47b 06bd
00000170: c2b7 1d3d 8a7f dfbd b648 fdbd 2853 4dbd
00000180: a00f 1ebe fe3a 533a 175d 1dbd 3bb6 bcbd
00000190: 201f 9b3d a678 de3d 0c34 07be 1a65 9cbd
000001a0: 4ca0 1f3e 6a46 bbbc e1df 053e 23fd fc3c
000001b0: a274 edbd 9270 523c 1dae 263d 9618 cdbc
000001c0: 47a9 0fbd 8d9d 83bd d1c3 39bd effb 00be
000001d0: 00c7 34bd 1d8b 42be 0176 3c3d 8f9b 293e
000001e0: e828 3f3e 8f91 08be 2a22 07be caff 1abd
000001f0: 9093 9f3c 3163 27bd e170 98bd 73dd eebc
-0.17475125 0.082482666 0.095216215 -0.0975192 0.062757745 -0.0555272 -0.18951508 -0.0971918
-0.008344779 0.0013721993 -0.0875997 -0.14881286 -0.15061155 -0.021589655 0.01642933 0.051943876
0.14711331 0.11029951 0.12646718 -0.0012415887 0.010651541 -0.022171164 -0.1500953 -0.11348769
-0.120505355 -0.06845475 -0.024778826 -0.22371925 0.11417297 -0.031896565 -0.05474024 0.012376415
-0.03437814 0.10560064 0.195877 -0.022947611 -0.06113217 0.070360616 -0.03659129 0.102524206
0.002107858 -0.03983733 0.016604885 -0.041782063 0.01900222 -0.15415695 0.03349815 -0.08481004
-0.08792308 -0.15266375 -0.0032306558 0.08388439 -0.054273553 -0.1552494 0.22142561 0.1432338
-0.033987023 -0.060729925 0.19476089 0.18393397 -0.042933047 -0.18447213 0.016929334 0.08732627
0.10936498 -0.10793881 0.11810467 -0.015314456 -0.16439834 0.15303403 -0.072245054 -0.06828532
0.069670156 0.12676176 -0.06618086 -0.05787058 -0.15080369 0.120673165 0.06370595 -0.09040455
0.075085536 -0.02488489 -0.12117522 0.16448115 0.090526715 0.08855527 0.08250012 -0.19053262
-0.007449899 -0.024495663 0.100001566 -0.032832757 0.038505323 -0.10912998 -0.12367384 -0.050128132
-0.15435648 0.0008057802 -0.038418856 -0.09214445 0.07574296 0.108628556 -0.13203448 -0.07636471
0.15588492 -0.022860724 0.13073684 0.030882424 -0.115945116 0.012844222 0.04069339 -0.025036138
-0.035073545 -0.06426535 -0.04535276 -0.12596105 -0.044135094 -0.1899838 0.046010975 0.16563247
0.18667948 -0.13336776 -0.13196626 -0.037841596 0.019479543 -0.04086608 -0.07443405 -0.02915833

weight f4 [128, 128]
00000000: 4065 9b3e 0f0f 62bc c706 74be 03c9 483e
00000010: f3db 85bd 936d a33e fea2 2dbc 5546 42be
00000020: e31b 48be 439a f7bd 9946 82be 570d 1f3d
00000030: 6e38 153d d4a0 8fbc 5da0 23be 7856 34be
00000040: 5d4b aabd 121d 14bd 648d 90bd 2e77 8bbd
00000050: e297 85bd 59a5 8ebe 7b63 583e abb2 913d
00000060: 0822 7cbe 87f5 89bc d1b4 dd3c 997e 94be
00000070: 0bbb c43c 3ec5 3fbe 8dd2 433e 10a4 01be
00000080: a480 7fbe 6d19 f2bc e444 7abd 9bbc e8be
00000090: f0b8 7ebe 9500 8bbd 6e76 2c3e 549d 823d
000000a0: 293e 2dbe 5a78 21be d09a 31be a0a9 ff3d
000000b0: 86e6 0cbf 503b 863d bda0 2bbb 7a20 863a
000000c0: 37d7 57bd d18d d83c e9af afbe 0205 92be
000000d0: d477 633e bd47 c43d 8055 edbc 7a4b 56be
000000e0: d8d9 98be ebae 9dbe 2eca e5bd 48d5 07be
000000f0: b57a a9bc 1e61 f23d ed32 373c c9f5 3abd
00000100: af2c 6bbe 028e dbbb 4d75 7ebd 1d48 adbd
00000110: aebc c33d 13c1 45be 7603 ef3e 344a adbd
00000120: d72e 4d3e 5dd0 2abd 9949 14be 84f8 423d
00000130: e291 22be 5f79 b2bd ad05 99be 5e78 5ebd
00000140: 8026 83be a600 0abe 48c7 dbbd 2c35 94be
00000150: 1915 513b d6cb 5dbe daf7 d3be 1380 8c3d
00000160: cd41 5bbe 9fe3 96be c825 10bd 4691 cbbb
00000170: 01aa 4bbe cfd1 41bd be29 983d 5b84 98be
00000180: 0c74 f6bc 47e1 7dbe 5fab 95bd 0ab6 23bd
00000190: 7df0 b4bd 3aca 70bd ba87 64bd eee2 afbd
000001a0: 438d 94bd 9d0c 59bd 2c15 80be 675f b0bd
000001b0: 049f b73c fa01 7dbe c10e 09be 9d52 3abe
000001c0: cb7e 23be 43b5 423e 0303 bfbe 8717 723c
000001d0: 372a 3a3d 763c 7e3c 7266 36be 1808 353d
000001e0: 3b5c ebbb 1216 7d3d e129 a0bd f8e4 5bbe
000001f0: 43b4 c5be 570a 3fbe 992a fe3d de51 84be
00000200: 580a 2dbe f023 883d 2354 a9bc 42ad 72be
00000210: 0180 08bd 68a6 59be 265d a9be 9f74 1ebe
00000220: fc9d 463c 06b1 9abd 840b 3bbe e2d0 c73d
00000230: a6b3 b03d 28d0 e439 1d8c 3bbe 57a0 76bd
00000240: 7e03 003d 0b76 723d 20e0 45bd 2e4f 33be
00000250: fa9b aabd 02fd a63d f923 05bd e348 2abe
00000260: e113 493d 3452 22bd ec8d 783c 8b19 abbe
00000270: e5f1 eb3c eee8 71be 96c5 60be 4e97 99bd
00000280: 12b8 bbbc 74d3 c23c 2fb0 5fbd 7d04 a6bd
00000290: 36a5 e0bb fb2f ba3c 07f6 c03c 5b82 823d
000002a0: 0eca c23c e399 f7bd dabd 9a3d 0a9e e43d
000002b0: 2a57 f4bd 448f 82bd 0b4d fcbd 87c5 d7bd
000002c0: de39 48bd 2aff fbbd 2eac 7bbd f078 e1bd
000002d0: 95ab 18be 5a8f 65be 8a44 5f3c 5ebf 89bb
000002e0: 2f24 93bd 8424 71be 001c 4f3d a0ff 273e
000002f0: b491 ebb9 c21b f6bd 2e2a a0bc 614b ed3c
00000300: f1be 193e ffae 4ebd e8fe 0f3d 25cd 4dbd
00000310: 2f00 373d 85f4 40bd d830 69be 51bc 38be
00000320: d2ff 963d 4623 7c3d 9459 0abd 5bf7 22bd
00000330: 91c0 97bd 762a 713d c4aa 2bbd 2fe9 e5bb
00000340: ae8c 673d ea57 dcbd 2452 843d e61e cabd
00000350: f7ad e03d a2c8 f1bc 01ff 873d bc4c d43d
00000360: ae09 553c 1849 34be 9fde 12be dde1 2fbd
00000370: 4ca9 b3bc cd7e b5bd 4629 57bd 9cb8 50bd
00000380: 501e c93c 88fc 6b3d 51c0 963e 6e31 b6bc
00000390: 7fa4 22bd b71e 7a3d 10d8 09be e760 923d
000003a0: b7d2 913d 96a6 e9bd 2009 5bbd f3e3 cdbd
000003b0: 80a8 99bd 87a7 e33d 46ff a8bd 9912 31be
000003c0: eb03 10be b637 61bd ae46 15be 0dac 953c
000003d0: e84d cfbd 3769 9e3c 0340 f83b 2b35 2cbd
000003e0: bbe6 213d 51bb 0dbe 8f4b 4dba 5662 5bbe
000003f0: ef8b 5abc 97c0 183c db2f 0b3d 6cfd f73c
0.30350685 -0.013797536 -0.2383071 0.1960793 -0.065360926 0.31919536 -0.010597942 -0.18972142
-0.19541888 -0.1208997 -0.25444487 0.03883108 0.03643077 -0.017532744 -0.15979142 -0.1761111
-0.08315156 -0.036160536 -0.07058218 -0.06809841 -0.0652311 -0.27860525 0.21131699 0.07114156
-0.24622357 -0.01684071 0.027063759 -0.29002836 0.02401497 -0.18727586 0.19123287 -0.12660241
-0.24951416 -0.02955314 -0.061100855 -0.45456395 -0.24875236 -0.067872204 0.16842052 0.06377664
-0.16918243 -0.15768567 -0.17344213 0.12483525 -0.5503925 0.06554282 -0.0026188337 0.0010233067
-0.05269548 0.02643481 -0.34313896 -0.28519446 0.2221368 0.095839955 -0.028971434 -0.2092723
-0.29853702 -0.30797514 -0.11220203 -0.13264954 -0.020688394 0.1183493 0.011181575 -0.045644555
-0.22966264 -0.0067002783 -0.062123585 -0.0846102 0.09557472 -0.19311933 0.46682328 -0.08461419
0.20037399 -0.041702617 -0.144812 0.047600284 -0.15875962 -0.08714556 -0.29887143 -0.05431401
-0.2561531 -0.1347681 -0.10731369 -0.28946817 0.0031903444 -0.21659788 -0.41400033 0.06860366
-0.2141182 -0.29470536 -0.03519228 -0.0062123863 -0.1988907 -0.04731923 0.07429837 -0.2978848
-0.030084632 -0.24792968 -0.07308077 -0.039968528 -0.08834932 -0.05878661 -0.0557935 -0.08588205
-0.07253506 -0.052990545 -0.25016153 -0.086119466 0.022414692 -0.24707785 -0.13384534 -0.18195577
-0.15966336 0.19014458 -0.37306985 0.014776117 0.045450415 0.015517345 -0.17812517 0.044197172
-0.0071826256 0.061788626 -0.07820488 -0.21474063 -0.3861409 -0.18656288 0.124104686 -0.2584371
-0.16898477 0.066474795 -0.020670002 -0.23698905 -0.0333252 -0.21254885 -0.3307888 -0.15474175
0.012122627 -0.07553296 -0.18266112 0.09756638 0.08628015 0.00043642637 -0.18315168 -0.060211506
0.03125333 0.059194606 -0.048309445 -0.17510673 -0.083305314 0.08153726 -0.03250501 -0.16629367
0.049091224 -0.039629176 0.015170556 -0.33417925 0.028801868 -0.23624012 -0.21950373 -0.07499562
-0.02291492 0.02378247 -0.05461138 -0.08106325 -0.006855632 0.022727957 0.023554815 0.063725196
0.023777988 -0.120898984 0.075557426 0.11162956 -0.11930688 -0.06374982 -0.12319382 -0.10535722
-0.04888331 -0.12304528 -0.0614435 -0.11009395 -0.14909203 -0.22417966 0.013627181 -0.004203721
-0.07184636 -0.23549086 0.050563812 0.16406107 -0.0004493125 -0.12017013 -0.019551363 0.028966608
0.15014245 -0.050459858 0.035155207 -0.05024447 0.04467791 -0.047108192 -0.22772539 -0.18040587
0.073730126 0.061557077 -0.033776835 -0.039786678 -0.07409776 0.058878385 -0.0419109 -0.007016323
0.056530647 -0.10758956 0.064609796 -0.09869175 0.10970681 -0.029514614 0.06640435 0.103661984
0.013002796 -0.17606008 -0.14342736 -0.04294001 -0.021931313 -0.08862076 -0.052529596 -0.050957307
0.024550587 0.05761388 0.294436 -0.022240367 -0.039707657 0.06106445 -0.13461328 0.07147389
0.07120269 -0.11408727 -0.0534755 -0.100532435 -0.07502842 0.11115938 -0.082518145 -0.1729225
-0.14063995 -0.05498477 -0.14577743 0.018270517 -0.10122281 0.01933728 0.00757599 -0.042042892
0.039526682 -0.13840987 -0.00078313885 -0.21424231 -0.013339027 0.009323261 0.033981185 0.030272208

bias f4 [128]
00000000: 214f 78bd 3884 163e 0cc5 cfbd a341 8ebd
00000010: 2cf7 2b3d 9903 3f3e 5e49 9dbd 2190 03be
00000020: 706f 0abe 2938 5a3d c877 54bd 760d 4b3e
00000030: fcd1 883e 8b60 633e a310 163e 9d78 f73c
00000040: db5a 203e 9e5c bb3c 9192 b73d 2cb5 10bd
00000050: cb32 083e d98b cdbd 3588 593d 6e54 053e
00000060: bc10 6a3d ba8d b13d 8a81 b63d 114d cfbd
00000070: f606 3a3d 3666 2a3c ce2a 3a3d 7790 cfbd
00000080: cf16 7e3d 966c 4fbd d924 88bd 4d69 803c
00000090: 2848 8ebd 3e10 90bd 24b1 7ebd 9965 02be
000000a0: 6948 3d3d 3353 8c3d fd37 d4bd 24eb 1d3c
000000b0: 99c4 f0bd c876 07be afeb 873d 9c34 c23d
000000c0: 8032 c43d 5382 0ab9 175c 083e 1969 1e3e
000000d0: 751d b23d 0682 bb3d 023a a8bd c714 02be
000000e0: 0b39 fdbd 6956 7abc a41a 20bd 525f b53d
000000f0: affd 0abb 8ddd c3bb 3d46 35bd f4f5 3abd
00000100: 3c71 7a3e 2237 db3d 7d89 263c 52fe 55bd
00000110: 4b83 ccbd b350 313e 60c7 0bbe f79b 0fbe
00000120: 0db8 ca3c 4c0e 933c ab3b 3b3e c8b9 08be
00000130: 2d6b 013e 7e74 883c 78b7 3ebc cd73 cebd
00000140: 59b0 acbe e99b 203d 6849 60bd 30e9 17be
00000150: 156c c9bd 4453 eebd 42ad d1bd 6874 62bd
00000160: 3043 543d 8cc1 ac3d 3567 38be 06e3 503b
00000170: 6d16 34bd 9018 dcbd 6d52 20be 7e12 e83d
00000180: 1f34 4cbc ddd4 c4bd 84ae b0bd 2e29 033e
00000190: f16d a5bd 49f9 8abd 3d30 d63d 1f67 0bbe
000001a0: 9aed e7bd 885f 10bd 442d e0bd 70c0 d8bd
000001b0: 12e9 16be 667b b23d 83c4 c23b c239 ba3d
000001c0: 1354 e93d 6a31 bd3d d8f4 c4bd 06e6 123e
000001d0: c928 fa3d 87f8 29bd 2d2a d9bd 393a 4abc
000001e0: b67a 77bd 6178 2d3d 4500 10be 0ff3 31bd
000001f0: 1d7d b53d 15ab df3d abb5 3cbc 5cea 02bd
-0.06062234 0.14698875 -0.101450056 -0.06946113 0.04198377 0.18653716 -0.07680009 -0.1284795
-0.13519073 0.053276215 -0.051872045 0.19829354 0.26722705 0.22204797 0.14654784 0.03020888
0.15659659 0.022871312 0.08963502 -0.03532903 0.13300626 -0.100364394 0.053108413 0.13020489
0.057144865 0.0866961 0.08911426 -0.10122121 0.045416795 0.010400346 0.045450978 -0.10134976
0.06203347 -0.050640665 -0.06647653 0.015675211 -0.069473565 -0.07034348 -0.062180653 -0.12734069
0.046211634 0.068518065 -0.103622414 0.009638581 -0.11756248 -0.13228905 0.0663675 0.09482691
0.095799446 -0.00013209255 0.1331638 0.15469779 0.08697025 0.091556594 -0.08214189 -0.12703238
-0.12364396 -0.015279391 -0.039087906 0.088560715 -0.0021208336 -0.0059773386 -0.044256438 -0.045644715
0.24457258 0.10703875 0.010164616 -0.052244492 -0.0998598 0.1731594 -0.13650274 -0.1402434
0.024745965 0.017951153 0.1828448 -0.1335212 0.1263854 0.01665711 -0.011640422 -0.10080681
-0.33728293 0.039211188 -0.054757506 -0.14835048 -0.09835068 -0.116369754 -0.102381244 -0.055286795
0.051821887 0.08435354 -0.1800812 0.0031873598 -0.0439667 -0.107468724 -0.15656443 0.11331652
-0.0124635985 -0.09610913 -0.08627036 0.12808678 -0.0807761 -0.067858286 0.104584195 -0.13613556
-0.11324616 -0.035247356 -0.10946134 -0.105835795 -0.14737347 0.08714943 0.005943836 0.09093048
0.11392989 0.092379406 -0.09617013 0.1434556 0.122148104 -0.04149678 -0.106037475 -0.012342983
-0.06041976 0.04235113 -0.14062603 -0.04344469 0.08861754 0.10921303 -0.011517922 -0.031961784
