nerf_models/torus1.pth (torch, 646074 bytes, 22 tensors)

weight f4 [128, 63]
000000 27 e0 79 bd 5c 6b 7d 3d 98 fa 48 3b b7 93 b0 be
       -0.061004784 0.061869964 0.0030666944 -0.34487697
000010 a0 d2 31 3e 59 15 a1 3e f8 57 fa be 71 25 73 3c
       0.17365503 0.314616 -0.4889524 0.01484047
000020 c1 34 81 be a2 c6 81 3e 53 8f b8 3e e5 c7 ee 3d
       -0.2523556 0.25346857 0.36046848 0.116592206
000030 83 15 b8 be ba 0e d2 bd 74 76 e5 3d 5e d7 84 3d
       -0.35953912 -0.10256715 0.11204234 0.064863905
000040 69 9a 9e 3d 63 77 b1 3c 30 f0 20 3e bb 2d 97 3b
       0.07744295 0.021663373 0.15716624 0.004613606
000050 f0 fe 22 3d b4 bc 87 bd b0 84 37 bc 38 e2 22 be
       0.03979391 -0.06627789 -0.011201069 -0.15906608
000060 0f 28 06 3c e3 ef 0a 3a 69 e0 3e 3d 60 e0 03 3d
       0.008188262 0.0005300028 0.046600733 0.032196403
000070 6d 33 2f bc a9 49 b5 bd b1 9b 34 bd 7f 38 b2 bd
       -0.010693413 -0.0885194 -0.04409379 -0.08702182
000080 13 3d f0 3b 09 b0 ac bc 1d da 8a 3c fb 4f 19 3d
       0.0073314994 -0.021080034 0.016949708 0.03742979
000090 b6 0c cf bc fd 8b 6a bd 7d 31 de bc 8c fd 87 bb
       -0.025274616 -0.05726241 -0.027123207 -0.004150098
0000a0 df 3f 27 3d 8b 69 b7 bd 21 2c a4 bc 10 86 09 3d
       0.040832397 -0.089556776 -0.020040574 0.033575118
0000b0 c8 3c 92 bd 68 73 0d 3d 47 bf 54 bd ce 00 0b bd
       -0.07140499 0.034533888 -0.05194023 -0.033936314
0000c0 3e 5f ba 3b 6b 5b 2d 3c 50 e8 7c 3c bd 61 05 be
       0.0056876233 0.010580878 0.015436247 -0.13025565
0000d0 5c 34 9a bd 00 f1 7b 3d fd 53 2a 3d 13 d5 99 bd
       -0.07529518 0.061509132 0.041584004 -0.07511344
0000e0 cf 53 99 bc f9 9c 6c bd 75 4a 6d 3d f3 59 e8 3c
       -0.01871672 -0.05776689 0.057932336 0.028363204
0000f0 9e c2 0b bb d4 17 11 3d fd 2f 06 bd cf 49 cb 3d
       -0.0021325718 0.035423115 -0.03276061 0.09926187
000100 88 b0 8b 3d 6a 90 c3 bd 61 63 d7 3e 1c b0 86 3e
       0.0682078 -0.09549029 0.42068008 0.26306236
000110 03 14 ab 3d e8 83 1f be 00 73 7e bc b2 72 5c bc
       0.08353426 -0.15577662 -0.015530348 -0.01345508
000120 46 f2 45 3e f0 96 85 bc 6d d8 54 3d e4 1a 95 bd
       0.19330701 -0.016307324 0.051964212 -0.072805196
000130 d7 bb 12 3d f8 ab 74 be ff e7 e6 3e 95 b1 46 3e
       0.03582367 -0.23893726 0.45098874 0.1940368
000140 29 18 23 be ad 36 08 3e 72 9b 34 3e 25 4f e6 3d
       -0.15927185 0.13302107 0.17637423 0.11245564
000150 6f 6a de 3c 52 c1 f3 b9 30 38 cb 3c 1b a8 c4 3d
       0.02715036 -0.00046492607 0.024807066 0.09602376
000160 d8 b8 c0 3c 85 e2 f3 3b 2a 41 41 bd 21 ca fb bb
       0.02352564 0.0074427747 -0.047181286 -0.0076840078
000170 72 c5 b1 3c ed eb 11 bc 64 c8 a6 bc 19 30 13 bd
       0.021700595 -0.008906347 -0.020359226 -0.03593454
000180 fc 0d e3 bc 62 0d 58 3c a0 02 54 bc cc b9 b3 3c
       -0.02771663 0.013186784 -0.012940079 0.02193918
000190 60 ab 88 bc c2 9b 87 bd c8 60 c3 3b e8 21 ae 3a
       -0.01668328 -0.06621505 0.005962465 0.0013285251
0001a0 57 21 9d 3d 41 cd 76 3d 28 d3 57 bb 80 44 d9 3d
       0.07672375 0.06025434 -0.0032932255 0.106087685
0001b0 eb 84 98 bc a7 b0 00 3e a8 3c 25 3d e2 d2 13 3d
       -0.018618068 0.12567388 0.04034105 0.036089785
0001c0 5c 4a d5 3d 49 12 7e bd 66 54 37 bd df 58 97 3c
       0.104145736 -0.062029157 -0.044758223 0.018474994
0001d0 68 f8 32 3c 8d 6b be bc 56 a3 3e bd d8 aa a4 3d
       0.0109234825 -0.023244644 -0.046542488 0.08040398
0001e0 51 2e 5a 3d 0e f8 e1 bd 41 e6 0b bc ed f2 94 bd
       0.053266827 -0.11033641 -0.0085387835 -0.07272897
0001f0 56 d2 a3 bd 70 02 68 ba 4d 54 ed bd 95 74 2a be
       -0.07999103 -0.0008850461 -0.11588345 -0.16646035
000200 f5 15 02 be 06 40 98 3e 46 02 16 3f 4d 39 84 be
       -0.12703688 0.29736346 0.5859722 -0.25824967
000210 09 e5 9c 3e ab c9 c1 be a2 ab 8a be 18 c8 cb 3e
       0.3064349 -0.37849173 -0.2708407 0.39801097
000220 aa c5 cb 3d a1 3b 95 be 46 35 e5 3c 31 62 17 3b
       0.09949811 -0.29147056 0.027979504 0.0023099298
000230 0d 0b 78 bd 28 93 71 be 08 6c 27 bd b6 e2 60 bd
       -0.060557414 -0.23591292 -0.04087451 -0.05490371
000240 87 08 94 3d 1b 32 02 3b eb 29 d9 bd 19 01 cc 3d
       0.07228189 0.001986629 -0.10603698 0.09961147
000250 cc 46 c5 bd e1 fe 08 3d 58 65 78 bc fd ef 81 bc
       -0.09632644 0.033446196 -0.015160881 -0.015861506
000260 22 44 b1 bc dd fb 91 3c a2 44 61 3c 05 3b 7a 3c
       -0.021638934 0.017820293 0.0137492735 0.01527286
000270 93 da 27 bd 8f 4d 1a bc f1 84 cb bd 2a 42 86 3d
       -0.040979933 -0.0094179055 -0.09937466 0.065555885
000280 2a 53 b8 3c c5 74 ad bd e3 cc 75 bc 9d f9 4f bc
       0.022500593 -0.08469538 -0.015002462 -0.01269379
000290 b9 bd 21 bc 60 7f b2 bd 47 f7 0b bc 1b a5 25 3d
       -0.009871894 -0.08715701 -0.008542842 0.04044066
0002a0 98 c4 32 bd 42 6d 68 bd ac 2b 62 3d 99 76 94 3d
       -0.043644518 -0.05674482 0.05521743 0.07249183
0002b0 ee 4b 25 39 61 f6 39 3d cd 74 3b 3d dc 82 c4 bb
       0.00015763912 0.04540098 0.045765687 -0.005997045
0002c0 e9 e3 1e 3a 08 d7 52 bd 43 83 4d bc 13 d9 c4 3a
       0.0006061183 -0.0514746 -0.012543502 0.0015018306
0002d0 71 2a 9d bd 3b 47 e4 bc 58 f8 67 3d 86 0a 83 3a
       -0.07674111 -0.027865997 0.056633323 0.0009997643
0002e0 05 c9 6c bb d4 8f 43 bc 31 d3 83 3d 7a 5e d6 bc
       -0.003613056 -0.011936147 0.06436766 -0.026168097
0002f0 bd 47 48 bc e6 62 25 3d fe 32 5b bd 97 7c 9f bd
       -0.012224135 0.04037752 -0.053515427 -0.077874355
000300 20 0f 9b be 91 ba c4 be c3 e6 f1 bd 59 0d d5 be
       -0.30284977 -0.3842359 -0.118115924 -0.41611746
000310 90 85 4c bf f8 79 0e be e7 19 60 be ad 4a 8a 3e
       -0.798913 -0.13913715 -0.21884881 0.27010098
000320 ee 5e c1 3d 57 81 3e 3e c4 71 32 be 62 41 1f be
       0.094419345 0.18604027 -0.1742621 -0.15552285
000330 15 6c 4f 3d 80 91 79 bd 4f 93 ed 3d a4 02 cb bd
       0.050640184 -0.060929775 0.116003625 -0.09912613
000340 a4 74 75 3d 2a c6 50 3e d0 5b 47 bd d8 12 ab 3d
       0.05992569 0.20388094 -0.048671544 0.083532035
000350 d2 54 53 bc 02 39 4b 3c 81 05 0f bd 18 13 d5 3c
       -0.012898641 0.012403728 -0.03491736 0.026010081
000360 47 a3 fe 3c df 2a 79 3d e5 7a 1b bd da d9 96 3c
       0.031083716 0.0608319 -0.037959 0.018414427
000370 7c 20 1f bd 04 38 11 bd f2 7d ff bc ab f6 3e 3d
       -0.03884934 -0.03545381 -0.031187985 0.04662196
000380 57 4d 22 bd 1c cf 81 bc 3f 48 43 3d 19 37 67 3d
       -0.03962454 -0.015845828 0.04767632 0.05644903
000390 8f fe 70 bd ac c0 47 bd 24 28 19 bc 99 7b 08 3a
       -0.058836516 -0.04876773 -0.009347949 0.0005206406
0003a0 21 a6 ec bc d3 96 0c bc d8 e7 10 bd 3f 69 1e bd
       -0.02888781 -0.008580881 -0.035377353 -0.03867459
0003b0 e1 a2 a6 3c 35 ce cb 3d e6 a3 1b 3c 82 4e 75 bd
       0.020341339 0.0995144 0.009499526 -0.059889324
0003c0 0d a1 17 3d 4f 1f d3 3c 27 28 2c bd 9b 66 e8 bc
       0.037018824 0.025771765 -0.04203048 -0.028369239
0003d0 de f9 b4 bb 10 71 ec bc d7 ad 43 3d 1f 7e 22 bd
       -0.0055229506 -0.028862506 0.04777321 -0.03967106
0003e0 b3 6c f0 3c 17 f9 24 bd 5b 8b a2 bc 68 2f 1b bd
       0.029348707 -0.040276613 -0.01984184 -0.037887007
0003f0 81 bd 32 3d ce e5 b6 3d c6 4c dd 3c e6 ff 63 be
       0.043637756 0.089305505 0.027014147 -0.22265586

bias f4 [128]
000000 80 b0 7d bd e4 58 8a be b5 4b 92 be e0 1c 90 bd
       -0.0619359 -0.27020943 -0.28573385 -0.070367575
000010 da ee b2 bc 04 8b 99 3d 00 81 44 be fd 08 0a 3d
       -0.021842409 0.07497218 -0.19189835 0.03369998
000020 99 83 8d be c5 14 d0 be 9f ed 1f bd e7 42 94 be
       -0.27639464 -0.40640846 -0.039044973 -0.28957292
000030 82 e3 80 be 27 9a 36 be 68 df de be 17 3e a8 bc
       -0.25173575 -0.17832242 -0.4352982 -0.02053742
000040 c7 62 91 be 37 83 99 be e3 1c b2 be 33 67 80 be
       -0.28395674 -0.2998292 -0.34787664 -0.25078735
000050 ea fe 98 be 7e 76 3d 3e aa e9 dc be 48 1a 9e be
       -0.29881984 0.18502232 -0.43147022 -0.30879426
000060 27 9b 7a be 85 e0 8d bd 40 df 7f be 86 26 43 be
       -0.24473248 -0.06927589 -0.24987507 -0.19057664
000070 0c 7a 1a be 21 f6 a7 be 9f 18 a0 be 83 1e 88 bd
       -0.1508562 -0.3280497 -0.31268784 -0.06646445
000080 ee 70 47 be af 1e 02 3e 2e 7b ac be 90 a8 80 be
       -0.19476673 0.12707017 -0.3368773 -0.25128603
000090 a6 05 f8 bd b9 fd d9 bd f3 14 02 bf 80 68 ad be
       -0.12110452 -0.10644097 -0.50813216 -0.3386879
0000a0 8b 42 da bd 74 6b ac be 26 11 ba be b5 ad b1 be
       -0.10657223 -0.3367573 -0.36341208 -0.3470284
0000b0 a2 ab 1c be 9b 0f 78 be 02 e8 30 3e 97 ce 21 be
       -0.15299848 -0.24224703 0.17276004 -0.15801464
0000c0 01 d7 4e be ef ee a1 bc d2 17 96 be 91 ca 59 3c
       -0.20199205 -0.019767253 -0.29315048 0.0132929245
0000d0 bf e2 4c be db b7 9a be 57 99 3f be ba a3 04 be
       -0.20008372 -0.30218396 -0.18710838 -0.12953082
0000e0 6d 55 a5 be fb 6a e1 bc 82 b7 af be 49 84 e4 be
       -0.32291737 -0.027516833 -0.34319693 -0.44632176
0000f0 34 1e bc 3d 12 a1 d7 bd 9a 54 e8 be 74 cd 83 be
       0.09185448 -0.105287686 -0.45377046 -0.25742686
000100 52 ec 03 be 5c e5 5f be 1f b6 c7 be f3 0d bf 3d
       -0.12883118 -0.21864837 -0.39006135 0.093288325
000110 8e ba d7 3c 4b 68 6c be d1 0f bc be fe a3 c1 be
       0.026334073 -0.2308666 -0.36730817 -0.3782043
000120 ff 7c 2a bd 27 fa 75 be 93 e9 36 be 28 4f ab be
       -0.04162311 -0.24021207 -0.17862539 -0.3345883
000130 e0 4e 37 be 08 2a a7 be 32 70 71 be bd 10 68 3d
       -0.17901182 -0.32649255 -0.23577955 0.056656588
000140 bb 42 bb be eb 9d 86 be d7 ef 9f be ee 03 1f be
       -0.3657435 -0.26292357 -0.3123767 -0.15528843
000150 be 3b b5 be b8 1b 17 bd c9 0d a4 be 57 d2 c7 bd
       -0.35397142 -0.03689167 -0.32041767 -0.09756916
000160 48 79 1c be be 47 47 be a2 73 16 be 24 d5 6f be
       -0.1528064 -0.19460961 -0.14692548 -0.2342115
000170 96 ec 50 be 5e 4f 8f be cb 47 b9 be 95 b7 a8 be
       -0.2040275 -0.2799024 -0.36187586 -0.32952562
000180 3e 97 7d 3c 69 19 1b be 94 45 53 bd 5c a8 6c be
       0.0154779535 -0.15146412 -0.051580027 -0.23111099
000190 08 95 11 be da e3 21 be 9d 89 f2 3c 8b 06 80 be
       -0.14217007 -0.15809575 0.029606635 -0.25004992
0001a0 76 f8 80 be f9 07 b5 be 6b 6e 0c be b7 c9 72 be
       -0.2518956 -0.35357645 -0.13713996 -0.2370976
0001b0 ab de 48 be 3c 42 aa be df c6 36 be ad 26 87 be
       -0.19616191 -0.33253658 -0.17849301 -0.26396695
0001c0 da fd 4b be f5 89 85 be 8f 5f a4 bd 84 b2 9b be
       -0.19921055 -0.26081815 -0.08026039 -0.30409634
0001d0 9f e6 54 3d 20 81 dc bd 2e 1a 38 be bd ca b8 be
       0.05197775 -0.10766816 -0.17978737 -0.36092177
0001e0 f7 cf b2 be 19 1c c5 be 4c c5 f5 bd 3c 48 0b be
       -0.3492429 -0.38498 -0.12000522 -0.13601774
0001f0 64 40 c1 bd 0e 80 b9 be 09 4b 3a 3b 19 68 b9 be
       -0.0943611 -0.3623051 0.0028426072 -0.36212233

weight f4 [128, 128]
000000 2f 97 10 3c 7b f7 bd 3d 7e 19 90 3d d3 d8 ca bc
       0.0088251075 0.09275719 0.07036112 -0.024761593
000010 66 44 21 be 5e 00 fe 3c 6f b7 14 3e ea 57 25 be
       -0.15748748 0.031006034 0.145231 -0.16146818
000020 62 34 1a 3e 16 90 4a be cd 38 30 bc 69 5d 06 bc
       0.15059045 -0.19781527 -0.01075573 -0.008200982
000030 f6 2b 95 be 61 7c 75 3d 83 2f ba 3d fd 1e 36 be
       -0.29135102 0.05993307 0.090910934 -0.17785259
000040 d7 65 a8 3d 1f b3 26 be 2e 19 8d 3d 9e 13 91 3b
       0.082225494 -0.16279267 0.06889568 0.0044273874
000050 8e dd be 3d 45 8d 81 be a1 1a a7 3c 15 42 ab bd
       0.09319602 -0.25303093 0.02039844 -0.083622135
000060 ff 86 0c bc a9 48 98 bb 03 46 12 3d 9c 63 1c 3d
       -0.008577107 -0.0046473336 0.0357113 0.038180932
000070 09 85 8e be 28 68 65 bc b7 28 93 3d dc 81 1c 3e
       -0.27835873 -0.014001884 0.071855 0.15283912
000080 5e 37 52 3d ec e4 6a be c9 d7 00 3e 92 97 d5 3d
       0.051322334 -0.2293889 0.12582316 0.104293
000090 8a 91 76 bd e0 07 02 be fb 51 50 be 11 99 a2 3d
       -0.06019739 -0.12698317 -0.20343773 0.07939351
0000a0 c8 0e 34 3d 60 36 cb 3c a6 72 17 3d a9 86 4e be
       0.04395941 0.024806201 0.03697457 -0.20168556
0000b0 aa fe 85 3d c5 f0 a7 be 39 e4 46 be 91 e5 39 3e
       0.06542714 -0.3280088 -0.19422998 0.18153979
0000c0 2c f1 5f bd 28 c1 8a bc 11 82 97 bd 6d 58 0b be
       -0.05467336 -0.016937807 -0.07397855 -0.1360795
0000d0 6c 66 36 3e 60 87 a7 be 8d 71 2b be 12 96 f9 bd
       0.17812508 -0.3272047 -0.16742535 -0.12186827
0000e0 92 34 31 be 62 8a d9 3c 8f f3 d5 be 6d f4 9e 3d
       -0.1730521 0.026555244 -0.41787383 0.07761464
0000f0 3e af 35 be 95 9a 82 3c 86 4d 4f 3e c8 6a 8b 3d
       -0.17742631 0.015942851 0.20244417 0.06807476
000100 26 09 86 bd f8 2f 91 3d 45 bf 01 bf b5 57 22 be
       -0.06544714 0.070892274 -0.5068248 -0.1585377
000110 5c af 36 3e 6c fe 50 3d f6 e3 23 bd d0 19 8b bd
       0.17840332 0.051023886 -0.040012322 -0.06792033
000120 24 a3 bb 3b d6 7f ef 3d 72 8c 14 3d bd ec 8d 3d
       0.005726235 0.11694305 0.03626675 0.0692992
000130 5c 0e 26 3e 67 f9 b1 3c 05 ac 8c 3d 55 16 38 3e
       0.16216415 0.02172537 0.068687476 0.17977269
000140 08 dc 7c 3d b0 0a 9b be 61 9e 02 3e 46 54 a7 bd
       0.061733276 -0.3028159 0.1275573 -0.08170371
000150 ca 6f 93 3d bb 8f 95 3d 2d 1e bc bd cf 13 33 be
       0.071990564 0.07302805 -0.09185443 -0.17488025
000160 0d 59 17 3e b5 cd 82 3d 7a cd fb 3d f8 bc 48 be
       0.14780064 0.06386892 0.12295051 -0.19603336
000170 97 03 cc 3c 66 fd 06 bf 8a 80 2a bd 7b 38 9f 3d
       0.024904056 -0.52730405 -0.04162649 0.07774445
000180 8e fc 4b bb 0f 5b a1 3d 34 66 92 bd fe 2d ec bd
       -0.0031125876 0.07878696 -0.071484 -0.1153221
000190 44 8f dd be 69 44 37 3b e8 17 d4 bd a9 25 86 3d
       -0.43273365 0.002796436 -0.10356122 0.06550152
0001a0 f4 d4 1a be 7d 0a 1d 3d 27 c0 8a 3d 8b 58 e6 bd
       -0.15120298 0.03834008 0.067749314 -0.11247357
0001b0 06 cf eb bd 68 80 a4 bc 9a 19 f0 bb 2c 84 fb 3d
       -0.11514096 -0.02008076 -0.0073272707 0.12281069
0001c0 cc cb 42 be 87 eb 0f 3e d8 05 28 be c1 dd 54 bd
       -0.19023055 0.1405469 -0.16408479 -0.051969294
0001d0 d3 ba da bc 4b 6a 05 3c a8 b1 29 ba cf 7d ae be
       -0.026700413 0.008143018 -0.0006473311 -0.3408036
0001e0 61 13 67 bd 3a d8 1e bd a6 b2 7b be d9 86 b8 bd
       -0.056414966 -0.03878043 -0.24579868 -0.09010095
0001f0 90 35 1f 3c 95 66 8d be 05 21 e5 3d ac 20 62 3c
       0.00971736 -0.27617326 0.111879386 0.013801735
000200 f2 53 d0 bd 9f af f1 bc f8 40 bc 3d 87 47 bd 3d
       -0.10172261 -0.029502688 0.09192079 0.092421584
000210 65 23 92 bd 50 10 a4 be fd 3f 70 be 2c e8 d1 3c
       -0.07135657 -0.32043695 -0.2346191 0.025623403
000220 d9 bf 0e be 30 52 0a be e2 05 17 3e 44 42 1b 3e
       -0.13940372 -0.13507915 0.14748338 0.15161997
000230 9c 50 ec bd 2a ca 80 bc 13 76 01 be 92 d4 d1 3d
       -0.115388125 -0.0157214 -0.12642698 0.10245623
000240 13 fd 15 bc 29 e7 2e be c9 b2 9d bd 7d f6 9e bd
       -0.009154576 -0.17080368 -0.07700116 -0.07761858
000250 d9 7a 39 3e 45 72 06 3d 26 b9 39 be 10 5a c5 bc
       0.18113269 0.03282382 -0.18137035 -0.024090797
000260 f1 92 a4 3d 1d fd 2f 3b 66 1b 73 3d 5b bc 7a 3c
       0.08035839 0.0026853748 0.0593523 0.0153036965
000270 d0 a9 77 be 73 fc 9f bb 59 2d fb 3d 08 38 fe 3c
       -0.24185872 -0.004882389 0.12264509 0.031032577
000280 29 95 c9 be dd 42 10 3e da 1d dd 3c 3a bd 7f bc
       -0.39371613 0.14088006 0.026991773 -0.01560908
000290 94 00 ce 3d e4 ec df bd dc 0c 09 be d8 01 5a 3a
       0.10058704 -0.10933855 -0.13383812 0.0008316315
0002a0 00 c4 87 3c 59 8b 5b be 85 63 24 bd 6d 57 a2 bd
       0.016572952 -0.21439876 -0.04013397 -0.079268314
0002b0 65 21 b3 be 5b 9d 0f bd 69 76 b2 3c 47 52 20 3e
       -0.34986416 -0.035062175 0.021784978 0.15656386
0002c0 c6 7a cf bd a9 27 e2 3d 8e 81 06 3e 81 8d 6c 3c
       -0.10130839 0.11042721 0.13135359 0.014438034
0002d0 b9 79 b8 bc 70 93 ff 3b 76 2c 97 be 05 bb 8f be
       -0.02251898 0.0077995583 -0.29526109 -0.28072372
0002e0 7c 8d 73 bd c4 fe 0f 3e dc 4b 4f 3d 3e 8a 9f 3d
       -0.059461102 0.14062029 0.050609455 0.077900395
0002f0 f9 bc 00 3e fa b9 0c be 0a 08 d5 bb c7 da 86 bd
       0.12572087 -0.1374282 -0.0065012025 -0.06584697
000300 02 4c 06 3e 99 1c 3d be e4 97 7a bd cf 10 02 3e
       0.13114932 -0.1846794 -0.06118001 0.12701724
000310 7f 29 90 bc 8e 29 e8 3d c8 21 96 be 70 a1 75 be
       -0.017597912 0.11336051 -0.29322648 -0.23987365
000320 aa c8 7d 3c 89 4a 34 be 08 0b e9 bd c3 1d 65 3c
       0.015489737 -0.17606558 -0.11379057 0.0139841465
000330 ce bc a0 3d 38 5b 6e 3c b7 c0 94 bd 6e 98 11 3e
       0.07848512 0.014548115 -0.0726332 0.14218304
000340 88 7d 7c 3d c2 1c 3d 3d e2 c4 85 bc f6 69 4f 3d
       0.061643153 0.046170004 -0.016329233 0.05063816
000350 1a 02 a8 be 0c 54 3f bd 9f 70 48 be 25 2f 97 be
       -0.32814103 -0.046711013 -0.19574212 -0.29528156
000360 40 3b b8 bc 31 de 85 3d e6 7b 4a be b7 4b b7 bd
       -0.02248919 0.0653652 -0.19773826 -0.08949988
000370 24 a3 bc be 80 65 b5 3d 43 44 a8 be 65 29 92 3d
       -0.36843216 0.0885725 -0.3286458 0.07136802
000380 d1 15 5c 3d a2 11 e1 bc 90 8e 08 3e 0e 8d 15 3d
       0.053731743 -0.027474228 0.13335633 0.036511473
000390 2a b2 93 3c 76 f0 2c bb 75 dc 40 bc b6 c0 34 3c
       0.018029291 -0.0026388443 -0.011771311 0.011032274
0003a0 89 03 4d 3e ae 77 27 be fc 00 e7 3d 47 34 9e bd
       0.2002088 -0.16354248 0.11279485 -0.07724815
0003b0 7b fe fe bc 8a a7 44 3d a4 9f 55 3e 4b 25 9a be
       -0.031127205 0.04801134 0.2086168 -0.30106577
0003c0 8e 42 06 3d 9f 38 81 ba 07 f4 84 bd 3f dc cc be
       0.032778315 -0.0009858793 -0.06491857 -0.40011784
0003d0 8f ba 7f 3d 25 3c 86 3d c0 79 79 bd 20 dc b6 bd
       0.062433776 0.065544404 -0.060907125 -0.08928704
0003e0 3e 91 b7 bc 76 db 81 be 74 15 d7 3d 87 9e a7 3c
       -0.022408124 -0.25362748 0.10502139 0.020461334
0003f0 ff b0 c5 3d 56 13 31 bc 2a 53 45 3d c2 d5 d9 bd
       0.096529 -0.010807833 0.048175015 -0.10636474

bias f4 [128]
000000 dd f2 8e be e4 a2 7e 3e c4 b2 98 bd 36 09 81 be
       -0.27919665 0.24866825 -0.07455972 -0.2520234
000010 bd ba aa bc cb 50 57 be 49 4a 0f bd 25 95 75 be
       -0.020840997 -0.21026914 -0.034982953 -0.23982675
000020 4b 9d ec bd 2a 1c 7b bd 6e b3 a8 3d 80 2b 7e 3d
       -0.11553439 -0.061306156 0.082373485 0.062053204
000030 39 de 1c be 29 8b 50 be 47 74 aa bd 73 c8 00 be
       -0.15319146 -0.20365585 -0.083229594 -0.12576465
000040 af 17 70 be 46 53 91 be a9 26 69 bd 30 ef 08 be
       -0.23446535 -0.28383845 -0.056921635 -0.13372493
000050 b3 7d a8 3c 56 be 81 be 42 11 1e bb f5 fe a6 bd
       0.02056775 -0.25340527 -0.0024119173 -0.08154098
000060 45 e8 0a be 7e 09 b2 3c 74 9b 42 3c 5b e6 f1 3b
       -0.13565166 0.021733042 0.011877883 0.007382197
000070 84 76 de bd 8e 42 18 bd 14 17 d1 bd fa cb 89 bd
       -0.10862449 -0.037172846 -0.1020948 -0.067283586
000080 34 81 3c be 84 4d 0c be 21 42 0a bc a2 44 44 3e
       -0.18408662 -0.13701445 -0.008438618 0.19166806
000090 f7 bb 46 be 10 7d 97 bd 21 69 31 3a 29 0d 14 3d
       -0.1940764 -0.07396901 0.00067676796 0.036145363
0000a0 f5 71 f7 3d 6b 36 24 3e a3 1d 78 bd 15 d8 b5 bd
       0.120822825 0.16036384 -0.06057514 -0.08879105
0000b0 42 1e 59 bc c3 5e 65 be 5f e7 83 be 06 b5 a9 bd
       -0.013251843 -0.2239943 -0.2576246 -0.082864806
0000c0 31 82 5d bd a6 74 2c bc 75 ef 87 be 54 1e 1d be
       -0.05407924 -0.010525858 -0.2654988 -0.153436
0000d0 0c 77 4a 3d 91 70 c2 3c 09 b2 93 3c d3 60 ed bc
       0.04942994 0.023735316 0.01802923 -0.028976833
0000e0 b4 fb bc bd ff a1 0f 3e a5 92 3a 3e d2 0e dd bd
       -0.09227696 0.1402664 0.18220003 -0.107938424
0000f0 f1 d4 80 be 71 6c 3c bd 0a ba 27 bd a3 16 0d be
       -0.2516246 -0.046001855 -0.040948905 -0.13778166
000100 82 ae 8e 3d 0a 96 80 be af 76 f3 bd 6b e2 81 3d
       0.069668785 -0.2511447 -0.118878715 0.06342014
000110 98 07 02 3c 30 4e 6a 3e 6e 6e 13 be c7 65 66 be
       0.007936381 0.22881389 -0.14397594 -0.22499762
000120 23 7d 45 be ab 29 6f be e6 26 21 3d 91 f6 89 3d
       -0.19286017 -0.23355739 0.039343737 0.06736482
000130 d4 68 eb bd f5 50 a6 3d a1 9a 0c 37 8c 42 f6 3d
       -0.11494604 0.0812091 8.380653e-06 0.120244116
000140 86 c2 2b 3e 21 86 fa bd 9d ca fc bd 8e 97 53 be
       0.16773424 -0.12232614 -0.12343333 -0.20663282
000150 a8 bc 34 be d1 da 03 bc 2a df 48 be 8a b4 de bd
       -0.17650092 -0.008047775 -0.1961638 -0.10874279
000160 d4 d3 99 bc 07 2f d1 bd 1b 31 8b 3d 16 d1 d8 bd
       -0.018777765 -0.10214048 0.067964755 -0.10586755
000170 8a e5 b3 bd 91 ef 6e 3d 89 98 34 be dc 26 81 be
       -0.087840155 0.058333937 -0.17636313 -0.2522496
000180 7a 40 e7 3b f4 3a 4a 3d 9f d0 77 be c2 58 44 3a
       0.0070572468 0.04937263 -0.24200676 0.00074900326
000190 6f 33 ae 3d d8 a4 36 be 65 c2 48 bd f8 78 bc bd
       0.08505904 -0.1783632 -0.049013514 -0.092027605
0001a0 35 2e f3 bd c5 a8 c7 bd e5 d6 84 bd be 6b a4 bc
       -0.11874048 -0.09748987 -0.064863004 -0.020070907
0001b0 81 ce cd bd 7e 78 e6 3d 88 47 0e be df fc c4 bd
       -0.10049153 0.11253451 -0.13894475 -0.09618544
0001c0 d0 98 90 be 46 bc 35 be 22 99 86 bd c5 64 70 be
       -0.28241587 -0.17747602 -0.065721765 -0.2347594
0001d0 27 f1 b8 3a c3 00 82 bc c0 64 ac be 96 91 e5 bd
       0.0014109955 -0.015869504 -0.33670616 -0.11209409
0001e0 aa 43 1b bd 58 32 98 3c 79 f8 a5 bd 58 1a b0 3d
       -0.037906326 0.018578693 -0.08104033 0.08598775
0001f0 fd 93 80 be 1d 4a 04 be 65 8c ba 3d 04 54 05 3e
       -0.25112906 -0.12918897 0.091088094 0.1302033

weight f4 [128, 128]
000000 02 72 89 bc 6e 0d 82 bd 8e 7a 5e bd b1 a2 46 3e
       -0.016777996 -0.06350218 -0.054316096 0.19398
000010 c2 41 08 be ea 92 47 3c 86 ee 4b 3b 52 da c3 3d
       -0.13306335 0.012181023 0.0031117513 0.09563126
000020 38 cc 90 3b db 41 90 3b 2e c4 45 3d 88 92 8f bc
       0.004418876 0.004402382 0.048282795 -0.017525926
000030 df 47 13 bd 2d 96 14 be 61 51 2c 3d 99 e5 97 3b
       -0.035957213 -0.14510413 0.042069796 0.0046355245
000040 ac 9b 80 bb 18 b7 0e be 1f 4e 05 bd 78 32 6d 3d
       -0.0039248075 -0.13937032 -0.032545205 0.05790946
000050 41 bd 12 be 53 df ba bd e8 01 ea bd 7f 94 91 bd
       -0.14330007 -0.09124627 -0.11426145 -0.071084015
000060 2e 6f 81 3d 72 76 c7 3d 30 90 c7 bc b9 c3 74 3d
       0.06320034 0.097393885 -0.024360746 0.05975697
000070 ee 6f e6 3c 56 bd 24 bd 0e 1c d1 bc ac 82 03 3a
       0.028129544 -0.040219627 -0.025526073 0.0005016725
000080 9e 2b 45 3d 98 97 0d bd ac e0 81 bd 8c d8 22 be
       0.0481373 -0.0345684 -0.06341681 -0.15902919
000090 53 58 71 3d ac 5b ec bc 2c a9 07 bb 80 44 b7 bd
       0.058922123 -0.028852306 -0.00207002 -0.08948612
0000a0 ee 08 8a 3d 85 f4 0e be 81 7d 22 3d 3e af 8e 3c
       0.067399845 -0.13960464 0.03967047 0.017417546
0000b0 dd d6 9f 3c 5a 6a 59 bc e4 f3 b0 bc b6 4c 99 bd
       0.019511634 -0.013269985 -0.021600671 -0.074853346
0000c0 cc 35 34 3d 6d 2a 58 bd 32 b7 e5 bd d2 d2 bf 3c
       0.043996617 -0.052774835 -0.11216582 0.023415957
0000d0 7e 6a 7e 3d 2f aa 8e 3d 78 5f a3 3d 44 2e f5 bc
       0.062113278 0.06966054 0.079771936 -0.029929288
0000e0 ae e2 3e bd af 2e 1c be 9b d2 59 be 15 13 fd bd
       -0.046602897 -0.15252183 -0.21271746 -0.12357155
0000f0 76 00 4f 3d e4 d5 81 bc 86 9f 24 3e e6 c4 a9 bd
       0.05053755 -0.015849061 0.16076478 -0.082895085
000100 d1 12 11 be de 02 f4 3d 7b 19 0d 3d 71 c1 62 bd
       -0.14167334 0.119146094 0.03444813 -0.05536026
000110 25 e3 08 bd d2 2f 36 be d8 49 c2 bc 45 0e 89 bc
       -0.033419747 -0.1779168 -0.023716852 -0.016730437
000120 38 56 0b be 48 77 8f 3d d5 f2 16 3d 79 e7 49 bd
       -0.13607109 0.07005173 0.036852676 -0.049293015
000130 83 25 a8 bd 50 a2 1c bd 3e b3 99 bd c9 9c 5f be
       -0.0821028 -0.03824073 -0.07504891 -0.21837153
000140 21 c2 2a 3e 29 8c 8d be b7 1b 59 3e b2 8a 72 be
       0.16675617 -0.27645996 0.21201979 -0.2368572
000150 3c b0 4a bd e3 42 58 3e eb 70 57 3d c8 32 b4 bd
       -0.049484476 0.21119265 0.05259792 -0.08798748
000160 5c 29 ce bd 16 79 f6 bc a7 c7 0d 3e d8 cb 48 3b
       -0.100664824 -0.030087035 0.13845693 0.0030639078
000170 20 b4 c4 bd 90 0e cd bc 2c ae 00 be f1 d7 2e 3c
       -0.096046686 -0.025031358 -0.12566441 0.010671602
000180 2c cc dd 3d fe 7a 54 be 57 5a a2 3d 69 b9 e0 bc
       0.10829958 -0.20750043 0.07927387 -0.02743216
000190 d3 cb 35 bb 83 ce b8 bd f5 5f 9c bd fd 1a 09 be
       -0.0027739897 -0.09023764 -0.0763549 -0.13389201
0001a0 1a 0f af be e5 04 a1 be fa 0f 4d 3d 66 e4 0d bc
       -0.3419121 -0.31449047 0.050064065 -0.008660411
0001b0 0d 8c d4 bc a0 34 17 3e 78 9b 7e 3d 58 db a3 bd
       -0.025945688 0.14766169 0.062159985 -0.08000821
0001c0 56 d6 16 3e 3b 11 eb bc 33 59 59 3c c0 18 ed 3d
       0.147302 -0.02869474 0.013265896 0.11576986
0001d0 62 b4 f1 3d 87 87 e5 3c c6 d1 4f bd 7b 8a 99 bd
       0.118019834 0.028018726 -0.050737165 -0.07497116
0001e0 f0 14 d0 be 36 c9 af bd 76 7d 3a 3d ff c7 a2 bd
       -0.40640974 -0.085833 0.045529805 -0.079483025
0001f0 1f 3c ee 3c ac 5a 23 3e 59 95 cb bc 5d 1c 91 bd
       0.029081402 0.15952557 -0.024851488 -0.07085488
000200 00 13 c0 3d 62 ea 44 bd fa 7c 45 3c 11 95 40 3e
       0.09378624 -0.048075087 0.0120537225 0.18806864
000210 01 49 4a be c8 96 26 3e 3f 07 b3 3d bf c7 dd 3c
       -0.19754411 0.16268456 0.087416165 0.027072785
000220 bf ce 2f 3d 8c c6 11 be 84 68 91 bd e4 f3 52 3e
       0.042921778 -0.14235896 -0.07100013 0.2060085
000230 4e 22 3f 3e 3b 47 19 be eb ab 07 3e a0 2b b8 3d
       0.1866543 -0.14968579 0.13249175 0.08992696
000240 46 24 14 be 67 ab 91 bc 52 03 dc bc bc 29 4f bd
       -0.14466962 -0.017781926 -0.026857052 -0.05057691
000250 48 b9 dc 3e 8b 16 dc bd 65 c3 a9 3d 57 17 41 bd
       0.43110108 -0.10746487 0.08289222 -0.0471414
000260 60 1e 51 bc 2e 4c f4 3c bf e2 26 3e 1d 3c ca bc
       -0.01276359 0.029821482 0.16297434 -0.024686867
000270 35 47 9a bd 1d 97 61 3b 39 03 f0 3d c4 85 96 bb
       -0.07533113 0.0034422346 0.11719365 -0.004593583
000280 4b c2 0e 3e 7f 01 09 3e 37 53 a6 3e 82 79 30 be
       0.13941304 0.13379477 0.32485363 -0.17233852
000290 54 bf 54 bd 2d bb 6a 3e 41 dd 25 3e c9 a9 1b be
       -0.051940277 0.22922964 0.16197683 -0.15201487
0002a0 e3 a8 bf 3d 86 cc 8b bd cb 2a c0 3d d4 19 af bc
       0.093583845 -0.06826119 0.09383162 -0.02137462
0002b0 a1 24 6a 3e 51 56 a7 3d 72 37 ba be 4f c5 81 3d
       0.22865535 0.081707604 -0.36370426 0.06336462
0002c0 fa bb 29 be 35 06 20 be 5d 26 ce 3d ca f1 d9 3d
       -0.16575614 -0.15627368 0.10065911 0.10641821
0002d0 26 39 d9 bd db 19 de 3c 8d 51 cf 3d f2 ba 7e 3d
       -0.10606603 0.027111938 0.101229765 0.062190004
0002e0 a0 ef b4 3c f5 d6 52 be f2 43 f1 bb 07 47 43 3e
       0.022086918 -0.20589812 -0.007362836 0.19070064
0002f0 9f 68 a7 be d3 98 a1 bd a4 89 59 be 55 11 69 be
       -0.32697007 -0.07890477 -0.21243912 -0.22760518
000300 19 dd 37 be 71 b5 08 bf ec 58 8e bd 35 d8 7c 3d
       -0.17955436 -0.5340186 -0.06950554 0.06172963
000310 6d b9 f5 3b 77 b6 dd bd 80 cb d3 bc 3d 39 a4 bd
       0.007498911 -0.10825818 -0.025853872 -0.0801873
000320 ba 94 22 3d b4 6a ad bd 51 6d ee bd 04 95 93 3e
       0.039692618 -0.08467618 -0.11641944 0.28824627
000330 03 2b 70 3d 94 24 d9 bd 46 39 5b 3c fb 3b 93 bd
       0.05863477 -0.1060268 0.013380354 -0.07189175
000340 b4 70 5a 3d 91 ef 12 bd 0d 77 82 be 4f 90 20 be
       0.05333014 -0.035873 -0.25481454 -0.1568005
000350 d0 36 04 be 16 e9 d7 3d 70 a2 09 3c 9d 6c 1c bc
       -0.12911534 0.105425045 0.0084005445 -0.00954738
000360 99 ef b4 bd 5a 51 7d 3d da 8d 88 3d e7 22 9e bd
       -0.08834762 0.06184516 0.06667681 -0.07721501
000370 24 49 91 3b 66 5d 42 bd f4 b8 23 be f5 08 9b 3d
       0.004433768 -0.047452353 -0.15988523 0.07570068
000380 59 d8 52 bd 27 f5 75 be 04 e3 b1 be 5e 35 97 bd
       -0.051475856 -0.240193 -0.34743512 -0.07383226
000390 1c 6e 70 be f2 5f 39 be 62 9e 8f bd 49 11 05 bd
       -0.23479503 -0.18103006 -0.07012631 -0.032487188
0003a0 0f 5d dc 3d 57 79 3f bc 43 5a b3 be 38 0a 85 bd
       0.10759937 -0.0116866445 -0.35029802 -0.0649609
0003b0 0d 8e 97 3d 02 e6 44 3d b3 01 10 be 3f 7a 4c 3d
       0.07400141 0.048070915 -0.14063148 0.04992127
0003c0 a2 6b bd bc 2a 5c 4d 3c dc e4 35 3d 47 66 6a 3d
       -0.023122612 0.012534181 0.04440771 0.057226446
0003d0 aa 06 11 be 59 fd d5 bc 8a 5b 11 3c 0b e8 2d 3e
       -0.14162698 -0.026121782 0.008871922 0.16983049
0003e0 8a bf 4f be 69 4b 0f 3e 0e 15 af 3c 89 a4 71 bd
       -0.2028791 0.1399361 0.021372344 -0.058994804
0003f0 85 29 f3 be 2f 3d ee 3d 3c e2 39 3d b5 15 ff 3d
       -0.47492614 0.116327636 0.04538177 0.12455312

bias f4 [128]
000000 b9 3c a7 be 69 48 72 bc 90 f3 87 3d 99 85 69 be
       -0.32663515 -0.014787772 0.06638253 -0.2280487
000010 92 c9 1f be 7c 4d ce bd 0e c9 0c be b5 38 34 3e
       -0.15604237 -0.10073373 -0.13748571 0.17599757
000020 21 75 e5 bd 59 59 19 3e 93 64 fa 3d 59 d2 5e 3e
       -0.11203981 0.1497549 0.12226214 0.21759929
000030 d1 c7 fb bc 2d 80 b9 3d ed 4a 16 be c2 4c 55 be
       -0.030734928 0.09057651 -0.1467702 -0.20830062
000040 b8 e6 5b be bc d7 6a be 8b 62 4a be cf a8 4e be
       -0.21474731 -0.22933859 -0.19764154 -0.20181583
000050 c0 8e 1c be 95 63 79 be 57 f3 d0 3d 96 71 1e 3e
       -0.1528883 -0.24354394 0.102026634 0.15473017
000060 38 88 04 be 81 c5 93 bd 02 0e 5b 3c 12 9c 77 be
       -0.12942588 -0.07215405 0.013370039 -0.2418063
000070 3f 15 1c be a9 f2 c6 bd 82 b9 33 3d 72 6d 6d be
       -0.1524248 -0.097142525 0.043878086 -0.23186281
000080 db 73 80 3c a5 cd 9d 3c f1 d3 7b be 0a f4 06 be
       0.015680244 0.019263098 -0.24592568 -0.13179031
000090 b4 ce 98 bd 58 77 87 3e 0d af 28 be 6f a6 8c be
       -0.074613005 0.2645824 -0.16473027 -0.2747073
0000a0 78 ec f4 bd 70 30 40 be 82 ee 81 be bf db a9 3e
       -0.11959165 -0.18768477 -0.2537728 0.33175465
0000b0 78 0e c7 3d 62 b9 15 3e c0 a4 59 bd 43 56 1d 3d
       0.097195566 0.14621499 -0.053135633 0.038412344
0000c0 b5 62 f7 bc 04 24 81 3e e2 81 3e be 83 14 89 be
       -0.030198434 0.2522279 -0.18604234 -0.26773462
0000d0 21 8e 8a bd 39 3c 18 be a4 61 81 be b7 35 07 3d
       -0.0676539 -0.14866723 -0.25269806 0.03301021
0000e0 ba 46 0b 3d f7 2b 92 bd 11 df 1e bd b9 38 94 be
       0.034002997 -0.07137292 -0.03878695 -0.28949526
0000f0 98 e3 28 3d a7 68 92 3e 0d 95 2e be d9 76 49 bd
       0.041232675 0.28595468 -0.17049046 -0.049185608
000100 88 68 18 be 15 fc 81 3c d0 e3 56 be 83 1a e7 bd
       -0.14883626 0.015867272 -0.20985341 -0.112843536
000110 52 e0 89 bb 16 90 36 be 1b b8 70 be 8f ec 13 be
       -0.0042076493 -0.17828402 -0.2350773 -0.14445709
000120 3b 61 f8 3c 92 db 21 be a7 fd c7 3c 8d 95 f2 bd
       0.0303198 -0.15806416 0.024412943 -0.11844931
000130 a7 37 4a bd 46 57 3f be 0e 3d 6d bd 53 1d 21 be
       -0.04936948 -0.18685636 -0.057919554 -0.15733843
000140 d3 39 5c be 32 42 27 bd 6b 43 08 be 6c ff 0f be
       -0.21506433 -0.040834613 -0.13306968 -0.1406228
000150 0c 44 a5 3e 93 d5 24 3e 39 34 19 be de c1 fc bb
       0.32278478 0.16097097 -0.14961328 -0.0077135405
000160 f2 45 a2 be 56 fd 7e bc 41 ab 23 bd 27 e3 2a be
       -0.3169399 -0.01556333 -0.039958242 -0.16688214
000170 b3 7a 27 be 4b 22 87 be db 89 17 be 52 57 9f be
       -0.163554 -0.2639335 -0.14798681 -0.31121308
000180 ea 48 16 be 71 ae 9e bc 19 fa 92 be ee 74 cf bc
       -0.14676252 -0.01937029 -0.28706434 -0.025324311
000190 2f cf 67 be 0d 73 dc bd ec ef 71 be 3a 2e 3f 3e
       -0.22637628 -0.10764132 -0.23626679 0.18669978
0001a0 c6 ec 95 be a6 ec cb bd eb 5e 79 be aa 83 5f be
       -0.29282206 -0.099572465 -0.24352615 -0.2182757
0001b0 ce 38 67 be 88 18 70 3e 45 b8 5f 3e e5 07 c6 3e
       -0.22580263 0.23446858 0.21847637 0.38677898
0001c0 c6 4f 86 3d 93 1f c0 bd f1 86 49 bd 2b ee 3b bd
       0.06558184 -0.09381022 -0.049200956 -0.04588143
0001d0 16 89 3c be 75 8f 7e be 6b 2b ab bc 27 91 6c be
       -0.18411669 -0.24859412 -0.020894727 -0.23102246
0001e0 f4 a6 15 bd 0f f8 14 be 3a 71 8d be 98 d6 fd bd
       -0.036536172 -0.14547752 -0.27625448 -0.12394446
0001f0 c6 b6 35 3d ac bf 1c be 0c fb 48 be 8c c1 78 be
       0.04436376 -0.15307492 -0.19627017 -0.24292582

weight f4 [128, 128]
000000 7f 28 01 bd 87 19 74 bc 36 3f c7 3d 21 27 81 3c
       -0.03153276 -0.014898664 0.097288534 0.015765728
000010 ad e8 db bd d2 20 a7 3e ad d9 70 3c a0 3e fb 3d
       -0.10737739 0.32642227 0.014700335 0.12267804
000020 a1 1a 21 3e 77 8c 20 3d cf 91 63 bd e1 51 0f 3d
       0.15732814 0.039196458 -0.055558976 0.034990195
000030 a5 af e2 3a 9a 60 1c be f1 a2 1c 3e 42 c6 db 3d
       0.0017294778 -0.15271226 0.15296532 0.10731174
000040 f3 07 ae be 89 31 e0 3b 26 af ac be 0e b3 e3 be
       -0.3399044 0.0068418426 -0.33727378 -0.44472545
000050 c5 c3 87 3d b5 ca 8b bd bd 73 f8 bd a5 38 14 3e
       0.06629137 -0.06825773 -0.1213145 0.14474733
000060 64 46 a5 bd 7d 2e 52 bd ef c5 af bd 85 41 62 bd
       -0.080700666 -0.051313866 -0.08582675 -0.055238266
000070 fe a9 03 be 20 73 44 3e f0 d0 51 bd 65 e7 b2 bd
       -0.12857816 0.19184542 -0.05122465 -0.08735541
000080 80 0e b3 bc 92 0f 62 3e 36 db 76 be 5f 59 41 be
       -0.0218575 0.22076252 -0.2410706 -0.18881749
000090 c8 bb 99 bd f4 a9 00 3e 8c a8 8b bd a1 b3 4b be
       -0.075065196 0.12564832 -0.06819257 -0.19892742
0000a0 10 99 f0 bd 0c e6 b4 3d 9b a0 2d be 7b 16 0b 3e
       -0.11747944 0.088329405 -0.16955797 0.13582794
0000b0 0d af 6a 3d 96 d5 fa 3c d9 ad a4 bc e7 4d cf 3c
       0.057295848 0.030619424 -0.020102428 0.025305701
0000c0 6a e5 8a be 91 1b 3b 3e 4f dc 4e be 32 5c 0d be
       -0.27128154 0.18272234 -0.20201229 -0.13804701
0000d0 f1 0d e0 bd 08 ad 80 bd f1 83 67 3d fa 98 82 3c
       -0.10940159 -0.06283003 0.056522314 0.015942086
0000e0 0d df 83 bc 16 b0 67 bd ec af 21 3d 1f 9f 2c be
       -0.01609757 -0.056564413 0.039474413 -0.16857575
0000f0 c6 17 8a be 28 65 13 3c f2 ea b2 bd b0 69 51 bd
       -0.26971263 0.0089962855 -0.087362185 -0.051126182
000100 e7 9c 11 bc a5 bd 1f be 29 19 9a be 1d 90 55 be
       -0.008887506 -0.15599687 -0.3009732 -0.20855756
000110 2e f0 c1 3d b0 aa e8 bc a2 88 59 be 42 c4 88 3e
       0.09469639 -0.028401703 -0.21243528 0.26712233
000120 12 b1 c8 3d d9 bc 1d be 40 12 64 3e 37 da 22 3d
       0.097993985 -0.15404071 0.22272587 0.039758887
000130 c7 47 9a 3d b0 f9 32 be 48 e6 8f be 1e 16 cf bc
       0.07533222 -0.1747806 -0.28105378 -0.025279101
000140 27 41 2d 3e 23 17 23 be 0a 9e 1e be 7e 4e 11 be
       0.16919385 -0.15926795 -0.15489975 -0.14190099
000150 37 bd ab 3d 14 43 ee bd a1 d4 52 be 4b d7 97 bd
       0.08385699 -0.11633888 -0.20588924 -0.07414111
000160 17 b1 74 be b0 ee 0b be d7 8c 2c 3e 71 d0 21 be
       -0.2389568 -0.13665271 0.16850601 -0.1580217
000170 fd 5f 9a 39 68 da 11 be b7 74 69 3d d2 4a 99 be
       0.00029444686 -0.14243472 0.056996074 -0.29939896
000180 ac 70 c7 3d 9e b6 e2 bd 4d 6e 1d be 27 42 55 be
       0.09738287 -0.11069988 -0.15374108 -0.20826016
000190 c5 29 87 be 5c 94 5c 3d c6 3f d5 bd 4c 77 89 3c
       -0.26399055 0.053852424 -0.104125544 0.016780518
0001a0 35 02 90 bd 0a 11 89 3e 22 bd 07 3e 16 16 a4 bd
       -0.07031671 0.26770812 0.13255742 -0.08012025
0001b0 9a 6e 42 bd cb 13 9e 3d 71 a7 a3 bb ad 30 56 3c
       -0.04746876 0.07718619 -0.004994326 0.013073129
0001c0 19 1a df bb 9b bd 56 3a d5 51 fe bd f7 2c 81 bd
       -0.006808531 0.00081917056 -0.12417952 -0.063074045
0001d0 31 6d 00 be 4e 95 01 3d 25 48 54 be 58 89 35 be
       -0.12541653 0.03163653 -0.20730646 -0.17728174
0001e0 db b2 e4 3c e2 c3 fb bd 23 aa 8d 3c dc 00 1f be
       0.027917316 -0.12293221 0.017293042 -0.15527672
0001f0 74 0f 1b 3d d0 2e c6 3d fc f6 30 bd ed 05 19 3e
       0.037856534 0.096768975 -0.043204293 0.14943667
000200 48 0c 0f 3e 06 fd 8a be 48 1d 90 3e d7 a5 57 bb
       0.13969529 -0.27146167 0.2814734 -0.0032905245
000210 56 f7 dc bc 6b 03 41 be d5 47 a1 bd a6 16 95 bd
       -0.026973408 -0.1884896 -0.07875029 -0.072797105
000220 65 6b 91 bd ea ba 75 3d eb cd 35 be 60 34 4d be
       -0.07100562 0.05999271 -0.17754333 -0.2003951
000230 9b e4 9d 3e 68 ba 90 be e8 25 b3 bd c7 81 51 3e
       0.30838475 -0.28267217 -0.087474644 0.20459662
000240 4d ca 8d bb ce ca 23 bc 26 3b 4c be 2f 40 5f 3d
       -0.0043270946 -0.009997083 -0.19944438 0.05450457
000250 5c 7d dd bd 1e 59 2c 3d 69 5a 03 3e c8 73 8a bc
       -0.10814926 0.042077176 0.12827457 -0.016900912
000260 53 2d 8f 3d 49 e0 a3 3d da 0d 94 3c 80 83 30 be
       0.06991067 0.080017634 0.018073011 -0.17237663
000270 d9 98 c8 bd 41 ba 11 3d 12 04 3a be 6f 59 3f bd
       -0.097947784 0.035578016 -0.18165615 -0.04671615
000280 36 8c 0a be ac d2 bd be 06 f2 15 be ac b6 3d be
       -0.13530049 -0.37074792 -0.14643106 -0.18526715
000290 9e 9d 0d be 61 0c 30 3e ae 4b 78 be 3e e1 c7 bd
       -0.13829657 0.17192222 -0.2424762 -0.097597584
0002a0 e3 49 17 be 55 57 b5 bd c8 a6 82 be 6c 92 43 3e
       -0.1477428 -0.08854548 -0.2551787 0.19098824
0002b0 84 77 ca bd 2e 95 cb 3d 51 f2 a0 bd 24 9d 57 be
       -0.09886077 0.09940563 -0.07858718 -0.21056038
0002c0 34 19 a4 be a3 94 61 3e 37 57 3c bc 52 b7 2d be
       -0.32050478 0.22029357 -0.011495403 -0.16964462
0002d0 34 4e e3 3d a3 f4 87 3d 4e dd 36 3e e5 4c ff 3d
       0.110989004 0.066384576 0.17857859 0.12465838
0002e0 e4 62 bb bd e6 08 ad bd 39 17 c2 3d 30 6e 53 be
       -0.09149721 -0.08448963 0.094770856 -0.20647502
0002f0 91 ee e8 bd f3 53 0d 3d 4a 68 0a 3e 0a 9e 8c bd
       -0.11373628 0.03450389 0.13516346 -0.06866081
000300 86 fc 21 be e8 59 37 be ed 78 93 bd 68 69 7f 3d
       -0.15818986 -0.1790539 -0.07200799 0.062356383
000310 26 3d 2f be 8e 24 17 bf d6 6e f0 3b dc e9 39 3e
       -0.1711317 -0.59040153 0.0073374314 0.18155617
000320 35 15 97 be 8d da 87 be c3 89 57 bc 3d 8e 78 be
       -0.29508367 -0.2653393 -0.013155404 -0.2427301
000330 2a a8 24 be 6d 42 85 be 0d 9b db be a9 52 a3 bd
       -0.16079774 -0.2602724 -0.42891732 -0.079747505
000340 03 af b9 be 4a da 09 be 6a 22 4b bd 7d 51 51 be
       -0.36266336 -0.13462177 -0.049593367 -0.20441242
000350 96 a6 70 3e 4b 1d 71 3d bf ec 69 3d 4e 0c ff bd
       0.23501047 0.058865827 0.057110544 -0.12453519
000360 75 17 5d 3d 61 cc 25 be a3 9a be bb e3 34 c7 3d
       0.05397745 -0.16191246 -0.005816774 0.09726884
000370 db df 53 bd f1 5e 46 be da 22 a3 bd 01 21 bb bd
       -0.051727157 -0.19372155 -0.07965632 -0.09137154
000380 3f 23 5a 3d 20 d6 69 3c bb eb 6d 3d 23 5a 86 3e
       0.05325627 0.014272243 0.05808614 0.26240644
000390 29 5f bf bd 3e 33 df bc 4b 30 47 be 99 e6 a0 be
       -0.09344322 -0.027246114 -0.19452016 -0.31425932
0003a0 58 9a 36 3e 56 b3 03 be 3f 1c 0d 3e a7 ee ec 3d
       0.17832315 -0.1286138 0.13780306 0.11568957
0003b0 09 bd e9 bd 55 cc 0e 3e 3a a1 a5 bc 13 fa 62 bd
       -0.11413009 0.13945134 -0.02021848 -0.05541427
0003c0 f4 b7 2b be d6 9e 92 bd a5 b5 02 be 9f 56 42 be
       -0.16769391 -0.07159202 -0.12764604 -0.18978356
0003d0 e1 22 d9 bd aa 4a 11 be 0d 9a 5e 3e 69 2a d5 bb
       -0.10602356 -0.14188638 0.21738453 -0.0065053
0003e0 ec 37 42 bd eb 90 9c 3e 18 7d ea 3a 1a d2 12 be
       -0.047416613 0.30579314 0.0017890064 -0.1433796
0003f0 32 93 36 be 1c d7 8b bd 79 b9 e6 bd e0 b9 ab bc
       -0.17829588 -0.06828138 -0.11265845 -0.020962656

bias f4 [128]
000000 87 d1 b3 3d ca 72 0b 3e ee 2b c2 3d 43 bd 92 3d
       0.087801985 0.13618007 0.09481035 0.07165005
000010 7d bb 2c 3d 23 c0 68 be be 24 5f bd aa 62 c0 3b
       0.04217099 -0.22729544 -0.0544784 0.0058711367
000020 98 ae 3c be bf e6 35 be d9 be c5 3c 57 81 bd 3c
       -0.18425977 -0.17763804 0.024138855 0.023132963
000030 79 bb c9 3d 8f d2 c9 3d f8 91 1d be 46 86 fa bc
       0.09850211 0.09854614 -0.15387714 -0.030581605
000040 27 51 4a bd ad 93 0a be 4a f5 2d 3e 5c a7 e7 bd
       -0.0493938 -0.13532896 0.16988102 -0.11311218
000050 73 ef 01 3e 9b ad 59 3d 63 8d c8 bd b4 40 32 3e
       0.12688999 0.05314408 -0.097925924 0.17407495
000060 84 e9 87 3b 93 9a 38 be 0b 48 8e be 3b 2e 25 be
       0.0041477103 -0.18027715 -0.2778934 -0.16130917
000070 03 3e 40 3c 8e 35 25 3b dd 3f 57 bd c4 94 95 3d
       0.011733535 0.0025208923 -0.05255114 0.073037654
000080 8f c1 13 3b 66 ea f7 bc bf 09 bf 3d 2c 4f 89 3d
       0.002254579 -0.030263137 0.09328031 0.06704554
000090 a8 7b a1 3d 6b 44 c9 bd 6a ac 2d be ff 55 2e be
       0.07884914 -0.09827503 -0.16960302 -0.17024992
0000a0 81 d0 e5 3c 19 a7 26 3e a8 3c de bd 36 59 16 3e
       0.028053524 0.1627468 -0.10851413 0.14682469
0000b0 3a cb f9 bd 5f 73 67 3d 8b 08 38 be 25 e7 05 be
       -0.121969655 0.05650651 -0.17972009 -0.13076456
0000c0 6e 15 30 be 83 9e de bd c7 b8 40 be df 75 a1 bd
       -0.17195675 -0.108700775 -0.18820487 -0.0788381
0000d0 1d 5e 08 be f4 c7 3d be d8 e3 fc bd 43 8f 34 3d
       -0.13317151 -0.18533307 -0.12348145 0.044081938
0000e0 4e c7 01 be 1e 07 25 3e 97 8c fa 3d 8e 86 06 3e
       -0.12673685 0.16115996 0.12233847 0.13137266
0000f0 9a 69 ba bb 72 58 8d bd 79 22 14 3e 87 62 26 3d
       -0.005688858 -0.06901635 0.14466275 0.040621307
000100 98 85 66 bb 77 51 a7 bd 6d c3 0a be cd a1 f7 3d
       -0.0035174843 -0.08169835 -0.13551112 0.12091408
000110 52 d5 f7 bd 50 03 5b be a8 a4 8b 3d 58 53 12 bd
       -0.121012345 -0.21387982 0.06818515 -0.035724014
000120 e1 65 5f be f9 00 a7 3c 7e d5 a7 bd 0f 7a 16 be
       -0.21816207 0.020386206 -0.08195017 -0.14694999
000130 65 c9 03 3e ab 7a f6 3d 42 8d fe bd 07 2f a6 bd
       0.12869795 0.12035116 -0.124292865 -0.081144385
000140 f9 3f 7b 3e b8 90 16 3e 26 b1 18 be db 9b 29 be
       0.24536122 0.14703643 -0.14911327 -0.1656336
000150 b5 24 48 3d 63 f7 6b be 68 db 90 3d 5a af 38 3d
       0.04886313 -0.2304359 0.070730984 0.045089103
000160 e3 01 c0 bd 0d 44 86 bd f1 36 33 be 60 0a 92 be
       -0.0937536 -0.065559484 -0.17501427 -0.2852354
000170 76 9f 2a 3e 36 ca 0a 3e dd fb 4f be dd fa ea 3c
       0.16662392 0.135537 -0.20310922 0.028684074
000180 2c d2 09 3e aa cb 22 3d 2d 84 25 be 8e 27 19 3d
       0.1345908 0.03974501 -0.16163702 0.037391238
000190 f1 59 e4 3d fa 03 a8 3c 46 1c 02 3e fb 46 49 3d
       0.111499675 0.020509709 0.12706098 0.049139958
0001a0 93 cd dc bd 73 b6 fb 3c ec 5f 10 be bf e0 b4 bd
       -0.10781398 0.030726647 -0.14099091 -0.088319294
0001b0 5e 2c 4a 3e 93 19 c0 3d f7 fa 90 bd 64 5b 18 be
       0.19743487 0.09379878 -0.07079118 -0.14878613
0001c0 a1 b5 00 3e fe d9 3a 3e 85 e9 c5 bb 46 2b 19 3e
       0.12569286 0.1824722 -0.0060398006 0.14957914
0001d0 38 47 a1 bd a1 1b 2a be 7a 26 8e bd 26 e9 88 3d
       -0.07874912 -0.16612102 -0.069409326 0.066850945
0001e0 60 98 28 bc e2 c1 33 3d aa 05 72 be 66 8d 1e be
       -0.010290235 0.043886073 -0.23634973 -0.15483627
0001f0 55 a9 16 3e 76 3c 04 be 07 90 fe 3c 9a 04 36 bd
       0.14713033 -0.12913689 0.031074537 -0.044437982

weight f4 [128, 128]
000000 3a 6c 14 3d af 1a cb bd ae 56 a6 be 16 8a 72 3e
       0.036236025 -0.09917199 -0.32488006 0.23685488
000010 72 f0 6c 3d bb 39 ab 3e 39 91 2f 3e 1b f6 84 be
       0.057846494 0.33442482 0.17145242 -0.25969014
000020 04 03 06 3d f1 b1 97 3e 5c fb 69 be 37 f5 82 bc
       0.03271772 0.29627946 -0.22849792 -0.015986068
000030 91 e6 93 be 9e 9d e5 bc 3d 8a ed bd 31 49 86 3d
       -0.28886846 -0.02802926 -0.115986325 0.06556929
000040 9a 54 a7 3e 3e 6a 09 3e 62 3a 3c be ce df db bc
       0.32681733 0.13419434 -0.18381646 -0.026840117
000050 ad 90 a8 be 01 50 9b bd 8b 2a ea 3d 57 c6 a3 be
       -0.3292288 -0.07583619 0.11433896 -0.3198726
000060 cb ac e6 bd 6e 0d 7e 3d ad 83 ad bd 5b 27 e4 3c
       -0.112634264 0.062024526 -0.08472381 0.027850797
000070 a0 a9 da bc 79 ee fc bc ff 2d 2a be 0d 9b ca bd
       -0.026692212 -0.030875431 -0.16619109 -0.09892855
000080 b8 18 1c be 5b 7e a6 3c 9e aa 7d bd af eb 9a bd
       -0.15243804 0.020323923 -0.06193029 -0.07564484
000090 15 2d b4 3c 90 da 7d 3d 86 ed 57 3d 9f 02 7e bd
       0.021994153 0.061976016 0.052716754 -0.06201422
0000a0 7b 63 3d 3b c6 e5 5b bd 22 29 eb 3e 7c 08 2d be
       0.0028898406 -0.053685926 0.4592982 -0.16897768
0000b0 51 5f 81 3d fc 7d 87 3e e6 41 b1 3d a8 3a 14 bd
       0.06317008 0.26463306 0.08655147 -0.03618875
0000c0 38 a1 2e 3e 12 2f 15 3e df e8 fe 3d dc 35 ca 3b
       0.17053688 0.14568737 0.124467604 0.0061709713
0000d0 7d a6 36 3d 84 59 90 3d 81 a6 a0 3b ab c0 2c 3e
       0.04459237 0.07048324 0.0049026613 0.16870372
0000e0 71 05 87 3d 23 a5 b3 bd 6a da 67 be 4a e8 f8 bd
       0.06592835 -0.08771732 -0.22641912 -0.121536806
0000f0 93 37 13 bd 03 b8 07 bd e6 d0 71 bd d0 9e 2d be
       -0.03594167 -0.03313447 -0.05903711 -0.16955113
000100 53 4a 36 be c2 1b 00 3e cf f9 23 bc 32 73 3a be
       -0.1780179 0.12510589 -0.0100082895 -0.18208006
000110 a7 db b2 3d 21 3f 3f 3e 48 72 b1 bd b8 4d 90 bc
       0.087333016 0.18676426 -0.086643755 -0.017615184
000120 17 34 d1 bd 67 53 3c bd a1 dd 27 bd a9 b6 f4 3b
       -0.102150135 -0.045977976 -0.040982846 0.007468064
000130 3b 05 04 3d d6 33 e5 bd 19 d7 1b 3e f7 d0 25 3d
       0.03223155 -0.111915275 0.15218772 0.040482488
000140 ee a9 ed bd ae 06 84 bd b0 e5 ae 3d e8 70 65 be
       -0.11604677 -0.064465865 0.08539903 -0.22406352
000150 dd ea 58 be 6c e4 a3 bd eb dc 80 bc 21 f6 68 bd
       -0.21183343 -0.080025524 -0.015730342 -0.05687535
000160 ed 64 17 3d 17 86 60 3d 40 c7 f8 3d d2 5e 81 be
       0.036961485 0.054815378 0.12147379 -0.25267655
000170 d7 51 f2 bc 60 47 fa 3c 47 22 4a bc 46 3d 9d bc
       -0.02958004 0.030551612 -0.012337274 -0.019194257
000180 32 52 9a 3d cb bd 2f 3c 0c 16 bc be 61 d0 8a 3d
       0.07535209 0.0107264025 -0.3673557 0.06778026
000190 3f 39 0e bd 29 10 d8 3d a2 9a 1b be a2 51 6e bd
       -0.034722563 0.10549957 -0.15195706 -0.05818332
0001a0 bb 45 b7 bd d0 d8 02 3d a1 42 a2 3e 09 e7 5d 3d
       -0.08948847 0.03194505 0.3169146 0.05417541
0001b0 fb 14 85 be 32 6e 82 be 6e 6b 0a be 8f bf c6 3d
       -0.2599257 -0.25474697 -0.13517544 0.09704506
0001c0 3e 68 54 be 05 bc 2b 3c 47 bf 78 3d b3 65 32 be
       -0.2074289 0.010481839 0.06072929 -0.17421608
0001d0 4d 5b 00 3e 80 f5 4f bd d4 ba 3d 3e 0d 18 9e bd
       0.12534828 -0.050771236 0.185283 -0.07719431
0001e0 53 2b 68 3d 7e ce 4e bd 72 34 38 be 31 de 09 bd
       0.056681942 -0.050489895 -0.17988756 -0.033659164
0001f0 6a 02 e7 bc 02 95 5f 3d 79 41 fa bd 13 e0 75 be
       -0.028199393 0.054585464 -0.12219519 -0.24011259
000200 be 13 de be 59 eb 07 3e 21 1b e1 bd 1c 85 69 3c
       -0.43374437 0.13273372 -0.109915026 0.014252927
000210 22 81 06 be 53 c3 6b 3e f9 e7 0a 3e 9d 58 01 bd
       -0.13135198 0.23023729 0.13565053 -0.03157865
000220 cf 4d b6 3d fd 9d 6f be 36 35 1b be 0e cd 10 3e
       0.089015596 -0.23400111 -0.15157017 0.14140722
000230 7e a4 44 3d 79 14 53 be b1 ad 79 be e6 2d fa bd
       0.048008434 -0.20613278 -0.24382664 -0.12215786
000240 4c a6 74 3e 6a 05 89 be e9 3d 9f be f3 ec 40 bd
       0.23891562 -0.26761943 -0.3110192 -0.047100972
000250 49 36 c7 bc b9 36 13 3e ea 8d 08 3e f1 6f 3d bc
       -0.024317877 0.14376344 0.13335386 -0.011562333
000260 79 a4 19 bc 35 9e 05 bd a9 6b 18 be 39 b4 a1 bc
       -0.009377592 -0.03262158 -0.14884819 -0.019739257
000270 69 e6 09 be 4d 5a 84 bd 50 0b 62 be aa de 15 3e
       -0.13466801 -0.06462536 -0.22074628 0.14635721
000280 5a 10 7c 3d 24 09 3a be 20 0b 8c bd c9 c1 9f 3d
       0.06153903 -0.1816755 -0.068380594 0.078006335
000290 68 90 0b 3e 49 9d b6 3e 90 6e 85 bd 5c 72 fd bd
       0.13629305 0.35666874 -0.06515229 -0.12375328
0002a0 ea a8 9b bd d4 df 94 3d be 6a a5 3d ba 03 c8 be
       -0.07600577 0.07269254 0.08077 -0.39065343
0002b0 2e bb 2e bd 07 46 21 bd bc d9 5f 3e dd 84 3a 3d
       -0.042658977 -0.039373424 0.21860403 0.045536865
0002c0 4e e5 04 bd c7 af fc bd 02 27 f6 bb b5 5f e9 3d
       -0.032445244 -0.12338214 -0.0075119743 0.11395208
0002d0 26 aa 9d bd 3c 21 1e 3e 98 1d 4b ba a1 3b bd 3c
       -0.07698469 0.15442365 -0.0007748245 0.023099722
0002e0 29 23 f8 bc 0b a4 77 be 0e 19 86 3d 2a 8d b8 bd
       -0.030290203 -0.24183671 0.065477476 -0.090113
0002f0 34 d2 0b bd d5 82 89 bd ae 52 f7 3d 4e 7e 21 3c
       -0.034136012 -0.06714407 0.12076317 0.009856774
000300 59 68 81 3e c8 0e e5 3d 0b 98 ef bc 3f 2b c4 bd
       0.25274923 0.1118446 -0.029247304 -0.09578561
000310 73 39 e3 3d fb fd 69 3d 18 74 94 3d 3b 97 8f bc
       0.11094942 0.05712698 0.072487056 -0.017528167
000320 f4 3d 76 3d a2 ab 8a be 30 2c a8 3a e6 4c 8f bd
       0.060117677 -0.2708407 0.0012830552 -0.06997089
000330 71 41 5f bd 31 88 0b 3e b7 65 e3 bd b4 0c 18 bd
       -0.05450577 0.13626172 -0.11103385 -0.03712149
000340 b6 fd fe 3d 3a a9 e9 bd a9 86 29 3d 27 19 35 3d
       0.12450735 -0.114092305 0.041388188 0.04421344
000350 a7 b2 59 3d 91 8d 95 be 27 5b 66 3d 26 c3 45 bb
       0.05314889 -0.2920957 0.056239273 -0.0030176132
000360 de 23 b7 3d 58 dc e4 3d 95 f6 b3 bd a9 84 17 bc
       0.08942388 0.1117484 -0.08787266 -0.009247937
000370 2e a1 5d be 1e 1a 06 bd d9 d7 76 3d 16 a8 a5 bd
       -0.21643516 -0.03273975 0.060264442 -0.080887005
000380 bb 72 a8 be d0 52 13 3d 74 d9 b3 3a 6a a2 e1 bd
       -0.32900032 0.035967648 0.0013721422 -0.11017306
000390 e2 e4 0e be 0c 1a 07 3e 72 ec 1a bd 30 3a 69 3d
       -0.139545 0.1319353 -0.037823148 0.056940258
0003a0 68 c8 4f be 1d e4 60 3c c0 c0 5e 3e 86 01 f3 bd
       -0.20291293 0.013726261 0.21753216 -0.11865525
0003b0 d0 a2 98 bd 90 75 64 3d ad 54 ac bd 6b c3 81 3d
       -0.07452929 0.05577618 -0.08414588 0.06336101
0003c0 c4 31 e9 3c 46 a7 f3 bd 4e 8d a6 bd 58 c8 a0 3d
       0.028466113 -0.11897139 -0.081324205 0.078507125
0003d0 51 21 e1 bd c6 47 70 be 76 1f 60 be 28 f6 0f 3d
       -0.10992683 -0.2346488 -0.21887001 0.035146862
0003e0 1b c3 87 3d 77 58 59 bd 0d 0d a3 be d0 e7 a9 3d
       0.0662901 -0.053062882 -0.31845894 0.08296168
0003f0 11 76 29 be 24 20 1f bd 0e 3e bd be 79 10 db 3d
       -0.16548945 -0.03884901 -0.36961406 0.10696501
