nerf_models/transparent_table.pth (torch, 647640 bytes, 22 tensors)

weight f4 [128, 63]
0.025465794 0.0501421 -0.007310121 -0.015998311 0.086976804 -0.13281962 0.118958764 -0.0070407307
-0.0862848 -0.033989534 -0.33218172 -0.16046241 -0.21966165 0.11481018 0.029695323 -0.048534647
0.13513674 0.04447421 -0.07998675 0.056327578 -0.08722325 0.07923336 0.03593072 -0.00053439767
-0.07343783 -0.0033298556 -0.20372464 0.07057309 0.035263605 0.026824536 -0.07411067 0.011858335
0.15951791 -0.030117879 -0.099874064 -0.14669937 0.074916445 0.24259746 -0.044531006 0.03689842
0.078622036 0.04449824 -0.022769535 0.14834745 -0.05507415 -0.13986947 0.12167851 -0.09292467
0.34553072 0.22127429 -0.344748 -0.33896303 0.14800853 -0.20034765 -0.14013709 0.23245971
-0.21829389 -0.06899185 -0.110439055 -0.13525224 -0.33200672 0.2994444 -0.29191893 0.020099388
0.021612138 0.07742376 -0.16578318 0.24220976 0.11291919 0.09871796 0.11719665 0.14958584
0.08169992 -0.18075052 0.14250694 0.048025545 0.08971159 -0.15697202 0.054345395 -0.06564247
-0.24802066 -0.07408344 0.041145172 0.0072712833 0.053723417 -0.013352152 -0.050363634 0.285262
-0.041951854 -0.26111597 -0.10667921 -0.1893317 0.14848867 -0.08225811 0.069185846 -0.12118086
0.3192916 0.005887954 -0.039034788 0.025689738 -0.20259239 -0.21895237 -0.17630456 -0.07400757
0.18228461 -0.098872066 0.030999904 0.38552463 -0.15183768 -0.22363646 0.33568814 0.20593831
0.23704733 -0.21859097 -0.19851872 0.031594712 -0.23620404 -0.35993296 -0.040257134 0.27199247
0.19461541 0.14459872 0.07364069 0.18965289 0.1914558 -0.024194518 0.11429441 -0.06393646
0.01860376 0.15471677 -0.15781988 0.26359442 -0.069228984 -0.21679711 0.24263325 0.12423451
0.05473119 0.14731936 0.022245117 -0.008374672 0.042478707 0.1563253 0.0013093782 0.079665236
-0.32532966 -0.054954726 -0.03205988 -0.17010069 0.10056565 0.28400305 0.014254127 0.13056779
0.0045107123 0.13286456 -0.05333454 0.079028174 -0.10681687 0.11390164 -0.13794975 0.060567494
0.058462795 0.3379172 0.13409312 -0.18680476 0.02215595 0.23694147 0.33260438 0.2342344
-0.04933315 -0.21132861 0.035594113 0.06030519 0.2263312 0.22760023 0.06394802 0.24001242
-0.1542987 -0.002268561 0.4100074 -0.06898326 -0.118184865 -0.046981234 0.20655072 0.1367609
-0.35421404 0.01481952 -0.19956024 -0.0791425 0.012636043 0.054156523 0.14975996 -0.015989678
-0.18228203 0.26300353 0.11266405 0.0806821 0.10476204 0.051808905 0.20161648 -0.058513142
-0.07379978 0.07243351 0.28739297 -0.1633584 0.14277835 -0.08286722 0.13583075 -0.07090758
-0.13841575 -0.009129089 -0.15243472 -0.1410425 -0.07028357 -0.1222664 -0.2603677 -0.03612414
0.10562156 0.16956538 0.018518144 0.15112749 -0.13916497 0.09363391 0.21664166 -0.2385618
0.18406393 -0.10080407 -0.05266327 -0.3075289 -0.2285013 0.086494006 0.10735887 0.1875676
-0.010944362 0.23215927 -0.19168748 -0.29503825 -0.21641967 0.03852892 -0.015851956 0.20555785
-0.23659018 0.20187017 0.022749132 0.022031406 -0.16894634 -0.1166409 -0.032910004 -0.022295104
0.439116 -0.07389908 0.27839214 -0.0555727 -0.062586695 0.009849126 0.043843213 0.17579123
00000000: a49d d03c cd61 4d3d bd89 efbb e40e 83bc
00000010: e520 b23d de01 08be a7a0 f33d eeb5 e6bb
00000020: 16b6 b0bd 9c38 0bbd b913 aabe 4250 24be
00000030: fcee 60be 9a21 eb3d 9b43 f33c 44cc 46bd
00000040: 4961 0a3e 972a 363d 18d0 a3bd bfb7 663d
00000050: 1aa2 b2bd 1a45 a23d 172c 133d d216 0cba
00000060: 9366 96bd b539 5abb 319d 50be a088 903d
00000070: 9270 103d 21bf db3c 56c7 97bd 7649 423c
00000080: aa58 233e c5b9 f6bc c68a ccbd 5c38 16be
00000090: cb6d 993d 786b 783e 2566 36bd cc22 173d
000000a0: 9704 a13d c943 363d 2d87 babc 65e8 173e
000000b0: 6f95 61bd f139 0fbe 9532 f93d 4a4f bebd
000000c0: 67e9 b03e ba95 623e cf82 b0be 908c adbe
000000d0: 8c8f 173e ef27 4dbe 1980 0fbe eb09 6e3e
000000e0: 6f88 5fbe 994b 8dbd df2d e2bd 907f 0abe
000000f0: c9fc a9be c750 993e 6676 95be 79a7 a43c
00000100: f00b b13c 5990 9e3d 11c3 29be d605 783e
00000110: 2d42 e73d a42c ca3d cc04 f03d 082d 193e
00000120: 4a52 a73d aa16 39be 57ed 113e 6fb6 443d
00000130: b6ba b73d 46bd 20be 4799 5e3d 8f6f 86bd
00000140: 21f9 7dbe 0fb9 97bd d787 283d f243 ee3b
00000150: 160d 5c3d fcc2 5abc 194a 4ebd dc0d 923e
00000160: b5d5 2bbd feb0 85be a17a dabd 2be0 41be
00000170: 6a0d 183e f176 a8bd 4fb1 8d3d ac2d f8bd
00000180: 307a a33e bdef c03b f1e2 1fbd 4973 d23c
00000190: 6174 4fbe 0d35 60be 2f89 34be 4891 97bd
000001a0: d1a8 3a3e 707d cabd 83f3 fd3c 7c63 c53e
000001b0: 567b 1bbe f500 65be 51df ab3e 7ee1 523e
000001c0: 89bc 723e 50d6 5fbe 7e48 4bbe 7569 013d
000001d0: 79df 71be 2249 b8be aae4 24bd 9942 8b3e
000001e0: 4349 473e b011 143e eed0 963d 5e34 423e
000001f0: fd0c 443e 9533 c6bc 3013 ea3d 1ef1 82bd
00000200: ea66 983c 136e 1e3e 899b 21be d9f5 863e
00000210: edc7 8dbd 1000 5ebe da74 783e aa6e fe3d
00000220: d02d 603d e3da 163e 643b b63c ec35 09bc
00000230: 27fe 2d3d bd13 203e 719f ab3a 8727 a33d
00000240: 9c91 a6be 3518 61bd 3951 03bd e02e 2ebe
00000250: 5df5 cd3d d968 913e 248a 693c 90b3 053e
00000260: 99ce 933b a60d 083e 5275 5abd 86d9 a13d
00000270: cec2 dabd 4345 e93d b342 0dbe 9f15 783d
00000280: af76 6f3d 7c03 ad3e b54f 093e bf49 3fbe
00000290: 6580 b53c c9a0 723e 1f4b aa3e 24db 6f3e
000002a0: 8f11 4abd 8766 58be 22cb 113d 9302 773d
000002b0: 5ec3 673e 0910 693e 2ef7 823d d1c5 753e
000002c0: 7a00 1ebe 23ac 14bb 7dec d13e 1847 8dbd
000002d0: e80a f2bd 656f 40bd 0882 533e 0d0b 0c3e
000002e0: 8b5b b5be 92cd 723c 8559 4cbe 7715 a2bd
000002f0: 6807 4f3c 3bd3 5d3d ad5a 193e c9fc 82bc
00000300: 24a8 3abe 66a8 863e 69bc e63d a83c a53d
00000310: 7b8d d63d 9335 543d 8d74 4e3e 7aab 6fbd
00000320: 5724 97bd 0558 943d 2c25 933e 6d47 27be
00000330: 7d34 123e 4ab6 a9bd 3717 0b3e fe37 91bd
00000340: dcbc 0dbe 2d92 15bc d917 1cbe 726d 10be
00000350: d5f0 8fbd ce66 fabd ea4e 85be e8f6 13bd
00000360: 1e50 d83d 8ca2 2d3e 5db3 973c 2ac1 1a3e
00000370: 4381 0ebe 23c3 bf3d 50d7 5d3e 8b49 74be
00000380: 417b 3c3e 5d72 cebd 71b5 57bd 6e74 9dbe
00000390: 3ffc 69be c523 b13d f8de db3d b911 403e
000003a0: fb4f 33bc 29bb 6d3e b949 44be 410f 97be
000003b0: 1e9d 5dbe 80d0 1d3d f6db 81bc c27d 523e
000003c0: b244 72be 0eb7 4e3e 635c ba3c 357b b43c
000003d0: 4500 2dbe 6de1 eebd a4cc 06bd 39a4 b6bc
000003e0: d0d3 e03e 6758 97bd 6a89 8e3e 33a0 63bd
000003f0: 742d 80bd 3b5e 213c f194 333d 9e02 343e

bias f4 [128]
-0.19770947 -0.16443472 -0.18793416 -0.057195053 -0.0138038425 -0.091088414 -0.124080755 -0.23975123
-0.2339348 -0.28175923 -0.30372682 -0.29238278 -0.02043657 -0.090661936 -0.23077059 -0.35709283
-0.20733589 -0.06806416 -0.10661728 -0.07670459 -0.16196914 -0.09607353 -0.29237399 -0.33583775
-0.24174125 -0.22883508 -0.19326317 -0.25148895 -0.23762006 -0.10521033 -0.15827258 -0.25635898
-0.33704722 -0.040889412 0.0598814 -0.13766603 -0.21124248 -0.11168388 -0.19724266 -0.087216735
-0.017659849 0.030152485 -0.2256826 -0.08009215 -0.24565463 -0.14371377 -0.19686761 -0.2966676
-0.052968107 -0.15275024 -0.3727308 -0.12275223 -0.071338795 -0.31770915 -0.14320989 -0.03388389
-0.2716601 -0.16899267 -0.3149334 0.06460011 -0.18696809 -0.07762005 -0.23157506 0.003413713
-0.2494627 -0.22351423 -0.15556642 -0.29870448 0.055512458 -0.22414888 -0.09209501 -0.31904164
-0.15887815 -0.22359815 -0.21273908 -0.14669128 -0.22966892 -0.12508419 -0.25364214 -0.13636617
-0.2310342 -0.19955327 -0.23488739 -0.0156214675 -0.16984382 -0.33810762 -0.025344897 -0.14824784
-0.19717476 -0.11473636 -0.18601288 -0.121171996 -0.0337589 -0.2138196 -0.12990355 -0.2534894
-0.2833024 -0.17251343 -0.30647165 -0.20302622 -0.14437762 -0.011556189 -0.0988219 -0.11813066
-0.17891203 -0.25650528 -0.23530105 -0.13948233 -0.12037669 -0.27391478 -0.18273903 -0.024802871
-0.20663454 -0.16354823 -0.10479291 -0.12403296 -0.100857995 -0.16140153 -0.31296688 -0.071715616
-0.058766056 -0.31149802 -0.18663447 -0.06082726 -0.34171644 -0.12515111 -0.1297022 -0.18422315
00000000: 5a74 4abe 9361 28be d071 40be 5c45 6abd
00000010: 8329 62bc 908c babd 0d1e febd 5981 75be
00000020: 9b8c 6fbe bf42 90be 1582 9bbe 32b3 95be
00000030: 986a a7bc f7ac b9bd 204f 6cbe dfd4 b6be
00000040: dc4f 54be 3965 8bbd 295a dabd 4c17 9dbd
00000050: 3ddb 25be 33c2 c4bd 0bb2 95be edf2 abbe
00000060: 058b 77be be53 6abe c8e6 45be 29c3 80be
00000070: ac52 73be 8378 d7bd 3512 22be 7c41 83be
00000080: 7491 acbe a87b 27bd 3346 753d 53f8 0cbe
00000090: f34f 58be 85ba e4bd fbf9 49be b09e b2bd
000000a0: 63ab 90bc 5802 f73c 5719 67be 5a07 a4bd
000000b0: e38c 7bbe b429 13be aa97 49be d1e4 97be
000000c0: 16f5 58bd 8f6a 1cbe 92d6 bebe 8565 fbbd
000000d0: 131a 92bd c6aa a2be 9da5 12be d5c9 0abd
000000e0: 0817 8bbe 6a0c 2dbe f33e a1be 104d 843d
000000f0: 9074 3fbe 43f7 9ebd 0322 6dbe 9ab8 5f3b
00000100: 2673 7fbe eae0 64be ce4c 1fbe cbef 98be
00000110: 0861 633d 4987 65be 4f9c bcbd 6d59 a3be
00000120: f4b0 22be eaf6 64be 46d8 59be 3d36 16be
00000130: 542e 6bbe 1216 00be 62dd 81be 93a3 0bbe
00000140: 3b94 6cbe b157 4cbe 5286 70be 2ff1 7fbc
00000150: 8aeb 2dbe 711c adbe 1aa0 cfbc 48ce 17be
00000160: 2ee8 49be e6fa eabd 297a 3ebe 0629 f8bd
00000170: c646 0abd 86f3 5abe 7005 05be 5dc9 81be
00000180: 030d 91be 5ca7 30be dae9 9cbe 1be6 4fbe
00000190: bad7 13be 2b56 3dbc 2363 cabd 7dee f1bd
000001a0: b734 37be a954 83be c2f2 70be 75d4 0ebe
000001b0: 0e88 f6bd 8f3e 8cbe f11f 3bbe 642f cbbc
000001c0: 0198 53be 3079 27be aa9d d6bd fe04 febd
000001d0: a38e cebd 7146 25be 323d a0be a3df 92bd
000001e0: adb4 70bd ab7c 9fbe 1b1d 3fbe 0126 79bd
000001f0: 75f5 aebe 9d27 00be a7d0 04be fea4 3cbe

weight f4 [128, 128]
-0.16113079 -0.06845608 0.004345557 0.026693562 0.048855003 -0.19798373 0.17813669 0.0423214
0.102059096 0.105563626 -0.054262206 0.20814651 -0.005659608 0.098810494 0.07647599 -0.10438632
-0.009614936 -0.4794435 -0.09331052 0.24520552 0.0880121 -0.11706544 0.0050530047 0.114535294
-0.40413257 -0.07020791 -0.2571429 0.027405191 0.06950018 -0.015401063 0.08287776 -0.005826405
-0.058584426 0.044509064 -0.03907085 -0.115422115 -0.00010337163 -0.11746089 -0.34925553 -0.24984357
-0.28083965 0.11609729 0.042955738 -0.038549215 0.009190462 -0.15272082 0.043241784 -0.23328984
-0.09158978 0.04520752 0.034819465 -0.03619552 0.063707806 -0.33071586 -0.05968278 -0.060815655
0.1679054 0.012570238 0.03662262 -0.4262268 -0.19022255 -0.1180688 -0.042622603 0.033277072
-0.09356415 -0.07675343 -0.31012875 0.020845093 0.17496558 -0.25057328 -0.0010674617 0.19054496
0.15782072 0.022319272 -0.13179336 0.21060178 0.045378927 0.05937991 -0.069764696 0.06338955
0.09993661 0.12827468 -0.009385984 -0.1611458 -0.10799264 -0.12523188 -0.12259322 0.0051517594
0.07640508 -0.28581935 0.08225962 0.06394281 -0.21310472 -0.19039106 -0.011023894 -0.08733771
-0.0758575 0.10582293 0.01865285 0.050750017 0.082526185 0.051425297 0.14228599 -0.005573702
-0.10953215 0.31636608 -0.09833367 0.04502113 0.07846413 0.14949834 -0.28152364 -0.12204753
0.12252963 0.24324498 -0.11166291 -0.126421 0.05260274 0.02975314 0.0071706334 0.12843554
-0.27177262 0.023810431 -0.06359138 0.04782649 0.12550664 -0.06929822 -0.023325123 0.11831644
-0.30647352 0.09613083 -0.07173329 -0.124038994 0.10143845 0.0066267466 0.011943633 0.1640728
-0.064241044 0.21311545 0.04187985 -0.17287755 0.14405937 -0.12848707 0.05854915 -0.17405236
-0.4871234 -0.5051607 0.089120775 -0.08185815 -0.09833874 0.19725516 -0.09759512 0.058748968
-0.36042202 -0.15712488 -0.1367465 -0.13658574 0.021898644 0.22561371 -0.15733415 0.033570807
0.093078256 -0.102771804 0.07070452 0.19060591 -0.16718575 0.03126068 -0.19013743 -0.08274287
-0.016777322 -0.07710927 -0.29574552 -0.087477334 0.06877213 0.17693952 -0.24166866 0.110070065
0.08388689 -0.11200977 0.13242513 0.013514144 0.15040958 -0.04016394 -0.18455973 -0.045329742
0.15295255 -0.077426605 -0.025883947 -0.114783585 0.1140726 0.067372255 -0.16057251 -0.020618865
0.05494714 -0.2519261 -0.21059512 -0.13109688 -0.09508774 0.06317358 -0.1506028 0.028941153
0.103146 -0.14066802 -0.0466851 -0.14480591 -0.26949552 -0.08183209 0.1829805 0.15166402
0.12729979 -0.06846418 0.09710078 -0.13535722 -0.010869109 -0.07138588 -0.11338914 -0.22073638
-0.104925044 0.16575247 0.30688795 0.06445298 -0.08158161 -0.0051347497 -0.09842677 0.16955546
0.1880285 -0.31036213 -0.05455577 0.0843885 -0.20722875 -0.12326776 -0.16162968 -0.15944166
-0.09773787 0.08760487 -0.050056506 -0.1330033 0.05798786 -0.078493804 0.2011689 0.08373344
-0.0863826 -0.022849748 0.081353605 -0.010441911 0.026246272 0.08843981 0.04677257 -0.07746831
-0.14068179 -0.11589568 -0.080759056 0.13284932 -0.16835018 -0.043344267 0.13935341 0.0011267846
00000000: 78ff 24be b432 8cbd 2d65 8e3b 75ac da3c
00000010: 2f1c 483d 3fbc 4abe 7769 363e 3459 2d3d
00000020: 5c04 d13d be31 d83d 0c42 5ebd 5c24 553e
00000030: 3c74 b9bb 285d ca3d 729f 9c3d 7fc8 d5bd
00000040: f787 1dbc 9e79 f5be 9619 bfbd 2817 7b3e
00000050: b03f b43d 01c0 efbd ad93 a53b 7b91 ea3d
00000060: 77ea cebe 2ac9 8fbd 3ca8 83be da80 e03c
00000070: 1c56 8e3d bd54 7cbc d1bb a93d 6deb bebb
00000080: 39f6 6fbd 234f 363d c108 20bd 6e62 ecbd
00000090: 39c9 d8b8 568f f0bd 9fd1 b2be fed6 7fbe
000000a0: 37ca 8fbe 6ac4 ed3d 5bf2 2f3d c8e5 1dbd
000000b0: 9793 163c d962 1cbe 4c1e 313d 88e3 6ebe
000000c0: 6c93 bbbd 852b 393d db9e 0e3d c141 14bd
000000d0: 3d79 823d 9753 a9be ee75 74bd d619 79bd
000000e0: 65ef 2b3e 66f3 4d3c 9a01 163d 663a dabe
000000f0: b3c9 42be 0ece f1bd 0a95 2ebd 8a4d 083d
00000100: 909e bfbd e730 9dbd 32c9 9ebe 54c3 aa3c
00000110: 2d2a 333e 244b 80be 12ea 8bba 381e 433e
00000120: c19b 213e e8d6 b63c d7f4 06be fea7 573e
00000130: 41df 393d 5938 733d cbe0 8ebd 61d2 813d
00000140: 91ab cc3d 705a 033e acc7 19bc 6803 25be
00000150: 3f2b ddbd c93c 00be 2712 fbbd 17d0 a83b
00000160: 447a 9c3d ea56 92be bb77 a83d 73f4 823d
00000170: 2038 5abe e0f5 42be 909d 34bc 1dde b2bd
00000180: 2d5b 9bbd b1b9 d83d ddcd 983c 40df 4f3d
00000190: 7d03 a93d 55a3 523d 6bb3 113e 9aa3 b6bb
000001a0: 6452 e0bd bcfa a13e 2a63 c9bd 1468 383d
000001b0: cdb1 a03d 1816 193e de23 90be 0ef4 f9bd
000001c0: d1f0 fa3d 3615 793e 86af e4bd 8274 01be
000001d0: f875 573d dbbc f33c a2f7 ea3b 9b84 033e
000001e0: c825 8bbe 180e c33c 333c 82bd b6e5 433d
000001f0: d084 003e 3aec 8dbd 5414 bfbc e44f f23d
00000200: 19ea 9cbe 3ee0 c43d e7e8 92bd 2808 febd
00000210: f6be cf3d 2e25 d93b 3aaf 433c b302 283e
00000220: cf90 83bd f03a 5a3e 358a 2b3d d006 31be
00000230: 4d84 133e 1d92 03be 3cd1 6f3d c83a 32be
00000240: 3d68 f9be 3652 01bf f484 b63d 3fa5 a7bd
00000250: d265 c9bd 42fd 493e f3df c7bd c2a2 703d
00000260: 3c89 b8be 58e5 20be 4607 0cbe 22dd 0bbe
00000270: c964 b33c 4807 673e 341c 21be 8b81 093d
00000280: d09f be3d 067a d2bd 88cd 903d 322e 433e
00000290: be32 2bbe 330b 003d 63b3 42be 1875 a9bd
000002a0: 9870 89bc 77eb 9dbd f56b 97be 5127 b3bd
000002b0: 67d8 8c3d a22f 353e fd77 77be 6a6c e13d
000002c0: e4cc ab3d 6165 e5bd 749a 073e 6e6a 5d3c
000002d0: f804 1a3e f282 24bd 3afd 3cbe aeab 39bd
000002e0: 989f 1c3e d791 9ebd 920a d4bc a813 ebbd
000002f0: e59e e93d 77fa 893d 1f6d 24be e5e8 a8bc
00000300: 4110 613d 75fc 80be 3fa6 57be 433e 06be
00000310: 5cbd c2bd 2661 813d 9f37 1abe ff15 ed3c
00000320: 363e d33d 470b 10be e038 3fbd 0048 14be
00000330: 51fb 89be 9597 a7bd 3d5f 3b3e d04d 1b3e
00000340: e05a 023e f336 8cbd c6dc c63d 159b 0abe
00000350: 5914 32bc c332 92bd 9138 e8bd b808 62be
00000360: f1e2 d6bd 04bb 293e 6b20 9d3e edff 833d
00000370: 4214 a7bd 6741 a8bb f993 c9bd f29f 2d3e
00000380: 8b8a 403e c9e7 9ebe df75 5fbd e1d3 ac3d
00000390: c633 54be cf73 fcbd 4082 25be ad44 23be
000003a0: cb2a c8bd 2f6a b33d 0d08 4dbd 0432 08be
000003b0: ae84 6d3d 5cc1 a0bd 38ff 4d3e 707c ab3d
000003c0: 5ce9 b0bd 652f bbbc b89c a63d 8d14 2bbc
000003d0: 6c02 d73c ee1f b53d 9894 3f3d b5a7 9ebd
000003e0: e30e 10be b75a edbd 0165 a5bd a709 083e
000003f0: fd63 2cbe c289 31bd a9b2 0e3e 9eb0 933a

bias f4 [128]
0.049266923 -0.010161063 0.105889775 -0.07087425 0.0036886951 -0.116521195 -0.041035853 0.05092844
0.049050033 -0.11675743 -0.025728779 0.006665266 -0.028679505 0.0886952 -0.022002937 0.03645483
0.07153276 -0.04031008 0.004865165 -0.066060424 -0.12511477 -0.061929386 -0.030200128 -0.07168436
-0.048932824 0.043970834 -0.04714124 -0.008934312 0.01783144 -0.0027115091 -0.11863339 -0.018932898
-0.056420457 -0.100370154 -0.06983198 0.02693931 0.043062106 -0.07034551 -0.08125033 0.06374844
0.03018823 -0.026448432 -0.09521331 -0.038528528 -0.020425647 -0.06562195 -0.03764533 -0.03743086
0.012682818 -0.038373113 0.012385925 0.02260626 -0.059462745 -0.11919185 -0.09688379 -0.047587108
0.0048291455 -0.051189184 0.114375286 -0.041178636 -0.044503834 -0.07624765 0.011572016 -0.053230144
-0.09818061 -0.087975495 -0.0949736 -0.01667581 0.023802444 -0.0021588746 -0.065920986 -0.08678534
0.0073846066 0.00026632042 -0.045088988 -0.06942981 -0.07125087 0.065886736 -0.17899768 -0.06463508
-0.047267053 0.05575011 -0.051505398 0.08363704 0.046340536 -0.083449535 -0.10141173 0.025308128
-0.092548415 -0.08014797 0.025629513 0.008242199 -0.029013848 -0.03630183 -0.09283062 0.029327424
-0.092320986 0.03455357 0.0021607615 -0.018391754 0.03975648 -0.07843698 0.0335428 -0.0039165053
0.034901984 0.0013340652 -0.08908147 -0.08347267 -0.050780803 0.011632674 0.03410911 0.05095016
-0.07995439 -0.03335334 0.007746375 -0.07798088 -0.0776886 0.020254055 -0.10098543 0.058844317
-0.03233501 -0.041319296 0.022282152 0.04407621 -0.0058884313 0.044850867 -0.02282471 -0.033921443
00000000: 1dcc 493d 967a 26bc bddc d83d 8526 91bd
00000010: 09be 713b aaa2 eebd 3615 28bd 579a 503d
00000020: b0e8 483d 851e efbd 29c5 d2bc 4e68 da3b
00000030: 48f1 eabc d4a5 b53d 813f b4bc a951 153d
00000040: c57f 923d 2f1c 25bd f66b 9f3b b04a 87bd
00000050: 161e 00be aba9 7dbd 4266 f7bc 40cf 92bd
00000060: c96d 48bd c31a 343d 2c17 41bd 3861 12bc
00000070: 3d13 923c 93b3 31bb 10f6 f2bd 2a19 9bbc
00000080: 2319 67bd de8e cdbd 1204 8fbd d4af dc3c
00000090: e461 303d 4f11 90bd 9366 a6bd 8b8e 823d
000000a0: 4f4d f73c 62aa d8bc 32ff c2bd 17d0 1dbd
000000b0: b053 a7bc cd64 86bd fd31 1abd 1a51 19bd
000000c0: 98cb 4f3c 202d 1dbd 56ee 4a3c c330 b93c
000000d0: 358f 73bd db1a f4bd 026b c6bd b3ea 42bd
000000e0: cf3d 9e3b c0ab 51bd 973d ea3d eeaa 28bd
000000f0: a749 36bd ba27 9cbd 8e98 3d3c da07 5abd
00000100: ea12 c9bd 7f2c b4bd 8581 c2bd b59b 88bc
00000110: 58fd c23c e87b 0dbb 9501 87bd 83bc b1bd
00000120: 92fa f13b eca0 8b39 3baf 38bd 3731 8ebd
00000130: faeb 91bd a0ef 863d 2b4b 37be 665f 84bd
00000140: 199b 41bd 3a5a 643d 53f7 52bd e549 ab3d
00000150: 93cf 3d3d 97e7 aabd f4b0 cfbd fe52 cf3c
00000160: 068a bdbd 9e24 a4bd fcf4 d13c 4a0a 073c
00000170: 73ae edbc 3ab1 14bd fb1d bebd 1140 f03c
00000180: c912 bdbd 0b88 0d3d 909b 0d3b 4eaa 96bc
00000190: b1d7 223d 91a3 a0bd 2d64 093d 0756 80bb
000001a0: 62f5 0e3d cddb ae3a 5970 b6bd b8f3 aabd
000001b0: 88ff 4fbd f996 3e3c feb5 0b3d 1db1 503d
000001c0: 21bf a3bd 839d 08bd 4ed5 fd3b 71b4 9fbd
000001d0: 331b 9fbd d5eb a53c 73d1 cebd bd06 713d
000001e0: b771 04bd 6c3e 29bd 0f89 b63c 4289 343d
000001f0: bef3 c0bb 8bb5 373d e3fa babc 36f1 0abd

weight f4 [128, 128]
-0.14240845 0.028531795 -0.13623373 -0.06167074 0.108482346 -0.24357367 -0.018922444 -0.4447963
-0.12763502 -0.18743649 0.124530256 0.056337748 0.15082291 0.063011475 0.09847538 -0.14710051
-0.13715805 -0.16438901 0.19059831 0.044396248 -0.0108429715 0.33619073 -0.31889877 -0.16031986
-0.037621297 -0.14709377 -0.052951545 0.14032146 -0.30813438 -0.2587018 -0.12936656 0.16984122
0.07575685 0.046951357 -0.14020933 -0.38069987 -0.028699387 0.20865376 0.12667352 0.2967854
0.12213248 -0.16361526 -0.50447226 0.086756416 0.0029265655 -0.08578208 0.12513243 0.01673058
0.19453995 -0.27271897 0.046043485 -0.059500802 -0.03812979 -0.0833695 0.4490822 -0.28896874
0.008273928 -0.2894654 -0.0080313925 0.03255828 0.11505743 -0.116193846 -0.019935964 -0.104998395
0.019665949 -0.07411479 0.11132016 -0.055589806 0.21167754 0.008160902 -0.052082792 0.10166779
-0.06665944 -0.7159185 0.217778 0.0012108338 -0.28595814 -0.14825109 -0.25789967 0.046126842
-0.07470104 -0.16139965 -0.007966134 0.009612078 0.27670655 0.025690675 -0.069594316 -0.11672829
0.040691517 0.13437453 -0.16198632 -0.13335045 -0.030184308 0.041443687 -0.077067666 0.069832526
0.32696277 0.1290313 -0.01992404 -0.076521665 -0.31188172 0.03365261 -0.055010088 0.119820274
-0.33539584 -0.54526836 -0.12525748 -0.18669228 -0.11073126 0.008805532 -0.061749615 0.20304286
-0.14592217 -0.03598328 0.07189134 0.04876073 -0.017205663 -0.17690495 0.06375556 -0.12851904
-0.20766254 -0.040009357 -0.0016171264 -0.4795068 0.10055061 -0.12191494 -0.15673612 -0.19386363
0.030299492 0.2048801 0.021747427 0.07694779 -0.07461759 -0.1537127 0.20759667 -0.17654672
-0.07048288 0.007373688 -0.055254385 0.18721525 0.048758436 0.049816474 0.082028374 -0.16916172
-0.27518564 -0.169549 -0.10316778 -0.09034094 -0.12395147 -0.014096211 0.06680208 0.029024499
-0.18765625 -0.05427761 0.22142966 -0.08045693 -6.898663e-05 -0.082211494 0.23881982 -0.019341694
-0.007132591 -0.030657472 0.20226881 -0.073845044 0.010530093 0.16146457 -0.17480429 -0.006291249
0.08372104 -0.1402589 0.21451513 -0.3283409 -0.09486928 -0.0248151 -0.19286801 0.17879099
0.013868762 0.07398472 0.047373958 0.0834093 -0.14957999 -0.013110891 0.033059526 -0.27582946
0.16197702 0.062135104 0.01608088 0.16814932 -0.19581498 0.14682059 -0.023037674 -0.12660858
0.16156791 -0.15633684 -0.22242446 0.07046479 -0.032339606 -0.08554969 -0.041194327 0.023172677
-0.11539352 -0.138229 -0.08466985 -0.078393385 -0.08365662 -0.07939225 0.1645974 -0.05188724
0.15053517 -0.11112514 -0.15080094 -0.038631983 -0.048162512 0.13812488 -0.010814458 -0.004303038
-0.07213514 -0.03779304 0.033993404 -0.07263747 -0.09907113 0.18043965 0.13068613 -0.08348902
-0.31501412 -0.12415753 0.25191 -0.011599259 -0.07071723 0.08629305 -0.12154266 -0.1807758
-0.19938484 0.14006102 0.062637925 0.08349683 0.096710615 0.04746049 0.11845183 -0.04652248
-0.13883622 -0.036710512 0.12634474 -0.07607544 0.041390177 -0.051545944 -0.0955017 0.04422019
-0.2657478 0.068935804 0.085601926 -0.095538385 0.02007848 -0.017567793 -0.03716723 -0.23453814
00000000: 85d3 11be 83bb e93c db80 0bbe 759a 7cbd
00000010: fe2b de3d 606b 79be 3e03 9bbc 57bc e3be
00000020: c1b2 02be 5aef 3fbe b809 ff3d 69c2 663d
00000030: 5271 1a3e 290c 813d 76ad c93d 84a1 16be
00000040: 2973 0cbe 9855 28be 342c 433e d7d8 353d
00000050: b8a6 31bc 3121 ac3e b346 a3be e42a 24be
00000060: ca18 1abd c09f 16be b8e3 58bd 6eb0 0f3e
00000070: cac3 9dbe 9074 84be ab78 04be dbea 2d3e
00000080: 6826 9b3d 1150 403d 0993 0fbe 18eb c2be
00000090: fa1a ebbc 55a9 553e b4b6 013e 42f4 973e
000000a0: 9820 fa3d c28a 27be 1825 01bf 59ad b13d
000000b0: 9fcb 3f3b 84ae afbd b722 003e 920e 893c
000000c0: 7b35 473e d2a1 8bbe 1898 3c3d 1db7 73bd
000000d0: fc2d 1cbd a1bd aabd 1aee e53e b6f3 93be
000000e0: 5f8f 073c cf34 94be 1a96 03bc d55b 053d
000000f0: 3ba3 eb3d 0af7 edbd bf50 a3bc 6609 d7bd
00000100: 7c1a a13c 7fc9 97bd d3fb e33d 23b2 63bd
00000110: ffc1 583e 4eb5 053c c454 55bd 3437 d03d
00000120: bf84 88bd 6f46 37bf 3201 5f3e d7b4 9e3a
00000130: 1b69 92be 22cf 17be 6d0b 84be 80ef 3c3d
00000140: dcfc 98bd f345 25be 6384 02bc fa7b 1d3c
00000150: 7bac 8d3e 4075 d23c 7787 8ebd 3e0f efbd
00000160: 26ac 263d 7a99 093e bedf 25be 058d 08be
00000170: 1545 f7bc dbc0 293d a7d5 9dbd 5b04 8f3d
00000180: aa67 a73e c820 043e be37 a3bc 64b7 9cbd
00000190: f6ae 9fbe 52d7 093d 4252 61bd 5564 f53d
000001a0: 01b9 abbe b596 0bbf 7f43 00be 432c 3fbe
000001b0: 12c7 e2bd 1445 103c 2aed 7cbd 78ea 4f3e
000001c0: 9f6c 15be 3463 13bd c43b 933d 55b9 473d
000001d0: e4f2 8cbc 9226 35be 4692 823d 7f9a 03be
000001e0: 7da5 54be dae0 23bd c2f5 d3ba ea81 f5be
000001f0: 7aed cd3d 8aae f9bd 6f7f 20be 3084 46be
00000200: a436 f83c 17cc 513e a927 b23c ce96 9d3d
00000210: 1bd1 98bd dd66 1dbe 3994 543e aac8 34be
00000220: 5459 90bd fa9e f13b 6c52 62bd 5bb5 3f3e
00000230: edb6 473d 5c0c 4c3d 7efe a73d bb38 2dbe
00000240: 22e5 8cbe 419e 2dbe a149 d3bd ac04 b9bd
00000250: 45da fdbd cbf3 66bc 87cf 883d c9c4 ed3c
00000260: f628 40be 3352 5ebd 75be 623e 9ac6 a4bd
00000270: eaac 90b8 805e a8bd 2f8d 743e 7972 9ebc
00000280: 83b8 e9bb 6125 fbbc 8e1f 4f3e 123c 97bd
00000290: 6986 2c3c f856 253e e5ff 32be d226 cebb
000002a0: f075 ab3d 07a0 0fbe dba9 5b3e 4c1c a8be
000002b0: d34a c2bd 0949 cbbc 317f 45be fc14 373e
000002c0: ce39 633c 4d85 973d 320b 423d 7fd2 aa3d
000002d0: 7f2b 19be 10cf 56bc 6d69 073d 8539 8dbe
000002e0: 4edd 253e 6181 7e3d 0dbc 833c 562f 2c3e
000002f0: b983 48be 2358 163e 81b9 bcbc aea5 01be
00000300: 0f72 253e c416 20be 3dc3 63be d84f 903d
00000310: 8976 04bd ad34 afbd 62bb 28bd a0d4 bd3c
00000320: 7053 ecbd e78b 0dbe 6367 adbd b68c a0bd
00000330: 2954 abbd 6798 a2bd 398c 283e b787 54bd
00000340: e425 1a3e 9495 e3bd 906b 1abe 923c 1ebd
00000350: 0e46 45bd 9c70 0d3e 202f 31bc 8000 8dbb
00000360: 97bb 93bd e0cc 1abd ab3c 0b3d f4c2 94bd
00000370: cee5 cabd 2cc5 383e 96d2 053e 4bfc aabd
00000380: 8849 a1be 4e46 febd 59fa 803e d20a 3ebc
00000390: 32d4 90bd 69ba b03d 5ceb f8bd 4b1d 39be
000003a0: 8a2b 4cbe 286c 0f3e 5048 803d 6300 ab3d
000003b0: 3710 c63d ee65 423d e096 f23d 5b8e 3ebd
000003c0: 152b 0ebe c35d 16bd 8460 013e 71cd 9bbd
000003d0: bf88 293d d721 53bd 6596 c3bd 3b20 353d
000003e0: 1810 88be 372e 8d3d 1050 af3d a1a9 c3bd
000003f0: a07b a43c 55ea 8fbc aa3c 18bd c42a 70be

bias f4 [128]
-0.10615086 -0.03391944 -0.12043784 0.014656935 -0.051996622 -0.18858592 -0.06745887 -0.07011414
-0.11603362 0.061972316 -0.10854607 -0.0024821265 -0.037049193 -0.14535828 0.018574765 0.063164234
0.0568161 0.16644552 -0.2061188 -0.06047493 -0.08041799 0.018607587 -0.06928765 -0.12079952
0.072922096 0.015277957 0.08603573 -0.036288828 -0.05088055 0.04546949 -0.033048403 -0.05369133
-0.058552194 -0.054484066 0.008001198 -0.02678648 -0.018126829 -0.041735 -0.106392264 -0.1492041
-0.030562768 -0.015053552 -0.07290963 -0.08848226 -0.13810731 -0.05619634 -0.006401606 0.103577964
-0.10522122 -0.07173155 -0.0072255004 -0.08674582 0.06875339 0.0010564678 -0.106177196 -0.028156247
-0.061213095 0.004520201 -0.14695385 -0.012643091 0.05146353 -0.15337628 -0.0067923674 -0.15746059
0.05955561 0.041211665 -0.08075731 -0.10429518 -0.049888495 0.16370401 -0.013612822 -0.007963873
-0.1650023 -0.10027749 0.06779372 -0.028980164 -0.08083279 -0.1788298 -0.04555973 -0.0029034675
0.047629915 0.039868314 0.004376504 -0.0069975997 -0.058145232 -0.0447115 0.09269143 0.03464626
-0.15389466 -0.07577705 -0.010647455 0.037750743 0.031299848 -0.027043834 -0.14438643 0.012051588
0.028247176 0.0037809634 -0.11279262 -0.034828063 -0.16495426 -0.06021805 -0.06995404 0.13238613
-0.03241068 -0.02624879 -0.03842009 -0.09666237 -0.08318125 -0.10663461 -0.055669855 -0.1429458
-0.124763735 0.017467719 -0.07030276 -0.14962272 0.0062284158 -0.08964697 0.06657277 -0.088023394
-0.0880381 -0.032008037 -0.08243531 -0.09086906 -0.07494945 -0.064688876 -0.09276032 0.036464233
00000000: 9f65 d9bd 1cef 0abd 1da8 f6bd a423 703c
00000010: 69fa 54bd ab1c 41be e027 8abd 0198 8fbd
00000020: 09a3 edbd afd6 7d3d 674d debd 2cab 22bb
00000030: e5c0 17bd cdd8 14be 1b2a 983c 405c 813d
00000040: 00b8 683d b270 2a3e cf10 53be 8fb4 77bd
00000050: 30b2 a4bd f06e 983c afe6 8dbd bd65 f7bd
00000060: 2e58 953d 6550 7a3c 8033 b03d 98a3 14bd
00000070: 2068 50bd 373e 3a3d c35d 07bd 71eb 5bbd
00000080: 6dd4 6fbd af2a 5fbd 7517 033c 526f dbbc
00000090: b77e 94bc 52f2 2abd 30e4 d9bd f6c8 18be
000000a0: c55e fabc 2ca3 76bc a551 95bd 3036 b5bd
000000b0: 016c 0dbe 222e 66bd 90c4 d1bb af20 d43d
000000c0: 397e d7bd fee7 92bd e4c3 ecbb cba7 b1bd
000000d0: 94ce 8c3d 2d79 8a3a 6e73 d9bd eea7 e6bc
000000e0: 95ba 7abd 321e 943b 127b 16be f824 4fbc
000000f0: 6ccb 523d ac0e 1dbe 8292 debb 593d 21be
00000100: 95f0 733d 90cd 283d 1764 a5bd b698 d5bd
00000110: e157 4cbd 06a2 273e 5008 5fbc e87a 02bc
00000120: 5df6 28be 495e cdbd 6fd7 8a3d cf67 edbc
00000130: a98b a5bd 291f 37be d79c 3abd 1a48 3ebb
00000140: 9617 433d f54c 233d c768 8f3b 1f4c e5bb
00000150: b229 6ebd 6823 37bd 01d5 bd3d 3de9 0d3d
00000160: 9096 1dbe ff30 9bbd aa72 2ebc 86a0 1a3d
00000170: 4534 003d 088b ddbc 09da 13be 0674 453c
00000180: 9f66 e73c 0aca 773b d1ff e6bd dfa7 0ebd
00000190: c5e9 28be 34a7 76bd 1044 8fbd 3b90 073e
000001a0: 10c1 04bd b407 d7bc 625e 1dbd ecf6 c5bd
000001b0: ee5a aabd 3f63 dabd 1306 64bd 6260 12be
000001c0: 2184 ffbd 7618 8f3c e5fa 8fbd b336 19be
000001d0: bd17 cc3b d598 b7bd 4e57 883d 9c45 b4bd
000001e0: 524d b4bd dc1a 03bd d8d3 a8bd 8f19 babd
000001f0: 197f 99bd 9a7b 84bd 1ff9 bdbd 855b 153d

weight f4 [128, 128]
-0.124157 0.08199606 -0.02821869 -0.049178712 -0.028492166 0.051967725 0.4485877 -0.15512551
0.072886854 -0.10692306 -0.05584834 0.10191267 0.13919231 -0.18158767 -0.05971046 -0.03376005
0.010136479 -0.08719952 -0.19703822 0.06383974 -0.0026322084 -0.112961434 -0.13255017 0.22336642
-0.058209527 -0.2474732 -0.08507525 -0.19022113 0.1218165 0.35287243 -0.026756039 -0.3700506
0.1656958 0.18154235 -0.005766071 -0.17229901 0.025848543 -0.14013153 -0.09902873 0.17377676
-0.057397164 -0.04608042 0.14135128 0.1501289 -0.29065156 -0.18434381 0.017328719 -0.15907787
0.04363429 0.13051808 0.120683946 0.080449745 -0.046661098 -0.1209587 0.12702633 0.06113785
0.094523184 0.14511457 0.06293563 0.004446197 0.25791237 -0.12215324 -0.17986973 0.06037261
0.08486393 -0.05647587 -0.26618862 -0.05887379 0.19777891 -0.17405115 -0.20194797 0.24407494
0.31283787 -0.06667505 0.23551583 0.119593285 0.0003243602 -0.22644548 0.16164953 0.039014023
-0.024697712 -0.028773103 0.028130896 -0.011360063 -0.052656375 0.2828575 -0.1288694 -0.079544224
-0.0042110095 0.10131548 0.15744336 -0.07785991 -0.12808722 0.09245652 -0.023185046 -0.10290724
-0.033632383 0.066613875 -0.13709079 -0.052527905 -0.0036126277 0.06646334 0.09214694 0.104628295
-0.02104386 -0.06790202 0.019138448 0.12188934 -0.1251105 0.061437674 -0.18189715 0.052551977
-0.11684376 -0.14675458 0.035804614 0.26620257 -0.24174936 0.15883152 0.06735301 -0.07920812
0.07844071 -0.037287652 -0.107008755 0.12159759 0.12882194 0.046844542 -0.21904336 -0.029430281
-0.06575866 -0.100004226 -0.21966943 -0.18100385 -0.005942285 -0.20601308 0.29047698 -0.10223747
-0.19386435 0.31410918 -0.18150944 -0.10944017 0.049656637 0.1283066 -0.06676461 0.03355714
0.12565221 0.10627322 -0.15294723 -0.14768595 0.07808452 0.13780451 -0.044270065 -0.10274765
-0.18080848 0.09516389 -0.03641315 0.0073464825 -0.06389251 0.10456092 -0.22505517 -0.22763848
-0.083058506 0.0021510425 0.011629798 0.024585694 -0.024027143 -0.21755329 -0.005960988 -0.29460135
-0.11641283 0.0972442 0.012281808 -0.11729709 0.3196475 0.080926426 -0.12044744 -0.077157326
-0.01585781 -0.110869646 0.009752787 -0.18817084 -0.23741482 -0.08734057 0.20640217 0.02992563
0.06977407 -0.12610193 0.1544721 -0.03128166 0.23248117 0.14428905 -0.002910724 0.049891725
-0.064497076 -0.08787474 -0.0012473195 -0.19567081 -0.26000667 0.03497778 0.10605488 -0.2269273
0.16837873 -0.03692654 0.0060024 -0.05721604 -0.04953392 0.43997163 0.025743017 0.31574118
-0.22680412 -0.12746795 0.08909343 0.23726554 0.10750677 -0.09915094 0.19024125 -0.1843601
0.07215712 -0.03438312 0.052861556 -0.24644406 -0.06479322 0.32172906 -0.16136585 -0.055315655
-0.0057566455 -0.3571717 -0.16489418 0.03694607 -0.06971417 0.20877397 0.0079333605 -0.029456178
-0.06865011 0.07270616 -0.113803476 -0.03198097 0.03378369 -0.07271159 -0.060272858 -0.2975272
-0.120982036 -0.15612134 -0.030646008 -0.07557025 0.09126147 0.073305786 -0.4436218 -0.18839414
0.060815383 -0.19980425 -0.1392928 -0.111752026 0.034746103 -0.113940515 -0.10141819 -0.23429413
00000000: 0646 febd 8ded a73d e22a e7bc 9e6f 49bd
00000010: 6768 e9bc 1cdc 543d 49ad e53e 39d9 1ebe
00000020: b445 953d 7afa dabd 3bc1 64bd 97b7 d03d
00000030: 6e88 0e3e 1ef2 39be f592 74bd fa47 0abd
00000040: 7913 263c a995 b2bd 63c4 49be 69be 823d
00000050: 2181 2cbb 5358 e7bd 3bbb 07be 2bba 643e
00000060: 1d6d 6ebd 9d69 7dbe ef3b aebd 54c9 42be
00000070: ee7a f93d b2ab b43e 7b2f dbbc 4677 bdbe
00000080: 29ac 293e 3de6 393e 4ff1 bcbb 276f 30be
00000090: 53c0 d33c a47e 0fbe 93cf cabd 89f2 313e
000000a0: 4a19 6bbd d3be 3cbd 64be 103e 64bb 193e
000000b0: 48d0 94be a0c4 3cbe f5f4 8d3c 4fe5 22be
000000c0: dfb9 323d 88a6 053e 2529 f73d d6c2 a43d
000000d0: b51f 3fbd 32b9 f7bd 3113 023e af6b 7a3d
000000e0: 5f95 c13d ea98 143e 65e4 803d 67b1 913b
000000f0: 170d 843e 7a2b fabd c52f 38be 4549 773d
00000100: 24cd ad3d 3e53 67bd e049 88be a525 71bd
00000110: 8e86 4a3e 773a 32be 73cb 4ebe c8ee 793e
00000120: 492c a03e ee8c 88bd 102b 713e 53ed f43d
00000130: e40e aa39 53e1 67be 7487 253e 2bcd 1f3d
00000140: db52 cabc 92b5 ebbc c472 e63c 8f1f 3abc
00000150: 36ae 57bd b3d2 903e 57f6 03be 15e8 a2bd
00000160: 82fc 89bb 7e7e cf3d d538 213e 0475 9fbd
00000170: 4c29 03be d859 bd3d 91ee bdbc 08c1 d2bd
00000180: 1cc2 09bd db6c 883d 8761 0cbe 8027 57bd
00000190: d6c1 6cbb ee1d 883d 89b7 bc3d 5c47 d63d
000001a0: 2c64 acbc 3710 8bbd 3cc8 9c3c 1ea1 f93d
000001b0: f81c 00be 12a6 7b3d 3f43 3abe be40 573d
000001c0: c84b efbd d546 16be dca7 123d b44b 883e
000001d0: 258d 77be bba4 223e 60f0 893d de37 a2bd
000001e0: 86a5 a03d f0ba 18bd 6827 dbbd 2808 f93d
000001f0: e6e9 033e 10e0 3f3d e74c 60be c617 f1bc
00000200: 7aac 86bd 04cf ccbd 06f1 60be 1359 39be
00000210: 80b7 c2bb 18f5 52be 66b9 943e e161 d1bd
00000220: 6084 46be ebd2 a03e 9cdd 39be 2b22 e0bd
00000230: c264 4b3d ce62 033e e2bb 88bd 3673 093d
00000240: f9aa 003e c6a5 d93d 339e 1cbe fc3a 17be
00000250: c7ea 9f3d a01c 0d3e 8754 35bd 5c6d d2bd
00000260: dc25 39be 49e5 c23d f525 15bd c3ba f03b
00000270: 14da 82bd 0924 d63d dd74 66be 101a 69be
00000280: 941a aabd 81f8 0c3b e98a 3e3c f067 c93c
00000290: 92d4 c4bc 4ac6 5ebe 6454 c3bb fdd5 96be
000002a0: da69 eebd f827 c73d a339 493c 7539 f0bd
000002b0: d6a8 a33e c1bc a53d 26ad f6bd a904 9ebd
000002c0: 3de8 81bc a00f e3bd 27ca 1f3c dbaf 40be
000002d0: df1c 73be 9ddf b2bd 175b 533e 9826 f53c
000002e0: b5e5 8e3d dd20 01be ef2d 1e3e 3321 00bd
000002f0: 8b0f 6e3e 82c0 133e d8c1 3ebb 445b 4c3d
00000300: 0b17 84bd acf7 b3bd 197d a3ba ee5d 48be
00000310: 981f 85be dc44 0f3d 4d33 d93d a15f 68be
00000320: 796b 2c3e 4940 17bd c8af c43b 5e5b 6abd
00000330: 14e4 4abd f643 e13e 05e3 d23c d4a8 a13e
00000340: 573f 68be f586 02be 9e76 b63d bdf5 723e
00000350: 822c dc3d a60f cbbd 9ace 423e e5c8 3cbe
00000360: 1dc7 933d 50d5 0cbd 5c85 583d d55b 7cbe
00000370: 4fb2 84bd acb9 a43e 173d 25be ab92 62bd
00000380: 3ea2 bcbb 36df b6be 05da 28be c354 173d
00000390: 4ec6 8ebd d8c8 553e edfa 013c 154e f1bc
000003a0: 6e98 8cbd f8e6 943d cc11 e9bd 7afe 02bd
000003b0: c460 0a3d d0e9 94bd ace0 76bd 7c55 98be
000003c0: 6ec5 f7bd 46de 1fbe 560d fbbc 93c4 9abd
000003d0: 4be7 ba3d 5821 963d 6622 e3be 65ea 40be
000003e0: 8d19 793d 7c99 4cbe c6a2 0ebe 3fde e4bd
000003f0: ee51 0e3d a559 e9bd 57b4 cfbd cdea 6fbe

bias f4 [128]
-0.14396368 0.16309337 0.005263296 -0.039561767 -0.17918676 -0.06933307 0.10739881 -0.2221328
0.18833254 -0.12629886 -0.07589843 -0.16663879 -0.116034195 -0.015246076 -0.15643261 0.07404203
-0.17656814 -0.31063902 0.025973989 -0.021999972 -0.098541014 -0.16586137 0.038144 0.0767753
0.022576168 -0.018893326 0.11720078 0.016447468 -0.05818662 -0.2357802 0.06530731 -0.12341099
-0.011170297 -0.070217945 0.011812919 -0.16087656 -0.05014156 0.007133643 0.074749745 -0.13415037
-0.100583605 0.12950738 0.15562758 0.0369297 0.03563306 -0.0012227129 0.047578763 -0.004966644
-0.12049837 0.060126472 0.0067712623 -0.009389418 -0.049675263 -0.004057546 0.043407694 -0.016338386
-0.16289513 -0.031476725 0.012940842 0.011434268 -0.12452415 0.054711726 0.07134278 -0.0020683273
-0.13535987 -0.17334479 0.07575958 -0.12256314 -0.102567546 0.15977547 0.09639744 -0.14144398
-0.113075025 -0.13440093 -0.026219757 0.058903493 0.1335144 -0.059475817 -0.10186144 -0.011314574
0.013611509 0.0031568971 0.04149675 -0.10172191 -0.12777755 -0.08115506 -0.11189075 -0.057423633
0.040125273 -0.005186509 -0.16495357 -0.056233298 -0.04480424 -0.13825896 0.027565662 0.07525623
-0.069704354 -0.054765005 0.18676092 0.037547003 0.11131694 -0.036115427 -0.05950891 -0.025046876
0.039198104 0.013886789 0.020513576 -0.10185289 -0.074855745 0.11754367 0.043546017 -0.15412815
-0.069241755 -0.12773108 0.10474754 0.10438879 -0.092555836 -0.16151558 0.10003729 -0.17234863
-0.13025968 -0.1756643 -0.05573109 -0.13864791 0.056410555 0.06930304 0.028354451 0.13305156
00000000: 376b 13be f301 273e ba77 ac3b 850b 22bd
00000010: bc7c 37be 7ffe 8dbd e8f3 db3d c876 63be
00000020: 3fda 403e 7d54 01be a370 9bbd 5ca3 2abe
00000030: 56a3 edbd adca 79bc df2f 20be 59a3 973d
00000040: 47ce 34be 140c 9fbe 67c7 d43c 4939 b4bc
00000050: dfcf c9bd 90d7 29be e23c 1c3d 5e3c 9d3d
00000060: a8f1 b83c 2dc6 9abc f606 f03d d7bc 863c
00000070: 1855 6ebd 5d70 71be d7bf 853d e7be fcbd
00000080: 9f03 37bc 6dce 8fbd f98a 413c d3bc 24be
00000090: 3d61 4dbd 56c1 e93b 6516 993d b75e 09be
000000a0: c7fe cdbd 959d 043e d65c 1f3e 9943 173d
000000b0: f9f3 113d 7043 a0ba f3e1 423d 3bbf a2bb
000000c0: d9c7 f6bd 2d47 763d 77e1 dd3b 13d6 19bc
000000d0: 4a78 4bbd 2af5 84bb 44cc 313d 14d8 85bc
000000e0: fbcd 26be bded 00bd d305 543c cc56 3b3c
000000f0: 8406 ffbd 6719 603d 2a1c 923d c68c 07bb
00000100: c79b 0abe 4c81 31be d727 9b3d 6202 fbbd
00000110: ef0e d2bd 2e9c 233e 056c c53d b1d6 10be
00000120: e193 e7bd 66a0 09be d1ca d6bc ca44 713d
00000130: 00b8 083e ea9c 73bd bb9c d0bd c360 39bc
00000140: cf02 5f3c f2e3 4e3b 7ff8 293d 9453 d0bd
00000150: 1ed8 02be a034 a6bd fa26 e5bd 0b35 6bbd
00000160: 665a 243d 97f3 a9bb 97e9 28be e354 66bd
00000170: a784 37bd c293 0dbe 62d1 e13c f01f 9a3d
00000180: 28c1 8ebd 4551 60bd 413e 3f3e e3ca 193d
00000190: 23fa e33d c5ed 13bd 9dbf 73bd 1b2f cdbc
000001a0: 318e 203d 6a85 633c 160c a83c 3f98 d0bd
000001b0: f84d 99bd bcba f03d 4f5d 323d c5d3 1dbe
000001c0: 9fce 8dbd f0cb 02be e185 d63d cac9 d53d
000001d0: ea8d bdbd 5764 25be 5ae0 cc3d 297c 30be
000001e0: cb62 05be 58e1 33be 4946 64bd b8f9 0dbe
000001f0: c10e 673d c1ee 8d3d 9847 e83c ab3e 083e

weight f4 [128, 128]
0.05435885 -0.0131669585 -0.05147598 -0.09563045 0.025911441 0.23308854 -0.31052473 0.03943007
-0.27536374 0.1090077 0.08305024 0.03444527 -0.020693285 -0.06359392 0.06328058 -0.037561517
0.028304683 0.20487393 0.2668695 -0.10938315 0.11770109 0.017178614 -0.071442 -0.053096946
0.106034756 -0.015373564 -0.099082716 0.019344047 -0.11214223 -0.35595247 0.037980393 -0.056925036
-0.4310486 -0.06987362 0.06019365 0.009676528 -0.00699917 0.28534743 -0.020781763 0.02781776
-0.09080366 -0.004100987 -0.15524952 -0.0011928077 0.025133677 0.056108702 -0.2228985 0.12865074
-0.16751488 0.061190736 0.21259831 -0.11235938 -0.22344626 -0.04771164 -0.012933928 -0.004886846
-0.038853366 0.076290004 0.02017195 -0.1271359 0.06958887 -0.068947606 -0.1705762 -0.26687172
-0.120713204 -0.32752317 0.0659857 -0.008557051 -0.26033488 -0.18314926 -0.113206565 -0.12479508
0.06425113 -0.011159201 -0.008503534 0.06155854 -0.1415595 0.07451351 0.08744558 0.2642864
-0.054483905 0.01691501 -0.44555598 0.08068379 -0.12865633 -0.04206732 0.07634877 0.117182456
-0.2988393 -0.09770555 0.030299556 0.07759289 0.028158356 -0.06836201 0.11936974 0.025609054
0.025824925 0.054374296 -0.056212626 -0.09895211 0.11865015 -0.2204688 -0.15111321 -0.0771727
-0.14219368 0.036660075 -0.08581679 0.07357084 -0.08613531 -0.08161826 0.08772353 -0.32096377
-0.041121654 -0.0175848 -0.10379028 -0.16459538 -0.061153412 -0.016079342 0.024596242 -0.08370782
0.033039823 0.2315881 0.07917912 -0.106335156 0.053578984 -0.3513685 0.00078338064 -0.20583679
-0.105932176 0.1136055 0.03673577 0.33000207 0.0057539553 -0.034530763 -0.23424213 0.08142934
0.061675556 0.516218 0.039866753 0.0024379734 -0.007830075 -0.28592384 -0.12013455 0.13104682
0.029742088 0.27588364 -0.38450956 -0.22943169 -0.023439001 -0.05547996 -0.0073113507 0.15782207
-0.23662218 0.13548267 0.11777961 -0.016969882 -0.20272681 0.2196587 -0.043232426 0.020655464
-0.10442599 -0.031785455 -0.27956715 0.030706042 -0.15221943 -0.321572 -0.25007993 -0.061131887
0.047073055 0.09711416 0.10291974 0.3044333 0.06973697 0.019874612 -0.16043416 -0.24260032
-0.040510833 -0.068940416 -0.054437473 -0.022015925 0.050809342 -0.08893879 -0.21296297 0.044303738
-0.10757113 -0.098035276 -0.21780342 -0.0074222456 -0.03310911 0.11767083 -0.075309835 0.089650534
0.10366253 0.08325023 -0.0757089 -0.021348251 -0.10381459 0.021731302 -0.13173498 -0.040372416
-0.08749055 0.020047832 -0.050387498 -0.28813127 -0.024128424 -0.2993798 -0.29560345 -0.028901707
0.030837208 -0.02075788 -0.11808002 0.33663014 -0.29338235 0.09034241 -0.032940257 -0.11200823
0.02744389 0.17585622 -0.2760919 0.16024742 -0.6330416 -0.11032295 0.03910643 -0.04121494
-0.14512837 -0.15859987 -0.2458847 -0.10975912 -0.05601344 0.25915644 -0.018088527 -0.10749256
-0.437906 -0.07261967 -0.25914213 -0.18306908 -0.017622504 -0.13093287 0.073225774 -0.044363692
0.154643 0.21872236 -0.24924386 0.04502568 0.017041182 -0.038985275 -0.1146363 0.0052016084
-0.050954547 0.10256837 -0.45177856 -0.23991765 0.0034490358 -0.20846295 -0.04087132 -0.23856772
00000000: 63a7 5e3d 3aba 57bc 7ad8 52bd e6d9 c3bd
00000010: 3b44 d43c c3ae 6e3e 19fd 9ebe 6d81 213d
00000020: 7afc 8cbe 6e3f df3d 3f16 aa3d 7c16 0d3d
00000030: f784 a9bc 873d 82bd 4099 813d 1bda 19bd
00000040: 39df e73c 79ca 513e 1ea3 883e 4604 e0bd
00000050: 450d f13d 2aba 8c3c 2f50 92bd 2f7c 59bd
00000060: c028 d93d 67e1 7bbc e1eb cabd 6877 9e3c
00000070: d3aa e5bd 673f b6be 5491 1b3d 3a2a 69bd
00000080: 67b2 dcbe e719 8fbd 9e8d 763d 4d8a 1e3c
00000090: 4b59 e5bb 0f19 923e 843e aabc 12e2 e33c
000000a0: 45f7 b9bd 9361 86bb bbf9 1ebe fc57 9cba
000000b0: 24e5 cd3c 3dd2 653d 813f 64be 05bd 033e
000000c0: 0589 2bbe 23a3 7a3d 5fb3 593e ad1c e6bd
000000d0: 19cf 64be 486d 43bd d3e8 53bc d621 a0bb
000000e0: b524 1fbd ef3d 9c3d a53f a53c ea2f 02be
000000f0: 9c84 8e3d 6734 8dbd 87ab 2ebe 69a3 88be
00000100: 7c38 f7bd 1eb1 a7be 8323 873d e032 0cbc
00000110: 9d4a 85be 7b8b 3bbe d8d8 e7bd 9094 ffbd
00000120: 1996 833d 15d5 36bc 6852 0bbc cf24 7c3d
00000130: f9f4 10be 8a9a 983d ab16 b33d 8c50 873e
00000140: 842a 5fbd 5991 8a3c ea1f e4be 8b3d a53d
00000150: 7cbe 03be c84e 2cbd be5c 9c3d 5bfd ef3d
00000160: 7701 99be d919 c8bd c636 f83c 05e9 9e3d
00000170: 5aac e63c 6201 8cbd 1f78 f43d 14ca d13c
00000180: cb8e d33c 95b7 5e3d 363f 66bd 67a7 cabd
00000190: dafe f23d 93c2 61be 6cbd 1abe b80c 9ebd
000001a0: 389b 11be e028 163d b7c0 afbd 4fac 963d
000001b0: b667 b0bd 7927 a7bd 65a8 b33d 5d55 a4be
000001c0: 2e6f 28bd 000e 90bc 0090 d4bd b18b 28be
000001d0: 007c 7abd d3b8 83bc 0f7e c93c 016f abbd
000001e0: c454 073d 6e25 6d3e aa28 a23d 3fc6 d9bd
000001f0: a375 5b3d 92e6 b3be c95b 4d3a e1c6 52be
00000200: f8f2 d8bd 00aa e83d 3f78 163d 08f6 a83e
00000210: ad8b bc3b 2170 0dbd 2bdd 6fbe 6dc4 a63d
00000220: 829f 7c3d dd26 043f 524b 233d 68c6 1f3b
00000230: b749 00bc 9c64 92be 1a09 f6bd 2331 063e
00000240: aea5 f33c 9f40 8d3e 70de c4be 24f0 6abe
00000250: 2603 c0bc f43e 63bd 0e94 efbb 1c9c 213e
00000260: 164d 72be f8bb 0a3e 7036 f13d 6c04 8bbc
00000270: 9e97 4fbe 36ee 603e 7c14 31bd a635 a93c
00000280: 4bdd d5bd 7731 02bd 6d23 8fbe 3d8b fb3c
00000290: 69df 1bbe 16a5 a4be 7a0a 80be 6e65 7abd
000002a0: adcf 403d cae3 c63d 96c7 d23d aede 9b3e
000002b0: 42d2 8e3d 15d0 a23c da48 24be 386c 78be
000002c0: b0ee 25bd a230 8dbd d4f9 5ebd be5a b4bc
000002d0: 751d 503d 8a25 b6bd f712 5abe d677 353d
000002e0: 414e dcbd b8c6 c8bd dc07 5fbe 4f36 f3bb
000002f0: 6b9d 07bd 67fd f03d 0b3c 9abd b39a b73d
00000300: 054d d43d 197f aa3d 450d 9bbd 87e2 aebc
00000310: be9c d4bd d805 b23c 89e5 06be 8c5d 25bd
00000320: 3f2e b3bd 5a3b a43c 1f63 4ebd f185 93be
00000330: f9a8 c5bc 4f48 99be 5659 97be 46c3 ecbc
00000340: 509e fc3c 6e0c aabc f0d3 f1bd c95a ac3e
00000350: 3636 96be 7105 b93d 5dec 06bd 9264 e5bd
00000360: 02d2 e03c a713 343e eb5b 8dbe e617 243e
00000370: 040f 22bf 00f1 e1bd 102e 203d ffd0 28bd
00000380: 889c 14be 0168 22be 33c9 7bbe 64c9 e0bd
00000390: 596e 65bd 27b0 843e 642e 94bc 0f25 dcbd
000003a0: 3735 e0be 9fb9 94bd 47ae 84be 7676 3bbe
000003b0: 125d 90bc 4413 06be 65f7 953d b4b6 35bd
000003c0: bc5a 1e3e c1f8 5f3e c839 7fbe d96c 383d
000003d0: f399 8b3c 06af 1fbd 70c6 eabd 4172 aa3b
000003e0: b7b5 50bd 5e0f d23d 854f e7be f9ac 75be
000003f0: 3809 623b 5077 55be af68 27bd 194b 74be

bias f4 [128]
-0.12334754 -0.078945294 -0.05788712 -0.106129 -0.023291191 0.14228734 -0.13315892 0.012347873
-0.041216936 -0.08555654 0.006675823 0.105843596 -0.09282272 -0.08480032 0.09239371 0.14457898
-0.16517235 0.031713452 0.13453797 -0.03086036 -0.1010636 -0.1444563 -0.14767231 -0.19088416
0.15469077 -0.08489242 -0.08513761 0.062555306 -0.16899166 0.028762124 -0.12119617 -0.06596827
0.13351734 0.11285562 0.043657675 0.07591495 0.034159165 -0.14677319 -0.12479415 -0.07223481
-0.14576119 0.043981507 -0.12339248 -0.06854843 -0.068284534 -0.0021166757 -0.07521905 0.19221176
-0.13872492 0.24031839 0.13172364 0.13950755 -0.09152784 -0.12374232 -0.16191205 -0.09821922
-0.024182985 -0.09310719 -0.050369892 -0.1755171 0.09596687 0.078426726 0.2028898 0.10158598
-0.14783275 0.008410313 -0.1313976 -0.093224265 -0.1058382 -0.032096744 0.0663644 0.14490072
0.17260118 -0.11771382 0.16926742 -0.06457758 -0.1777169 -0.114174016 0.25076807 0.106091596
0.070439145 -0.049228102 0.0031799213 0.016920371 0.06820881 -0.10670153 0.050878827 -0.14366171
-0.07640728 0.20589778 0.08290425 0.113264196 -0.09542601 -0.11488118 0.0024239558 -0.022211947
-0.058792118 0.006390905 -0.12916365 0.008474854 -0.017998986 -0.010603303 0.16276477 0.061633684
-0.0528777 0.08763267 -0.024995081 -0.11082942 -0.04006264 -0.12948374 0.067342766 -0.0749607
0.11086086 -0.0731179 -0.07327678 0.14724465 0.083729975 -0.04703455 0.013272472 -0.06653502
0.1010147 0.026775386 0.10590281 -0.1524915 0.114035405 -0.06713719 -0.13285479 -0.13934442
00000000: a39d fcbd 12ae a1bd 0b1b 6dbd 295a d9bd
00000010: 2bcd bebc c6b3 113e d05a 08be bc4e 4a3c
00000020: 17d3 28bd 4438 afbd ddc0 da3b 87c4 d83d
00000030: d719 bebd caab adbd ea38 bd3d 830c 143e
00000040: f122 29be f7e5 013d 52c4 093e dece fcbc
00000050: 6ffa cebd 5aec 13be 6937 17be 2377 43be
00000060: 4267 1e3e 14dc adbd a15c aebd ff1c 803d
00000070: 260c 2dbe 8c9e eb3c b335 f8bd 5f1a 87bd
00000080: c5b8 083e d920 e73d 64d2 323d 4c79 9b3d
00000090: 7bea 0b3d b64b 16be 1394 ffbd d8ef 93bd
000000a0: 6c42 15be f425 343d 32b5 fcbd 1f63 8cbd
000000b0: c3d8 8bbd edb7 0abb 720c 9abd 29d3 443e
000000c0: e80d 0ebe 0616 763e 90e2 063e 11db 0e3e
000000d0: f372 bbbd 9d6c fdbd 46cc 25be 2927 c9bd
000000e0: 651b c6bc fcae bebd a950 4ebd c1ba 33be
000000f0: 478a c43d 319e a03d 58c2 4f3e 4f0c d03d
00000100: 7861 17be 69cb 093c 188d 06be 5dec bebd
00000110: b3c1 d8bd e077 03bd 0fea 873d db60 143e
00000120: 5dbe 303e f113 f1bd 7054 2d3e 4041 84bd
00000130: 6bfb 35be 11d4 e9bd ac64 803e 8d46 d93d
00000140: 6642 903d 68a3 49bd 3a66 503b 979c 8a3c
00000150: 10b1 8b3d 5586 dabd 5166 503d 0e1c 13be
00000160: 6c7b 9cbd ded6 523e b4c9 a93d 0ff7 e73d
00000170: b66e c3bd d346 ebbd 3bdb 1e3b d4f5 b5bc
00000180: 01d0 70bd cc6a d13b 7a43 04be 1dda 0a3c
00000190: 9c72 93bc 7ab9 2dbc cfab 263e 9a73 7c3d
000001a0: 4a96 58bd c278 b33d 7cc2 ccbc 89fa e2bd
000001b0: b918 24bd 6397 04be 01eb 893d ff84 99bd
000001c0: 050b e33d d6be 95bd 2312 96bd 4dc7 163e
000001d0: 9f7a ab3d 4da7 40bd c874 593c 8343 88bd
000001e0: cce0 ce3d 0e58 db3c 93e3 d83d bb26 1cbe
000001f0: 658b e93d 397f 89bd 160b 08be 4eb0 0ebe
