nerf_models/warmup.pth (torch, 646074 bytes, 22 tensors)

weight f4 [128, 63]
000000 55 98 94 bd 00 15 c6 3d b1 a2 3e 3d be c5 e3 3d
       -0.072556175 0.09671974 0.046541873 0.11121701
000010 30 f9 d9 bd 22 1a 46 be b9 65 bf bd e1 54 3e bd
       -0.10643232 -0.19345906 -0.09345574 -0.046467666
000020 c1 99 28 3d 37 41 b3 bd 9e 82 34 be 05 12 c9 3d
       0.041162256 -0.08752673 -0.17627952 0.0981789
000030 20 8e ba 3d f8 c4 53 be 9c f7 d3 bd 89 ea 6f 3c
       0.091091394 -0.20680606 -0.10349962 0.01464332
000040 81 bd 0e be 7e 1c d1 3d 00 c1 e4 bd d2 b0 92 3d
       -0.13939478 0.102105126 -0.11169624 0.07162632
000050 8c 95 68 3e ff e3 20 be 99 cc 03 3e dd 78 71 3e
       0.22713298 -0.15711974 0.12871017 0.23581262
000060 7c 5e 55 bc 5f 93 8f 3d d5 8e da 39 fd a9 44 39
       -0.013023015 0.07010531 0.00041686618 0.00018755342
000070 21 d4 cd 3d d1 58 a9 3c 79 66 35 be 6c 6d c6 3d
       0.10050226 0.020672234 -0.17714871 0.09688839
000080 26 eb 37 3d 3c 5f b7 3d 22 29 2f 3c 55 92 e7 bd
       0.04490199 0.089537114 0.010690959 -0.113072075
000090 2c ae 3f bc 77 f6 73 b9 ab c4 70 bd 07 ad 08 3e
       -0.011699241 -0.00023266101 -0.058781307 0.13347255
0000a0 49 07 65 be 44 4e 84 bd 6d cd 1a 3e b0 6a 1a 3e
       -0.2236606 -0.064602405 0.15117426 0.1507976
0000b0 80 fb 3a be ff 0f aa bd b2 be a5 bd a4 8c 54 be
       -0.18260002 -0.08303832 -0.08093013 -0.20756775
0000c0 aa a5 a6 3b 40 94 ab 3e 33 76 14 3d 29 7e 52 3c
       0.0050856667 0.33511543 0.036245536 0.012847462
0000d0 7e ac 09 3e 6d 16 8e be 34 dd 9c 3e 8e ee 77 3d
       0.13444707 -0.27751485 0.30637515 0.060530238
0000e0 1f 80 db 3c 2c 61 4b bc cc b8 88 be e5 3f de bc
       0.026794491 -0.012413304 -0.2670349 -0.027130077
0000f0 52 45 e2 3c 68 24 88 3d d7 5e a1 bd 6a ab 3a bd
       0.027620945 0.06647569 -0.078794174 -0.04557363
000100 3d bf 0a bd 84 5e c6 3d f7 0d 2a 3d 78 ae 20 3e
       -0.033873785 0.09685996 0.041517224 0.15691555
000110 9a a1 a5 3d 77 1a 7d 3d fc 3d 61 bd eb db bd bc
       0.08087464 0.061792817 -0.054990754 -0.023176154
000120 9b bd 7d 3d b7 cb fe bd 91 86 05 3e 03 cf e1 bd
       0.0619484 -0.12441199 0.13039614 -0.110258125
000130 83 bf 01 3d b4 9b 10 3e 0b e1 04 3e 95 6c 4b bd
       0.03167678 0.14121896 0.12976472 -0.0496641
000140 ff ad 18 be 03 77 b8 bd 81 c1 e1 3d 40 c0 d9 bc
       -0.14910124 -0.09007075 0.11023236 -0.02658093
000150 58 7b 9f bd 26 05 49 bc 5e 43 a4 bc 65 77 d5 3b
       -0.07787198 -0.012269294 -0.020051654 0.006514477
000160 49 2c 42 bd c8 bc 26 be 4e e6 e1 3d 33 57 d1 3c
       -0.047405515 -0.16282952 0.11030255 0.025554275
000170 7e 01 17 bd cb ed a2 bd 2d 89 ba 3d 34 e5 fe bd
       -0.036866657 -0.07955512 0.091081955 -0.12446061
000180 89 7b 4a 3e 87 5b 5a bc 32 08 19 be 7a 83 bf 3d
       0.19773687 -0.013327486 -0.14944533 0.09351249
000190 2b 9b 3d bd f0 79 e9 bd d8 f1 43 be b2 31 90 be
       -0.046290558 -0.11400211 -0.19135225 -0.28162915
0001a0 34 a4 81 bd 9a b3 56 be c3 6e e9 3c c2 14 24 be
       -0.063301474 -0.2096695 0.028495198 -0.16023543
0001b0 15 4f 3d be 5c e8 7b 3d d8 60 13 3e 5a 08 4d bd
       -0.18487199 0.061500892 0.14392412 -0.050056793
0001c0 e3 82 9c 3d f8 30 b5 bd 67 95 58 be bf 30 2c 3c
       0.07642152 -0.08847231 -0.21150742 0.010509669
0001d0 9b b7 c2 3d 73 63 c5 3d 6e e7 35 bc f5 b9 13 be
       0.09507676 0.09638109 -0.01110254 -0.14426406
0001e0 d5 b5 82 be e6 71 48 bd c3 c0 25 3e cf 69 05 bd
       -0.25529352 -0.048936747 0.16186814 -0.03257161
0001f0 35 ad f1 bd 0c 77 71 be 16 cb e9 3c 24 b9 9d bc
       -0.11800615 -0.23580569 0.028539222 -0.019253321
000200 55 7a f7 bc db 41 9f bd d0 c1 30 bc 0f 19 0f 3e
       -0.0302097 -0.07776233 -0.010788396 0.13974403
000210 92 5d 15 bc 54 80 b6 bd 4a 73 1f 3e 55 85 95 3d
       -0.009116547 -0.089111954 0.15571323 0.07300822
000220 76 88 10 3c 8b 0e 1b bc 50 ce 24 be db e2 36 3e
       0.008821597 -0.0094639165 -0.16094327 0.17859976
000230 80 1a ac bd 4a ba c8 3d 2f 79 9c bc 50 66 0b bd
       -0.08403492 0.09801157 -0.019100754 -0.03403312
000240 7b d6 1a 3e d4 08 fa 3d 4c 40 e7 bc 9f 34 a7 bd
       0.1512088 0.12208715 -0.028228901 -0.081643336
000250 ca a3 ca bd 58 cb fc 3b 2b 67 c4 bd 2f 7b 98 3c
       -0.098945215 0.00771467 -0.0958999 0.018613426
000260 c3 ad fa 3c 25 b3 08 be cd 27 90 3d ef e4 aa 3d
       0.030600434 -0.13349588 0.070388414 0.08344447
000270 d8 15 2b 3e 75 8c 84 3d be 25 db bd df d3 7a bd
       0.16707551 0.064721026 -0.10700558 -0.061237212
000280 be 9b 85 3b 95 ed e9 bd a2 7c dc bc 4a 78 92 bd
       0.004077404 -0.11422268 -0.026914898 -0.071518496
000290 e3 22 b4 3d 09 c3 75 bd 6b b4 da 3d 53 4a 3e bd
       0.087957166 -0.060000453 0.10678943 -0.0464576
0002a0 63 fc 23 3d bb 11 45 3d 1a f0 df bc af 82 01 3d
       0.040035617 0.048112612 -0.027336169 0.03161877
0002b0 20 b4 0d 3d 7f 9d dc 3d ac b1 2a 3d 5f c7 cc 3d
       0.03459561 0.107722275 0.041673347 0.099989645
0002c0 e5 f1 01 be 6e 19 86 bd 26 5c 5d 3e 88 87 b2 3d
       -0.12689932 -0.06547819 0.21617183 0.08717257
0002d0 41 aa a8 3e 72 bc c9 bd e1 e1 fa bd e6 e4 3c 3e
       0.32942393 -0.09850396 -0.12250114 0.18446693
0002e0 23 16 0c 3e 33 bb 4b bd 84 07 91 3d 44 4f 05 be
       0.1368032 -0.049739074 0.070815116 -0.13018519
0002f0 a8 27 ba bb 0e ad c1 39 c6 88 19 bd 3a 1a 11 3d
       -0.005680997 0.00036940764 -0.037483953 0.035425402
000300 99 50 4c 3d 2e 4d 51 bc 65 33 dc bc 22 05 17 3b
       0.04988155 -0.012774749 -0.026879976 0.002304383
000310 67 7b 25 bc 2c b5 dc 3d 52 f2 fb 3d 92 32 87 3d
       -0.010100222 0.10776743 0.12302078 0.066014424
000320 b7 90 96 3c c7 53 b5 bd d9 cf 0e 3e e8 7f 4b 3e
       0.018379552 -0.0885387 0.13946475 0.19873011
000330 2d 5e 4e 3d 79 d7 22 3e 7f 1e 26 3d b6 52 bf bd
       0.05038278 0.15902509 0.040556427 -0.09341948
000340 42 92 55 bd a8 e3 8f bd b4 2d 90 bc 8e a7 4e 3d
       -0.052141435 -0.07025844 -0.017599918 0.05045276
000350 54 16 d3 3c 88 41 89 3d 59 47 8e bd 9e 02 30 bd
       0.025767483 0.06701952 -0.06947202 -0.042971246
000360 60 30 86 bd 85 87 8d 3c 2d ef ba bd d3 e1 c0 bd
       -0.065521955 0.017276535 -0.091276504 -0.094180726
000370 fc 1f 86 3d d6 55 cd bd 79 75 34 3d 45 bd 61 bd
       0.06549069 -0.100261375 0.044057343 -0.055112142
000380 df 08 64 be 64 ed f7 bd d3 3c 7c 3d 55 40 2f 3e
       -0.22269009 -0.121058255 0.061581444 0.17114384
000390 24 c7 c7 3d 48 42 31 3d ef 90 c3 bd 40 f6 2c bd
       0.0975478 0.0432761 -0.09549128 -0.04222703
0003a0 11 bb 2a 3d 53 a0 ae 3d c1 a0 3c be b5 85 7e bd
       0.041682307 0.08526673 -0.18420698 -0.06213923
0003b0 1d 33 08 be 9b ce 40 3e b8 44 e0 3d f0 e8 20 3c
       -0.13300748 0.18828814 0.10950607 0.009821162
0003c0 f2 78 87 bd 70 bd 48 be cf ee d9 bd 22 0b 12 3d
       -0.06614865 -0.19603515 -0.10641252 0.03565515
0003d0 dd d9 fe bd 56 ed 4e be 3d fb 56 be 37 17 91 3d
       -0.12443898 -0.20207724 -0.20994277 0.07084506
0003e0 6e 80 5c 3e 49 15 6c be e3 ee 37 3e ac ff f2 bc
       0.21533367 -0.23054995 0.17962222 -0.02966293
0003f0 4f 16 aa bd ea bb 36 bd b7 a7 c5 bb 80 bc a1 3c
       -0.08305036 -0.044612803 -0.006031956 0.019743204

bias f4 [128]
000000 56 e8 cd bd c1 53 0b 3a 23 96 2f bd af ad b1 bd
       -0.1005408 0.00053149095 -0.04286779 -0.08675706
000010 33 83 0a 3d 0f 23 cc bc e1 40 0a 3d 11 57 1b 3a
       0.033816528 -0.024919061 0.03375328 0.00059257547
000020 3b c8 92 3c a7 5c 2f 3d 80 e9 04 be 97 56 2b be
       0.017917743 0.04281297 -0.12979698 -0.1673225
000030 3e 08 08 be 2a 9f 01 be 87 74 1f be 5c c4 1b 3d
       -0.13284394 -0.12658373 -0.15571795 0.03802906
000040 be 27 a5 3c 8b 8f 28 be d4 29 50 3d 84 53 bf 3d
       0.020160552 -0.16461007 0.05082114 0.09342101
000050 5f 43 b0 3a fb b8 43 3d 3a fc 04 3b 7d 23 db bd
       0.0013447813 0.047783833 0.002029194 -0.10700128
000060 d8 b8 8a bc f9 ce 08 bc 41 95 a0 bd 60 ec ce bd
       -0.016933843 -0.008350127 -0.07840968 -0.10103679
000070 86 78 05 3d db 01 71 bb cb 7d 0a be 07 4f 61 bd
       0.032585643 -0.0036774788 -0.13524549 -0.055007007
000080 7e 82 81 bd 65 f4 55 bd 71 b8 8c 3b 4c fa b9 3b
       -0.063237175 -0.052235026 0.004294448 0.0056755897
000090 a9 ea bd bd e2 89 80 bd 31 39 c4 bb 14 78 db bd
       -0.092732735 -0.06276299 -0.005988263 -0.107162625
0000a0 b6 fe b4 bd 87 6d 0c be 54 7a 0f bc f4 1b e4 bd
       -0.08837645 -0.13713656 -0.008757193 -0.11138144
0000b0 c8 0d 2e bd 2a 14 4b be 4d 2b d6 bb 1a 8c 40 bc
       -0.04249361 -0.1983191 -0.0065359236 -0.011752153
0000c0 59 eb 11 be 0f bf c5 bd fe cf 1b 3d 42 53 1a 3c
       -0.14249934 -0.09655582 0.038040154 0.009419264
0000d0 57 6c 67 bd 2b 86 84 bd 96 28 57 bd 69 58 68 3b
       -0.056499805 -0.06470903 -0.05252894 0.0035453087
0000e0 a3 cf d8 3d 2e 4c 27 be 72 69 ce bc ec 2d d3 bd
       0.105864786 -0.16337654 -0.025196765 -0.10311493
0000f0 54 4f 23 bc ad 83 06 bd 46 ac b0 3d ac 36 04 be
       -0.009967644 -0.03284042 0.086266086 -0.1291148
000100 2d 93 b0 3c 80 9d 70 bd 85 b8 0a be 4b 2a 1d bb
       0.021554554 -0.058743954 -0.13546951 -0.0023981507
000110 1a 04 d2 bd 3a 9f 35 bd e6 35 b3 bd 27 45 9f bd
       -0.102546886 -0.044341303 -0.08750515 -0.07776862
000120 6d 72 28 3d 45 de c2 3b e8 7c 83 3d a7 e4 2c bd
       0.04112475 0.0059469067 0.06420308 -0.042210247
000130 7f dc 90 bd 22 d6 e5 bd 36 f6 1d be 67 dc 35 be
       -0.07073306 -0.11222483 -0.15425953 -0.17759858
000140 5b 9c 05 be 11 11 43 be 9d 00 52 bd a7 3a 02 be
       -0.13047926 -0.19049479 -0.051270116 -0.12717687
000150 e8 f5 e2 bc 7a e2 84 bc b2 95 28 be 59 49 47 bd
       -0.027705148 -0.016221274 -0.16463354 -0.048653934
000160 f6 d5 d1 bd 0b c5 af bd 7a ed 81 3d b1 32 bd bd
       -0.10245888 -0.08582505 0.06344123 -0.09238184
000170 7f 0e 67 bd 61 2d 7c bc 56 74 34 bd 71 0a 73 3d
       -0.05641031 -0.015391679 -0.04405626 0.05933613
000180 17 b1 bb bd a3 2f 1d 3d b9 8d 56 bd 1e 2a 70 3d
       -0.091646366 0.038375508 -0.05238125 0.058633916
000190 53 a4 a1 bc b9 c4 79 3d 0a 14 02 be 1d bf f8 bd
       -0.019731676 0.060978625 -0.12702957 -0.12145827
0001a0 cd 83 9f bd 34 f4 9d 3c d6 71 0d be ce ed 13 be
       -0.07788811 0.019281484 -0.13812956 -0.14446184
0001b0 f3 36 3e bd 01 f9 56 3d ed e9 e9 bd 43 33 bf bc
       -0.046439122 0.052483562 -0.11421571 -0.023339873
0001c0 31 e8 0a bc fb d8 3b be 22 e0 18 be 7f 0f 9e bd
       -0.00847821 -0.1834449 -0.1492925 -0.077177994
0001d0 af aa 2c be d6 a0 11 3c 69 0a c2 3c 77 dd 31 3d
       -0.16861986 0.008888444 0.023686605 0.043424096
0001e0 e3 5e bf b9 3f 68 a1 bd 6b c8 75 bd 4c 01 11 be
       -0.00036501055 -0.078812115 -0.060005587 -0.14160651
0001f0 4a c0 3d bd a2 24 d7 bd 11 2b 78 3c 66 96 38 be
       -0.04632596 -0.10505034 0.015146987 -0.18026122

weight f4 [128, 128]
000000 db 8c e1 bd f7 87 ea 3c 69 b6 5a 3d 7f bc d7 bd
       -0.11013194 0.028629286 0.053396616 -0.10534
000010 90 ee 04 bc 6a f1 f0 3c b9 e5 bd bd 6b ce 3f 3d
       -0.008113518 0.02941199 -0.09272332 0.046827715
000020 15 e5 dd bc 76 91 28 be f5 99 ff 3d 53 67 f1 3d
       -0.027086774 -0.16461739 0.12480537 0.11787286
000030 dd 30 8e be 94 10 9c 3c 65 a2 b7 3d 80 17 3a 3d
       -0.27771655 0.019050874 0.08966521 0.045432568
000040 ba a2 3a be fb ff 99 bd 0f de 5d 3d cc 06 a3 3c
       -0.18226138 -0.075195275 0.05416685 0.019900702
000050 4b a8 3b 3c eb 06 2a 3d 09 8e b1 3c 64 5f 1b be
       0.011453698 0.041510504 0.021674173 -0.15173107
000060 60 40 b6 bc c4 91 e5 3c 09 25 a6 bd 26 97 44 3d
       -0.022247493 0.028023608 -0.08112533 0.04799571
000070 fb f0 36 be 42 54 d9 3c 1c ad 99 bc cb 81 87 bd
       -0.17865364 0.026529435 -0.018759303 -0.06616553
000080 f1 6c 54 3d 6d 6d aa 3d 2a 85 8d bd 33 ce 52 be
       0.051861707 0.083216526 -0.06910165 -0.20586471
000090 30 43 52 3e ba 43 d0 bc 8f 49 eb bc ff 22 39 bd
       0.20533442 -0.02542292 -0.028721599 -0.04519939
0000a0 6d 49 6d bc d9 75 93 bc e9 0c b8 3d dd 9a 70 bd
       -0.014482838 -0.01800053 0.089868374 -0.05874144
0000b0 a6 34 a8 bb 00 42 a1 bd dd cb fc 3b 3e 93 33 3d
       -0.0051332293 -0.078739166 0.007714732 0.043841593
0000c0 f6 f2 b8 bd f3 e7 cf 3d 82 fa e4 3c 54 2c 3d bd
       -0.09030716 0.10151663 0.027951483 -0.046184853
0000d0 4f ac 86 3d f6 1d fa bc 91 1a 3a bd 38 14 b8 bd
       0.06575834 -0.030531865 -0.045435492 -0.089882314
0000e0 5b 3d 7a bd bd 88 6e 3d 5f 65 70 3b e1 68 29 be
       -0.06109367 0.058235873 0.0036681516 -0.16543914
0000f0 42 67 b9 bd 57 01 56 bd cf 88 0f bd f0 7c c7 3d
       -0.09052898 -0.05224737 -0.03504258 0.09740627
000100 cc 4f 6f bd 8e aa 04 3d 77 e2 71 3d 75 6c 62 bd
       -0.05842571 0.032389216 0.059053864 -0.055279214
000110 bd b1 99 bd 3e b3 0a be 32 18 ad bd c6 15 b1 bd
       -0.07504604 -0.13544938 -0.084518805 -0.08646731
000120 58 34 0b 3d 54 53 a8 bd 6a a3 28 3e 08 1d 80 bc
       0.033985466 -0.082190186 0.16468588 -0.015638843
000130 e9 cf 89 bc 5c 78 e1 3c e4 f6 ff bc 0a 1c fa bd
       -0.016822772 0.027523212 -0.031245656 -0.12212379
000140 e6 52 29 bc d0 76 88 3d 81 a7 ba bd c5 95 ce bd
       -0.010334706 0.06663287 -0.0911398 -0.1008716
000150 ad 65 41 bc f1 75 6b 3d b1 11 3d 3d f1 4c 55 3d
       -0.011804027 0.057485525 0.04615945 0.05207533
000160 40 c0 ce bc ce 1d dc bd 94 49 a3 3d dd 4e f8 bd
       -0.025238156 -0.10747872 0.07973018 -0.12124417
000170 b5 94 86 3c f8 d7 06 bd 32 c7 14 3d 4b 04 ab bd
       0.01642833 -0.032920808 0.03632278 -0.08350428
000180 48 ad c1 bd 0d cf 0b 3e 09 ba 96 3d 72 8a 33 bd
       -0.09456879 0.13653202 0.07359702 -0.043833204
000190 14 51 82 3c 13 ef 8f 3d 83 8e 9e 3d 33 c8 d2 bd
       0.015907802 0.07028022 0.07742026 -0.10292091
0001a0 ed 8f 34 be a1 37 0b 3a 12 a0 6a b8 19 13 ba 3d
       -0.17633028 0.00053107186 -5.5939025e-05 0.09085674
0001b0 99 b1 2d 3d 33 6b ab 3d 79 5e c8 bd 3a cb 4e 3e
       0.0424057 0.08370056 -0.09783644 0.20194712
0001c0 0b b6 a0 3d b3 53 1a be 7d 0e 23 bc 61 47 0d bd
       0.07847222 -0.15070991 -0.009952185 -0.0344919
0001d0 5b d1 cd bc 09 57 bf 3d 08 d1 01 3e 20 7e c4 3b
       -0.025124243 0.093427725 0.12677395 0.0059964806
0001e0 88 c6 57 3c 34 26 05 3d 50 f1 c7 3c 4c 10 1b be
       0.013169892 0.032507136 0.024407059 -0.15142936
0001f0 c5 b9 21 be 3b fb 0e 3e 88 14 a6 bc 4c 0a 16 bd
       -0.15793522 0.13963024 -0.020273462 -0.036630914
000200 0b ff 55 be f0 d0 c6 3d f2 0f 02 be aa 15 66 bd
       -0.20898072 0.097078204 -0.12701395 -0.056173004
000210 75 ec a3 3d ba 35 e8 3d 36 2b 38 bd 93 8a b9 3d
       0.08004085 0.113383725 -0.044963084 0.09059634
000220 a2 5c fd bd 9e 3f 8d bd e0 e7 80 bc a3 63 55 3d
       -0.12371184 -0.068969 -0.015735567 0.052096974
000230 cf 65 a0 bd 0f 22 1f bc 8c ea b7 bd 68 4b 28 be
       -0.078319184 -0.00971271 -0.08980283 -0.16435015
000240 e7 2e c8 3c c7 4a b5 bd 8f 33 f2 3c 07 2e ca bc
       0.024436427 -0.08852153 0.0295656 -0.02468015
000250 53 e4 72 3d c2 b0 d6 bd 59 8e 15 bd c8 e9 9f bd
       0.05929978 -0.104829326 -0.036512706 -0.07808262
000260 df 19 23 be c7 29 a6 3d cd e6 cf 3d 84 cd 05 3e
       -0.15927838 0.08113437 0.10151444 0.13066679
000270 d9 65 a3 3d af 79 e8 bd e0 88 c3 3d 77 7c 02 3e
       0.0797841 -0.11351334 0.09547591 0.12742792
000280 08 8f ad 3d 78 72 05 bc 5f f9 83 3d 52 c4 d2 3a
       0.08474547 -0.008144967 0.06444048 0.0016080237
000290 84 db 4c bd dc 1a 1a be 39 40 a5 bd 8e d4 0c 3e
       -0.050014034 -0.15049309 -0.0806889 0.13752958
0002a0 cc 6f 18 be 3e 7b db bc 3d 6c 43 3c 25 68 32 bd
       -0.14886397 -0.026792165 0.0119276615 -0.04355635
0002b0 fc 18 d4 3d 26 4e c1 bd 4e 20 0f be c6 fd c3 3d
       0.10356328 -0.09438734 -0.13977167 0.09569888
0002c0 38 41 3b bd d3 8c 14 bd 09 b4 5c 3c 8b 27 0a 3e
       -0.045716494 -0.036267113 0.013470658 0.13491647
0002d0 e9 76 11 3d 24 2f 63 3d 3b a8 b5 bd 68 ca 92 bd
       0.035513792 0.05546488 -0.08869978 -0.07167512
0002e0 cf c5 16 3d a4 2f 59 bc bd fb 34 3d a1 9c 25 bd
       0.03680974 -0.013255987 0.04418539 -0.040432576
0002f0 f0 78 13 3e 56 63 91 bd 42 02 1e bd 54 b2 d9 3c
       0.14401603 -0.07099025 -0.038576372 0.026574291
000300 6f 86 f0 3d a6 4d c9 3d cf 37 a0 3d 06 ce 8c bd
       0.11744391 0.098292634 0.07823145 -0.06875233
000310 f1 2b 4d 3d 87 ed 82 bd 22 ab c6 3b e4 7c 03 3d
       0.050090734 -0.06392961 0.006062881 0.032101527
000320 f8 cd 26 3c e7 45 b3 bd 8c 00 43 bd 2d e0 fa 3c
       0.010180943 -0.08753567 -0.047607943 0.030624473
000330 87 33 af bd 3d 90 26 3e a5 d3 83 bd 54 99 5a bd
       -0.0855475 0.1626596 -0.06436852 -0.05336888
000340 4c 9c 81 bd 1a 99 e6 bd 63 3e 6a 3d 8c 68 a6 bd
       -0.063286394 -0.112596706 0.057188403 -0.081254095
000350 bc 73 40 bb ab 7c 27 bd ad fd d2 bb ad b2 0d 3c
       -0.0029365858 -0.040890377 -0.006438932 0.008648557
000360 0d c5 6d 3c 80 fa ba 3d da 63 04 3d 41 64 8c 3d
       0.014512313 0.0912981 0.03232179 0.068550594
000370 61 a4 ae bb 1a 1b ca 3d 8c 7a 59 bd 23 c2 1a be
       -0.005329654 0.098684505 -0.053095385 -0.1511312
000380 a9 e4 58 be fb 4c c9 3d ae 14 aa bc 11 ee cc 3d
       -0.21180977 0.09829136 -0.020761814 0.10006345
000390 20 cf b8 3d 62 c4 c1 3c 1c 61 e0 3c 5f f8 bd 3d
       0.09023881 0.023653213 0.027390055 0.09275889
0003a0 b6 83 ac 3d 93 15 91 3d 4e cb 0c be e3 c5 8f 3d
       0.08423559 0.07084193 -0.1374943 0.07020166
0003b0 1e a7 da 3c 06 b8 01 bd 9e c0 18 be a8 d6 84 bd
       0.026691016 -0.03166964 -0.14917228 -0.06486255
0003c0 9d 09 0a 3e 3d 4e 85 bd bf 2a 28 3d cf b2 0e be
       0.1348023 -0.065090634 0.04105639 -0.13935398
0003d0 eb 7f 88 bd 8c 14 02 3d 56 de a2 bc 1c 04 82 3d
       -0.066650234 0.031757876 -0.019881409 0.0634844
0003e0 69 06 b3 bd 71 9b 98 bc ff bc 3b 39 d1 fe 30 be
       -0.08741457 -0.018628808 0.00017904116 -0.17284705
0003f0 43 f6 8d 3d cf f7 a4 bc ec 4d 64 bd 13 69 03 bc
       0.06931736 -0.020137696 -0.055738375 -0.008020657

bias f4 [128]
000000 b1 7d 1b 3d 61 ca 92 3d 57 f9 57 bc 29 f8 4f 3c
       0.037961666 0.07167507 -0.013182006 0.012693443
000010 40 d5 be bd cf 5f 29 bc 4f 06 b4 bd 0e c7 3a 3d
       -0.09318018 -0.010337784 -0.08790266 0.04559999
000020 ba dc a0 bd e6 26 9d 3c 2b da cc bb 9b 63 cc bd
       -0.078546 0.019183587 -0.0062515936 -0.09979936
000030 7c 1f c2 3c 8c 3f 25 3d 76 59 ac bd 75 48 c9 bd
       0.023696654 0.040343806 -0.08415501 -0.09828273
000040 73 96 db bb ec 1b bf bb e6 49 c1 bd 80 c6 13 bd
       -0.0067012846 -0.005832186 -0.09437923 -0.036077976
000050 14 1d 81 3d 6d f0 00 3c 15 5d 79 bd 10 1b 1b bd
       0.06304374 0.007869822 -0.060879786 -0.037867606
000060 75 23 58 3d 25 e4 3e bc b5 10 5d bd 7c c0 23 3d
       0.05276819 -0.011651074 -0.05397101 0.03997849
000070 1c 05 52 3d b7 6a aa bd ea 8e 47 bd 11 04 a6 bd
       0.051274404 -0.083211355 -0.048720278 -0.08106244
000080 50 03 63 bd 8a 16 9d bd 9e 70 87 3d 87 b2 b3 bb
       -0.05542308 -0.076703146 0.06613277 -0.0054839286
000090 f6 c7 5c bd 4c e6 84 bc 47 e4 94 3c 77 26 04 bd
       -0.053901635 -0.016223095 0.018175257 -0.032263245
0000a0 3d 63 87 3d 17 26 a9 bd 97 2f e6 3c 2d 4a 32 3d
       0.06610725 -0.08259218 0.028098864 0.04352777
0000b0 33 fd 6a 3c 11 c0 17 bd 6e 2f 14 bd 1f 6e 20 3c
       0.014342594 -0.037048403 -0.036178045 0.00979188
0000c0 6d 10 1d bc 21 9f 58 3c f5 7a 7f bd 4c 48 a2 3c
       -0.009586436 0.013221533 -0.06237312 0.019809864
0000d0 74 46 53 3d 1d e7 ed 3c 6c 76 09 3d 2a 9c ba bd
       0.05158086 0.029040867 0.0335602 -0.09111817
0000e0 23 13 32 3d ad ac 1b 3d 5e a3 6d 3b fe 9d ec 3c
       0.04347528 0.038006473 0.0036260705 0.02888393
0000f0 72 83 94 bc 84 3c 4e 3d a5 e8 22 3d f0 39 d5 bd
       -0.018129084 0.05035068 0.03977265 -0.10411441
000100 b1 df 9e bd af 3c a3 bd f0 a0 5c 3d 26 32 3a 3c
       -0.077575095 -0.07970559 0.05386442 0.011364495
000110 19 28 77 bd f5 dc 70 3d b2 9b 5f 3c f0 39 1f 3d
       -0.060340974 0.05880447 0.0136479605 0.038873613
000120 2a b0 95 bd 17 91 0d bd 13 83 8b bc 48 a0 ab bd
       -0.07308991 -0.034562197 -0.017030274 -0.083801806
000130 c6 76 5f 3b 93 10 19 bd 9a 54 05 3d 54 9f e5 b9
       0.0034097894 -0.037369322 0.032551385 -0.00043796992
000140 1d b3 17 bd 30 ea 64 3d 5c 67 89 3c d2 5c 24 bc
       -0.03703605 0.0558874 0.016772918 -0.010031896
000150 d8 2b e8 bd 73 ac 49 b9 60 88 5d bd 60 ac 86 bd
       -0.113364875 -0.00019233096 -0.054085135 -0.06575847
000160 fb 4f 9a bc 32 7f b5 bd cb 24 59 bd f4 55 a5 bc
       -0.018836966 -0.08862151 -0.053013604 -0.020182587
000170 c2 73 42 bd 1e 1f 8b 3c ea 07 c3 3c 0e bf 2c 3d
       -0.047473677 0.016982611 0.023807485 0.04217439
000180 19 bd e2 bd 21 6b 10 3d 92 81 62 bd a9 5f 07 3d
       -0.11071224 0.035258416 -0.05529935 0.033050213
000190 44 c4 41 bd bd 4e 80 bd af 8e 0e 3d 77 24 45 3d
       -0.047306314 -0.06265018 0.034804042 0.04813048
0001a0 7e 81 4b 3d c9 0d a3 bd 37 ae 2e bd 2e 85 c6 3c
       0.04968404 -0.07961614 -0.042646613 0.024233427
0001b0 33 06 2a bc e8 fa 9d 3d 59 dc a8 bd 24 eb 9a bd
       -0.010377455 0.07713872 -0.08245153 -0.07564381
0001c0 db cd 0a 3c a7 44 83 3d 3c 10 58 3d df 7d 53 bd
       0.008471931 0.06409579 0.052749857 -0.051633712
0001d0 0c 02 dd 3c 7e e2 6d bd 10 f6 3d bd a4 17 c0 bb
       0.026978515 -0.058077328 -0.04637724 -0.005862193
0001e0 33 ee d9 bc 3c f8 64 3c 6c dc 48 3c f9 e7 5e bd
       -0.02660284 0.013975199 0.012259584 -0.054420445
0001f0 8b b4 12 3c f6 a2 05 bd f5 c2 79 3d eb b5 ca bd
       0.008954178 -0.032626115 0.06097694 -0.09897979

weight f4 [128, 128]
000000 ff 3a 26 bd 34 1c 1d bd 03 ed 00 3d 68 42 f6 bc
       -0.040583607 -0.038356975 0.031476032 -0.030060962
000010 3d 4a bd 3b 5e 1b aa 3d b3 b6 af bd 8f 32 f7 3b
       0.005776672 0.08306001 -0.08579769 0.007543869
000020 46 7b c9 bc 6d b7 3d bd 59 ea b7 bc 2c 88 d0 bd
       -0.024594914 -0.046317507 -0.022450613 -0.10182223
000030 85 09 d3 3c a2 53 ba 3c a2 de 88 bd 6c 93 af bd
       0.025761375 0.022744957 -0.06683089 -0.0857304
000040 c1 82 b0 bd 7c b8 a8 bc b2 8c a3 3d 48 bd f7 3d
       -0.08618689 -0.020595782 0.0798582 0.120966494
000050 bd 05 15 3e 07 6e 38 3d 07 3e 30 bd 65 77 15 3e
       0.1455297 0.045026805 -0.043027904 0.14596327
000060 86 9b 01 3e f5 8c 3c bd af 4b cd bc 22 f5 01 be
       0.12656984 -0.046032865 -0.025060503 -0.12691167
000070 f0 c1 63 bd e4 d5 ab 3d 33 8e 11 be cc 18 01 be
       -0.055604875 0.08390406 -0.14214401 -0.12607116
000080 0b a5 7b 3d 10 53 97 bd e6 d8 a5 3d d0 f9 21 be
       0.061436694 -0.0738889 0.08098011 -0.15817952
000090 23 b5 03 be 97 50 42 bd fd 11 8e 3d 9c 97 1c bd
       -0.12862067 -0.047440138 0.06937025 -0.038230523
0000a0 32 b8 b5 bd 75 cb c7 bd 3f b3 b0 bc 45 63 be 3c
       -0.08873023 -0.09755603 -0.021569846 0.023240695
0000b0 89 c4 8f bb 37 9d f6 bc b0 0f 35 be e5 06 f6 3d
       -0.0043874425 -0.030104263 -0.17681766 0.12013034
0000c0 8d c5 0d 3d e0 57 03 3e 0b e4 96 b7 08 34 74 bd
       0.034612227 0.1282649 -1.7987584e-05 -0.059619933
0000d0 de 63 16 be b7 ff 82 bd 26 a9 43 bb 50 77 bf bd
       -0.14686534 -0.0639643 -0.002985546 -0.09348929
0000e0 3b 41 cf 3d a6 3f 6e 3d 6c bc 43 3d 2e d8 11 be
       0.101198636 0.05816617 0.047787115 -0.14242622
0000f0 0b 38 05 3e 55 a4 44 3e ee 55 32 3c 15 7f 4e bd
       0.1300966 0.19203313 0.010884745 -0.050414164
000100 3e 71 3a 3d 7b 62 3e be 21 c8 fd 3b 1a 89 40 3e
       0.045518152 -0.18592255 0.0077448045 0.188023
000110 f2 9c 50 3d bb 0a 54 bc 4f 66 c5 bd 57 2e 72 bd
       0.050930925 -0.0129420115 -0.096386544 -0.059126224
000120 52 ff a3 bd c0 49 77 3b 8f 3f 46 3d 24 b5 ed bd
       -0.08007683 0.0037733167 0.048400458 -0.116068155
000130 38 23 ac 3c 57 1f 02 3c f7 5f 15 bd d6 1c c0 3d
       0.021012887 0.007942042 -0.036468472 0.093805
000140 fb 74 94 bc 17 8e b7 bb e7 e0 82 bd 05 bc 19 bd
       -0.018122187 -0.005601655 -0.06390553 -0.037532825
000150 f0 09 ec 3c 3e 26 90 3d 1c d4 c5 bd 7a 7d 02 3e
       0.028813332 0.07038544 -0.09659597 0.12743178
000160 2c b9 af bd d2 d9 de bd 4a 15 40 bd a4 57 fb 3c
       -0.085802406 -0.1088139 -0.046895303 0.030681439
000170 26 47 8b 3d 48 9e 9b bd 67 c9 6b 3d 8e 63 23 be
       0.0680068 -0.07598549 0.05756512 -0.15955946
000180 4e f0 51 bc fe 10 8a 3d 50 68 f6 bd eb ad 8b bc
       -0.012813641 0.06741522 -0.12031615 -0.017050704
000190 e8 cc 71 3d d0 0d 51 bd a6 2c ca bb e8 86 34 be
       0.059033304 -0.051038563 -0.0061698733 -0.17629588
0001a0 44 66 ab 3d 00 e9 6e bc 12 9c e5 bc f0 99 a5 bc
       0.08369115 -0.014581919 -0.028028522 -0.020215005
0001b0 1c 83 14 be 71 63 59 bd 35 01 01 3e 54 82 07 3d
       -0.1450314 -0.05307335 0.12598117 0.033083275
0001c0 6c 28 52 bd ef ea 16 be 30 e9 71 3c 30 eb 22 3d
       -0.05130808 -0.14738058 0.014765069 0.039775074
0001d0 58 2c 52 3d 0c c6 15 3d 38 3c 1c bd 49 6c d1 3d
       0.05131182 0.036565825 -0.038143367 0.10225732
0001e0 a7 5b 96 3c fc ca 06 bd 9a 2d b0 3d 06 79 41 3d
       0.01835425 -0.032908425 0.08602448 0.047234558
0001f0 c3 c4 e5 3d af 88 12 3e 09 f9 81 bd 3a 63 1e bd
       0.1121917 0.14309953 -0.06346328 -0.03866885
000200 67 f1 31 be 2e f5 01 be 93 b5 87 bd 14 d9 f5 3d
       -0.17377244 -0.12691185 -0.066264294 0.12004295
000210 ad d0 38 bd 04 4a e2 bc 83 9e 74 3d fe 21 57 3d
       -0.045120884 -0.027623184 0.05972148 0.05252265
000220 af e9 ca 3d 7c 43 52 3e 41 e1 89 3d ab 2f ae bb
       0.09907853 0.20533556 0.06732417 -0.005315741
000230 e3 9c 12 be 1b a1 cc bc 8e 47 85 bd 96 20 8e 3c
       -0.1431766 -0.024979165 -0.065077886 0.017349523
000240 2b 29 a8 bd 88 0a 4e 3c 18 d4 bc bd e9 96 7d be
       -0.08210977 0.012575753 -0.09220141 -0.24764599
000250 bb e1 87 bd 1a b3 92 bd 90 50 df bd a4 58 08 3d
       -0.066348515 -0.07163067 -0.10904038 0.03328766
000260 5f 9b 37 bd d8 69 24 bd 40 88 01 3e 0a 6c ad 3c
       -0.044825908 -0.040140003 0.12649632 0.021169681
000270 df 89 b3 bc 35 47 70 be 5a c9 d3 3b ec 75 81 be
       -0.021916328 -0.23464663 0.006463212 -0.2528528
000280 c9 68 1a be 9d c7 23 be 7f 03 53 be 8c fa a2 bd
       -0.15079035 -0.15994115 -0.20606802 -0.07957944
000290 58 c0 a6 bd 58 5f 0f 3c 2a f0 b8 bd 1d 68 c2 3d
       -0.081421554 0.008750759 -0.09030183 0.09492514
0002a0 df 7d 9b 3d f8 c5 a6 3d ea 64 f1 bd 8d 48 7d bd
       0.075923674 0.08143228 -0.11786826 -0.061836768
0002b0 09 10 db 3d 6f 51 ed 3c 87 6b 3d 3d ab 86 9c 3d
       0.10696418 0.028969495 0.046245124 0.076428734
0002c0 20 32 90 3d 1b 56 b9 3c b7 9e e3 3d 12 a9 02 be
       0.070408106 0.022624066 0.11114257 -0.12759808
0002d0 5d 44 ca bd 59 07 03 be fb 8a 75 bd df e8 41 3e
       -0.098763205 -0.12795772 -0.059946995 0.1893649
0002e0 01 3f 6d bd 39 9a 23 be c0 d4 19 bd 13 c0 07 be
       -0.057921413 -0.159768 -0.03755641 -0.13256864
0002f0 06 06 0c bd 9e 76 d2 3d 70 67 9a be 81 c2 d1 bd
       -0.034185432 0.10276531 -0.30157042 -0.10242177
000300 fc 1e a5 bd d3 16 d7 3d f1 5d 2b bd e8 99 ab bd
       -0.080625504 0.105024 -0.041837636 -0.08378965
000310 91 26 e3 bd 6c 81 96 bd b9 00 b0 3d 6f c1 1d be
       -0.1109134 -0.07348904 0.08593888 -0.1540582
000320 cf c0 7e 3d 28 6a 24 be 07 7b 3e bd c2 54 98 3d
       0.062195595 -0.1605612 -0.046504047 0.07438041
000330 5f 6a de bd 0b 50 15 be 74 a1 6c bd a8 d5 04 bd
       -0.108601324 -0.14581315 -0.05777116 -0.03243032
000340 72 fe 90 39 c6 fa 2e bd 63 c6 1d 3d b7 f6 38 3d
       0.00027655397 -0.042719625 0.038519274 0.04515716
000350 6d 89 e5 bd ce fe df bd 58 95 22 3d 61 46 c3 bc
       -0.112078525 -0.10937272 0.039693207 -0.02383727
000360 20 1e d8 3d 6d ee 0e 3d d2 ed 13 bd c3 d9 87 bd
       0.10552621 0.03489535 -0.036115475 -0.066333316
000370 4a 29 3b be dc a3 96 3d e6 2e b9 bd 72 27 f1 3c
       -0.1827747 0.073554724 -0.09042148 0.029437754
000380 63 79 82 3b de e2 d1 3d 24 1d d4 bd 4a f8 f4 bd
       0.0039817556 0.102483496 -0.10357121 -0.1196142
000390 ae f5 c6 3d 68 94 59 3d 3d 06 16 be ea c9 3d be
       0.097148284 0.053120047 -0.14650817 -0.18534055
0003a0 a8 58 0d be ae 43 e5 3d fd a8 1e 3e 1f af a6 3a
       -0.13803351 0.111945495 0.15494151 0.0012716985
0003b0 5d a6 2b be 0a 33 ed 3b 8f d0 53 be a1 d5 20 be
       -0.16762681 0.0072387503 -0.20685028 -0.15706493
0003c0 7c 6e a6 3d a7 ae 00 bd 76 27 6b 3d dc ff 1a 3e
       0.08126542 -0.03141656 0.05741068 0.15136665
0003d0 54 f6 e4 bd b4 cc 9b bd 92 43 1f be 60 73 41 3c
       -0.11179796 -0.076074034 -0.1555312 0.011807293
0003e0 c8 11 9c bd d0 b4 c0 bd af 90 3c 3d fb 11 df 3c
       -0.07620579 -0.09409487 0.04603642 0.027230253
0003f0 cf df fb 3d 9b 18 4c 3e f0 9e 3b be f2 ea d7 3d
       0.122985475 0.19931261 -0.18322349 0.10542859

bias f4 [128]
000000 d8 06 f8 3c 8a 2a 69 bd af c7 85 bb ca 06 49 bd
       0.0302767 -0.056925334 -0.004082642 -0.04907874
000010 80 19 c8 bb 59 7d 9d 3c 1d 42 0e 3d e5 4c 39 3c
       -0.0061065555 0.01922481 0.03473102 0.011309837
000020 96 a6 a3 bc 23 90 8a 3d e1 1e 8c 3c 53 da dd bd
       -0.019976895 0.06765773 0.017104568 -0.10832658
000030 3e c8 84 bd 19 b3 9e bd 56 2f 6d bc 7c 0e a8 3c
       -0.06483506 -0.07749004 -0.014476618 0.02051472
000040 29 9e ac bb 94 6d 17 bc 00 b4 9e bd 0c e9 7f 3d
       -0.0052678776 -0.009242434 -0.07749176 0.06247811
000050 0b 68 ef bd 00 a7 44 3d 1a 6a 5d 3c e5 d8 93 3c
       -0.116897665 0.048010826 0.013514066 0.01804776
000060 55 3c 57 3d 9c 4c c5 bc 6e 30 3a bd 67 6a 78 3c
       0.05254777 -0.024084382 -0.045456342 0.015162087
000070 23 db be 3c db 07 e2 3c 67 a9 41 3d fe 8f 83 bd
       0.023297852 0.027591636 0.047280695 -0.06423949
000080 00 a4 d1 bd 36 1d 51 3d 20 65 8a bd 54 55 86 3d
       -0.10236359 0.05105325 -0.06757569 0.06559244
000090 24 91 a8 bd ec 4e ca 3c f5 1d f7 3c 61 42 ee bd
       -0.082308084 0.024695836 0.030165652 -0.116337545
0000a0 ef b4 15 3d 7a 5a 46 3c cc 7a a9 bd 24 8b 47 bd
       0.036549505 0.012106532 -0.08275375 -0.04871668
0000b0 57 32 b9 3c bf 39 53 3d 5b 26 d0 3a 5d 2f 37 bd
       0.022607012 0.051568743 0.0015880571 -0.044722904
0000c0 9d 32 e6 bb 37 3a 51 bd aa c4 5e bd 64 63 b9 bd
       -0.0070250765 -0.05108091 -0.054386772 -0.090521604
0000d0 5d 25 90 bd 32 ae 07 bd e6 73 0c 3d f9 f7 ec bd
       -0.070383765 -0.03312511 0.034290217 -0.115707345
0000e0 8e 4f ef bc 84 c3 36 3d fb fc 92 bb 80 74 c6 bc
       -0.02921274 0.044620052 -0.004485724 -0.024225473
0000f0 d8 3d cb bb 04 f3 0b 3d 53 9a 07 bd 25 0e 02 be
       -0.0062024407 0.034167305 -0.03310616 -0.12700708
000100 5c 77 e8 bd bb f5 82 bd 02 5a cd bd b5 aa 02 3d
       -0.11350891 -0.063945256 -0.10026933 0.03190108
000110 13 6d 26 bd b1 6d 8e 3d 10 61 49 bc d0 94 15 bd
       -0.040631365 0.06954516 -0.012291208 -0.03651887
000120 b5 17 eb bd 29 de 5f bd dc 98 d8 3c 65 57 b3 bb
       -0.11479131 -0.054655228 0.026440077 -0.0054730647
000130 6c 7d 8e bd bd 08 aa bc ee 11 4a bd a7 c7 37 bd
       -0.06957516 -0.02075612 -0.049333505 -0.044868138
000140 f6 04 d9 bc 64 b9 8e bc df 4f 11 be c2 6f 30 bd
       -0.026491623 -0.017422386 -0.14190625 -0.04307533
000150 60 02 ee 3c 6c cc 7b 3c 4e 13 44 bd d2 33 54 3d
       0.029053867 0.015368562 -0.047869973 0.051807232
000160 e9 de 48 3d e1 f4 0b 3d 32 4a 87 3c f6 80 c4 bd
       0.04904071 0.03416908 0.016514871 -0.0959491
000170 fe 2a aa bd 35 b5 09 bd de 92 cc 3c a9 39 8d 3d
       -0.08308981 -0.033620078 0.024972375 0.068957634
000180 f2 84 eb 3c 18 93 df bd 27 98 b3 bd 2b e6 60 bd
       0.028749917 -0.10916728 -0.08769255 -0.054907005
000190 33 14 b2 bb fe 66 c3 bb d8 e5 ee bd 1d 9c 74 3d
       -0.005434537 -0.0059632054 -0.11664933 0.059719194
0001a0 f7 47 42 bd 4d ec 15 bd a1 44 da bc a2 c3 9c 3d
       -0.047431912 -0.036602307 -0.026644053 0.076545015
0001b0 26 5e 24 be 66 7c 6a bd 7b 75 99 3c ba de ae bd
       -0.1605154 -0.05724754 0.018732777 -0.085385755
0001c0 03 61 12 be 6d 63 b0 bd f3 c7 49 bd f3 04 40 3d
       -0.1429482 -0.08612714 -0.049262952 0.04687972
0001d0 30 d6 86 3d 84 ee 35 3d 5c 86 1e 3d 16 c5 f3 bd
       0.06583822 0.04441692 0.038702354 -0.119028255
0001e0 eb ad c9 3c 57 8f 8f 3d af e4 ae 3d a2 c0 a6 bc
       0.024619063 0.07009762 0.08539712 -0.020355526
0001f0 78 5a 75 bd 1c 25 31 bd df 3b f3 bc 52 55 88 bd
       -0.05990073 -0.04324828 -0.029691635 -0.066568986

weight f4 [128, 128]
000000 6e f5 8c 3d a1 1a 18 bd 91 11 ad bc 05 65 32 bd
       0.068827495 -0.03713477 -0.02112654 -0.04355337
000010 62 04 36 bc 3b 7f 30 bc dd f6 a2 3d ed ce c0 3d
       -0.011109443 -0.010772522 0.07957242 0.09414468
000020 3c 05 59 bd b1 67 f0 3b 30 25 05 bd 51 19 3e bd
       -0.052983508 0.0073365797 -0.032506168 -0.046410862
000030 af 30 9d 3d 4a 7a ab 3c e7 2b 8e 3d 7d 89 c5 3d
       0.07675301 0.020932335 0.069419675 0.096453644
000040 38 4c 05 bd 12 05 26 be cb cd 8e 3d 50 5c 6c 3d
       -0.03254339 -0.16212872 0.06972846 0.057705224
000050 b0 c5 85 3c 7c c8 68 3c c3 a2 d0 3d d4 2e 5e 3c
       0.016329616 0.014207955 0.10187294 0.013560969
000060 58 54 f4 3d 37 9c a8 bd 43 ef 16 3e e7 43 7d bc
       0.1193015 -0.082329206 0.14739709 -0.015458084
000070 32 ce 14 3e 4c 7a b4 3d 19 b3 50 3d 4b ec 83 3c
       0.14531782 0.08812389 0.05095205 0.016103884
000080 d0 cc 03 bd 72 40 3c 3c 3f f0 4d 3d 17 49 2d 3e
       -0.032177746 0.011489974 0.050277945 0.16922413
000090 b8 a5 2f 3c 83 dc 53 3d b6 48 02 3d be 0d a8 3d
       0.010720663 0.05172397 0.031807624 0.08205746
0000a0 99 91 bb 39 26 87 25 be 6e ca 01 be c0 df 07 3c
       0.00035775898 -0.16164836 -0.12674877 0.008293092
0000b0 53 9d e8 3c 47 b5 e5 bd 38 b5 42 3d 4c 69 e0 bb
       0.02839533 -0.112162165 0.047536105 -0.00684849
0000c0 26 b7 74 bd 0f 44 a7 3c 7e 85 86 3c e6 18 68 3c
       -0.059744976 0.020418195 0.016421076 0.0141660925
0000d0 9a c5 39 bd fd 54 d1 3d 26 83 21 bc ea c6 b7 3d
       -0.045354463 0.10221288 -0.009857928 0.08973487
0000e0 ee 1d 2f bd f7 2d 38 3b 8c 6b 7e 3b 62 4e 96 3d
       -0.042753153 0.002810357 0.0038821427 0.07339169
0000f0 b1 2d 8f bd 83 c0 bc 3d 37 6f b6 3b 25 8c 39 bb
       -0.06991137 0.09216406 0.005567457 -0.0028312292
000100 f2 04 83 bd 7f c3 79 3d 44 c7 d9 bc a2 21 9f 3c
       -0.063974276 0.060977455 -0.026584275 0.019425217
000110 1a 24 e2 3d 2b ff 1d 3e a1 f4 9c 3d fa b9 e7 3c
       0.11042042 0.1542937 0.07663847 0.028286923
000120 8d 05 17 3d 03 32 ca bd 76 76 19 3e e0 9f 22 bd
       0.036870528 -0.0987282 0.14986596 -0.03970325
000130 ca f4 6d 3d 36 6d d3 bc a5 91 12 3d c5 f5 84 bd
       0.058094777 -0.025808912 0.03578343 -0.06492189
000140 1c f9 2c 3d 13 be e3 bd 5c 9d 24 be 18 6f 9d 3d
       0.042229757 -0.11120238 -0.16075653 0.07687205
000150 08 d5 0d 3c d6 fb 89 bd 8b 7a c9 3d a0 4f 79 3d
       0.008656748 -0.06737487 0.09837826 0.060866952
000160 4e 43 83 3c e0 44 e2 3d ea c9 57 3c 9d 6a c3 3d
       0.016023304 0.11048293 0.013170699 0.09541819
000170 73 3e 5f 3d 79 16 d5 3d 9f 10 27 3e 6b 15 92 bd
       0.054502916 0.10404677 0.16314934 -0.071329914
000180 f9 62 9c 3d 91 6d bb bb ab aa 08 3e 65 ee 84 bd
       0.07636065 -0.0057198484 0.13346355 -0.06490783
000190 1d cc dc b9 14 99 70 bd b9 1d 0e be d0 06 a1 3c
       -0.00042113746 -0.058739737 -0.13878526 0.019656569
0001a0 2c 7b 1a bd b4 b5 2f be 89 66 3b be 57 80 fd 3c
       -0.037715122 -0.17159158 -0.18300833 0.030944986
0001b0 2d 11 02 be ee a9 37 bd 0a bb 5d 3d 2b 0a 97 3d
       -0.12701865 -0.044839792 0.054133452 0.07374986
0001c0 ee 2b 1a 3e 11 88 5c 3d 80 ee 30 be ae b9 2d bd
       0.1505582 0.0538407 -0.1727848 -0.042413406
0001d0 ce fd 9d bd f4 98 36 bd b8 de 3b be da f7 5a 3d
       -0.07714425 -0.04457946 -0.18346679 0.053459026
0001e0 db b2 ba 3c 58 2e 1b 3d f6 8b 44 3d 91 d0 2a be
       0.022790363 0.037885994 0.04798504 -0.16681124
0001f0 ac 76 9a 3d fe d8 6a bc cc 93 da bd aa 99 1d bd
       0.07542166 -0.0143339615 -0.10672721 -0.038476624
000200 fc 4d 60 bd ef 38 58 bd 77 db 00 3d 01 d2 61 bc
       -0.05476187 -0.05278867 0.031459298 -0.013782979
000210 64 ff 31 bd fe ec f1 bd aa 58 92 bd 26 79 18 bc
       -0.04345645 -0.11812781 -0.071458176 -0.009306228
000220 d9 b1 67 bd 16 06 9c bd 9c 91 0e 3c 4a 5a 8b bc
       -0.056566093 -0.07618348 0.008701708 -0.017010827
000230 63 c8 cc bc 9e cc 90 bb d7 94 b5 bd 9f 29 14 3e
       -0.024997896 -0.0044189235 -0.088662796 0.14469002
000240 c8 b7 41 bd af 62 cb bd 02 cc d3 bb 19 c6 50 bd
       -0.047294408 -0.09930932 -0.0064635286 -0.05097017
000250 5b e3 4d be e6 85 fe 3c 5f c1 e8 3c cd 69 15 3c
       -0.2010626 0.031069707 0.028412519 0.009119463
000260 58 be 9a 3d 4d 9b a9 bd 9d ed 45 bc cd 14 8f 3d
       0.075558364 -0.082815744 -0.012080577 0.06986389
000270 7f c9 f1 3d 14 7a 45 3d f7 bf 63 bc 71 f7 2b 3c
       0.118060105 0.048212126 -0.013900748 0.010496006
000280 8d 55 9c 3d 5b de 97 3d dc 3b 11 bb c1 3f 08 3e
       0.07633505 0.07415458 -0.0022160923 0.1330557
000290 df cd 6a bd fc 86 22 3d 44 34 e1 ba 45 46 3a 3d
       -0.05732524 0.039679512 -0.0017181714 0.04547717
0002a0 56 d5 ac 3c d0 43 f0 bd 81 be dd 3d 75 2c 33 bd
       0.02109782 -0.11731684 0.10827351 -0.04374357
0002b0 14 76 9d bd 2e d7 76 3b 31 12 15 3d 23 82 dc bc
       -0.07688537 0.0037664878 0.0363943 -0.026917523
0002c0 57 d7 3c 3d 44 7c 0f 3d e6 3b 03 3e 04 8f c7 3d
       0.0461038 0.03503062 0.12815818 0.09744075
0002d0 a0 9b 72 3d 97 f3 fe 3d 3a 6f e9 39 c6 42 b4 3c
       0.059230447 0.12448805 0.00044524093 0.022004496
0002e0 31 7b 6a bb 34 8c fa 3c 8a 54 9c bc 5f 86 33 bd
       -0.0035778994 0.030584432 -0.01908328 -0.043829318
0002f0 0f c0 94 3d d5 3b c5 3d ef ef 15 3c 84 57 26 be
       0.07263195 0.09630553 0.009151443 -0.16244322
000300 73 25 8a bd 00 e5 a2 bd 41 7c 71 bd 2b 1a 95 bd
       -0.06745424 -0.079538345 -0.05895639 -0.07280382
000310 c9 bf a5 3d 05 01 f2 3d ba d4 da bc 18 cf 7d bd
       0.08093221 0.11816601 -0.026712764 -0.061965078
000320 4c a5 76 bc 9d 65 db 3c d5 9e 94 3d 19 9f d6 bc
       -0.015054058 0.026781851 0.07256857 -0.02619891
000330 fc 19 64 3d b2 bd cc 3d a5 be c6 3c 7c 87 94 bd
       0.055688843 0.09997119 0.024260828 -0.07252404
000340 2b b0 f1 3c 74 c4 b1 3d b8 ff e7 bd 2e 34 cb 3b
       0.029502949 0.086800486 -0.11328071 0.0062012887
000350 ae 49 39 bd 65 5b 3f bc 30 50 4d 3e 85 b0 35 3c
       -0.045236282 -0.011679505 0.2005012 0.011089449
000360 0b f6 a7 3d b6 cf c5 bc 39 a0 cb 3d 48 91 bf bd
       0.08201226 -0.024146896 0.099426694 -0.09353882
000370 9d 56 ca 3b 74 5c e8 3d e5 4b ad 3d 1b 84 88 3d
       0.006174876 0.11345759 0.08461741 0.06665822
000380 15 83 80 3e 67 92 ab bc 81 c8 da bd d0 0d 8a 3c
       0.25100008 -0.020943834 -0.10682774 0.01685229
000390 be 14 ad 3d 41 ac 00 bd 5b 3d c1 3b e2 da cd 3c
       0.08451222 -0.031414274 0.0058972067 0.025128786
0003a0 05 f5 2f bc a6 11 8c 3d b4 77 26 bc 0c c9 4b 3d
       -0.01073957 0.06839304 -0.010160375 0.04975228
0003b0 9e 70 03 be d6 ab e2 3d ed 66 d3 bc 86 50 17 bd
       -0.12835929 0.11067931 -0.025805915 -0.036942028
0003c0 76 6e 82 3d 2f 19 9e 3d 0b 77 40 3c 28 60 ca bb
       0.06368725 0.07719647 0.011747132 -0.0061760135
0003d0 6d 32 ad 38 a3 87 fc 3d e9 22 b8 3a e3 4a a2 3d
       8.2586754e-05 0.12330558 0.001404849 0.0792444
0003e0 3d d9 e6 bd 66 2a a6 3d ac cb 9b bd 8e b5 ec 3b
       -0.11271904 0.081135556 -0.07607207 0.0072237914
0003f0 d1 46 99 3d 5b bd 99 bd 63 4a df bd f5 dd 75 bd
       0.0748421 -0.0750682 -0.1090286 -0.060026128

bias f4 [128]
000000 a0 58 30 bd db b6 6d bd 3a 9a b5 3c 32 0c 9f 3d
       -0.04305327 -0.058035713 0.022168268 0.07765998
000010 d5 5e 08 3d 19 2c ad 3d c1 8a b7 bd 89 50 94 bd
       0.033293564 0.084556766 -0.08962012 -0.07241923
000020 a8 4b 8b bd 73 e2 db bd 3a 9e e3 3d da 7c 82 3c
       -0.0680154 -0.10736551 0.11114164 0.015928674
000030 a2 3c 2f bd cd 68 39 3b 2a f0 48 bc 57 a5 bd bd
       -0.042782433 0.0028291226 -0.012264291 -0.09260052
000040 16 f7 09 3c ef 5c 40 3d 12 b1 fa bd 8a 14 19 3d
       0.008420726 0.04696363 -0.12240805 0.037373103
000050 30 b6 2a 3c 62 54 2a 3d 36 70 a2 3d 79 16 4c bd
       0.010419413 0.04158438 0.07931559 -0.04982612
000060 38 40 a4 bc 62 64 31 bd ff f3 e0 bd 5c cb 84 3d
       -0.020050153 -0.043308623 -0.109840386 0.064841
000070 6c 22 90 bd 7b a0 c1 bd 6b ec f9 3c 11 73 7f bc
       -0.070378155 -0.09454437 0.03050824 -0.015591399
000080 f6 ab 9f bc c6 ad 20 bd 34 93 00 bc e8 e3 b0 bd
       -0.019491177 -0.039228223 -0.007847596 -0.0863722
000090 16 47 dc bd 2d a8 6d 3c b3 d7 3a 3d 51 fb 44 3d
       -0.10755746 0.014505428 0.045615863 0.048091237
0000a0 55 12 bd 3d 18 76 f2 3d 26 48 52 3d fb cb 82 3d
       0.09232012 0.11838931 0.051338337 0.063865624
0000b0 fe 45 26 3d cc 87 db bd 80 3e b4 bd 68 2f d8 3d
       0.040594094 -0.107192606 -0.088009834 0.10555917
0000c0 5f d3 b4 bd 41 30 03 3d 7c 4f 52 3c 4a 4a 84 bc
       -0.08829378 0.03202844 0.012836333 -0.016148705
0000d0 4a 60 c1 bb b6 68 0a 3d ff 3a 4d 3d 85 29 8d bb
       -0.005901371 0.033791266 0.05010509 -0.004307928
0000e0 f0 73 9e bd 9f 41 31 3d 44 76 65 bd 7d a0 a8 3d
       -0.07736957 0.04327547 -0.05602099 0.08233736
0000f0 fa 22 af bd 0a 31 a1 3d cc 9d 84 3d 4b 70 fc 3c
       -0.08551593 0.078706816 0.0647541 0.030815264
000100 ee 4b 41 3d a2 a7 83 bc e8 92 84 3d c1 92 e3 3c
       0.047191553 -0.016071144 0.06473333 0.027779939
000110 42 d7 61 3d fc f8 49 3d c7 62 3f 3d ab 1b 5f 3d
       0.055136926 0.049309716 0.04672506 0.054469746
000120 e8 37 c6 bd 1b 7c da bc 28 c2 fc 3c 2d 68 a7 3d
       -0.09678632 -0.026670506 0.0308543 0.08174167
000130 02 97 a5 3c 29 78 aa bd 1c 35 b4 bd b7 56 04 3c
       0.020213608 -0.083237 -0.08799192 0.008077315
000140 38 cf 08 3d b7 bc 1f 3c f4 ee 3b bd a3 b2 94 3b
       0.033400744 0.009749583 -0.04588218 0.0045378967
000150 62 f1 a3 bc 0c 13 be bd 92 da ce bd 6d 7f 2f 3d
       -0.020012561 -0.09280977 -0.10100283 0.042846132
000160 2a 52 a3 bd 7c 78 58 3d 27 8e 0a bd a2 5c 91 bc
       -0.07974656 0.052849278 -0.033826973 -0.017744366
000170 ae 43 18 3d e1 0c 1f bd 64 b2 f8 bd c4 8d bd bd
       0.03717392 -0.03883064 -0.121434 -0.09255555
000180 f6 ad 65 3d 07 3b 42 3d e6 d1 de bd 60 a7 1c bd
       0.056074105 0.047419574 -0.10879879 -0.03824556
000190 03 73 10 3d 7c 3e ed 3c 46 e6 60 bc fd b2 d0 bc
       0.035265934 0.028960459 -0.0137267765 -0.025475973
0001a0 09 24 8f bd 99 36 97 3d 05 43 c0 bd 14 3b 43 3c
       -0.06989295 0.073834606 -0.09387783 0.011915941
0001b0 88 8e 78 3d ed dc ea bc e7 12 38 bd 8a 50 a7 bc
       0.060682803 -0.028669799 -0.0449399 -0.020424146
0001c0 75 a2 97 bd 22 c7 d7 bd d5 69 35 bd 01 d0 04 3d
       -0.07404033 -0.105360284 -0.044290382 0.03242493
0001d0 7e e4 3b 3d 07 96 36 3d 47 af 3d bd 65 eb 55 bd
       0.045872204 0.04457667 -0.046309736 -0.052226443
0001e0 31 2e 12 bd 0b 6a 2f bd eb 7d 3d 3d ae 3e c4 b9
       -0.035688583 -0.04282574 0.046262663 -0.00037430733
0001f0 3e 63 1e bd 41 ad 05 bc 42 db 28 3d 20 95 94 bd
       -0.038668863 -0.008158983 0.041224726 -0.07255006

weight f4 [128, 128]
000000 80 18 91 3d 10 ff df 3d 13 39 2f be b0 1c 9a 3d
       0.07084751 0.10937321 -0.17111616 0.07525003
000010 5a 32 8a bd b2 3d 4c 3d 3e d9 6a bd 4f ec 13 3d
       -0.06747885 0.049863525 -0.057336085 0.036114033
000020 a6 ff bd bd 61 f1 b1 3d 92 b9 2c bc 64 03 ca 3d
       -0.09277277 0.086886175 -0.01054229 0.09863928
000030 11 f0 9e 3c 3d 9d 55 3d b9 e0 a0 3b 0a 54 14 bc
       0.019401582 0.052151907 0.0049096015 -0.00905324
000040 ea 5e b6 bd 4c 44 80 bc 10 70 1d 3d 86 4a 80 bd
       -0.08904822 -0.015657566 0.03843695 -0.06264214
000050 44 24 6c bd a0 3a d9 bd bd 7e 93 bd 58 89 bc bd
       -0.057651773 -0.10606885 -0.07201908 -0.09205884
000060 ea d2 5d 3d c0 07 c4 bd 7f fc 48 bd a0 84 9f 3d
       0.05415622 -0.09571791 -0.049068924 0.07788968
000070 bd 6d 48 be cd e9 05 3d 82 67 1f 3d a3 29 8f bd
       -0.19573112 0.032693673 0.038917072 -0.069903634
000080 0f 83 30 3d 1e 7f 98 bd af 3e e4 bc 61 9c a6 3d
       0.043093737 -0.07446121 -0.027861921 0.08135296
000090 ae 30 a3 3c 99 68 c2 bd 95 72 b9 bd 4f 20 cc 3d
       0.019920673 -0.09492607 -0.09055058 0.099671
0000a0 a8 b7 cb bc 48 32 14 3d 19 31 8d 3b 70 6f c9 3d
       -0.024867848 0.036180764 0.0043088314 0.09835708
0000b0 c9 00 a0 bd f2 1a 35 bb fb a7 82 3d f6 8e ab 3d
       -0.0781265 -0.002763447 0.06379696 0.08376877
0000c0 39 1b 30 3d 5d f4 2c bc d3 69 91 bd 44 e4 d5 bd
       0.04299471 -0.010556308 -0.071002625 -0.10443929
0000d0 2e 4c 0b 3d e1 78 d5 bd a0 8c 44 bd b7 75 65 bd
       0.034008197 -0.104234464 -0.047985673 -0.056020465
0000e0 70 de 30 3d 0b 81 88 bd dc 7d d4 3d 1d 97 65 3d
       0.043180883 -0.06665238 0.10375568 0.056052316
0000f0 ff e6 98 bd 88 15 80 3d a5 b4 8e 3d 0e 3a ec 3c
       -0.07465934 0.06254107 0.06968049 0.028836276
000100 4f f2 f3 bc 94 6a 87 3d d9 1f cf bb ad 8a 0b 3d
       -0.029778628 0.06612125 -0.006320935 0.0340678
000110 67 75 94 bd 3d 52 15 bc 05 e3 88 3d 80 df 6e bd
       -0.07248955 -0.009113845 0.066839255 -0.058318615
000120 04 10 88 bc fa e1 7c 3c ec 26 a4 ba ea c5 06 3d
       -0.0166092 0.015434736 -0.0012523807 0.03290359
000130 c1 57 c0 3b bf 1e 16 be a8 40 f3 bb af c8 73 3d
       0.005869836 -0.14660166 -0.007423479 0.05951756
000140 cb ee 41 3d 5d 2d 9e bd db 85 2a bd e3 13 bb 3b
       0.04734687 -0.07723496 -0.04163156 0.005709158
000150 6e 15 a6 3c 4a e2 fd 3d 43 e0 3d bd 76 fb 94 bc
       0.02027389 0.12396677 -0.04635645 -0.018186312
000160 a5 8e a2 3d d2 eb 46 3d 0c 0d 2b 3c 18 d5 f0 3c
       0.079373635 0.04856474 0.010440122 0.029398486
000170 4c 76 6a 3d 22 40 e5 bc 26 a0 c0 bc d8 52 a8 bd
       0.057241723 -0.027984682 -0.023513865 -0.08218926
000180 e0 29 5f bd cd bc 2a 3d 83 6e 44 3d a5 83 06 3d
       -0.054483294 0.04168396 0.047956955 0.03284039
000190 cf 32 48 3d a3 7d 95 3d 61 f5 5a bd 1b 91 9c bd
       0.04887658 0.07299354 -0.053456668 -0.07644864
0001a0 b6 81 6c bd af db 6e bd 60 8b 34 3c 21 23 87 3c
       -0.05774089 -0.058314975 0.011019558 0.016496243
0001b0 f7 49 a4 3c c2 31 48 3c 25 35 2b bd c3 a2 11 3d
       0.0200548 0.012218894 -0.04179873 0.035555612
0001c0 cb 0e 4e bd 6d 75 ca bc 61 3c 70 3c 7c 28 9f bd
       -0.050307076 -0.024714196 0.014662833 -0.07771394
0001d0 8a d9 93 3c a5 2e a1 bd bc bf 55 bd 65 3d be 3d
       0.018048067 -0.07870225 -0.052184805 0.09289054
0001e0 49 23 26 3d 1c f1 95 3c 54 4b f2 bc af f2 02 be
       0.040560994 0.018303446 -0.029576935 -0.12787889
0001f0 49 e4 05 be c3 2d f0 bc 7c c1 75 3d bf 49 81 bd
       -0.13075365 -0.029318696 0.059998974 -0.06312894
000200 11 33 d5 3d 81 97 8b bd 3d a5 1a 3e e4 90 03 be
       0.10410131 -0.068160065 0.15102096 -0.1284824
000210 0d e3 9d bd d0 48 a4 bd d2 5c aa 3d cc 09 3f 3d
       -0.07709322 -0.080217004 0.08318485 0.046640202
000220 d1 04 1e be b4 da 39 3d 11 ff ca bd ab 26 16 be
       -0.15431525 0.045374587 -0.09911931 -0.14663188
000230 c8 7f b3 3d dd cf 3b 3d e3 80 ad 3d 64 b3 79 3d
       0.08764607 0.04585253 0.08471849 0.060962096
000240 23 38 7b 3e 81 29 ec bd 36 a2 52 bd 6a 1a 54 bb
       0.24533133 -0.11531354 -0.051424228 -0.0032364377
000250 0b c0 98 b9 b2 90 90 3d 16 2e b6 bb 94 78 25 3d
       -0.00029134782 0.070588484 -0.005559693 0.040398195
000260 e1 fb c7 bd d3 00 21 3d 4f 0c 89 3d d4 23 1c be
       -0.09764839 0.039307427 0.06691801 -0.15248042
000270 5d ee ad bc 44 00 ac 3d 20 dd 42 bd 2a 20 d2 3c
       -0.021231825 0.08398488 -0.047574162 0.025650103
000280 7b 43 68 3d 7f 70 99 3d 5b ea 32 3e 16 68 c0 3c
       0.05670498 0.0749216 0.17472212 0.023487132
000290 e6 c2 18 bd 48 df 04 3d e6 27 4b be 76 74 2f 3c
       -0.037295245 0.0324395 -0.19839439 0.010708919
0002a0 04 9a 81 bd 3e 5a 02 be 2e 67 a8 bd 71 11 44 be
       -0.06328204 -0.12729737 -0.08222805 -0.19147278
0002b0 aa 32 07 3d 8f 3f 8b 3d 74 d1 24 3d af e4 c9 bd
       0.0330073 0.06799232 0.040238813 -0.09858071
0002c0 35 f4 4d be 6f 5b 54 be 5e a1 ed 3c 40 5e 11 3e
       -0.20112689 -0.20738004 0.02900761 0.1419611
0002d0 b8 b5 b8 3d 81 33 db ba 8a 43 c8 3b 4b ed e0 3c
       0.09019035 -0.0016723723 0.006111567 0.0274569
0002e0 69 84 40 3d f1 1b 85 3d 3f 9a 27 bd 87 f2 1c bd
       0.047001276 0.0649947 -0.040918585 -0.03831723
0002f0 64 7a aa 3c cc f7 ff bd 41 98 74 3c f0 39 c6 3d
       0.020810314 -0.124984354 0.014928878 0.096790195
000300 e3 55 18 be c0 46 b2 3d c1 0a 9c bd bb 2a 79 bd
       -0.14876513 0.08704901 -0.07619239 -0.060831767
000310 cd f4 b8 bc a8 ba f9 bd ba 06 74 3c 4d 51 dc bd
       -0.022577668 -0.12193805 0.014894182 -0.107576944
000320 8a ab 3a 3c 39 86 0b 3e b0 9a e8 3d b2 b2 3e bd
       0.011393437 0.1362542 0.11357629 -0.046557136
000330 d1 ed 3e ba 30 df 78 be 40 04 6b bb c8 70 0d 3d
       -0.0007283362 -0.2430389 -0.0035860687 0.034531385
000340 eb 71 b3 bd 66 1f e3 3d d9 fd 09 be ed a2 ba 3b
       -0.087619625 0.11089973 -0.13475741 0.005695692
000350 71 70 9c 3d 1d 59 43 be 9f e9 97 bd 5d 08 da 3c
       0.07638634 -0.19076963 -0.074176066 0.026615316
000360 48 49 8e bd 4f fa 7f bd 1a ca f7 bd f3 ea 1d 3d
       -0.06947571 -0.062494572 -0.12099095 0.038554143
000370 b2 31 1f be 57 2d 54 3d da dd 9c bc 0a a9 96 3d
       -0.15546301 0.051801052 -0.019148756 0.073564604
000380 9d c3 3b 3d d1 9f 12 be 56 ca 01 3d 4c 24 f8 3c
       0.04584085 -0.14318778 0.031687103 0.030290745
000390 68 de b6 3d 29 23 98 3d a1 b3 9c 3c 96 4e 04 bd
       0.089291394 0.07428581 0.019128622 -0.032301508
0003a0 b9 ca b0 3d 5a 2e b1 bc ad 17 b7 bd 06 34 08 3c
       0.08632416 -0.021628547 -0.08940063 0.008313185
0003b0 32 46 27 bd c8 9f 0c be a2 9e 19 bd 8b 70 05 3d
       -0.040838428 -0.13732827 -0.0375048 0.032578032
0003c0 a1 e0 11 bb 01 46 45 3d c7 10 d4 3b a8 ba d6 bd
       -0.0022259133 0.048162464 0.0064717266 -0.104848206
0003d0 e8 81 4f bd ab d6 9b 3d 59 e8 51 be d6 9b 9f be
       -0.050660998 0.07609304 -0.2049879 -0.3117358
0003e0 13 bf da bd c8 9e 19 be 4e b8 01 3d 58 dd 6e bc
       -0.10680976 -0.15001976 0.031669907 -0.01457914
0003f0 d6 e5 00 bd 35 54 1a bd f1 02 61 3c 0a 4f 07 bd
       -0.03146919 -0.037677962 0.013733611 -0.033034362
