fox_a3.pth (torch, 646330 bytes, 22 tensors)

weight f4 [128, 63]
000000 02 6b 63 bd 2e a6 9d bd 1d 78 dc 3b d4 43 15 3e
       -0.055521972 -0.07697712 0.006728186 0.14576656
000010 64 44 dd bd 01 90 04 3e c4 9a 55 be df 9f e5 bd
       -0.1080406 0.12945558 -0.2085982 -0.112121336
000020 58 f5 a3 bd e1 a2 ec 3b cc ab 1f 3d 81 8e af 3a
       -0.0800578 0.007221565 0.038982198 0.001339391
000030 8a b9 cf be 3f 16 75 be c8 79 47 be cf 98 65 be
       -0.40571243 -0.23934267 -0.1948005 -0.22421573
000040 12 94 3c be 84 04 4c bd 2b 40 df bd 36 d8 9e bd
       -0.1841586 -0.049808994 -0.10900911 -0.07756083
000050 c6 8f b0 3d 5d fa 8b 3e 51 5f a7 3d 87 f5 25 3d
       0.086211726 0.2733945 0.08172477 0.040517356
000060 4b cc 04 3e 5b 6a 4c 3d 72 f4 e1 3c 54 03 a1 be
       0.12968557 0.049906116 0.02758238 -0.31447852
000070 45 c0 6e 3e fc d2 7a bc b3 07 22 be 82 7d 63 bd
       0.23315533 -0.015309092 -0.1582325 -0.055539615
000080 09 55 b5 3e db 52 7a bb 96 9f 81 bd be 43 f5 bd
       0.3541644 -0.0038196358 -0.06329267 -0.119758114
000090 ec f1 7d bd 31 37 44 bd 8a 13 80 bd 14 12 8d bc
       -0.061998293 -0.047904197 -0.06253727 -0.017220534
0000a0 97 8e 13 3e 57 93 b5 3d c6 54 3e 3e 32 60 80 3d
       0.14409862 0.088659935 0.18587026 0.06268348
0000b0 f1 af 87 bd 68 94 c2 bc 4e 8e a4 bd b9 7d 85 3d
       -0.06625355 -0.023752406 -0.08034955 0.0651812
0000c0 ab a2 17 be be dd de bc c5 bb 22 be 86 05 87 3d
       -0.14808147 -0.027205344 -0.15891941 0.065928504
0000d0 aa f8 02 bd 19 83 24 bd 2a e7 b1 bd b3 0b 81 3d
       -0.031975426 -0.040164087 -0.08686669 0.063010596
0000e0 48 b9 fd 3c bf 83 9b 3c 04 19 2c 3c 95 d7 37 bd
       0.030972138 0.01898372 0.010504011 -0.04488333
0000f0 a7 e5 12 3c c5 87 29 bc b3 f7 93 bb f4 67 7a be
       0.008965886 -0.010347311 -0.004515612 -0.24453717
000100 57 74 b9 3c a4 4a 1f 3d a6 5f 73 bd d0 88 f9 3d
       0.022638483 0.038889542 -0.05941739 0.12184298
000110 4b 6a 31 3e 9d b9 27 bd 02 dc 94 bd b7 72 86 3d
       0.17325704 -0.0409485 -0.07268526 0.06564849
000120 1a 7b 8c bd 71 4f 07 bd a0 57 4a 3c 7c 14 a0 3d
       -0.06859417 -0.033034746 0.012349993 0.07816407
000130 57 be da bb f8 e4 f5 3d 22 26 2c bc 04 a2 51 3e
       -0.0066755223 0.12006563 -0.010507138 0.2047196
000140 c4 45 51 be 0e bf 3d 3e 9e c5 78 be 11 dc 47 be
       -0.2043677 0.18529913 -0.24294135 -0.19517542
000150 9e 39 0e be a6 d8 92 3a e3 23 31 be bb a5 8a bd
       -0.13889167 0.0011203482 -0.17298846 -0.06769892
000160 c2 3f ca be 1e 51 89 be dc 16 c4 3d 10 c5 1d be
       -0.39501768 -0.268197 0.095746726 -0.15407205
000170 30 32 0a 3d 6a f5 86 be dd d7 e0 3e 51 8f b8 3e
       0.03373927 -0.2635911 0.4391469 0.36046842
000180 53 69 a3 be d2 04 30 3b fc b9 30 3d 0c 60 66 be
       -0.31916294 0.0026858342 0.04314612 -0.22497576
000190 bb c1 13 be e6 36 fc bd 5e b2 4d 3d 39 6f d5 3d
       -0.14429371 -0.123151585 0.050218932 0.10421605
0001a0 25 30 94 3d 14 1a e6 3d e1 13 28 bd 35 57 35 3d
       0.07235745 0.11235443 -0.041034583 0.04427262
0001b0 aa 8b 13 bd 52 71 3b bd 1a ea a2 bd fc 54 23 bd
       -0.036021866 -0.045762368 -0.079548076 -0.03987597
0001c0 1f 57 26 bb 52 d6 83 3b 92 54 21 3d 7c 9d 1d 3b
       -0.0025381518 0.0040233517 0.039387293 0.0024050167
0001d0 94 c0 65 3d b0 a8 06 bc c3 31 1c bc 2e 81 a7 bc
       0.05609186 -0.008218929 -0.0095333485 -0.02044734
0001e0 f8 6c 33 bc 1c b1 1f bd 53 07 89 3c fc c2 51 3d
       -0.010951273 -0.038987264 0.016727125 0.051211342
0001f0 12 6b 1c 3d d5 e6 e0 3c 7d 4e 5a be 18 e7 5b be
       0.038188048 0.02745382 -0.21319003 -0.21474874
000200 b3 71 70 be bb f9 1b bd 6c 46 96 bd 99 7a ba bc
       -0.23480873 -0.03807996 -0.07337651 -0.022763537
000210 36 4a 4f 3d f4 30 26 be 6c 8a 0a be 34 b5 3c be
       0.050607882 -0.16229612 -0.13529366 -0.18428499
000220 c6 6f 4c 3e d6 f3 0b be 53 d0 ea bd a8 8b 24 be
       0.19964513 -0.13667235 -0.11465516 -0.160689
000230 c7 af 99 bc d3 22 48 3e bb 0c 90 3e 83 47 84 bb
       -0.018760575 0.19544534 0.28134713 -0.004036845
000240 e6 eb 0d be 71 8e 2b bd 8d 27 ff 3c 84 2b 9a 3e
       -0.1385952 -0.04188389 0.031146789 0.30111325
000250 d0 99 4a be 98 e5 e5 3d 14 0b d2 3c 2a 8b 09 bc
       -0.19785237 0.11225432 0.025640048 -0.008394996
000260 c2 94 a7 ba d7 bd 75 be 5c fc 45 be e2 5c 53 be
       -0.0012785422 -0.239982 -0.19334549 -0.206409
000270 e7 5d 3f bc 82 cf 40 3d 9d 54 9e 3e 6f bb c3 3e
       -0.011680103 0.047072895 0.3092393 0.38228938
000280 80 a8 2e be ba 22 70 3e 5e e0 55 3c 3e 48 46 bd
       -0.17056465 0.23450747 0.013053982 -0.04840874
000290 05 d0 70 be e7 46 c7 3c 96 c7 ff bb 14 fc ac bd
       -0.23516853 0.024325801 -0.007805775 -0.084465176
0002a0 9f 58 1e be fa 7e da 3d 29 0b 6b 3d 9c 80 c7 3c
       -0.15463494 0.1066875 0.05738369 0.024353318
0002b0 ed cd 70 3d bf a0 90 3d d9 22 2e be 8c 1e 7a b9
       0.058790136 0.0706191 -0.17005481 -0.00023853238
0002c0 97 5f 84 bd 23 5e 2d bc 8e 96 70 bd 33 d5 94 3d
       -0.06463545 -0.010581526 -0.05873733 0.07267227
0002d0 74 4b f6 3c 22 3e 8f bc b6 ff 7f bc f6 2e 05 3d
       0.030065276 -0.017485682 -0.015624931 0.03251549
0002e0 d1 f8 90 3d aa 10 58 bb 85 4a 9c 3b e4 18 c7 bc
       0.07078708 -0.0032968917 0.0047696256 -0.024303861
0002f0 9c 77 8b ba 08 49 16 be 2a cd 0e 3e 0e e3 03 be
       -0.0010640505 -0.14676297 0.13945451 -0.12879583
000300 5c 65 0b be 0a 00 e7 bc 15 26 23 3e 9e 53 fb bd
       -0.13612884 -0.02819826 0.15932496 -0.12271808
000310 35 08 b7 3c 54 72 89 bd d6 fb 1e be ba d0 6e be
       0.02234278 -0.067112595 -0.15525755 -0.2332181
000320 f4 c3 3e 3e 43 94 77 bd bb 6d 10 39 c7 b2 85 3c
       0.18629438 -0.060444128 0.00013773788 0.0163206
000330 3e 47 51 be c5 db 04 be 50 45 96 be 6d a1 ab 3c
       -0.20437333 -0.1297446 -0.29349756 0.020950997
000340 5c 17 2d bd c9 5f 88 3e 7f 52 bd 3d 25 5c 2d bd
       -0.042258605 0.26635578 0.092442505 -0.042324204
000350 34 36 cc 3d 11 16 3a bd 34 77 c6 3e c9 28 74 3e
       0.09971276 -0.0454312 0.3876282 0.23843683
000360 4c a0 85 3e ce 03 9b 3d 2a ff af be 18 81 c3 be
       0.2609886 0.07569085 -0.34374362 -0.38184428
000370 13 da 96 bc f9 a4 91 3d 6d bd a6 bc be cf 37 be
       -0.018414533 0.07111544 -0.020353997 -0.17950341
000380 3e 59 06 3e 30 90 55 3d 6c 63 07 be 5a cc 0b 3e
       0.1311998 0.05213946 -0.1322152 0.13652173
000390 28 b7 97 3d 7b 01 93 3d e6 10 23 bb 3d fb a6 be
       0.07407981 0.07178017 -0.0024881898 -0.32613555
0003a0 09 2d 9c bd 25 3c d7 3c fc 95 ee 3c a1 2a a2 3d
       -0.07625777 0.026273796 0.029124252 0.07918287
0003b0 ea 60 c1 bc b5 a1 5b 3d 46 c6 5c bd ff 2a 3c bd
       -0.023605783 0.053621013 -0.053900026 -0.04593944
0003c0 c7 22 c2 bc c6 08 d2 3c 8a 26 c1 bc fb 76 c7 3a
       -0.023698224 0.02563895 -0.023577947 0.0015217954
0003d0 eb 95 93 3d a6 27 92 3a 9c 1f 80 3d 9d d0 a0 3b
       0.07206329 0.0011150732 0.06256029 0.004907681
0003e0 6e 7c 91 bc 42 7f 74 3a 2f 7b f9 3c 46 38 9a bc
       -0.017759528 0.0009326824 0.030454246 -0.018825661
0003f0 9f bb 4a bc 30 fe e9 3d 06 4c 35 be f3 b8 2a 3d
       -0.012373834 0.114254355 -0.17704782 0.041680288

bias f4 [128]
000000 c3 a3 51 bc c2 c0 ab 3d b5 83 09 be d1 af 12 be
       -0.0127953915 0.08386375 -0.13429148 -0.14324881
000010 fd 5e 8f bc 48 eb ac 3c 22 0c b0 bd cf a3 d5 bc
       -0.017501349 0.021108285 -0.08596064 -0.026079087
000020 2d e9 5b be 56 9c 38 3c 0f f7 d3 3d cb 9e 07 be
       -0.21475668 0.011267742 0.10349857 -0.13244168
000030 bc 80 76 bd c8 04 a3 bd 6c 49 f1 3c b2 6c fc 3c
       -0.060181364 -0.07959896 0.029453956 0.030813549
000040 21 24 93 38 9a 33 24 be f4 e3 0f be 5e 7a 11 3d
       7.016236e-05 -0.1603531 -0.14051801 0.03551709
000050 6f 34 bf bc 78 e0 89 bc 68 23 85 3d e2 47 35 be
       -0.023340432 -0.016830668 0.06500894 -0.17703202
000060 0a fa d4 bd 89 9d bf bd a6 18 ec 3b 12 57 a0 bd
       -0.10399254 -0.09356219 0.0072050868 -0.07829107
000070 83 b4 87 3d 6e b5 82 bd bc ed 2e 3d 11 af 47 be
       0.06626227 -0.06382261 0.04270719 -0.19500376
000080 2b 60 68 bd 47 b1 02 be 4c d6 35 3d 38 5a 42 bd
       -0.056732338 -0.12762938 0.044393823 -0.04744932
000090 51 41 5b 3c 6c 53 d1 3b 35 9d 07 be 75 82 13 bb
       0.013382272 0.0063881185 -0.13243563 -0.0022508178
0000a0 65 45 29 3d 25 52 15 bd 9b 5e 8a bd 2d c0 9e bd
       0.041325945 -0.036455292 -0.06756326 -0.07751498
0000b0 b9 fe c9 bd a6 2b c7 bd 22 a0 db bd 52 d9 09 be
       -0.098630376 -0.09725122 -0.10723902 -0.13461807
0000c0 aa 5f 9a bd 17 ad 3b be 87 b7 6a be c8 6d e1 bd
       -0.07537778 -0.18327747 -0.22921573 -0.11007267
0000d0 75 6e 67 bd 69 89 ff 3c 89 0e cd 3c 6f 00 32 be
       -0.056501824 0.031193452 0.025031345 -0.17382978
0000e0 98 75 be bd 54 81 27 3d e8 4e 08 3c 57 62 6b 3b
       -0.09299773 0.04089482 0.008319594 0.003591677
0000f0 87 2f 11 be f5 c8 e4 3c 75 cc 8b 3d 29 36 bd bd
       -0.14178286 0.027927855 0.068261065 -0.09238846
000100 7b 43 1b bc 15 c5 32 bb a3 5a df bd 9f 22 18 be
       -0.009476538 -0.0027278115 -0.109059595 -0.14856957
000110 ba ee 93 3d 41 64 02 be 80 9a 2f be ef 59 9a 3b
       0.07223268 -0.12733556 -0.17148781 0.004710428
000120 5d 01 28 bd 2d 5b 18 be 67 28 21 bd 8e c7 e6 bd
       -0.041016925 -0.14878531 -0.03934517 -0.11268531
000130 eb 42 ad bc b1 5c 22 be 18 95 57 bd d0 6c 9d bd
       -0.021150073 -0.15855671 -0.05263242 -0.0768677
000140 21 dc 4d bc 12 04 f1 3d 9a f0 80 3d 5c 2e 26 3d
       -0.01256469 0.117683545 0.06295891 0.040571555
000150 58 9f d8 bd 93 43 cd 3d a2 6c 22 be 4b bc f8 bd
       -0.105772674 0.100226544 -0.15861753 -0.12145289
000160 88 31 22 bb ac bf 9f 3d 4d b3 f3 3c e8 f1 db bd
       -0.0024748761 0.078002304 0.029748583 -0.10739499
000170 01 f4 0d be f9 e2 1b be 48 7a 30 be a3 0c d4 bd
       -0.13862611 -0.15223302 -0.17234147 -0.10353973
000180 a3 ef 59 bc 90 c3 2e be b9 9d 62 3d 41 b4 be bd
       -0.013301763 -0.17066789 0.055326197 -0.093117245
000190 26 b2 88 3d ce 74 23 bd b2 20 56 be 90 dd f9 bd
       0.06674604 -0.039906316 -0.2091091 -0.12200463
0001a0 00 05 04 3c 1d f1 02 be d9 39 cf bd e2 bc 33 3c
       0.008057833 -0.1278729 -0.101184554 0.010970326
0001b0 3d 7f 0a bd 3e 63 10 be 0d 35 f9 bd 05 16 eb 3b
       -0.03381275 -0.14100358 -0.12168322 0.007174256
0001c0 13 79 db bd 72 a9 03 be 29 c9 a5 bd ec 5b 8f 3d
       -0.107164524 -0.12857607 -0.08095009 0.069999546
0001d0 30 fd 2a 3d 78 46 97 bc 78 1f 9f 3b a9 98 89 3d
       0.041745365 -0.01846622 0.0048560463 0.06718571
0001e0 74 b8 69 bd c0 6d 34 be 5c 45 1e be db b8 04 3d
       -0.057060674 -0.17619991 -0.15456146 0.032402854
0001f0 57 5e 2d be 81 8b 8c bd 47 84 8c bd 8e 5a 37 be
       -0.16930519 -0.06862546 -0.068611674 -0.17905638

weight f4 [128, 128]
000000 9b 44 ca bb 4d b2 a3 be 15 b1 e7 bd 40 e8 22 be
       -0.006172729 -0.3197197 -0.113130726 -0.15908909
000010 35 f6 a8 be e5 3e f2 3d 60 34 34 be e0 20 ce 3d
       -0.3300034 0.118284024 -0.17598104 0.10064864
000020 56 3f 4e 3e 71 76 45 3d 06 d3 87 be db 42 ab be
       0.20141348 0.048208658 -0.26528186 -0.33449444
000030 d9 76 04 be 8f 7b 54 3d c7 85 10 3e cb 1b 1b 3e
       -0.12935962 0.051875647 0.14113532 0.15147321
000040 c9 08 05 3e a2 df 89 be 60 ee 9d 3d d0 61 2a be
       0.12991633 -0.2692843 0.07711482 -0.16638875
000050 92 9e 22 be 03 90 24 bc a4 f0 b4 bd f6 d4 bc be
       -0.15880802 -0.010044101 -0.08834961 -0.36881226
000060 8d 32 ee 3e e8 5b 4c bc 12 b5 37 be 98 cf 18 bd
       0.46522942 -0.012473084 -0.17940167 -0.03730735
000070 f5 0b 09 3e 28 8b a0 3d 2b e6 a9 bc a5 b9 c7 3c
       0.13383467 0.07839042 -0.020739635 0.024380514
000080 90 37 80 3d 93 3e d8 3d 0c b5 08 be 4c 68 f1 3d
       0.06260598 0.1055881 -0.13350314 0.11787471
000090 34 8a 80 be ca bc 12 3e 8d cb e7 be c3 cf cd bd
       -0.2510544 0.1432983 -0.45272484 -0.10049393
0000a0 aa 13 c2 be d8 07 08 3e d0 79 70 3d 71 43 a2 be
       -0.37905627 0.13284242 0.05870992 -0.3169208
0000b0 c6 d3 95 bd 3b 13 8b be 4b 5e 97 be 60 b7 d8 bd
       -0.07315783 -0.2716311 -0.29564127 -0.10581851
0000c0 01 aa ca 3d 3a 72 31 3d 7a 83 ad bd 75 1d c6 3c
       0.09895707 0.043321826 -0.08472343 0.024183968
0000d0 53 2a bb bd 45 2a 08 bf 98 e2 bc 3d 25 9e 08 be
       -0.09138932 -0.531895 0.09222907 -0.13341577
0000e0 34 67 ff 3c 73 dc 48 3e aa cc 1d be ca ba 27 3e
       0.03117714 0.19615345 -0.15410104 0.16379848
0000f0 17 46 98 be 19 90 c3 3d cd ef 3c be b7 8f de 3d
       -0.29740974 0.09548969 -0.18450852 0.10867255
000100 66 13 84 bc 7e 3e 0e 3c 20 f2 bd be d4 89 ca 3d
       -0.016122531 0.0086818915 -0.3709879 0.0988957
000110 98 a8 26 be d8 38 f3 3d 5d e4 57 be 1b 1e 82 bd
       -0.16275251 0.118760765 -0.21083207 -0.063533984
000120 ab 73 33 be 7d 60 6c bb c1 be 3f bb 3b df 0f 3d
       -0.17524593 -0.0036068254 -0.0029257985 0.035125
000130 03 73 f5 be 59 46 a6 3e 2a 1e 59 bd 3b f1 bd 3d
       -0.4793931 0.32475546 -0.053007282 0.09274527
000140 03 7e c0 be 14 80 e5 be a3 ea 91 be 57 aa b4 3d
       -0.3759614 -0.44824278 -0.28499326 0.08821552
000150 4c 48 4e bd 8c 6d 4c 3d 86 bb 6a be e9 1b 33 3e
       -0.050361916 0.04990916 -0.22923097 0.17491116
000160 98 d0 31 be 09 3c 7d bd ab a0 37 3d 15 51 13 be
       -0.17364728 -0.061824832 0.04483096 -0.14386399
000170 ba 82 d5 bb 38 d6 96 bc ca ba a7 be 1f 71 88 be
       -0.006515828 -0.018412694 -0.32759696 -0.26648805
000180 49 fc 15 be 61 6a 86 3e d9 83 b6 3d a1 d3 8d be
       -0.1464702 0.26253036 0.08911867 -0.27700523
000190 32 c6 84 be f3 cb 05 3c 2a 4d 1c be 5f d9 22 be
       -0.2593246 0.008166301 -0.15263811 -0.15903233
0001a0 0f 79 df bc 96 28 ab 3a e9 f2 8f be 1c 05 1b bd
       -0.027279405 0.001305836 -0.28115013 -0.03784667
0001b0 7b 0e 28 be 7f 38 8e bd 5e 26 d2 bd c5 45 c2 bd
       -0.16411774 -0.069443695 -0.10261224 -0.09485964
0001c0 f5 4a 3a be 4c d3 ef bd 1e d3 d9 bd 27 53 85 bd
       -0.18192656 -0.117102236 -0.106359705 -0.06510001
0001d0 26 a8 cf bd 2a e3 ec be db e7 4d be 66 56 ad bd
       -0.10139494 -0.46267062 -0.20107977 -0.08463745
0001e0 51 12 ba 3b 24 71 4d be 04 8b 66 bc e8 4a 6c 3c
       0.005678453 -0.20062691 -0.01407123 0.014422156
0001f0 e9 05 f5 be 13 ea 5c 3c 69 ff 82 3d d2 07 84 3d
       -0.47856072 0.013483542 0.06396372 0.06446804
000200 e8 d2 c4 bc b1 dd 63 3d 18 ae 5d 3e dc aa 02 3d
       -0.02402635 0.055631343 0.21648443 0.031901225
000210 8f b7 70 3e e5 c9 51 be 25 d9 ed 3d bd e5 9a be
       0.23507522 -0.20487173 0.11613683 -0.302534
000220 69 db 84 bd 01 45 46 bb 45 df 3d 3e 56 09 b0 3d
       -0.06487162 -0.0030253532 0.18542202 0.08595531
000230 53 01 8e 3e 9b 21 a3 bd d8 5b db bd d3 8b a7 3d
       0.27735385 -0.07965394 -0.10710877 0.08180966
000240 c0 1f 93 be 0a 8a c7 bd 96 c5 61 3e a2 0c ef bd
       -0.2873516 -0.09743126 0.2204803 -0.116723314
000250 ba dd 46 3d db c7 0b be c6 40 18 3e 30 88 c0 3d
       0.0485513 -0.13650458 0.14868459 0.09400976
000260 ff 99 b4 3d 1c bd 8a bd 4a 23 8a be 76 cb 5b be
       0.08818435 -0.06774351 -0.26980048 -0.21464333
000270 cb a3 e5 3d 95 2d be bd fa 5b 2b 3e 20 a6 d5 be
       0.11212882 -0.09286038 0.16734305 -0.41728306
000280 e6 71 0f 3d a5 8b 58 3a 08 40 e1 bd ff 9d 68 3d
       0.03502073 0.0008260555 -0.10998541 0.0567913
000290 29 3d e3 3b a8 c7 0c bc 39 81 7f be 56 13 e5 bd
       0.006934781 -0.008592524 -0.24951638 -0.11185329
0002a0 ae 50 3e 3d 88 8e 34 bd 2f 44 1e be 0c 44 73 3d
       0.04646366 -0.04408124 -0.15455697 0.059391066
0002b0 cc 0a a9 3b 4e 03 86 3e b4 91 4c be f9 1b 03 be
       0.005158758 0.26174396 -0.19977456 -0.1280364
0002c0 c3 fd 78 be 68 f6 11 3e 42 9b 3a 3e 82 c5 79 3c
       -0.24315552 0.14254153 0.18223289 0.015244843
0002d0 3f fc ef bb 0d 6c e7 3d 66 2f 84 be bb fe 13 bb
       -0.0073237712 0.11299906 -0.25817412 -0.002258225
0002e0 c6 0f 93 ba d9 0a 9c bd e5 c6 5c be 77 58 ed bd
       -0.0011219911 -0.076192565 -0.21560247 -0.11589139
0002f0 bd 99 ff bd 55 52 47 bd 06 37 0b be d5 82 9a bd
       -0.12480495 -0.048662502 -0.13595209 -0.075444855
000300 13 fa 2f 3d 24 e9 f3 bc 0e 99 d9 3d 84 cc 33 bc
       0.0429631 -0.029774256 0.10624896 -0.010974053
000310 3c 4d 01 be 22 37 55 3c c7 b6 fc bd fe 9a 42 be
       -0.12627119 0.013013633 -0.123395495 -0.19004437
000320 21 bf 9e bd ec da 3c 3e 1f cd 4a bc b2 7d 05 3e
       -0.07751299 0.18442887 -0.012378006 0.1303623
000330 fc 02 2d 3d 80 f4 3b 3e 89 97 dd 3d 28 d0 73 bd
       0.042239174 0.18354988 0.10819919 -0.059524685
000340 7a 34 f0 bc 87 29 8c be 96 2f 89 3d b1 eb 9a bd
       -0.029321898 -0.27375433 0.066985294 -0.07564486
000350 02 b1 02 3d e1 33 b4 3e 83 53 16 bc be ad 92 be
       0.03190709 0.3519583 -0.009175184 -0.2864818
000360 e6 b4 f9 bd 94 e7 11 3d 01 ee 57 be 82 55 8e bb
       -0.12192707 0.03562124 -0.21086885 -0.0043436894
000370 79 e6 b0 3c fd 25 86 bd 6f 00 49 3d ed 3b 4a 3e
       0.021594273 -0.065502144 0.04907268 0.19749422
000380 23 cc da 3d c8 ef af bc 3d f2 a9 3d 1b b6 36 3d
       0.10683467 -0.021476641 0.082981564 0.044607263
000390 bf b2 56 3d 03 12 09 3e 97 6f 99 bd 11 77 a0 3d
       0.05241656 0.13385777 -0.07491987 0.0783521
0003a0 75 e3 15 bd 0d 1d 04 3e 45 9a 1d 3d c8 de d2 ba
       -0.036593873 0.12901707 0.0384772 -0.0016088123
0003b0 e5 a2 c1 3d 86 5c 71 3e f9 29 e3 3c 3f c4 86 3a
       0.09454898 0.23570451 0.027729975 0.0010281875
0003c0 57 9f b0 3d 07 b6 0b bd 47 78 2f bd d5 f2 79 bd
       0.08624142 -0.03410914 -0.042839315 -0.0610226
0003d0 75 7a 04 3e a5 9c d0 bd dd 8e d7 3d a3 f7 8d 3d
       0.12937339 -0.101861276 0.10525296 0.069319986
0003e0 50 54 a2 bd 86 34 2b 3e 0a 9d b7 3d d0 63 51 be
       -0.079262376 0.16719255 0.089655 -0.20448232
0003f0 71 56 95 bd ae 31 82 be 11 aa 8a be 42 b9 83 bd
       -0.07291878 -0.25428528 -0.27082875 -0.064318195

bias f4 [128]
000000 69 34 92 bd 76 74 d6 bb 5c a4 15 be bf 20 ae bd
       -0.07138903 -0.006544645 -0.1461348 -0.085023396
000010 b9 6e b0 bd bb 70 3c bc 8d a2 20 3c 7f 5c c8 bb
       -0.08614869 -0.011501486 0.00980438 -0.006114542
000020 75 87 93 bd 47 56 d6 bc 90 d1 b5 bc 9a e1 76 3d
       -0.07203571 -0.026164187 -0.022194654 0.060273744
000030 91 78 95 bd 81 bb f8 bd 7d f1 dd bd 42 20 92 bd
       -0.07298387 -0.121451385 -0.10837076 -0.07135059
000040 38 11 18 be b1 32 21 bd de 5e 55 bd 14 00 13 be
       -0.14850318 -0.039354984 -0.052092426 -0.14355499
000050 44 5c 08 be a8 8d 8b b8 11 26 a1 bd 7a d0 dd bc
       -0.13316447 -6.654422e-05 -0.07868589 -0.027076948
000060 9a 7a 54 3d a1 96 9f bd ca 4e bb bd 7a 36 7f bd
       0.051874734 -0.07792402 -0.09145887 -0.062307812
000070 0e 1a 14 be 0e 5a 99 bd 4a c8 0d 3d 98 f2 46 bd
       -0.14463064 -0.0748788 0.03461484 -0.0485712
000080 41 73 1c 3d bd 8a b9 3c 46 41 eb bd 7f 16 d4 bd
       0.038195852 0.022649163 -0.11487059 -0.10355853
000090 30 97 37 bd 30 e7 c7 3a e0 c5 c1 bb dd 6f 87 bd
       -0.044821918 0.0015251394 -0.005913481 -0.06613133
0000a0 fd f4 24 3d d6 3f 8a bb 6b 40 14 be a2 43 80 3d
       0.0402727 -0.0042190356 -0.14477699 0.062629
0000b0 cc a7 76 3d f3 21 7f bd 2c a2 a3 3c 26 93 2d 3d
       0.060218617 -0.062288236 0.01997479 0.04237666
0000c0 95 d1 3f 3c 1c 7c 83 bd 22 0a 94 bd 41 89 de bd
       0.011707683 -0.06420156 -0.07228495 -0.10866023
0000d0 93 72 92 bd cc 6e 8d bd 9f 66 80 bd b4 d9 db bd
       -0.071507595 -0.069058985 -0.062695734 -0.10734883
0000e0 13 4b ea bd d5 c2 cf bd 5e 28 2e bd d1 e4 b0 bd
       -0.114401005 -0.10144583 -0.042518966 -0.08637393
0000f0 31 25 2b bc 95 81 3c bd e8 18 93 3d d1 9c 21 bd
       -0.010445879 -0.046022017 0.07182485 -0.039456192
000100 df 55 07 3d 9f be 8d bd 58 73 01 be eb 3c 38 3c
       0.033040877 -0.06921124 -0.12641656 0.011244993
000110 df 1a 4b bd f3 a1 3d bd 65 87 0f be ca cb db bd
       -0.049586173 -0.046297025 -0.14016493 -0.10732229
000120 79 76 e0 3b 69 9c 11 3d 2d db 00 3d ad ab 94 bc
       0.0068500605 0.035549555 0.031459022 -0.018148268
000130 92 d8 7d bd 1f d5 00 be 34 2e bc bd 5d 2b 86 3c
       -0.061974116 -0.12581299 -0.091885 0.0163781
000140 2e c8 4c 3c 79 bf bc bd 7d 63 a6 bd 37 ec 81 bd
       0.012498898 -0.09216208 -0.08124445 -0.063438825
000150 32 c8 2e bd 20 ef 14 bd 80 bc e8 bd fc ee 9d bd
       -0.04267139 -0.03636086 -0.113640785 -0.07711598
000160 3b 5a e6 bd e2 18 67 3d ed 01 ec 3c 03 9e 18 3d
       -0.11247679 0.056420214 0.028809512 0.037260067
000170 3b 84 ee bd bd 0e 8f bd 37 00 fc bd 53 00 b5 bd
       -0.11646315 -0.06985233 -0.123047285 -0.088379525
000180 2b 42 86 bd 4e d1 f7 bc 1c 26 aa bd 3f 6b b9 bb
       -0.06555589 -0.030251171 -0.0830805 -0.0056585367
000190 8a 6c fd bd 83 63 b1 bd 46 49 9c bc 48 49 e1 3c
       -0.12374218 -0.086615585 -0.019077908 0.027500764
0001a0 4c f1 75 bc 0d f3 79 bd 27 de 84 bd 44 cb 8a bd
       -0.015011143 -0.061022807 -0.06487685 -0.06777051
0001b0 1b ac 80 bc b1 17 dc 3d fa 3a 49 be 8d ec be bc
       -0.015707066 0.10746706 -0.19651404 -0.023306156
0001c0 ab 3f 1f 3d 4d 45 9a bd e6 41 77 3d 39 a0 b6 bd
       0.038879078 -0.07532749 0.06036558 -0.08917279
0001d0 4f dc fc 3c 24 00 96 3d 51 00 be bd af ae b2 3b
       0.03086677 0.073242456 -0.09277404 0.005452953
0001e0 2b 81 57 bd ff d9 50 bd c6 82 18 3d 60 77 2f 3d
       -0.05261342 -0.050989147 0.03723409 0.042838454
0001f0 02 b2 75 bc bb bb 3e 3c 34 f1 e2 3c 31 36 ce bd
       -0.014996054 0.011641438 0.027702905 -0.1006893

weight f4 [128, 128]
000000 e1 37 0e be 01 12 bc be ae e6 52 bd 45 79 69 3d
       -0.13888504 -0.36732486 -0.051489525 0.057000417
000010 f9 51 68 be dc ad b6 3d 24 1c 0b be e6 3e d9 bd
       -0.2268752 0.0891988 -0.13584954 -0.106077
000020 cc 04 83 bd 29 7a a3 be 46 f7 21 be ad 77 cf bd
       -0.06397399 -0.31929138 -0.15816984 -0.10130248
000030 6f 0b 89 be 1d f6 65 bd aa e4 3d bc 51 b9 29 bd
       -0.26766536 -0.056142915 -0.011590162 -0.041436497
000040 7f 8e 3c 3e 28 14 69 3e de aa 40 bd a3 10 ad be
       0.18413733 0.22761595 -0.04703795 -0.33801755
000050 57 d0 31 3d af 38 e7 3c cc 6b 74 bb 22 39 64 bd
       0.04341158 0.028225271 -0.0037295697 -0.05571855
000060 13 fe 8f be c0 5a e2 3c 6e 54 50 bd 67 33 58 3d
       -0.2812353 0.027631164 -0.05086177 0.052783396
000070 28 c4 29 bd 2d 61 ef bd b6 20 e3 3c 6b 66 11 3e
       -0.041446835 -0.11688457 0.027725559 0.14199226
000080 5c ba ff bd 8f 9b 31 be c4 14 27 be 21 ae 1b bc
       -0.12486717 -0.17344497 -0.16316515 -0.009501965
000090 50 82 98 bc 46 8a 6f 3b f9 e7 e2 bd b9 5c 4e 3e
       -0.018616825 0.0036550923 -0.110794015 0.20152558
0000a0 82 4f d3 bc fc c1 f6 3c 39 c3 a6 be 2d ad a3 bd
       -0.025794748 0.030121796 -0.32570818 -0.07992015
0000b0 42 3a 77 be 8b fb 7b bb cd bb 9f be 33 cf 14 bd
       -0.24143317 -0.0038449492 -0.31197968 -0.036330413
0000c0 09 93 6a be c9 e8 2a 3e cb 28 4f be 4e 91 bf bc
       -0.22907652 0.16690363 -0.20230405 -0.023384716
0000d0 14 7d d4 3d cb f3 77 bd e6 12 99 3d 6d 31 65 be
       0.10375419 -0.060535233 0.07474308 -0.22382136
0000e0 8f 32 0e be 29 83 a2 bd a4 e7 a0 be f4 73 96 be
       -0.13886474 -0.07935173 -0.31426728 -0.2938534
0000f0 dc 46 aa be 6a f2 6b 3d f1 47 72 bc cd cb 39 be
       -0.33257186 0.05760423 -0.01478766 -0.1814415
000100 e4 30 d6 3d 1e f1 87 be 72 4a 23 3e 6f 23 ee bd
       0.10458544 -0.26551145 0.15946367 -0.11627852
000110 84 2b 21 be 86 05 a9 3d c0 a3 22 be e4 11 61 3c
       -0.15739256 0.08253007 -0.15882778 0.013737176
000120 34 91 5a be 4a 8f c3 bd 06 90 46 be d0 b9 f3 bd
       -0.21344453 -0.095488146 -0.19390878 -0.11900675
000130 8d d3 73 be 89 a6 03 3e ea 75 17 3d 8c cd 07 be
       -0.23811169 0.12856497 0.036977686 -0.13262004
000140 3c d4 db bd 3f a5 7c bc 82 9c 28 3c 54 ea d3 bc
       -0.1073384 -0.015420257 0.010291221 -0.025868572
000150 71 a4 af be 74 d8 b8 3e 49 7b ac be 07 c5 5f be
       -0.34305146 0.3610264 -0.3368781 -0.21852504
000160 28 66 27 be 7f 8e 05 be 21 7a 17 3e f5 7b 27 bd
       -0.16347563 -0.13042639 0.14792682 -0.0408897
000170 dd 94 31 be 61 2c 61 bd 4b 82 8e 3c 22 12 7d bd
       -0.17341943 -0.054973964 0.017396113 -0.06178487
000180 f4 e5 7a bd ba e3 ad bc 94 36 19 3d b1 68 bd bb
       -0.061254457 -0.021226753 0.037405565 -0.0057803025
000190 37 d9 6e bd 55 4e 6d be 62 cb 5b be 3c 07 6d bc
       -0.05831262 -0.23174413 -0.21464303 -0.014467057
0001a0 5e 1e 05 bd fa d5 1c be 10 de 68 3d fe 78 42 bd
       -0.032499664 -0.15316 0.0568524 -0.04747867
0001b0 a7 5f f7 3c 19 ad a9 be 40 2b 1d be 65 38 d7 3d
       0.030196978 -0.33139876 -0.1534853 0.10508803
0001c0 ff 20 a1 3d 5c d8 21 3c 3b 6a d4 be 85 95 f6 bd
       0.07867622 0.009878244 -0.41487297 -0.12040237
0001d0 32 dc ce 3c 33 1e 81 be 22 6a 2c 3e 73 f7 19 be
       0.025251482 -0.25218353 0.16837361 -0.150358
0001e0 90 f7 25 3e d4 6b 9f 3e 87 ef c8 bd d4 c2 a9 bd
       0.16207719 0.31136954 -0.09811311 -0.08289114
0001f0 82 c4 74 be 15 be a1 be 6d 98 9f be fe ef e9 bc
       -0.23903087 -0.31590334 -0.3117098 -0.02855682
000200 30 d7 36 be 65 69 99 3d 4b 9a b4 bd 42 16 f2 bb
       -0.17855525 0.074908055 -0.088184915 -0.0073879072
000210 f7 1f 3f 3e aa 0a 15 be 9e b7 f0 bb 0c 7f 32 3e
       0.18664537 -0.1455485 -0.0073461076 0.17431277
000220 b7 84 38 3e a1 2d 83 3c 36 13 fe 3d bd f1 7e be
       0.18019377 0.016012968 0.12406008 -0.24896903
000230 90 18 c7 3d 44 52 8a 3e 31 4d 13 3e 53 0e 05 3e
       0.09721482 0.2701589 0.14384915 0.12993746
000240 99 e1 0c bd 4e 54 fe bc 47 85 03 3d bc 92 14 3d
       -0.034394834 -0.031046059 0.032109525 0.03627275
000250 6d a1 16 bd 54 a8 80 bc 41 92 9b 3d 6f 4f 63 3d
       -0.03677504 -0.015705265 0.07596255 0.055495676
000260 0e 78 8e 3d 3f 7c d0 3d 49 2f 46 3d 50 56 09 3e
       0.06956492 0.10179948 0.04838494 0.13411832
000270 6f 69 6c 3d ca 61 80 3e 04 1a b5 3b 54 c9 f0 3c
       0.057717737 0.25074607 0.005526783 0.029392876
000280 ea a4 44 3d 78 2a bf b9 c2 db 02 3e a8 7c 5a 3e
       0.048008837 -0.00036462 0.12779143 0.21336615
000290 07 37 27 3e fd 9e e1 3d 5a 58 56 3d d5 7b 2c 3e
       0.16329585 0.11016653 0.052330352 0.16844113
0002a0 41 a0 b7 3d 86 d5 eb bc 84 b1 7d be bf 70 9c 3d
       0.08966113 -0.02878834 -0.24774748 0.07638692
0002b0 ec 40 f9 bd a9 ff 04 3d 3d e3 13 be b1 36 16 3e
       -0.12170586 0.03247038 -0.14442153 0.146693
0002c0 64 66 8e 3e 58 e0 04 bd 78 b8 be 3d 3d ba fb 3d
       0.27812493 -0.032440513 0.09312528 0.122913815
0002d0 b0 bf 80 3d 95 f7 e1 3d 60 99 0a 3e 5c 00 6d bd
       0.062865615 0.11033551 0.1353507 -0.05786167
0002e0 e9 37 0a 3e 02 b5 18 bd 5c 4c f6 3d 27 f7 a9 3d
       0.1349789 -0.037281998 0.12026283 0.08299094
0002f0 f6 5f 9a 3d c0 38 3b 3d 5c 72 30 3d a2 9d 22 be
       0.07537834 0.045708418 0.04307781 -0.15880445
000300 c5 b5 f4 bd 61 8b 4f 3e 58 07 0d 3d 4b 32 a8 3d
       -0.11948732 0.20268013 0.03443083 0.082127176
000310 46 44 f5 bd 84 5e b2 3d 93 96 7a be b1 13 c2 3d
       -0.11975913 0.08709434 -0.24471502 0.09476412
000320 67 73 d0 3d a9 e1 ca 3d c0 10 06 3e 15 a4 35 be
       0.10178261 0.099063225 0.13092327 -0.17738374
000330 c0 c8 27 bb 35 14 b4 3d 5b 2d 2c 3e 68 eb 9a 3e
       -0.0025601834 0.08792917 0.16814177 0.30257726
000340 c1 d8 2e 3e 91 25 36 3e ef c0 41 bc b7 a0 ae 3d
       0.17074873 0.17787768 -0.011825784 0.08526748
000350 b7 04 73 3e e3 80 25 bd 72 0d 64 3d 73 68 21 3e
       0.23732267 -0.04040612 0.055676885 0.157625
000360 5c 1d 1e 3e 0c cc 39 3b f6 73 bc bc f5 58 9c 3e
       0.15440887 0.0028350381 -0.023004513 0.3053662
000370 1b 43 2f 3d 66 21 b0 3d 2e c7 02 3e 14 b2 05 3e
       0.042788606 0.0860012 0.12771294 0.13056213
000380 31 53 eb 3d 54 d0 d6 3d 1d be 92 3e 5f bf 47 3e
       0.11490477 0.10488954 0.2866067 0.19506596
000390 aa 3f 13 3e 34 ff 52 3e bc b6 4c 3e 1a 16 2b bd
       0.14379755 0.20605165 0.19991583 -0.041769125
0003a0 31 e9 90 bd 5a 05 b4 3d a0 04 71 3d 64 5f 67 3e
       -0.07075728 0.08790083 0.0588423 0.22594982
0003b0 9c f2 6d 3e 52 3f f9 bd 79 ba 30 3d 61 a6 83 bd
       0.2323708 -0.121702805 0.043146584 -0.06428219
0003c0 e2 72 33 3c 2c 33 60 bd 12 93 05 3d 09 86 ff 3d
       0.010952683 -0.0547363 0.03261096 0.12476737
0003d0 12 0e f7 bc 8f 96 36 3b e7 8a 38 bd 0c 10 22 3e
       -0.030158076 0.0027860736 -0.045054343 0.15826434
0003e0 ee 8d 4b be 16 8a 6e 3d 18 12 39 bd bd 1e 25 be
       -0.1987836 0.058237158 -0.04518327 -0.16125007
0003f0 97 cc a6 3c 1a 33 83 3b 87 21 1f 3c f2 86 72 3d
       0.020361228 0.0040038945 0.009712583 0.059210725

bias f4 [128]
000000 87 4a e8 3c 09 bb 8b bd 71 f7 e5 bd 30 74 ea bd
       0.02835585 -0.068227835 -0.11228836 -0.11447942
000010 a4 85 da bc 76 26 c5 bd 6a 9b 1c bd 20 48 34 3b
       -0.026675053 -0.096264765 -0.038234152 0.002750881
000020 de d3 d4 bd 01 8f 34 bd 4f 4b e9 3c 00 2e 36 be
       -0.10391973 -0.04408169 0.028478293 -0.17790985
000030 9a 5b ca bd 54 ba 6e bd c7 fc 8f bd ec 7a 7f 3d
       -0.09880753 -0.058283165 -0.07030635 0.062373087
000040 4b 35 a9 bd 3d df 0b 3d 17 53 39 be ff d9 1a be
       -0.08262118 0.034148443 -0.18098103 -0.15122221
000050 59 30 09 be bb ef 4a be b6 ca 23 3e bd d2 f7 bc
       -0.1339735 -0.19818012 0.15995297 -0.030251855
000060 0f d9 e4 bd 3e fc 2c 3c 6d c8 ac bd 8f 2d f7 3c
       -0.11174213 0.010558186 -0.08436666 0.030173091
000070 aa 27 b7 bb 34 02 c4 bd 76 7f 63 bd a2 2a 4e be
       -0.005589445 -0.09570733 -0.055541478 -0.2013345
000080 b4 22 93 bd fc 89 07 3e 5b d1 ce bd e6 f3 b4 3a
       -0.071843535 0.1323623 -0.10098525 0.0013805598
000090 f0 0e c2 3d b6 6c 07 bd fc e6 0b be f8 97 08 be
       0.09475505 -0.03306266 -0.13662332 -0.13339221
0000a0 01 9d c4 bd 09 9d f1 bd 00 49 45 bd 30 a3 b2 bd
       -0.096002586 -0.1179753 -0.04816532 -0.08722532
0000b0 ab fb 1a 3c ea 27 e7 bd 4f 48 c4 3d 48 66 bf bd
       0.009459416 -0.1128691 0.09584104 -0.093456805
0000c0 ad 1f 06 be 65 64 e9 bd 74 3c 2e be fe b1 62 bd
       -0.13098021 -0.11396102 -0.17015249 -0.055345528
0000d0 2e 9b 12 be 38 b8 03 be a6 c9 3b be 5e 28 20 bd
       -0.14317009 -0.12863243 -0.18338642 -0.039100997
0000e0 80 a9 78 bd ab ab 83 bd 02 9b 8e bd 10 25 35 be
       -0.060708523 -0.064292274 -0.06963159 -0.1768992
0000f0 73 83 b3 3d 48 d6 24 3d 1b 99 93 bd 26 95 84 bd
       0.08765306 0.040243417 -0.07206937 -0.0647376
000100 d1 dc 70 bd c0 c0 d2 bd 1e 14 52 bd b6 75 2f be
       -0.058804337 -0.102906704 -0.051288716 -0.17134747
000110 bc 93 d4 bd d1 e1 64 3d c1 1b c2 bd c7 02 8a 3d
       -0.103797406 0.055879418 -0.0947795 0.06738811
000120 d0 9e e7 bd b7 29 18 be 22 02 b8 bd f9 10 cc 3c
       -0.11309588 -0.14859663 -0.08984782 0.024910437
000130 c1 ce 0d be 83 e2 06 be 16 6b ed bd fa 57 d1 bd
       -0.13848402 -0.13172345 -0.11592691 -0.10221858
000140 4b 71 18 3e 2a 0d 8f 3d 3f 9c 27 3c e5 a2 1e bd
       0.14886968 0.06984933 0.010230123 -0.038729567
000150 19 02 ba bb 53 66 a4 bd 0a 28 fd 3c 6e bb 39 be
       -0.0056765196 -0.08027329 0.030902881 -0.18137905
000160 9b 7d 86 bd 92 fd 5e bd e7 00 d8 bc c4 b3 d0 3c
       -0.06566926 -0.054441042 -0.026367618 0.025476344
000170 5b f1 46 3d e6 ae 29 bd 84 4f f3 bd 67 7a 07 be
       0.04857002 -0.04142656 -0.11880401 -0.13230287
000180 86 97 20 be ca 88 41 3d 0c 81 d9 bd 1a 41 17 be
       -0.15682802 0.047249593 -0.10620317 -0.14770928
000190 7c 37 ab 3c a6 06 08 be 2b 69 f2 bc ad 9e ff bd
       0.02090048 -0.13283786 -0.029591164 -0.12481437
0001a0 21 52 d7 bd 80 12 e4 bd 40 93 b1 bd 5e 2e 4c bd
       -0.10513712 -0.11136341 -0.08670664 -0.049848907
0001b0 85 5e 08 3e 92 50 b7 bd e0 fc d2 bd 5c 61 01 be
       0.13317306 -0.089509144 -0.10302138 -0.12634796
0001c0 f2 38 d9 bd 4c 3b eb bd fa 9c 74 bd 3a ed a0 bd
       -0.106065646 -0.11485919 -0.059720017 -0.078577474
0001d0 d8 95 8c bd 1f 2b 07 bc fc db 08 be 0d 4e da bd
       -0.06864518 -0.008250027 -0.13365167 -0.10659418
0001e0 a8 ab 22 3e 3c b1 e4 bd 93 ad 4e bd c3 ce d6 bd
       0.15885794 -0.11166617 -0.050458502 -0.104886554
0001f0 a3 8f 9c 3c 7f ec 32 3d 4c 7e 7b bd be 78 b8 bd
       0.01911146 0.04368257 -0.061399743 -0.09007405

weight f4 [128, 128]
000000 49 7b 0c 3e d7 02 1e bd bb 24 27 be 7e ec 0c 3d
       0.13718905 -0.038576927 -0.16322605 0.034405224
000010 cc 68 e0 bd 9d 68 42 bd 5d c7 e9 3b 9d 57 8d 3d
       -0.109574884 -0.04746305 0.0071343617 0.069014765
000020 61 0c a6 bd 79 15 8c bc f8 51 45 be b4 26 e7 bd
       -0.0810783 -0.017100083 -0.1926955 -0.11286679
000030 77 eb b4 3c 84 61 a2 bc 50 d8 23 be 58 e1 b6 3d
       0.022084935 -0.01982189 -0.16000485 0.089297
000040 ee 8c 55 be c6 44 92 3d 69 3a 88 bc 0c 7e 8d 3c
       -0.20854542 0.07142024 -0.016629415 0.017272018
000050 fb 77 ee bd 86 c2 83 bd a8 be 25 3d 61 e6 8e bd
       -0.11643978 -0.06433587 0.040465027 -0.06977535
000060 cf e3 1d be 92 ab a5 3d 35 af 2c be 4c 5c db bd
       -0.15418933 0.08089365 -0.16863711 -0.107109636
000070 74 98 d6 bd 21 dd a1 bd 06 0b 74 3d 2b a5 d6 bb
       -0.10478297 -0.07903505 0.059580825 -0.0065504513
000080 e0 b7 15 be 07 da 82 3c dc 71 ad bd 5c 81 04 be
       -0.14620924 0.015973104 -0.084689826 -0.12939972
000090 cf d2 50 3d 2a 0e 88 3d 45 d0 29 be dc 7a 95 bc
       0.050982293 0.066433266 -0.16583355 -0.01824706
0000a0 35 12 10 3d 3c ce 0d b8 76 a4 5e 3d e0 c6 36 3b
       0.035173614 -3.380909e-05 0.05435606 0.0027889535
0000b0 10 72 31 3d ca 01 05 3e 01 62 ab 3d 16 b1 a7 3b
       0.04332167 0.12988964 0.08368302 0.005117546
0000c0 42 77 0c bc 01 cd 87 be cd ca ae 3c d5 41 a5 bd
       -0.008573355 -0.26523593 0.021336937 -0.08069197
0000d0 89 94 51 bd f2 e4 5f bd 4c 98 e5 bd 07 88 84 be
       -0.051167045 -0.0546617 -0.11210689 -0.2588503
0000e0 f7 41 8f bc 3f 09 d8 bd 2a 99 a2 3c 63 c5 48 bb
       -0.01748751 -0.105486386 0.019848425 -0.003063523
0000f0 13 2a e0 3c 1a 60 5e bc 49 80 93 bd 79 c3 32 bd
       0.027363813 -0.013572717 -0.07202203 -0.04364345
000100 e7 55 96 bd ac 3d 23 be 42 32 97 bd 42 4b 70 bd
       -0.07340603 -0.15941495 -0.07382633 -0.05866552
000110 f0 d9 ae bd ba 5b 8d 3d 0e cf 30 bd 08 c2 b9 bd
       -0.08537662 0.06902261 -0.043166213 -0.09070212
000120 3c db 81 bd d6 af 7a bd bd 37 a9 3c 00 ef 24 be
       -0.06340644 -0.061202846 0.02065646 -0.16106796
000130 ad 84 2d bd eb 2a 05 3c 9e ac 25 bd d0 71 68 be
       -0.042362858 0.008127908 -0.040447824 -0.22699666
000140 9d 40 15 3d e3 0e 19 3d e5 63 04 be 04 04 9f bd
       0.036438573 0.037367713 -0.12928732 -0.07764438
000150 c4 d5 98 3d 71 5a ff bd 0b 37 58 bd db e5 19 be
       0.074626476 -0.12468422 -0.052786868 -0.15029089
000160 63 e1 0c be ed ad 2f be ff 7c e5 bd 3c fa e5 bd
       -0.13757853 -0.17156191 -0.11205482 -0.11229369
000170 95 f3 f3 bd 52 e3 96 bd 17 a4 a1 3d 5b 93 c7 bd
       -0.11911694 -0.07367577 0.07892626 -0.09744903
000180 8c 04 a5 bd c0 03 88 3a b5 8a 83 bc 35 95 17 be
       -0.08057508 0.0010377094 -0.016057352 -0.14803012
000190 ea 8d 92 bd 1c 4b b9 bd 13 63 b1 bd 25 21 a4 bd
       -0.07155974 -0.09047529 -0.08661475 -0.08014134
0001a0 d3 22 a3 3d 87 6a ea bc a1 9f 28 be d5 71 13 3c
       0.079656266 -0.02861525 -0.16467144 0.008999308
0001b0 c8 7e 4e 3d de 75 e4 bd 8d 37 52 bd 25 42 37 3d
       0.050413877 -0.11155294 -0.05132251 0.044740815
0001c0 bb 4b 80 3d d3 a1 e9 bc 2b 71 40 be 5a bc d0 bd
       0.062644444 -0.028519547 -0.1879317 -0.10192175
0001d0 90 aa 2e bc 3e fa d3 3b 2e 80 06 bd 19 24 29 be
       -0.010660782 0.00646904 -0.032837085 -0.16517676
0001e0 8b 50 b9 3d 6f 5f cb bc 24 32 16 be 57 d1 5f 3d
       0.090485655 -0.02482578 -0.14667565 0.054643
0001f0 29 a6 e8 3c 4f e6 98 bd 82 73 4f 3d 13 0e 85 bd
       0.028399544 -0.07465803 0.050647266 -0.06496825
000200 79 2a 78 be 79 48 58 bd b0 f6 26 bd 4e e3 08 3c
       -0.24234952 -0.05280349 -0.040762603 0.008354975
000210 f2 52 7b 3d 56 2b 8f bd 4a 11 1e bc 17 0a f0 bd
       0.0613584 -0.069906875 -0.009647677 -0.117206745
000220 b4 f3 67 3d 15 d9 10 3d 9a 23 30 bc 7b ea cf bb
       0.056628898 0.035363276 -0.010750676 -0.006345091
000230 db c5 61 bd d3 9b df bd 8a ca 0d be 87 f8 62 be
       -0.05512033 -0.10918393 -0.13846794 -0.22165118
000240 5e b6 97 3c b7 d4 ed bd f3 99 1b 3c 23 d9 58 3d
       0.018519577 -0.11612838 0.009497154 0.052941453
000250 79 d7 d5 3d c9 f5 90 bc ff 1b ec bd 8f c0 08 bd
       0.10441489 -0.017695324 -0.11528777 -0.033386763
000260 1c 13 12 bd 79 e3 20 be c0 61 01 be 79 10 d7 bd
       -0.035662755 -0.15711774 -0.12634945 -0.10501189
000270 ed ee c8 3d 7b 38 9f 3d 8a 99 4a bd 9c 35 bf bd
       0.098111965 0.07774445 -0.049462833 -0.09336397
000280 cc c9 15 3a 22 24 ab bd 78 9f 05 bd 7d 96 75 3a
       0.0005713969 -0.08356501 -0.032622784 0.0009368433
000290 b9 e7 49 be e0 86 81 be b4 cf a3 3c 3d f9 90 3d
       -0.19717301 -0.25298214 0.019996502 0.070787884
0002a0 ab bd 8f 3c 2a af cf 3d 34 52 1f 3b c2 8c 48 bd
       0.017546495 0.10140832 0.0024310471 -0.048962362
0002b0 ee fd a3 bd 37 9c ff 3c 1e f8 18 3d 90 40 e1 3c
       -0.080074176 0.031202419 0.037345998 0.027496606
0002c0 e8 8b f0 3d f4 99 12 3e 64 7e 52 bd 3d 4d 52 3e
       0.11745435 0.14316541 -0.051390067 0.20537277
0002d0 c9 98 f2 bb d7 58 09 3e 14 d8 56 3d bd cd 25 3e
       -0.0074034673 0.13412796 0.052452162 0.16191764
0002e0 ad da 26 3d 22 aa 32 3b 1d 33 ef 3c 2c 93 02 bd
       0.04073589 0.0027262052 0.029199177 -0.031878635
0002f0 9a 2a 1b be 3c 75 35 bd 2e 6e 9c bc 02 84 b7 3c
       -0.1515297 -0.044301257 -0.019095507 0.022401813
000300 a4 fe 13 be 99 60 66 3d 9d 44 1d 3d 3e 9c 41 3e
       -0.14452606 0.056244466 0.038395513 0.18907258
000310 02 08 ec bc 8d 52 5e be bb 98 3c 3c b1 91 84 3d
       -0.028812412 -0.21711178 0.011511023 0.06473101
000320 2a 6c 47 3b 73 b2 32 3c 93 52 13 be bd 16 44 be
       0.003042946 0.010906803 -0.14386968 -0.19149299
000330 e1 b7 68 bd 00 ce c4 39 bb c1 d2 bc fe ab 91 bc
       -0.056815986 0.00037537515 -0.025727144 -0.017782208
000340 6f 9e 0e be f8 51 eb bc ea 6b 52 3c 3a cf 16 3b
       -0.13927625 -0.02872561 0.0128431115 0.00230117
000350 4d 82 6d bd 49 a7 b0 3d 0f 9f bb bd 44 4c 0d 3e
       -0.057985593 0.08625657 -0.091611974 0.13798624
000360 b9 84 93 3b 35 0c a6 bc c4 3a 48 3d 5b 3e 91 3d
       0.0045019058 -0.020269493 0.04888417 0.070919715
000370 8f 75 d4 bd 34 48 07 bd ef f6 84 bd f0 33 26 3d
       -0.10373985 -0.033027843 -0.06492411 0.040576875
000380 7e 17 9e bc cf 61 91 bd 9f 99 13 3c 04 f0 36 3d
       -0.019298311 -0.07098734 0.009008794 0.04466249
000390 6e c9 bf bd 28 c8 31 3d 3f f1 d0 3d 36 7e 43 3d
       -0.093645915 0.043403774 0.10202264 0.047727786
0003a0 49 ff 90 3d ad 7a 65 3b 90 e7 28 bd 5e 9c 04 ba
       0.07079942 0.0035015747 -0.04123646 -0.0005058701
0003b0 9e 8f 2f be 4e 30 fb 3c a0 db 99 3d ee a9 f8 3d
       -0.1714463 0.030662682 0.07512593 0.121417865
0003c0 6a 90 90 bd ee 3d 88 3c 71 36 51 bd 3c 73 97 3d
       -0.07058795 0.016631093 -0.05107731 0.07395026
0003d0 2f 0e 99 3d 80 1f e0 3c c2 71 0f bd 50 04 7f 3e
       0.074734084 0.02735877 -0.035020597 0.24903989
0003e0 92 0e 38 3b 6a 43 a5 3c f6 36 50 3c 30 60 dd bb
       0.0028084856 0.020173747 0.012708416 -0.006755851
0003f0 07 2b f5 bc 69 1a 98 3d 5b 2d 3f 3d ec 3d de 3d
       -0.029927744 0.07426912 0.046674114 0.108516544

bias f4 [128]
000000 45 11 1b bd c0 44 9c bd b7 04 d3 3c 3f 9a 74 bd
       -0.037858266 -0.076303005 0.025759084 -0.059717413
000010 d2 e8 c8 3c aa 5f c6 bd 1a 97 08 be 7b 42 aa bd
       0.02452508 -0.09686215 -0.1333889 -0.083134614
000020 5f 20 c6 bd 1b 98 01 be ec 65 ab bc a4 0e ec 3d
       -0.09674143 -0.1265568 -0.020922624 0.1152623
000030 84 30 4f bd 96 73 aa bd ee 71 92 bc b5 7f a8 bc
       -0.050583377 -0.083228275 -0.017876592 -0.020568708
000040 bd a9 b4 bd bb 31 91 bd 52 28 a2 bd 62 5d 85 bc
       -0.088214375 -0.070895635 -0.07917847 -0.01627988
000050 ed 0c c9 bd 66 89 a7 bd f1 68 c1 bc 31 dd c9 bd
       -0.098169185 -0.081805035 -0.02360961 -0.09856642
000060 f3 9f 48 3d af 3d 34 bd e4 02 83 bd 1e 46 b3 bd
       0.048980664 -0.04400414 -0.06397036 -0.08753608
000070 53 a5 f3 bd 3d b0 8b bd 54 3c 15 be 1b 7b be bd
       -0.118967675 -0.06820724 -0.14573795 -0.09300824
000080 8b fd 46 bd 0c 47 f5 bd b9 9b c0 bd e4 d3 67 bd
       -0.04858164 -0.11976442 -0.09404702 -0.05659856
000090 b7 3a 8e bd 4e 4c b9 bd 95 fb 07 3d f6 17 04 3d
       -0.06944793 -0.09047757 0.03319891 0.032249413
0000a0 f2 e9 98 3d 20 7c be bc b8 ed 8d bd 47 6a 00 bc
       0.074664965 -0.023252547 -0.06930107 -0.0078378385
0000b0 da 3b 2c bd b6 88 e7 bd 02 38 d6 bd 5b fb 29 be
       -0.042049266 -0.113053724 -0.104599014 -0.16599791
0000c0 3d 87 d4 bd 29 e9 11 bd 66 c7 a2 bd 80 52 10 3d
       -0.10377357 -0.03562275 -0.079481885 0.035234928
0000d0 0a 2c 92 3d 20 58 b0 bd 3f a3 ff bd 16 3b d5 bc
       0.07137306 -0.086105585 -0.124823086 -0.026029151
0000e0 b5 22 68 bd 29 65 eb bd d3 2d 8c bd dd 2a 2d bd
       -0.056673724 -0.11493904 -0.06844678 -0.042277206
0000f0 fc 0e d7 bd 30 28 36 bd 84 5c 59 bc b8 0b 98 bd
       -0.10500905 -0.04447192 -0.013266686 -0.0742411
000100 25 1d 0d bd e2 b0 c2 bd 51 95 98 bd 93 b1 be bb
       -0.034451623 -0.09506394 -0.07450355 -0.0058195083
000110 c1 6a 71 bd 69 52 e0 3c ed 58 00 be 9b cc 87 bd
       -0.0589397 0.027383046 -0.12533922 -0.06630822
000120 26 85 9b bd a6 83 fc 3c 0e 2b 33 bd 72 7b cd bd
       -0.075937554 0.030824494 -0.043742232 -0.10033311
000130 d1 01 b9 3d 36 32 19 bd b3 e8 0a 3d d3 41 59 bd
       0.090335496 -0.0374014 0.033913326 -0.05304129
000140 11 09 da bd dc 75 43 bd d7 b2 90 bc f9 77 0e bc
       -0.106462605 -0.04771982 -0.017663402 -0.008695596
000150 b5 0e d7 3b 45 55 ef bd d6 6d 07 be b6 da 3f 3c
       0.0065630325 -0.11686186 -0.13225493 0.01170986
000160 43 f2 77 3b cb be 0c be 35 0b 7c bd 68 34 5c bd
       0.0037833608 -0.13744657 -0.061534125 -0.053760916
000170 5d 6c 00 be 65 7e c5 bd 8c db fb 3d 01 91 87 3d
       -0.12541337 -0.096432485 0.122977346 0.06619454
000180 dc c1 ab bd fc e9 1b 3e 83 4e d4 bc 1a d0 03 be
       -0.08386585 0.15225977 -0.025916344 -0.12872353
000190 60 82 04 bd 6c db 1d bd 2a 6c 95 bd 99 7f 95 bd
       -0.032350898 -0.038539335 -0.07296021 -0.07299728
0001a0 fd c5 aa bd 8c 68 b9 bd 02 25 8d 3d a9 fb 22 be
       -0.083385445 -0.09053144 0.06891824 -0.15916313
0001b0 58 c6 15 be b1 04 7e bd 75 cc e4 bd 31 bb a0 bd
       -0.14626443 -0.062016193 -0.111718096 -0.07848204
0001c0 21 32 9c 3d ef 13 be bd d1 bf a0 bd aa dd 4f bd
       0.07626749 -0.09281146 -0.07849086 -0.050748505
0001d0 c7 04 dd bd 66 13 ec bd c7 0b b4 bd ac 4d ac bd
       -0.10791927 -0.115271375 -0.08791309 -0.08413252
0001e0 7b 25 c3 3c 33 ee e3 bd 72 52 84 3d 76 8f 1d be
       0.023821583 -0.11129417 0.06461038 -0.15386757
0001f0 48 f1 0c be 6e 82 e4 bd 00 9a e1 bd 89 1c 03 bd
       -0.13763916 -0.1115769 -0.11015701 -0.032009635

weight f4 [128, 128]
000000 0f 40 39 bd d6 d7 c3 bd b4 bf e5 bc cf 05 08 be
       -0.045227107 -0.09562652 -0.028045513 -0.13283466
000010 aa 19 09 bd 78 29 1c 3e 60 8d ba 3c fa df 12 bd
       -0.03347174 0.15250194 0.022772491 -0.035858132
000020 79 cf 3c 3c 84 7d 88 3d f7 bb 83 3c dc 16 ec bc
       0.011524075 0.06664565 0.01608084 -0.028819494
000030 f5 a4 b6 bd b0 72 97 bd f3 9d 02 3d 47 9c 99 bd
       -0.08918182 -0.07394922 0.031888913 -0.07500511
000040 8c 90 2f 3c 25 e5 35 bd c9 85 73 3d 9f 88 e0 bd
       0.010715615 -0.044407982 0.05945376 -0.109635584
000050 19 33 75 bd 59 55 53 3d 59 4b 0b 3e 55 76 b4 3c
       -0.059863184 0.051595066 0.13602962 0.022029081
000060 c5 e7 d5 3d ad 37 2e 3c aa c9 08 bd 23 86 a4 bd
       0.10444597 0.010633391 -0.033395447 -0.08033397
000070 3a 13 9f 3c 78 f5 0e 3e 24 cb a1 bd f6 17 ad bc
       0.019418348 0.13960826 -0.07900074 -0.02112959
000080 fb 97 89 3d e4 b6 59 3b c4 8e bc bd 8f 38 90 3d
       0.06718441 0.0033220584 -0.09206918 0.07042038
000090 4b 49 52 3d 63 d2 9e bc ac 32 f6 bd ee 9a ae bd
       0.05133943 -0.01938743 -0.12021384 -0.08525644
0000a0 6a 4e c1 bd db 1f d6 bd 44 8d e8 3d 08 1e f2 bd
       -0.094387844 -0.10455295 0.11355069 -0.11822134
0000b0 84 aa 1a 3d 36 5a 59 3c 58 b7 7c 3d 62 dd b8 bc
       0.037760273 0.013266137 0.061698288 -0.022566501
0000c0 7a 97 a4 3d 6c e1 5d 3d 75 89 89 bd 94 d3 15 bd
       0.08036704 0.054170057 -0.06715671 -0.03657873
0000d0 6a ee 2a 3d ba d9 aa bd e9 8f c3 bc d9 d2 b2 3c
       0.041731276 -0.08342309 -0.023872333 0.021829056
0000e0 78 b5 71 3d ba b6 5f 3c 8c 32 a9 bd 9d 9a 31 bd
       0.059010953 0.013654405 -0.08261594 -0.04336034
0000f0 ca 90 cf bd 2d 00 a1 bd 42 fd 83 3d 33 63 89 3d
       -0.10135038 -0.07861362 0.064447895 0.06708374
000100 da c2 30 3e c2 57 17 be 95 04 d7 3c fa 81 dd bc
       0.1726183 -0.1477957 0.026247302 -0.027039517
000110 aa 67 30 3d 8f 6d a6 3d ed d3 16 be 5a 2d 4e bd
       0.04306761 0.081263654 -0.14729281 -0.05033622
000120 d4 03 df bd a9 f0 33 bd 02 dd 4e be 79 c0 81 3c
       -0.10889402 -0.043930683 -0.20201495 0.015838848
000130 10 81 df bc 6a a4 0f bd e4 4f 33 3c 0f 86 c5 bc
       -0.027283221 -0.035068907 0.01094434 -0.024111776
000140 17 0b 6d bd a0 55 73 bb b9 3c 67 bd 78 48 bf bc
       -0.057871904 -0.0037129894 -0.056454394 -0.023349985
000150 b8 0d c5 bd fb 20 dc 3d 38 94 93 bd 97 b2 b3 3c
       -0.09621757 0.10748478 -0.07206005 0.021935744
000160 72 d6 ae bd a8 5c 1a 3d ed 83 87 bd 96 5c bc 3c
       -0.08536996 0.03768602 -0.0661696 0.022993367
000170 9c 83 17 3d f4 95 88 bd ee 2d aa 3d 23 90 52 3d
       0.036990747 -0.06669226 0.08309542 0.05140699
000180 af 04 31 bd 9e 43 03 bd 8d 57 59 bd 97 20 c9 bb
       -0.043217357 -0.032046907 -0.05306201 -0.006137918
000190 28 47 d8 3b 81 82 50 3d 80 5d 50 bc af 77 0f be
       0.0066002794 0.05090571 -0.012717605 -0.140105
0001a0 3c b1 aa 3c cb 1a aa 3d b2 26 e5 bb 77 47 96 3b
       0.020836465 0.083058916 -0.006993138 0.004586156
0001b0 3a dd 53 bd 32 2f f3 bc 63 00 1e 3d 57 73 12 3e
       -0.05172465 -0.02968559 0.038574588 0.14301811
0001c0 d2 4e 0b 3e b5 51 2e be 48 26 be bd 34 16 e2 ba
       0.13604286 -0.17023356 -0.09284645 -0.0017249049
0001d0 6f 26 ae 3d 9d c4 69 3d 15 a6 d0 bd 28 ba 89 3c
       0.085034244 0.05707227 -0.10187928 0.016812399
0001e0 e6 48 30 be dd 19 01 3d b1 19 82 bd 54 70 06 3d
       -0.17215309 0.031518806 -0.063525565 0.03282197
0001f0 51 a7 93 3d a2 4c 3e 3d 0a 8a 91 bd 8d fd d6 3c
       0.072096474 0.0464598 -0.07106407 0.02624395
000200 86 8b 92 3d ee 90 1d 3c 18 8b a3 39 f7 cb b2 3d
       0.07155518 0.009617073 0.00031193416 0.087303095
000210 79 34 80 bd 28 c3 96 bc 31 ca 2a 3d b7 3f a1 bb
       -0.06260008 -0.018403605 0.04169673 -0.0049209255
000220 aa ac d6 bc f8 a6 67 3c c0 7e 5b bd c8 76 b8 3c
       -0.02620538 0.01413893 -0.053587675 0.022517577
000230 24 37 b3 3c 39 81 92 3d 21 87 ae bd 59 c8 47 3d
       0.021876879 0.071535535 -0.085218675 0.04877505
000240 b8 68 90 3d 45 25 95 3d bb 8a b2 3c 3a 87 a3 3d
       0.070512235 0.07282499 0.021794667 0.07984777
000250 44 ed d1 bc 65 57 52 bd 00 55 aa bd 3a 2a 62 bc
       -0.025625832 -0.051352877 -0.08316994 -0.013804013
000260 5f 1f 92 bd 04 cb 72 3d 35 fc 46 bc 3b 87 ac bd
       -0.0713489 0.059275642 -0.012145092 -0.08424231
000270 8e 96 b5 bc 1a 87 4a 3d 12 79 02 bc 2b b6 6b 3d
       -0.022166517 0.04944525 -0.007963436 0.057546776
000280 d4 1a 93 3c 11 ad a0 3d 61 0a af bd a2 72 4e bd
       0.017957129 0.0784551 -0.085469015 -0.05040229
000290 02 d4 89 bb de 9a 93 bb 77 c9 1f bd e9 df 84 bd
       -0.0042061815 -0.0045045456 -0.03901049 -0.0648802
0002a0 ee 49 a4 3d e2 98 c3 bb b1 d6 96 3d e1 0a e2 bc
       0.080219135 -0.005969153 0.07365168 -0.027593078
0002b0 22 9f 89 bc bd b0 73 bd 1b 98 a7 bd 8c 36 85 3d
       -0.016799513 -0.059494723 -0.08183309 0.065045446
0002c0 64 2a 5d 3b 07 62 b3 bd a0 6c 16 bc e5 16 85 bb
       0.003374719 -0.087589316 -0.009181172 -0.004061567
0002d0 b8 8a 12 3d 81 23 9b 3d cd a3 91 bd 8e b5 a6 bd
       0.035776824 0.07575131 -0.07111321 -0.081400976
0002e0 06 6c ec 3a ad 55 e2 3c a0 5c a7 bd 21 72 7a 3d
       0.0018037565 0.027628744 -0.08171964 0.061143998
0002f0 c2 6b 8d 3d 18 89 81 3d a5 7c dc bc 9e 5b aa 3d
       0.06905319 0.06324977 -0.026914904 0.08318256
000300 07 85 9f 3c df 04 a1 bd 70 9c 9b 3d a9 19 be bd
       0.019472612 -0.07862257 0.075981975 -0.09282238
000310 43 c1 68 bd 73 da 85 3d 1f 8b 53 bc 31 6f b3 bd
       -0.056824934 0.065358065 -0.012911587 -0.087614425
000320 bd d9 cb 3c 4f f5 c6 bd 1f 9b a6 3d 97 5a 43 3d
       0.0248841 -0.09714758 0.08135056 0.047693815
000330 29 45 6f ba ad 80 36 3d ef 0e 29 bc 55 38 cb 3c
       -0.0009127432 0.04455631 -0.010318502 0.024807135
000340 24 d3 13 3d d5 df 84 bc 89 1a 9e 3d a3 4a 03 bd
       0.03609003 -0.016220013 0.07719905 -0.0320536
000350 04 f0 51 3d dc 8f 42 bd 09 bb 73 3d 81 e9 8f 3c
       0.051254287 -0.047500476 0.059504542 0.017567398
000360 53 f9 32 bd ec 95 85 bd 10 d3 a6 bd a0 fd 9d bd
       -0.043694805 -0.06522736 -0.08145726 -0.07714391
000370 a2 9c 35 bd 52 1c f6 3c 1a 26 29 bd 0e cd 6d 3d
       -0.04433883 0.030042801 -0.041296102 0.058056884
000380 2e 90 ad bc 29 4e 30 3d 3b 85 76 3d 1a 48 f9 bc
       -0.021186914 0.04304329 0.060185652 -0.030429889
000390 b1 eb 33 bd 0c df 3b bd cc 66 15 bd 69 9d 6f bc
       -0.043925945 -0.04586701 -0.036474988 -0.014624932
0003a0 a2 c3 93 3d e1 54 53 bc 41 19 70 3d 87 34 97 3b
       0.072150484 -0.012898655 0.058617834 0.004614416
0003b0 d0 74 c0 3c e0 fe 6a 3b 47 1a 91 bc f7 bf 32 bd
       0.0234932 0.0035857484 -0.017712725 -0.043640103
0003c0 b8 7a 65 bd 61 fe b8 bd 0a f0 ad 3c 1d bf b2 bb
       -0.056025237 -0.09032894 0.021232624 -0.0054549114
0003d0 22 41 76 bd d7 20 80 3b 08 a9 19 3c 1d 61 6e bd
       -0.06012071 0.003910165 0.009378679 -0.058198083
0003e0 ae bd 3a 3c f3 ca d5 bb 0b 8c 39 3c 38 01 b0 3d
       0.011397762 -0.0065244376 0.011324893 0.085939825
0003f0 79 4c 8c 3d e1 26 8f bd 69 36 f1 3c ee 8a a4 bd
       0.068505235 -0.069898374 0.02944489 -0.08034311
